dgmg/model.pth (torch, 94469 bytes, 32 tensors)

weight f4 [1, 16]
00000000: f86b 12be cd05 b53e 4226 87bf 41c5 54bf
00000010: 62f5 a3bd 717d 20bc afd1 bc3e fa53 483e
00000020: b071 d83e 9a51 5a3f 2201 06bd 2bee 0fbe
00000030: 7820 76be d68a 66be c2f3 1b3e f276 79be
-0.14299 0.35355988 -1.055855 -0.83113486 -0.080057874 -0.009795533 0.36878726 0.19563285
0.42274237 0.85280764 -0.032715924 -0.14055698 -0.24035823 -0.22513899 0.15229705 -0.2436178

weight f4 [32, 16]
00000000: 8155 0bbd 4eea 953d 272e 4b3d 40ed 743e
00000010: c2ae 933e ac5f 833d 9f67 e23e c5d4 09bf
00000020: bfb9 2c3d d586 173e 52c3 c7bd 640c 15bd
00000030: af32 fc3c 76ed c6bd 7fd0 a2be 0ca4 5bbe
00000040: cbc0 acbb e424 a2be a522 b13e 2bff 733e
00000050: d066 12bf b610 ab3e 5791 0a3e ce1f 96be
00000060: dd07 2ebd 5ba5 4bbd 40a2 70bd 9e8c 8a3d
00000070: 8af3 9d3e 7a3d 54be 8e13 6dbe b3a2 a73c
00000080: ac4a f83d 825d b93d 6b44 9d3e fa62 423e
00000090: c859 793c fbab 1e3d af7c 483e 2d26 83bd
000000a0: 046e 68bd aae9 473e 850b 5e3e 2978 8bbe
000000b0: 7148 b7bc 3441 72be 3bad 293e 5683 af3d
000000c0: b32b 4b3d b81a d13d 00c7 84be cfa4 973e
000000d0: 22f1 233e 5037 5abe be56 82be 38e3 743d
000000e0: d4ad 123e 0635 1cbe b22b 62be 42a3 40be
000000f0: c35b 63be 1d4d 02bf 06c7 2d3d 9d1a f43d
00000100: 6e94 ab3d 5c34 85be ba34 af3d 720e 8fbe
00000110: 06b1 fa3c c386 263d 3be0 afbe e194 e3bd
00000120: 2067 a5be c1a2 8f3e a35e 693e 8fce 6a3d
00000130: 8a9d 203e f22e c6be 3b4e 7cbe 40c9 ffba
00000140: a904 4e3c 77d4 50be 72e7 9d3e da7f 44be
00000150: 8fdb 4ebe f736 833a 0b00 79bd cc79 e23c
00000160: 8a14 233e ffe2 363e 0d26 05be 4c42 9bbe
00000170: 6188 1e3e 92f8 6b3e d938 1bbe 3f8d 5ebe
00000180: 7167 813c bf93 c73c c111 96bc 50c4 453e
00000190: 0f31 aabe 53ba b1bd 6635 ad3d d0f5 a03e
000001a0: 476b 9b3e 4a3a a7bd ddb1 5abd d1e6 263b
000001b0: 9b41 30bd 8256 9abd 753e 863c 5c67 4fbe
000001c0: 217b 52be 6a0f 8fbe 254e 6b3e e101 b4be
000001d0: 27b6 a0bd 9786 8c3e 0dc2 39be 2e53 5d3e
000001e0: 1c24 90be 2e9c 623e f017 46bd 9b15 a6bd
000001f0: aee1 bebc a0f6 27be 027f b63d 559b 763d
00000200: 1f4f c63b c9f4 ce3d ac65 5ebe 0690 10bf
00000210: ac02 763e cfca aa3c 36c7 9fbd f518 263e
00000220: aaf9 853c 52ca aabe e140 903d 8341 3f3c
00000230: b2c0 ae3c 0406 b73d ae15 ae3e a139 fa3d
00000240: c1e0 f83c 846b 07be 0955 24be 1c93 a03d
00000250: a13b 9fbe a9d6 bf3d 8ab0 cbbc b8c1 503e
00000260: 471d e83d fede 043e ddb0 b83d 5ce7 cabe
00000270: 5b12 82bc d0fb d7be a08d bbbe 9b2d 7f3e
00000280: d5b8 d83d 5876 1c3d c3ac 2c3e b50c ee3d
00000290: 229b 35bd b29c 32bd f30a 07bc 10d2 e2bc
000002a0: b991 9b3d 43d9 763e ea79 563e 2928 83be
000002b0: b148 ddbd 5277 cf3e d71b 92bc 4e57 67be
000002c0: afbe cfbd 5c31 73be 2e18 2dbe fec7 ad3d
000002d0: 7114 c8be bf1d 873d e8da d43d 0e66 fabd
000002e0: 37d7 b6bd 4f64 4abe 2d05 793d 9109 b53d
000002f0: 32da 67be 9346 ebbd 678a a6be 0f9a 043e
00000300: 1bcc 36bc 32b5 aebe 15ac 953e 04d3 b1be
00000310: c7ca b9bc 973c a8bd 2fa5 033f a5e1 b5bd
00000320: d07a 60be 7222 0abe e89c be3d 57e9 bb3d
00000330: 0949 8ebe f600 e83d 9f91 63bc f4f2 f33c
00000340: e331 81bd 90d8 70be d65c 95bc 1ca0 67be
00000350: a2ba 2d3b ad44 2b3e 58d1 d23d 97d7 dfbd
00000360: a16d e83d c023 dcbe 56c9 433e 94b6 69bd
00000370: c43a 13bc db86 843e a4e6 0e3e ad5a 13be
00000380: 02e2 c7be 24d7 5c3e 6214 0fbd 9253 4f3d
00000390: e681 663c 9e7f 853d 60e1 3c3e 5d00 f5bd
000003a0: 3007 84bd fe5b 7d3d d704 0a3e 37de b73e
000003b0: 967d 313e b299 fabe d687 8ebb 362a 0bbd
000003c0: e25d 99bd a380 6b3d 262b 8c3e 2ced e13e
000003d0: b34a 67bb b91e abbe 72e4 e2be 7643 4a3e
000003e0: 7dfd bc3e 399e bf3d 9c0a 193e 3967 0fbd
000003f0: aeee 7a3e eb19 9dbe 5a05 30be 4389 0d3e
-0.03401709 0.07320081 0.04960456 0.23918629 0.28844267 0.06414732 0.44219682 -0.53840286
0.04216933 0.14797528 -0.09754051 -0.03638877 0.030785887 -0.09713261 -0.31799695 -0.21449298
-0.005272006 -0.3166877 0.34596744 0.23827808 -0.5718813 0.33411187 0.13532005 -0.2932114
-0.042487968 -0.049718242 -0.058748484 0.06765102 0.30849868 -0.20726576 -0.23151991 0.020463323
0.121236175 0.09051038 0.3071626 0.18983069 0.015219159 0.038738232 0.19578813 -0.06403766
-0.056745544 0.1952273 0.21684082 -0.27240112 -0.02237341 -0.23657686 0.16569988 0.08569972
0.04960222 0.10210174 -0.25933075 0.29617926 0.16009954 -0.21310163 -0.25456804 0.059787005
0.14324123 -0.15254602 -0.22086981 -0.18812278 -0.22202973 -0.50898916 0.04242613 0.119191386
0.0837792 -0.2601651 0.08554979 -0.27940708 0.03060199 0.040655863 -0.34350762 -0.11112381
-0.3230524 0.2805386 0.22790007 0.057325896 0.15685096 -0.3870769 -0.24639218 -0.0019514933
0.012574353 -0.20393549 0.3084064 -0.19189397 -0.20200942 0.0010010888 -0.060791057 0.027645968
0.15925804 0.1786003 -0.13002796 -0.30324018 0.15481712 0.23044041 -0.15158404 -0.21733569
0.015796395 0.024362443 -0.018319013 0.19313169 -0.33240554 -0.08678117 0.084574506 0.3143754
0.30355284 -0.08165415 -0.05339228 0.0025467167 -0.043031316 -0.07536031 0.016387204 -0.20254272
-0.20554782 -0.27941447 0.22979029 -0.35157683 -0.07847243 0.27446434 -0.18140431 0.21613762
-0.2815255 0.2212989 -0.048362672 -0.0810959 -0.023300972 -0.16402674 0.089109436 0.06020673
0.0060519124 0.10105283 -0.21718472 -0.5646976 0.24024457 0.02084866 -0.07801668 0.16220458
0.0163544 -0.33357483 0.07043625 0.011673334 0.021332119 0.08936694 0.34000915 0.12218023
0.030380609 -0.13224608 -0.16048063 0.07840559 -0.3110018 0.09367115 -0.024864454 0.20386398
0.11333709 0.1297569 0.09018109 -0.39629638 -0.015877893 -0.42184305 -0.3663149 0.24919741
0.10582129 0.0381988 0.16862778 0.116235174 -0.0443374 -0.043606468 -0.008242357 -0.027688056
0.07596154 0.24106316 0.20944944 -0.25616577 -0.108048804 0.40520722 -0.01783554 -0.22591898
-0.10143792 -0.23749298 -0.16903755 0.08485411 -0.39078096 0.065974705 0.103933156 -0.12226497
-0.08927768 -0.19764827 0.06079595 0.08839715 -0.22641829 -0.1148807 -0.32527468 0.12949394
-0.011157061 -0.34122616 0.2923285 -0.34731305 -0.0226797 -0.082146816 0.51423925 -0.08880929
-0.21921849 -0.13489702 0.09307271 0.091753654 -0.27790096 0.11328308 -0.013889699 0.029778935
-0.06308343 -0.23520112 -0.018232744 -0.2261967 0.0026508947 0.16725416 0.102938354 -0.109297924
0.11349035 -0.42996025 0.19119772 -0.057058886 -0.008986179 0.25884137 0.1395517 -0.14390059
-0.39039618 0.21566445 -0.034931548 0.05061681 0.014069056 0.06518482 0.18445349 -0.1196296
-0.064466834 0.06185531 0.13478409 0.35911724 0.17333063 -0.48945385 -0.004349689 -0.033975802
-0.0748861 0.057495724 0.2737667 0.4412626 -0.0035292327 -0.33421877 -0.44314915 0.19752297
0.36912146 0.093563505 0.14945453 -0.03501055 0.24505112 -0.30683836 -0.17189541 0.13821892

bias f4 [32]
00000000: ec3a 5b3e 0b04 6a3f 97e3 403f 1d61 a33f
00000010: c6bb c9be ec6b 36be 9c56 f1bf f1e1 74be
00000020: ebfe 86bf 70b4 4c3f 4dc0 8ebd cece 1dbf
00000030: 5b4b 103f 8ab6 06bf d3fd 80bf 7a65 cd3f
00000040: b631 a7bd bbd1 153f d754 973f c970 263f
00000050: 76e7 c1be acbf 503e 39a8 0bbf 5bd1 d1be
00000060: b726 40bf 9495 533f e7f3 fe3e a59f d53e
00000070: 13ad 2ebf 11e1 b03f 2f33 c73e 710e 1bbc
0.21409196 0.9141242 0.75347275 1.2764012 -0.39401072 -0.17814606 -1.8854556 -0.23914315
-1.0546545 0.79962826 -0.06970272 -0.61643684 0.56364983 -0.5262228 -1.0077461 1.6046593
-0.081637785 0.5852315 1.1822766 0.65015846 -0.37871903 0.20385617 -0.5455356 -0.40980038
-0.75059074 0.82650113 0.49795458 0.41723362 -0.6823284 1.3818685 0.38906237 -0.009463892

weight f4 [32, 34]
00000000: b3bf f13d 72c3 ffbd 2d1f 923d bc77 f5bd
00000010: 2e87 84be ec05 98bb 44d8 d8bd cd39 3bbe
00000020: f3c5 0d3d 02a8 ce3d 4e79 02be 7068 babd
00000030: 51f0 143e cbe5 483c 9ff7 2abd fe14 293d
00000040: 2579 f4bc cf5b 5c3e fb79 9dbd 89af cd3d
00000050: 2531 acbd c82a 4fbd c968 ce3c 01ee e13c
00000060: f252 4bbe a072 d9bd 6848 3c3c db01 2e3c
00000070: 4f54 323d 8072 82bd a177 383e 10f2 a53b
00000080: 3361 2a3e 4c4d 1a3d ed55 3fbe dd3a 92bc
00000090: 5f56 d23d f7f4 853d fa6b eabd 1448 84bd
000000a0: 9671 32bd e159 17be 2562 c9bd f4e0 25bd
000000b0: 53de 4c3e 00e5 ce3d f1ec 8c3d f45e 673d
000000c0: 01e1 713e 87dc 283d e245 2d3e 83e7 a33d
000000d0: b4cf 043e c9e7 313e d9ff c83d d326 a8bd
000000e0: 6a63 4c3d 8cfb 74bc bdc7 c1bd 764c f339
000000f0: 29f4 a03d 2452 1e3e 6079 b33d 09c8 bebd
00000100: 7d9c b13d 1e58 23bd 042f 73bc ded7 c7bc
00000110: 6c34 f93d 7dc6 003e 28fa 6cbc 6a33 b3bc
00000120: deee e73c da86 203d f324 ca3d b682 ae3d
00000130: 6db7 803d bc15 6bbd 2292 86be 3080 b9bd
00000140: 86fa ddbd 2310 e53b e3c7 c93d c991 4fbd
00000150: 9c52 143d 584f e33d 97a4 e53d d19c 3bbd
00000160: 0ded 5cbd d1f8 21be 41aa ccbd 4a63 363d
00000170: b576 cc3d e6b9 d73c ee92 40bc d00f cebd
00000180: ed79 e0bc a95b 373e 4f46 a53d ff0b a03d
00000190: 8e79 103d 832d 50be f5fd d23d 4781 503d
000001a0: 3e0b 31bd 4fbc f93d c87e 333d 4927 ed3d
000001b0: 636b 6fbe 6fb0 0d3d 9ab6 383e 6b88 dc3c
000001c0: c9ce 0d3e 0890 0f3c fc56 503d df15 d6bd
000001d0: 751a 4ebe 4964 b9bd ea7e 83bd 6613 8fbd
000001e0: b339 2abe 373f d2bc 8488 a83c 1cb5 c6bd
000001f0: 2982 afbb 619a 90bd dfbd 55bd 431e bfbd
00000200: d65c cd3d 0e48 4abc c2cf 1bbe b0b0 d53d
00000210: e3da bebd 13da d43c d651 463e ef30 12be
00000220: d5d1 3ebe fd8c 4a3e ed17 8b3d 2262 993b
00000230: ad8f 8bba 801f a2bd fc90 023e a863 d53d
00000240: 75b9 2abe b126 a4bd 1780 54bb df1c 8f3d
00000250: 68c0 173e 3665 93bd 331e e83b 13ab d2bc
00000260: 0ac2 17be 26ca ea3d c4f5 743d ca50 b9bd
00000270: ba4f fbbd 2ba0 8bbd c209 183d 1712 413d
00000280: cd1e 3dbe fe26 053e 8b33 aabd afe7 a9bd
00000290: 7d2f b4bb 79ff 0fbe 33ba 10be fc32 8d3c
000002a0: 8d63 f53d 3465 c33d 9e60 283d acbe d33d
000002b0: 82a6 8ebd db6f e83d 0f9c c4bc 3ecf bebd
000002c0: 20f6 6b3d 9b4a 8cbb 0582 813d e108 af3b
000002d0: b794 1ebe b861 d6bc 5e23 dcbd d5dc 653d
000002e0: c167 c9bc df81 62be 3021 28be 5d62 d2bc
000002f0: 5b2c a8bd 577e 5ebc 2628 74bd 9628 dabd
00000300: 20f7 47bd 9b89 dbbd 0e56 87bc 0682 98bd
00000310: 53eb ce3d 7444 013d 95a0 35be 43b1 86bc
00000320: 01cf 493d dd4b a63d f54a cd3c c9c2 e7bb
00000330: 47a0 30be 5241 99bd 0f7e 0abd 544f 65bd
00000340: 2e69 32bd 3ab1 adbc 38fa 4c3d 22fe 3dbe
00000350: 487b 093e 0a69 cc3d 35ba 193e 6189 b53d
00000360: f435 ad3c 7f59 cd3c d027 79bd 5d79 18be
00000370: 128c 7e3a ef2d d73c 20a0 7e3d 6701 05bd
00000380: 74a6 a53d 4678 f63d 6d9f c0bd 6e88 273e
00000390: f060 883b f05b 06bd d418 0abe 98cc eebd
000003a0: e818 943c e100 723d ac98 72bd f897 e03d
000003b0: f4b9 163e de2b 783c cc55 193e 7936 41bd
000003c0: 34f1 f93c 5b0a eb3c fda5 773e 1218 a03d
000003d0: 1e92 8cbe 9aa0 bb3d 2d6b 9b3d 7441 99bd
000003e0: f244 7d3c 82c8 283e ee6f 19bd 827d edbd
000003f0: 0944 68be f583 07be 85f5 193c c290 debb
0.11804142 -0.1248845 0.071348526 -0.11985728 -0.25884384 -0.004639378 -0.105881244 -0.18283768
0.034612607 0.10090639 -0.12741587 -0.09101951 0.14544798 0.012261818 -0.041740056 0.041279785
-0.029842922 0.21519397 -0.076892816 0.10043246 -0.08407811 -0.05057791 0.02519645 0.02757931
-0.1985586 -0.10617566 0.011491872 0.01062056 0.043537434 -0.063694954 0.18014385 0.0050642565
0.16638641 0.037671372 -0.18685122 -0.017850334 0.1027038 0.06540864 -0.11446376 -0.0645906
-0.043565355 -0.1478038 -0.09833173 -0.040497735 0.20006685 0.10102272 0.068811305 0.05648704
0.23620988 0.041225936 0.1692119 0.08003142 0.12969857 0.17373575 0.09814424 -0.0821053
0.049899496 -0.014952552 -0.09461925 0.0004640554 0.0785907 0.15461022 0.08763385 -0.093154974
0.08672426 -0.039878957 -0.014842752 -0.024394926 0.12168202 0.12575717 -0.014463939 -0.021875102
0.028312143 0.039191104 0.09870329 0.08521025 0.06284986 -0.057393774 -0.26283365 -0.09057653
-0.10838799 0.006990449 0.098525785 -0.05067614 0.036211595 0.11099118 0.11213034 -0.04580385
-0.053937007 -0.15817572 -0.09993411 0.044528283 0.09983579 0.02633376 -0.011753781 -0.1006161
-0.027401889 0.1790606 0.08070051 0.07814788 0.035272174 -0.20329861 0.10302345 0.05090454
-0.043223612 0.1219412 0.04382208 0.11579759 -0.23380809 0.03459209 0.18038407 0.026920518
0.13848414 0.008762367 0.050864205 -0.1045339 -0.2012728 -0.09052331 -0.06420691 -0.06986122
-0.16623573 -0.025664909 0.020572908 -0.097025126 -0.0053560925 -0.070606954 -0.05218303 -0.09331944
0.10027473 -0.012346281 -0.15215972 0.10434091 -0.09319093 0.025982892 0.19367155 -0.14276479
-0.18634732 0.19780345 0.06791673 0.004680888 -0.0010647677 -0.079161644 0.1275062 0.104193985
-0.16672309 -0.08015192 -0.003242498 0.069879286 0.14819491 -0.07197039 0.007083678 -0.02571634
-0.14820114 0.11464338 0.059804693 -0.090486124 -0.12271066 -0.06817659 0.03711868 0.047136392
-0.18468781 0.13003156 -0.08310612 -0.08296143 -0.005498825 -0.14062299 -0.1413353 0.017236225
0.119818784 0.09540787 0.041107766 0.10339102 -0.069653526 0.1134946 -0.024000196 -0.09316872
0.05760777 -0.0042813546 0.063236274 0.0053416346 -0.15486418 -0.026169643 -0.10748933 0.056118805
-0.024585607 -0.22119854 -0.1641891 -0.025681669 -0.08211585 -0.013579926 -0.0596086 -0.106522724
-0.04881966 -0.107196055 -0.016520526 -0.07446675 0.10103478 0.031559423 -0.17737038 -0.016441947
0.04926968 0.081199385 0.025060156 -0.0070727807 -0.17248641 -0.07483162 -0.033811625 -0.055983856
-0.04355734 -0.021202672 0.050043315 -0.18553975 0.13425934 0.09980972 0.15012439 0.088640936
0.02114389 0.02506709 -0.060828984 -0.14890046 0.0009710203 0.02626702 0.062164426 -0.03247204
0.08088389 0.12034659 -0.09405408 0.16360638 0.0041619465 -0.032802522 -0.13486034 -0.11660117
0.018078282 0.05908287 -0.05922763 0.10966486 0.14719373 0.0151471775 0.14974135 -0.04717109
0.030510522 0.028691461 0.24184413 0.07817091 -0.2745523 0.09161492 0.075888015 -0.07483187
0.015458332 0.16482738 -0.03746026 -0.11596204 -0.22682203 -0.13233931 0.009396915 -0.006792159

bias f4 [32]
00000000: 7a4d 173e 305a 22bd b773 b03d 1e1f 57bd
00000010: 4175 c93d 9644 183d e7c6 02be fd8e 103e
00000020: 8051 023d 6da3 edbb 8bb5 f4bd 48c6 2b3d
00000030: 6aa2 35be 643e 943d 7ae9 ca3d 8d48 1dbc
00000040: d4e1 97be ad23 173e a3b1 213c ee58 d1bc
00000050: 4d96 f13c bc32 e3bd d4da 87bd a3a5 09be
00000060: 8091 9cbd dea4 8b3d 08a4 2ebe 5f0f 443d
00000070: 12d9 fe3c af47 d0bd a388 b1bd f2b1 3c3c
0.14775649 -0.03963679 0.08615821 -0.05251991 0.098368175 0.037174784 -0.12771188 0.14117046
0.031816006 -0.007252148 -0.11948689 0.041937143 -0.17737737 0.072384626 0.09907813 -0.009599817
-0.2966448 0.14759703 0.009869012 -0.0255551 0.029490614 -0.11093661 -0.06633535 -0.13442092
-0.076449394 0.06818555 -0.1705476 0.04786622 0.031109367 -0.101699226 -0.086686395 0.011517035

weight f4 [32, 34]
00000000: 9b3c 8ebc fb57 9ebb 19e7 c73d 7d38 90bc
00000010: ee44 31be 17f6 963b e19e ad3d 74d4 a33d
00000020: a040 f8bd 7ee7 b8bd 67b3 0e3e f7c5 40bb
00000030: 49a0 513d 4bcb e53d 8086 d23c d354 dabd
00000040: 43df f73c 802b 35ba 793f 2a3d 98cf 01be
00000050: 3eeb 643d d4b4 3dbe bd5a a0bd f0d3 303c
00000060: f96f 6f3a 38b6 f73d 3057 0c3d c2e0 d2bd
00000070: df8c 933c 5276 b5bd e9a1 afbe 1629 7bbd
00000080: 8047 df3c 81b7 5ebd 6a09 993c 4539 4b3c
00000090: a6ee 613d 345f b1bd 2c97 733e abeb 9fba
000000a0: 7f9f 773d 0795 013e a1d2 53bd d378 4f3d
000000b0: edd2 6c3d f690 43bc d4ad b53d 69f7 fcbb
000000c0: 608e 123d d2ed 31bd bb83 bb3d 0652 803d
000000d0: ad03 a1bd ccaa b6ba 1cb9 73bb a78a 313d
000000e0: 1f79 9c3e d7fb 87bd 031e 9cbd 9c73 2c3d
000000f0: eb5c 9ebb 89de 1a3e d0e0 84bd 4a00 41bc
00000100: 89dd dbbd 8021 1cbe d0ab 30be 2d21 93bd
00000110: 471a 663d 5de7 e63d 9a98 2fbc f526 8fbd
00000120: 8503 433d 9b63 acbb 12f0 29bd f87b f93d
00000130: 909e 0a3e eeb4 433d 7c05 703e 024e bb3d
00000140: 57bf 033e 6508 d03c d261 2e3d c4ec 8c3d
00000150: a8e2 30bd 7eec 2c3b 3d3e 82bd 1d26 2a3d
00000160: 805e ac3d fef0 3dbe 2fd8 8ebd d19a 00bd
00000170: 2e73 31be b691 71bd d498 87bd 6d2f 9e3d
00000180: cd7f dc3c 846f 51bc cf4d 2f3e 2ca1 46be
00000190: 4fc6 f53b d09c 1d3b ea17 853b c9ca 84bd
000001a0: 8e81 ddbb 48d4 603d 2d44 7abd 02fa 37be
000001b0: 1b29 a13d 766e 21bd 5fd4 8c3b 5df5 1bbe
000001c0: 0ab0 d13d f0d7 89bd 4c0c cebc 3365 533c
000001d0: 1cf1 49bc 1df4 8cbd 722b 07be 490d 933d
000001e0: 4983 873c c8ec 823d 7967 63bd e83e e6bd
000001f0: 1cfa 413c c55f 42bd c9c1 83be 2ef5 d6bd
00000200: eb4a eabd ed24 81bd 7654 72bc 50a0 e7bd
00000210: d0eb 9dbc 6ca7 27be 101a 083e 40ac e3bc
00000220: d2fa 45bc a3e9 c4bd bf94 e2bc e559 8d3d
00000230: 41ee 29bb 3f20 733d e66e 413d 3bb8 41bd
00000240: b6c9 adbd ae36 bebd 2ef9 05be deee cf3d
00000250: 13d9 873d 6506 62bd 7c66 143d af6b 363e
00000260: 9e87 2fbe 1cf7 e43c d9aa c83c 9aff f6bc
00000270: 5c35 ee3d 5108 36be 579a 54bd e034 ccbc
00000280: 967e 6b3d 2609 edbd e1a9 22be c882 00bd
00000290: d8f7 2b3d 4645 37bd 2694 493d 1317 48be
000002a0: 0324 903d edb2 173e 1f6c 5c3c 24b8 f13d
000002b0: ffbe b0bd 7557 0dbe e088 1f3d 8b21 c13b
000002c0: 4561 94bd a492 583d db72 d3bc 0288 873c
000002d0: 5806 07be f592 e7bc 1062 013e b4e7 173e
000002e0: 510d 2a3e 35c7 8d3d 3844 acbd 5b76 8fbd
000002f0: 43fe 21be e093 273d 8ac8 24be 28e9 6a3d
00000300: 1697 083d d63a 163e b643 29be d514 373d
00000310: 697e 5cbe 715e 213d ae03 633e 4127 2f3d
00000320: 0285 3b3d 6ee5 173c d68e 98bd a0d0 123c
00000330: 3e3f 0cbe 6d14 31be ced3 203e c806 383e
00000340: 3d20 e23d d6bf 2f3d 8ab7 e7bd 4742 983d
00000350: b44f f2bd e2b7 003e d69e 88bd 94a0 6a3d
00000360: 7141 ac3d eece b53d 8864 0a3d 4491 97bc
00000370: 8a7f f93d 5b40 f33d de30 31be 4fb3 f93d
00000380: e2cc 383e e01b 7b3c 7e5f 243e 7cfb 5f3c
00000390: b3e9 ff3d 098c 983c 0d8d 77bc b051 813e
000003a0: 969b 1c3e 4c45 fd3d ae56 1abe 33cb 9b3d
000003b0: e73e 053e 2a85 363c bf05 b83d bfa3 ffbb
000003c0: db44 b0bd 887a 223e f364 70bd bdb9 083e
000003d0: 0c24 7a3c 30cc 323e 8ecd ebbc 0def ac3c
000003e0: 7781 b83d 54c6 b13c 25a8 183e f324 163d
000003f0: 217f 31bd 5758 4b3e a485 fc3d fd90 8bbd
-0.017362883 -0.0048322654 0.09760875 -0.01760506 -0.17311451 0.004606973 0.08477569 0.079995066
-0.12121701 -0.09028529 0.13935624 -0.0029414871 0.05117825 0.11220416 0.0256989 -0.1066071
0.030257827 -0.0006911084 0.04156444 -0.12676847 0.055888407 -0.18526012 -0.07829807 0.010792717
0.00091338117 0.12095302 0.034262836 -0.102967754 0.018011509 -0.088604584 -0.34303215 -0.06131848
0.027255774 -0.05437422 0.018681247 0.012403791 0.055159234 -0.08660737 0.23788136 -0.0012200972
0.06045484 0.12654506 -0.051714543 0.050652336 0.057818342 -0.011936417 0.08871046 -0.0077199233
0.03578031 -0.043439694 0.09155985 0.06265645 -0.07862029 -0.00139364 -0.0037189191 0.04334512
0.30561158 -0.066398315 -0.07622912 0.04210244 -0.004832854 0.15123953 -0.06488192 -0.011779854
-0.10735614 -0.15247154 -0.17253041 -0.07184062 0.056177404 0.11274598 -0.010717535 -0.06989852
0.04761078 -0.0052608973 -0.041488715 0.12181848 0.1353705 0.04777997 0.23439592 0.09145738
0.12865959 0.025394628 0.042573757 0.06881097 -0.043184906 0.0026386078 -0.06359527 0.041540254
0.08416462 -0.18548962 -0.069748275 -0.031397644 -0.17329094 -0.05897685 -0.066209465 0.077238895
0.026916409 -0.012782935 0.17119525 -0.1939742 0.007500447 0.0024049766 0.0040616887 -0.06483991
-0.006759829 0.054889947 -0.061100174 -0.17966464 0.07869168 -0.039411984 0.0042977775 -0.15230317
0.10238655 -0.0673064 -0.025152348 0.012902546 -0.012325551 -0.068824984 -0.13200167 0.07180268
0.016542094 0.06392819 -0.0555186 -0.11242467 0.011839416 -0.047454614 -0.25733784 -0.10495983
-0.11440071 -0.06305871 -0.014790645 -0.11309874 -0.019277483 -0.1637246 0.13291192 -0.027792096
-0.012083726 -0.09614875 -0.027658818 0.06901912 -0.0025929364 0.059356924 0.0472249 -0.047294836
-0.08485739 -0.09287773 -0.13083336 0.10152982 0.066332005 -0.05518188 0.03623055 0.17814516
-0.17141578 0.027949862 0.024495529 -0.030151177 0.11631271 -0.1777661 -0.051905002 -0.024927557
0.05749377 -0.115740106 -0.15885116 -0.031374723 0.04198441 -0.0447438 0.04921355 -0.19540052
0.07038119 0.14814349 0.013453512 0.118027 -0.086301796 -0.13802893 0.038948894 0.005893891
-0.07245115 0.052874222 -0.025811603 0.016544346 -0.13186014 -0.028268317 0.12635064 0.14834481
0.16606642 0.06922761 -0.08411449 -0.070049964 -0.1581965 0.04091251 -0.16092125 0.05735126
0.03334721 0.14670882 -0.16529736 0.0446976 -0.21532597 0.039396707 0.22169372 0.042762045
0.045781143 0.009271009 -0.07449119 0.008960873 -0.13696 -0.17292948 0.15705797 0.17971337
0.11041305 0.04290756 -0.11314304 0.074345164 -0.118316084 0.12570146 -0.066709206 0.057282045
0.084109195 0.08877359 0.03378728 -0.018501885 0.12182529 0.11877509 -0.17303798 0.121924035
0.18046907 0.01532647 0.16052052 0.013670798 0.124957465 0.018621461 -0.015109313 0.25257635
0.15293726 0.12366733 -0.15072128 0.076071166 0.13012277 0.011140147 0.08985471 -0.0078015025
-0.08606883 0.15867054 -0.058690023 0.13352104 0.015267383 0.17460704 -0.02878454 0.021110082
0.090090685 0.021701016 0.14907892 0.03665633 -0.04333413 0.19857918 0.123301774 -0.06814764

bias f4 [32]
00000000: 2088 0c3e 0c17 4cbd cf5d 5dbd 6d34 593d
00000010: d6dd 373c fbdf 143d e489 f7bd 5c63 4c3e
00000020: 1308 69bd db57 ef3c a51f 263c 6ff3 393e
00000030: 7cfd 26bd 2a11 64bd 8bad 23bd 833a 9bbd
00000040: e7f9 ddbd 59c2 0ebe ab9a a23d fa1e 213e
00000050: 0d76 073e 1fd0 17be a36a 8dbc 3738 143d
00000060: ee10 0dbe cc50 06be 3b31 fcbc c622 edbc
00000070: de5b 07bc ba07 57be f5d3 4f3d 2d1f 7f3d
0.13723803 -0.049826667 -0.05404454 0.053028513 0.011222323 0.036346417 -0.120868474 0.19959778
-0.056892466 0.029216697 0.010139381 0.18159269 -0.040769085 -0.05568043 -0.039960425 -0.075795196
-0.10838681 -0.13941325 0.07939657 0.15734473 0.13228627 -0.14825486 -0.017262762 0.036186423
-0.1377599 -0.13116759 -0.030785194 -0.028947245 -0.008261649 -0.20999041 0.050739247 0.06228559

weight_ih f4 [48, 32]
00000000: dcdb 7a3d fbcf c7be 17e1 3ebd 6a12 79bc
00000010: 6667 1dbe a2f9 eaba 08f9 b8bd 1d4e 2fbe
00000020: f303 d8bd c3f9 9c3d 8b4d 32be 9cf1 84bd
00000030: 7121 22bc fc2e f6bd c6df 0cbd 52ca fab9
00000040: 8f26 3e3e a9dd cc3d 9f2c 4a3e 5bdd 0c3e
00000050: fbe0 e03d e6b1 0fbd 1273 87bd 62f8 d83d
00000060: 5ed1 a23c d62f f43c 7dfa fabd 357c 2d3e
00000070: d8b6 9b3d 0e42 1bbe 102c 8abb ee4a 183e
00000080: 4c15 293d e9b1 0cbe 0fd2 f23d 8737 5e3e
00000090: 4f31 62be aebc 29be 1bab 9abe 15e1 bc3c
000000a0: 24fc acbd 01aa 9bbb 1377 0c3e 8cdd a43c
000000b0: beaf 4ebc 2196 783e c08e 843d 98dd f7bd
000000c0: 702a d6bd 6b5e 663d c4e1 2a3d 10a3 7b3e
000000d0: f78d 72be 559e b3bd ad0f 1bbc f6e4 68bd
000000e0: bac6 0abc e9e8 10be f8a2 15bc f83f 89be
000000f0: f469 47be d14b 12be e353 103e 3479 8c3e
00000100: 63ef 1e3e 07a5 d93d aa5d 933d 131c 143e
00000110: dbf1 07be 54e6 9b3e ca72 183e 8492 03bd
00000120: 6cc9 f73c f64c 5bbe ed78 823e 2084 c3bd
00000130: 9c4a c5bd 74e9 fd3d 6268 28be 7238 ab3b
00000140: 02f3 da3d 51ae 243d 3c5f a9bd 2710 9dbc
00000150: 90e0 aa3e 82b9 6ebe 8036 593d 97be f43d
00000160: c8b0 df3c 7f34 253e a82e 253d 9b51 c03d
00000170: 824a 8abd 19dc 66be 56f2 0dbb c8e8 43bd
00000180: 1d74 81bd c9b8 b63d 620d 7fba 28a2 ce3d
00000190: b35b 163c ca2c cfbd 14ac 91be fd70 963e
000001a0: 1a9c 443e 6ab5 203d 0d11 d4bc 5b74 18bc
000001b0: 922d febc d27c 51be 7a1e 09be 4fe9 1c3e
000001c0: 12f7 0f3e 9131 a53b 4074 b3bd 5fcf 913e
000001d0: a4a8 873e 34d3 c1bd 5f7f fd3d a797 aebc
000001e0: 7699 443e ee71 293e 28eb 343c 0219 3b3c
000001f0: 61f7 b03e ba4f 14bd ba73 203b dae8 a33e
00000200: 15b6 0c3d 26e6 8cbd 42f9 6a3e f1cd b93d
00000210: 0aeb 56bd d1da 83bd 62d4 2abe 7f1b c0bd
00000220: c7d7 cf3d 5a59 0a3e c5aa e93d 629d 503d
00000230: f139 a6bd 9818 2abd ec4e 81be 721e 40be
00000240: 1ed5 6f3e 7779 f3bd 9dfd 9e3d ff48 85be
00000250: 6a5e bc3b be0a 883e 1cea a73d a297 72be
00000260: 289d 5a3d 99cf 2f3e 4166 163d 9b7b 31be
00000270: 06d8 5cbd 523b ce3b 09ec 123e 34a1 023e
00000280: a107 973d c34f b3bc 8b02 2d3d 301e 28bd
00000290: 8d63 8ebe ae95 b23d e15a 9ebd 66e4 f03c
000002a0: 1185 3cbd dec3 723d 6602 29be 8d77 093e
000002b0: 1ef7 523e 0abf 2ebc 932c 44be dc03 9a3e
000002c0: 7b99 8f3d b632 1cbe 31bf 5b3e c80d ddbd
000002d0: 2728 223e d381 dabc e30d 11be 717e 79bd
000002e0: 5cd5 1dbd 3015 77be d7d2 853e c4cb e5bd
000002f0: 04ea 4fbd 216e d1bd c52b 173d 443c 06be
00000300: 820c 893b a7ba fabd 3de9 84be fb4a 9bbe
00000310: 7b23 003e dee4 083e 6c4f 71be 870b e83d
00000320: 42b3 a53d ae62 cbbd 68ed 1f3e 66e1 4c3e
00000330: 48ae 403d 06a1 d2bd d4ac 2cbe bce4 e8bb
00000340: 6b44 50be fcea 60be 10c8 183e e3a0 25bd
00000350: e33e cc3d 441a 153d 0775 01be b757 973e
00000360: fb5f 7c3e 7819 c43d 2426 aa3c 19c5 46be
00000370: b622 27be 6043 68bd dd8b 54be a629 26bd
00000380: d36a 003d 3932 a13d 76a3 33be 28c4 28be
00000390: fb37 083e d489 83bc 6da0 083e 329c 2dbe
000003a0: e52b 513d 98d2 9ebe 6257 f9bd 7022 b13d
000003b0: c1a4 38be 3eb7 ae3d e064 8abe 525d 873e
000003c0: 6feb d93d a7ec 44bc ba6d 073e 457f d53d
000003d0: 20a4 bebe e789 7cbd a8fa 04bd da80 9dbd
000003e0: 83c4 62be 12b7 913e 9aab a83d 0130 b43d
000003f0: b06f e5bd 18aa 3d3c 127b 803c 2c40 9e3e
0.06124483 -0.39025864 -0.04660138 -0.015202144 -0.15371475 -0.001792718 -0.09031874 -0.17119642
-0.10547628 0.07664826 -0.17412393 -0.06491396 -0.009895668 -0.1202068 -0.034393094 -0.00047834456
0.18569396 0.10003216 0.19743584 0.13756315 0.109804116 -0.035081767 -0.06613745 0.1059425
0.019875225 0.029807966 -0.12254808 0.16941912 0.07603234 -0.15161917 -0.0042166784 0.14872333
0.041280076 -0.13739742 0.11856472 0.2170087 -0.22089122 -0.16575882 -0.30208668 0.023056546
-0.084465295 -0.0047504907 0.13717298 0.020125173 -0.012615142 0.2427602 0.0647254 -0.121028125
-0.10457313 0.056242388 0.041719213 0.24573922 -0.23686968 -0.08770434 -0.009464187 -0.05685898
-0.008470232 -0.14151348 -0.009133093 -0.26806617 -0.19474012 -0.14286734 0.140945 0.2743622
0.15521006 0.106271796 0.071955994 0.14463834 -0.13275854 0.30449164 0.14887539 -0.03212215
0.030247413 -0.21416077 0.25482884 -0.09546685 -0.09633371 0.12398043 -0.16446069 0.0052252347
0.10690881 0.040205304 -0.08270118 -0.019172741 0.33374453 -0.23312953 0.05303049 0.11950415
0.027305976 0.16133307 0.040327698 0.09390565 -0.067524925 -0.22544898 -0.0021659336 -0.04782942
-0.06320975 0.08921964 -0.0009729472 0.100895226 0.009177136 -0.10115965 -0.28451598 0.29383078
0.19200173 0.03923551 -0.025887037 -0.009305085 -0.031027589 -0.20457771 -0.13390532 0.15323375
0.14059094 0.005041309 -0.08762407 0.28478524 0.2649585 -0.09464112 0.1237781 -0.021312548
0.19199166 0.16547367 0.011042394 0.011419537 0.34563735 -0.036208846 0.002448304 0.3201359
0.034353334 -0.06879835 0.22946647 0.09072483 -0.052470244 -0.0643822 -0.1668258 -0.093802445
0.10148578 0.13510647 0.11409525 0.050931342 -0.0811652 -0.04152736 -0.25255525 -0.18761614
0.23421142 -0.11888402 0.07763217 -0.26032254 0.0057485597 0.26570696 0.0819895 -0.23690656
0.053372532 0.17169036 0.03671861 -0.17332308 -0.053916954 0.0062936926 0.14347853 0.12756807
0.07374502 -0.02188862 0.042238753 -0.041044414 -0.27810326 0.087199554 -0.077321775 0.029405784
-0.04602534 0.059268825 -0.16504821 0.13424511 0.2060208 -0.010665664 -0.19157629 0.3008107
0.07011696 -0.1525372 0.21459652 -0.10793644 0.1583563 -0.026673233 -0.14165454 -0.0609116
-0.038533553 -0.24129176 0.2613742 -0.11220506 -0.050760284 -0.102260835 0.036906976 -0.13108927
0.0041823993 -0.12242632 -0.25959197 -0.30330643 0.12513535 0.13368556 -0.23565453 0.11330324
0.08090831 -0.09930931 0.15617907 0.20007858 0.047041208 -0.10284619 -0.16862804 -0.0071073454
-0.203386 -0.2196464 0.14920068 -0.040436637 0.09972932 0.036402002 -0.12642299 0.2955911
0.24645989 0.0957517 0.02077014 -0.19411124 -0.16321835 -0.05670488 -0.20756479 -0.040567063
0.031351876 0.07870907 -0.17542824 -0.16481078 0.13302605 -0.016056933 0.13342448 -0.16954115
0.05106725 -0.31020045 -0.1217487 0.086491466 -0.18031599 0.085310444 -0.27030087 0.26438385
0.106406085 -0.012019313 0.13225451 0.10424665 -0.37234592 -0.06165495 -0.032465607 -0.07690592
-0.22145276 0.28459984 0.082358554 0.087982185 -0.11202943 0.011576198 0.015683684 0.30908334

weight_hh f4 [48, 16]
00000000: bc7f 513c 3c1a adbd 94a1 71bd 4ff9 e33d
00000010: 0a88 ad3d e8a6 95bd c3ca 283e 3d46 833d
00000020: 6531 fc3d fd19 103e dc4f 0e3e d2a6 e3bd
00000030: 8967 993d 3009 bdbd 00d8 813d b528 17be
00000040: d480 0dbc 204a 9fbb ac37 1fbe cbc4 75bd
00000050: 39cd d2bc b91c 103e 9929 c1bd 5503 de3e
00000060: fe49 163d 9cc5 d4ba 3933 09be 2f22 0b3e
00000070: ccb3 0f3e 536d 3fbe fdaa 2a3e d9d8 683e
00000080: b377 54bd 6c21 d73e eec8 f8bc 3ba0 ddbc
00000090: 4690 5dbe f585 82be b5f1 e93b 10bf 443d
000000a0: 0bee f43d c7b8 5f3e ef60 1abe 19fe 0d3d
000000b0: 4e59 073c 7e38 62bd 75a0 833d fef5 debb
000000c0: 439a f73d de57 2cbe 87cc 0a3e 5499 4dbe
000000d0: d9ad 9e3d 11f8 cdbd 5dbb 423b 34b5 f43d
000000e0: e370 ac3c 40f2 98bd 82eb 03bd 5381 48be
000000f0: c97a 583d 76f3 e03d 557d e6bd 6c57 fdbd
00000100: 01fe 68bd 4687 223e b2c5 ba3e 087e 27be
00000110: eb06 633e 97f1 d4bd 2cf5 b93c 0164 133b
00000120: 8e4d ab3b b8fa b7bc 63ba a03d 2f5a 8abc
00000130: 4adc 713c 9bf6 1bbe f5a8 96bd c85b 483c
00000140: d5b2 36bd ce8f cebc ca88 a2be c818 2cbe
00000150: 29d1 533d d187 c63d bf7a 213d 3148 543e
00000160: b611 0fbd ff86 39be 8c62 f53c 3c53 dcbd
00000170: 04b8 9abc ce3b 073e 57b3 55be fe72 483e
00000180: ab59 9abd c1a9 763e f205 ec3b 7b43 04bc
00000190: 6dae 7b3e 5e4d 673e cec0 fdbc 7177 f23c
000001a0: 1bdd 38be 17ef 50bd 97c2 46bd 9b77 a23d
000001b0: 713b fb3c 2e1d a1be 0989 88bd a397 39bd
000001c0: 4a6f 093e fd73 3b3e 2359 f9bd b266 e03d
000001d0: a74f 213e b578 00bd 86b1 6d3d d632 3cbe
000001e0: a115 50be 0585 24be 5ba8 863d c5dd 23be
000001f0: 6f31 603b 7665 a63d 7544 353e b4e4 473e
00000200: 7e5e d03e 2369 21bd fbbb 4ebe b094 6f3c
00000210: 6c4d cebd b81d 19be 567c 3fbe c10b 823b
00000220: 3fb0 e1be 1d31 6ebd db46 fdbb 0daf 653e
00000230: e46b e3bd 5cab e9bd 6d68 0a3d 71da 873d
00000240: 1b59 0f3d f9c9 683e 36bf bdbd 8b0c eb3b
00000250: 1e19 c3bd 5943 0e3e b605 053e e9e8 7e3d
00000260: 96af 6b3d 4466 08be af91 e23c 7096 403d
00000270: 4d39 a3bd ca62 bf3e dab7 493c 7ab0 7ebe
00000280: 871b e8ba 86c5 063e 3fd1 00be c8bf 58bd
00000290: 3bd8 16be 30a6 dd3d c917 1a3e fd2c 7e3d
000002a0: 724d a9bd 0d6f 793d f497 bfbd e616 03bd
000002b0: 911a 153d 461f 6bbb 37a9 ff3d a1c0 8f3b
000002c0: 49b1 433e 4c33 babd 9faa 653d bc8f 13be
000002d0: 2279 653e 4dc3 d2bd 32b7 9e3d 8e74 23bd
000002e0: 991b 153e a307 ccbd 1307 903d ec87 233d
000002f0: e8fc f4bd 8123 82bc e6eb a93d a7d5 143d
00000300: 2ae1 70be 851b 2bbd 0996 083e b363 0c3e
00000310: 1505 043e 0a47 d33d 7475 74bd b335 03be
00000320: 22c7 713a e098 32bd f668 8d3e 77d5 8c3e
00000330: 658d fb3d 1bbd 03bd ecc0 843c 2d07 57bd
00000340: 3d13 213e 5b0c f13d b596 12be af2e 56be
00000350: 5cef 183e ec50 26be 4001 51be f6b4 833d
00000360: de64 133e 60a5 f13d 2856 6d3c 4db0 f3bb
00000370: 4699 7fbd b858 f7bd 7a3f 21bd e1fd 5bbd
00000380: 1985 823c 6062 bf3c 9012 f6bd 4216 9ebd
00000390: 5753 5cbd e442 8d3e 3349 763e 67d4 0bbe
000003a0: 6eaa a63c a272 d4bc 9659 13be ff74 353d
000003b0: 15e6 fcbd a207 86be 45c9 d9bd 1b5d e2be
000003c0: 3c8c 86ba bf43 e5bb 1546 c63d 9c72 03be
000003d0: 5bd0 f7bd b7bc dfbd cc82 683b 4dc7 813d
000003e0: ff9e 09be 17cc c03d ddb8 bc3e 52af 9dbd
000003f0: a8fd 723d ebfc e53d b3d8 c9bc b45c ddbd
0.012786802 -0.084522694 -0.058991984 0.11131536 0.08473213 -0.073072255 0.16483597 0.06409881
0.12314109 0.14072414 0.13897651 -0.11115803 0.07490451 -0.09230268 0.06340027 -0.14761622
-0.008636672 -0.0048611313 -0.15548581 -0.06000213 -0.025732623 0.14073457 -0.09431762 0.43361917
0.03669166 -0.0016233209 -0.13398446 0.13587259 0.14033431 -0.18694048 0.1666679 0.22738971
-0.051871967 0.42017686 -0.030369248 -0.027053943 -0.21637067 -0.25492826 0.0071394094 0.048033774
0.119594656 0.2184783 -0.1507604 0.034666155 0.008261038 -0.055229656 0.06427089 -0.006804227
0.1208997 -0.16830394 0.13554583 -0.20078021 0.077480026 -0.100570805 0.0029713728 0.11948624
0.021049922 -0.074680805 -0.03220702 -0.19580583 0.052851472 0.109839365 -0.11254374 -0.1237019
-0.056882862 0.15871915 0.36478955 -0.16356671 0.22170608 -0.10397642 0.022699915 0.0022490027
0.005227751 -0.02245842 0.078480504 -0.016888706 0.014761994 -0.15230791 -0.07356445 0.012228914
-0.04460414 -0.025215056 -0.31744987 -0.16806328 0.051713143 0.09693874 0.0394237 0.20730664
-0.034929 -0.18117903 0.029954217 -0.10758063 -0.018886574 0.13206407 -0.20869194 0.19575116
-0.07536634 0.24088193 0.007202857 -0.008072729 0.24578257 0.22588107 -0.030975726 0.02959797
-0.18053095 -0.051009264 -0.04852542 0.07932969 0.030667992 -0.31467575 -0.066667624 -0.045310628
0.1342136 0.18305965 -0.121752046 0.109570876 0.15753041 -0.031365115 0.058030628 -0.18378767
-0.20320751 -0.16066368 0.0657508 -0.16002567 0.0034209152 0.08124821 0.17701896 0.19520837
0.40697092 -0.039406907 -0.20188896 0.014622852 -0.10073361 -0.14952743 -0.18699774 0.0039686863
-0.44079778 -0.058152307 -0.007729394 0.22430058 -0.11104563 -0.11409637 0.033790994 0.06633461
0.034997087 0.22733296 -0.09264986 0.007173126 -0.09526275 0.13892879 0.1299046 0.06223384
0.0575405 -0.13320261 0.027657358 0.04701847 -0.07969914 0.37380058 0.0123119 -0.24872008
-0.0017708399 0.13161287 -0.12579821 -0.05291727 -0.14730923 0.108227134 0.15048136 0.062054623
-0.08266725 0.060896922 -0.09355155 -0.03200426 0.03640229 -0.0035876795 0.12483447 0.004386977
0.19110598 -0.09091815 0.05607092 -0.14410299 0.2240949 -0.10291157 0.077497855 -0.039906077
0.14561309 -0.09962394 0.07032599 0.039924547 -0.119623005 -0.01588607 0.08296947 0.036336567
-0.23523393 -0.04177429 0.13338484 0.13709907 0.12892564 0.10316284 -0.059682325 -0.12813453
0.00092230935 -0.043602824 0.2761914 0.2750661 0.12282828 -0.032162767 0.016205274 -0.052497078
0.15729995 0.11769935 -0.14315303 -0.20916246 0.14935058 -0.16241807 -0.20410633 0.06431
0.14393947 0.11799121 0.014485873 -0.007436788 -0.062402032 -0.12077469 -0.039367177 -0.053708915
0.015932607 0.023362339 -0.12015259 -0.07719089 -0.053790417 0.27590096 0.24051361 -0.13655244
0.02034494 -0.025933567 -0.14389643 0.04430103 -0.12348572 -0.26177698 -0.10634092 -0.4421166
-0.0010265182 -0.0069966014 0.09681336 -0.12836689 -0.121002875 -0.109246664 0.0035478352 0.06336842
-0.13439558 0.09413927 0.3685979 -0.07699455 0.059323937 0.11229881 -0.024639463 -0.10808697

bias_ih f4 [48]
00000000: 57d7 ae3f bcda 7fbf e330 94bf d6b9 22bf
00000010: 0086 f4be 00a7 58bf 3c79 d53e 8eea 423f
00000020: 157c 9f3f 7e3f 983f 47bd 44bf 1846 593e
00000030: 0039 2940 ac9d adbe 57c0 6a3f ddaf 143f
00000040: 5597 4a3f 31be 7b3f f3e8 12bf 8772 4d3e
00000050: 68cd 3f3f 07bc 91bf 7d67 60be 8908 21bf
00000060: 0645 7ebf 4758 8abe e7c3 f3be fa39 84bf
00000070: a276 42be 9946 ab3d a855 65bf e26e 703e
00000080: 00ce 0d3f 33de 043f 65a9 3ebf 14bd 3b3f
00000090: 5c4f bf3e eb51 673f 9f7e 06be 9176 b33e
000000a0: 1999 fcbe e221 253f 3ee1 d0be b199 8abf
000000b0: 0222 573f b15f b53e 80d1 f7be 0569 453f
1.3659467 -0.9994314 -1.1577419 -0.63564813 -0.47758484 -0.8462982 0.41694057 0.7613915
1.2459742 1.1894376 -0.76851314 0.21218145 2.644104 -0.33909357 0.9169974 0.58080846
0.79137164 0.98337084 -0.573867 0.2006322 0.749228 -1.1385506 -0.21914478 -0.6290365
-0.9932407 -0.27020475 -0.476104 -1.0330193 -0.18990567 0.08363075 -0.89583826 0.23479798
0.55392456 0.5190155 -0.74477226 0.73335385 0.37365234 0.9035937 -0.1313424 0.35051396
-0.49335554 0.64504826 -0.40796846 -1.0828153 0.84036267 0.3542457 -0.48402023 0.7711337

bias_hh f4 [48]
00000000: f305 86bf 3eb3 f7be 4e86 5fbf 9463 03c0
00000010: 357b f43d bc4a c23e e41f b0be bb27 e03f
00000020: 589e 353f 94cc 27bf da17 093e e2cd b5bf
00000030: 9371 8b3f f2bd 9a3e aae9 2440 74c3 9d3f
00000040: bee5 083f a453 f1be c6e5 823f a0ac 133f
00000050: 4042 a23f 77e1 943e 7c15 0fbf 6d44 2bbf
00000060: e3e4 333f 23f9 993f 31dd fb3f bd51 433f
00000070: 20f2 d6bc d655 033e 0c66 543e c7e4 93bf
00000080: 663e 8cbf 1e1d 98bd 6890 dfbf 04b3 76bf
00000090: 9dd8 04c0 43de d43f 5733 9b3e 2455 ac3e
000000a0: 37fc 09bf 9dd1 473f 0797 7abf 366a bebf
000000b0: b3ce aabe 7dc7 fb3f 5085 d2bd 77af ac3e
-1.0470566 -0.48378938 -0.8731431 -2.0529528 0.119375624 0.37947643 -0.3439933 1.7512125
0.7094474 -0.65546536 0.13388005 -1.4203455 1.0894035 0.30223042 2.5767617 1.2325273
0.5347556 -0.47134125 1.0226371 0.5768528 1.2676468 0.29078266 -0.5589216 -0.66901284
0.7027113 1.2029155 1.9676877 0.762966 -0.026238501 0.12825713 0.20742053 -1.1554192
-1.0956542 -0.07427429 -1.7465944 -0.96366906 -2.075721 1.6630329 0.30312607 0.33658707
-0.53900474 0.7805422 -0.978867 -1.4876163 -0.33360824 1.9670254 -0.102793336 0.3372762

weight_ih f4 [48, 32]
00000000: 839c 0fbe 6e15 39be 5970 42be 9225 32be
00000010: e729 d9bd 9fab a5bd 2eb8 9abd dbc6 d33d
00000020: 4bfa 0ebd 9d37 ca3d f8ff eb3b db10 9a3d
00000030: 52eb 25bc 634b 2bbe 3c60 6e3d 2b1b febd
00000040: 1745 3f3d c06b 483e 2f37 09be 39cc 7cbe
00000050: 0e31 a13e cf91 0cbe ebc7 88be d69e ad3c
00000060: 6117 6c3d f4f7 8e3d 0cf2 b4be 392b 363e
00000070: 783a 9f3d 0b4b cfbd 1a10 593e 4566 ce3d
00000080: ecce be3d df43 babd 78f5 6cbb 99dd 783e
00000090: 9cee 94bc d135 3c3e ca40 31be d6ac 74bd
000000a0: 990d 793e 0fb4 0dbe 5e86 623e 1e35 31be
000000b0: ca41 4ebd a02c fa3d ad16 f5bc 5be4 5e3d
000000c0: dfab a23e 8937 743e 0c85 1e3e 2410 19be
000000d0: 27e0 94bd 4c2e 623d fd8c 98bd a29f 29bc
000000e0: 54b7 683d 9836 573a 50db 3ebe 1be2 36bd
000000f0: b7c2 8f3d 4564 153e 341c 5e3d 14aa a93d
00000100: febc 4cbd fa59 f93c 9006 76be e015 9fbc
00000110: 53b6 aabd 9495 08bb 4f1b 493e bc90 c4bd
00000120: 2ab0 53be d7fb fabd e28a 8cbd 08fd 29be
00000130: 50bd 183e 35d1 0fbe 9ed6 b03d 3275 753e
00000140: 4769 c83e f14e 4bbd 9c31 d3bd d0fa f5bc
00000150: 9cde 783b 6e6c cabd 7268 2fbe 96b3 2bbe
00000160: fba7 86bd aea8 af3c bafe 20be de74 8bbd
00000170: 1f62 f83d 3199 413e c198 3c3d 64db 0ebe
00000180: 4c00 3bbe 4243 80bc e0b4 9dbe 0756 1ebd
00000190: 21ae a9bd b037 6f3b a246 65be 895a c5bb
000001a0: 56ac d03d fc08 d7be 8697 efbc 8453 893e
000001b0: 7b01 2abe 046f 843d 622f 8cbe e97d 8fbc
000001c0: 63ad e3bd 7e96 1ebe 29a6 06be ad18 b7bd
000001d0: 0426 66bc 0325 0fbd 1c42 d4bc 188e d33d
000001e0: 8a33 bd3c eb47 b53d f746 9a3d e597 1dbd
000001f0: ec35 b2bd 0508 cd3d 7237 23be c0e8 0f3c
00000200: fd50 b33e 454f c33d 8cba 30be ca0c a53d
00000210: c6cf 72be 303f 67bd 8646 7cbc cfcb 863c
00000220: e322 303e d509 82bd 512c 90be 4915 b4bd
00000230: 8e16 bebd 5b0c 2f3d 6a10 683e 848b debc
00000240: 7c9f 46be fe00 fc3c 99fe 813d 08e5 dabd
00000250: 375f 243d df65 7cbe 98a7 b13d 5d1f 073c
00000260: 9c2d e9bc 57c6 4dbe bcd4 d73d 09d0 8cbb
00000270: 09ec 31be 50e4 273d 225e 9a3e dfcf 083e
00000280: a5c2 77be cdfa 3d3e cc65 253d c603 763d
00000290: 024c d33d ce9d a2bc 46a1 87bc 59f4 acbd
000002a0: 5512 92bd 5e54 d03d 8781 313e fae0 13bc
000002b0: 0369 98bd 70b2 d13d 523d 973d 3ea0 3bbd
000002c0: 12f7 e03d 769e 9a3d 55e6 0f3e 2d01 ca3d
000002d0: a2e8 d03c 259f 41be fc60 bc3d 77a5 2e3e
000002e0: e8a9 17bd 600f 3f3e a61d c63d 5933 69bc
000002f0: 0d34 0c3e ecfe ddbd 896b 413e 8298 20be
00000300: 3352 343e 8ae1 23be 27fc 8b3d da33 613e
00000310: 05cf 233e 95f1 2cbe 1ea5 293d 6f41 11bd
00000320: 787d ffbd 75d9 23be 5c7a 473e 959c c6bd
00000330: 6a33 65be 6cc9 fcbd 1499 b43c 04ad 923e
00000340: 58aa ddbd 9612 2b3e 9e37 8bbe 7f1d 8cbc
00000350: 4ade c43d 2ad1 d2bc f873 e33d 4e11 943d
00000360: 004a 3b3e db49 563d 52db 4f3c a7a2 043d
00000370: f350 9d3d 6212 373d 509d 423d 746e e93d
00000380: 6262 533e 3226 af3c 3a75 fdbc 9860 cfbd
00000390: bc02 04be e90d 2d3d e32d 8a3e a85e 603e
000003a0: 7de2 753d eb25 edbd daf4 6c3e 39fb 50be
000003b0: c59e babd 1d96 643d 1db2 8abe 3ea4 f8bd
000003c0: f262 b63c 7019 d73b 9171 a4bd 819b bfbc
000003d0: 0d8e 203c d011 91bd 3d8e 88bd de6d 07be
000003e0: 91eb d63c 1757 d43e d140 d43c 1ff6 39bc
000003f0: 5732 aa3d d31f 49be 10f0 adbc ad41 d83d
-0.14024548 -0.18074581 -0.1898817 -0.17397144 -0.10603695 -0.08089375 -0.07554661 0.10340663
-0.034906667 0.09873889 0.0072021447 0.07522746 -0.0101269055 -0.16727977 0.058197245 -0.12407526
0.04669675 0.19572353 -0.13399957 -0.2468728 0.31482738 -0.13727497 -0.26715025 0.021193903
0.057639483 0.06980887 -0.35340917 0.17789926 0.07774824 -0.10121735 0.21197549 0.100781
0.09316811 -0.09094977 -0.0036157053 0.24303283 -0.018180184 0.18379904 -0.17309871 -0.05973514
0.24321593 -0.13838218 0.2212157 -0.17305419 -0.05035571 0.12215543 -0.02991804 0.054416995
0.31771752 0.2384931 0.15480441 -0.14947563 -0.07269316 0.055219933 -0.074487664 -0.010353001
0.05681546 0.0008209734 -0.18638349 -0.044649225 0.07019561 0.14589031 0.054226115 0.08284393
-0.049984924 0.030438412 -0.24025941 -0.01941961 -0.08335557 -0.0020841109 0.19639324 -0.095979184
-0.2067267 -0.12255066 -0.06862427 -0.1660043 0.14915967 -0.1404465 0.08634685 0.23970488
0.3914282 -0.04963583 -0.103121966 -0.030026823 0.0037974482 -0.098839626 -0.17129686 -0.16767725
-0.065750085 0.021442737 -0.1572217 -0.068094 0.1212809 0.18906094 0.046044115 -0.13950878
-0.18261832 -0.015657071 -0.3080206 -0.03865626 -0.082851656 0.0036501698 -0.22390226 -0.0060227555
0.101891205 -0.41999042 -0.029247057 0.2682153 -0.16602127 0.06466487 -0.273799 -0.017516093
-0.11117055 -0.15487096 -0.13149323 -0.089402534 -0.01404715 -0.034947407 -0.02591043 0.103298366
0.023095865 0.08851608 0.07533067 -0.038474936 -0.08701691 0.10011295 -0.1593912 0.008783519
0.35022727 0.09536604 -0.17258662 0.0805908 -0.23712072 -0.056456745 -0.0153976735 0.016454605
0.17200808 -0.063495316 -0.2815881 -0.08793122 -0.09281646 0.042736392 0.22662511 -0.027166136
-0.19396776 0.030762192 0.06347389 -0.106882155 0.040129866 -0.24648236 0.08674544 0.008247224
-0.028464131 -0.20095192 0.10538623 -0.0042972607 -0.17375197 0.04098922 0.30149943 0.13360547
-0.24195345 0.18552704 0.040380284 0.060062192 0.10317232 -0.019850638 -0.016556393 -0.08445043
-0.07132403 0.10172342 0.17334567 -0.009025807 -0.074419044 0.102391124 0.07384743 -0.045807116
0.10984625 0.07549755 0.14052708 0.098635055 0.025501553 -0.18908365 0.09198186 0.17055307
-0.03702727 0.18658209 0.09673624 -0.014233434 0.13691731 -0.10839638 0.18888678 -0.15683177
0.17609482 -0.16004005 0.068352036 0.21992436 0.1599694 -0.16889031 0.041417234 -0.035462793
-0.12475103 -0.16000922 0.1948027 -0.096978344 -0.22382894 -0.12343106 0.02204565 0.28647625
-0.10823506 0.16706309 -0.2719087 -0.017103909 0.09612711 -0.025734503 0.11106104 0.07229863
0.18289948 0.052316528 0.012686567 0.03238168 0.076814555 0.044695266 0.047513306 0.113980204
0.20642999 0.021380518 -0.030939687 -0.10125846 -0.12891668 0.042249594 0.26988134 0.21911108
0.06003045 -0.11579498 0.23140278 -0.20408334 -0.09112314 0.05580722 -0.27089015 -0.12140702
0.022263978 0.0065643117 -0.080294736 -0.02338958 0.009799493 -0.070834756 -0.06667755 -0.13225505
0.026235374 0.41472694 0.025909813 -0.011350184 0.08310383 -0.19641046 -0.021232635 0.10559402

weight_hh f4 [48, 16]
00000000: 2c02 3cbe a5de 423d e374 173d c896 f3bd
00000010: d1f8 a13e 33df 353d 2bf1 7bbd ee8a e7bc
00000020: 05b0 923e 3498 85be 4720 933d da81 94bc
00000030: 848a 30bc 6240 67bd 2ed2 093d 4ccd 993d
00000040: 9ea0 97bc 1931 edbd 3140 373d 1ada 8ebe
00000050: e5b5 f13d 6363 183e 0144 4dbe a9c1 bdbd
00000060: 1715 c4be 7825 7e3e 1b56 a63d e32d d53d
00000070: cac0 ca3d f9d8 7abd 2fdb 5bbd 4acb 823d
00000080: 5561 1a3d ed1f 173e e7a2 c93d 101a 9ebd
00000090: b7ce 893d bca3 0437 c682 0e3e 5344 613c
000000a0: 699f 8dbe 2e0d 40be 8ac0 1ebe 90da b43e
000000b0: 6015 0a3d f58a 893d f29c e43d 296c 18be
000000c0: c50b 94be b6ae 263d 589d a6be 3712 edbc
000000d0: 34a6 89bd 524f f53a 8750 eb3e 0ec5 863d
000000e0: cf72 28bc c7b8 99bd 5b48 563e 3dd2 7dbe
000000f0: f31c f23c 91de a9bd 9d7f ad3b 5e61 c3bd
00000100: 34fb 22be dccc 993e 7d85 76be f33f 1a3b
00000110: 4879 d43d 3e3c bcbc 0208 523c 024b e1bd
00000120: dff1 0abe d8b1 0cbe d927 42bd 126c 3c3c
00000130: c252 403e a2cf 3d3e 6760 46bd 4066 95be
00000140: 4896 183e 12fa 093e db06 c6bd 3b24 873c
00000150: 1699 943d 06c1 d43d 5b72 453d 40fc 4e3e
00000160: b1fe 22be 672d 4b3d 927b 93be 28ee fcbd
00000170: a128 cbbd 2d97 353e 774a 35be b367 013e
00000180: d016 56be 05c4 0fbb 656a 583b a757 5c3d
00000190: 1275 c3bc ac08 6c3d 8bbb 96be 177a 173d
000001a0: 74d9 21b9 a1d2 393e 09fa 3a3e 28cf 743e
000001b0: 8167 01be 957c a0bd 1963 903d 98a3 83bd
000001c0: f531 80bd a624 b33d 20f6 7c3d 3cfd 923e
000001d0: 537b 72bc df6b 5e3d fb53 8abe 484b db3d
000001e0: 9e39 44bd 8487 4a3d 5f15 36be 3637 0ebe
000001f0: 2293 013d a8c8 64bd d8b9 53be 8d11 14bd
00000200: 97c8 7f3c 6f7b 2dbe 4b14 7d3d b07b 85bd
00000210: b7cf b4bd 524d 163e 2f1d 5c3e 3211 79bd
00000220: 1d9d 1e3e f702 113e fa81 2c3e 9d5d 633c
00000230: 7b84 eabd 9901 133e 8d6d 42be cf18 84be
00000240: 44c4 f23d 0c66 673e 5df5 7bbe db40 9d3c
00000250: 41cf 97bb e7c2 553d 9a90 90bd cc94 e2be
00000260: 281e fd3d 5fdd 233d 5459 403e ae6d a83c
00000270: 9354 97be 607b ba3d 1f56 8ebd 6511 583c
00000280: 11af 243e 8cd2 d53d 51ac 8a3d 64b9 4e3d
00000290: e104 1bbe 5aad 25be 7af7 30be d983 ae3d
000002a0: 4892 053d d769 eabd 1fa0 bb3c dd83 41be
000002b0: fb2a 00be 689a 3f3e 89ec 28be 26f9 36be
000002c0: fd88 42be 7052 f3bd bbad f7bd 23ea 10bd
000002d0: 0410 24bd 7f86 ab3d 696f 5abe fa34 94bd
000002e0: 50b7 eebd 60f6 bdbd fec0 94be 81e0 983c
000002f0: 8d68 b63d 7b90 433d a551 533e 5093 043e
00000300: 4a74 85bd 7028 20be 119c 2abd 1c02 e2bd
00000310: d6b4 ab3c b7ff 31bd 4af8 17bc 3ee3 783e
00000320: 65da f8bd 4535 1ebe 3cc3 78bc 70eb 8dbe
00000330: 46cf 85be 8375 4abe cdcf 493d 8ccc a8bd
00000340: c343 fd3d 67ec 17be b412 01be cdde adbb
00000350: 97aa 1b3e 0fde 03be d507 883d f44b db3c
00000360: 37f3 a1be 919f 473e 3366 3f3e 38de 503e
00000370: 1e9a 1bbe f772 313e 6757 1bbc b362 163d
00000380: eadb 4dbd 0bb8 823d a7d9 bdbd 53d1 473e
00000390: 6138 273e 88fe ad3d 2c57 a8bd ebe2 a5bd
000003a0: 72f8 293c 3518 473d ad07 c8bc 658d 043e
000003b0: cf06 883d 0254 393e 36ab 31be 869f 873d
000003c0: 53ac f3bd 460c b8bd 9c70 2c3e 1853 6b3e
000003d0: 1c02 59be ae69 21be 9ae3 93bd 771d 8bbe
000003e0: 8819 873d fccc a2bd 5af9 c33d c39c 79bd
000003f0: d436 8f3c 7848 1fbd 8377 283e 51a8 a7bd
-0.18360204 0.04757561 0.036976706 -0.118939936 0.31635144 0.044402312 -0.061509293 -0.028264489
0.28649917 -0.26092684 0.07183891 -0.018128324 -0.010775212 -0.056457885 0.03364771 0.075098604
-0.018509205 -0.1158163 0.044738952 -0.27900773 0.11802272 0.14881663 -0.20045473 -0.09265453
-0.3829734 0.2481898 0.08121892 0.10409143 0.09900053 -0.061242077 -0.053675827 0.063864306
0.03769048 0.14758272 0.09845524 -0.07719815 0.06728881 7.9059355e-06 0.13917074 0.0137492
-0.27660683 -0.18755028 -0.15503135 0.35323 0.03371179 0.06715957 0.111627474 -0.1488501
-0.2891523 0.04069396 -0.3254192 -0.02893935 -0.06721154 0.0018715656 0.45959875 0.06580554
-0.010281279 -0.075059466 0.20926039 -0.24787231 0.02955482 -0.08294404 0.0052947537 -0.09540056
-0.15916139 0.30039108 -0.24074359 0.0023536652 0.10374695 -0.022977944 0.012819292 -0.11000635
-0.13568829 -0.13739717 -0.047401283 0.011500375 0.1878157 0.18536237 -0.04843178 -0.29179573
0.14901078 0.134743 -0.09669276 0.016496768 0.07255761 0.10388379 0.04820476 0.20213413
-0.1591747 0.049603846 -0.28805214 -0.12350112 -0.09919859 0.1773345 -0.17704187 0.12637214
-0.2090714 -0.0021936905 0.00330224 0.05379453 -0.023859534 0.057625458 -0.2943996 0.03698167
-0.00015435164 0.18146755 0.18259443 0.23907149 -0.1263714 -0.07836262 0.070501514 -0.064276874
-0.062595285 0.087472245 0.06175816 0.28708827 -0.014799911 0.054302093 -0.27017197 0.10707718
-0.04790651 0.049445644 -0.1778159 -0.13888249 0.031634457 -0.055855423 -0.20676363 -0.03614955
0.015611789 -0.16941617 0.06178693 -0.06517732 -0.08828681 0.14677933 0.21495508 -0.060807414
0.15489621 0.14161287 0.16846457 0.0138773 -0.1145105 0.14356078 -0.18987103 -0.25800177
0.11853841 0.22597522 -0.24605317 0.019195965 -0.004632861 0.052187826 -0.070588306 -0.44254148
0.123592675 0.040006038 0.18784076 0.020560112 -0.29556713 0.09105563 -0.0695002 0.013187741
0.16082408 0.10440549 0.06771148 0.05046977 -0.1513858 -0.1617941 -0.17281905 0.08521242
0.032610208 -0.114459686 0.0229035 -0.18897958 -0.12516396 0.18711245 -0.16496481 -0.1786848
-0.1899757 -0.11880958 -0.12093683 -0.03537954 -0.040054336 0.083752625 -0.21331562 -0.07236667
-0.11656058 -0.09275508 -0.2905349 0.01866174 0.0890666 0.04774521 0.20636614 0.1294682
-0.06516321 -0.15640426 -0.041652743 -0.110355586 0.020960253 -0.04345676 -0.009275505 0.24305436
-0.121510305 -0.15450008 -0.015183266 -0.27718687 -0.261347 -0.1977139 0.04927044 -0.08242139
0.1236644 -0.14836274 -0.12604791 -0.005306101 0.15201794 -0.12877677 0.06642119 0.026769616
-0.3163087 0.19494464 0.1869133 0.2039727 -0.1519551 0.17329012 -0.009481288 0.03671522
-0.050258555 0.0638276 -0.092700295 0.19513445 0.163301 0.084958136 -0.08219752 -0.08099922
0.010374175 0.04860707 -0.024417723 0.12944563 0.06641924 0.18098453 -0.17350468 0.066222236
-0.118981026 -0.08986716 0.16839832 0.22980917 -0.21192211 -0.1576297 -0.07221146 -0.27170917
0.065966666 -0.07949254 0.095690444 -0.060940515 0.017482199 -0.03888747 0.1645184 -0.08186401

bias_ih f4 [48]
00000000: bbb9 2cc0 376f 393f b4e6 7b3f 3a77 44bf
00000010: 7aa8 ccbf b3b8 a33e 78f5 32bf c50a b23e
00000020: 6030 debd 20b2 0a3e 94cc 573f 9136 7fbf
00000030: ebb4 dfbe 1cc8 203f 9236 b43d bbb2 b9be
00000040: 7017 95be 2352 4fbf b02f b7be bc97 823d
00000050: d439 5fbf 4be7 d93e f55e 20bf f76d 1240
00000060: e2d6 90be 827d 8ebf 493b 9e3f 1e81 febe
00000070: 081b a5bf 3e8e 2cbf bfb6 a23f 3eef d0bf
00000080: c29f df3f 14e8 a73f 8441 fabd e5c1 673e
00000090: a93b edbd dc10 af3f bf2c ae3f 7026 063e
000000a0: ac86 dabe f45b 863f 039f 0040 6969 333f
000000b0: 948a a7be 5ada 28bf 96d5 c33f edf1 d5bf
-2.698836 0.72435325 0.983989 -0.76744425 -1.5988915 0.31976852 -0.69905806 0.34773842
-0.108490705 0.13544512 0.84296536 -0.99692637 -0.43692717 0.6280534 0.08799471 -0.36269173
-0.29119444 -0.80984706 -0.3577857 0.06376597 -0.87197614 0.42559275 -0.6264489 2.2879617
-0.28288943 -1.1132052 1.2361842 -0.49707884 -1.2898874 -0.67404544 1.271202 -1.6323011
1.7470629 1.31177 -0.12219527 0.22632559 -0.11583645 1.367702 1.3607405 0.131006
-0.4268087 1.0496812 2.0097053 0.7008272 -0.32722914 -0.6595818 1.5299556 -1.6714455
