housingpipeline/housingpipeline/floor_plan_pipeline/pretrained_models/dgmg_state_dict.pth (torch, 313302 bytes, 52 tensors)

graph_embed.node_gating.0.weight f4 [1, 16]
0	0x3d41bf31	0.047301475
1	0x3e32c4c7	0.17457877
2	0xbdb706c5	-0.08936838
3	0xbe6423ac	-0.22279233
4	0xbc01c4db	-0.007920469
5	0x3d5d413a	0.054017283
6	0x3d982843	0.07429554
7	0x3ea19041	0.3155537
8	0xbdd732a0	-0.10507703
9	0xbec4dd9b	-0.38450322
10	0x3ec327d6	0.3811633
11	0x3ecaf310	0.39638567
12	0x3ef8669c	0.48515785
13	0x3c4ebe56	0.012618622
14	0xbe483b08	-0.19553769
15	0xbe7182d1	-0.23585059

graph_embed.node_to_graph.weight f4 [32, 16]
0	0x3d178abd	0.036997546
1	0x3e70fe27	0.23534451
2	0x3e698c85	0.2280751
3	0x3de93198	0.113864124
4	0x3e494ed0	0.19658971
5	0xbe9487ec	-0.2900995
6	0xbe004f11	-0.12530161
7	0x3e414c8c	0.18876857
8	0xbe7be85f	-0.24600361
9	0x3e286e21	0.16448261
10	0x3d8677e6	0.065658376
11	0x3dfd45a7	0.12366801
12	0xbba50ac8	-0.0050366856
13	0xbd1a5377	-0.037677255
14	0x3e05e43a	0.13075343
15	0xbce869ea	-0.028370816
16	0x3eab5be3	0.33468542
17	0xbd0162a6	-0.03158822
18	0x3c4592a9	0.012058892
19	0x3f07a24d	0.52982026
20	0x3efb297e	0.49055094
21	0xbcf22525	-0.029558728
22	0x3e7344bb	0.23756687
23	0xbcd4a446	-0.025957238
24	0x3d8939b8	0.06700462
25	0xbdd01025	-0.10159329
26	0xbeb1f32b	-0.34755835
27	0xbdd64548	-0.10462433
28	0xbecd16ae	-0.40056366
29	0x3e80e2af	0.25172946
30	0x3e08c699	0.13357009
31	0xbe58779e	-0.2113938
32	0xbe56c2c7	-0.20972739
33	0xbe8f4269	-0.27980354
34	0x3ccc1fa7	0.024917437
35	0xbed13663	-0.40861806
36	0x3ca84dff	0.020545004
37	0xbe1e4db3	-0.15459327
38	0xbe268549	-0.16261782
39	0x3e6acba7	0.2292925
40	0x3e48aac1	0.19596387
41	0xbd7e719e	-0.062120073
42	0x3e9d78e1	0.30756286
43	0x3d725ff1	0.059173528
44	0x3f2e252e	0.6802548
45	0xbcb68bf0	-0.022283524
46	0xbed2c8e5	-0.41168895
47	0x3d142691	0.036169592
48	0x3e754fa5	0.23956163
49	0x3a639d9d	0.0008682849
50	0xbc940848	-0.018070355
51	0x3ea7c403	0.32766733
52	0x3d5b6daf	0.0535714
53	0xbcc1df57	-0.023666067
54	0xbca7b754	-0.02047316
55	0x3e8a04f2	0.26956898
56	0x3de971b4	0.1139864
57	0xbdd59f06	-0.10430722
58	0x3c585e54	0.013206083
59	0xbe02a813	-0.12759428
60	0x3c3d9a1a	0.011572385
61	0xbbf653eb	-0.007517328
62	0x3e8d444d	0.27591172
63	0x3d4b3227	0.049608376
64	0x3d6e0192	0.058106966
65	0x3e8839d9	0.26606634
66	0x3db681eb	0.08911499
67	0x3d8e064e	0.06934796
68	0xbef8f0b8	-0.48621154
69	0xbe8f1f18	-0.2795341
70	0xbe08a43b	-0.13343899
71	0xbe8f0978	-0.27936912
72	0x3e82d4db	0.2555302
73	0x3e622a0e	0.22086355
74	0xbdaa69ea	-0.08320983
75	0xbe501e02	-0.20323947
76	0xbe90342f	-0.28164813
77	0x3eb6d6b1	0.35710672
78	0x3e878aef	0.26473185
79	0x3eaddb0e	0.33956188
80	0x3dd5f492	0.10447039
81	0xbe8e44bb	-0.27786812
82	0xbd3cb95c	-0.04607521
83	0x3e91d22b	0.28480658
84	0x3ea2dbee	0.31808418
85	0xbde80b1e	-0.113302454
86	0x3e00c8b6	0.12576565
87	0xbea3352a	-0.31876498
88	0x3dbc35cd	0.09189949
89	0xbe2b9f4a	-0.16759983
90	0xbf006d81	-0.5016709
91	0xbe2890f7	-0.1646155
92	0xbe879395	-0.26479784
93	0xbe2c5797	-0.16830288
94	0xbcb8b4ca	-0.022547144
95	0xbe916654	-0.28398383
96	0x3da1a635	0.078930296
97	0xbe38dc95	-0.18052895
98	0x3eb94cee	0.36191505
99	0xbd8f1d45	-0.069880046
100	0x3e5c5433	0.21516494
101	0x3ccca1c2	0.024979476
102	0xbe28ce98	-0.1648506
103	0x3e9b7840	0.3036518
104	0xbe1bb7f8	-0.15206897
105	0xbeb90054	-0.36133063
106	0x3e91d37a	0.28481656
107	0xbea69c0f	-0.32540938
108	0xbda380dd	-0.07983563
109	0xbe3d9307	-0.18513118
110	0x3e6a9007	0.22906505
111	0x3e11db57	0.14243828
112	0xbe748138	-0.23877418
113	0x3ddc979a	0.10771103
114	0xbcf3b3cd	-0.029748822
115	0x3db37082	0.087616935
116	0x3e0a44dc	0.1350283
117	0x3e765980	0.24057579
118	0xbdd79599	-0.1052658
119	0xbe01acdd	-0.12663598
120	0xbde67f1b	-0.11254712
121	0xbe1243ae	-0.1428363
122	0x3e6f4e7a	0.2336978
123	0x3dd10be7	0.10207348
124	0xbccf3e9e	-0.025298413
125	0x3e32c288	0.1745702
126	0x3dc48745	0.09596113
127	0xbeb4913b	-0.35267052
128	0xbd3158a3	-0.04329742
129	0xbda4daa0	-0.08049512
130	0xbe441ce9	-0.19151653
131	0xbca40b4a	-0.020024914
132	0x3e25092f	0.16116785
133	0xbd5761ab	-0.052583378
134	0xbd37c0ce	-0.044861607
135	0x3e5f1d76	0.21788582
136	0x3e87deaf	0.26537082
137	0x3c98d6e4	0.018657155
138	0xbe419dd8	-0.18907869
139	0xbe663ebe	-0.22484872
140	0x3ed94a24	0.42439377
141	0x3d2df016	0.042465292
142	0xbe4aa6b4	-0.19790155
143	0x3e2fd795	0.17172082
144	0x3aca7195	0.0015445227
145	0x3d0e4cb4	0.03474112
146	0xbdbde00d	-0.0927125
147	0x3e243a1a	0.16037789
148	0x3ead2a61	0.33821395
149	0x3e21ce1f	0.15801285
150	0xbe356640	-0.17714787
151	0xbeefa3b8	-0.46804595
152	0x3df000fa	0.11718936
153	0xbe328eef	-0.17437337
154	0xbd4e4a45	-0.050363798
155	0x3ef2f827	0.4745495
156	0xbe9aa98f	-0.30207488
157	0xbd960eca	-0.073270395
158	0x3ee36b3e	0.44417757
159	0x3e61bf9a	0.22045746
160	0x3e36415e	0.17798373
161	0xbe13ef68	-0.14446795
162	0x3e12b5cc	0.14327163
163	0x3ee973ea	0.45596248
164	0x3eeeedc4	0.46665776
165	0xbd73cb95	-0.059520323
166	0xbca73039	-0.020408737
167	0x3e08a979	0.13345899
168	0xbe345724	-0.17611367
169	0x3d5cc15f	0.05389535
170	0xbd466d84	-0.048444286
171	0xbdc1ae00	-0.09457016
172	0xbd2dc729	-0.042426262
173	0x3d7ef13d	0.06224178
174	0x3dfcb91a	0.12339993
175	0x3e36082e	0.17776558
176	0xbeab7a0f	-0.3349156
177	0x3e577252	0.21039703
178	0x3a04a97c	0.00050606555
179	0x3cb635e5	0.022242496
180	0xbd78e966	-0.06076946
181	0xbd803d8d	-0.0626174
182	0x3dd6e6f1	0.10493267
183	0x3e8e720c	0.27821386
184	0x3d085499	0.033283804
185	0xbd528e8b	-0.05140547
186	0xbe96bd35	-0.29441229
187	0xbcbb8966	-0.022892665
188	0x3e78e8b7	0.24307524
189	0xbea1ae60	-0.3157835
190	0x3b76cf43	0.0037660159
191	0x3e924d63	0.28574666
192	0xbe49562b	-0.19661777
193	0xbeffe09c	-0.4997605
194	0x3cf0400e	0.029327419
195	0x3e303683	0.17208295
196	0x3d0cf5ff	0.034414288
197	0xbe18c0d1	-0.14917304
198	0x3e4504ca	0.19240108
199	0x3df81bdc	0.12114689
200	0xbecc3b32	-0.39888912
201	0x3eca88df	0.3955755
202	0xbe28efb6	-0.16497692
203	0x3e0a467b	0.13503449
204	0x3ef4fe56	0.47850293
205	0xbd27f73e	-0.041007273
206	0xbf0264d0	-0.5093508
207	0xbee5f125	-0.4491054
208	0xbda33f25	-0.07971028
209	0x3e8d3237	0.27577373
210	0x3e8b5b3d	0.27218047
211	0x3e83cbc5	0.257414
212	0xbe85c61f	-0.26127717
213	0xbee80a3c	-0.45320308
214	0xbdaf2144	-0.08551267
215	0xbe89b4fa	-0.26895887
216	0x3e5b78d5	0.21432813
217	0xbe912998	-0.28352046
218	0xbe97dadc	-0.29659164
219	0x3e41a41f	0.18910263
220	0xbea2400b	-0.31689486
221	0x3e6d1474	0.23152333
222	0x3e82a5d0	0.2551713
223	0xbe16c72f	-0.1472442
224	0x3db12dc8	0.0865131
225	0xbea62954	-0.32453406
226	0xbd4cdbf9	-0.05001447
227	0xbd791724	-0.060813084
228	0x3e7fc91c	0.24979061
229	0x3e0e4ff5	0.13897689
230	0xbd047e8e	-0.032347254
231	0x3d342083	0.043976318
232	0x3caf14be	0.021372195
233	0xbe0039cf	-0.12522052
234	0x3e2f7996	0.17136225
235	0x3ea74931	0.32673028
236	0xbcb4e115	-0.022079984
237	0x3e1dec8a	0.15422264
238	0xbc59a1a1	-0.013283164
239	0x3ef4bfa3	0.47802457
240	0x3db04b51	0.086081155
241	0xbba3b1c0	-0.0049955547
242	0x3d9bca72	0.07606973
243	0xbea32025	-0.31860462
244	0xbed6d277	-0.41957447
245	0x3d951ec1	0.072812565
246	0xbd2b222f	-0.041780647
247	0x3c31834d	0.010834527
248	0x3e282a67	0.16422425
249	0xbe820569	-0.25394753
250	0xbdddfd34	-0.1083931
251	0xbe3b1f26	-0.18273601
252	0x3dec914e	0.11551152
253	0xbce23f13	-0.027617967
254	0xbb8f89b1	-0.0043804278
255	0xbe0d2ae2	-0.1378589

graph_embed.node_to_graph.bias f4 [32]
0	0x3fa45700	1.283905
1	0x3f68af48	0.9089246
2	0xbdb95312	-0.090490475
3	0xbd6c65d0	-0.057714283
4	0x3e5f5082	0.21808055
5	0x3ed6696c	0.41877306
6	0xbf384255	-0.71976215
7	0xbf9c019c	-1.2187991
8	0x3ec9fecb	0.39452204
9	0x3c6328d8	0.013864718
10	0xbf8ee7a3	-1.116444
11	0x3fc3f9aa	1.5310566
12	0x400b2176	2.1739173
13	0x3eca24a4	0.3948108
14	0x3f8a50fd	1.0805966
15	0xbf5c2de2	-0.8600751
16	0xbdb713eb	-0.08939346
17	0x3b23817e	0.002494901
18	0x3e06c2d5	0.1316026
19	0x3f951e16	1.1649806
20	0xbf6116c9	-0.8792539
21	0x3d8b45b5	0.06800405
22	0x40155236	2.3331428
23	0xc01a0d4a	-2.407061
24	0xbf8c1e7d	-1.0946804
25	0xbf36c292	-0.7139064
26	0xbf55a591	-0.8345576
27	0x3ffa681e	1.9563024
28	0x401383b8	2.3049145
29	0x3fda9eb8	1.7079687
30	0xbede2426	-0.43386954
31	0x3ea782ec	0.32717073

graph_prop.message_funcs.0.weight f4 [32, 34]
0	0xba3e6150	-0.00072624255
1	0xbde07b34	-0.10960999
2	0xbdbf2c5c	-0.09334633
3	0xbe86ffb1	-0.26366952
4	0x3dc02656	0.09382312
5	0x3db61153	0.08890023
6	0xbdc273f1	-0.0949477
7	0xbac6e6df	-0.0015175006
8	0x3e457bb2	0.19285467
9	0xbbab4a92	-0.0052273953
10	0x3daffdf8	0.085933626
11	0xbd21f76e	-0.039542608
12	0xbe686a81	-0.22696878
13	0xbb9616ab	-0.004580339
14	0x3da2cffb	0.079498254
15	0xbe8bd86e	-0.2731356
16	0x3e22076a	0.1582314
17	0x3d9840c7	0.0743423
18	0x3c40cc09	0.011767396
19	0xbe43aacb	-0.19108121
20	0xbd4bf017	-0.049789514
21	0x3d4ce8e3	0.050026786
22	0x3dfdf45c	0.124001235
23	0xbdb68537	-0.089121275
24	0xbd734ed4	-0.05940135
25	0xbd979d6d	-0.074030735
26	0xbd2a68c4	-0.04160382
27	0xbd1bc433	-0.038028907
28	0xbe3a66c9	-0.18203272
29	0xbdfa5919	-0.12224025
30	0x3d569ccb	0.052395623
31	0xbe42cb80	-0.19022942
32	0x3da64f36	0.08120577
33	0x3c88c3fc	0.016695015
34	0x3dee52a4	0.11636856
35	0x3e2c6031	0.16833569
36	0x3d2ca755	0.042151768
37	0x3d527f7d	0.051391114
38	0x3c861e9a	0.016372014
39	0x3d84d606	0.06486134
40	0xbd3a6650	-0.04550773
41	0x3e023257	0.12714516
42	0xbdab4895	-0.08363453
43	0x3e1f3812	0.15548733
44	0x3d709b97	0.058742132
45	0x3cfb53ee	0.03067967
46	0xbc11dc90	-0.008902684
47	0x3cf7dfa5	0.03025801
48	0xbe063a7f	-0.13108252
49	0x3db6abc4	0.089194804
50	0xbbb88c42	-0.0056319544
51	0x3cc7f58f	0.024409084
52	0xbe744d3e	-0.2385759
53	0x3d9d5567	0.07682305
54	0x3e83ac04	0.25717175
55	0x3c87c870	0.016575068
56	0x3db0c2eb	0.08630928
57	0x3d69134c	0.05690317
58	0x3d49fdfb	0.04931448
59	0x3d81072e	0.063001975
60	0x3dfcd69e	0.123456225
61	0x3d9f8bd1	0.0779034
62	0x3e3f85d8	0.18703401
63	0xbe2030a7	-0.1564356
64	0xbe52cfdc	-0.20587105
65	0xbd465734	-0.048423007
66	0xbe263218	-0.16230047
67	0x3d17ef5c	0.037093505
68	0x3d599422	0.053119786
69	0xbda27028	-0.07931548
70	0xbe4c1dd7	-0.19933258
71	0x3e1c352d	0.1525466
72	0x3da674d2	0.081277505
73	0xbc31fcb7	-0.010863475
74	0xbe364ff8	-0.17803943
75	0xbd95c47b	-0.07312866
76	0x3d3c99d8	0.046045154
77	0xbd7a133c	-0.0610535
78	0xbda1c228	-0.078983605
79	0xbd003817	-0.03130349
80	0x3eb497e3	0.3527213
81	0xbce10911	-0.027470144
82	0xbd799f02	-0.060942657
83	0xbdc5beb6	-0.09655516
84	0x3cf281a6	0.029602837
85	0xbe4dba4c	-0.20090598
86	0x3db88574	0.09009829
87	0xbe7d9c42	-0.24766639
88	0x3e068779	0.13137616
89	0x3d2c11a1	0.042009
90	0x3ca075d1	0.01958743
91	0xbbe20e98	-0.0068987124
92	0x3dcbb946	0.099474475
93	0xbd5e1f58	-0.05422911
94	0x3dd33ad6	0.103139564
95	0x3d8d5014	0.06900039
96	0x3e3a1d1b	0.18175165
97	0xbe446e69	-0.19182743
98	0xbd89faa1	-0.06737257
99	0xbd21ce5b	-0.039503437
100	0xbcf293bc	-0.02961146
101	0xbb8c9330	-0.004290007
102	0x3e75f2e7	0.24018441
103	0xbda2b028	-0.079437554
104	0x3d7b590a	0.06136421
105	0x3e09f3b9	0.13471879
106	0x3aa3d76b	0.0012500113
107	0x3e9037a7	0.2816746
108	0x3d7f3e56	0.062315308
109	0x3dba28c9	0.090898104
110	0xbe38c582	-0.18044093
111	0xbcb30a06	-0.021855365
112	0x3c8b8f23	0.017036026
113	0xbb6c867b	-0.0036090899
114	0xbdd9dadd	-0.10637448
115	0xbe1c177e	-0.15243337
116	0x3cf3a3cf	0.029741196
117	0xbdac5737	-0.084150724
118	0x3e1eb9eb	0.1550061
119	0x3d41d956	0.04732641
120	0xbd3da78a	-0.046302356
121	0xbe32e86d	-0.17471476
122	0x3da87ce3	0.08226945
123	0x3d71e81a	0.05905924
124	0x3e02b636	0.1276482
125	0x3e33c959	0.17557277
126	0x3cdd57f4	0.027019478
127	0x3d319403	0.043354046
128	0x3db40af4	0.08791152
129	0xbde241b9	-0.11047692
130	0xbd3ab074	-0.045578435
131	0x3dad1dc0	0.0845294
132	0x3d58fbef	0.052974638
133	0xbd86bc9f	-0.06578945
134	0xbdb39037	-0.08767741
135	0xbd860090	-0.06543076
136	0xbe049ad8	-0.12949693
137	0xbd30d9f9	-0.043176625
138	0xbe1c2027	-0.1524664
139	0x3c51672b	0.012780945
140	0xbded4126	-0.11584692
141	0x3cc603c7	0.024171723
142	0x3bcecab6	0.006310786
143	0x3d283c8f	0.04107338
144	0xbde84f42	-0.11343242
145	0xbcbda588	-0.02315022
146	0xbd9b762f	-0.07590901
147	0xbda9d74a	-0.08293016
148	0x3c7f7857	0.015592656
149	0x3c163114	0.009166975
150	0xbe410b41	-0.1885195
151	0xbcd0d422	-0.025491778
152	0x3e995239	0.29945543
153	0xbd1e434e	-0.038638406
154	0x3e30e4d1	0.17274787
155	0xbe25de7c	-0.16198152
156	0x3cd10782	0.025516275
157	0x3e0db2cd	0.13837738
158	0x3da2a926	0.07942419
159	0x3ea8dd73	0.32981452
160	0x3c6d3c0b	0.014479647
161	0xbe03b8d9	-0.12863483
162	0x3cae18b6	0.021252017
163	0xbe18cd1e	-0.14921996
164	0xbdc04a92	-0.09389223
165	0x3e32f80b	0.17477433
166	0xbe3ce039	-0.18444909
167	0x3d42411a	0.047425367
168	0xbe30f92d	-0.17282553
169	0x3c14797d	0.009062168
170	0x3e899290	0.2686963
171	0x3cf4187d	0.029796833
172	0xbd13d87e	-0.036095135
173	0x3a8c3efb	0.0010699922
174	0x3e7a148b	0.24421899
175	0xbd45ecf5	-0.048321683
176	0x3e40f2a8	0.18842566
177	0x3e052dc8	0.13005745
178	0xbd55c246	-0.052187227
179	0xbe16066e	-0.1465089
180	0x3e45d582	0.19319728
181	0x3e88aae8	0.2669289
182	0x3c6e5d9a	0.014548684
183	0x3d90a4a0	0.0706265
184	0xbc659988	-0.0140136555
185	0xbe86941f	-0.26284882
186	0x3d1458bf	0.036217447
187	0xbbda1782	-0.0066556344
188	0x3ce9cea5	0.028540919
189	0xbdd6aadb	-0.10481807
190	0x3e10f7df	0.14157055
191	0x3e01c634	0.12673265
192	0x3e375e9d	0.17907186
193	0x3e4c97d0	0.19979787
194	0xbe3229b6	-0.17398724
195	0xbd83f3bd	-0.06442974
196	0x3db48c50	0.08815825
197	0x3e753b79	0.23948468
198	0x3d492453	0.049106907
199	0x3e285dbf	0.16442011
200	0xbc3b570b	-0.011434327
201	0xbe2e609c	-0.17029041
202	0x3bb0d3e3	0.0053963526
203	0x3d21a40b	0.039463084
204	0x3c77cf8a	0.015125165
205	0x3d92773d	0.07151649
206	0xbd2000e0	-0.039063334
207	0x3cd2a5c6	0.025713813
208	0x3d41efb7	0.04734775
209	0x3c865a5f	0.016400514
210	0xbdd7065a	-0.10499258
211	0xbe129c05	-0.14317329
212	0xbc38534b	-0.011250327
213	0x3d6e6203	0.05819894
214	0xbe111176	-0.14166817
215	0xbe83232a	-0.25612766
216	0xbe31518c	-0.17316264
217	0x3d89d398	0.067298114
218	0xbda5f939	-0.08104176
219	0x3e17512d	0.1477706
220	0xbe0da388	-0.13831913
221	0xbdd6a00e	-0.10479747
222	0x3d2f5bbf	0.042812105
223	0x3e8f9e6e	0.2805056
224	0xbcd8c183	-0.026459461
225	0xbd548ef9	-0.05189416
226	0x3cb62d79	0.02223848
227	0x3dd6e0a3	0.10492065
228	0xbceb99f5	-0.028759936
229	0xbdf530f2	-0.11972226
230	0xbd01ad7e	-0.031659596
231	0xbe35b8fc	-0.17746347
232	0xbce4c1dc	-0.02792447
233	0xbcd6988a	-0.026195783
234	0xbd9d1cf1	-0.07671536
235	0xbd52b5f9	-0.051443074
236	0xbe42dab0	-0.19028735
237	0xbaf15fa1	-0.001841534
238	0xbdce7850	-0.100815415
239	0xbd205c72	-0.039150663
240	0xbe1351c1	-0.14386655
241	0x3e3c4460	0.18385458
242	0x3df879d1	0.1213261
243	0xbda3d444	-0.07999471
244	0x3e030986	0.12796602
245	0x3e52fd41	0.20604421
246	0xbd043741	-0.032279257
247	0x3dd4972b	0.103803955
248	0x3c115ae1	0.008871765
249	0x3e8f0800	0.2793579
250	0xbcf2ad3e	-0.029623624
251	0xbe3ed200	-0.18634796
252	0xbc40ac18	-0.01175978
253	0xbe21f49f	-0.15815972
254	0x3d456c81	0.04819918
255	0x3985b674	0.00025503675

graph_prop.message_funcs.0.bias f4 [32]
0	0x3df455c8	0.11930424
1	0x3e69f805	0.22848518
2	0x3e38d5b3	0.1805027
3	0xbe4605a3	-0.19338088
4	0x3e8b410a	0.27198058
5	0x3d8be196	0.068301365
6	0x3c3a3c4c	0.011366915
7	0xbe802ed3	-0.25035724
8	0xbe2ea978	-0.17056835
9	0xbcb5e0c5	-0.022201905
10	0xbd983167	-0.07431298
11	0x3ca15f26	0.01969869
12	0x3e93bdbf	0.28855702
13	0x3e18857e	0.14894673
14	0xbccbf289	-0.024895923
15	0x3dafdc42	0.08586933
16	0x3e055937	0.13022314
17	0x3bede04a	0.0072594034
18	0x3ded75ce	0.11594735
19	0xbd57c2e8	-0.05267611
20	0xbdd6f7c5	-0.10496477
21	0x3d753c2a	0.05987183
22	0x3e1e3dc9	0.15453257
23	0xbe54d7cc	-0.20785445
24	0x3daff513	0.08591666
25	0xbee4304b	-0.44568095
26	0xbe1ab157	-0.15106712
27	0xbd347610	-0.044057906
28	0xbde0335c	-0.10947296
29	0x3deeaf66	0.11654548
30	0x3db64a37	0.08900874
31	0x3b42ef83	0.002974481

graph_prop.message_funcs.1.weight f4 [32, 34]
0	0xbd83d396	-0.06436841
1	0x3e1efb70	0.15525603
2	0x3ea9a099	0.3313034
3	0x3d2f4927	0.042794373
4	0xbca1ba22	-0.019742075
5	0x3dd6e216	0.10492341
6	0xbda25666	-0.079266354
7	0x3df3610f	0.11883747
8	0x3d7105d0	0.058843434
9	0xbdffa73c	-0.12483069
10	0x3d47bfe8	0.048767
11	0xbd60346a	-0.054737486
12	0xbd305254	-0.043047264
13	0x3db6b1c8	0.08920628
14	0x3d69f35c	0.05711685
15	0xbe8fbfdd	-0.28076068
16	0xbd9d285e	-0.07673715
17	0xbe25d1d3	-0.16193323
18	0xbad2df6f	-0.0016088317
19	0x3e7ad19d	0.24494024
20	0xbca59748	-0.020213738
21	0xbe53c7da	-0.20681706
22	0xbe52baa4	-0.2057901
23	0x3db838ce	0.0899521
24	0x3ceafb87	0.02868439
25	0x3c23abbf	0.009989678
26	0x3e1fd94d	0.15610237
27	0x3d77906e	0.060440473
28	0xbc5876c2	-0.013211908
29	0xbea65483	-0.32486352
30	0x3dc4e51c	0.09614012
31	0x3e68bbff	0.22727965
32	0x3cc8640f	0.024461774
33	0x3d7cb204	0.061693206
34	0xbd6f169a	-0.058371164
35	0xbe070eef	-0.1318929
36	0x3c060cbe	0.008181749
37	0x3e760785	0.24026306
38	0x3e2955e7	0.16536675
39	0x3e7df7a4	0.24801499
40	0xbd63227c	-0.05545281
41	0xbd29b7c7	-0.04143503
42	0xbd527ef3	-0.0513906
43	0xbdc3c78d	-0.09559546
44	0xbd040d6f	-0.032239374
45	0xbdf9be77	-0.121945314
46	0x3ddfe4ec	0.10932335
47	0x3d78d829	0.06075302
48	0xbeb4913e	-0.3526706
49	0x3dea5a01	0.11442948
50	0xbeb51ee2	-0.35375124
51	0xbae8124c	-0.0017705648
52	0x3e111b17	0.1417049
53	0x3e192c9d	0.14958425
54	0xbdbaf9e4	-0.09129694
55	0xbe980f7c	-0.29699314
56	0xbd67fd36	-0.056637965
57	0xbdfe6ee6	-0.12423496
58	0xbd83fc5e	-0.064446196
59	0xbe2ad420	-0.16682482
60	0x3e20ee18	0.15715826
61	0x3da0e226	0.078556344
62	0x3e652905	0.22378929
63	0x3cc60333	0.024171447
64	0xbe402e68	-0.18767703
65	0x3dcc2b25	0.09969167
66	0x3e1375d7	0.14400421
67	0xbd861f57	-0.06548946
68	0xbd2049d8	-0.039132923
69	0x3d101fbf	0.035186525
70	0xbd6cf919	-0.057854746
71	0x3d4d32e1	0.05009735
72	0x3e2efd09	0.17088713
73	0x3c027d27	0.007964409
74	0xbd383f46	-0.044982217
75	0xbe59d56c	-0.2127282
76	0xbd8d4237	-0.06897395
77	0x3dc4da8d	0.09611998
78	0xbdc3100b	-0.09524544
79	0xbd5f3cd7	-0.05450138
80	0x3e365f5e	0.17809817
81	0x3de83774	0.11338702
82	0xbcc18d33	-0.0236269
83	0xbd594c63	-0.053051364
84	0x3d8902be	0.06689976
85	0xbd26b1f8	-0.040697068
86	0x3d74bc60	0.05974996
87	0xbdc0c9f4	-0.094135195
88	0xbdafd204	-0.08584979
89	0xbe27ce27	-0.16387235
90	0x3d122981	0.035684112
91	0xbc9465fb	-0.018115034
92	0x3bc2da58	0.0059464388
93	0x3c925b9b	0.017865947
94	0xbd750c0f	-0.059825953
95	0xbe0444fe	-0.12916943
96	0xbe8dbd57	-0.27683517
97	0xbcafc64f	-0.021456866
98	0xbdfee510	-0.12446034
99	0x3d2e1cef	0.042508062
100	0x3c86de3b	0.01646339
101	0xbde4d142	-0.11172725
102	0x3c729b57	0.014807544
103	0x3c76ba98	0.015059136
104	0xbdc7515b	-0.09732314
105	0xbe44483c	-0.1916818
106	0xbe1d054b	-0.1533405
107	0xbd35634c	-0.04428415
108	0x3bdf1ae1	0.006808624
109	0x3c8e7c2a	0.01739319
110	0xbe5c6789	-0.2152387
111	0x3ca37a5d	0.019955808
112	0xbe7d9368	-0.24763262
113	0xbdbc2b7b	-0.09187981
114	0xbe14a69d	-0.14516683
115	0xbb3fa648	-0.0029243398
116	0xbe0ed65e	-0.13948962
117	0x3dac91b2	0.08426227
118	0xbd8fc439	-0.070198484
119	0x3bb1ebfe	0.005429744
120	0xbd9c8be7	-0.07643872
121	0x3ddd8d97	0.10818022
122	0x3df68739	0.120375104
123	0xbe1f1130	-0.155339
124	0xbd20b19c	-0.03923188
125	0x3e89355f	0.2679853
126	0xbdab4341	-0.08362437
127	0xbe8162a2	-0.25270563
128	0x3e0ec31b	0.13941614
129	0xbc984308	-0.01858665
130	0xbe0ce1cb	-0.13758008
131	0x3e668b4e	0.22514078
132	0xbcf5a76f	-0.029987065
133	0xbe211042	-0.15728858
134	0xbdc9a64b	-0.09846171
135	0xbd719adb	-0.058985572
136	0x3c2fd48f	0.01073183
137	0xbabf6933	-0.0014603495
138	0x3e39f088	0.18158162
139	0x3de1a82e	0.11018406
140	0xbe107024	-0.14105278
141	0xbd5c1809	-0.05373386
142	0x3a39668f	0.00070724724
143	0xbde2dce3	-0.11077287
144	0xbe0ea36e	-0.13929531
145	0x3dd73ca9	0.10509617
146	0xbe62ef22	-0.22161534
147	0xbe1e13bb	-0.15437214
148	0x3d7e277c	0.062049374
149	0xbdc55e25	-0.09637097
150	0x3e4dca6e	0.20096752
151	0x3e395c0c	0.1810152
152	0xbe3ff798	-0.18746793
153	0xbd756c11	-0.059917513
154	0xbd300c07	-0.04298022
155	0x3eb81769	0.3595536
156	0x3d837df9	0.06420512
157	0xbe517737	-0.20455633
158	0xbe79c02e	-0.24389717
159	0xbda2da11	-0.07951749
160	0xb99ac048	-0.0002951643
161	0x3d57fdf8	0.052732438
162	0xbe2a7155	-0.16644795
163	0xbe47ef1a	-0.19524804
164	0xbe357b5e	-0.17722842
165	0xbe0e575a	-0.1390051
166	0x3e449f6f	0.19201444
167	0x3dbac855	0.091202416
168	0x3cf943ef	0.030427901
169	0xb922816c	-0.00015497737
170	0x3da5183f	0.08061265
171	0x3c19dbd5	0.009390791
172	0x3d10be02	0.035337456
173	0x3dae7773	0.08518877
174	0x3e1c0110	0.1523478
175	0xbd86ace7	-0.06575947
176	0xbdac2888	-0.08406168
177	0x3c81ab15	0.015828649
178	0xbe4e6f32	-0.20159605
179	0x3db94f58	0.09048337
180	0x3c19bb5c	0.009383049
181	0xbba78525	-0.0051123076
182	0x3cc9405b	0.02456682
183	0x3e5e18f3	0.21689205
184	0x3e2fa106	0.1715127
185	0xbd45a219	-0.04825029
186	0xbdf6ead4	-0.12056509
187	0xbe39fdba	-0.18163195
188	0x3e6b7a7b	0.22995941
189	0x3e2642e0	0.16236448
190	0xbde0e71d	-0.10981581
191	0xbec25735	-0.3795716
192	0xbe250c34	-0.16117936
193	0xbe105af3	-0.14097194
194	0x3db3edf4	0.0878562
195	0x3e0f5e42	0.140008
196	0x3d97141e	0.07376884
197	0x3e09d189	0.13458838
198	0xbce34da6	-0.027746987
199	0xbe1bdffd	-0.15222163
200	0x3d3452c4	0.044024244
201	0x3e386131	0.18005826
202	0xbe329979	-0.17441358
203	0xbd8a37ac	-0.067489
204	0x3dd50541	0.10401393
205	0xbea6c15e	-0.32569402
206	0x3ca8cded	0.020606006
207	0x3e0033f6	0.12519822
208	0x3d27eb67	0.04099598
209	0xbe2c5e39	-0.16832818
210	0x3dda631f	0.10663437
211	0x3e297e66	0.16552123
212	0xbe05ed02	-0.13078693
213	0xbe424f22	-0.189755
214	0xbdfd631a	-0.12372418
215	0x3e6009fe	0.21878812
216	0x3e3bc557	0.18336998
217	0xbda4ba14	-0.08043304
218	0xbda94925	-0.08265904
219	0x3e19eb2b	0.15031116
220	0x3dced7b8	0.10099739
221	0xbd3d5c13	-0.046230387
222	0xbd9037b6	-0.07041876
223	0xbd2782f3	-0.040896367
224	0x3e258b21	0.16166355
225	0x3ebc92f9	0.3683088
226	0x3d9917b6	0.074752256
227	0x3de55e2f	0.11199605
228	0xbdb45b46	-0.088064715
229	0xbe1a2353	-0.15052538
230	0x3de80874	0.11329737
231	0x3db5693a	0.08857961
232	0xbd8cc1a7	-0.06872874
233	0x3e2531eb	0.16132323
234	0x3de4bb52	0.11168541
235	0xbe9b4895	-0.30328813
236	0xbdcdc7e4	-0.10047892
237	0xbd866e12	-0.06563963
238	0xbe198ff0	-0.14996314
239	0x3d764298	0.060122102
240	0x3d84452c	0.06458506
241	0xbdf14789	-0.117812224
242	0x3dc2ebe0	0.09517646
243	0x3e260901	0.16214372
244	0xbdd093f7	-0.10184472
245	0x3d9d89cd	0.07692299
246	0x3db00ab8	0.085957944
247	0x3d18dddf	0.037320968
248	0x3d31e36b	0.043429773
249	0x3d7bbebc	0.061461195
250	0xbd9586d4	-0.07301107
251	0x3d958785	0.07301239
252	0x3e190fb0	0.1494739
253	0x3ce99c02	0.028516773
254	0x3e554aed	0.20829363
255	0x3ccadf3b	0.024764648

graph_prop.message_funcs.1.bias f4 [32]
0	0xbd529651	-0.051412884
1	0xbd88a4e2	-0.06672074
2	0x3e68d2e6	0.22736701
3	0xbe0bace2	-0.13640168
4	0x3e516558	0.20448816
5	0xbe4961ee	-0.19666263
6	0xbe54e59a	-0.20790711
7	0x3d17a122	0.037018903
8	0xbc210b07	-0.009829289
9	0x3e52f2c6	0.20600423
10	0x3e45d210	0.19318414
11	0xbdcd8530	-0.10035169
12	0x3d9d5cae	0.07683693
13	0x3e10c101	0.14136125
14	0x3df624dd	0.1201875
15	0xbc46b9ac	-0.012129229
16	0xbc19bd09	-0.009383448
17	0x3dc555ed	0.0963553
18	0x3d97796c	0.07396206
19	0x3d167676	0.036734067
20	0x3de92de7	0.11385708
21	0x3d86d643	0.06583836
22	0x3e0f0e9c	0.13970417
23	0xbdffb0e5	-0.12484912
24	0xbd81deac	-0.063412994
25	0xbdadfc8e	-0.084954366
26	0xbe08d62d	-0.13362952
27	0xbda7c7be	-0.08192395
28	0xbd22a2e7	-0.039706137
29	0xbeb99fd5	-0.36254755
30	0x3e0f926a	0.14020696
31	0xbc31b10a	-0.010845432

graph_prop.node_update_funcs.0.weight_ih f4 [48, 32]
0	0x3d92bcf4	0.07164946
1	0xbe55b380	-0.20869255
2	0xbe5ede95	-0.21764596
3	0x3e826cce	0.25473636
4	0xbe1528bb	-0.14566319
5	0xbc70dc6b	-0.014700989
6	0xbea293d8	-0.3175342
7	0xbcbc4971	-0.022984238
8	0xbe3b41de	-0.18286845
9	0x3e5996da	0.21248952
10	0xbe9cf810	-0.30658007
11	0xbe920943	-0.2852269
12	0xbcee15a2	-0.02906305
13	0x3d44c3f8	0.048038453
14	0xbdd8173f	-0.10551309
15	0x3cb53c33	0.022123432
16	0x3de43a89	0.11143977
17	0xbde8db61	-0.11369968
18	0x3e3d4c55	0.1848615
19	0xbe8d9380	-0.27651596
20	0xbcbf996d	-0.023388589
21	0x3e8c8b1f	0.2744989
22	0xbd69b9a0	-0.05706179
23	0x3e380ef0	0.17974448
24	0xbcae4ae2	-0.021275941
25	0xbe1b5ff2	-0.15173319
26	0xbeb4bf1f	-0.35302064
27	0x3cd8f2fa	0.026483048
28	0xbd09f955	-0.033685047
29	0x3ce1c607	0.027560247
30	0x3c1c86fa	0.009553665
31	0x3d57071b	0.05249701
32	0x3c8b91b9	0.01703726
33	0xbdf98a40	-0.12184572
34	0x3e38e045	0.18054302
35	0x3d623813	0.055229258
36	0x3e9d35e8	0.3070519
37	0x3e1617b3	0.14657478
38	0x3e0a32e4	0.13495976
39	0xbdf8f7f8	-0.12156671
40	0x3db63688	0.0889712
41	0x3d6eebd1	0.05833036
42	0xbd002d4a	-0.03129319
43	0xbec14383	-0.3774682
44	0xbd09319f	-0.033494588
45	0x3daf60e3	0.085634016
46	0xbe050b24	-0.12992531
47	0xbe630bb0	-0.22172427
48	0xbe514501	-0.20436479
49	0x3dd66306	0.10468106
50	0x3e4ec4b5	0.20192225
51	0xbea8e51d	-0.329873
52	0xbd85555e	-0.06510423
53	0xbc959d1d	-0.018263394
54	0xbe7f449b	-0.24928515
55	0xbde0ffe4	-0.10986307
56	0x3e8f4d7c	0.27988803
57	0xbe5c2e72	-0.21502092
58	0x3e96a2cc	0.2942108
59	0xbe5f2511	-0.21791483
60	0x3e565566	0.20931014
61	0xbdc254b4	-0.09488812
62	0xbe94d74a	-0.29070503
63	0xbe571e00	-0.21007538
64	0x3e64cd17	0.2234386
65	0x3bbc22b9	0.005741444
66	0x3ebd225a	0.3694027
67	0x3d50b02d	0.050949264
68	0x3c77c708	0.015123136
69	0xbd1bec74	-0.038067296
70	0xbd2e828a	-0.04260496
71	0x3d958cfd	0.07302282
72	0xbda04ad6	-0.07826774
73	0x3e2b0dc6	0.16704473
74	0x3e062d41	0.131032
75	0x3e366883	0.17813306
76	0x3d034a3c	0.032053217
77	0x3ddd2e9c	0.10799906
78	0xbd439727	-0.047751572
79	0xbd6b5d6f	-0.057462152
80	0x3ebe3dda	0.37156564
81	0x3e15abe6	0.14616355
82	0xbdccdbca	-0.10002859
83	0x3d890cfd	0.066919304
84	0xbd8b7855	-0.06810061
85	0x3d4ce687	0.050024536
86	0xbe914a41	-0.28376964
87	0x3ea6417f	0.32471845
88	0x3d81be38	0.063351095
89	0xbcc6868c	-0.024234079
90	0x3d638e2a	0.0555555
91	0xbceffcd4	-0.029295363
92	0x3d5debe7	0.054180052
93	0x3d3faf97	0.046798315
94	0xbe9b8889	-0.30377606
95	0x3d51d817	0.05123147
96	0xbee38f24	-0.44445145
97	0xbe1dafd6	-0.15399107
98	0xbe8b756e	-0.2723803
99	0x3dd3c4bc	0.103402585
100	0x3d99b1b3	0.075045966
101	0xbea0d125	-0.31409565
102	0xbe9993db	-0.29995617
103	0xbca13d6b	-0.019682607
104	0xbe96c534	-0.2944733
105	0xbe781b1a	-0.24229088
106	0xbbd4cb80	-0.0064939857
107	0xbe85b088	-0.26111245
108	0xbd812cdd	-0.06307385
109	0xbe84d4a3	-0.2594348
110	0xbe901d45	-0.2814733
111	0xbd23ca7e	-0.039988033
112	0x3e23ea24	0.16007286
113	0xbdc7c9f2	-0.09755315
114	0xbe0a2e0d	-0.1349413
115	0xbea50105	-0.3222734
116	0x3d13b057	0.036056843
117	0xbe4b97b1	-0.19882084
118	0xbd70ff6f	-0.05883735
119	0xbe37e041	-0.1795664
120	0xbeccf8c7	-0.40033552
121	0xbdf5824e	-0.11987744
122	0x3bad5add	0.0052903728
123	0x3dd4cbfe	0.10390471
124	0xbd9c9f3f	-0.07647561
125	0xbe963942	-0.2934056
126	0xbe831252	-0.25599915
127	0xbe413491	-0.18867709
128	0xbd3fb99c	-0.04680787
129	0x3e8afb5e	0.27144903
130	0xbe404e44	-0.18779856
131	0xbd95ff5c	-0.073240966
132	0x3e302007	0.17199717
133	0xbe2922a6	-0.16517124
134	0xbd3d18fb	-0.0461664
135	0x3e7c33f1	0.24629189
136	0x3e2aee5f	0.16692494
137	0x3d014acc	0.031565472
138	0x3cf96296	0.030442517
139	0xbddb660f	-0.107128255
140	0xbe95ac88	-0.29233193
141	0x3d9baaec	0.0760096
142	0x3d802141	0.06256343
143	0xbdb1b199	-0.08676452
144	0xbe0274ce	-0.1273987
145	0x3ea83e89	0.3286021
146	0xbe189658	-0.14901102
147	0x3e016ee8	0.12639964
148	0xbde0cf30	-0.10977018
149	0xbda544dc	-0.080697745
150	0xbdc8e843	-0.098099254
151	0x3ebc89e9	0.36823967
152	0xbdf183d8	-0.11792725
153	0xbe34980c	-0.17636126
154	0x3dd000e4	0.1015642
155	0x3d4ff9c0	0.05077529
156	0x3d8c3e2f	0.06847798
157	0xbc4bd7b4	-0.012441564
158	0xbd5ad8e4	-0.0534295
159	0x3c131753	0.008977729
160	0x3dfd79e0	0.123767614
161	0xbcda3e9d	-0.026641184
162	0xbc3b546d	-0.011433703
163	0xbe313acc	-0.17307585
164	0xbe867d73	-0.26267585
165	0xbe5ddd92	-0.21666554
166	0xbcfcbc09	-0.03085138
167	0x3dbbb5e5	0.09165553
168	0xbe283b40	-0.16428852
169	0xbe12e85c	-0.1434645
170	0x3d949544	0.07255033
171	0x3d2f06af	0.042730983
172	0xbeae1f8c	-0.34008443
173	0xbe8b93bc	-0.2726115
174	0xbdab7db8	-0.08373588
175	0xbebaab95	-0.36459032
176	0xbda5d2e1	-0.080968626
177	0xbce66f7b	-0.02812933
178	0xbd65a5cf	-0.05606633
179	0xbe41e8d6	-0.18936476
180	0x3c7f18da	0.01556989
181	0xbeaa0e4d	-0.33214036
182	0xbe2944b3	-0.16530113
183	0x3c8d16e3	0.017222827
184	0xbe051cfd	-0.1299934
185	0x3ee0fd50	0.43943262
186	0x3c2daf13	0.010600823
187	0x3de27665	0.11057738
188	0x3d642d3f	0.055707213
189	0xbec2f493	-0.3807722
190	0xbcc61801	-0.024181368
191	0xbe1afb61	-0.15134956
192	0x3e86352e	0.26212448
193	0xbec6729e	-0.3875932
194	0xbe3cc931	-0.18436123
195	0xbc58aea9	-0.013225236
196	0x3e35707e	0.17718694
197	0xbe6c23b3	-0.23060493
198	0xbca69048	-0.02033247
199	0xbe16abc4	-0.14713961
200	0xbef25a3f	-0.47334477
201	0x3d9fff6c	0.0781239
202	0xbe85ecc4	-0.261572
203	0x3de25675	0.110516466
204	0x3eabc241	0.3354664
205	0xbddad809	-0.10685737
206	0x3beeeb5b	0.00729124
207	0xbe31f656	-0.17379126
208	0xbdf40130	-0.11914289
209	0xbb0a3f93	-0.0021095022
210	0x3bcc2589	0.0062300605
211	0xbc4ac13c	-0.012375172
212	0xbe42acbe	-0.19011208
213	0xbe12440c	-0.1428377
214	0xbd8b97f3	-0.068160914
215	0x3d708de8	0.058729082
216	0x3cf4fb36	0.029904943
217	0xbe78e526	-0.24306163
218	0xbe65aa34	-0.22428209
219	0x3db48490	0.08814347
220	0xbdfe59ea	-0.124194935
221	0x3e206938	0.15665138
222	0x3e86324d	0.2621025
223	0x3e1cfe79	0.15331449
224	0xbe483051	-0.19549681
225	0x3e4342f7	0.19068514
226	0x3e6a9bfe	0.22911069
227	0xbd29a63a	-0.04141829
228	0x3e5c7ead	0.21532698
229	0x3d303409	0.043018375
230	0xbe42114a	-0.18951908
231	0xbc6612b6	-0.014042547
232	0x3e26ae84	0.1627751
233	0x3db4d091	0.088288434
234	0x3d2fe80c	0.042945907
235	0x3cb85c8f	0.022505073
236	0x3d7c4875	0.061592538
237	0x3dd93c42	0.106071964
238	0x3deb6de3	0.114955686
239	0xbe0a77d0	-0.13522267
240	0x3dad2564	0.08454397
241	0x3a1f274f	0.0006071226
242	0xbe791be3	-0.24327044
243	0xbe55de52	-0.2088559
244	0xbb9baabd	-0.004750578
245	0xbc707a0c	-0.014677536
246	0x3e078b6a	0.13236776
247	0x3ca372c1	0.01995218
248	0x3dbd821a	0.092533305
249	0xbd17a63f	-0.03702378
250	0xbc9f2a04	-0.019429214
251	0x3d89face	0.0673729
252	0xbebc96fa	-0.36833936
253	0x3eb1c2b7	0.34718868
254	0xbdac3a4b	-0.08409556
255	0xbe52fb91	-0.20603777

graph_prop.node_update_funcs.0.weight_hh f4 [48, 16]
0	0x3d46782e	0.048454456
1	0xbe4f3fdd	-0.20239206
2	0xbd836aea	-0.064168766
3	0xbe86f8c1	-0.2636166
4	0xbe8bdb71	-0.27315858
5	0xbe5fa3a4	-0.21839768
6	0x3da414fe	0.080118164
7	0xbde141b3	-0.10998859
8	0xbe7872d5	-0.24262555
9	0x3e631d3b	0.2217912
10	0x3e3d5505	0.18489464
11	0x3e8a183f	0.26971623
12	0xbe0e90ae	-0.13922378
13	0x3d0de67c	0.034643635
14	0x3e211133	0.15729217
15	0xbceae2fa	-0.028672684
16	0xbca1b710	-0.019740611
17	0xbe74ac7f	-0.23893927
18	0xbd50025f	-0.05078351
19	0x3dac4a54	0.084126145
20	0xbc7e943f	-0.015538274
21	0x3e3c786b	0.18405311
22	0xb9dcd44c	-0.00042119843
23	0x3d5088fc	0.05091189
24	0x3e1c5193	0.15265493
25	0x3e89e40f	0.26931807
26	0xbdc7565c	-0.097332686
27	0x3f3426e0	0.7037182
28	0x3e80422d	0.25050488
29	0x3e81255e	0.2522382
30	0xbf0f125d	-0.55887395
31	0xbe0c16b0	-0.1368053
32	0xbe00b6d2	-0.1256974
33	0x3dbed10a	0.09317215
34	0xbd807c5c	-0.0627372
35	0x3e7842ac	0.24244183
36	0xbe53d419	-0.20686378
37	0xbcc1f918	-0.023678347
38	0xbd6fdf13	-0.05856235
39	0x3cb64528	0.022249773
40	0xbe3595c6	-0.17732915
41	0x3e5ef9a5	0.2177492
42	0xbc975874	-0.018474795
43	0xbdc1faf2	-0.09471692
44	0x3daa1aa1	0.0830586
45	0xbdf297d2	-0.11845364
46	0xbe3752c9	-0.17902674
47	0xbec83e29	-0.39109924
48	0x3d186a0d	0.037210513
49	0x3d649f44	0.05581595
50	0xbcded6b2	-0.027201984
51	0xbe15bc7b	-0.14622681
52	0x3c442278	0.011971109
53	0xbb970553	-0.004608789
54	0x3c784b73	0.015154707
55	0xbd8a9409	-0.06766517
56	0xbc33b448	-0.010968275
57	0xbddc83e5	-0.107673444
58	0xbe3436a8	-0.17598975
59	0x3e0675e2	0.13130906
60	0x3eab5881	0.3346596
61	0x3e8847a7	0.26617166
62	0x3de81cff	0.113336556
63	0x3e7de822	0.24795583
64	0x3dbaef04	0.0912762
65	0x3e0f8a15	0.14017518
66	0xbe87e20f	-0.26539657
67	0x3d5ab7a6	0.053397797
68	0xbe126674	-0.14296895
69	0xbc64108e	-0.013919963
70	0x3d89b70b	0.06724366
71	0xbe01f797	-0.12692104
72	0xbe366a5f	-0.17814015
73	0xbecea2e7	-0.4035866
74	0x3da9e0be	0.08294819
75	0x3e6cf137	0.23138891
76	0xbe32f91b	-0.17477839
77	0xbe68cfd9	-0.22735538
78	0xbec47696	-0.38371724
79	0xbdad6101	-0.08465768
80	0x3d7f396c	0.06231062
81	0x3dae0385	0.08496765
82	0x3ec4b6e0	0.38420773
83	0x3e2167ec	0.157623
84	0xbdd08983	-0.10182478
85	0xbe4c2684	-0.19936568
86	0xbe8de2e1	-0.27712157
87	0xbd8fc80d	-0.070205785
88	0x3ba5710c	0.0050488766
89	0x3cb26857	0.021778269
90	0xbedb84d8	-0.4287479
91	0xbe4cc676	-0.19997582
92	0x3dd35e07	0.10320669
93	0xbeaeefda	-0.34167367
94	0xbd1f0aa6	-0.038828515
95	0xbd148ea0	-0.03626883
96	0x3e00288f	0.12515472
97	0xbdbd0042	-0.09228565
98	0xbe1312c4	-0.14362627
99	0xbedb2a52	-0.42805725
100	0x3b165163	0.0022936694
101	0x3e018f65	0.12652357
102	0x3e22f9db	0.15915625
103	0x3e2a927d	0.16657443
104	0xbdf57be1	-0.11986519
105	0xbba49605	-0.0050227665
106	0x3d290844	0.04126765
107	0x3e0eb325	0.13935526
108	0xbeb7b795	-0.3588225
109	0x3eb9af7c	0.36266696
110	0x3edc2938	0.43000197
111	0xbea7f7ba	-0.32806188
112	0xbe240a68	-0.16019595
113	0x3e8ff1bd	0.2811412
114	0xbcd628ea	-0.026142556
115	0x3d663c95	0.05621012
116	0x3dbc06c0	0.09180975
117	0x3e033223	0.12812094
118	0x3b332a57	0.002733847
119	0xbd4b51bb	-0.04963849
120	0xbea4c9e9	-0.32185295
121	0xbd55dd3f	-0.05221295
122	0xbe178e9f	-0.148005
123	0xbd2b9a39	-0.041895125
124	0x3cf3baab	0.029752096
125	0xbe9a2cdd	-0.30112353
126	0xbca268a2	-0.019825283
127	0x3e8bf15f	0.2733259
128	0xbed55029	-0.4166272
129	0x3de238e1	0.11046005
130	0x3e0353b4	0.12824899
131	0x3e560ff8	0.20904529
132	0xbc64c046	-0.013961857
133	0xbe52a7e2	-0.20571855
134	0xbedc1646	-0.42985743
135	0x3e821beb	0.25411925
136	0xbdcc6121	-0.09979463
137	0xbe23b13b	-0.15985577
138	0x3e43e0f5	0.19128783
139	0x3e4b176d	0.19833155
140	0x3dc3effd	0.095672585
141	0x3d6bfda3	0.057614934
142	0xbdf2e94b	-0.11860903
143	0xbeeb17b8	-0.45916533
144	0x3d60fd47	0.054929044
145	0xbeadb0e5	-0.33924022
146	0xbd2a8555	-0.04163106
147	0x3d7a61d9	0.06112847
148	0x3e1dc188	0.15405858
149	0xbe0f8200	-0.14014435
150	0x3d44b04b	0.04801969
151	0xbe316f05	-0.17327507
152	0xb88bc489	-6.664644e-05
153	0x3ca76e29	0.02043827
154	0x3e825eca	0.25462943
155	0xbebe81f1	-0.37208512
156	0x3d769cbe	0.060208075
157	0x3ddc4f06	0.1075726
158	0x3df6d996	0.1205322
159	0x3d676b19	0.05649862
160	0x3dbd00bf	0.09228658
161	0x3e4f78df	0.20260952
162	0x3e57a3bb	0.21058552
163	0xbdfdff95	-0.12402264
164	0xbd9413fd	-0.07230375
165	0x3dde1df7	0.10845559
166	0x3e02faa1	0.1279092
167	0xbdb921f7	-0.090396814
168	0x3e868270	0.2627139
169	0xbe07bcea	-0.13255659
170	0x3e6d30e8	0.23163188
171	0xbe53b13c	-0.20673078
172	0xbe37915d	-0.17926545
173	0xbde66be5	-0.11251048
174	0xbe07cad9	-0.13260974
175	0xbd86905c	-0.06570503
176	0xbda8f9aa	-0.08250745
177	0x3dc2ee26	0.095180795
178	0xbe791a4d	-0.24326439
179	0x3e7ba36c	0.24574059
180	0x3ea3842e	0.31936783
181	0xbcf8447e	-0.030306097
182	0x3e884c11	0.26620534
183	0xbb877689	-0.0041340035
184	0xbeb42e0f	-0.3519139
185	0xbe457ec3	-0.19286637
186	0x3d8e49ea	0.06947692
187	0x3b4dd364	0.0031406516
188	0xbea0d9c8	-0.31416154
189	0x3dfee90c	0.12446794
190	0xbe23899c	-0.15970463
191	0xbca95a06	-0.02067281
192	0xbf03ea6e	-0.51529586
193	0xbf190b64	-0.59783006
194	0x3d4f77f0	0.05065149
195	0x3c0c472c	0.008561891
196	0xbc27598c	-0.010214221
197	0x3cf74402	0.030183796
198	0xbe8fdc8e	-0.28097957
199	0xbe170504	-0.14748007
200	0x3e89175c	0.26775634
201	0x3e8ebc03	0.27877817
202	0xbeb8e02e	-0.36108536
203	0x3e237f1e	0.1596646
204	0x3eca35b6	0.39494103
205	0x3ea29eb5	0.3176171
206	0xbb98da58	-0.0046647005
207	0x3ecb231b	0.3967522
208	0xbe8215f9	-0.2540739
209	0xbdb944fe	-0.09046362
210	0xbe5428b2	-0.20718649
211	0x3e1b11e1	0.15143539
212	0x3e40bf8f	0.18823074
213	0xbdd961d3	-0.106143616
214	0xbd56aa25	-0.052408356
215	0xba9d8f2f	-0.0012020821
216	0xbdb03a25	-0.0860484
217	0xbe8e6fad	-0.27819577
218	0xbdbffce6	-0.093744084
219	0x3d833d37	0.0640816
220	0x3e5882a5	0.21143587
221	0xbdbb700e	-0.09152232
222	0x3e8ba0e1	0.27271178
223	0xbd8fdf14	-0.07024971
224	0xbed174eb	-0.40909514
225	0xbd51632b	-0.051119965
226	0x3e6f92e9	0.23395886
227	0xbe2cf144	-0.1688891
228	0xbef774ff	-0.48331448
229	0xbe4f4f0e	-0.20245
230	0xbe8796ad	-0.26482144
231	0xbe7af472	-0.24507311
232	0x3e9b665c	0.30351532
233	0x3ed49713	0.4152151
234	0xbedc743c	-0.4305743
235	0xbdf9ec9f	-0.12203335
236	0x3e32b9b2	0.1745365
237	0xbd323c8e	-0.04351478
238	0x3dc76f7a	0.09738059
239	0x3e11502c	0.1419074
240	0x3e00f65f	0.12593983
241	0xbe676913	-0.22598676
242	0x3df05f3e	0.11736916
243	0xbe63db44	-0.22251612
244	0xbe7bbf37	-0.24584661
245	0x3d383acf	0.04497796
246	0xbe3f1ec3	-0.18664078
247	0x3e132f88	0.143736
248	0x3dc64eb8	0.09682983
249	0xbda54ac0	-0.08070898
250	0xbd65c66d	-0.056097437
251	0xbe552253	-0.20813875
252	0xbe05d110	-0.13068032
253	0x3dab6b98	0.08370131
254	0xbd92a5f8	-0.07160562
255	0xbd3c15b1	-0.045919124

graph_prop.node_update_funcs.0.bias_ih f4 [48]
0	0xbf7d6981	-0.9898911
1	0xbf828ff3	-1.020018
2	0xbf1bde86	-0.6088642
3	0xbf422995	-0.758447
4	0xbf14bda0	-0.58101845
5	0xbf125026	-0.57153547
6	0x3e645b66	0.2230049
7	0x3eceb3e6	0.40371627
8	0xbf09c3e8	-0.53814554
9	0xbf1b7287	-0.6072163
10	0x3e8b37fa	0.27191144
11	0x3fa8ea2f	1.3196467
12	0xbf0c0966	-0.5470184
13	0x3d177da6	0.036985062
14	0xbfa5a903	-1.2942203
15	0xbf9142fd	-1.1348568
16	0xbfb3b564	-1.4039731
17	0xbf96c80c	-1.17798
18	0xbf9866cd	-1.1906372
19	0xbf68e265	-0.9097045
20	0x3f80b9ac	1.0056663
21	0x3f898507	1.0743722
22	0x3f0f7119	0.5603195
23	0x3f05a3d7	0.52203125
24	0x3f2035ef	0.62582296
25	0xbe0714cb	-0.13191526
26	0x3f7d68f9	0.989883
27	0x3eed6b60	0.46370983
28	0xbea274f8	-0.31729865
29	0x3e4bb114	0.19891769
30	0xbee82cdf	-0.45346734
31	0xbfaaab0a	-1.3333447
32	0x3e04e427	0.12977658
33	0x3fa2b415	1.2711207
34	0x3f3846fc	0.71983314
35	0xbf4ae2ee	-0.7925252
36	0xbf90126f	-1.1255625
37	0xb8ccd0d8	-9.766378e-05
38	0x3f65d294	0.8977444
39	0xbe07790b	-0.13229768
40	0xbf0ebe8c	-0.557595
41	0x3fd93d7e	1.6971891
42	0x3f84607d	1.0341946
43	0x3fb27936	1.3943241
44	0x3f4c5a24	0.79825044
45	0xbf49812c	-0.78712726
46	0x3f5e31df	0.8679485
47	0x3efcb10e	0.49353832

graph_prop.node_update_funcs.0.bias_hh f4 [48]
0	0xbe0aa0a6	-0.13537845
1	0x3e6b7408	0.22993481
2	0xbfd6c3d8	-1.6778517
3	0xbdcd9e99	-0.10040016
4	0xbf3b2c6c	-0.7311466
5	0xbdf8f623	-0.12156322
6	0x3efd94ce	0.4952759
7	0xbd19483a	-0.037422396
8	0x3f68159c	0.90657973
9	0xbf28fac8	-0.6600766
10	0x3e266a67	0.16251527
11	0x3c5647b0	0.013078615
12	0x3fbcbf26	1.4745834
13	0xbfa0eb17	-1.2571744
14	0x4012a8e5	2.2915585
15	0xbf5ee919	-0.8707443
16	0xbe905c0e	-0.28195232
17	0xc012b3e5	-2.29223
18	0xbefd35f9	-0.4945524
19	0xbe338534	-0.17531282
20	0x3f8b19b5	1.086722
21	0x3ea17449	0.3153403
22	0xbeb8ac96	-0.36069173
23	0xbf8463b5	-1.0342928
24	0xbf9e3611	-1.236025
25	0x3fff1a93	1.9929985
26	0x3f957fa0	1.1679573
27	0xbfd87403	-1.6910404
28	0xbe5d538c	-0.21613902
29	0xbf877f8e	-1.0585802
30	0x3f112676	0.5669931
31	0x3f1701e8	0.58987284
32	0x3ed1e78b	0.40996966
33	0x3f16ad05	0.58857757
34	0xbfceef15	-1.6166712
35	0xbeca73d7	-0.39541504
36	0xbec93b97	-0.39303276
37	0xbf3c6f3a	-0.7360722
38	0x3ea6fa87	0.32613012
39	0xbec0fb81	-0.37691882
40	0xbf903dee	-1.12689
41	0x3f15b9a6	0.584864
42	0xbd71a82e	-0.05899828
43	0xbfc7b10b	-1.5600904
44	0x3f879fa0	1.0595589
45	0xbfbe238a	-1.4854596
46	0xbf468146	-0.77541006
47	0xbf854680	-1.041214

graph_prop.node_update_funcs.1.weight_ih f4 [48, 32]
0	0xbe3ac181	-0.18237878
1	0x3c9f9e11	0.019484552
2	0x3e42d72c	0.19027394
3	0xbd4fe90f	-0.05075937
4	0x3e26b8d3	0.16281442
5	0xbdc6016c	-0.0966824
6	0x3e0e4c06	0.13896188
7	0x3d838e10	0.06423581
8	0x3e8f506d	0.27991048
9	0xbe376abd	-0.17911811
10	0x3e92d4d3	0.28677997
11	0x3d73935b	0.0594667
12	0xbdd7020a	-0.10498436
13	0x3d0ef2a1	0.034899358
14	0x3e6b593a	0.22983256
15	0xbb5e017b	-0.0033875394
16	0xbe47de6e	-0.19518444
17	0x3e422016	0.18957552
18	0xbd88d566	-0.066813275
19	0xbe810540	-0.25199318
20	0x3e515121	0.20441104
21	0x3b65d144	0.003506736
22	0x3e41181e	0.18856856
23	0xbe0b32ab	-0.13593547
24	0xbdd3531f	-0.103185885
25	0xbd6d1222	-0.05787862
26	0xb8a4e897	-7.8634526e-05
27	0x3df52538	0.119699895
28	0x3d0cedfb	0.034406643
29	0xbebfd5f7	-0.3746793
30	0x3e8a9714	0.27068388
31	0xbd766ece	-0.060164265
32	0xbe47d42a	-0.19514528
33	0xbdc95541	-0.09830714
34	0x3e4bb5bb	0.19893543
35	0x3d8da5eb	0.06916412
36	0xbe36144b	-0.17781179
37	0x3e54678d	0.20742626
38	0xbc72d9fc	-0.014822479
39	0xbe8ef857	-0.27923843
40	0xbe891bd5	-0.26779047
41	0xbe3629ca	-0.17789379
42	0x3dc90856	0.09816043
43	0x3e29434c	0.16529578
44	0xbdfa21f2	-0.12213506
45	0xbe2e26e5	-0.17007025
46	0x3e24a833	0.16079788
47	0xbd886132	-0.066591635
48	0xbee73095	-0.45154253
49	0x3e3d5ffb	0.18493645
50	0x3e03708a	0.12835899
51	0xba225619	-0.0006192639
52	0xbdc8d09f	-0.09805416
53	0x3e0d8e37	0.13823782
54	0xbe94ddb7	-0.29075405
55	0xbd4f4fb9	-0.05061314
56	0xbdb3a0e2	-0.0877092
57	0xbdaaabb3	-0.0833353
58	0xbe60f623	-0.21968894
59	0x3ca71ef6	0.020400506
60	0x3e241aa0	0.16025782
61	0x3e175bfc	0.14781183
62	0xbe2a3a77	-0.16623865
63	0x3dde294c	0.108477205
64	0x3e097d6f	0.13426755
65	0x3dbb5900	0.09147835
66	0x3cedc32e	0.029023733
67	0xbe303024	-0.17205864
68	0x3e08f444	0.1337443
69	0x3e8b2446	0.27176112
70	0xbe2c5c0b	-0.16831987
71	0xbd379852	-0.044823
72	0x3cd85063	0.026405519
73	0x3e98e88d	0.29864922
74	0xbd11630b	-0.035494845
75	0xbe8d1cc3	-0.27561006
76	0x3dc2c01f	0.095093004
77	0xbde33abb	-0.11095186
78	0x3e7a4a8a	0.24442497
79	0x3e967b21	0.29390815
80	0xbde09247	-0.109654
81	0x3e3f499d	0.18680425
82	0xbdb57d07	-0.08861738
83	0x3e0b8202	0.13623813
84	0xbe0802c9	-0.13282312
85	0x3d914cfd	0.070947625
86	0x3de26252	0.11053909
87	0x3d04970b	0.03237061
88	0x3e9ea2fe	0.30983728
89	0xbd355927	-0.044274475
90	0x3d242d03	0.04008199
91	0xbd4ca9b8	-0.049966544
92	0xbe81c11f	-0.25342652
93	0xbe7a1a03	-0.24423985
94	0xbd0925c7	-0.033483293
95	0x3e9b3971	0.30317262
96	0x3e52cd05	0.20586021
97	0xbddca9ea	-0.10774596
98	0xbe169012	-0.14703396
99	0x3d129e0f	0.035795268
100	0x3c36b491	0.011151449
101	0xbb8ba650	-0.0042617694
102	0x3db68bb4	0.08913365
103	0xbe1bcc41	-0.15214635
104	0x3e5deea9	0.21673073
105	0x3ed0b9b8	0.40766692
106	0xbe6a8001	-0.22900392
107	0x3db311df	0.08743643
108	0x3e657ec1	0.22411634
109	0x3dba7ac0	0.09105444
110	0xbebe6e57	-0.37193558
111	0xbd8d3bf0	-0.06896198
112	0xbe44783b	-0.1918649
113	0x3e60a41f	0.21937607
114	0xbde003be	-0.10938214
115	0x3e100f70	0.14068389
116	0x3d501eb6	0.05081054
117	0x3e3eb584	0.1862393
118	0x3ddc1b87	0.10747438
119	0xbd5f0659	-0.054449413
120	0x3da0be9d	0.078488566
121	0x3e3e7ddd	0.186027
122	0xbbe72073	-0.007053429
123	0x3c8e48f0	0.017368764
124	0x3de1b97f	0.11021709
125	0xbd89cc70	-0.067284465
126	0xb8a25e5e	-7.742339e-05
127	0xbd8c15ce	-0.068400964
128	0x3e7926f1	0.24331261
129	0xbe572842	-0.21011451
130	0xbd2f73a8	-0.042834908
131	0xbe509852	-0.20370606
132	0xbdac3fd7	-0.08410614
133	0x3ce743d0	0.028230578
134	0x3d979d50	0.07403052
135	0xbea976c9	-0.33098438
136	0xbcc7e587	-0.02440144
137	0xbd60f873	-0.05492444
138	0xbe764ff4	-0.24053937
139	0xbc1cc96f	-0.00956951
140	0xbd706855	-0.05869325
141	0x3c375123	0.011188778
142	0x3da9d1cb	0.08291968
143	0xbe3ac513	-0.1823924
144	0xbe9066f4	-0.28203547
145	0x3c9115ca	0.017710585
146	0xbd0e2c36	-0.03471013
147	0x3e575029	0.21026672
148	0x38ebf553	0.000112513684
149	0xbee86e19	-0.45396498
150	0xbe000b71	-0.12504365
151	0x3e9acf02	0.3023606
152	0x3debb9ae	0.11510025
153	0xbe504c47	-0.20341597
154	0xbd905eb0	-0.0704931
155	0x3e41aa8d	0.18912716
156	0x3d1b4fb5	0.03791781
157	0xbe95d495	-0.2926375
158	0x3e0cc0a4	0.13745362
159	0x3df86a95	0.12129704
160	0xbd19eec3	-0.037581217
161	0xbdc2c5bc	-0.09510371
162	0x3e587645	0.21138866
163	0xbe95347e	-0.2914161
164	0x3c9b4d56	0.018957775
165	0xbe5ead70	-0.21745849
166	0xbccb0d73	-0.024786687
167	0xbe62512f	-0.22101282
168	0x3e3c8bbd	0.18412681
169	0xbeb65468	-0.35611272
170	0xbe44d168	-0.19220507
171	0x3d059c21	0.0326196
172	0x3cbbc5e7	0.022921516
173	0xbd968c96	-0.073510334
174	0x3e50a2da	0.20374623
175	0x3d3f9d23	0.046780717
176	0x3ca146df	0.019687114
177	0xbead94e4	-0.33902657
178	0x3c4962bf	0.012291609
179	0xbdd1fce1	-0.10253311
180	0xbe839f5d	-0.25707522
181	0x3de304eb	0.110849224
182	0xbe75da05	-0.24008949
183	0xbd414d71	-0.047192995
184	0xbe04c20a	-0.12964645
185	0x3d20b9a5	0.039239544
186	0xbdbb9aed	-0.09160409
187	0xbbc124e1	-0.005894289
188	0xbdb6c079	-0.0892343
189	0x3e6d77a6	0.23190174
190	0x3cff7e8f	0.031188278
191	0xbdb76c04	-0.08956149
192	0xbe62b46f	-0.22139142
193	0xbd0bbc79	-0.03411529
194	0x3e8dc60a	0.27690154
195	0x3ec13735	0.37737432
196	0xbe37c807	-0.17947398
197	0xbec38336	-0.38186044
198	0xbd8675db	-0.06565448
199	0xbdbf0744	-0.09327558
200	0x3c30d869	0.010793784
201	0xbf07e494	-0.5308316
202	0x3ac9e2da	0.001540269
203	0xbe2040cd	-0.1564972
204	0xbe29e367	-0.16590653
205	0x3cb3e273	0.021958565
206	0xbe899be0	-0.26876736
207	0xbd13d404	-0.036090866
208	0x3c105cb8	0.008811168
209	0xbb52b800	-0.003215313
210	0xbe0541d1	-0.13013388
211	0xbdf1d489	-0.11808116
212	0xbe93d5d9	-0.2887409
213	0x3dd89ca0	0.10576749
214	0xbe1169bd	-0.14200492
215	0xbcccc89f	-0.024998007
216	0x3e66641c	0.22499126
217	0x3dc545cb	0.096324526
218	0x3db2aed1	0.0872475
219	0xbde89c53	-0.113579415
220	0xbee3a417	-0.44461128
221	0xbe444008	-0.19165051
222	0xbe7e6791	-0.24844195
223	0xbe730485	-0.23732193
224	0xbd33c5f2	-0.043889947
225	0xbe52434e	-0.20533487
226	0x3ea20ad9	0.316489
227	0xbca86487	-0.020555748
228	0xbd68fdaa	-0.056882538
229	0x3e577667	0.2104126
230	0x3da0208c	0.07818708
231	0x3e577d8e	0.21043989
232	0x3d565597	0.05232772
233	0xbd788d97	-0.060681906
234	0x3e03da6c	0.1287629
235	0xbdbe187b	-0.09282013
236	0xbc100a33	-0.008791494
237	0xbb7a9289	-0.0038234314
238	0xbe892bdd	-0.26791278
239	0x3e2a35a9	0.16622032
240	0x3d6db408	0.05803302
241	0xbe352f1e	-0.17693755
242	0xbe2b1249	-0.16706194
243	0x3e114690	0.14187074
244	0xbe55f5b3	-0.20894508
245	0xbd255684	-0.04036571
246	0xbe701a17	-0.23447452
247	0x3e42c793	0.19021444
248	0x3d84922f	0.06473195
249	0xbe0cd1b5	-0.13751872
250	0xbd7133b5	-0.058887202
251	0xbda4cb17	-0.08046549
252	0x3d85de38	0.065365255
253	0xbdc38ff9	-0.09548945
254	0x3e3ae263	0.18250422
255	0xbe2ca7d7	-0.16860901
