housingpipeline/housingpipeline/floor_plan_pipeline/pretrained_models/dgmg_state_dict.pth (torch, 308868 bytes, 52 tensors)

graph_embed.node_gating.0.weight f4 [1, 16]
00000000: bae0 d33e 75ec 04bd 9ace 583f 2452 453d
00000010: 4988 b3bc c0f4 86bc 79b0 87be 217b eebd
00000020: f537 a23e d935 d53e 3186 a03e d955 f13e
00000030: 0e9a b83d 8413 b2be d939 5a3d ea1d 943e
0.4138239 -0.032452065 0.8469025 0.04817404 -0.021915572 -0.016474128 -0.26501825 -0.11644579
0.31683317 0.41642645 0.3135238 0.4713581 0.090137586 -0.34780514 0.053277824 0.28929073

graph_embed.node_to_graph.weight f4 [32, 16]
00000000: ce71 5bbe a060 b43e ea16 f83d d2cb be3d
00000010: 571c 2ebf b958 faba 48e5 843e 4dd6 453e
00000020: 242b 60bb 1267 af3a 9374 04be 1d2c bc3e
00000030: c43f 2b3e 43aa 3d3d 24a4 c73e b93a ccbe
00000040: e0fe 8dbe b44b 293d ccc8 383e 7558 8a3e
00000050: 2bda 21be f663 bc3e 8ae8 c93b d88d 05bd
00000060: aae5 02be 1a88 8cbc 30c0 a6bd 66e6 903e
00000070: 7c25 cc3d f09d 93bd cd8a 2e3e 85ca 4d3d
00000080: 79b4 75be adcf abbd f611 83be a3a3 90be
00000090: 50e7 9abe a58a 52be a0d4 6c3e 5e7d 743d
000000a0: 89df ed3c ef5e 10be a120 343e 8b27 bebc
000000b0: 798a 50be 81a7 0d3e 4c17 76be 7df1 bc3e
000000c0: 798e 9b3d a3db 623d 2534 eebc 727b 453d
000000d0: b40c 193c 2b20 c33b 242e 023f a5f4 ae3b
000000e0: 0433 c0bd 4a96 babd b09e b53e 184b 55bc
000000f0: 68f4 913d fe91 debd 38f0 f6bd 8460 06bd
00000100: 9783 aabe 2214 a2be b854 00bf cbac 10bc
00000110: b79d 863e 8824 933e f73f 48bc 264d ad3c
00000120: 2de5 ae3d 944c a83e fd24 bcbd cc1f 50be
00000130: 5be8 853e 4c5f 893d 5c81 09be 041d a0bc
00000140: 14fa ccbe 7865 003e 5b7c 853d 121a 843d
00000150: 94d9 99be 5f33 a1bd 9c69 493d 3216 d3be
00000160: d4bb 39bc 8dbb 2cbe 15fb f13d 6332 bc3e
00000170: bb68 1a3e 5f57 803e 9cbc cabd 62e7 ed3d
00000180: 67d5 48be 3e41 853e 7a5f 1b3e 7fec 0ebe
00000190: 2143 ffbe fd0d bcbe 3207 333d be24 0bbe
000001a0: 7949 1abe 3dd6 3d3e ac88 5abe 4a6b f53d
000001b0: a391 0c3d 33c5 cebc 5808 0abe 6ecd 093f
000001c0: 914d bb3e 174d 41be ec8b 9a3e 882e 2c3e
000001d0: ae30 8dbe ba32 09be da89 063e 3395 3c3e
000001e0: 99b1 7c3e 96fb 94be 0efe 153e 122c 1e3d
000001f0: a88a 7ebe 5c64 d23d eb42 7c3e 5572 6c3e
00000200: afd5 043d c804 07be 147a c2be 36cd e23e
00000210: a149 d6bc 6eda 343d e277 23be f275 333b
00000220: 9360 763c d177 4abe 48a5 5cbe 823c fd3d
00000230: ab0e 29be 6209 cebe f393 233d a813 84bd
00000240: 773d 883e dcee bdbd 783d 953e 1b00 e83d
00000250: e9a7 ce3d ae50 9b3d f95c 303e 9a82 90bd
00000260: fa32 e73e 3212 a83e 3934 8e3d 4878 1d3e
00000270: 78d0 9d3d 5eca 143e 8c17 babd faf5 74bc
00000280: fc0e 23be 442b ebbd 9112 34be 24ee 99bd
00000290: d51b 003e 9353 4e3e d0fb dabd 070f 483d
000002a0: f8c8 24be 1710 a0bd a51c d4be afb5 1bbe
000002b0: 9d93 27bd 8e1e b8bd c09b b13c 78af d0bd
000002c0: 1fcd 22bd 7825 cf3e f077 f23d 9896 3dbe
000002d0: b3f0 cf3b 6eb9 3a3e e5a8 b43e df96 30bc
000002e0: fb61 dfbd a725 273e 0c25 b23d 7354 5a3e
000002f0: 1648 943d 87fa 403d 7359 a83e 0804 823e
00000300: 7ae3 bebe cda3 493d f01b 08be 24ba 2ebb
00000310: 9cb5 7bbe b928 1d3e 4f9c 98be 1aa8 26be
00000320: fba1 8e3e 9065 b43d 38ef cebc fc1a c33e
00000330: 384e aa3e 524f 58be 4766 653e 1173 863b
00000340: d4f4 8b3e 3738 4fbc 707f 063c 2d4c a4bd
00000350: 2382 473e 65b5 14be ac8e 3fbd 668b 7b3e
00000360: a13f 30be 0736 b23c 4f7e 8a3e 155e 743d
00000370: 0780 a13e 11a8 6dbe 422b 19bf da4a a6bc
00000380: d184 5a3e 710e 853e fc06 7dbe 6d47 8e3e
00000390: 80f3 0e3e fe26 863d 22e3 1b3e 5573 3b3e
000003a0: 8ad3 153d 32e1 abbe fd1b 50be c865 893c
000003b0: bb74 9abd 7666 973e 372a 2dbe 3def 903d
000003c0: db76 843e 90df cf3d 404d a9bc 36ac 923e
000003d0: 4900 833d f183 c0bd 64f7 d03e 29df 2ebe
000003e0: b636 42bc df79 acbd 8384 57be b37c b6bd
000003f0: c61e 263e ea33 1f3e fb21 0bbd c360 d8be
-0.21430132 0.3522997 0.121137455 0.093162194 -0.68011993 -0.0019099928 0.25956178 0.1932003
-0.0034205401 0.0013382158 -0.12935095 0.36752406 0.16723543 0.046304952 0.38992417 -0.39888552
-0.27733517 0.04133196 0.18045348 0.27020612 -0.1580588 0.36795014 0.006161754 -0.032605976
-0.12782922 -0.017154742 -0.081421256 0.2830078 0.09968087 -0.072078586 0.17045136 0.050241966
-0.23994626 -0.083892204 -0.2559964 -0.28249845 -0.30254602 -0.20560701 0.23127985 0.059689872
0.029037254 -0.14098714 0.17590572 -0.023212215 -0.20365323 0.13833429 -0.24032325 0.3690299
0.07595534 0.055385243 -0.029077599 0.04821343 0.009341408 0.0059547625 0.50851655 0.0053392225
-0.093847305 -0.091106966 0.3547263 -0.013018392 0.07126695 -0.108676895 -0.12057537 -0.03280689
-0.3330352 -0.31655985 -0.5012927 -0.00883026 0.26292202 0.2873881 -0.012222282 0.021154951
0.085398056 0.32870924 -0.091867425 -0.2032463 0.26153836 0.067076296 -0.13428253 -0.019545086
-0.40034544 0.12538707 0.065178595 0.06450285 -0.3004881 -0.078711264 0.049172983 -0.4122787
-0.011336286 -0.1686842 0.11815468 0.36757192 0.15079014 0.2506666 -0.09899256 0.116163984
-0.19612657 0.26026338 0.1517314 -0.13957404 -0.49855903 -0.36729422 0.043708034 -0.13588235
-0.1506709 0.18538757 -0.21341199 0.119833544 0.034318577 -0.025240516 -0.13479745 0.53829086
0.36582616 -0.18877064 0.30184877 0.16814625 -0.27576202 -0.13398257 0.13138524 0.1841629
0.24677123 -0.29098195 0.14647695 0.038616247 -0.2485758 0.10273048 0.24634902 0.23090489
0.032430347 -0.13185418 -0.37983763 0.4429719 -0.026158156 0.044153623 -0.159637 0.0027383533
0.0150376735 -0.19772269 -0.21547425 0.123650566 -0.16509502 -0.40241534 0.039936017 -0.06449062
0.26609394 -0.092740744 0.2914846 0.11328145 0.1009062 0.07583748 0.17222966 -0.0705616
0.4515608 0.32826382 0.069435544 0.15377915 0.07705778 0.14530322 -0.090865225 -0.0149512235
-0.15923685 -0.11482862 -0.17585208 -0.07516125 0.12510617 0.20149069 -0.10692561 0.048842456
-0.16092288 -0.07815569 -0.41428104 -0.15206026 -0.04091226 -0.08990203 0.021680713 -0.10189718
-0.0397464 0.40458274 0.118392825 -0.18514478 0.0063458323 0.18234798 0.35285106 -0.010778158
-0.1090736 0.16322957 0.086984724 0.21321277 0.07240312 0.04711392 0.32880744 0.253937
-0.37282926 0.04922848 -0.13291907 -0.0026661241 -0.24580997 0.15347566 -0.29806754 -0.16275063
0.27857956 0.08808434 -0.025260553 0.38106525 0.332628 -0.21124008 0.22402297 0.0041030725
0.27335227 -0.01264768 0.008209094 -0.08022342 0.19483237 -0.14522322 -0.046766922 0.24564895
-0.17211773 0.021754278 0.2704949 0.059660036 0.3154299 -0.23208643 -0.5983163 -0.020299364
0.21339728 0.2598758 -0.24709696 0.2778887 0.13960075 0.06550406 0.15223363 0.18305714
0.036578692 -0.33570248 -0.20323177 0.016772166 -0.07541796 0.2957036 -0.16910635 0.07076881
0.2587193 0.10150063 -0.020666718 0.28647012 0.06396539 -0.09400166 0.40813744 -0.17077316
-0.011853864 -0.084216826 -0.21046643 -0.08910503 0.16222677 0.15547147 -0.033967953 -0.42261323

graph_embed.node_to_graph.bias f4 [32]
00000000: 06e5 dfbf 6cf0 50bd edc0 66be eb19 c6be
00000010: c656 e4be 6ff0 b53e 71c4 1d3f aab3 3ebf
00000020: fa52 1c3f ab23 9ebe 69dd a13f 879f b9bf
00000030: ca2c 74bf 249f 8abe a6f0 8e3f 7a0f ab3e
00000040: 09ef cfbe 3222 0e3e 71ae 7e3f 527a ec3f
00000050: 6a87 d23e 75a9 c33e 5350 e73f 77cd fa3e
00000060: 61fb 11bf eddf 9cbf d3a3 29bf 1c48 f1bd
00000070: 35d8 80bf be91 85bf 3032 82bf 4ad7 a1be
-1.7491767 -0.051010534 -0.22534533 -0.3869165 -0.44597453 0.35535 0.6162787 -0.74492896
0.6106411 -0.30886588 1.2645694 -1.4501809 -0.9538084 -0.2707454 1.116719 0.33410245
-0.40612057 0.13880232 0.99484926 1.8474829 0.41118938 0.38215223 1.8071388 0.48984882
-0.570242 -1.2255837 -0.662656 -0.11781332 -1.0065981 -1.0435102 -1.0171566 -0.31609565

graph_prop.message_funcs.0.weight f4 [32, 34]
00000000: d879 95bd b37b 67bd f089 3b3c c852 853c
00000010: 4fb6 803d 602e 33be 94f0 1f3d b7a5 70bc
00000020: d0c0 043e af10 2c3e da99 1e3d 66e6 163d
00000030: 0d65 efbd 7bc5 0a3d 0dcf 913b cd04 febd
00000040: e505 1abc f1a5 6b3d 439a 8d3d 76f5 70bd
00000050: 4efa 3d3e 943c c93d d4da acbb caca a2bd
00000060: 19ce 27bd 0d0a 40bc 412e 3cbe ae22 233d
00000070: 6224 253e 0538 c6bd 4cec 03bd f300 013e
00000080: 9997 fcbc e339 a0bd 6713 a7bc d786 b53c
00000090: ae69 093d 3550 c7bd a390 1b3e 965a 803d
000000a0: d04f ae3d a829 acbb e331 e0bd 2da3 2bbe
000000b0: a921 623d 60f5 8138 de00 26bd 126f d03d
000000c0: 2ff7 a1bd 11d8 d1bc 47b5 f23d 1cd4 6c3d
000000d0: bdad b83d 6b7e 1bbd 765e 40be c208 893d
000000e0: 11e1 aabd 3cdf 153e dee2 783d 17c2 82bc
000000f0: f5c2 7b3d ed03 99bd f7ba 3abd 486d a73a
00000100: d49f bcbd 6fd7 13be ad0e c03d 54db 873d
00000110: 0b8f f53c 58a8 26bc 482c 1d3d 222c fe3b
00000120: 9d25 3abe 710f 9a3c 10f1 913d dcdb f9bd
00000130: fabc bcbd eb39 413c 1203 8f3c 464e 05be
00000140: 105f 843d f488 a83d a5c5 353c d21e 31bd
00000150: ed79 d7bd 6720 e6bd 7d21 9d3d 837e 173d
00000160: ba5e 9bbd 9fdf 47bd afb8 20be 1470 20bc
00000170: f74a 8a3b ba37 d33c 45b0 c23c 3e74 1abd
00000180: 98af 023e fd5b 46bd de15 ad3d 82bb 2b3d
00000190: 3225 16bd 2570 883d be50 c3bd dbb6 3a3d
000001a0: 0660 34be 22f4 cd3d 63fd a4bd a965 e2bd
000001b0: 3861 e4bd b033 0ebe 6f82 abbd 925b 023d
000001c0: 809b 1dbc d768 ec3d e091 9cbd 343b fb3a
000001d0: 63dd cebc f96f cf3b 8e1e 06be 85ad 04be
000001e0: d174 45bd c935 32be 7002 893b af91 5d3e
000001f0: 3de4 e23c b72c 18bd bf3c 2e3d 9133 7bbc
00000200: a9ad b3bd f791 773d 690b e53d 1f74 84be
00000210: cb19 273e d082 8f3c cae1 423b 9929 1ebe
00000220: 233d 3f3c df12 3cbe 5d91 15be fd89 573c
00000230: 4e89 f33d b115 debd 16b8 a73b 4877 d8bc
00000240: e9ba 0a3d 12f0 60bc edeb 8dbc b922 373e
00000250: 1c3a 6d3d 9c1d a3bd 55dd c8bd 092a ba3d
00000260: ba38 26be f01d 953d 4ac6 43bd 2303 46be
00000270: 402a f93c fd39 953d 6709 9b3c 03d2 c2bd
00000280: e76e 933c 75a6 a23d bb22 12be 6502 45bd
00000290: 5c66 ebbc 2616 4abc 5ee3 543b 6506 323c
000002a0: 6cf6 3fbd d9a9 52bb 433c eb3d 5612 1e3b
000002b0: bf8e e4bd b408 da3d 5022 213e 7b98 183e
000002c0: f359 cabc 0e81 42be e25a 1cbe 9c42 76bc
000002d0: 7f8e 863d d231 85bd dad4 223d d0aa 343d
000002e0: f3b7 39bd 703f 503d 2e1d 923b 8ebf f9bb
000002f0: 33bc 193d 1816 92be be72 e3bd 2d10 d4bd
00000300: c356 0f3c b0eb 523d 632c 203c 4a2b 85bd
00000310: b5e9 873d 0103 033e cb70 083e dee6 41be
00000320: 0048 88bc f963 c03c ff47 893d 0f91 5d3d
00000330: c62a 953d 5030 acbd 41a9 9c3d 52ac 0a3e
00000340: 2b7b a93c e6fc 4d3e b4a1 82bc 8762 d53d
00000350: 53a4 20bd ae87 933d 9baf 3e3c adec 62be
00000360: 6763 1d3e ffd8 bb3d 616a dabc 75c4 11bc
00000370: c515 aabd 0319 8bbd f88b 5fbd d40f 123d
00000380: babe bf3c 7534 083e 1099 c63d 862a 6d3d
00000390: 2f00 36bd 47fa 123e 9606 a3bd 8bce a13c
000003a0: 63fa a83d a0a2 b33c 1654 f13d cb1b 9dbd
000003b0: a318 a63d b85b 3b3c 7087 4aba 5b19 893d
000003c0: 312a 203e 5a38 fcbb a636 cebd cac3 ed3b
000003d0: 7d9e 3e3c f29f e2bd be74 e23d a537 ed3b
000003e0: 55a0 bdbd 4e59 6e3d 1284 f93c 553d 293d
000003f0: ef86 62be 9e12 64bc 67f0 c6bc e1b7 b7bd
-0.072986305 -0.056514453 0.011446461 0.016274825 0.062847726 -0.1749816 0.039047793 -0.014687947
0.12964177 0.1680324 0.038720943 0.03684082 -0.11689196 0.03387974 0.004449731 -0.124032594
-0.009400819 0.0575313 0.06914189 -0.05882784 0.18552515 0.098260075 -0.00527511 -0.07948835
-0.040968034 -0.011721146 -0.1837702 0.039827995 0.1612716 -0.09678654 -0.032207772 0.12598018
-0.030834006 -0.07823541 -0.020394994 0.022159023 0.03354805 -0.09732095 0.15191893 0.06267278
0.08511317 -0.0052539892 -0.10947015 -0.16761465 0.055207882 6.196904e-05 -0.04052817 0.10177435
-0.07908475 -0.025615724 0.11850982 0.05781947 0.09017513 -0.03796236 -0.18786034 0.066911235
-0.08343709 0.14635938 0.060763232 -0.01596169 0.061465222 -0.07471452 -0.04558846 0.0012773657
-0.09210172 -0.1443765 0.09377799 0.066336304 0.029975435 -0.010171972 0.038372308 0.007756726
-0.18178411 0.018806191 0.07126057 -0.12200138 -0.09215732 0.011793594 0.017457519 -0.1301814
0.06463444 0.08229247 0.011094485 -0.043242283 -0.10521302 -0.11236649 0.07672403 0.036985885
-0.07586427 -0.048797246 -0.15695451 -0.0097923465 0.0042203623 0.025783408 0.023765692 -0.037708513
0.12762296 -0.04842757 0.084514365 0.04192687 -0.036656566 0.06662015 -0.09536885 0.04558454
-0.17614755 0.1005633 -0.08056142 -0.110545464 -0.111513555 -0.13886905 -0.083744876 0.03182561
-0.009619594 0.11543434 -0.07645011 0.0019167424 -0.02525205 0.006330487 -0.13097593 -0.12956817
-0.048207108 -0.1740333 0.004181199 0.21637605 0.027696723 -0.03715202 0.0425384 -0.015332119
-0.087733574 0.060441937 0.11183817 -0.25869843 0.16318433 0.017518431 0.0029736632 -0.15445556
0.011672291 -0.18366574 -0.14606233 0.013155458 0.11891423 -0.10843981 0.0051183803 -0.026424065
0.033869658 -0.013729112 -0.017324412 0.1788434 0.057916746 -0.07964632 -0.09807841 0.09090049
-0.16232577 0.07281101 -0.047796525 -0.19337134 0.030415654 0.07286451 0.018925382 -0.09512713
0.017997218 0.079419054 -0.14271061 -0.048097987 -0.028735332 -0.012334382 0.0032484154 0.010865782
-0.046865866 -0.0032144694 0.114861034 0.0024119816 -0.11160039 0.10646191 0.15735745 0.14901917
-0.024701094 -0.18994543 -0.15269044 -0.015030529 0.06570148 -0.06503643 0.039753772 0.044108212
-0.045341443 0.05084175 0.004459045 -0.007621712 0.037532996 -0.2853248 -0.1110587 -0.10354648
0.008748713 0.0514943 0.009776208 -0.06502397 0.06636373 0.12794115 0.13324277 -0.18935725
-0.016635895 0.02348517 0.06703185 0.054093417 0.07283549 -0.084076524 0.0764947 0.13542297
0.020688614 0.20116004 -0.015946247 0.10419183 -0.03921921 0.07203613 0.011638547 -0.22160597
0.1536995 0.09172248 -0.026662054 -0.008896937 -0.083049335 -0.0679188 -0.054576844 0.035659626
0.023406375 0.13301261 0.09697163 0.05790188 -0.04443377 0.14353286 -0.079602405 0.019751808
0.082508825 0.021928132 0.11783616 -0.07671317 0.08110168 0.011435442 -0.000772587 0.06694289
0.15641095 -0.0076971473 -0.10069017 0.007256006 0.011634466 -0.110656634 0.11057423 0.0072392994
-0.092590965 0.058190636 0.030458484 0.041318256 -0.22121786 -0.013920454 -0.024284555 -0.08970619

graph_prop.message_funcs.0.bias f4 [32]
00000000: 5bf3 033d f052 3d3d f989 943d 73a4 cbbc
00000010: 8085 af3c 248a 0dbe 827c 12be 3544 eb3d
00000020: 122b 28bd 67e2 03be f6e6 1f3c 8a90 0c3e
00000030: 78ad b93d cd54 e63d 6a0b 3abc 049e 0abc
00000040: 17df 2f3d 9c16 afbd a35a dabd 73ff 3cbe
00000050: 989e 863d 6b3e b5bd 4315 70bd 9fe6 63bb
00000060: 5b89 11be b6ca adbd 2b13 633e 5841 9c3d
00000070: 3361 fbbd b7dc f33d 38cb 84bd 5f71 183c
0.032214504 0.046221673 0.07252879 -0.024858689 0.021425962 -0.13822228 -0.14305308 0.11487619
-0.0410567 -0.12879334 0.009759655 0.13727012 0.0906629 0.11246643 -0.01135526 -0.008460525
0.042937364 -0.08549234 -0.10661819 -0.18456821 0.06573218 -0.08849796 -0.058614027 -0.0034774912
-0.14212553 -0.0848593 0.22175281 0.07629651 -0.12274399 0.119073324 -0.064840734 0.0093043735

graph_prop.message_funcs.1.weight f4 [32, 34]
00000000: 8ae9 57bd 84da 103e a719 0bbd cd3c 88bd
00000010: 2d41 a83c dacf dabc e047 c1bd 22a9 423d
00000020: bfcf 8039 7f3c dd3d 0d05 17be 9abe 9e3d
00000030: bd52 b9bd a222 a8bc a2c4 85ba 6e40 75bd
00000040: c3c2 013e 4559 8d3d 864c 393e bcf3 1a3e
00000050: 32e0 30be 2189 8d3d 6dd1 a03d f7e5 c1bc
00000060: fa39 fd3c 92ee 70be 1b9c 4e3d 12f3 ce3d
00000070: 3959 19be 74cd 13bd 7255 3f3d 4322 7bbe
00000080: dd68 b03d 7dc6 8abd 03ef 1b3d 2064 d03d
00000090: d860 87bd 755f e83d 4af9 073e 170f 38be
000000a0: ba0c 19bd 69d5 efbc 0b47 2bbd 9121 82bb
000000b0: 1414 15ba 6175 31bd f85c b1bc 6981 56bd
000000c0: 0cfd 3b3d 1b75 e4bd ee1e d13c 03cc e43d
000000d0: b661 5a3c a0eb 30be 6cef 953d c5e9 433d
000000e0: f8a4 883e 70fb 3bbb a466 6d3e 4737 263d
000000f0: bfbf 3bbe 3e9a 0c3e 642e cd39 5185 a1bd
00000100: 74b3 95bc 2728 243e 0db6 bc3c 0d48 0cbd
00000110: 87b4 bdbd 1c21 923c ef3a ee3d 8b26 7e3d
00000120: bb18 983d 36d8 e9bd 557d d2bd 35b3 a7bd
00000130: 98d8 f1bc 9a7f d83d 4f4e 3bbe b4ed 033e
00000140: 62ad bebb 9f09 893d 39b8 c7bd b4f4 043c
00000150: 8544 b63d 11d8 833d 0757 603d 4406 f43d
00000160: df4e b4bd c8a5 9cbc 9382 0bbe 8e67 03be
00000170: 4096 a1bd 35e5 87bd 5528 7abb 7373 6f3d
00000180: 6b12 b23d 4d6d a63d 6488 603d 5acb 353e
00000190: 7d2a 9abd 9ad7 233d d497 433a 46c1 ff3d
000001a0: d193 8abb e8f9 c93c 58c6 d43b b187 a43d
000001b0: cb16 c5bc 67fc b1bd 819d 8fbc 0f6f 563d
000001c0: 970d 90bd b498 b8bd 8e15 b1bc c19b 383d
000001d0: f00e 033e e213 acbd b7bf ce3c 498d 9ebd
000001e0: 0384 1bbd a0ac 143c 0cc5 32be c8d0 303d
000001f0: 009c 6d3c 2661 50be 423f 8fbd 72fc 483d
00000200: cd8a 0dbb c185 5d3c 6269 ed3d fc2b 25be
00000210: 2728 bbbd c141 db3c 7f47 233e 7f39 643e
00000220: 941e 8ebc de73 8abb 94ec 28bb 0b52 c93d
00000230: ad4d 073d 68bc e3bc 83d7 7fbe 352a a5bb
00000240: 3b31 133e 5fe7 82bd e1de 663e aa23 173e
00000250: df34 333e fa88 10be 910c fcbd 7b25 0fbe
00000260: 8b29 d93d 58d8 c2bd 9937 67be ab5e 123c
00000270: 34df 4bbd 4df0 823d 5758 0bbe e681 c73d
00000280: 87c1 e7bd 5ab4 853c b01a 0d3d 8f7e d1bd
00000290: 32db a0bd 66e2 cb3d 183e 55bb 04e8 ac3d
000002a0: 83a5 48bd fb31 253e ce33 f03d 132b c53d
000002b0: 7288 92bd ce14 11be 26d3 0cbe e65d d8bd
000002c0: 8098 1abd 34b3 0c3d 0bba 113d 399b 47bc
000002d0: 8156 ca3c 83e0 f73c 1aa5 123d ee8f 05be
000002e0: c016 7a3d 490f 7ebd 59fc cdbd 8ba5 853d
000002f0: 31ac 0e3d 84df 0dbd 0008 5e39 1228 3f3d
00000300: 63fc 91bd b43f a7be 0f14 18be 0ff5 1d3d
00000310: 3506 1f3e 7534 853c 7bf1 f6bd 3388 4e3e
00000320: b737 d13c b805 0abe 34a6 223e 0344 193d
00000330: dc8f 3ebe 5b1f fc3d c844 e9bc 38a4 04bc
00000340: b254 57bd f624 cabd 244d cc3d bd7c 9f3d
00000350: 1d6d 783c e9d2 423d 55c6 113d 76a4 803d
00000360: 5071 133c e6fe bcbd 4a32 2a3d dd7c 733e
00000370: a019 dcbc 8a0d 433e d83a 54bb 4caf 51bd
00000380: 4b7a 023c e5bb f13c cf3a 92bd 57bb 633d
00000390: e2e9 823d 398d 593d a135 3fbe 7f83 8cbc
000003a0: 9313 133e 584b 9bbd 4943 403c a928 6f3d
000003b0: 79db 8ebd 2632 013d ca85 383e de80 943d
000003c0: 9802 7bbc ca37 a3bd 5f46 fcbd feec 2dbe
000003d0: b968 16bd e901 ab3d 60d0 2abd c92a 77be
000003e0: 4d2d a23d f65a 4cbe b4db aebd ed42 6ebb
000003f0: 5860 543d 8136 8f3c 29f5 e03d cddf 893b
-0.052712955 0.14145857 -0.03396001 -0.06652222 0.02053889 -0.02671044 -0.09437537 0.04752458
0.00024568845 0.10802554 -0.1474802 0.07751198 -0.09048984 -0.020524327 -0.0010205696 -0.059875898
0.12671952 0.069017924 0.18095598 0.1513204 -0.17273024 0.06910921 0.07852445 -0.023669226
0.030911434 -0.23528507 0.050441843 0.10104956 -0.14975442 -0.036084607 0.046712346 -0.24524789
0.08613751 -0.0677614 0.038069736 0.10175347 -0.06610268 0.11346332 0.1327869 -0.17974506
-0.037365653 -0.029276567 -0.0418158 -0.0039712866 -0.0005686891 -0.043324832 -0.021650776 -0.05236951
0.04589562 -0.111551486 0.025527444 0.11171725 0.01332896 -0.17277384 0.07321057 0.047830362
0.2668836 -0.0028683804 0.23183686 0.04058006 -0.18334864 0.13730714 0.0003913521 -0.07886756
-0.018274046 0.16030942 0.023036027 -0.0342484 -0.092629485 0.017838053 0.116323344 0.062048476
0.07426592 -0.11418192 -0.102778114 -0.08188478 -0.029522225 0.10571213 -0.18291591 0.12883645
-0.0058190087 0.06691288 -0.097519346 0.008114982 0.08899788 0.06437696 0.054770496 0.119152576
-0.08804106 -0.01912202 -0.13624029 -0.12832472 -0.07889986 -0.06635515 -0.0038171012 0.05845971
0.08694919 0.08126316 0.054817572 0.17753354 -0.07527635 0.040000536 0.0007461284 0.12488036
-0.004229047 0.024655297 0.006493371 0.080336936 -0.02405872 -0.0869072 -0.017531158 0.052352007
-0.07033842 -0.09013501 -0.021616723 0.045070414 0.12798667 -0.0840223 0.025237901 -0.07741792
-0.037967693 0.00907436 -0.1745798 0.04316786 0.014502525 -0.20349559 -0.06994487 0.049068876
-0.0021597624 0.013520659 0.11592366 -0.1613006 -0.09138518 0.026764752 0.15945242 0.22287558
-0.017348565 -0.004225238 -0.0025775777 0.098301016 0.03303306 -0.0277998 -0.24984555 -0.005040432
0.14374249 -0.06391787 0.22545959 0.14759699 0.17500637 -0.14114752 -0.12307084 -0.13979141
0.10603627 -0.095139205 -0.22579803 0.008933703 -0.04977341 0.0639349 -0.13607918 0.09741573
-0.11316209 0.01632135 0.03444928 -0.10229217 -0.07854308 0.099552915 -0.0032538231 0.08442691
-0.04898597 0.16132347 0.11728631 0.096273564 -0.07154931 -0.14168093 -0.13752422 -0.10564785
-0.03774309 0.03435059 0.035577815 -0.012183004 0.024699451 0.030258423 0.035801984 -0.13043186
0.061056852 -0.062026296 -0.10057897 0.065257154 0.034832183 -0.03463699 0.0002117455 0.046669073
-0.07128217 -0.3266579 -0.14851402 0.038563784 0.15529712 0.016260365 -0.120577775 0.20169143
0.025539262 -0.13478744 0.15883714 0.037418377 -0.18609565 0.12310668 -0.02847518 -0.008095793
-0.052571006 -0.09870331 0.09975651 0.07787464 0.015162733 0.04756442 0.035589535 0.062813684
0.008999184 -0.092283055 0.041551866 0.237781 -0.026867688 0.19048133 -0.0032383706 -0.051192567
0.007963727 0.02950854 -0.07140123 0.055598583 0.06392266 0.053113196 -0.18672802 -0.017152546
0.14362936 -0.0758273 0.011734792 0.058388386 -0.06975455 0.031541966 0.18019786 0.07251142
-0.015320443 -0.07969625 -0.1231811 -0.16984937 -0.036720965 0.08349974 -0.041702628 -0.24137415
0.07918797 -0.19956574 -0.08537999 -0.003635581 0.051849693 0.017482044 0.109842606 0.0042075873

graph_prop.message_funcs.1.bias f4 [32]
00000000: 3908 bb3d fd2a 12bd d15e 6fbd 0888 0b3e
00000010: 3c1d 14be 8377 ffbc 5b9e 713d fb61 0abc
00000020: 26db 683e 2dc0 883e 4c91 8a3d 608a 27bb
00000030: 1228 143e 4477 c4bd a85f 93bc 5baa 0e3e
00000040: ab87 e1bd c85c 943c 2bf6 43be 7d2b 163e
00000050: d547 0b3c 3c3e a03d 205c af3d de3d 3abd
00000060: 37fa 6fbd 67e7 a0bd aca3 673e bd77 a8bd
00000070: f10a 96bd 7098 eebb 503a a0be 1c25 aabd
0.09132428 -0.035685528 -0.058440033 0.1362611 -0.14464277 -0.031184917 0.05898891 -0.008446212
0.22739848 0.26709118 0.067659944 -0.0025564656 0.1446841 -0.095930606 -0.017989948 0.13932173
-0.11012205 0.018110648 -0.19136874 0.14665027 0.008501013 0.0782437 0.08562493 -0.045469157
-0.058588233 -0.078566365 0.2262103 -0.08225963 -0.07326306 -0.0072813556 -0.3129449 -0.08307859

graph_prop.node_update_funcs.0.weight_ih f4 [48, 32]
00000000: 0011 cdbc 872d ddbd 1d8c b73d dbfd 85be
00000010: 0fd9 503e 71d4 4bbe 296c 02bd ce06 b43d
00000020: 1350 7abd 06c4 c3bc 155b dfbd cdc8 e03d
00000030: 0e5a b03b 8876 9a3e 0aaa ac3c 877b 2bbd
00000040: 4078 71bd bf15 91bd 9e33 20be b059 71be
00000050: 9ee6 583e 0fdf 983d 4b57 26be b523 b9bc
00000060: efb4 94be d6ec 56be 2525 fd3d 2fc9 673e
00000070: b667 1bbe 0d3b a5bd 3027 6a3d 1913 85bd
00000080: 1043 0c3e 1a7a cbbd 44b7 fdbd 3de3 ce3e
00000090: b0fb 203c 1a75 17be cc55 25bc 4906 5c3d
000000a0: d877 353e a6eb 493d dbda 1a3e 5ce9 da3d
000000b0: b3ff 1b3e 9295 c93d 55f2 1b3c 242e 85bd
000000c0: 9049 213e 2b02 863d 09e8 b73d 3dde 3b3d
000000d0: df53 3a3d cb95 98bd 5b11 9b3e a33a f53d
000000e0: 6503 22bd 97eb c43d fb78 9a3e 4ba8 543e
000000f0: a318 16be b9ec 7bbd b408 79bd a820 3d3e
00000100: a16d 35be d363 923c bba8 82be b576 9abd
00000110: ec90 8d3e 74ad 12be 8b62 663e 9d88 3dbe
00000120: 5c00 0ebc 7bc7 8e3e 950a d83d 462e 343d
00000130: c8fe 08be e914 88bd 7c87 d43d cc36 ccbd
00000140: 3a88 e63c 542e 2cbb 7176 b93e 5cdf 93bb
00000150: 8eec b1bd 7918 4dbe de29 02bc 89d0 f73c
00000160: 5326 783d fbd8 8e3d d382 24be 060c b13d
00000170: eaa1 2ebe adec d4bc c834 b0bd 6f79 fbbd
00000180: 1d64 783a b30f 63bd 61a6 05be 07c5 8b3d
00000190: 711e 953c 07ce 5abe f109 7b3c c42f 60be
000001a0: 52b8 d23d d8b7 443d ba2d ad3c 54d2 8fbe
000001b0: 54c4 b63d 711f a43e 1505 d9bd 9879 b03d
000001c0: dc35 633e e289 113e afec cdbd 8ace 74be
000001d0: 58f2 2e3c 5892 523e dc8e f73c b10b a33d
000001e0: fcdb aa3e 254a 0a3e 582e bc3d 72c7 93bd
000001f0: 7700 70be 6648 5fbc e5bd dbbc a882 32be
00000200: 32d1 cabd d4e6 d6bd b358 d6bd bf00 87be
00000210: 7beb 15be 0d7f ad3d bcf0 0ebe 4365 c9bd
00000220: f393 1ebe d754 19be 7ddf 06be 1906 02be
00000230: 40c4 433e ed09 22bd 8757 5abd 2cc6 8cbe
00000240: 1821 0d3e 2d7c 7c3d 6493 963d 82c1 6f3d
00000250: 9281 2cbe b4ef 6cbd 0b8f 6e3e 5da9 fcbd
00000260: 286b b3bd 8318 bb3e fa9d be3c 5721 fa3d
00000270: 7420 263e 0bd0 f9bd b0e5 2fbe 5487 ba3d
00000280: a0e0 043e 3d72 453e ebf1 743e d6c5 6c3d
00000290: 4ea5 ab3d 4b3c f3bd 66f0 16be 9262 57bd
000002a0: d06f 5bbe 2439 1f3c affe ecbd 1f74 cebd
000002b0: eab0 8c3c e4a9 6fbd 66af 5b3e ee4a cab9
000002c0: a78a 903e e65d 113c 380e 2a3e 9e0d d43d
000002d0: f757 ab3d 3cc0 1bbe f2b9 adbe 125f b4bd
000002e0: 2bdb dcbc 6ce1 3c3e 1e08 823e 19bc 8a3b
000002f0: dae2 e3bd 3f85 91bc 0f22 03bd 6e92 b7bd
00000300: de41 81be 76b5 153e 7c14 913d 327a 563e
00000310: c2ea 473d 7d73 5a3e 2372 b93d f5eb 1cbe
00000320: c400 8abd 22f9 5d3d 38fd 643d deef c13c
00000330: c52d 443d 2e29 223e d3e2 42be 1c02 91be
00000340: 3c6c b03d 0776 81bd 7fd3 5cbe fc2f a8bd
00000350: b1a9 35be c637 d7bd f127 53bd a929 17bd
00000360: a384 a83d b379 01be 7cb4 3b3e 223b 503e
00000370: 8e30 8d3e e6ea fabc 55d2 37bd 6318 84be
00000380: f135 36be 52c0 6e3e 4b55 b63d cd67 bc3d
00000390: 158a 49be 03a1 57bc 42ac 95bc 04a3 163e
000003a0: 8dd2 ce3c 34a1 8e3e 1e55 b63d f2ff b6be
000003b0: 4f04 80bc 6f24 0f3e b8c7 86be ecab 87bd
000003c0: 447c 43be 9d67 11be 1c9d af3c 16f4 d63d
000003d0: 875f f53d 1673 b0bd 2dfd 4e3d 7d85 f4bd
000003e0: 20f2 883c b8df 9b3d 4a49 45be 1582 0f3e
000003f0: d9ae a0bd 2b79 dfbd d4c4 76bc b858 753c
-0.02503252 -0.10799699 0.08962271 -0.2617024 0.20395301 -0.19905259 -0.03184143 0.087903604
-0.06111152 -0.023897182 -0.109060444 0.109758 0.005381829 0.30168557 0.021077175 -0.04186585
-0.05895257 -0.07084226 -0.1564469 -0.2356937 0.21181723 0.0746442 -0.16244237 -0.022600034
-0.2904429 -0.20988783 0.123606004 0.22635339 -0.15176281 -0.08067904 0.05716628 -0.06497783
0.13697457 -0.099353984 -0.12388471 0.40407744 0.009825632 -0.14790764 -0.010091256 0.05371693
0.17721498 0.049296997 0.15122549 0.10689041 0.1523426 0.098429814 0.009518226 -0.06502941
0.15750718 0.06543382 0.08979804 0.04586624 0.045490142 -0.07450446 0.3028668 0.11974075
-0.03955402 0.09615248 0.30170426 0.20767324 -0.14657836 -0.061505053 -0.060799316 0.18469489
-0.17717601 0.017869866 -0.25519356 -0.07542173 0.2764963 -0.1432398 0.22498529 -0.18509145
-0.008667078 0.27886567 0.10548893 0.043989442 -0.13378441 -0.06644613 0.10377404 -0.09971389
0.02814113 -0.002627273 0.36223176 -0.0045127105 -0.08687697 -0.20028867 -0.007944552 0.030250804
0.060583424 0.069749795 -0.1606553 0.086448714 -0.17053953 -0.025991762 -0.08603817 -0.12279021
0.0009475367 -0.055434894 -0.1305175 0.06824689 0.018202992 -0.21367656 0.015322194 -0.21893221
0.102890626 0.04802689 0.021139968 -0.28090155 0.08924165 0.32055238 -0.105966724 0.08616942
0.22188514 0.14212754 -0.100549094 -0.23906913 0.010677896 0.20563638 0.030219488 0.07961214
0.3337096 0.13504846 0.09188527 -0.072157755 -0.23437677 -0.013628101 -0.026823947 -0.17432654
-0.09903182 -0.10493246 -0.10466137 -0.26367757 -0.1464061 0.08471499 -0.1395902 -0.09833767
-0.15486126 -0.1497377 -0.13171192 -0.12697639 0.19117832 -0.039560247 -0.05330613 -0.27494943
0.13782156 0.06164186 0.07352331 0.058534153 -0.16846302 -0.057845786 0.23296754 -0.12336991
-0.08760673 0.36542138 0.023268688 0.1221339 0.16223317 -0.12197884 -0.17177463 0.09107843
0.12976313 0.1928186 0.2392041 0.05780586 0.08381139 -0.11876734 -0.14740142 -0.05258424
-0.21429372 0.009718213 -0.115720145 -0.10080742 0.017174203 -0.05851163 0.21453628 -0.0003858427
0.28230783 0.008872485 0.16606987 0.1035416 0.08366387 -0.1521005 -0.33930928 -0.08807196
-0.026959976 0.18445367 0.25396818 0.004233849 -0.11127253 -0.017763732 -0.032014903 -0.08963476
-0.25245565 0.14620003 0.07083985 0.20945051 0.048807867 0.21333118 0.09054973 -0.15324385
-0.06738427 0.05419267 0.05590555 0.023673948 0.04789521 0.15836021 -0.19031839 -0.28321922
0.08614394 -0.0632134 -0.21565054 -0.08212277 -0.17740513 -0.10508685 -0.051551763 -0.036904965
0.082284234 -0.12644081 0.18330568 0.20335057 0.27576107 -0.030629586 -0.044878323 -0.25799856
-0.17794015 0.23315552 0.08902987 0.09199486 -0.1968158 -0.013160947 -0.018270615 0.14710623
0.025246883 0.27857363 0.089029536 -0.35742146 -0.015627054 0.13978742 -0.26324248 -0.06624588
-0.19090372 -0.14199682 0.02143722 0.104957744 0.11981111 -0.08615701 0.050534416 -0.11939523
0.016717017 0.0761103 -0.19266239 0.14014466 -0.078458495 -0.10911783 -0.015061576 0.0149747655

graph_prop.node_update_funcs.0.weight_hh f4 [48, 16]
00000000: fd58 ce3d 12f4 773e 2a7b 20be 000e 523e
00000010: 7d6f 84bd f055 0138 a890 223d 8953 de3b
00000020: d6d6 eabd 6759 313d 6fc8 003e ac25 943e
00000030: f11e 5c3d e01a 8dbd 0638 cf3d 7d31 043e
00000040: d495 953d 52d8 513d 1161 eb3d 4425 c03e
00000050: 8697 78bd 399d 31be 3192 23bd bca0 2bbe
00000060: 88f9 82be 48f0 173d 8fa7 d13c 97c2 6e3c
00000070: 2c14 cebd 7559 82bd ee7e aabd e689 46be
00000080: 40d9 033e 501e 93bd e7ca 57bd af6e 5e3e
00000090: 04b5 203e ca68 aa3d afcc 33bd 5686 e5bd
000000a0: 69d9 993d 7d78 91be cdef 44be 7d91 20be
000000b0: 7c82 013d a283 d43d f6a1 4a3e aec3 abbc
000000c0: 7d61 0dbd 17c0 f8bc c834 263d 153d 793d
000000d0: f1b7 a73e 284a efbd cd26 acbc 2dc0 013e
000000e0: a513 013e 1e2c 5f3e a91f db3d 021a 2c3e
000000f0: 2356 873d 4ef7 313e f1a2 803e 3e22 77be
00000100: 6d28 393e 328c 4d3e 94a9 7bbd 76b4 5b3e
00000110: 3ed3 c7bd 2047 89bd 01f1 e0bd 41d4 0e3e
00000120: 523d adbd 1ab1 1f3e 05eb 16be aa85 14bd
00000130: 9482 e7bd 573f d73d 2051 9a3b 544d 2b3d
00000140: 828c 30bd 3d5e 37be c1b6 ff3d acf5 903d
00000150: 372b 86bd b7ec f93d 2757 c1bc fbe9 b2bd
00000160: 372e 37bd e0bf cbbc 111a 593c 06c1 603e
00000170: ec1d 62bd 9b2c d9bd b1b7 683d bd31 0fbe
00000180: 0dd5 fc3c 8a6d 973d 1f02 563e b214 a13d
00000190: bce8 6d3d 1126 08bd 2f2e 3abd 0d21 5cbe
000001a0: 1b50 8a3e 49e6 0abe e23b a0be dcd1 243e
000001b0: f8a8 6a3c eb52 53bd 30c0 02bd b683 633d
000001c0: e685 963d 1c2e a83e 716d 08bd 109e 4dbd
000001d0: 9c16 cb3e 2741 4d3e 556f 3dbe d7d2 06be
000001e0: 5e81 65be 3ba4 35bd c55a 6e3e 4942 1c3d
000001f0: 1e08 e03d 317e 32be 9cf1 4bbd 4773 e0bc
00000200: 82fb 863d 3015 88bd 29d7 113e c11e ddbd
00000210: 10bc c33d f41c 7c3e 796c 853e 44c0 66be
00000220: 9d4c 033e 975b c13c 8dc0 72bd c0b9 383e
00000230: b64a 213e 6e51 373d 3b86 32be d144 733e
00000240: 238a 59bd 9175 debd 4fbd 313e 95db 613e
00000250: 4774 a2bd 7946 5d3e adb7 9dbd f1a0 2abe
00000260: 341f a93d 96bd 933e a7e5 2cbe 2596 9bbe
00000270: 2058 82bd 5142 c1bd 8c89 893d 62a7 75bb
00000280: 7817 f83c d083 75bb 44f2 c5bd 9e31 c13d
00000290: e9e1 6dbe a301 ac3e cce6 37bd 1430 43bd
000002a0: 1401 843d 01b5 98be 4157 e73d e018 783e
000002b0: 137d 343d 22ae ad3c 15f8 d93d 5bce 82be
000002c0: 3b39 8dbe b6d4 b23c d759 9fbc e761 de3d
000002d0: f222 ffbb b356 81be bb0b 9d3e 6890 31bd
000002e0: bca4 13bd da2e 08bc 801c 803c 3195 a8bc
000002f0: 238d 8dbd 1e6b 4ebe de1d 2e3d f5a5 2e3e
00000300: 6845 65be 2998 cabd 28ab 243e f9ba 633d
00000310: 6f9e 0abe 294c 753c 5580 f6bd 2098 0c3d
00000320: dae5 1abd c770 5c3d b8e1 1bbd 6627 513e
00000330: af52 833e c5fa 09be 9108 83bd 80db 773e
00000340: 54d1 b63e ad88 2abe 90f1 ba39 b0af ca3c
00000350: f8ba d1bd 7d61 763c 4eb1 cc3d eed6 fbbd
00000360: fe0e 453e df7a 8d3d d8d5 7b3e 8097 64bd
00000370: 0e25 e53c 7da6 30bc 6d19 f1bd 190e 8b3e
00000380: 4b7e 4a3d 670b bc3d 52ce aebd 3d82 933c
00000390: 2bf9 413d 954d 44be fcad 03be b3b5 81be
000003a0: 9fec 423e 49de 833d 482f 0fbe c225 833e
000003b0: ef82 c53d 1464 5d3c 1c78 d8bc 8a2e 483d
000003c0: 09e9 593e d106 a6be 0e2b 4f3e ec52 5f3d
000003d0: 51c6 3c3e 21bf 8bbd 5f00 41bd 4f86 ef3d
000003e0: 35db eebd b6e9 8ebd 55ee 843d 40cf 4bb7
000003f0: 6d83 173e bb79 5e3e f560 2b3e 769a d43d
0.10075567 0.24214199 -0.15671983 0.20513153 -0.06466577 3.0836032e-05 0.039688736 0.0067848605
-0.11466758 0.04329815 0.1257646 0.2893499 0.053740446 -0.068898916 0.101181075 0.12909503
0.07303968 0.05123169 0.11493123 0.3752843 -0.06069138 -0.17345132 -0.03993434 -0.16760534
-0.25581002 0.037094384 0.025592593 0.014572761 -0.10062441 -0.06364719 -0.08324991 -0.19388542
0.12875843 -0.07183516 -0.052683737 0.2172191 0.15694052 0.08320768 -0.043896373 -0.11207263
0.07512171 -0.28412238 -0.19232102 -0.156805 0.03161858 0.103766695 0.19788346 -0.02096733
-0.0345168 -0.030365033 0.04057768 0.060849268 0.32757524 -0.11684066 -0.021014595 0.12670965
0.1260515 0.21794173 0.10699398 0.16806796 0.06608226 0.17379496 0.25124314 -0.24134156
0.18081827 0.20073012 -0.06144102 0.21455559 -0.09757088 -0.06703019 -0.10983468 0.13948156
-0.084589615 0.15594903 -0.1473809 -0.036260284 -0.11304203 0.10510128 0.004709378 0.041821793
-0.04310275 -0.17907043 0.124860294 0.07078108 -0.06551211 0.12203353 -0.023601128 -0.087360345
-0.04472181 -0.024871767 0.013250844 0.21948633 -0.055204317 -0.10604211 0.056815807 -0.13983817
0.03086331 0.0739394 0.20899247 0.078652754 0.05808328 -0.033239428 -0.0454542 -0.21496983
0.2701424 -0.1356441 -0.31295687 0.1609568 0.014322512 -0.05159275 -0.031921566 0.05554553
0.07349758 0.3284768 -0.033307496 -0.05019957 0.39665687 0.20044385 -0.18499501 -0.13166367
-0.22412631 -0.044346076 0.23276813 0.038149152 0.10939048 -0.1743095 -0.049790964 -0.027398719
0.0659094 -0.06644666 0.14242233 -0.107968815 0.095573545 0.2462042 0.2605932 -0.22534281
0.12822194 0.023603244 -0.059265662 0.18039608 0.15751156 0.04475539 -0.17434017 0.2375672
-0.053110253 -0.10862268 0.17357372 0.2205642 -0.079323344 0.21608914 -0.07701049 -0.16662957
0.08257905 0.2885558 -0.1688448 -0.3038799 -0.06364465 -0.09436477 0.06715688 -0.00374838
0.030284628 -0.00374626 -0.09665349 0.09433292 -0.23230709 0.33595 -0.04489784 -0.047653273
0.06445518 -0.29825595 0.11295939 0.24228239 0.044064593 0.021201197 0.10643021 -0.25548062
-0.27582726 0.021829944 -0.019452019 0.10858517 -0.007786148 -0.2526146 0.30673012 -0.043350607
-0.036045775 -0.0083119515 0.01563859 -0.020578953 -0.06911685 -0.2015805 0.042508952 0.17055495
-0.22389758 -0.098923035 0.16080916 0.055598233 -0.13537 0.014971771 -0.12036196 0.034324765
-0.03781686 0.05381849 -0.03805706 0.20425186 0.2564902 -0.13474567 -0.06398118 0.24204826
0.3570658 -0.166537 0.00035656663 0.024741977 -0.102407396 0.015037891 0.09994756 -0.12296854
0.19244 0.069082014 0.24593294 -0.055808544 0.02797177 -0.010781881 -0.11772428 0.27159193
0.04943685 0.09181862 -0.08535446 0.018006438 0.047356766 -0.1917022 -0.12859339 -0.25333938
0.19035576 0.06438882 -0.1398288 0.25614744 0.09644114 0.01351263 -0.02642446 0.048872508
0.21280302 -0.32427076 0.20231268 0.05452244 0.18435027 -0.06823564 -0.047119495 0.11695539
-0.11662904 -0.069781706 0.06490771 -1.2147997e-05 0.14796229 0.21726124 0.16736205 0.103810236

graph_prop.node_update_funcs.0.bias_ih f4 [48]
00000000: 572c a3bf ae69 223f 92c1 eabd 1007 a1bf
00000010: 7008 72bf 1fba 873f c7aa 173f 0e55 11c0
00000020: 1495 f13f 37b9 aebe 6b84 d0bd 959c 55bf
00000030: 63be 7fbf 4c95 3f3f 4bd4 df3e 2d6f 983e
00000040: 2378 2dbf 7199 233f 5337 af3f b0eb b83f
00000050: 5503 01c0 4ef0 8b3e 468c d6be bd55 dfbf
00000060: 7df3 0dbf bbcc b93e 3b97 aabe 4174 dc3d
00000070: 9e34 e2bf 8bff 94bf fba4 94bb a44a 1fbf
00000080: 7bd2 e3bf 9f42 14c0 087a 0e40 4234 3abf
00000090: 1ae7 34bf 1b0f d83d 59e7 0640 e227 0cc0
000000a0: c501 67bf 43a7 8dbe 741c 26bf 9e92 0ac0
000000b0: 1638 053f 2113 84bf f34e 1abf 7578 3340
-1.2747906 0.63442504 -0.11462702 -1.258028 -0.94544125 1.0603675 0.5924496 -2.2708163
1.887362 -0.34125683 -0.10181507 -0.8344205 -0.9989988 0.74837184 0.43716654 0.2977232
-0.6776144 0.6390601 1.3688759 1.4446926 -2.0158284 0.27331775 -0.41903895 -1.744804
-0.5544966 0.3628901 -0.33318505 0.10764361 -1.7672307 -1.1640486 -0.0045362688 -0.6222327
-1.7798609 -2.3165662 2.2261982 -0.7273599 -0.70665133 0.10549756 2.1078703 -2.1899343
-0.90237075 -0.27666673 -0.64887166 -2.1651988 0.52038705 -1.0318338 -0.60276717 2.804227

graph_prop.node_update_funcs.0.bias_hh f4 [48]
00000000: 6cdd 12be b3d7 833f 9bb7 eb3e 12e7 9d3d
00000010: 7fd9 eabe f1a6 88bf 0123 21bf 2353 143f
00000020: 26e5 b23f 6ffc 42bd bb31 403f c7bc 243f
00000030: 7b2b dbbe 3c6b 90be 4ce2 47be 1030 b0be
00000040: 7d42 eebe dabb ff3f 2e4b 9c3e 4876 433f
00000050: bca7 89bc fe94 c3be 7087 703f 9daa f8bf
00000060: 948a 613e 232e bcbe 45c7 0b3f bf03 a8bf
00000070: eb41 d63e 84ab 94bf a071 d8be 32b0 28bf
00000080: 3a96 c13f 42a2 9cbc c3da 1440 44ee edbf
00000090: 584f bcbe 3c54 9abd fc49 e8bf da99 96bf
000000a0: abb2 e4bf 8a40 22bf 0918 7cbf 0de4 90be
000000b0: cc09 153d ce32 ba3e acbc 84bf 73e2 1940
-0.14342278 1.0300201 0.46038517 0.07710089 -0.4586906 -1.0675946 -0.62944037 0.57939357
1.397618 -0.04760402 0.7507588 0.6435055 -0.4280661 -0.28206813 -0.19519919 -0.3441167
-0.46535102 1.9979203 0.30526108 0.7635236 -0.016803615 -0.3819961 0.9395666 -1.9427067
0.2202552 -0.3675395 0.54600936 -1.3126143 0.41847166 -1.1614842 -0.4227419 -0.6589385
1.512397 -0.01912034 2.3258522 -1.8588338 -0.36779284 -0.07535598 -1.8147578 -1.1765702
-1.7867025 -0.6337973 -0.98474175 -0.2829899 0.036386296 0.36366886 -1.0370078 2.4044464

graph_prop.node_update_funcs.1.weight_ih f4 [48, 32]
00000000: bf4e a3bd d1e3 d4bd 6ee4 fbbd ec9b 9ebe
00000010: b719 403d 5c1c 133e e444 16be a0fa c33d
00000020: 5a46 633b 8983 e13d e904 2f3e d9a4 b83d
00000030: 64a1 7bbd de5b bbbc e0cc c1bd eaac f7bc
00000040: d7a3 3e3d 0c86 083e 278b cc3d f8b9 cd3d
00000050: d88d 1dbe b113 f5bb bc67 d13c 0398 4b3d
00000060: edd6 8abe 7798 e5be bcb3 81bd 9d6d 16be
00000070: 03c5 8cbd cc48 c4bd a87c 5cbd bd90 823e
00000080: 7cf1 13bd aec2 693e 7003 a83d 5ea0 ad3d
00000090: e6a0 533d 23c2 66be b6b9 7a3e b9b6 db3c
000000a0: c19a bdbd 86e4 123c 39db 923d cb25 3fbe
000000b0: e3c2 2d3c aefe 313e 40cc 09be 9188 02be
000000c0: 7aed 4cbe 11e4 163e 9b8f d9bd 7ff5 d3bc
000000d0: eb62 74bc 7203 0e3e cb9b c7bd c6cb 73be
000000e0: 981f 5e3e 9cc7 bebd 20b8 cdbd c4f9 d1bd
000000f0: bc16 d23c a5f1 4c3e 687b a2bd 7e1c 45be
00000100: 953b 733e ffef 7d3e 133c 6fbe 4190 84bd
00000110: 6e7d 87be 80f7 97be 2a72 7fbe 4e59 be3d
00000120: b1e7 69bd 36b9 4d3d 22ec a03d 8e6c 2d3e
00000130: f445 5f3e faa5 0d3e e2dd 533d 040e d63c
00000140: e275 5a3e f71f 02bd 654a b63d b537 503e
00000150: f3bb 93be b325 bd3d e653 9f3d a791 8e3d
00000160: 90bb d33d 39c9 cdbd f74a 28bd 4140 ee3c
00000170: c827 3d3d 29e9 c63d da14 53bd af7a c4bc
00000180: c103 523e 4c45 0cbd 4bbe f33c 54a4 ee3c
00000190: 29b0 8fbd fff0 aa3d 676d c9bd 5fb5 69be
000001a0: 92d5 573e 88f0 f0bc 7b78 97bd 4893 46be
000001b0: f8cb 55bd 0c46 0cbd 4659 09be b49d 5e3e
000001c0: 4381 7fbc b2a7 4f3c 386c e1bc 91e8 91bd
000001d0: 7bd9 c8bd e5f9 933e 3b3c 5a3d 16f0 28bd
000001e0: d4eb 9fbd 4814 803b 3291 d83d 3b28 fdbd
000001f0: 8488 2fbe 989d 86be 8176 1d3e 49cd 98bc
00000200: 4837 303e 1ddc 8a3d 2df0 77be 1238 98bd
00000210: a4fd 173e 62f3 09bd 043e 9a3d 5b53 e33e
00000220: 2067 273e e2b7 04be b49f b0bd c57b 353e
00000230: 9ea1 e6bd f69d c7bc 60e4 14bc 34f4 24bd
00000240: e111 8ebd a8cf 103e 1b5b 0ebd 86fa 8ebd
00000250: 436c 3abd e667 8e3d 1b96 ba3d 8ee0 81be
00000260: f5d7 c03e a67e 173e a9da e2bc 53bf 9dbc
00000270: e3ea 053d 05af f63b 5638 97bd 0cb2 303e
00000280: 0f21 07bc 8969 78be 7264 883c de80 4d3a
00000290: ba51 113d b7a4 dcbd 29a6 443d 5160 133c
000002a0: 1d53 063e 4335 5bbc 70f5 923d fe8a 8d3b
000002b0: a9bc fc3c cc20 58bd 1a06 22bd f728 d43d
000002c0: 5f9a f2bd 23a9 4bbe 5c29 b9bd da81 f73c
000002d0: dee0 68bd d9cb 84bd a4f9 ebbd ae13 1b3d
000002e0: 7b22 fe3d 6c93 2bbe a4d3 563d 813d 69be
000002f0: 5662 1bbd d192 0bbe 726d e13d d1f1 abbe
00000300: 5727 1bbd e241 5b3d 695d 5b3c 2bbf 11be
00000310: 396f 04be a4b7 913c 92d6 673e 007c f03b
00000320: acb0 66be b8f1 87ba 6810 07be 0cd1 253d
00000330: 64ea 80bd 4502 96be 28f1 a03e ca06 153e
00000340: b338 09be d0da 2dbe 6a09 1dbe 498a 02bc
00000350: 7439 1dbe 4523 a83d e1a4 393d 9212 e93c
00000360: 86fd 08be 7460 8a3e 0876 50bc 6318 91be
00000370: b96d 8f3e 7905 813c 39a9 d73c 2f81 233e
00000380: ee49 f5bd a9c0 dc3d 0292 053e 428f fcbd
00000390: 637c a73e c500 2ebe 9f94 84be d2d4 b9bd
000003a0: af7e 1bbe 9371 f63b 947a 143e 8bba 563e
000003b0: d919 9dbe 709c 143d 2f1c 85bc cf38 6a3e
000003c0: 15f1 d5bd 397f e9bd be06 a2bd 113f b63c
000003d0: e12a 8abd 4cba e73d e82d 00be 49f9 a7bd
000003e0: 449a 483d 8c7c edbc 4cfe 2e3d 8caf b93e
000003f0: 03fb 313e 43d5 a2bc f49f 293e d1fb 6cbd
-0.07974004 -0.10395015 -0.12299429 -0.30978334 0.046899524 0.14366287 -0.14674717 0.09569287
0.0034679384 0.110114165 0.17091717 0.09015817 -0.06143321 -0.022870954 -0.09462905 -0.030233819
0.04654297 0.13332385 0.09987479 0.10045236 -0.1538614 -0.007479154 0.02556216 0.049705517
-0.271171 -0.44842884 -0.0633311 -0.14690252 -0.068735145 -0.095841974 -0.05382982 0.25501052
-0.03611897 0.2282817 0.08203781 0.08477853 0.051667117 -0.22534995 0.24484906 0.026820527
-0.092580326 0.008965617 0.0717072 -0.1866676 0.010605547 0.17382309 -0.13456821 -0.12747408
-0.20012465 0.14735438 -0.10623094 -0.025873898 -0.014916162 0.13868502 -0.09746512 -0.23808202
0.2169174 -0.09315416 -0.10044885 -0.10252717 0.025645606 0.20014055 -0.07933694 -0.1924915
0.23753197 0.24798582 -0.2336276 -0.06472827 -0.26462883 -0.29681015 -0.24945894 0.09294377
-0.057105724 0.05022546 0.07857539 0.16935942 0.21804029 0.13832846 0.051725276 0.02612973
0.21334031 -0.031768765 0.089009084 0.2033375 -0.2885433 0.09235706 0.07779674 0.06961375
0.10338509 -0.10048146 -0.041087117 0.029083373 0.046180516 0.097124405 -0.051533557 -0.023984281
0.20509245 -0.034245774 0.029753825 0.029131092 -0.07016022 0.083467476 -0.0983532 -0.22823094
0.21077564 -0.02941157 -0.07396027 -0.19392121 -0.052196473 -0.03424649 -0.13412961 0.21739846
-0.015594783 0.012674259 -0.027517423 -0.07124437 -0.09807106 0.28901592 0.053280097 -0.04124459
-0.078086525 0.0039086677 0.10574569 -0.12361189 -0.1714192 -0.2629211 0.15377237 -0.018652575
0.17208588 0.067802645 -0.24212714 -0.074325696 0.1484285 -0.033679374 0.0753136 0.44399533
0.16347933 -0.1296077 -0.08624211 0.17722996 -0.11261295 -0.024367314 -0.009087652 -0.040271953
-0.06937004 0.14141715 -0.034754854 -0.06981377 -0.045513403 0.06953411 0.091106616 -0.25366634
0.37664762 0.14794406 -0.027692156 -0.01925627 0.03269471 0.007528188 -0.07383792 0.1725542
-0.008247628 -0.24259008 0.016649459 0.0007839332 0.03547833 -0.10773604 0.048010025 0.008995132
0.13117643 -0.013379398 0.0717572 0.0043195477 0.030851679 -0.052765653 -0.0395566 0.10359376
-0.1184585 -0.1988874 -0.09041092 0.030213285 -0.056855075 -0.06484193 -0.115222245 0.037860565
0.124089204 -0.16755456 0.05244793 -0.22777368 -0.037935577 -0.13630225 0.11007203 -0.3358293
-0.037879314 0.053529628 0.01338897 -0.14233081 -0.12933053 0.017787762 0.22640446 0.0073390007
-0.22528332 -0.001037172 -0.13189852 0.040482566 -0.062947065 -0.29298607 0.31433988 0.14553371
-0.13400535 -0.16978002 -0.15335622 -0.00796754 -0.15353948 0.08209852 0.045323256 0.028451238
-0.13377962 0.27026713 -0.012723453 -0.28338918 0.280134 0.01574968 0.026325809 0.15967248
-0.119769916 0.107789345 0.13043979 -0.12332012 0.32712087 -0.16992481 -0.2589464 -0.090737954
-0.15185045 0.0075208633 0.14499885 0.20969598 -0.30683783 0.036282003 -0.01624879 0.22873233
-0.104463734 -0.11401219 -0.07911442 0.02224687 -0.0674646 0.1131483 -0.12517512 -0.08201844
0.048975244 -0.028990053 0.042722985 0.36266744 0.1738091 -0.019877082 0.16564924 -0.05785734

graph_prop.node_update_funcs.1.weight_hh f4 [48, 16]
00000000: b859 57be 6794 d5bd 5ab6 e63a 23cb 94bd
00000010: 365f 52be 8d3c 16be 5720 8fbd d290 2abd
00000020: 176f 3f3e 7b2e 61bd e83b 6fbd 02f7 82bd
00000030: 913b d73c 8c5f 013e 2478 26be 59eb 9ebd
00000040: dec8 2cbe a948 dbbd ad49 a4ba b06b 19be
00000050: ba80 71bd 701a 1b3e df70 87bd 0731 d9bd
00000060: 5603 c13d c9dd 073d 3e9c 4a3d 2fe6 d03c
00000070: df41 a3be ebcb 40be 687d 963d 5246 553e
00000080: 9e25 b53d e96e 8a3d 3e7f 723e 082a 593d
00000090: f02e 723e aa60 52bd f20d 6cbd a1f1 efbd
000000a0: f547 4dbe eeee e1bd 6a04 92bd 810d 1cbe
000000b0: 9c19 88be 3382 723e 34c6 a1bd 7a1e 20ba
000000c0: 0c6b 92be 6e89 563e 7206 e3bd f7a8 453e
000000d0: cb23 0d3e 5b0e 873d b0bc b7bd 0b5e 4dbd
000000e0: f7b9 8d3c 5e8d 703d 025b 32bd d8c6 aa3d
000000f0: 8c07 4cbd 520c 33be 3b01 86be ec78 72be
00000100: e852 afbd 3a8a a4bd 7746 973e 7849 ca3d
00000110: ea69 5a3b b4c0 b4bb 1ae0 c5bd d35f 4e3d
00000120: 219a a03d 0faa 35be 6417 ee3d 612d 47be
00000130: f064 573d 814c d93d cbd9 b93d cd8a 273e
00000140: bb98 74be b3d9 04bc c52e a0bd 751d 70bd
00000150: b0fb 03bd 1fe6 a33d e825 9bbe 659f 313d
00000160: 46dd d8bd dce7 93bd 84e5 373e 8288 23bd
00000170: b5e4 003e 0da5 08bd 1db3 d63d 5b7e a5bd
00000180: c2e1 c9bd 5f0e 733e 8e3c bd3d d2ca 0cbc
00000190: 4c5b bcbd 2df6 3abc f26a e83c a700 be3d
000001a0: abea a9bd a961 8a3d a491 93bd 8ce6 cf3c
000001b0: df07 ea3b dfd4 1b3e 222e 253e 3e9f 1dbe
000001c0: 807e 65bd d170 d13d 7b55 e63d a1a1 ac3e
000001d0: 574d 5cbe 4a00 17bd 7fa3 88be c1db 693c
000001e0: 8ed8 ed3d 8958 283d 050f c33e 2641 1abd
000001f0: cdc6 17be 1f1b b4bd 4f44 af3c 1cee 0a3e
00000200: 9bd1 60be 2685 213e d0c3 673e 2b2b 34bd
00000210: bce8 2cbd 1389 41bd 3f29 84bd 7faf 6ebe
00000220: c6b8 39bd 1692 54bc e5a9 d9bd ce31 36bd
00000230: 7f67 a4bd 0248 ecbd 2204 613e 5b3a 90bc
00000240: 8cf0 86bb eb2b b2bd d6e8 283d e583 aebd
00000250: 0961 143e c2a8 213e 6d38 e43c c5ff d93e
00000260: 5cc9 09be 9f5d 4d3e fc42 e7bd 9d0c 09be
00000270: 3ec2 f53c c795 18be 06e8 4c3e 0f14 893e
00000280: c37d c4bd 0c18 fd3d 53b9 123e 809d 7a3d
00000290: fd5d 043e edeb f03d 6ffe 2b3c 0374 33be
000002a0: 0b6e a73d 0f7e 913e 5a95 60bb 8d7b 95bd
000002b0: d645 30bd af46 d23c ec44 013e fcaa 16be
000002c0: adc7 e3ba 2074 043e de22 5bbe ea93 853d
000002d0: 2835 5b3e a20e a2be b2cb 0c3e 6381 a6bd
000002e0: fe7f 923e 143a 0f3d d719 803d 2382 40be
000002f0: 501e d23d 1a79 1abd 916e 013e ad2c 11be
00000300: 6e01 1ebd a01a 14be a8a9 4a3e 2ac5 c73c
00000310: 4c80 303d 4a22 59bd b4af 033e ed51 0f3e
00000320: 9f52 c8bc 692a 5f3e 61d1 a33d 3abe f23d
00000330: d771 90bd aaa0 dcbc 789c 443e 3488 69bd
00000340: 1a9d b13d d167 19be afb3 203d 24fa 31be
00000350: 059a 313c b3a3 93bd 70c7 f23d fd09 2abe
00000360: a1cc 123e 7de4 8d3d f42d 103e bd26 253d
00000370: 6bf6 8bbc 73ea c9be 2cf3 723d f388 2cbe
00000380: fd4d 1e3e e84e 083e c2ce 25bd 633d 82be
00000390: 198e b3bd ff66 51bd 036f 89be 365b cebc
000003a0: fcd3 30be 6fd7 163d 9efd 50bc 553f 323e
000003b0: a3c9 cc3d 5ee8 49be 34c0 dcbd ced5 f6bd
000003c0: 81b9 6c3e 484b 823b 2ef9 dcbc 944b 333e
000003d0: c264 cd3e 5697 9ebd 6f23 a6bd b5aa b53b
000003e0: 3a7d 44be 94f9 0cbb 89e7 73bd 7b65 f7bd
000003f0: d447 543d f437 0ebe 7387 223e 0c22 1ebe
-0.21030319 -0.10428696 0.0017601952 -0.07265308 -0.20544133 -0.14671536 -0.0698859 -0.041642018
0.18694721 -0.054975968 -0.05840674 -0.06394769 0.02627352 0.12634104 -0.16256768 -0.07759733
-0.168735 -0.10707218 -0.0012534164 -0.14982486 -0.058960654 0.15146804 -0.06613325 -0.10605054
0.094244644 0.033170495 0.04946541 0.025500385 -0.31886193 -0.18827789 0.07348138 0.20827606
0.088450655 0.06759436 0.23681352 0.0530186 0.23650718 -0.051361717 -0.057630487 -0.11716009
-0.2004698 -0.110319 -0.07129748 -0.15239526 -0.26582038 0.2368248 -0.07899132 -0.0006108057
-0.28597295 0.20950863 -0.11085214 0.19302736 0.13783185 0.06594535 -0.08971536 -0.050138514
0.017300589 0.05872857 -0.043543823 0.08338708 -0.049811885 -0.17485169 -0.26172814 -0.2367894
-0.08560735 -0.08034177 0.29545948 0.09877294 0.003332729 -0.005516136 -0.096618846 0.050384354
0.07841898 -0.17740653 0.11625555 -0.19450904 0.052586496 0.10610295 0.09074744 0.16361542
-0.23886387 -0.008108544 -0.078214206 -0.058621842 -0.03222245 0.080028765 -0.30302358 0.0433649
-0.105890796 -0.07221958 0.17958647 -0.039925106 0.12587245 -0.03336053 0.10483382 -0.08080741
-0.09857513 0.23735951 0.092400655 -0.008593278 -0.09197101 -0.011411232 0.028371308 0.09277468
-0.082967125 0.067569084 -0.07205513 0.025378488 0.0071420516 0.15217923 0.1613088 -0.15392777
-0.056028843 0.10226596 0.11246773 0.33717063 -0.21513878 -0.03686551 -0.26687238 0.014273585
0.1161357 0.04110006 0.38097396 -0.037659787 -0.1482193 -0.087942354 0.021394877 0.13567394
-0.21954958 0.15773448 0.2263329 -0.04398648 -0.04221414 -0.047249865 -0.064531796 -0.23309134
-0.04534223 -0.012974283 -0.10628108 -0.04448109 -0.08027553 -0.11537172 0.21974233 -0.017605951
-0.004118031 -0.08699783 0.041237675 -0.08521251 0.14490141 0.15787032 0.027858937 0.4257795
-0.13455719 0.20055245 -0.11292073 -0.13383718 0.029999848 -0.14900886 0.20010385 0.26773116
-0.095943 0.12358102 0.14328508 0.06118536 0.12926479 0.11763749 0.010497673 -0.17524724
0.08175286 0.28416488 -0.0034268708 -0.07298956 -0.04303535 0.02566847 0.12623948 -0.14713663
-0.0017378234 0.12934923 -0.2140002 0.06522353 0.21406996 -0.3165179 0.13749579 -0.08130147
0.28613275 0.034967497 0.062549286 -0.18799643 0.10259688 -0.037713148 0.12639834 -0.14177199
-0.038575582 -0.14463282 0.19791281 0.024386007 0.043091103 -0.053011216 0.12859994 0.13996096
-0.02445346 0.21793522 0.0799892 0.11852689 -0.07052963 -0.02693208 0.19200313 -0.05701466
0.08672543 -0.14981009 0.03923386 -0.17380577 0.010839944 -0.072089575 0.11854446 -0.16605373
0.14335872 0.06928346 0.1408003 0.040320147 -0.017085275 -0.39436683 0.059313938 -0.16849117
0.15459438 0.1331135 -0.040480383 -0.2543746 -0.08767337 -0.051123615 -0.26842508 -0.025189977
-0.17268366 0.036826547 -0.01275578 0.17406972 0.09999397 -0.19717547 -0.10778847 -0.12052499
0.23117639 0.0039762594 -0.026974287 0.175093 0.40115935 -0.07743709 -0.08112227 0.0055440315
-0.19188395 -0.0021511065 -0.05954698 -0.12079903 0.051826313 -0.13888532 0.15871982 -0.15442675

graph_prop.node_update_funcs.1.bias_ih f4 [48]
00000000: 9072 a63f 81c3 e93e e1b2 7e3f d2cf f7bf
00000010: 8fcf a13f 4709 1ebf 8dee 68bf b6ae d2be
00000020: 9e6a 073e 753d d63e 7462 62bf 8a0c 8e3e
00000030: 9eba 0bc0 a014 5a3f d00b c5be c0f1 503f
00000040: c097 a3be ee92 abbf a927 d8be 13a1 a9bf
00000050: 8dc1 eebe af7f 343f e797 5abf b74a 8cbf
00000060: efab 853d 0e50 5a3f 98a4 7abf 02e3 823f
00000070: 7b56 3dc0 fce2 4ebd 58f5 86be 81f0 55be
00000080: d6ed efbd c5dc 5fbf 6745 b83d fd72 98bf
00000090: 2f3a 263f 3ac4 2b3d fe39 f73b 2b3f 1cbe
000000a0: 6484 8dbf 7799 5a3e 01ff a23e ed0f ebbf
000000b0: 7893 7639 0f2e f0be 42b1 1cc0 5eaf 0a40
1.3003712 0.4565697 0.994917 -1.9360297 1.2641467 -0.61732906 -0.90989 -0.4114892
0.13224265 0.41843763 -0.8843148 0.27743942 -2.1832652 0.8518772 -0.38485575 0.8161888
-0.31951714 -1.3404214 -0.42217758 -1.3252281 -0.46632043 0.7050733 -0.85388035 -1.0960301
0.06526934 0.85278404 -0.979074 1.0225527 -2.9584033 -0.050509438 -0.26359057 -0.20892526
-0.117152855 -0.8744624 0.089976124 -1.1910092 0.6493253 0.041935183 0.007544755 -0.15258472
-1.1056027 0.21347605 0.31835178 -1.8364235 0.00023515325 -0.4691014 -2.448319 2.1669536
