dgmg/old data/model_houses_old.pth (torch, 63632 bytes, 26 tensors)

weight f4 [1, 16]
00000000: 0cf2 ccbe 9eac bf3c 1f3c 67be d47d ad3e
00000010: ece9 663e 786a d53e 28d9 683d 3e6b 5a3e
00000020: 1ff7 823d 348d ca3d 75f2 d3bd f8bf da3e
00000030: 9961 863e a8ec 84be 1b7f 8bbe 9881 353f
-0.40028417 0.02339774 -0.22581528 0.33885062 0.22550172 0.41682792 0.05684772 0.21329972
0.06394791 0.098902136 -0.103489794 0.42724586 0.26246336 -0.25961804 -0.2724541 0.7090087

weight f4 [32, 16]
00000000: 5e42 6dbd e96a 9e3d f596 56bd 222e 8a3e
00000010: 466e 4b3e 21b6 a83d 3f61 85be 739e ad3d
00000020: cefb b9be ea72 7dbe 5d99 a9bc 9d4a c6bd
00000030: b305 b7bd 0132 063e d09a b33d eeba cc3d
00000040: 36f2 333e 25bd 393d c077 48bd c7f6 01bd
00000050: 579d 353c d72d 263d 22f0 14bd 358a 03be
00000060: d52c 8f3e c6c2 aebd 8042 ab3d 43df 1e3e
00000070: 8adf 36bd 2be5 78be b518 2dbe fb69 c0be
00000080: 9aaa 623d 1b17 453e a477 f33b de98 04be
00000090: fd46 b73d c802 d6bd 887a 66bd 6eef 103e
000000a0: 32d8 f1be 9fd0 c6be a1a0 4a3e 1f82 7b3e
000000b0: 2180 c2be 454f 4e3d ee6d 023e 6dc7 ea3d
000000c0: 7121 2e3e 3370 6bbe 572a afbe 0508 8fbd
000000d0: 9677 8abe 1573 2fbe 7ddc c4bd c907 b53c
000000e0: 0079 bf3d 2b26 633d d0c3 b73d 7a79 7c3d
000000f0: 49bc a73d 3145 d2bd 652f afbd cb72 69bb
00000100: 954d 1bbe 1c73 66bd 3e69 e3bd 2adb 4c3e
00000110: 4918 b03d 3d7a e2bd 9439 a53e 6a70 983e
00000120: c887 e2be ae1d 13be cb9c dd3e 975f b5be
00000130: 38d6 bbbd de2e 443e 2bfe 443e 0fd0 ce3d
00000140: 7a66 273e ff05 afbc 8ad1 83be 59d9 88bd
00000150: c67d b2bd 69ba 48be 749a 84bc 2c3d d73c
00000160: 30d2 b7bd 6775 54bd cb87 c9be 750c d2be
00000170: 28c6 2a3d 9052 493c 8f52 d7bd 916d c93c
00000180: 1ec4 c33d 0db9 28be 8f79 26be fa7e cbbb
00000190: 8f8f 76be 4adf 6ebe 2447 88be e5fd 4dbe
000001a0: 9169 2cbe 5e78 1abe 2086 92be 57d1 45be
000001b0: aecd 48be de47 b43d 627b 04be 1b23 a4bd
000001c0: f8f0 1f3e a149 0fbe 2ef5 cabc 072d 79bd
000001d0: 5251 6a3c bdd9 a9be 29a3 e4be 5c01 d9be
000001e0: 49bb f33d f849 893d 8c0e f7bd 1abe 9d3d
000001f0: 1771 a33e 182a 93be 5618 303e 8125 cd3d
00000200: 0a08 b83e a3d3 59be ff83 ecbb ed2a afbd
00000210: cbea d43d ab8b e83d 9599 f23d d5e6 13be
00000220: 7e61 69bd 4848 bcbc 6f3b 51be 92d1 0fbf
00000230: 13ad eebe 8899 693e ccc6 b53e 3890 9e3d
00000240: 7ad0 c53d b085 95bd 03cf 06be cf46 46be
00000250: e74c 4d3d 4241 13be 01e2 43bd 4e74 92be
00000260: f081 26bd c6e0 163f 1324 d3bc 6f0e d9bc
00000270: 6b66 6dbd 1cd8 ccbe 9e81 e23d f5cb 3fbe
00000280: 4e43 bebd dc39 89bc b52b 6dbe 5480 d3bd
00000290: 4e05 3abe 06f8 4ebe 8378 233d 00af f13e
000002a0: 7255 c33d 36c9 d6be 9bdb 043e 1719 a3be
000002b0: b6c8 20bd f9d6 863e 6f1c 56bd 0308 6f3e
000002c0: 4332 923e a3e2 163e 7e6c 503e 8e02 c5bd
000002d0: 5a9a 83bd beb8 97bc d044 383c 182a 4e3e
000002e0: 8a18 15be c86f 3f3e ed4e b73d a150 343d
000002f0: 6958 9bbe c105 3f3e 421c 83bd c32c 02be
00000300: 5d6e 833e 82ca 803c 60dd c33d 94e4 e7bd
00000310: d910 72bd d52c 44be 0ef3 2b3e 26da b93e
00000320: 0d89 4d3e 137c 11be 4436 a1bc f586 dd3c
00000330: 796b 813d d1c2 bcbb 1e2b 98bd 8389 4fbe
00000340: eba9 c0bd 45a8 ae3e 5acc 4f3e ecaf 3dbe
00000350: f6d8 e1be 2c25 b6be a492 89be 5889 d6bd
00000360: f852 ae3e 37a3 a93c 351a 5fbe ac05 11be
00000370: 7764 533e e79f 15bd e523 0e3e a3b9 7e3e
00000380: a5ae a0be 39b8 c73e b296 dd3d c59c 5a3d
00000390: fd69 973d e77b 05be 9062 d13c be08 8c3e
000003a0: c338 00be 25cb 81be 5c6e 1b3e 0440 313e
000003b0: 754c af3d c197 43be fb31 abbe 47ce b03c
000003c0: 73cd bdbe 50ae 1fbd 1d29 7abc 6099 4b3e
000003d0: 0025 0e3e 63f7 00be cb67 d33e 6018 a2be
000003e0: f44d 503e 5227 6f3e 2ecd 61bd 3795 c2be
000003f0: 1943 293c 1fde 753e 0016 b13e 04c6 b93d
-0.05792462 0.07735235 -0.052390058 0.26988322 0.19866285 0.08237863 -0.26050755 0.084774874
-0.36324924 -0.24750867 -0.020703012 -0.096822 -0.08936634 0.13105012 0.087697625 0.099965915
0.17572865 0.045346398 -0.048942327 -0.031729486 0.011084876 0.04057106 -0.03636182 -0.1284569
0.27963892 -0.08533244 0.08362293 0.15514855 -0.044646777 -0.2430617 -0.16903956 -0.37580857
0.05533848 0.19247095 0.0074300338 -0.12948939 0.08949087 -0.10449749 -0.0562692 0.14153835
-0.47235256 -0.3883104 0.19787838 0.24561356 -0.3798838 0.050368566 0.12737247 0.11463819
0.17004944 -0.2299202 -0.3421199 -0.069839515 -0.27044362 -0.17133744 -0.09612367 0.022098439
0.09349251 0.05545632 0.08972895 0.061639287 0.081902094 -0.102671035 -0.08553962 -0.00356214
-0.15166314 -0.05626212 -0.11104058 0.2000548 0.08598382 -0.11058471 0.3227049 0.29773265
-0.44244218 -0.1436679 0.43283686 -0.35424492 -0.09171718 0.19158503 0.19237582 0.10098278
0.16347685 -0.021365164 -0.25745803 -0.06682081 -0.08715396 -0.1960236 -0.01618693 0.026274286
-0.08975637 -0.051869776 -0.39361414 -0.4102513 0.041692883 0.012287751 -0.10513794 0.024588378
0.09558891 -0.16476841 -0.16257308 -0.006210205 -0.24078201 -0.23327366 -0.26616776 -0.20116384
-0.16837145 -0.15084979 -0.28617954 -0.19318138 -0.1960971 0.0880277 -0.12937692 -0.08014508
0.15619266 -0.13992931 -0.024775114 -0.060833957 0.014301615 -0.33173934 -0.4465573 -0.4238385
0.11900956 0.067035615 -0.120633215 0.077022746 0.31922218 -0.28743052 0.17196783 0.10016919
0.35943633 -0.21272139 -0.0072178836 -0.08553109 0.10396346 0.113547646 0.118457 -0.14443524
-0.05697774 -0.022983685 -0.20432828 -0.56179154 -0.4661642 0.22812474 0.35503232 0.07742351
0.096589044 -0.073008895 -0.13164906 -0.19362949 0.050122168 -0.14380363 -0.047822956 -0.28604358
-0.04065126 0.5893673 -0.025774037 -0.02649614 -0.057959 -0.40008628 0.11059879 -0.18730147
-0.09290181 -0.016751222 -0.23161204 -0.10327211 -0.18166086 -0.20211801 0.03990985 0.47203827
0.09537782 -0.41950387 0.12974398 -0.3185508 -0.039253913 0.26335886 -0.05227321 0.233429
0.28553972 0.14734893 0.20353886 -0.09619628 -0.064259246 -0.01852071 0.011246875 0.20133245
-0.14560142 0.18694985 0.08950601 0.044022206 -0.3034089 0.18654539 -0.06401874 -0.12712388
0.25670138 0.015721563 0.09563708 -0.11322895 -0.0590981 -0.19157727 0.16791937 0.36299247
0.20071812 -0.14207487 -0.019679196 0.027041892 0.06319327 -0.0057605286 -0.07430099 -0.202673
-0.09407409 0.34112754 0.20292798 -0.1852414 -0.4411084 -0.35575235 -0.2686969 -0.10475415
0.34047675 0.02070771 -0.21787341 -0.1416232 0.20643793 -0.036529448 0.1388088 0.24875502
-0.31383243 0.39007738 0.108197585 0.053372163 0.073932625 -0.13035546 0.025559694 0.2735042
-0.12521653 -0.253503 0.15178818 0.17309576 0.08559505 -0.19100858 -0.3343657 0.021582736
-0.37070808 -0.038984597 -0.015268591 0.19882727 0.13881302 -0.1259437 0.41290125 -0.31659222
0.20342237 0.23354843 -0.055127315 -0.38004467 0.010330939 0.24010514 0.34587097 0.090709716

bias f4 [32]
00000000: 5109 84be ac9b a83e c2db 19bf 9b02 8fbf
00000010: 30d3 bb3f 3813 c33d c680 653f 25dd 103f
00000020: 1b9c debe d964 bc3f a8b1 1abf d1cf f83e
00000030: 2084 03c0 7b8d 913f f8a0 a93f c21d f03f
00000040: e823 0640 90f9 3bbf 99ea 7bbf 3710 843e
00000050: acdc a7be 6e0c ccbe 80a2 cebe 5084 d6be
00000060: 771c 933f 1023 733f eb64 8dbe f7bb e3b9
00000070: b78f 35be b540 3abf b73f 823f 9dfe adbf
-0.25788358 0.32931268 -0.6010095 -1.117267 1.4673824 0.0952515 0.8964962 0.5658744
-0.43478474 1.4718276 -0.6042733 0.4859605 -2.0549393 1.1371301 1.3252249 1.8759081
2.0959415 -0.7342768 -0.9840484 0.2579362 -0.32785547 -0.39853233 -0.40358353 -0.4189782
1.1493062 0.94975376 -0.27616057 -0.0004343686 -0.17730604 -0.72754985 1.0175694 -1.3593327

weight f4 [32, 33]
00000000: 1bd2 11be a88d 6fbd 0f19 343d eb8e fa3d
00000010: 5ca6 1f3e e31d fa3d ad72 11be bd69 14bd
00000020: 67ea 96bc 0a73 46bd e3b8 4a3e dd9a f13c
00000030: c673 06be cd7f 53bd d442 cb3d 40a3 063e
00000040: 1433 8c3c facb 96be fa63 e83b ab11 88bd
00000050: c16c af3c 80d8 8cbb cf5c 0dbe 7a15 f0ba
00000060: 626c 553c d3f0 a3bd f7b5 c8bd 2e60 953d
00000070: 0fd0 8e3d f03e 66bd 3fb4 53bd 5ce6 0c3e
00000080: ffdc af3d a830 2dbe b4b4 8dbc c78c ba3a
00000090: e712 e3bd adcf fe3d 2078 453e 3223 86b8
000000a0: 5049 9ebb b329 ebbc 16f4 2c3d eb1e 863d
000000b0: cedc bd3d 058a 48be 27d4 d6bd a29c 9dbd
000000c0: b1dc 28be d417 a4bd 187f 9d3c d7f4 b73c
000000d0: 788e 14be 6aa1 2d3d b5b8 75be f0a6 333c
000000e0: ed8e c6bd 0215 89bc d143 c0bc e095 7cbe
000000f0: d7a3 9bbe 3bc3 2fbd 3b75 1cbd 997f afbd
00000100: 84a7 8bbe ef31 26bc 506e 66bc f95a 223d
00000110: 634c c4bc 5252 d13c 5725 6dbd e519 98bd
00000120: 6337 a3bd e260 ad3d 0120 203d a09a d43d
00000130: 78df 83bd 41bb 43be 8ba6 56bd 0924 c2bd
00000140: 5701 24bd 9acf 173e 3308 613a 1ab7 55bd
00000150: 02f2 3cbd c933 0bbe 1d0d dbbd 0d41 653d
00000160: 4bbe 21bd 0868 d2bd dabc c83d 4933 c73d
00000170: 0d98 f83d f9ee 493e 15a0 77bd 6877 953d
00000180: 5d10 683d 917c 0a3e 083c 48ba 5b13 4c3e
00000190: 7489 13bd 461c 8ebe 4843 013e 3fa7 903d
000001a0: 5b2b babd fb55 1dbe 0b73 403e a5b4 b3bd
000001b0: 3f08 823e 8b75 08be 2217 343e c3e7 013e
000001c0: 244c 96bb c944 04bd 7722 febd 7a90 253e
000001d0: a8f4 6cbd 80ab 18be 33f2 adbc dff1 1b3d
000001e0: 2496 8f3c e525 58bd 9a40 4abd 0338 a1bd
000001f0: f5b5 12bd 1b6f 583d e5b3 623e b820 3b3e
00000200: 2625 153e 3410 193d 1599 0d3e 9f23 1b3d
00000210: e3cc a3bd 3e36 9c3b 2d83 583d 7351 b7bd
00000220: e114 03be d073 e93d 0878 1d3d 3749 ec3d
00000230: 1d6c e7bd ed89 ba3d 4f3e 673d 2222 c03c
00000240: d04e 0e3d 9dc6 d53c c510 d53d eb29 24bc
00000250: 00ef fc3d 0127 1c3d 4552 9a3c c0b1 dd3d
00000260: e513 dabd 9585 663c 9077 55be b0e6 66be
00000270: 9c5f 99bc e544 e03d 9780 b5bc db3a e2bb
00000280: 6029 71bd 0fe3 92bd 7479 48bd f74c 723d
00000290: 963e 9abd 8ba2 8f3d d8a1 64bd 7872 143e
000002a0: 751a 8ebb 5003 9db9 503a ea3d 7734 51bc
000002b0: cd26 163b 0539 c3bd 4fcd f6bc 863a 8abd
000002c0: e7e9 46bc 2cf4 25be af59 87bd 8617 133c
000002d0: 5b1c a73d c478 9a3d 6029 0d3d d7c9 053d
000002e0: 508d 6c3c 9560 54bd 380a 5b3c a8c6 3cbe
000002f0: 0235 523d dc2b 97bd 1292 13be 072f eebc
00000300: 8099 febd 72cf 3c3d ef0a 87bd d5df 733d
00000310: 2dff 4dbe 0373 edbd 662c c03c 03a5 bdbd
00000320: 038f 4bbe eb0e 913d dbd1 bdbd 04f5 b93c
00000330: d67a 2fbe a744 4b3d 706b 183c 6f26 d53c
00000340: 69e4 813d bde4 d43b 320c 0bbe 0bda 9abd
00000350: 7aa8 bf3d f554 d8bd e8bb 513c 6d6b 0d3d
00000360: c840 ff3c b30d f63d 32f3 cbbc 6b2e 99bd
00000370: ad77 5dbe a7d6 293e 2a41 473d f792 203c
00000380: a161 1a3d 08b6 d13d 0f63 af3c b933 2f3e
00000390: c3d3 e5bc 7f7d 4ebc 60b4 d7bc 7f95 4e3e
000003a0: fe72 a6bc 2f88 55bd 8f0b d3bc c282 73be
000003b0: 2ce8 933d 9d27 3ebe 1b65 593d da6b fa3d
000003c0: 5a99 4dbd bb0a 02be 6e9a 0d3e 7a03 21be
000003d0: c923 c3bd 61b4 2bbe ad49 90bd 7d39 fd3d
000003e0: 8e54 323c 2f11 c9bd 6a17 1bbe 07ae 56bd
000003f0: 61e8 133e 47c0 ad3d 671d 8cbd 2052 e63d
-0.14240305 -0.058484703 0.04396921 0.12234291 0.15590805 0.12212732 -0.14203902 -0.036233652
-0.018422319 -0.048449554 0.19797091 0.02949279 -0.13130102 -0.051635552 0.09924856 0.13148212
0.0171142 -0.29452497 0.0070919963 -0.06643995 0.021414163 -0.0042982697 -0.13804935 -0.0018316947
0.013026329 -0.08004918 -0.09800332 0.072937354 0.06973278 -0.056212366 -0.051685568 0.1375975
0.085870735 -0.16913092 -0.01729808 0.0014232629 -0.1108759 0.12441955 0.19284105 -6.3961736e-05
-0.004830517 -0.028706407 0.042224966 0.06548866 0.09270631 -0.195839 -0.104896836 -0.07695891
-0.16490437 -0.08012357 0.019225642 0.022455616 -0.14507473 0.042390265 -0.23996241 0.010965094
-0.0969523 -0.01673365 -0.023469837 -0.24666548 -0.30398437 -0.042910796 -0.038197737 -0.08569259
-0.27276242 -0.010143741 -0.0140643865 0.03963754 -0.023962205 0.025551949 -0.05789694 -0.07426814
-0.079695486 0.084657446 0.03909302 0.10381055 -0.06439108 -0.191144 -0.05240492 -0.094795294
-0.04004034 0.14825287 0.00085842906 -0.052176572 -0.046129234 -0.13593973 -0.106958605 0.05597024
-0.03948812 -0.10273749 0.098016456 0.09726579 0.121383764 0.19720067 -0.0604554 0.072981656
0.05665623 0.13524081 -0.000763834 0.19929259 -0.036019757 -0.27755946 0.12623322 0.0706315
-0.09090301 -0.1536483 0.18793885 -0.087746896 0.25396916 -0.13326089 0.1758695 0.12686066
-0.0045867134 -0.03229216 -0.124089174 0.16168395 -0.05785051 -0.14909172 -0.021233654 0.038072463
0.017527647 -0.052770514 -0.049378015 -0.078720115 -0.03581806 0.052840333 0.22138937 0.182742
0.14564952 0.037368968 0.13827927 0.037875768 -0.079980634 0.0047672084 0.052859474 -0.08951082
-0.12800933 0.113990426 0.03844455 0.11537402 -0.11299918 0.091083385 0.056455906 0.023453776
0.03474313 0.026095683 0.10403589 -0.01001976 0.12350273 0.038123135 0.018838057 0.10824919
-0.10648326 0.014069934 -0.2084639 -0.22548938 -0.018722348 0.109506406 -0.022156043 -0.006903989
-0.05887735 -0.07172214 -0.04894395 0.05915543 -0.075314686 0.070134245 -0.05581841 0.14496791
-0.00433665 -0.00029947842 0.114369035 -0.012768856 0.002291131 -0.0953236 -0.030127196 -0.06749444
-0.012140728 -0.16206425 -0.06608903 0.008977776 0.08159705 0.075425655 0.034463286 0.032663193
0.014437988 -0.05184992 0.013369136 -0.18435156 0.051320083 -0.073814124 -0.1441119 -0.029075159
-0.124316216 0.046096273 -0.06593882 0.059539635 -0.20116873 -0.11594202 0.02345867 -0.09259989
-0.19878773 0.070829235 -0.092685424 0.02269984 -0.17136702 0.04962602 0.009302959 0.026019303
0.06342394 0.0064969943 -0.13578871 -0.0756112 0.09358306 -0.10563079 0.012801148 0.034526277
0.03115882 0.12014332 -0.024896238 -0.07479557 -0.21627684 0.1658579 0.04864613 0.009800664
0.037690762 0.10239798 0.02140954 0.17109574 -0.028055077 -0.012603163 -0.026331127 0.20174216
-0.020318504 -0.052131828 -0.025762348 -0.23780349 0.07222018 -0.18569799 0.053074937 0.12227602
-0.050195076 -0.12699406 0.13828442 -0.15723982 -0.0952831 -0.16768028 -0.070453025 0.12364481
0.010884417 -0.09817731 -0.1514565 -0.05241206 0.14444114 0.084839396 -0.068415456 0.11246133

bias f4 [32]
00000000: 22bb a6bd 03d5 c03c 3e67 c2bd a330 91bc
00000010: 6348 fdbd 1362 0bbe 7589 8e3d 8f8f 3dbd
00000020: 0ac6 8f3d a390 543d d3eb de3c 3f85 a03d
00000030: 28bd e03c a5cd f2bb 4ad4 223e 93bd 78be
00000040: ff58 a33d fb9c 9e3c a4d9 2cbe fa2b 89bd
00000050: f6b3 263c b050 5cbc da8c dbbc ce16 333d
00000060: feab 143d 7b85 adbb 8289 3d3c ecf9 b4bc
00000070: dbfb dabc d557 f9bc 6955 af3c 47c3 3a3e
-0.081411615 0.023539072 -0.09492348 -0.017723387 -0.12367322 -0.13611631 0.069598116 -0.046279486
0.07020195 0.05189575 0.02721206 0.07837915 0.027433947 -0.0074097686 0.15901294 -0.24291067
0.07975959 0.019361963 -0.16879898 -0.06697841 0.010174742 -0.013446972 -0.026800562 0.04372292
0.036296837 -0.005295453 0.011568429 -0.022091828 -0.026731422 -0.03043739 0.021403031 0.18238555

weight f4 [32, 33]
00000000: e714 14bd a25f dbbd 1a16 cebd 47b6 03be
00000010: b30a de3d d5cd 26be 2293 e83b 0bd6 763d
00000020: 4003 143e bd8d c0bd 908b 5fbd 7078 6dbd
00000030: 1fd1 fa3c 0540 603d c33c cdbd 678f 193d
00000040: 3b1b 443d 3236 d63d 6678 1dbd 3791 2ebe
00000050: ee6f 34bd 9d88 093d 4a45 abbc 0027 ae3c
00000060: 4a86 983d 32c4 203e 218a 1fbd a078 7fbd
00000070: e26b ce3d f755 40be 4b9c 3e3e 5f1a dcbd
00000080: 9c39 42bd 0f50 0b3e ae22 293e e7f7 fdbc
00000090: 1a21 613d 6287 16be ef86 2d3e d2f3 353d
000000a0: 0954 44be ebfb 22bd ff41 d13b 2366 29bb
000000b0: fd86 e6bd 6778 be3c 9d8d 2a3e d09c 44be
000000c0: 1fc8 aa3d 12a6 ccbd 2fc2 85be 238d 31bd
000000d0: dc67 1dbe 1776 09be 5bb8 0fbe 431d 5ebd
000000e0: afd1 5c3d 47d1 203e 8f43 f3bc 508d 9ebd
000000f0: e7bb 0abb 5fb4 883c 85d8 e3bd 7d54 f43d
00000100: d39e 783e dd46 47bd 2a76 e1bd db23 713e
00000110: 5143 2c3b 58f2 f73c 423b f73d 6ff1 70be
00000120: 3189 03be 6b30 943c 2d59 333d 8a84 72bc
00000130: 1ba7 f3bc fe7c 0b3e 55cc 073e ae69 363c
00000140: 5b25 283d cd5e a3bd c7ca 0fbe 90da d93d
00000150: 1b24 86bd e394 8abc 7a01 e23d 1d4d 0fbe
00000160: 612e 42be 0bda 323e 00cc 12bd da5d dcbb
00000170: 1346 06bd ca90 533d 53c1 9abd b2f5 9f3d
00000180: c548 debc b9b3 a2bd bd0f ff3d 3ea2 933a
00000190: e75b 5ebd d018 0b3e 9704 b8bc 7121 a33c
000001a0: 5728 15bd 01dc 803d abf6 18bd acfd 18bd
000001b0: 4bc6 1b3d e59f 5ebd 180f fabd f02b 29bd
000001c0: dabb b9bc 3204 d23c 6805 76bd 9dd6 d53d
000001d0: e71e ccbd e50f 573d 9261 aabd 35e7 d0bd
000001e0: 1bfb 5f3e 7b65 2c3d 99d3 4a3e 59c3 333d
000001f0: 3f77 1ebe 97b9 b43d e37e b0bd 8b0c 66be
00000200: 5b84 56bd d3fa 1c3d 1d49 583d 0fc5 8839
00000210: 5ff4 8c3d 1336 1d3e 2c5a 103d d303 a2bc
00000220: 9252 7b3d 0faf aabc 9f8e 89bd dcea 02bd
00000230: 3183 40bd 75b7 783e ee5e 313c 25ee e13d
00000240: 6238 8d3d 82df e3bd f085 eb3d e794 1dbe
00000250: 4c2b 3abe 5590 993d bf65 0f3d 2f93 c0bd
00000260: 6611 913d 0904 063e 771b 5c3c 9b30 eebc
00000270: ecb8 cb3d 736c aebd 4bb9 e83d 1d84 95be
00000280: f1c8 1ebe f2ae 723d 97a2 ba3d 1316 063d
00000290: 61f1 0a3e f2cd 3bbd bc82 2ebb 6fb2 c5bd
000002a0: 752a 41bd 284a c4bc 2095 d63d 50be 73bc
000002b0: 7110 27bc 2d12 38be b0cf 593c 830e 5d3d
000002c0: 1f1e af3d 55f9 61bd 8deb ab3d 5ff6 05be
000002d0: afef 26bd c03b 64bc dabb 6bbe 3630 bb3d
000002e0: 564f 173e 0659 2d3e 2a0a 113d 3953 a23d
000002f0: 04b5 073e 3b41 7abe fbed b53c 92be 00be
00000300: 07cc 193e 31e9 bdbd e2ab 76bc 7cc9 49bc
00000310: 918a 993d 5bcd 84bd 7eb8 8b3d 3059 52be
00000320: 2dce a23d a858 63bd 838b a03d d8ab 283d
00000330: ffe5 fabc 714c 223e 04d2 20be 0b79 30be
00000340: f8a7 f4bc 9283 353c 0180 94be 339c 6e3c
00000350: db4d 253d d0db 2d3c d9b1 8dbe 725e 7f3d
00000360: a245 693d b30c e43c ec15 ae3d 9210 6abd
00000370: 09ef 88bc 6bfc 863d 4f11 c03d 8ec3 33be
00000380: 62ae a1bc bbc9 8cbe 875c ac3d 1e4b a7bd
00000390: 8ea4 033e 35a0 363d 2fca 83bd 3b49 14bc
000003a0: 95a8 7d3d 7368 6c3e 13ff be3d df23 333e
000003b0: 7e15 96bd ab1a 333d dbb4 3c3e 4aa9 38bd
000003c0: f6b3 ad3d e6d3 23bd 7d96 16bd 4908 0bbe
000003d0: fd97 563d 25e7 febd c046 023d 3280 c83d
000003e0: 5bf7 26be 5484 87bd 77ea 79bd 51da 483c
000003f0: 4f29 90bc 6529 fcbd 532d e73d b2dd afbd
-0.036152747 -0.107116 -0.10062809 -0.12862502 0.108418845 -0.16289456 0.0070976177 0.06026272
0.14454365 -0.094020344 -0.054576457 -0.057976186 0.030617295 0.054748554 -0.10021355 0.037490275
0.04787753 0.10459556 -0.0384449 -0.17047583 -0.044052057 0.03357755 -0.020907063 0.021258831
0.074474886 0.15699843 -0.03895009 -0.062370896 0.10079171 -0.18782793 0.18614309 -0.107472174
-0.04741822 0.13604759 0.16517136 -0.031001998 0.05496321 -0.14700082 0.16946004 0.04442198
-0.19172682 -0.03979103 0.006386041 -0.0025848232 -0.11256216 0.023250772 0.16655584 -0.19200444
0.08338951 -0.09992613 -0.26124713 -0.04334749 -0.1537165 -0.13423954 -0.1403517 -0.054227125
0.053910907 0.15704833 -0.0296953 -0.07741797 -0.0021169127 0.01668757 -0.11125282 0.11930177
0.24279337 -0.048651565 -0.11008866 0.23548834 0.002628524 0.030266926 0.120718494 -0.235296
-0.12845303 0.018089494 0.043786217 -0.014802108 -0.029742768 0.136219 0.1326154 0.011133594
0.04105125 -0.07977066 -0.14042197 0.106373906 -0.06549855 -0.016916698 0.11035438 -0.1399426
-0.18963005 0.1746599 -0.03583908 -0.006725055 -0.03278167 0.051651753 -0.07556405 0.078105345
-0.027134309 -0.079444356 0.12454174 0.0011263562 -0.054286864 0.13583684 -0.022463126 0.019913407
-0.036415424 0.062919624 -0.037344616 -0.037351295 0.038030904 -0.054351706 -0.1220991 -0.041301668
-0.022672582 0.025636766 -0.06006375 0.10441325 -0.09966832 0.052505393 -0.08319391 -0.10200349
0.21873133 0.042088967 0.1980728 0.04388747 -0.15475176 0.08824461 -0.08617952 -0.22465722
-0.052372318 0.038325142 0.0528041 0.00026086761 0.068825476 0.15352659 0.035242245 -0.019777214
0.061358042 -0.020835428 -0.06716656 -0.03196226 -0.047000114 0.24288733 0.010825856 0.110317506
0.0689552 -0.11126615 0.11500156 -0.15388833 -0.18180579 0.07498232 0.035009142 -0.09403073
0.070833966 0.13087477 0.0134342825 -0.029075911 0.099473804 -0.08516779 0.11363467 -0.29202357
-0.1550634 0.059248872 0.09113043 0.032735895 0.13568641 -0.0458507 -0.0026628217 -0.09653174
-0.04715963 -0.023961142 0.10477662 -0.014876917 -0.010196791 -0.17975684 0.013294145 0.053968918
0.08550667 -0.055169422 0.08394537 -0.13082264 -0.040755924 -0.013930261 -0.23020878 0.09140055
0.14776358 0.16928491 0.035410084 0.0792603 0.13252646 -0.24438946 0.022208204 -0.12572697
0.15019237 -0.09272993 -0.0150556285 -0.012316104 0.074971326 -0.06484481 0.068222985 -0.20541835
0.07949481 -0.05550447 0.0783911 0.041179508 -0.030627249 0.15849473 -0.15705115 -0.17233674
-0.02986525 0.011078732 -0.2900391 0.014563608 0.040357452 0.010611489 -0.2767475 0.06234593
0.056951173 0.027838087 0.08500275 -0.05714471 -0.016715543 0.06591114 0.09378301 -0.17555067
-0.019736473 -0.27497658 0.08416086 -0.08168624 0.12855741 0.04458638 -0.06435048 -0.009050663
0.06192835 0.23086719 0.09325995 0.17494152 -0.07328318 0.043726604 0.18428366 -0.04508332
0.084815904 -0.039997004 -0.03676461 -0.1357738 0.05239104 -0.12446431 0.031805754 0.09790076
-0.16305296 -0.066170365 -0.06101462 0.012259082 -0.017597822 -0.12312583 0.11287942 -0.08587207

bias f4 [32]
00000000: 4003 353e c07d 29be ed24 a8bc 77b4 b6bd
00000010: 4d4f adbb c306 1cbd 6580 23bd b276 77bc
00000020: f238 613d 81d2 8b3d 1886 e0bd 334f 8c3c
00000030: e4b7 9a3d fd9f 38bd c24e 74bd 271f b2bc
00000040: 22c6 c5bc abc9 a43d 2ddf 293c c38e 5fbd
00000050: 76b6 393c 8711 c9bd 3b8d 0c3d 80b8 eb3c
00000060: 2b29 073e 0bd1 ddbd 384e 603d e2f7 e3bd
00000070: f71d a83d 5281 bebd 9f86 ebbd e25a 02be
0.17677021 -0.16551876 -0.02052542 -0.0892114 -0.0052889944 -0.038092386 -0.03991737 -0.015103983
0.054985948 0.0682726 -0.10963076 0.017127609 0.075546056 -0.04507445 -0.05964542 -0.02174337
-0.024142329 0.080462776 0.010368151 -0.054579508 0.011335006 -0.09817796 0.034314375 0.0287745
0.13199298 -0.108308874 0.054762095 -0.11131264 0.0820884 -0.0930201 -0.11500286 -0.12729982

weight_ih f4 [48, 32]
00000000: 002e cc3c b784 f8bd 7a3f 99bd 69de ee3c
00000010: 97d8 60be 26d0 063c e899 21bd fe3d 4f3e
00000020: b3cb 12bc df1f c53d 1a56 283d 16b2 96be
00000030: 185b b2ba b08b 93be 0a0e 1cbe 0fb7 253e
00000040: a61c f73d 9fe6 363e fc72 343e aff9 403e
00000050: 7c92 8b3d 959d fcbb a31b 5c3d 8d07 e5bd
00000060: a6be 753e 353b 593e a270 923e 471f a8bd
00000070: a782 e9bc 75e5 883e c5a6 b73d 9e51 02be
00000080: ca89 c3bd 86d7 15be a17e c3bd b48d f93c
00000090: 69a7 88be 864b 01bb da39 653d 20f4 df3a
000000a0: 3cf8 02be 2ae0 efbd 8142 853c 17f2 0c3d
000000b0: d3e4 46be 4a5f 48bd 5baa 58be 0017 d03d
000000c0: 143a 9b3d e6ac 51be 41ee a43e aa8d 3cbe
000000d0: 1cdc 333d a895 e6bd c176 8f3e c948 84be
000000e0: 0bde 09be 865a 5d3d d1e5 07be f5cf 363d
000000f0: 6638 1abe b2f8 2e3d bb0d a9bd 9a6b 25bd
00000100: 0bcf 25bd 26e6 33be a939 253c a9a3 45be
00000110: 70cf b0bb 90b9 fb3d 0d88 94bb 2c54 80bd
00000120: 7221 043e 2dd7 8ebe dc7c 2c3e 941b 19bd
00000130: 282c d33d b926 993d 075d ce3d d8de 1bbc
00000140: ef01 47be 5928 803d 8862 a6bd 7090 82bd
00000150: 3a63 21bd 4871 083e dbea f53d d3cc cdbc
00000160: 3a92 943c f903 3e3e eedf 753e d798 2b3e
00000170: c65b 3b3e e60f 6dbe f9a0 88bc 4e52 cbbd
00000180: a9ca 4dbd b4ae 503d d9d6 2b3e bfc6 9d3e
00000190: 0424 9c3d e07c 69be e01b 58be d32f 123e
000001a0: 5ab8 333e cd15 6b3c 8c47 143e 33fd b4bd
000001b0: 2917 a83d d621 fcbd a1b2 01be 6893 69bc
000001c0: 58d8 0cbe e0d6 5a3e 92c6 b6bc 9cc2 edbc
000001d0: 45cc 043d 8378 fbbd 6c71 4a3e d3da abbd
000001e0: 978f 65be 6f48 05be c598 fa3d 5f8f 503d
000001f0: 182f 70bc 9dbe 94bd 8012 b4bd 46cb b13d
00000200: 884e 55bc 526c 1e3e dc60 2cbd d32f 2abe
00000210: c758 02be cd9b e63d 82e0 d93c 8506 fcbd
00000220: 88be 5cbc 93fa b4bd 223e 8c3d 8e58 ac3c
00000230: e843 55be d906 a33e 0817 96bd 698f 91be
00000240: fcd4 213e c03b 8e3e 90b1 d93d 3092 37be
00000250: 6495 33be 7010 7fbd d7e7 053d 1a32 7d3e
00000260: a82a 9d3d 5504 d4bd e0b3 083e 4dec 763d
00000270: 500e 293d 5f09 d53d 1244 4f3c a783 06be
00000280: 2301 6b3e 0690 76bc 3d85 d5bd a42f 52bd
00000290: 463a 1b3e 7366 df3d 45a8 ecbd 7ccb 813e
000002a0: 7673 893d 8b76 ff3c 401f f53d 732a ef3d
000002b0: 8273 7bbd b36c 793e 110f 363d b8ae 503c
000002c0: 7bc9 913e 285e 0dbe 6a44 b1be 8503 9b3d
000002d0: d26f a2bc e40f 323d 394f 183e 3eaf 81be
000002e0: 1465 383e da0a 063e f828 43bd e3cb debd
000002f0: 13f2 893c d45f fdbd aa6c 52be cc45 3abe
00000300: 68a5 743e a528 e1bc b566 c13c abfe 41bd
00000310: a0b2 e1bb f5ef 13be 741a 2f3d 60d2 ab3d
00000320: 5c4c 8d3e 2aff 643e 358a 663e bc99 e5bc
00000330: f166 493e fa8b 86be 868a 793e ac64 b6bd
00000340: aaca cebd 605e 69bb 1cc8 25bd b6d0 63be
00000350: 6148 a7bd 109a 6cbe 66b2 32bd 5c10 78bd
00000360: 9be7 5d3e b080 113d d279 eabd 626f 0abe
00000370: c544 373e 5c7d 063d aada f43d dc21 e9bc
00000380: d667 8fbd 9c52 26be af0c e43c 0d5f 7cbe
00000390: c092 493d 1d20 d8bc 09cd 833d 2ff8 db3d
000003a0: ce33 b1be 10f0 c73a f306 993e 7fe9 c7bd
000003b0: 71da c8bd 69cb 313d 4e86 423e f04c ed3b
000003c0: fcce 62be 81e6 a6bc fb2b 3fbe bf82 383e
000003d0: 8f4b dc3d e16b c6bc 5db9 2fbb 9672 953d
000003e0: 561c 09be 7c08 333b 34d4 8abe 320c 8f3d
000003f0: 594c 3dbe 77f1 393e a416 29be 732e 45be
0.024924278 -0.12134688 -0.0748281 0.029158788 -0.21957622 0.008228337 -0.039453417 0.20238492
-0.0089596985 0.096252196 0.041097738 -0.29432744 -0.001360747 -0.2881751 -0.1523973 0.16183113
0.12066011 0.17861412 0.17621988 0.18845247 0.06815049 -0.007709215 0.053737294 -0.11183081
0.23998508 0.21213992 0.28601557 -0.08209091 -0.028504683 0.26737562 0.08967356 -0.12726447
-0.095477656 -0.14632997 -0.09545637 0.030463077 -0.26690224 -0.0019728853 0.055963375 0.0017086305
-0.12790006 -0.11712678 0.016267063 0.034410562 -0.19423227 -0.048919 -0.21158735 0.10160637
0.07579437 -0.20476112 0.32213023 -0.18413416 0.043911085 -0.112590134 0.2802029 -0.2583678
-0.13463609 0.054041408 -0.13271262 0.044631917 -0.15060577 0.042717643 -0.08254572 -0.04038582
-0.040480655 -0.17568263 0.010084548 -0.19300713 -0.005395822 0.122912526 -0.00453282 -0.062660545
0.12903383 -0.2789854 0.16844505 -0.037379816 0.103111565 0.07478089 0.10076337 -0.009513579
-0.19434331 0.06257696 -0.08124262 -0.063752055 -0.03940127 0.13324463 0.12007686 -0.025122082
0.018136133 0.18556203 0.24011204 0.16757523 0.18296728 -0.23150596 -0.01667832 -0.09927808
-0.0502421 0.05094786 0.16781177 0.30815694 0.07624057 -0.22801542 -0.21104383 0.14276056
0.17550793 0.014348459 0.14480418 -0.088373564 0.082075424 -0.12311141 -0.12665798 -0.014256336
-0.13754404 0.21371031 -0.022311483 -0.029023461 0.03242137 -0.12278845 0.1976983 -0.08391347
-0.22418056 -0.13015912 0.1223617 0.05091798 -0.0146596655 -0.07262919 -0.08792591 0.086813495
-0.013019212 0.15471008 -0.04208456 -0.16619806 -0.12729178 0.112601854 0.026596311 -0.12305931
-0.013473161 -0.08836856 0.068477884 0.02103832 -0.20826685 0.31841162 -0.073286116 -0.28429726
0.15803903 0.2777996 0.106295705 -0.1792686 -0.17537457 -0.062271535 0.032691803 0.24726143
0.07674152 -0.10352389 0.13349867 0.060283948 0.041273415 0.10402178 0.012650507 -0.13136159
0.22949652 -0.015048986 -0.10425804 -0.051314965 0.15158948 0.109082125 -0.11555532 0.2535056
0.067114756 0.031184455 0.11968851 0.116780184 -0.061389454 0.24357872 0.044447962 0.012736969
0.2847403 -0.13805449 -0.34622508 0.07569031 -0.01982871 0.043472186 0.14873971 -0.25329012
0.18007308 0.13090077 -0.047646493 -0.10878732 0.016839063 -0.123717934 -0.20549265 -0.18190688
0.23891222 -0.027485201 0.023608545 -0.04736201 -0.006887749 -0.14447005 0.042749837 0.08389735
0.2759732 0.22362962 0.2251366 -0.028027408 0.19668175 -0.2627867 0.24369249 -0.089059204
-0.10097249 -0.003560923 -0.040474042 -0.22247586 -0.08168102 -0.23105645 -0.043627165 -0.060562477
0.21670382 0.035523117 -0.11449017 -0.13519052 0.17897327 0.032834396 0.11955769 -0.028458528
-0.07002227 -0.1624245 0.02783808 -0.24645634 0.049212217 -0.0263825 0.06435592 0.10740697
-0.34609836 0.0015254039 0.29888114 -0.09761333 -0.098072894 0.043406878 0.18996546 0.0072418377
-0.22149271 -0.020373585 -0.18669121 0.18018626 0.10756599 -0.024221363 -0.0026813366 0.07297246
-0.13389716 0.002731829 -0.27115023 0.06984748 -0.18486156 0.18158518 -0.16512543 -0.19256

weight_hh f4 [48, 16]
00000000: c8e2 92be 9899 e7bc cb8c 19be 6cb8 4ebd
00000010: ef1f afbd da6a a8bd b6a8 e83d fed9 fb3d
00000020: 1476 963d 93ae 0ebe 3795 ad3b 4358 f7bd
00000030: c7c5 93bd 6342 5c3e eae4 74be eda2 013d
00000040: b68e 163e 954b 96bd a7e3 5bbd 37cd bebd
00000050: ac06 313d 6c6a 1cbe c9c4 8b3d ce66 67bd
00000060: 683a 033d 629f 3abe 9007 273e 656a 1bbe
00000070: 7e8b e1bc 086b b53d 4004 3dbe 91b6 663b
00000080: b339 c03e b7c6 e1bd 8d06 5a3d 65f2 873d
00000090: 332f 4ebe 56a1 e73c e448 bb3d bc6e 153c
000000a0: 8687 f9bd 0f4c 803d 99cc babd f580 9dbe
000000b0: 359f 513e 56fe 013e a029 fbbb 25cb f43d
000000c0: 72b6 b9bc e84e 043e c7a0 a2bc dd7a 8d3d
000000d0: 0096 8c3d 8c89 cc39 4076 323e 895b 66be
000000e0: 2f87 083e b0de dfbc 7f82 98bd 8340 7dbe
000000f0: 9a00 813d 091c 14bd 7a54 01be 97dd 66be
00000100: 3395 06be 81b8 a73d 0eb8 c2bc 5c95 663e
00000110: 9a6d 3c3e 3cc5 41be 4e7b 19bd e995 a73e
00000120: 9f5b fb3d 14b3 923e 76e9 683d 9ca0 a93d
00000130: c860 1a3e 5cc4 383c 8c6a 9cbb e1cf 0e3e
00000140: e2a1 2dbe fafb 01bc 7573 b53d f79a a7be
00000150: 3ab6 b2bd a5d5 003e c0b6 a73a ff05 e33c
00000160: a975 b7bd 663b 773d 2b7a 3b3e f33c 933c
00000170: 72db 53bd 3a3e 553d aad2 febd 1b48 e1bb
00000180: 02ee f1bd 8b51 a43e d6c1 d0bc 2ab6 903d
00000190: c60f 3fbe 6a9c e3bd 9aba d2bd 8925 113d
000001a0: c9c6 a2be f6e3 a4be 4c16 a63d 5a13 9d3c
000001b0: cdc2 003e b140 b13c 3a18 54be 7ac3 103e
000001c0: 24af 073e 1ce8 92be 3c46 d83d 158f c13c
000001d0: 2985 ea3d 3ef7 2bbd 3ce3 fe3c e039 b2ba
000001e0: ffe6 83bd 8c09 e03d 0e19 44be d175 043d
000001f0: dc00 b6be b414 723c 9a60 3cbe 2d5e 44bd
00000200: cef7 a3bd 618f 223d 5346 a4bc 9ff1 a5bc
00000210: 58e1 273c bbd6 98bd 36e7 253e d3ea 983d
00000220: 16e6 093e 227c a43d faf5 33be 0ed4 8dbd
00000230: e047 053e 5574 41bd 20f7 083e b3b6 653e
00000240: f6be 823e fb15 c93e b3e5 293d 664b 02be
00000250: f4dd 49bd 8114 0dbe 960b 20bd 88ed a8bd
00000260: ff58 a0be 00e8 d9bc 4a23 50be 88a4 d8bc
00000270: 8924 edbd 4841 e0bd a64c 96bc 2d03 01be
00000280: 8999 dd3d c88c 873e f860 a73d 8705 2e3e
00000290: 9d0b 08bd 5e02 9b3b 89bd a73e 7f04 193e
000002a0: e082 ec3d 680c ed3d 357f 943d d2ac 223e
000002b0: fb67 a7bd 74b1 37be 41c2 8dbc 0a82 e0bd
000002c0: 0851 acbd fb5b 6cbd 025c 15be 2a4c 14be
000002d0: d510 553e 86e0 623e a7f0 083e 0612 b8bd
000002e0: 0b09 a7bd 6adc 92be 36ff dcbd 72dc 113e
000002f0: 1950 bcbd 8263 0b3e b6f0 bc3e 6094 f73d
00000300: 7c9f 0c3e 457a d8bc c6e0 5a3e c500 f1bd
00000310: ad40 bebd 161a 753e 3714 423d cb62 883e
00000320: 1024 db3d 69cd cdbd 0060 353d 1039 22bd
00000330: 306d 3abe e82c 34bd 0748 e9bd ee13 4b3e
00000340: 866f 5fbd ffdf 18be 30be edbc e36d 023e
00000350: 628f 243e a128 c6be 6c76 bc3d 48e4 443b
00000360: c5b1 e7bc 48c8 4d3b 5cf2 1bbe 6b08 b53d
00000370: d874 3dbe a00f bdbd f5f3 69bd f731 18be
00000380: 1e5e 623d 6657 6bbd 4306 803e 48de b9bd
00000390: 83bc 493e 80f9 f6bd 04ca 8dbd 17bc 08be
000003a0: e2ac 5c3d c8dc b8bc bf26 453d 2e4b 81bd
000003b0: b698 953c c980 75bc a1d2 08be af47 1b3e
000003c0: 8015 973d d057 153e 3c04 07be 36aa 2e3e
000003d0: 9ede 5fbd ce7b c2bd af87 163e c176 123d
000003e0: 3ded 36bd 306f 35be b919 e63d 277a 42be
000003f0: 79d3 1abe 7005 7a3c c0f8 0bb9 10fe 4d3e
-0.28688645 -0.028271481 -0.14995115 -0.050468847 -0.08551013 -0.08223505 0.11360304 0.12297438
0.0734674 -0.13933782 0.005297329 -0.120773815 -0.072154574 0.215097 -0.23915449 0.03164952
0.14702877 -0.07338635 -0.053683903 -0.093164854 0.043219253 -0.15274972 0.06824643 -0.056494527
0.032038122 -0.18224862 0.16311479 -0.15177305 -0.027532335 0.08858305 -0.18458652 0.0035204033
0.3754402 -0.1102423 0.053228904 0.0663803 -0.20135193 0.028275173 0.09144762 0.009120639
-0.12184052 0.06264507 -0.09121055 -0.3076245 0.20470889 0.12694678 -0.007664874 0.11952809
-0.022670005 0.12920725 -0.019852055 0.069082 0.06864548 0.00039012393 0.17427921 -0.22495855
0.13332818 -0.027327865 -0.07446765 -0.2473164 0.06298943 -0.03615955 -0.12629882 -0.22545467
-0.13142852 0.08189488 -0.023769405 0.22517914 0.18401185 -0.18922895 -0.03747111 0.3273156
0.12273335 0.2865225 0.05686327 0.08282587 0.15075982 0.0112772845 -0.0047734436 0.13946487
-0.16956285 -0.007933611 0.08859912 -0.32735416 -0.08726163 0.12581499 0.0012795553 0.02771282
-0.08957989 0.06035938 0.18308322 0.017973399 -0.05172295 0.052061297 -0.12442525 -0.0068750507
-0.118129745 0.32093462 -0.025483053 0.07065995 -0.18658361 -0.11113818 -0.10289498 0.035436187
-0.31792286 -0.3220517 0.081097215 0.019174267 0.1257431 0.021637293 -0.20712367 0.14137068
0.13250405 -0.2869271 0.10560271 0.023627797 0.114511795 -0.041983835 0.031114213 -0.001359757
-0.064405434 0.10939321 -0.19150183 0.03233892 -0.3554753 0.014775444 -0.18396226 -0.047941376
-0.08006249 0.039687518 -0.020053064 -0.020256815 0.010246597 -0.074628316 0.16201481 0.07466664
0.13466677 0.08031489 -0.17574301 -0.06925212 0.130157 -0.047230083 0.1337552 0.22432975
0.25536317 0.39274582 0.041478824 -0.12724075 -0.049283937 -0.13777353 -0.03907355 -0.082484305
-0.313179 -0.026599884 -0.20325962 -0.026445642 -0.11579234 -0.109499514 -0.018347096 -0.12598868
0.108203 0.26474595 0.08172792 0.16994296 -0.0332142 0.004730507 0.3276179 0.14943121
0.115484 0.11574632 0.07250825 0.15886238 -0.081741296 -0.17938787 -0.017304542 -0.10962303
-0.08413893 -0.057704907 -0.1458588 -0.1448218 0.20807202 0.22155961 0.13373052 -0.08987813
-0.08156022 -0.28683788 -0.10790865 0.1424425 -0.09194965 0.13612178 0.36902398 0.12088847
0.13732713 -0.02642549 0.21374807 -0.11767725 -0.0928968 0.23935732 0.04738256 0.26637873
0.10700238 -0.100489445 0.044281006 -0.0396052 -0.18205714 -0.04398814 -0.11390691 0.19831821
-0.054549716 -0.14929198 -0.029021353 0.12737231 0.16070321 -0.38702872 0.09202275 0.0030043293
-0.02828301 0.0031399895 -0.15229172 0.08839496 -0.18501604 -0.09231496 -0.05711742 -0.1486281
0.05526554 -0.057456397 0.25004777 -0.090756 0.19700818 -0.12059307 -0.06923297 -0.13353
0.05387581 -0.022566214 0.048132654 -0.063131675 0.018261295 -0.014984318 -0.13361599 0.15164064
0.07377148 0.14584279 -0.13185209 0.17057118 -0.054655664 -0.0949627 0.14700197 0.035757784
-0.04465984 -0.17718196 0.11235375 -0.1899191 -0.15119733 0.015260085 -0.0001334874 0.20116448

bias_ih f4 [48]
00000000: c2d6 97bf fd8f 043f 04d2 67bf 7195 3fbf
00000010: bcfa e1be 582b b3bd c5d9 bdbe 9c20 1cc0
00000020: 34ff 2d3e b7fe d9be 9417 e03f 9988 6dbf
00000030: fc50 33be d3e2 2dbf 7adc a63e db80 6e3f
00000040: f6d2 9b3e b4a5 ae3e 0c5b d8bf 76c0 4ebf
00000050: 7ad7 943f 2b9f f2be 0553 9bbe 8ecb 1cbf
00000060: 2407 c3bf a118 bfbd de66 9dbf 92e8 b7be
00000070: be0c 7b3f 136c 8e3f 8a53 d73e 9dbb da3e
00000080: 0b9d fbbf 2b5a ce3f f016 78bf 922a b3bf
00000090: 8697 dabf f4f7 cdbe 440d 963f 865b c83f
000000a0: c45b 35c0 c5e8 663f 855a 333f f0c3 d2bf
000000b0: 01ed dcbd 0ea8 2f3e bea7 573e ef70 1a3e
-1.1862414 0.5178221 -0.90554833 -0.74837404 -0.44136608 -0.087485015 -0.37080207 -2.4394903
0.16991884 -0.42577145 1.7507195 -0.92786556 -0.17511362 -0.6792423 0.32590085 0.9316537
0.30434388 0.34110796 -1.6902785 -0.8076242 1.1628258 -0.4738706 -0.30336776 -0.612481
-1.5236554 -0.093308695 -1.2297018 -0.35919625 0.9806632 1.1126732 0.42055923 0.42721263
-1.9657301 1.6121267 -0.9691 -1.3997366 -1.7077491 -0.40228236 1.1722798 1.5652931
-2.833726 0.9019893 0.70059997 -1.6466045 -0.107873924 0.17153952 0.21060082 0.15082143

bias_hh f4 [48]
00000000: 1c9f 0a3e 9f25 ac3f 8ce2 833f 2cb0 b73f
00000010: 84ed efbf b8fa 843f 1bca 87bd 1858 913f
00000020: 7bc2 253e 3096 7fbf 01b0 b5bf c545 debe
00000030: 4b40 453f 059f 863f ea28 bdbe 7fe0 033f
00000040: bf9e 05c0 1a07 783f e12b c53f 98a2 dabe
00000050: 07e4 f93e 5a14 27bf adf7 713f 4496 473e
00000060: 5444 18bf cc2a 2e3f 0fc5 753e e90e b53e
00000070: cb60 92bf 9012 9e3f 7f20 e8bf cc0c a93e
00000080: da87 29c0 fb2a a6bd 513f e53e 0497 00c0
00000090: 2d20 be3d 2b42 72bf a4bb 4a3f 4e3d 1bbf
000000a0: 2bd1 e1bf 326d 8f3e 4ba1 563f 3f8b 0b40
000000b0: a6d0 03bf c177 0b40 2f7e bebf 97d5 86bd
0.13537258 1.3448981 1.0303512 1.4350638 -1.8744359 1.0389013 -0.066303454 1.1355009
0.1618747 -0.9983854 -1.4194337 -0.43412605 0.7705123 1.0517279 -0.36945277 0.5151443
-2.087814 0.96885836 1.5404016 -0.42702174 0.48806784 -0.6526543 0.9451855 0.19490916
-0.5947926 0.6803405 0.24000953 0.35362938 -1.1435789 1.2349415 -1.8134917 0.33017576
-2.6489167 -0.081136666 0.4477487 -2.0092173 0.09283481 -0.94632214 0.79192567 -0.6064042
-1.7641958 0.28012997 0.83839864 2.180374 -0.5149025 2.1791842 -1.4882258 -0.06583708

weight_ih f4 [48, 32]
00000000: 0072 6dbb cd6e a8bd 29c1 1abc b725 0cbd
00000010: 1ffc 933e aabf 65bd 2451 1a3d 2e26 39bd
00000020: a73b 173e 15aa dcbd bfde f03d d216 103c
00000030: 7131 843e 1bc6 d23c 4c4d aabd 9733 18be
00000040: cb6a 40be 33a8 89be e864 d8bd 676d c03d
00000050: 855b 51bd b15d a5bd f450 9f3d a46a 193e
00000060: 68f4 49be d5c9 d73d 15a4 8abe b3eb 623e
00000070: aa7d aebc 1bbe 173e 35c4 3abe 5a3b 52be
00000080: e581 3bbe b737 c13d 8eda a63c 109c f439
00000090: 70ef 853c 72f5 31be 5088 8a3e 5acf efbc
000000a0: b3c1 0b3d 910c 34bd c4a9 30bd dfd2 39be
000000b0: caac 4dbd bd1c 4e3d 3e21 31be 95b3 ddbc
000000c0: 44df 3abd f435 8c3d 23db 493e 7eda a0bd
000000d0: b8ef 9f3c d94a 913e 1ee8 5c3d 80cd 1d3d
000000e0: 5e97 25be d9c9 e33d 34a8 803e 9037 2abe
000000f0: 8aad 803e dca7 a93c 3464 79be 74ab 9fbe
00000100: 2e27 3fbd 02e8 7cbe 5e00 c9bd 162b e13c
00000110: 5e62 833d e971 e03d 64ba 10be 9bcf 4abd
00000120: f190 5cbe 4a96 aa3e a4c1 913d 8f2f 663d
00000130: fbea 853d 7939 7ebd 691f c4bd b39b b13d
00000140: 30b2 793b 7218 33be 812c f13d 5894 3fbe
00000150: d3fd cb3d 7bcc 7bbe 1fa7 08be 54cd 78be
00000160: 9a68 2dbe 5515 8d3e 4c3e 973d 42af 0abe
00000170: 9de7 a4bd ee64 083e a9f4 c33d d891 813a
00000180: fd36 063e 16cb d33c b15b 153d dad1 3e3e
00000190: 403d 6f3d 9478 ba3d df27 03be cd86 91bd
000001a0: 184a 953e 7e9d 88bd 1753 333e 67bd d93d
000001b0: 1ecc 583e b3db 96be f3cd 6bbe 2775 fc3c
000001c0: 528f 213d 80be 633d d078 083e fe47 ba3c
000001d0: 63fc 2c3e dc8a 89bd 9676 f4bd 9750 193e
000001e0: 878b df3d f9a5 a93d 9092 e6bb eb49 edbd
000001f0: 5525 8c3e ce8e 953d 6933 6e3e 7696 19bd
00000200: 2ab4 393e 48ad 18bb c12b 58bd df92 3bbd
00000210: b030 29bd 3a7d e8bd a571 b0bd 15ad f8bd
00000220: cd59 383e 4369 29bd 74f6 7c3e 75fd febc
00000230: 96cf 843d c0ab 40b9 fc35 343e 4c11 a3bd
00000240: 90a3 a03c 4d83 8abe a614 493d 4ca1 1cbe
00000250: e812 81bd 1c9f 34bd 3450 213e 8245 f9bd
00000260: ff0f 003d d584 1abe b267 d5bc 5349 15be
00000270: ca03 11be 6233 813d 36d0 153c f8f5 b63d
00000280: e073 1d3e ecdd 463e 74fa e13d ea3b 2fbd
00000290: d6fd 723d 608e 21be 40a7 353e bc5d a4bc
000002a0: 4440 28be 8c55 a5bd 520c 623e 794c 963e
000002b0: 72a5 9e3d 6427 e23d 431d ddbd 113a 50bd
000002c0: 4ba4 9bbd 480a 923c e409 803d d653 c33d
000002d0: 1c4f f3bd 5845 f0bd b0b9 8d3c c715 44bd
000002e0: 33ab 8bbc 767f 8dbd ae1d a93d ee57 3b3e
000002f0: 4694 92bd 3ff9 e93c 5516 82bd 791d 133e
00000300: a047 0f3e ddd7 51bc ea7b be3e acf7 0dbd
00000310: b0a3 71bc 9eb8 e8bd 2ab7 24be ca3b f4bc
00000320: 8bad 0d3e b2c8 493e ccd3 093e 85e1 543e
00000330: 2cec da3d 6fcd 15be 6aa1 9cbd ffef 703e
00000340: 0dcd 8dbc 6388 533e 7628 b1bd a5c4 953e
00000350: d5c3 c1bd 2c5e 563e 487b ab3d f211 01bd
00000360: 1400 bf3b 51b1 263e 60f6 713d 32b5 afbc
00000370: 4c67 05bd 20bc 85bb d80e 47be d1ba 9abc
00000380: 7391 92bd 359c 3f3d ec6a 6dbc 0e58 8b3e
00000390: e262 3fbe 608f 053d 4e67 553e d405 683e
000003a0: d579 d43d 8444 27be 2cff 4e3b 7b29 713d
000003b0: 48ed 13be 6552 bf3c ea78 953c d681 753e
000003c0: d048 8a3b d7ea c6be e3a2 65bd a6e5 18bd
000003d0: e367 e4bd 9e05 183e 3b19 1ebe d935 93bc
000003e0: 9f8a 33bd 1207 653d 7467 98be f6ec 64bd
000003f0: 3883 d73d 01ed b8bd e45e 8f3d 5f20 ce3d
-0.003623128 -0.082242586 -0.009445467 -0.034215655 0.2890329 -0.05609099 0.037675038 -0.045202427
0.1476885 -0.10774628 0.117612354 0.008794503 0.2581897 0.02572923 -0.083155245 -0.1486343
-0.18790738 -0.26886138 -0.10566121 0.09395867 -0.05111267 -0.08074511 0.077791125 0.14982086
-0.1972214 0.10536543 -0.2707831 0.22160225 -0.021300156 0.14818613 -0.1823891 -0.20530453
-0.1831127 0.09434455 0.020367887 0.00046655582 0.016349524 -0.17378786 0.27057123 -0.029273678
0.034120273 -0.043957297 -0.04313065 -0.18146847 -0.050213613 0.050320376 -0.17297837 -0.02706317
-0.04562308 0.06846228 0.197125 -0.07854174 0.019523486 0.28377417 0.0539323 0.03852606
-0.16171023 0.11122484 0.2512833 -0.16622758 0.251324 0.020709924 -0.2435463 -0.31185496
-0.046668224 -0.24697879 -0.09814523 0.027486365 0.064152464 0.10959227 -0.14133602 -0.049514394
-0.21539666 0.33317786 0.07117012 0.0561977 0.065389596 -0.06206653 -0.095763035 0.086722754
0.0038100593 -0.17489794 0.117760666 -0.18708932 0.099605225 -0.24589722 -0.13345002 -0.24297076
-0.16934434 0.27555338 0.07384929 -0.13543418 -0.08051989 0.13319752 0.095681496 0.0009885384
0.13106914 0.025853675 0.036464397 0.1863474 0.058408022 0.0910503 -0.12808178 -0.07105789
0.29158092 -0.06670664 0.17512165 0.10631829 0.21171615 -0.29464492 -0.23027782 0.030817581
0.03944332 0.055601597 0.13327336 0.022739407 0.16893153 -0.067159384 -0.11936681 0.14972149
0.109152846 0.0828361 -0.0070365146 -0.11586364 0.27372232 0.073026285 0.23261799 -0.037497006
0.18135133 -0.0023296643 -0.052776102 -0.045794364 -0.041306198 -0.1135201 -0.08615426 -0.12142388
0.18003006 -0.04136015 0.2470339 -0.031126717 0.064849064 -0.00018374529 0.17598718 -0.079622835
0.019609243 -0.270533 0.049091958 -0.15295905 -0.06302434 -0.04409705 0.15753251 -0.12171461
0.031265255 -0.15089734 -0.026050422 -0.14578752 -0.14161602 0.063086286 0.00914388 0.089336336
0.15376234 0.19420594 0.11034098 -0.042781748 0.059324108 -0.15776968 0.17739582 -0.020064227
-0.16430765 -0.080729574 0.22075012 0.2935522 0.077464 0.110426694 -0.10796597 -0.050836626
-0.07599696 0.017827168 0.062518865 0.09537475 -0.11880323 -0.11731976 0.017300457 -0.04787233
-0.017049408 -0.06909077 0.08257614 0.18295261 -0.07157187 0.028561233 -0.06351916 0.14366712
0.13992167 -0.0128078135 0.37203914 -0.034660026 -0.014748499 -0.11363338 -0.16085497 -0.029813666
0.13835733 0.19705465 0.134597 0.20789154 0.106895775 -0.14629148 -0.07647975 0.23529051
-0.01730969 0.20657496 -0.086502954 0.2925159 -0.0946118 0.20934361 0.083731234 -0.031511255
0.0058288667 0.16278578 0.059072852 -0.021448705 -0.032569215 -0.004081264 -0.19439256 -0.01888791
-0.071566485 0.04677983 -0.014490824 0.27215618 -0.18690065 0.032607436 0.20840189 0.22658473
0.103748 -0.1633473 0.00315852 0.05887745 -0.14445984 0.023354718 0.018246133 0.2397531
0.0042201057 -0.38851044 -0.056063544 -0.037328385 -0.11152627 0.14845893 -0.15439312 -0.017970013
-0.04383337 0.055914946 -0.29766428 -0.055890046 0.10523075 -0.0902958 0.07000521 0.10064768

weight_hh f4 [48, 16]
00000000: a824 613e c86d e2bd d32f 73be a242 c43d
00000010: c630 37be 2d11 1dbe 2fa2 9b3e ce96 89bd
00000020: bccd 6abe eeb2 793d f08e 7b3c a58e 9bbc
00000030: 9a4c 45bd 8a0e e5bd bb50 f7bc 2f19 6abd
00000040: a471 a03d cf4c 10bd 3a1e b63e cc30 8dbd
00000050: d466 b83b a40c d83c 8c1e 313e c883 83bc
00000060: 5324 2b3e 1937 ea3d 2617 093e 04fd 8a3c
00000070: 54e0 dcbc 53d8 9ebd 4d34 6cbe 7e60 8a3c
00000080: bea5 88bc 6178 213d e1c5 ea3d 433f 873d
00000090: 18dc 7bbe 99e3 dfbd fbb5 09be ffb3 813e
000000a0: 18b6 f73b c1d0 25be 93e6 0ebe abc1 e13d
000000b0: 4b1c 1e3e 91af 383c 07d3 0a3e d2d7 88be
000000c0: 6f2a 07bd 28b7 4e3d ab67 1e3e 6143 a3be
000000d0: d253 40be 22f5 fe3c 6c24 343e c8aa 813d
000000e0: 08d4 b4bd 5d9e 293d 0843 9c3d 0f76 9e3a
000000f0: aade 473e 76c0 34bc 04d3 423e 337d 2f3e
00000100: c770 08bd 3772 5f3c 168c fdbc e42f b5bd
00000110: 4ec0 463d 6643 81bd cde7 673d 9328 cfbe
00000120: 7a8b e43c 1220 6fbb afff c8be 7d09 803e
00000130: af35 263e 78c1 843e 8207 dc3d 54a4 d63c
00000140: 3360 4a3d 4856 973c 1a02 c9bd 101c 8ebd
00000150: d227 68bd 5214 e7bd 9f98 2c3e 3f7c dbbd
00000160: 0c6d bfbd 6967 133e a984 8c3e bb85 373e
00000170: 57fe 16be 7213 a13d e9f7 6dbe 698d 883d
00000180: bc7a 07bd aeeb 9a3d 0d11 b2bd 3d21 c93d
00000190: a481 31bd c09a fc3d fed2 ea3d e4d5 b2bd
000001a0: c112 bd3d ef2b 443d c8e8 dd3c c68d 0bbd
000001b0: baf6 013f 41c4 6abe 045b 1dbe e46a 01be
000001c0: 7b51 8ebd 0c23 9dbd ec6a d43b e445 9b3d
000001d0: 5533 783e 149d 2f3e d45a fc3d b2e3 d0bd
000001e0: e5a6 66be 164b 983d 2797 6bbe 9d0a 163d
000001f0: ef2e a23d 4754 b0bc dcc8 993d fde0 123d
00000200: 563e 0f3e 4e5e 283e c5d8 f5bd 68dc 63be
00000210: fa09 57bd cd7d ffbd 18b5 773e 2c9e 7c3c
00000220: f473 c63e a9fa b0bd 9426 78bd 3c37 b8bd
00000230: 3727 2b3e e088 6b3d 2351 173e f4fe 063d
00000240: 4440 853c c940 783e 87b5 053b 9d00 a43b
00000250: 4ec4 a1bd 2d62 343e 7def 0e3e 662a 28be
00000260: f78b b93d 8ac2 883e 4f5e 823c 2c30 113e
00000270: 2e6d e3bd cf4b 3bbd 09d6 1e3e 4cc6 85bd
00000280: 5179 283e ec9d f2be 2441 c9bd a82a b5bc
00000290: f49d d93c c392 8f3d 2d1d a23d d1db 98bd
000002a0: c8c4 1d3e 9710 04be 49e5 ca3d e9fa e1bc
000002b0: 50e3 9c3d 7610 513c 71ec 8fbe 8250 6d3d
000002c0: d162 8b3d c7dd f6bc 4ab3 28bc 6d7b 2d3c
000002d0: 6a2d 463c 7f34 adbd a038 bb3d ed06 85bc
000002e0: 7f60 a13d 4c77 c6bd 7d9e 06be 3b7f 3a3e
000002f0: 3f12 4dbe b3c9 42be a23a 55bd cbee b73d
00000300: 7c93 3c3e 5cb0 a13d e3cd abbe 4bdf a3be
00000310: 68eb eb3d 6403 af3d d05a 45bc 8b55 183e
00000320: 6bc2 d1bc 4bfb ddbd ac14 53be 1d6a 823d
00000330: 7f8d 06bd 59d9 04be e060 633d b22b 6a3d
00000340: b9cf 00be 467a 6e3d 1f40 453e 2078 63bd
00000350: 2666 4d3d 5002 61bd 4475 77bc 306c 953e
00000360: 6984 63be a3a3 f5bd db3f 3ebe b434 ffbd
00000370: 13fd 95bd 2b90 d53d faea 29be b33c f2bd
00000380: 28c4 67be 9c04 a4bd 6594 1fbd 7906 533e
00000390: 86d7 a8bd 7049 e5bd a45e 153e e809 913d
000003a0: fe6b cdbc 2d4a 8c3e 4a21 a73c 63eb 2bbe
000003b0: 8bde 313e 8eb3 903e b62f 1ebe c260 0fbd
000003c0: 2a49 833b 7a00 a4bd 1287 3ebd bac4 dc3d
000003d0: e975 e23d a13c c0bd 1660 3b3e 1692 0e3e
000003e0: bb01 253e 4ce6 153e 2aa5 ab3d ee79 073c
000003f0: 5b1d af3d 8061 17be 2964 293e 01c0 01be
0.2198664 -0.11056095 -0.23748712 0.09583022 -0.178897 -0.15338583 0.30397174 -0.06718217
-0.22930044 0.060961656 0.015353903 -0.018988917 -0.048168756 -0.11184414 -0.030189862 -0.057152923
0.07834175 -0.0352295 0.35569936 -0.06894073 0.0056274924 0.026373215 0.17296809 -0.01605405
0.16713075 0.1143629 0.13387737 0.01696635 -0.026962437 -0.07756104 -0.23066826 0.016891714
-0.016680595 0.039421443 0.11463524 0.06603863 -0.24595678 -0.10932083 -0.13448326 0.2533264
0.007559549 -0.16192915 -0.13955145 0.11023267 0.1544048 0.011272327 0.13557063 -0.26727158
-0.032999452 0.05046764 0.15469234 -0.31887344 -0.18781975 0.031122748 0.17592019 0.06331402
-0.08829504 0.041410793 0.07629973 0.0012089628 0.19518533 -0.011032214 0.19025809 0.17137603
-0.033310678 0.013638071 -0.030950587 -0.08847025 0.04852324 -0.06311683 0.056617547 -0.40460643
0.027898539 -0.0036487621 -0.3925757 0.2500724 0.16231416 0.25928855 0.107436195 0.026201405
0.04940815 0.01847376 -0.09814854 -0.06938946 -0.0566786 -0.11283173 0.16855095 -0.107170574
-0.09346971 0.14394917 0.27444962 0.17922108 -0.1474546 0.07865037 -0.23239101 0.06667597
-0.033076033 0.075644836 -0.086946584 0.09820793 -0.043336526 0.12334204 0.11466025 -0.08732203
0.09232093 0.04789346 0.027088538 -0.034070753 0.507671 -0.22926427 -0.15366751 -0.12638432
-0.06949135 -0.076727 0.0064824726 0.0758169 0.24238332 0.17149764 0.123220116 -0.101996794
-0.22524603 0.074361965 -0.23006879 0.036631215 0.07919108 -0.021524562 0.07509014 0.035859097
0.13988623 0.16442224 -0.12004236 -0.22252047 -0.05249975 -0.124751665 0.24190176 0.0154185705
0.3876034 -0.0864156 -0.060583666 -0.0899491 0.16714178 0.05750358 0.14777045 0.032957986
0.016265996 0.24243464 0.0020402388 0.005004956 -0.0789877 0.17615576 0.13958545 -0.16422424
0.09059899 0.26710922 0.01591411 0.14178532 -0.11104809 -0.045726594 0.15511335 -0.06531963
0.16452529 -0.4738611 -0.09826878 -0.022115067 0.026564576 0.070104145 0.07915721 -0.07463802
0.15407097 -0.12896954 0.09907014 -0.027585464 0.07660544 0.012760272 -0.28110078 0.057938106
0.06805957 -0.030135049 -0.010296652 0.010588509 0.0120957885 -0.084572785 0.0914166 -0.016238654
0.07879733 -0.09690723 -0.13146396 0.18212597 -0.20026492 -0.19022255 -0.05205787 0.08981093
0.18415636 0.07894966 -0.33555517 -0.32006297 0.115195096 0.085455686 -0.012045577 0.14876382
-0.025605401 -0.10838946 -0.20613354 0.06367896 -0.032849785 -0.12973537 0.05551231 0.057170577
-0.1257924 0.058222078 0.19262742 -0.055534482 0.050146244 -0.054933846 -0.015103642 0.29184103
-0.22218479 -0.11994102 -0.18579046 -0.12461224 -0.07323661 0.104278885 -0.16593543 -0.11827984
-0.22633421 -0.08008692 -0.03895988 0.20607938 -0.08244233 -0.11195648 0.14586884 0.070819676
-0.025075909 0.27400342 0.020401616 -0.16789012 0.1737005 0.2826199 -0.15447888 -0.035004385
0.0040065246 -0.080079034 -0.04651553 0.1077971 0.11057646 -0.09386564 0.18298373 0.13922915
0.16113941 0.14638633 0.08381112 0.008268816 0.08550521 -0.14783287 0.16542114 -0.126709

bias_ih f4 [48]
00000000: 4f6a b4be b257 80bf 34de a83f 2333 71bf
00000010: 6c37 d9bf ab0e 983e 448f 593f 0d24 d73d
00000020: 048a afbf bb24 663c 9495 55bf 9c38 8a3f
00000030: c6e2 a4bf ab9a c33e 7995 c13e 1cf7 cfbd
00000040: 51ae f03d fc47 e0bf 68a7 48bf 3847 983f
00000050: 6a0f 11be 6613 2cbf 2f18 57be 3837 98bf
00000060: 5b6a 01bd 34a8 c2be 915d 11c0 6df3 bdbe
00000070: ec03 0d40 2614 0abe 48b0 b3bf 1ead 92bf
00000080: 7a81 c73e c814 b23f 44ed 303d 3ab9 86bf
00000090: a50f cabe ab0a 9c3d ceb7 663f c1d9 36bf
000000a0: 11c7 fb3b b26b fc3f 8030 063f bc08 823e
000000b0: 83ed 943f 561d 593f af7a e83e 89b9 cd3f
-0.35237357 -1.0026762 1.3192811 -0.94218653 -1.6970038 0.2969869 0.8498423 0.10504923
-1.3713994 0.014046843 -0.83431363 1.0798526 -1.2881706 0.3820394 0.3780935 -0.10154554
0.11751998 -1.7521968 -0.7838044 1.1896734 -0.14166036 -0.672171 -0.21005319 -1.1891851
-0.03159557 -0.38018954 -2.2713358 -0.37099782 2.2033644 -0.13484249 -1.4038172 -1.1459081
0.3896597 1.3912592 0.043195024 -1.0525277 -0.3946506 0.07619222 0.90124214 -0.71426016
0.0076836427 1.9720366 0.52417755 0.2539729 1.1634983 0.8481039 0.454061 1.6072246
