housingpipeline/housingpipeline/dgmg/restarts/chocolate_shape_860.pth (torch, 297529 bytes, 42 tensors)

graph_embed.node_gating.0.weight f4 [1, 16]
00000000: 990a bc3f af5f 9c40 eccf e4bf aa17 9c40
00000010: cc54 05c0 67f1 8b40 13c8 b8bf db8b 19c0
00000020: a2aa 65c0 bb2b 91c0 39a3 8c40 6fef 3e40
00000030: 51f2 af3f 5cfc 24c0 dfea 9a3f 8d0f d73f
1.4690734 4.88668 -1.7875953 4.8778887 -2.0833006 4.373218 -1.4436058 -2.399161
-3.5885396 -4.536588 4.3949246 2.9833639 1.3745824 -2.5779028 1.2102927 1.6801621

graph_embed.node_to_graph.weight f4 [32, 16]
00000000: 3d4b 0cc0 1012 89bf ddec ca3f 7a39 ef3f
00000010: 4eaf be3f 9c50 eb3f 3a34 1b40 ffdd c73f
00000020: 92fd 07c0 5e1d 0fc0 47b3 4c40 c754 aebf
00000030: 2b39 d4bf 84bf cc3f d4d8 2dc0 4551 f0bf
00000040: ef30 ffbb 162c 4bbe 2714 7fbf b260 1cbf
00000050: 9aa0 b73e a767 093f 10ff cebe dba0 763e
00000060: f374 5a3e 127c 093f 13f0 5dbe 4414 1c3f
00000070: 43cb b83e 97d3 873f 76e3 3d3e 163d 05bf
00000080: b20f a73f 7bdb df3f f992 703e 4436 0e40
00000090: e1f5 80bf 5338 4dbe 204d e03e 0456 bdbe
000000a0: 0d86 e63e f587 b1bf 8af4 2e3c 8e07 163f
000000b0: 7ad2 0dbf 3f63 9bbf 7068 f03f de7a 2f3f
000000c0: 358d 9d3f 76c6 683f 26be b6bf 924a 90bf
000000d0: be79 1ebf 3c71 b4be eeec c1bf ae97 01c0
000000e0: 7a54 ed3f 0079 c03e bd74 b73b 1ca3 0d3f
000000f0: 4793 dd3f 47bd e7bf 56d6 403f 9c15 993f
00000100: b303 0dc0 d6c7 c8bf 86aa 1440 f3e0 7b3f
00000110: 503e cf3f f1e8 b7bf e4c1 0140 5e28 1b40
00000120: 882b e3bf fdd2 75be b76b d93e bc6c 22c0
00000130: 0417 1dc0 6ca2 bb3f 06c5 e2bf 473d ecbf
00000140: 60b1 bdbd d340 83be aa0d 833f 5d97 313f
00000150: dd47 5a3e 979c 96bf dd5f be3f 70eb d43f
00000160: b00d 82bf 233e 0abf 76ce 05be dd7c 58bf
00000170: a211 aabf 9db4 d53d e07c d9bc 8703 bebe
00000180: 6928 3fc0 0994 22c0 f70a 673f c2a0 ab3d
00000190: 7130 1f40 1812 f23e 3a57 0740 a2d8 a53f
000001a0: 082f 9cbf bbff 853f d6e6 9b3f 5864 a1bf
000001b0: 81ff d9bf 84ce 1b40 0079 3fc0 db63 24c0
000001c0: 87ef 53bd 5a92 ac3f 38a8 c53f 2f58 4840
000001d0: 2d98 823e 8c6e ea3f 254f e73f 17b6 a63f
000001e0: a1c6 34c0 9ae1 80c0 3e15 2d40 cd77 10bd
000001f0: 186b 99bf 17fa 813d 215f 15bf 5911 45bf
00000200: 5741 273e e169 4fbf 583f d8be 4817 febf
00000210: fa60 1f3e eb49 5dbf a069 83bf a1d5 7cbf
00000220: 3eb3 0d40 f9b4 1640 a4b1 25bf 6d4b f9be
00000230: 93f6 6a3f 3076 8d3e 322b 113e 573e 613f
00000240: d58a d43f 3272 b23f c925 d5bf 3948 19c0
00000250: 3e5a b7bf ce46 ffbe 8e66 00c0 af6e 6ebf
00000260: bd3c de3f d6d9 c03f 119a 2ec0 a362 df3f
00000270: 7274 dc3f 18c9 0bbf 0cfc e23f bc4f 813f
00000280: 5fe5 1940 d18c 1740 0775 a7bf 4c2c cabf
00000290: 22a6 24c0 aa3c a5bf 2891 0ec0 9eb7 60bf
000002a0: 57ba 3140 1c7a 5d3f 51e0 2cc0 c6fe a23f
000002b0: ef34 f73f 7807 08c0 c166 1340 de6b 0540
000002c0: 74b7 493e 7423 22be 38a3 01c0 78f6 2bc0
000002d0: 59c9 aabe a77b 48be f92f 16c0 c466 00c0
000002e0: 3da1 f23f 9698 2f40 4496 f8bf 7326 1a40
000002f0: 0507 0040 14dd 24be dda8 aa3f 9375 a73f
00000300: e170 36c0 05d6 47c0 5d63 0840 e548 a93f
00000310: 0aa7 3c40 ebf8 993f 19a2 1d40 09ba e63f
00000320: 8d52 0fc0 c570 803f 7707 fe3f 35a3 17c0
00000330: 6192 2dc0 44bf 4d40 9588 41c0 0bf9 43c0
00000340: 5b9a f73e 624e 3dbf 1f9e 05c0 c4f2 41c0
00000350: ae3d bebe 2ec2 19bf e2b4 e5bf 5421 8fbf
00000360: 383d 2240 2590 0d40 c1b0 f7bf 3572 833f
00000370: 483f d33f 7807 2ebe faaf 233f 7afd 9f3f
00000380: c180 543f f08c 5e3f 36e3 a8bf 9eff 94be
00000390: c323 33bf 3758 163f b957 ebbf 9110 febf
000003a0: a351 803f 7c54 073e 1da1 083f f316 8b3f
000003b0: ff5b dd3f a36f 98bf ad56 a33e c3f8 c43f
000003c0: d88c 3d3e 268e 88be 390a 9f3e 2519 b1be
000003d0: 46e6 523e 684b ddbe 1b8b f83e b4bb 1a3f
000003e0: 630b efbe 9bcc c53e 9b80 fdbe bc10 72bf
000003f0: 004e babe da21 05be 37cf b9be 9aa4 883e
-2.1920922 -1.0708637 1.5853535 1.8689415 1.4897249 1.8383975 2.4250627 1.5614623
-2.1248517 -2.2361674 3.1984422 -1.3619622 -1.6579946 1.5995946 -2.7163591 -1.8774801
-0.0077878158 -0.19841036 -0.99640125 -0.61085045 0.35864717 0.53673786 -0.40428972 0.24084799
0.21333675 0.5370494 -0.21673612 0.6096842 0.36092576 1.0611447 0.185438 -0.52046335
1.3051665 1.7488855 0.23493566 2.222062 -1.0075036 -0.20041017 0.43808842 -0.36979687
0.45024148 -1.3869616 0.01067842 0.5860528 -0.55399287 -1.2139663 1.8781872 0.68546855
1.2308718 0.9092783 -1.4276779 -1.1272757 -0.61904514 -0.3524264 -1.515043 -2.0248828
1.8541405 0.37592316 0.005598633 0.5532701 1.731057 -1.8104638 0.7532705 1.195972
-2.2033508 -1.5685985 2.322908 0.9839012 1.6190891 -1.4367963 2.0274591 2.4243388
-1.774766 -0.24006267 0.42464992 -2.5378866 -2.4545298 1.4658942 -1.7716377 -1.84562
-0.09262347 -0.25635394 1.0238545 0.6937159 0.21316476 -1.1766537 1.4873005 1.663435
-1.0160427 -0.54001063 -0.1306704 -0.84565526 -1.3286631 0.1043484 -0.026548803 -0.37112066
-2.9868414 -2.5402853 0.90251106 0.083802715 2.4873316 0.4727943 2.114699 1.2956736
-1.2201853 1.0468668 1.217982 -1.2608747 -1.7031099 2.4344797 -2.9917603 -2.5685947
-0.051742103 1.3482163 1.5441961 3.1303823 0.25506726 1.8314986 1.8071028 1.302432
-2.8246233 -4.0275393 2.7044215 -0.0352705 -1.1985807 0.06346529 -0.5834828 -0.76979595
0.16333519 -0.81020933 -0.42235827 -1.9850855 0.15564337 -0.86440915 -1.0266609 -0.9876347
2.214065 2.3547957 -0.64724183 -0.48690358 0.9178249 0.27629232 0.14176634 0.8798575
1.6604868 1.39411 -1.6652156 -2.3950331 -1.4324415 -0.49858707 -2.0062594 -0.9313764
1.7362286 1.5066478 -2.7281535 1.7451977 1.7223036 -0.5460372 1.7733169 1.0102458
2.4046247 2.3679698 -1.3082589 -1.5794768 -2.57264 -1.2909138 -2.2276096 -0.8778018
2.7769983 0.8651445 -2.7011912 1.2734001 1.9313029 -2.1254559 2.3031466 2.0847087
0.19698888 -0.15833837 -2.025587 -2.6869183 -0.3335674 -0.1957842 -2.346678 -2.0062723
1.8955456 2.743688 -1.9420857 2.4085968 2.0004284 -0.1609996 1.3332783 1.3082756
-2.8506396 -3.1224377 2.1310647 1.3225371 2.9476953 1.2029089 2.4630187 1.8025523
-2.2394135 1.0034415 1.9846028 -2.3693364 -2.7120593 3.214799 -3.0239613 -3.0620754
0.4835995 -0.7394773 -2.087776 -3.0304422 -0.37156433 -0.6006192 -1.7945826 -1.1182046
2.5349865 2.211923 -1.9350816 1.0269228 1.6503687 -0.16995037 0.63940394 1.249923
0.8300896 0.86933804 -1.3194339 -0.2910127 -0.69976443 0.58728355 -1.8386146 -1.9848806
1.0024914 0.13215822 0.5337084 1.0866379 1.72937 -1.1909069 0.31902066 1.5388416
0.18510759 -0.2667095 0.31062487 -0.34589496 0.20595655 -0.43221593 0.4854363 0.6044266
-0.46688375 0.38632664 -0.4951218 -0.94556785 -0.36387634 -0.13001195 -0.36290905 0.2668808

graph_embed.node_to_graph.bias f4 [32]
00000000: bee7 0740 8e83 723e cd9e de3e 9a30 aabe
00000010: 494e ce3f 72ca da3f 4f5b 61bf 9fbf e5bf
00000020: a09d 02c0 07ff 65bf f9c6 81bf d082 ea3e
00000030: 0f7c 6fbf fe46 52be 3281 8abf 45c3 ff3f
00000040: 4a81 11c0 71e0 81bc c523 00bf 93c6 4c40
00000050: 84b7 07bf a19b c6bf d4d3 0ac0 3918 d43e
00000060: 7daf cb3d b1ed 983e 9145 71bf d7b7 633f
00000070: 567f 3f3f 5925 8e3f 3329 f93e 4f58 803f
2.1235194 0.23682997 0.4348053 -0.33240205 1.6117641 1.7093031 -0.8802995 -1.7949103
-2.0408707 -0.89842266 -1.0138847 0.45802927 -0.93548673 -0.20534894 -1.0820677 1.9981467
-2.2735162 -0.015854092 -0.5005458 3.19962 -0.530144 -1.5516244 -2.169179 0.4142473
0.09945581 0.29868844 -0.94246775 0.8895239 0.74803674 1.1105148 0.48664245 1.002695

graph_prop.message_funcs.0.weight f4 [32, 34]
00000000: bc91 c2bf bc82 1a3f d637 c13f ee55 4e3f
00000010: 13a0 1c3e fa37 74be 3d6b 9fbe 1637 e23f
00000020: 3532 653e 6163 1fbf 3529 3d3f 741d 86bf
00000030: f071 a13e 0767 913d c5d3 5a3f 82be ecbe
00000040: 8673 943f b995 483f eff0 613f ca6f d23d
00000050: dbdc 39bf 7ffa 02be bd61 4a3f e130 68bf
00000060: 4403 143e eb49 2bbf 694e 3d3f 212e d83e
00000070: 1afe 46bd fa7b 2cbf 3a25 3d3e 6e26 03bf
00000080: 93b3 0f40 8654 623e e3b1 9bbf f02b 3a3e
00000090: 90bc 7e3d 0492 963f 28d4 a9be 28ef 0a3f
000000a0: b704 583f e18e 223f 8505 73bf 9dc3 4f3f
000000b0: ebd4 ebbe c3ed 33bf 9238 62bf 92ee a33f
000000c0: 7231 b7bf 99a6 d1be 558b b43e a1bb 963f
000000d0: ab90 913e 4354 af3f aece 76bf 18e4 73bf
000000e0: be72 02be f02b 8d3e f5e3 21bf d5ea d8be
000000f0: 1cfd 54bf d34b 743f eec2 bfbf d8a5 64bd
00000100: d220 54bf df7d 273e ba8e 92bf 9f0d 24bf
00000110: f4ef 503f b92f d33f fb48 fbbf 8b7a 743f
00000120: f4e0 01c0 b6aa 853f dc16 bfbc 77fd 21bf
00000130: 1552 c9bf d004 dfbf b289 933f ca8c 0840
00000140: 9a20 1fbf 169f 80bf e187 8ebf e74f 583f
00000150: 4990 453f f1a6 e13f 62fd 0a3f 21e2 0b40
00000160: d7d7 bcbf 5ab4 a33f f5f6 9a3f cfa7 58bf
00000170: e353 6d3f b072 32c0 ff9f e23f a544 dd3f
00000180: 0a88 59bf 9222 6bbf ed64 443e 9267 123f
00000190: e604 5e3f 0278 29c0 c8f4 873e be9c 91bf
000001a0: 2e1b a63f 2cc0 9cbf c9d7 fb3f 38ce aebe
000001b0: bd17 843f d0e5 5abf 8a03 f53f 817d 1a40
000001c0: 1cef b8bf c249 2abf 7d52 d43e 376e 813f
000001d0: ece5 223f ca24 b4be 9d4b 24c0 2a19 07c0
000001e0: 27eb 03bf 9c1c dfbf 712b ca3f 8b13 7dbf
000001f0: 0fe6 9fbf 8542 b33f 3d48 95bf c818 1f40
00000200: f915 eebf 1d13 0bc0 cbd2 d5be f254 853f
00000210: e7b3 f0bf 4f2c 0fbf 1d38 a5bd 9998 f43e
00000220: 129f d3be ecdd e23d 7248 0b3f 9808 7f3f
00000230: b2cb db3e 02bf 6c3b a8bc 7cbe 8c00 f8bd
00000240: 06f5 393f 7b05 17bf 23b0 e83e 1398 383f
00000250: a490 273f 5e1d 4dbf 471d 5d3f d25a b8be
00000260: b4b8 653f e39c d1be f66f a2bc 32f8 8dbe
00000270: fd99 ed3c e3ee cdbe 6407 69bf a3bd 733e
00000280: 1bff 98bf e948 043f 29c7 81bf 740c c2be
00000290: bf84 cfbc e0d8 aa3e f45e 0abf 0002 35bf
000002a0: fbfd 9d3f ce88 e0bf 24b0 b8be b45f d43e
000002b0: 5302 9d3f c54f 7ebf 4b9d 953f e6b9 723f
000002c0: a363 633f c680 8abf fb53 a33f 459a 503f
000002d0: 05ec 2cbe 5c5e e33e f426 183f d2e3 debd
000002e0: 461a 413e 04d6 89bf 6d05 30be 8d99 c8be
000002f0: 99a4 14bf 4091 20be 414a 473f cf36 8c3f
00000300: 30b2 163f e149 aebf 9663 8f3f 5dd1 56be
00000310: dbda 8b3f 9385 e8be f7aa f2bc 67dd 283e
00000320: 3171 903d 5b3f ae3f 7e72 a6bf 276e 493f
00000330: c9fd 863d 3346 133f d3af d7bf bbd7 213e
00000340: 8726 5ebe 58da 8f3f 6704 8b3e 0195 13bf
00000350: de3d 82bf 3ffb cabf 06d2 e63f c6e8 ba3f
00000360: 8dee d3be 0808 30bf 4ef3 0ebf a5e8 8fbc
00000370: b444 4f3f 7bb6 8b3f 0ae1 6fbf c26c a13f
00000380: 5f31 0bbf f871 973f 0d9b c63e bc6e 20c0
00000390: 5a5f 553f 34cd d4bf f47b 2340 d722 da3f
000003a0: 086e 2f3f d7d1 9b3e e3eb ba3e be03 a13f
000003b0: 9fe9 18bf 8281 9a3b 8649 623f fcd7 683e
000003c0: 3dc5 f8bf 450c e83f 926e bfbf 4231 e83d
000003d0: 2de0 9fbe 80c8 5cbf 66c2 92bf 03b2 e1be
000003e0: 9e35 bbbd 5115 be3f 6a34 4dbf 4701 c0be
000003f0: 483c 52bf d053 363f deae 953f 98df 433f
-1.5200725 0.60355735 1.5095165 0.8059987 0.15295438 -0.23849478 -0.31136504 1.7673061
0.22382434 -0.62261015 0.73891 -1.0477738 0.3153224 0.07099729 0.85479385 -0.46239096
1.1597755 0.7835346 0.8825826 0.10275228 -0.72602624 -0.12790869 0.79055387 -0.90699583
0.1445437 -0.66909665 0.7394777 0.42222694 -0.048582174 -0.67376673 0.18471232 -0.51230514
2.2453353 0.22102556 -1.2163662 0.18180823 0.062191546 1.176331 -0.33169675 0.54271173
0.84382194 0.63499266 -0.949303 0.8115786 -0.4606088 -0.7028467 -0.8836757 1.2807181
-1.4311965 -0.40947416 0.35262552 1.177601 0.28430685 1.369759 -0.9640912 -0.9526992
-0.12739083 0.27572584 -0.6323846 -0.42366663 -0.83198714 0.954282 -1.4981363 -0.055822223
-0.8286258 0.1635661 -1.1449807 -0.64083284 0.8161614 1.6498939 -1.9631647 0.95499486
-2.029355 1.0442722 -0.02332633 -0.6327738 -1.5728174 -1.7423344 1.1526396 2.133593
-0.6215912 -1.0048549 -1.1135217 0.8449692 0.77173287 1.7629071 0.5429288 2.1856768
-1.4753369 1.2789414 1.2106615 -0.84631056 0.92706126 -2.78825 1.7705077 1.7286574
-0.84973204 -0.91849625 0.19179125 0.57189286 0.86726224 -2.6479497 0.2655394 -1.1375959
1.2977045 -1.2246146 1.9675227 -0.34141707 1.0319744 -0.85506916 1.9141705 2.4139102
-1.444797 -0.66518795 0.41469184 1.011176 0.6363208 -0.35184318 -2.567115 -2.110911
-0.5153069 -1.7430606 1.5794507 -0.98857945 -1.2492083 1.4004675 -1.166267 2.4858875
-1.8600456 -2.1730416 -0.41762385 1.0416548 -1.8804902 -0.55926985 -0.080673434 0.47772673
-0.413323 0.110774845 0.5440742 0.9962249 0.42928845 0.0036124592 -0.24681342 -0.12109479
0.726395 -0.5899274 0.45446882 0.72107047 0.6545508 -0.80122936 0.863728 -0.3600679
0.8973496 -0.40940008 -0.019828778 -0.2772842 0.029004091 -0.4022132 -0.910269 0.2380281
-1.1952852 0.5167375 -1.0138904 -0.37900126 -0.025331853 0.33368587 -0.54051137 -0.70706177
1.2343134 -1.754175 -0.36071885 0.41479266 1.2266334 -0.9934047 1.1688627 0.9481491
0.8882391 -1.0820549 1.2760004 0.81485397 -0.1688691 0.44407928 0.5943444 -0.10883297
0.18857679 -1.0768437 -0.1718957 -0.3917965 -0.58063656 -0.15680408 0.7784768 1.0954226
0.5886564 -1.3616296 1.1202266 -0.20978303 1.0926164 -0.4541441 -0.029622538 0.16490708
0.070528395 1.3613085 -1.300369 0.78683704 0.065913744 0.5752899 -1.6850532 0.15804951
-0.21694385 1.1238508 0.27151796 -0.57649237 -1.017513 -1.5857924 1.8032844 1.4602287
-0.41392937 -0.68762255 -0.55840003 -0.017566988 0.8096421 1.0915064 -0.9370276 1.2611315
-0.5437221 1.1831656 0.3879017 -2.5067587 0.8334862 -1.6625123 2.5544405 1.7041882
0.6852727 0.30433533 0.36508092 1.2579267 -0.5973148 0.0047151456 0.8839344 0.22738642
-1.9435192 1.8128744 -1.4955618 0.1133752 -0.3122572 -0.8624344 -1.1465576 -0.44081125
-0.09141086 1.4850255 -0.801581 -0.37500975 -0.8212323 0.7122164 1.169399 0.7651305

graph_prop.message_funcs.0.bias f4 [32]
00000000: 5923 08c0 2b6a b23f 56f4 6ac0 f35c 8a40
00000010: fac0 90bf cd90 2240 9c17 a23e d5ff 16c0
00000020: 45e5 4940 48e6 ae3f 69a6 04c0 8b35 eabd
00000030: ffa2 4240 8c42 fa3f 491c 4b40 12d7 e33f
00000040: b83f 1740 7967 2ac0 af94 5ec0 6bf5 47bf
00000050: f77f f93d 1094 5f40 64c8 2e40 1f60 05bf
00000060: 3464 abbf 2318 8dbe 2f5a b7be 4eac 413f
00000070: d277 e23f 698a 92bf e745 d2bf c987 8abf
-2.1271574 1.393865 -3.671163 4.3238463 -1.1308892 2.540088 0.31658638 -2.3593647
3.1546185 1.3664026 -2.0726569 -0.11435994 3.0411985 1.9551558 3.1736014 1.7800009
2.363264 -2.6625655 -3.477825 -0.78108853 0.121826105 3.493412 2.7309809 -0.52099794
-1.3389955 -0.27557477 -0.35810992 0.7565354 1.7692816 -1.144849 -1.6427583 -1.0822688

graph_prop.message_funcs.1.weight f4 [32, 34]
00000000: 1f54 4ec0 46bb 3340 102b 6340 ac98 48c0
00000010: 7097 3fc0 6d56 3040 f023 2940 d603 42c0
00000020: 3dd7 093f 3964 5940 e191 0f40 58ce 6340
00000030: be17 d2bd 76d8 c1bf 87a3 88be 7336 4e40
00000040: d83f 33c0 1eb3 3440 3ab9 5140 9676 5cbf
00000050: e594 17c0 a335 3b40 46e5 3540 1e46 14c0
00000060: 8971 1dbe 77fc 3840 43b1 4a40 ece5 5a40
00000070: f5f9 0540 277c 3dc0 e95a ffbe cbd1 2340
00000080: eb45 b43f 81cb 4dc0 14d8 dfbf b961 74be
00000090: ba1c febd b73e 9cbf d707 863e c3c3 3b3e
000000a0: bd02 0340 f41f 2bbe 2a28 e63f 6c78 c9be
000000b0: 81ad 5b3d 6e49 15bf acc4 923e 6e98 b1bf
000000c0: 4de1 00c0 c0bb 6e3e d449 8bbf d198 bebf
000000d0: f6bf 0bbf f294 babf d806 a23f ca74 9d3e
000000e0: b959 3b40 5d06 3e3f dc4e 823c 958c 21bf
000000f0: 6943 14bf 697c 77bf 978b 6cbf 973f b43e
00000100: 5939 2bc0 47ba d1be a3f9 eebe 61c1 71bc
00000110: 0d13 babe f80f 35c0 bfc2 20c0 8d02 a23e
00000120: 99c4 e93f 0538 b5bf 473f 71bf ab78 0540
00000130: 266d abbf da7f 10c0 e529 2fc0 1afd 27c0
00000140: 179d 213d 1956 5640 53c5 ae3d ebd4 42c0
00000150: 5af4 843f 55df 31c0 47b4 02c0 d748 a2bf
00000160: 1199 673f d350 39c0 b2e9 8fbf 00c7 1e40
00000170: b4a6 bebe c4b2 c7bf 9b2d 12c0 d6e4 00c0
00000180: 18e4 0cc0 5a54 0d40 5fec 9bbf 2796 1fbe
00000190: 6ab1 60be 7a36 df3f cc83 e8bf 6312 4d3e
000001a0: 9a0a 1c3f ff1d 8abf c622 e63e de67 ba3e
000001b0: 0ccf 823f 1ecd 57be da86 853f c577 a03e
000001c0: eba5 aebe 2b51 40be 116d f6bf 4682 a7bf
000001d0: 15ac 8cbf 3676 ef3f a444 aebf 87eb 44bf
000001e0: 68ea 31be 9bbf 5bbe 965f 713f 36fc 733f
000001f0: e66b 1a40 650e c93e b5fe 083f 50d3 73be
00000200: 75f0 74bd c615 87be 6297 29bf 36a5 09bf
00000210: c161 7ebf a84f 43be 4f3c d03f 1091 143f
00000220: 7e68 913f 5af1 c8be 40a8 74be bc17 7e3f
00000230: dcb1 453f 6c57 19bf aba6 eabe 40a9 e8be
00000240: 8648 e93d 1f2c ebbd cc57 a8be 183e 59bf
00000250: 3ec5 d4bf aa68 4bbe c142 99be 1f9a 3cbf
00000260: 2342 bf3f 189b 1abf 76dc 10bf a15c a53e
00000270: 5777 da3e 218e 073d af6f 5bbf 5c2f c2be
00000280: 8770 783e 84af babe ed24 d7bd 5e6e 903e
00000290: f36e a4bf 93aa 993f a8fb 04bf e38a abbe
000002a0: 7506 9b3f a29d a03f 7630 0c3f 08c5 a1be
000002b0: 2898 3c3f 566d c73e 9971 06be d9f6 debd
000002c0: 5014 87bf 036e b4be a8f4 62be 2177 423f
000002d0: 4542 17bf f217 e63e 27c5 42bf 0a8d b83c
000002e0: ece8 233f 4788 b83e 9abb 693d 532d 4f3f
000002f0: 4197 c0be 92bc 063f b6b8 ba3e 190e 783e
00000300: fd39 e4bf 430b 45bf 591a 3fbf b926 f1be
00000310: a4aa a1bd 0756 823e cb46 153d 3182 203f
00000320: f673 3ebe 8053 29bf 709f fa3f a990 a13e
00000330: 26eb 433f 88b9 64bf d848 7e3d ca7a 72be
00000340: fbb3 afbc e926 853e 94a3 63bf b1e1 ef3e
00000350: 3789 03bf 75b2 cb3e 9dd3 39bf c8d9 37be
00000360: 6233 16be 218a 6e3f 5c2f 643e 8612 1bbe
00000370: d025 003e b9b2 393f 99df 66be da8c af3d
00000380: 73a4 81bc e5c3 2abf 5ef5 01c0 7ace 853e
00000390: aa5c 82bf d1e4 b7be ce2b 1abf e8a1 3a3e
000003a0: f932 353e 8a98 ad3e c708 9abe c3ca 17be
000003b0: 0b86 863f 4e31 dd3e 412f f43f 7ec4 25c0
000003c0: 5363 43c0 6ddc 6d3f 3607 3740 0d8a 12c0
000003d0: be6a e1bf 2ac0 6840 5ddf 07c0 c116 24c0
000003e0: ca3f 28c0 a318 44c0 89f0 4f3e e96f 2040
000003f0: 7522 38bf 0faa 1dc0 bcf0 cf3f 2b4b 44c0
-3.2238843 2.8083053 3.5495033 -3.1343184 -2.993618 2.755275 2.6428185 -3.0314841
0.5384405 3.396742 2.2432787 3.5594692 -0.10258435 -1.5144184 -0.2668726 3.2220733
-2.8007717 2.8234324 3.2769303 -0.8611845 -2.3684628 2.9251487 2.8421187 -2.3167796
-0.15375341 2.8904092 3.1670692 3.4202833 2.0933812 -2.9607027 -0.49874046 2.5596797
1.4083837 -3.215546 -1.7487817 -0.23865403 -0.12407823 -1.2206639 0.26177856 0.18336396
2.0470421 -0.16711408 1.7981007 -0.39349687 0.053632263 -0.5831517 0.28665674 -1.3874643
-2.0137513 0.23313808 -1.0881906 -1.4890386 -0.54589784 -1.4576705 1.2658339 0.30753165
2.9273512 0.7422846 0.015906744 -0.63105136 -0.5791536 -0.9667421 -0.924005 0.35204765
-2.6753752 -0.4096243 -0.46674833 -0.014755578 -0.3634266 -2.8290997 -2.5118864 0.3164257
1.8263122 -1.4157721 -0.9423718 2.08549 -1.3392684 -2.2578034 -2.736932 -2.624823
0.039456453 3.349005 0.0853373 -3.0442455 1.038707 -2.779256 -2.0422533 -1.2678479
0.90467936 -2.895558 -1.1243193 2.480896 -0.3723656 -1.560143 -2.2840335 -2.013967
-2.2014217 2.2082734 -1.218151 -0.15584622 -0.21942678 1.74385 -1.8165221 0.20026545
0.60953677 -1.0790404 0.44948405 0.3640737 1.0219436 -0.2107434 1.0431778 0.31341377
-0.3411096 -0.18780963 -1.9252034 -1.3086631 -1.0990015 1.870795 -1.3614697 -0.76921886
-0.17374575 -0.2145981 0.9428648 0.9530672 2.4128356 0.39268795 0.5351365 -0.23811078
-0.05979963 -0.263838 -0.66246617 -0.53767717 -0.9936791 -0.19073355 1.6268405 0.5803385
1.1360013 -0.39246637 -0.23892307 0.99254966 0.77224517 -0.5989902 -0.45830283 -0.45441628
0.11390786 -0.11483025 -0.32879484 -0.8486037 -1.6622694 -0.19864145 -0.29933742 -0.7367267
1.4942058 -0.60392904 -0.56586397 0.32297233 0.42669174 0.03309453 -0.8571729 -0.37926757
0.24261676 -0.36462033 -0.1050509 0.28209203 -1.2846359 1.200518 -0.51946497 -0.335044
1.2111346 1.2548106 0.54761446 -0.31595635 0.7366967 0.38950604 -0.13129272 -0.10886926
-1.0553074 -0.35240182 -0.22163641 0.75963026 -0.59085494 0.44940144 -0.7608208 0.02252819
0.64027286 0.3604147 0.057063676 0.80928534 -0.37615398 0.52631485 0.36469048 0.24224128
-1.7830197 -0.7697031 -0.7464958 -0.47099856 -0.07893875 0.2545626 0.036444467 0.62698656
-0.18598923 -0.66143036 1.9579906 0.3155568 0.76530683 -0.893456 0.062081188 -0.23679653
-0.021448126 0.2600625 -0.88921475 0.46851876 -0.5138125 0.3978459 -0.7258852 -0.1795417
-0.14668038 0.9317952 0.22283691 -0.15143785 0.12514424 0.72538334 -0.22546233 0.08571787
-0.015825486 -0.6670516 -2.030601 0.26134092 -1.0184529 -0.3591676 -0.6022309 0.18225825
0.17695226 0.3390544 -0.30084822 -0.14823441 1.0509657 0.4320168 1.9076921 -2.590118
-3.0529373 0.9291447 2.8598151 -2.289676 -1.76107 3.6367288 -2.123008 -2.5638888
-2.6288934 -3.0640037 0.203066 2.5068305 -0.7192758 -2.4635046 1.6245341 -3.067088

graph_prop.message_funcs.1.bias f4 [32]
00000000: bf5f 63c0 fb02 1e3f 1029 1c40 a276 15bd
00000010: 79db fa3e 4c67 6e3e 5368 5d3c 56fe 4140
00000020: fd74 25c0 255a 093e a440 ecbe 1808 c43f
00000030: 3a7e 1840 3208 b7bf 42a1 fd3f 8541 88bf
00000040: e513 1e40 9ff4 823f a3bf 5b40 3224 e8bf
00000050: 2b6d c03f 931e d23f e48b 34be 59ca 4740
00000060: 8224 0e3f bc29 01c0 c749 f5bf 45aa 0540
00000070: c2c7 0340 538e 0440 55bc 0140 c3e7 7a3f
-3.5527189 0.617233 2.4400063 -0.03649009 0.4899557 0.23281592 0.013513642 3.0311484
-2.5852654 0.13413294 -0.46143067 1.531497 2.3827043 -1.4299376 1.9814837 -1.0644995
2.4699643 1.0230902 3.4335716 -1.8136046 1.5033315 1.641558 -0.17631489 3.1217253
0.55524457 -2.0181723 -1.916314 2.0885174 2.0590672 2.0711868 2.0271199 0.9800989

graph_prop.node_update_funcs.0.weight_ih f4 [48, 32]
00000000: 0d40 9abf 1c4c f8be 6f29 34be 86c3 dfbe
00000010: 9932 b5bf 7a02 ffbe e4ab b83e 3b3a c9be
00000020: 72b2 e8be 5311 373f 8a23 a8bf 6abf 09be
00000030: f232 2bbe c4bf 69bd a277 0cbf ed38 f7be
00000040: a8d1 22bf 79b6 173e 6cd1 7a3d 05a1 9ebd
00000050: e457 173e 6913 a3be 2244 a9be 895f 6ebf
00000060: 5215 21be 2837 19be 5b13 d4be ff00 5fbf
00000070: bae8 ad3e 09e1 06bf 0990 00bf 86dc 8ebe
00000080: 3881 27bf 6518 b53f beee 71bf 7402 b43f
00000090: 005f 2dbf 30a9 ac3f 8a26 5f3f 485b 9a3e
000000a0: 0164 9b3f a816 9b3f 956b 3bbf cd53 92bf
000000b0: da4e b03f ab53 33bf 460a 953e de4c ac3f
000000c0: a997 893f 1abf 7fbf e049 8ebf d048 9d3f
000000d0: 26c5 be3f ce91 843f 8538 4abf 03c7 36bf
000000e0: 995d d3bf 61cf 30bf 2c9c 4fbf b665 743f
000000f0: fa55 b03f 0e72 9bbf dfbd 80bf cc8b 6ebf
00000100: 181d 183d d009 e8bc 6d21 83be 63f8 c83e
00000110: 9387 b0be aee0 12bf bfb7 d03e c6c2 8abf
00000120: 3a8a 12be 459d 0c3f bf86 e4be ca2c 06be
00000130: 0497 993d 5145 13bf b2f6 8f3e aadd 4fbf
00000140: b727 e43e ff9c b6bf 4b7d e5bd d16b b4bc
00000150: 9535 1ebf 64e3 af3d ed7d 323e e831 963e
00000160: 7265 6d3d 2c9b 1ebe 56a1 d7be 4bd2 b3bc
00000170: c009 823f 09ea a9bd ae97 d6be d6dd 1fbe
00000180: b98a 59bf 77ab 113f 4495 5b3d aefc ec3d
00000190: d1bd 24bf fa6c 5bbf a47b 173f 1bd6 f23c
000001a0: 5115 463f 0f88 92be 98e4 02bf 48df 603b
000001b0: 38de 043e 6846 8bbf 1823 183f ad30 c0bd
000001c0: 5699 043f aeab 37bf db36 a2bd 3426 59bf
000001d0: 6d1a 063e c624 5ebe 2b40 7a3e 217e 553e
000001e0: 7e56 173d 1f2e 95bd 89ec 9abf 83a6 f3bd
000001f0: a901 fc3e 853e 8bbf 0b2c e03e 463a b3bf
00000200: 5dd0 bebf 2ae3 e1be 3940 91bf bd4d ab3f
00000210: 13f6 08c0 efcb 1cbe 40e8 c0bf 247e bebf
00000220: 0a90 1b3f 921a 4b3f ef23 a8bf 828f cdbf
00000230: 3ef4 8a3f 51fe a9bf c875 533f 410d d83d
00000240: 6e7b 5d3f 2198 85be 8c33 84bf 04ac f2bf
00000250: d611 8b3e e190 893f 9e4e 9f3f 9067 95bf
00000260: e407 4c3e 1071 2cbf 6abc 0a3d 47dd b9bf
00000270: 3433 353e 9eee a3bf f3d7 d13f 41ff 94bf
00000280: 337b ac3d 71c8 9b3e 61d3 0c3c 4155 933e
00000290: bcb7 41be ef64 3f3f 2034 703f 3118 bf3e
000002a0: 9d36 3b3f 727e 293f 61f2 5f3e f07a 5e3f
000002b0: 9650 223f b00b 0a3f 0726 433e 360e 143f
000002c0: c198 2b3f b24e 953f 7e2b e9bd f65b 39bc
000002d0: d08b be3e da46 963e cd57 d43e 13bf 933f
000002e0: 0359 ec3e f30b 80be d59e d03c 57e2 ce3e
000002f0: 1b56 983e e5e6 5c3f f6b0 a83e c74b 203e
00000300: 9b4a cfbe e49d 4b3f b202 ccbe 0788 813f
00000310: 578c a6bf d78d 03bf 933d 07bf fadc 24bf
00000320: 8b9c 583f 239f 2bbd 90d7 94be 96fd 87be
00000330: 6f1c 103f fe25 58bf b351 9b3f f5ed d7be
00000340: d193 e53e fbc1 17bf adaf 9fbe 5c54 efbd
00000350: cf0d da3e b8ec 6a3f 79a4 c43f 4a90 033d
00000360: a0f9 41be 25cf 973e 81f1 4fbe 9588 913e
00000370: bd44 7a3f 54c0 3abf 7b37 093e cf8f 21bf
00000380: 1d38 213e 543a 78be 5c11 e3bd eaee 1cbe
00000390: 2a85 4cbd 0bf1 e3be b66b bdbc c984 343d
000003a0: cd05 84bf e25c 1dbf 630f 2a3f 7ef2 87bd
000003b0: abef 2dbf 5cec e43d a4c5 d9be dfc0 0abf
000003c0: 8e1e 4abf 4eba 843e 6350 383f 1f14 ce3e
000003d0: 27c7 373e bc90 60be 1a10 9ebe 4cc2 9d3e
000003e0: 87d8 6ebe daac 83be faa2 c63e dba7 b8bd
000003f0: 63c4 c8bd 2ef1 cf3e 44af 00bf f65d 683e
-1.2050797 -0.48495567 -0.1759393 -0.4370386 -1.4156066 -0.49806577 0.36068642 -0.3930224
-0.45448643 0.7151081 -1.3135846 -0.13451925 -0.16718653 -0.057067648 -0.54870045 -0.48285618
-0.6360116 0.14815702 0.061234877 -0.07745556 0.14779621 -0.31850746 -0.33059794 -0.93114525
-0.1573079 -0.14962447 -0.41421017 -0.87110895 0.3396662 -0.52687126 -0.5021978 -0.2790262
-0.6543155 1.414807 -0.94504917 1.4063249 -0.67723083 1.3489132 0.8716818 0.30147767
1.2139894 1.2116289 -0.7321103 -1.1431824 1.3774064 -0.7004954 0.291094 1.3460958
1.0749408 -0.9990097 -1.1116295 1.2287846 1.4903915 1.0356996 -0.7899249 -0.7139742
-1.6512939 -0.69066435 -0.81097674 0.954677 1.3776238 -1.2144182 -1.0057944 -0.93182063
0.03713712 -0.028324991 -0.2561144 0.39252004 -0.34478435 -0.57374084 0.40765187 -1.084069
-0.14310542 0.54927474 -0.44634053 -0.13103023 0.07499507 -0.57527643 0.281179 -0.8119761
0.4456155 -1.4266661 -0.11205538 -0.022024067 -0.6180051 0.08588293 0.1743085 0.2933495
0.057958074 -0.15488881 -0.42115277 -0.021950861 1.0159225 -0.08296592 -0.41912597 -0.15611967
-0.849773 0.5690226 0.053609148 0.11571632 -0.64352137 -0.8571316 0.59173036 0.029643109
0.77376276 -0.2861943 -0.51130056 0.0034312773 0.12975395 -1.0880861 0.5942855 -0.09384284
0.5179647 -0.7174634 -0.07920619 -0.8482392 0.13096018 -0.21693715 0.2443854 0.20848896
0.03694772 -0.072841875 -1.2103435 -0.11896994 0.49220017 -1.0878454 0.43783602 -1.4002159
-1.4907337 -0.44118625 -1.1347724 1.3383099 -2.1400192 -0.1531217 -1.5070877 -1.4882245
0.6076666 0.7933742 -1.3135966 -1.605942 1.0855787 -1.3280736 0.82601595 0.10549403
0.86516464 -0.26092628 -1.0328231 -1.8958745 0.27162045 1.0747339 1.2445867 -1.167223
0.19924885 -0.6736002 0.033871092 -1.4520653 0.17695314 -1.2807195 1.6394027 -1.1640397
0.08421936 0.30426362 0.0085953185 0.2877598 -0.18917745 0.7476339 0.93829536 0.37323144
0.7313021 0.66208565 0.21869804 0.8690634 0.63404214 0.53924084 0.19057475 0.57834184
0.6702996 1.1664641 -0.113852486 -0.011313429 0.37216043 0.2935093 0.41473237 1.1542686
0.4616166 -0.25009117 0.025466362 0.4040706 0.29753193 0.8628982 0.3294751 0.15653907
-0.40486607 0.79537797 -0.39845806 1.0119637 -1.3011578 -0.51388305 -0.5282833 -0.64399683
0.84613866 -0.04189981 -0.2907071 -0.26560658 0.56293386 -0.8443297 1.2134308 -0.42173734
0.44839337 -0.59280366 -0.31188717 -0.11686012 0.4258866 0.91767454 1.5362693 0.032120027
-0.1894288 0.29650226 -0.2030697 0.28424516 0.97761136 -0.7294972 0.1340007 -0.6311006
0.15744062 -0.24241 -0.110872954 -0.15325513 -0.049931683 -0.4451984 -0.02312265 0.044071946
-1.031427 -0.6146985 0.6642973 -0.066380486 -0.6794383 0.111778945 -0.425336 -0.5420055
-0.7895287 0.2592339 0.7199766 0.40249726 0.17947064 -0.21930212 -0.3087166 0.308123
-0.23324786 -0.25717813 0.38796216 -0.09016391 -0.09803083 0.40613693 -0.50267434 0.22692093

graph_prop.node_update_funcs.0.weight_hh f4 [48, 16]
00000000: 21a7 0fbd e914 3bbe f848 28bf 21f2 c43e
00000010: 1973 e2be 2396 0bbe 5d80 20bf 27ac 0fbf
00000020: 4431 963e 76a4 dabe 175a 123e 45d7 92be
00000030: 6d3e 45bd 89fc b8bd 1d8a 3f3d 3bdd 92bc
00000040: 51c9 5abf 1667 863f 8e19 de3f 8a98 243f
00000050: 2bc0 843f c21f d03d ca40 913f c3c6 aa3f
00000060: 2395 82bf 45c6 953e 8ed7 323f cd25 3cbf
00000070: 442b a4be ab0f 8c3f dc3e 86be 2dfe 3abf
00000080: 383b 9dbe 0847 b5be 3707 1dbe 1b6a c23e
00000090: bf30 803e 58f3 8cbe 4d08 b93e a6d3 dabe
000000a0: 2e1e a9be c10c 07bd 25ef ec3e fda1 b4be
000000b0: 50e7 3bbf 5946 bbbe 55f8 3c3f 6d3c 74be
000000c0: 7784 efbe 4885 2bbf 48d5 093e 45b1 afbd
000000d0: 69c1 663f 832e 52bf a7ab 55bf 6a59 233f
000000e0: 9706 c03d a554 1cbf 7f01 493e 372b 9bbe
000000f0: a643 39bf a88f d23e 35a3 6fbf fccc f03e
00000100: afb1 88bf 41c7 a8bf e18a b6bf a1d2 4fbf
00000110: c82a d23f 1a55 66bf bfa5 bbbe 7e90 48bf
00000120: 810c e4be 4dd1 1c3f 4e6d 2a3f 6b63 913c
00000130: a704 9cbe 04fe 8c3f 5488 4f3f 5fb2 c1bf
00000140: 63cd 1c3f e23d af3e 787e 473f bff6 813f
00000150: 35e3 debe de4a 5bbf bee6 0a3f b624 903c
00000160: 2129 87bc b012 42be 59f3 05be 5daa 0ebe
00000170: d673 94bf 47e0 4cbf 1b2c 3fbd 568d 9b3d
00000180: 5034 143f 7157 1f3f 4198 ce3e 537f dbbc
00000190: cc2c 4b3f 0dfe f0be 0215 6c3d 4cf3 f03e
000001a0: f3c8 18bf 6a02 0dbf 14bc 01bf 7fbc aabd
000001b0: c12f 50bf 39c8 27be d45f b7be e70e 31bf
000001c0: 71e0 333e bf99 69bd a1e4 1e3f c2f4 2dbd
000001d0: 0e67 9fbd b9a4 d4bd 0ad7 42bd cf13 aa3e
000001e0: e641 66be 32f0 0abf 6111 1cbf 8cc6 71be
000001f0: 3233 f1bd 13e1 afbe d32e 313e 58aa b7be
00000200: 8755 f83d 9170 8d3e f26c 99bd cffd bfbd
00000210: f2c2 bcbd 877c b6be 6254 9abe bcad 803f
00000220: d6e0 01be 4dd2 b2be d20f 8d3e 4a25 4a3e
00000230: 8fb1 dd3e 11c3 863e 879a a5be 65de 193f
00000240: c1a8 03bf 13a4 093f 9654 2cbe c34e 16bf
00000250: fa70 e2be f8fd fcbd 0746 8d3f 1324 5c3e
00000260: b5a8 2ebf d8a8 4a3e fe55 93be 18ca 053f
00000270: 0d05 ab3d 720b 533f c0c4 4f3f 7145 feba
00000280: 2ba7 72bd aa4e 6cbf 12a8 2abf 1f66 f63e
00000290: 5bf7 4c3f 1c65 afbe 5be4 90be 7a00 153e
000002a0: c84e 45be a705 c63e e40b 56be fd7d f7be
000002b0: bfc5 30bf d732 203d 5216 68bf aee0 443f
000002c0: ebb5 983d d190 103f 4f8f 063f 5fbf 33bf
000002d0: 2698 823e 3a51 c33e 5b7d 5a3f f994 123e
000002e0: 4a47 a43e a9ba 1e3f 3a2f 28bf 1a0b ffbd
000002f0: 263b 603f 6725 5abd 563b 343f b12d 64bf
00000300: 84c1 00be 0f40 55bf 9516 86bf f4f6 17bf
00000310: d3cc d6bd 76aa e53e b8f1 33bf a661 f6be
00000320: 4bf3 2e3f 5d05 b33e cc23 053e c59a 2a3e
00000330: 1e44 923e 543d c23d 5df8 78be 8006 13be
00000340: 2333 99bd d503 bfbe 010e 5f3e 7bef 14be
00000350: db12 4f3f 0f61 4ebf 8570 083f 05d3 2bbd
00000360: 0a8a 8b3e bccf 78be 9ba2 b83d b71c d73d
00000370: 1be3 bcbe 2b25 5d3f fdad 8abe 4fda 80bf
00000380: bea8 9abd c93c 8bbe ee09 473e 8fb5 bc3d
00000390: 1c93 073d d498 0bbe 7a0b 26be cee0 eabd
000003a0: 6397 97be 8ac0 993d 879a f53d 9c97 f13d
000003b0: da5e 6bbc 529a f43d 2d74 32be 1979 4c3e
000003c0: 6d8e b9bf 2fef a6bf 2bda 7f3f 5b34 c1bf
000003d0: 9750 363f 5911 8ebf 1381 4c3f 917f ce3f
000003e0: b87d 1fc0 acba 6e3e 954e d9bf 4c25 fbbf
000003f0: 1e3f ccbf 4368 a73f 2452 b2bf 3678 98bf
-0.035071496 -0.18269695 -0.6573634 0.3846598 -0.44228438 -0.13631491 -0.62695867 -0.5612206
0.29334462 -0.427036 0.14292179 -0.28679863 -0.048155237 -0.09032542 0.046762574 -0.017927757
-0.85463434 1.0500209 1.7351549 0.64295256 1.0371145 0.10162307 1.1347897 1.3341907
-1.0201763 0.2925283 0.6986016 -0.7349518 -0.3206426 1.0942281 -0.26219833 -0.7304409
-0.30709243 -0.35405755 -0.15334783 0.37971577 0.2503719 -0.27529407 0.36139145 -0.427396
-0.33030838 -0.032971147 0.46276203 -0.35279837 -0.7339983 -0.36577109 0.73816425 -0.23851176
-0.4678075 -0.67000246 0.13460267 -0.08578733 0.9013887 -0.8210222 -0.83465046 0.6380831
0.09376257 -0.6106666 0.19629477 -0.30306408 -0.7236885 0.41125226 -0.9360841 0.4703139
-1.0679225 -1.3185807 -1.4261132 -0.8118077 1.6419306 -0.89973605 -0.36649892 -0.7834548
-0.4454079 0.6125687 0.66573036 0.017747601 -0.304723 1.101502 0.81067395 -1.513256
0.61250895 0.342269 0.7792735 1.0153426 -0.4353272 -0.85661113 0.54258335 0.01759563
-0.016499104 -0.18952441 -0.13081111 -0.13932176 -1.159785 -0.8002972 -0.04667292 0.07595317
0.5789232 0.622428 0.40350536 -0.026794111 0.7936523 -0.47068825 0.057637222 0.4706062
-0.59681624 -0.5508181 -0.5067761 -0.08336734 -0.81322867 -0.16384973 -0.358153 -0.69163364
0.17566086 -0.05703139 0.6206761 -0.042469747 -0.07783328 -0.10382981 -0.04756836 0.33218238
-0.22486076 -0.5427276 -0.6096402 -0.23610896 -0.11777343 -0.34351406 0.17303018 -0.3587215
0.12125688 0.27624944 -0.07491483 -0.09374582 -0.0921687 -0.35641882 -0.30142504 1.005302
-0.12683424 -0.34926072 0.27551132 0.19740787 0.4329953 0.263207 -0.32344458 0.6010497
-0.51429373 0.5376598 -0.16829142 -0.5871393 -0.4422682 -0.12353128 1.1036996 0.21498136
-0.68226177 0.19790971 -0.28776544 0.52261496 0.08350573 0.8243934 0.8115959 -0.0019399357
-0.059241455 -0.9230753 -0.66662705 0.48124787 0.80064934 -0.34256828 -0.2829922 0.14550963
-0.19268334 0.38676187 -0.20902973 -0.4833831 -0.69051737 0.039110985 -0.9065906 0.76905334
0.07456573 0.5647097 0.5256242 -0.70213884 0.25506705 0.38147908 0.8534753 0.14314641
0.3208564 0.6200357 -0.6569706 -0.12453289 0.87590253 -0.053258326 0.7040304 -0.8913222
-0.1257382 -0.8330087 -1.0475641 -0.59361196 -0.10488286 0.44856614 -0.7029071 -0.48121375
0.68339986 0.3496503 0.13001937 0.16660602 0.28567594 0.09484354 -0.24313493 -0.14357948
-0.07480457 -0.3730761 0.21782686 -0.1454448 0.80888146 -0.8061685 0.5329669 -0.04194929
0.27253753 -0.24297994 0.090153895 0.10503524 -0.36892018 0.8638484 -0.27085868 -1.0066622
-0.07551716 -0.27194813 0.19437382 0.09214317 0.03309928 -0.13632518 -0.16215315 -0.11468659
-0.29607686 0.07507427 0.119923644 0.11796495 -0.014365876 0.11943497 -0.1742713 0.1996807
-1.449659 -1.3041743 0.9994227 -1.5094103 0.7121672 -1.1099044 0.7988445 1.613268
-2.4920483 0.23313397 -1.6977106 -1.9620757 -1.5956762 1.3078693 -1.3931317 -1.1911685

graph_prop.node_update_funcs.0.bias_ih f4 [48]
00000000: 9040 b63f bcd6 29c0 1d14 7c3f 48cc e43f
00000010: b756 bb3f f1c9 d3bf 3f82 eb3f da69 39bf
00000020: 6730 e9be fa83 f4bf 885c 9f3f beae 5dbe
00000030: 2237 9abf 1e76 e43f d587 f0bf 2b82 3b40
00000040: cfd0 26c0 0c4f 2740 2b82 0e3f 61a5 863f
00000050: c6b4 c23d 6ec4 9bbe 106f a23f 12af 7f3f
00000060: 1c89 cdbf 2423 14bf 3395 de3e ca17 10c0
00000070: 54da c13f fd13 b93f 4906 be3f 4e69 2f3e
00000080: 12f4 99be 0207 27c0 eb5d cbbe 45df e3bf
00000090: 3653 783f c289 aabf 359e a53e d64f e33f
000000a0: 0842 a9bf 8442 e4bf cb53 aebe 34b1 37c0
000000b0: e695 7abf 072e 433f 9ad7 2bc0 99cd 24c0
1.4238453 -2.6537313 0.9846819 1.7874842 1.4635838 -1.6546003 1.8399123 -0.7242714
-0.4554474 -1.9102776 1.2450113 -0.2164869 -1.2048075 1.7848547 -1.8791453 2.9298198
-2.6064947 2.6141996 0.5566737 1.051922 0.09507136 -0.304233 1.2690144 0.9987651
-1.6057467 -0.5786612 0.43473205 -2.251452 1.5144753 1.4459225 1.4845668 0.17130014
-0.30069023 -2.6098027 -0.3972009 -1.7802511 0.9700197 -1.332329 0.32347265 1.7758739
-1.3223276 -1.7832799 -0.34048304 -2.8701906 -0.97884977 0.7624211 -2.6850343 -2.5750487

graph_prop.node_update_funcs.0.bias_hh f4 [48]
00000000: 9844 ccbe 44f6 f2bf 3633 ba3e a027 643f
00000010: 8290 1340 37d6 1bbf 2a0f 803c db52 b1be
00000020: 6c0c 52bf ecc5 863f 68c9 c1be 1215 343f
00000030: fbcd 3c3f 9966 0640 e5e7 0e3f 0d2e 2840
00000040: e06e 2ac0 4615 bc3f 4fed 2b3f 51c8 fb3f
00000050: 21f3 bdbe 78f3 923e 9c2d bd3f 8543 3a40
00000060: e769 43c0 d2e7 9bbf 7652 62c0 d420 3dc0
00000070: 7ac4 b33f eb8c a13f 6d0a f63f 152f 12c0
00000080: 4c7f 4dbf eae4 09bf 566e debf 663e bfbf
00000090: 2976 2d40 1d9b 1dbe 091c 34c0 2b94 e73d
000000a0: c59a a83f 403e 89bf 52ed c73e d621 c2bf
000000b0: 130b 0ac0 4b06 b8bf e307 19bf b3cd 32c0
-0.39896083 -1.8981404 0.36367196 0.8912296 2.305695 -0.6087374 0.01563223 -0.34633526
-0.82050204 1.0529151 -0.37848973 0.7034465 0.737518 2.100012 0.5582259 2.6278107
-2.6630173 1.4693992 0.6715898 1.9670507 -0.37099555 0.28701377 1.4779544 2.910371
-3.0533388 -1.2180121 -3.536283 -2.9551287 1.4044335 1.262113 1.9221932 -2.2841237
-0.80272365 -0.5386492 -1.7377422 -1.4940917 2.710337 -0.15391202 -2.8142111 0.11307558
1.3172232 -1.0722122 0.3904825 -1.5166576 -2.156926 -1.437692 -0.5977766 -2.793805

graph_prop.node_update_funcs.1.weight_ih f4 [48, 32]
00000000: 3d16 a5bf a1d0 a4bf 0852 ac3f a9ca d0bf
00000010: a09d 1f3e ab38 bdbf 6757 e5bf 9080 b43d
00000020: 0e84 acbf 2f43 bcbf 71de 9cbe cfa3 793f
00000030: 7b9a 763f a59e 9bbf ea30 de3f dbec 2cbf
00000040: b9be 8e3e 63cb 32bf af82 b83f 96fb 8bbf
00000050: 79dd f53f 5ba2 193f 18f0 92bf 3c15 5e3f
00000060: e496 acbf 3693 abbf c87a cfbf 261d bf3f
00000070: bdee 89bf 69c8 49bd 7da8 17bf df9b c8bf
00000080: 2b74 3abe 2df6 f93d 07e2 053f 14c8 82be
00000090: eafb f8bc 8d7f 52bf 7e2a 23bf 6d87 933e
000000a0: 46ef 49be 8a87 e3bc 09fe 4a3f a7dc 5c3c
000000b0: 545e ec3e 88ad 8b3e d418 b3ba f396 e93e
000000c0: cff9 e03e d716 a73e 583d febd da49 c03e
000000d0: aff1 7bbd f5d5 83bd e1f9 f53d a6f8 9d3e
000000e0: 1aa9 d3be 9cf8 6abe e946 573e 9aa0 1bbf
000000f0: eb23 0fbf 6a1f 963e 9989 8bbe 4b0b 52be
00000100: 98dd fd3e 37c6 933e 25ba 473e 198f d03e
00000110: 26ab 86be d6aa 053f aa69 883c cedc 4bbc
00000120: a353 e93d fc76 e53e 4697 bdbd eced 86be
00000130: e344 3ebf 4fe4 0f3e f540 d9be 60b1 6e3f
00000140: 2fe1 a4be 5c43 1a3f 303c ee3d 4004 923f
00000150: 2cf0 00be 2acc cebd f1e9 593d 150d b6be
00000160: 209c f13d 6043 583d 7afa 3c3f be9c 5c3f
00000170: 38af 193f da18 cc3d b4da 603e afc9 9a3e
00000180: 3c8b 76bf a6ed da3d ecd2 2c3f cab3 69bf
00000190: 4b3e b3bf 918c 8bbf 5f87 8fbf ea6b b63f
000001a0: 0341 413f 0d13 99bf d1e2 e83f f1cc a3bf
000001b0: 52bf f53f d9a8 d0bf 817c ce3f f8c8 c33f
000001c0: 305c 703f a097 c1bf 31e6 9e3e ae09 893f
000001d0: b83f c43f 8368 523f 90b0 57bf a6e8 9f3f
000001e0: 73d6 9fbf e6dd 963f c9a7 34be 2f85 b0bf
000001f0: 9194 a03f 7c15 90bf 2254 6dbf 4eda 90bf
00000200: 254d af3b e319 eabe 56fc 2dbe beb8 2ebf
00000210: 0a0c f4be e973 74be eaa1 0cbf 0c3f 903e
00000220: ad3c a53d c530 07bf 5842 823e e09c f83e
00000230: e496 23be 0e94 113d 2cf4 97be ab8f 293f
00000240: ae79 e0be a13b 36bf 6b59 01bf 139c 46be
00000250: d3da 593f 08ea 303f 68f0 0c3f a4c1 08bf
00000260: fecd 52be 4362 6d3c e725 96be d1de 2a3e
00000270: 621b b1bc 7db4 1a3f f001 ec3e 8aa8 95bf
00000280: 35ca 55be d099 463e f7c3 01bd e62e ab3d
00000290: 8d8a 60bd ac7b 04be dc3d c3be 99bf 523e
000002a0: 5458 ffbe f2fa 03bf aa33 943e 5828 00be
000002b0: 1516 0e3f 55f9 fdbd a1aa 713e 71cd b73e
000002c0: 5d5c b8be 6d1c e3be aa41 db3e 932d 3ebe
000002d0: e435 113f c131 a03e 4709 c63e 6a34 7e3d
000002e0: 5b33 0ebf ee2b 593e 5265 68be 098c 833e
000002f0: 3a8c a33e 2366 053f 2c7c 4b3d 79fe 8bbe
00000300: 1834 313f 1ea1 393e ed0f c4be fcdb 8c3f
00000310: 0c2f ffbe 7f5c 063e cdc8 a23e ca59 43bf
00000320: 9186 0c3f e91f ee3e 39db bf3f 1ad8 10bf
00000330: c0ae 22bf b8ad 563e b699 06bf bee3 3f3f
00000340: 05b7 2abf 841f 8fbd ceb2 be3d 44be 7a3f
00000350: 0887 56be be35 1d3e 4c45 043f 9e2d 4fbf
00000360: 6d38 ef3e 05ce 693f d00c 723f f61b 87be
00000370: 0433 c53e 0a4b ae3e f694 763f 65d1 ac3e
00000380: 75ea 7fbf a9a2 923f 327e 673e 1f0f 01bf
00000390: 830a 0740 9c7c 4a3f 65c5 1fbf c92e f53e
000003a0: 6377 a9bf 7fdb 9f3f ab20 313e a612 0840
000003b0: f7f6 213e 75f7 2e3f de9b c13d 36e7 173e
000003c0: fc37 653f f509 013f 82ca cc3f 90ab 753f
000003d0: fcec a93f 5102 be3f fa0e b1bf 85ba c83f
000003e0: ce1a e63f ba08 dfbf a496 c9bf a980 abbe
000003f0: 9699 34bf d2c8 643e 5f68 16bf 99ba 85bf
-1.2897412 -1.2876168 1.3462534 -1.6311847 0.15587473 -1.4782919 -1.7917298 0.08813584
-1.34778 -1.4708003 -0.3063846 0.9751558 0.9632947 -1.215779 1.7358677 -0.6754891
0.27879885 -0.69841594 1.4414881 -1.0936153 1.9208213 0.6001336 -1.1479521 0.8675115
-1.3483548 -1.34043 -1.6209345 1.493077 -1.0775982 -0.04926339 -0.5924147 -1.5672568
-0.18208377 0.122051574 0.52298015 -0.25543272 -0.03039356 -0.8222588 -0.6373671 0.2881426
-0.19720182 -0.027774591 0.79293877 0.013480342 0.46165717 0.2728083 -0.0013664016 0.45622978
0.4394059 0.32634613 -0.12414044 0.37556344 -0.061509784 -0.064372934 0.12010551 0.30853766
-0.41339952 -0.229464 0.21023144 -0.60791934 -0.5591418 0.29320842 -0.27253416 -0.2051212
0.49583125 0.28862163 0.19504602 0.40734175 -0.2630245 0.522138 0.016651947 -0.012442781
0.113929056 0.4481734 -0.09257369 -0.26353395 -0.7432386 0.14051937 -0.4243237 0.932394
-0.3220305 0.6025903 0.116325736 1.1407547 -0.12591618 -0.10097535 0.05320162 -0.35556856
0.117973566 0.05279863 0.73819697 0.8617667 0.6003299 0.099656776 0.21958429 0.30231997
-0.96306205 0.10689859 0.6750934 -0.9128996 -1.4003385 -1.0902272 -1.1213187 1.4251683
0.75489825 -1.1958939 1.8194219 -1.2796918 1.9199011 -1.6301528 1.6131746 1.5295706
0.93890667 -1.5124397 0.31034997 1.0706079 1.5331945 0.8219072 -0.8425379 1.2492874
-1.248732 1.1786468 -0.1764213 -1.3790644 1.2545339 -1.1256557 -0.927065 -1.1316621
0.0053497725 -0.45722875 -0.1699079 -0.68250644 -0.47665435 -0.23872341 -0.5493456 0.281731
0.080682136 -0.5280879 0.2544124 0.48557186 -0.15975529 0.035541587 -0.29678476 0.66234845
-0.43842834 -0.71184736 -0.50527066 -0.19395475 0.85099524 0.69107103 0.5505433 -0.5342047
-0.20586392 0.014488759 -0.29325792 0.1668656 -0.021619502 0.60431653 0.46095228 -1.1692059
-0.20877917 0.19394612 -0.031681027 0.083585545 -0.054819632 -0.12937802 -0.38133132 0.20580901
-0.49872077 -0.5155479 0.28945667 -0.1251539 0.55502445 -0.12401072 0.23600246 0.35898927
-0.36007968 -0.44357625 0.42823535 -0.18572073 0.56722856 0.3128796 0.38678953 0.062061705
-0.5554711 0.21208164 -0.226949 0.25692776 0.31942922 0.52108973 0.049678966 -0.27342585
0.69220114 0.18127868 -0.382934 1.1004634 -0.4984058 0.13121222 0.31793824 -0.7630888
0.5489283 0.4650872 1.4988776 -0.56579745 -0.635479 0.20964706 -0.52578294 0.7495688
-0.66685516 -0.06988433 0.09311448 0.9794657 -0.20949948 0.15352532 0.5166824 -0.8092898
0.46722737 0.91329986 0.945508 -0.2638852 0.38515484 0.34041625 0.96321046 0.33753505
-0.9996713 1.145589 0.22606733 -0.504137 2.1100166 0.7909639 -0.62410575 0.47887257
-1.3239559 1.248886 0.17297618 2.1261382 0.15816866 0.6834634 0.094535574 0.14834294
0.8953855 0.5040582 1.59993 0.9596491 1.3275447 1.4844457 -1.3832695 1.5681921
1.797693 -1.7424538 -1.5749097 -0.33496597 -0.70546854 0.22342232 -0.5875301 -1.044757

graph_prop.node_update_funcs.1.weight_hh f4 [48, 16]
00000000: b53b 44bf 6c91 84bf 0f9b b2bf fb7d 4fbe
00000010: 504f ac3f 677d 3abf 13ed babf 7818 dc3f
00000020: 5fa8 1fbf d0e7 a7bf 0137 a1bf 6613 b2bf
00000030: 738f f53e c289 e23f 836a c2be aa85 87bf
00000040: 7c98 543e 3b00 e8be c003 193d e96d 3e3e
00000050: 6ce5 aa3e e2a4 e4be f898 b0bc 51a7 c2be
00000060: d94d e23e b914 43bd d3e2 6cbe 180e 5ebe
00000070: 8835 0abf c2d8 383e 0550 c43e 2f2e 71be
00000080: cb17 babd dbb5 24be 6462 01be 2361 b53d
00000090: 5856 953e 3403 b4be a36b 89bd 54a4 e43e
000000a0: cd1d 833d 7eab 1e3d 75f1 353f 854e a43e
000000b0: caf3 20be bb1f 853e 7783 ff3d 8cb2 83be
000000c0: 057c af3e 2c72 13bf 7c0a c1bf 95c4 aebf
000000d0: 0a5e 243f 4904 aebe 3e37 3fbf 7b37 f43e
000000e0: afd2 e0bd 06ae c9bf 1ffb 60bf 4ce6 31bf
000000f0: f1e7 893e dc05 bf3f a250 7ebf cb11 5cbe
00000100: 085a 0d3e f587 2e3e 6e80 d7be 6b5e 3bbf
00000110: af98 a4bd e7e8 453f d663 81bf e10b 2f3f
00000120: 17d5 883e 476a d83e f27c 07bf 1a01 28bf
00000130: a593 333f 3d33 c13e 661a 5f3f ce3c 2abe
00000140: 5167 cd3e ce27 ca3d f529 bfbc a443 033e
00000150: 9534 b33e 46c0 20be 1861 833d ec2a 0a3f
00000160: 1f96 513e 2674 54bd 1d16 15be d926 fdbc
00000170: 4367 8fbe 5f07 d73d 3c18 d13e f03d f5bd
00000180: ba17 96be 9dbd cb3d a22e 0a3f 593f 6b3f
00000190: c127 83be 307d c0be 2607 2fbe a60c 1cbd
000001a0: a3f6 cbbe 071b 6d3e 211d 523f 6e21 663f
000001b0: f57f f53e 7a57 8dbf b3ba a83e 8d80 b23e
000001c0: 4786 4d3f 6b6c 65bf 3ca4 0bbf fe76 4d3f
000001d0: b97c f43e 9204 bf3e 34d7 4ebf 8608 bb3f
000001e0: b278 5cbd 790c 1bbf 3b86 40bf 0bbb 44bf
000001f0: ad86 333f 7f02 9e3e c04d 323f c83d 1fbe
00000200: a901 54be 4811 e2be dc2c 173f e7b9 84be
00000210: 9713 05be 4396 823e 8361 603d bc03 86be
00000220: c08e aebe 0820 a23e ec35 483e 947e c93e
00000230: 8009 dabc a9e0 5abe 1502 40bf 59a8 073f
00000240: b3c5 62bf a5bf be3e 86a7 4a3f cf9f 773e
00000250: f236 9cbe da48 c9bd 7325 1c3f 267d 863d
00000260: 6d66 bdbe 744b 0f3f c725 7e3e 8711 c53e
00000270: f2aa 8dbd 896f bf3e 331e 1a3f 04c4 7a3f
00000280: 3775 61bd 9a13 893d be5b c53e 99f6 1abf
00000290: 38fd e9bd 1386 7cbf 0d92 c63f 4e86 07be
000002a0: bb7d eabd b346 e73e 88b7 a13e 5620 433f
000002b0: b215 35bf 5a7e f0bd 2214 563e 9779 453f
000002c0: 51ea 353e d4ce 443f b047 c2bd b3b1 853e
000002d0: 6f75 f23c c713 303f 037f 7fbe a1fb 0b3f
000002e0: 0242 9d3e a3ee a3be 86ab 21bf c63b 283e
000002f0: f3f4 62bf 42c1 e0be 18ea c13e 2889 bebd
00000300: 3ae3 c1bf 86ce 1bbf fe04 96bf 7ba7 e5bf
00000310: 5465 af3f 3361 0bc0 78d1 2a3d ab1b 2b3f
00000320: 6d5b edbd c957 e4bf 00a3 8ebf 1417 e9bf
00000330: a0fc 06bd 7733 993e 6b18 d2bf 0f38 d5bf
00000340: f33e 7b3e 342b 12bf 6420 33be 806f 933f
00000350: 2665 0b3f b56b 053f 3d0c 57be 9f51 aa3d
00000360: 87c6 78bf 5eab 72be 487c 04c0 2c8c 45be
00000370: ed6a 11bf 78fc 383f a4f0 073f 771b 58bf
00000380: 4572 c73f a262 fe3f 3d4f e0bf 9703 debc
00000390: 4dab 673f a133 b0bf 9d9c 6d3b 8057 7a3f
000003a0: b446 17bf 95c7 443e 51e6 9ebf 56d5 133f
000003b0: f015 813f 09d1 c7bf bb73 103c e689 92be
000003c0: 45d7 3abc 2d6b 29bd a33c 14bf 27e3 c93d
000003d0: 9594 023f bd55 423e 81e5 f73d f138 343d
000003e0: f5cd 23bf ddad 18bf 806a 203e fbd8 9bbf
000003f0: a0bb ae3d 56b0 ca3d 309f a63c 894a 2dbf
-0.76653606 -1.0356879 -1.395357 -0.20262901 1.3461704 -0.728476 -1.4603599 1.7194967
-0.6236629 -1.3117619 -1.2594911 -1.391217 0.47961006 1.769829 -0.37971887 -1.0587666
0.20761293 -0.45312676 0.037357092 0.18596615 0.3337816 -0.44657046 -0.021557316 -0.38018277
0.44200018 -0.047627185 -0.23133402 -0.21685064 -0.5398793 0.18051437 0.383423 -0.23552774
-0.090865694 -0.16084997 -0.1263519 0.08856418 0.29167438 -0.35158694 -0.06709983 0.44656622
0.064021684 0.038737766 0.7107156 0.32091156 -0.15717998 0.2600077 0.12476247 -0.25722158
0.34274307 -0.5759609 -1.5081325 -1.3653742 0.6420599 -0.33987644 -0.7469367 0.47698578
-0.10977685 -1.5756233 -0.8788318 -0.6949203 0.2693477 1.4923663 -0.99341786 -0.21491162
0.13803875 0.17044051 -0.42090172 -0.73190945 -0.080369346 0.77308506 -1.0108593 0.683775
0.26725075 0.42268583 -0.52925026 -0.6562668 0.7014716 0.37734404 0.87149656 -0.16624758
0.40117887 0.098708734 -0.023335436 0.12818772 0.35001054 -0.15698346 0.064150035 0.53971744
0.20467423 -0.05186858 -0.14559217 -0.030902313 -0.2800847 0.10499453 0.40838802 -0.11974704
-0.29314977 0.09948275 0.53977406 0.91893536 -0.25616267 -0.3759551 -0.1709257 -0.038098
-0.39836606 0.23154841 0.820757 0.8989476 0.47949186 -1.1042321 0.3295494 0.348637
0.80283016 -0.8961856 -0.54547477 0.8025969 0.47751406 0.37308174 -0.80797124 1.4611976
-0.05382604 -0.60565907 -0.7520482 -0.76847905 0.70127374 0.3086128 0.6964989 -0.15550911
-0.20703758 -0.4415381 0.59052825 -0.25923082 -0.12995754 0.25505266 0.054780494 -0.26174724
-0.34093285 0.31665063 0.1955182 0.39354384 -0.026615858 -0.21374764 -0.75003177 0.52991253
-0.88582915 0.37255588 0.7916187 0.24182056 -0.3051067 -0.098283485 0.6099464 0.06566839
-0.36992207 0.5597451 0.24819098 0.38489935 -0.06917371 0.37389782 0.6020233 0.97955346
-0.055043425 0.06693192 0.38546556 -0.6053253 -0.11425251 -0.9864208 1.5513321 -0.13234827
-0.114497624 0.45171127 0.31585336 0.76221216 -0.7073623 -0.1174285 0.20906118 0.77138656
0.17765166 0.76878095 -0.094863296 0.26112136 0.029597012 0.6878018 -0.24950795 0.5468083
0.30714422 -0.32018003 -0.6315235 0.16429052 -0.8865501 -0.43897444 0.37873912 -0.09303504
-1.5147469 -0.60862005 -1.1720273 -1.7941736 1.3702798 -2.1778076 0.04170367 0.6683909
-0.11589704 -1.783929 -1.1143494 -1.8210168 -0.032955766 0.29922077 -1.6413702 -1.6657733
0.24535732 -0.5709717 -0.17492825 1.1518402 0.54451215 0.5211747 -0.21000762 0.08316349
-0.9717793 -0.23698184 -2.0700855 -0.19291753 -0.5680378 0.72260237 0.53101563 -0.8441691
1.5581747 1.987385 -1.7524182 -0.027101321 0.9049576 -1.3765756 0.003625668 0.97789764
-0.5909226 0.1921676 -1.2414037 0.577474 1.008482 -1.5610667 0.008816655 -0.28620833
-0.011403863 -0.041361976 -0.57905024 0.09857779 0.5100797 0.18978019 0.12104321 0.043999616
-0.6398614 -0.59640294 0.15665627 -1.2175592 0.085318804 0.09896915 0.020339578 -0.67691857

graph_prop.node_update_funcs.1.bias_ih f4 [48]
00000000: 9126 873f 96b5 693f 19ac 2fc0 25e6 0d40
00000010: c370 9fbf 2759 bdbd d8ea ecbf cf64 ec3f
00000020: edde 70bd ed44 1cc0 74b4 4a3f b54b 86be
00000030: b92d 0f3f 4f16 7abf 483a 1fbe 2f3e ad3f
00000040: 6b1f 00bf ef8c 87bf f93b a9be 91a0 edbe
00000050: 223f 5ebf 1837 98be d3bd e2bf 210c 3bbf
00000060: 75bb 553f 4697 b1bf cc43 33bf af7f 8a3f
00000070: bf05 933f e0a4 0ebe db96 f8bf cbf4 0840
00000080: 920a 8cbf 5842 a93e 4458 abbf 897d 45c0
00000090: 45a5 c33f f510 68be f492 273f 191d 76be
000000a0: cb59 e83f 7b33 953d 4bd8 54bf 707f b1bf
000000b0: dc32 2cc0 e18c 763f 4ca7 ed3e 1001 15c0
1.0558645 0.91292703 -2.744879 2.217172 -1.2456287 -0.0924552 -1.8509169 1.8468264
-0.05880635 -2.441707 0.791816 -0.26229635 0.5592914 -0.9769029 -0.15549576 1.3534602
-0.5004794 -1.0589885 -0.33053568 -0.46411565 -0.86815083 -0.29729533 -1.771418 -0.7306538
0.8348916 -1.387429 -0.70025325 1.0820216 1.1486129 -0.13930082 -1.9421037 2.139941
-1.0940726 0.3305843 -1.3386312 -3.085787 1.5284811 -0.22662719 0.6545861 -0.24034537
1.8152403 0.0728521 -0.83142537 -1.3867016 -2.6906042 0.96308714 0.464167 -2.3281898

graph_prop.node_update_funcs.1.bias_hh f4 [48]
00000000: fab0 963f 2418 843f 5e88 ef3e 9941 f93f
00000010: 4f6c 4abf 3b09 bd3f ac70 333f eb10 21bf
00000020: ede4 a7bf 4dd3 cebf aefb 393f 88ad 7f3f
00000030: 3479 173f 2508 e03f 2618 b33f f878 873f
00000040: 9c88 91bf b171 dfbf 0472 423f fc1f af3f
00000050: 1a94 3fc0 cadb 743f f2b6 0bc0 ed32 01c0
00000060: 3e6d 2bc0 7a30 c3bf b7a2 c43f eca2 79bd
00000070: 30e2 2140 e6b3 20bf 13ce 03c0 fda3 a03f
00000080: de6c a6bf a1a6 47bf 91f5 4dbf 4364 27c0
00000090: ee67 663f 6af4 af3f 4d50 913e a476 2b40
000000a0: 2ccf 32bd 2d83 9c3f 561b 76be 4195 ddbf
000000b0: 2c25 16c0 b186 853f 41ab 13c0 997a 88bf
1.1772759 1.0319867 0.46783727 1.9473144 -0.79071516 1.4768442 0.700938 -0.6291644
-1.3116738 -1.6158234 0.7264966 0.9987416 0.59169316 1.7502486 1.3991745 1.0583792
-1.1369815 -1.7456571 0.75955224 1.3681636 -2.9934144 0.9564787 -2.183041 -2.0187333
-2.6785426 -1.5249169 1.5362157 -0.06094639 2.5294304 -0.62774503 -2.0594528 1.2550045
-1.3001974 -0.7798863 -0.8045283 -2.6154945 0.90002334 1.3746464 0.28381577 2.6791162
-0.043654606 1.2227532 -0.24033865 -1.7311174 -2.3460188 1.043173 -2.3073275 -1.0662414
