housingpipeline/housingpipeline/dgmg/restarts/chocolate_shape_980.pth (torch, 297529 bytes, 42 tensors)

graph_embed.node_gating.0.weight f4 [1, 16]
000000 d9 77 bf 3f d0 5d 9d 40 86 81 e5 bf 70 ab 9c 40
       1.495845 4.9177017 -1.7930152 4.8959274
000010 cc bb 05 c0 db 3b 8d 40 ce 76 bb bf 46 50 1c c0
       -2.0895872 4.4135566 -1.4645631 -2.4423995
000020 c6 d4 68 c0 4a 29 92 c0 18 76 8d 40 61 92 40 40
       -3.6379867 -4.56754 4.4206657 3.0089343
000030 51 c2 b0 3f c2 4e 25 c0 2c 30 a0 3f fa 08 d7 3f
       1.3809301 -2.582932 1.2514701 1.6799614

graph_embed.node_to_graph.weight f4 [32, 16]
000000 fe bb 0c c0 66 db 89 bf 81 98 cb 3f 29 7d f0 3f
       -2.1989741 -1.077008 1.5905915 1.8788196
000010 d9 a5 bf 3f 94 61 ea 3f 6a 25 1c 40 f2 dd c8 3f
       1.4972488 1.8311028 2.4397836 1.5692732
000020 8e 06 09 c0 95 5b 10 c0 16 c7 4d 40 a9 65 af bf
       -2.141025 -2.2555897 3.2152762 -1.3702899
000030 53 42 d5 bf f3 9a cd 3f a9 e0 2e c0 e9 79 f1 bf
       -1.6660866 1.6062912 -2.7324622 -1.8865329
000040 e1 63 51 3a 65 78 4f be 3a d3 7e bf 50 87 1a bf
       0.00079876004 -0.2026077 -0.99541056 -0.6036272
000050 05 49 ba 3e f3 f5 06 3f 81 0e d0 be 2a e1 73 3e
       0.36383834 0.5271904 -0.40636066 0.23816362
000060 80 a4 57 3e 5c 98 0a 3f 19 09 64 be 79 2c 1c 3f
       0.21058846 0.5413873 -0.22269095 0.6100536
000070 f4 68 b8 3e c0 6c 88 3f 07 ed 41 3e 4e 17 07 bf
       0.36017573 1.0658188 0.18938075 -0.52769935
000080 72 ef a6 3f fa 19 e0 3f 99 05 81 3e 13 b3 0f 40
       1.3041823 1.7507927 0.25199583 2.2453048
000090 8a 3c 80 bf 98 3a 4f be c7 36 df 3e ec af bf be
       -1.0018475 -0.20237195 0.4359648 -0.37438905
0000a0 f9 48 e8 3e fb ce b1 bf 72 ad 41 3c d4 ea 14 3f
       0.45368174 -1.389129 0.011821138 0.5817082
0000b0 ff c7 12 bf 98 5d 9a bf bf 7e f1 3f 1e a9 2f 3f
       -0.5733642 -1.2059813 1.8866805 0.6861743
0000c0 bd 78 9e 3f 11 27 6b 3f 4d 18 b8 bf e2 72 90 bf
       1.2380596 0.91856486 -1.4382416 -1.128506
0000d0 ec 50 20 bf 33 53 b7 be 90 27 c3 bf dd 7b 02 c0
       -0.62623477 -0.35805663 -1.5246449 -2.03881
0000e0 ea 30 ee 3f fd 71 be 3e 93 15 3e 3b 49 3a 10 3f
       1.8608677 0.3719634 0.0029004558 0.56338936
0000f0 29 f8 de 3f a4 fc e8 bf b2 6e 42 3f 1e d2 99 3f
       1.7419482 -1.82021 0.7595016 1.2017248
000100 79 3d 0e c0 69 76 c9 bf 9e f1 14 40 e7 3e 75 3f
       -2.222502 -1.5739261 2.3272471 0.95799106
000110 2c 24 cf 3f 65 42 b4 bf 65 b8 02 40 a7 a6 1c 40
       1.6182914 -1.4082762 2.0425045 2.4476717
000120 8e f2 e4 bf 72 0e 7c be 23 43 dc 3e bf 0b 23 c0
       -1.7886522 -0.24614885 0.4301997 -2.547592
000130 41 2a 1d c0 1f 4f bb 3f 9e 56 e4 bf 1f 9a ed bf
       -2.455704 1.4633521 -1.7838933 -1.8562659
000140 fb 23 a0 bd 4a b4 82 be ba 33 83 3f fe d4 35 3f
       -0.07819363 -0.25528175 1.0250161 0.71028125
000150 e1 45 5a 3e 80 79 99 bf bd 30 bf 3f 58 d9 d5 3f
       0.21315719 -1.1990204 1.4936749 1.6706953
000160 0b ae 82 bf e1 0b 0b bf 58 d8 08 be 4e 4a 59 bf
       -1.0209364 -0.54315 -0.13363779 -0.84879005
000170 01 57 aa bf fe 80 d1 3d b2 7f e1 bc 3b 82 be be
       -1.3307801 0.102296814 -0.02752671 -0.37208733
000180 d6 9e 40 c0 fb 94 23 c0 77 a3 68 3f 71 d8 98 3d
       -3.0096946 -2.555968 0.9087443 0.07463158
000190 9c fe 1f 40 a1 64 f9 3e 15 4f 08 40 a0 64 a7 3f
       2.4999151 0.48709586 2.1298268 1.3077583
0001a0 ed 46 9d bf c5 c4 86 3f 99 46 9d 3f 6d dd a2 bf
       -1.228727 1.0528799 1.228717 -1.2723824
0001b0 3a 06 db bf 79 95 1c 40 ac bd 40 c0 55 24 25 c0
       -1.7111275 2.446623 -3.0115767 -2.5803425
0001c0 91 c8 b6 bc 25 f2 ad 3f 8a a0 c6 3f fc ff 49 40
       -0.022312434 1.3589522 1.5517743 3.156249
0001d0 3c b9 82 3e 5f 03 e9 3f 1a 43 e8 3f 77 95 a6 3f
       0.25531948 1.8204154 1.8145478 1.3014363
0001e0 93 41 36 c0 29 e4 81 c0 bf e8 2d 40 d5 01 0f bd
       -2.8477523 -4.0591016 2.7173307 -0.034913857
0001f0 2f 79 9a bf ec f0 8c 3d 82 ab 14 bf 5d 0b 46 bf
       -1.2068232 0.0688189 -0.580742 -0.7736109
000200 27 76 13 3e e1 ab 54 bf b6 b1 d3 be a7 8a fe bf
       0.1440054 -0.83074766 -0.4134652 -1.9886063
000210 99 2d 2b 3e 34 d1 5c bf 79 97 84 bf 4c 92 7c bf
       0.16716613 -0.8625672 -1.0358726 -0.9866073
000220 94 9a 0e 40 a6 04 18 40 c5 ea 26 bf 15 28 fd be
       2.2281847 2.3752837 -0.6520198 -0.49444643
000230 8c f7 68 3f d6 5c 90 3e b4 73 0c 3e 1f 26 60 3f
       0.91002727 0.28195828 0.13716012 0.8755817
000240 95 76 d7 3f ef a7 b2 3f ed 0d d6 bf 3d 51 19 c0
       1.6833063 1.3957499 -1.6723 -2.3955834
000250 46 c9 b7 bf c7 74 04 bf 57 66 01 c0 5a 29 71 bf
       -1.4358299 -0.5174069 -2.0218713 -0.9420372
000260 0a 92 df 3f c4 dc c2 3f 4f 4a 30 c0 e0 61 e0 3f
       1.7466443 1.5223622 -2.7545354 1.7529869
000270 b0 5d dd 3f d2 c4 0b bf 0e e6 e4 3f 86 97 81 3f
       1.7294216 -0.545972 1.7882707 1.0124366
000280 ea 45 1a 40 b8 37 18 40 84 28 a8 bf 70 01 ca bf
       2.4105172 2.3784008 -1.3137364 -1.5781689
000290 df 57 25 c0 b1 a4 a6 bf 21 6f 0f c0 7b e2 62 bf
       -2.5834882 -1.301901 -2.2411578 -0.8862683
0002a0 02 d2 32 40 f5 b0 5f 3f aa b5 2d c0 a2 1c a4 3f
       2.7940679 0.8737939 -2.714213 1.2821238
0002b0 4a 45 f8 3f d4 a0 08 c0 fc 64 14 40 73 25 06 40
       1.9396145 -2.1348162 2.3186636 2.0960357
0002c0 b2 0b 3a 3e f3 f0 29 be 30 04 02 c0 d1 c8 2c c0
       0.18168524 -0.16595821 -2.0315056 -2.6997569
0002d0 34 e0 a7 be b3 dd 45 be 58 c4 16 c0 5d ea 00 c0
       -0.3278824 -0.19322853 -2.3557339 -2.0143044
0002e0 08 ed f4 3f 54 12 31 40 fc e2 f8 bf a4 74 1a 40
       1.9134836 2.7667437 -1.944427 2.4133692
0002f0 0f 47 00 40 87 81 23 be 5d 3c ab 3f a2 55 a8 3f
       2.004337 -0.1596738 1.3377796 1.3151133
000300 0d 3d 38 c0 2b f5 48 c0 2a 3d 09 40 54 2a a8 3f
       -2.8787262 -3.1399639 2.1443582 1.3137918
000310 6f b0 3d 40 09 ae 9d 3f 23 c3 1e 40 e7 15 e9 3f
       2.9638937 1.2318736 2.4806602 1.8209809
000320 51 3f 10 c0 db c6 80 3f 8f e6 ff 3f 8b bd 18 c0
       -2.2538645 1.0060686 1.9992236 -2.3865688
000330 83 74 2e c0 25 d7 4e 40 fb d8 42 c0 cd 02 45 c0
       -2.7258613 3.2318814 -3.0444934 -3.078296
000340 27 f5 f4 3e 30 16 40 bf ca 00 06 c0 4f 2a 43 c0
       0.47843286 -0.75033855 -2.0937982 -3.0494573
000350 e8 21 bd be 93 05 18 bf 0f 1d e7 bf cc 09 90 bf
       -0.3693993 -0.59383506 -1.8055743 -1.125299
000360 56 24 23 40 6c a5 0e 40 9a 37 f9 bf bd fd 83 3f
       2.5490928 2.2288465 -1.9470093 1.031181
000370 2f 0a d4 3f a7 47 2e be a9 ae 24 3f 33 5c a0 3f
       1.6565608 -0.1701952 0.6432901 1.2528137
000380 9b b1 57 3f d9 21 5f 3f 23 37 a9 bf 4f 6f 8c be
       0.8425538 0.8716102 -1.3219951 -0.27428672
000390 08 37 33 bf 05 d3 12 3f c4 f3 ec bf 30 e7 ff bf
       -0.70005846 0.5735324 -1.8511891 -1.9992428
0003a0 2b e6 80 3f 1c 63 05 3e 64 67 09 3f 21 fd 8b 3f
       1.0070242 0.13026088 0.53673387 1.0936624
0003b0 1d a5 dd 3f 1e 6f 98 bf 20 92 a6 3e 13 3f c5 3f
       1.7316014 -1.190891 0.3253336 1.5409874
0003c0 d7 d9 4e 3e 94 1e 84 be 9e 1f 9a 3e 3a 3a b4 be
       0.20200287 -0.2580458 0.30102247 -0.35200673
0003d0 5b 7d 4d 3e aa c5 e1 be 89 1d fa 3e 95 7f 1a 3f
       0.2006735 -0.44096118 0.4885066 0.60350925
0003e0 0f 9b f2 be fa 26 c3 3e d2 32 00 bf 55 44 71 bf
       -0.47383925 0.38115674 -0.50077546 -0.9424489
0003f0 18 5a b6 be 85 a5 0c be ea b5 b7 be e0 cb 89 3e
       -0.3561561 -0.13735016 -0.35880977 0.26913357

graph_embed.node_to_graph.bias f4 [32]
000000 53 3c 09 40 db 00 65 3e 99 e3 e5 3e 1d 2e ac be
       2.144307 0.22363608 0.44900206 -0.33628932
000010 f0 10 d4 3f 31 54 da 3f d1 04 63 bf 6e d5 e9 bf
       1.6567669 1.7056943 -0.88679224 -1.8268259
000020 36 82 03 c0 0a a9 68 bf fb e9 83 bf 89 60 f4 3e
       -2.0548224 -0.90882933 -1.030578 0.477299
000030 85 1a 70 bf c7 04 55 be ff 79 8d bf ac c3 fe 3f
       -0.93790466 -0.20802604 -1.1052855 1.9903464
000040 f5 36 13 c0 e6 f9 a4 bc f4 28 07 bf b5 5d 4c 40
       -2.3002293 -0.020138692 -0.52796865 3.1932194
000050 22 6c 05 bf 61 56 c9 bf 65 69 0c c0 ae 9e d7 3e
       -0.5211812 -1.5729486 -2.1939328 0.4211325
000060 86 60 03 3e 5f 69 a6 3e de ab 79 bf 27 52 67 3f
       0.1282979 0.32502267 -0.97527874 0.9035973
000070 94 05 3e 3f 9d 34 8f 3f b4 5c f4 3e 33 7f 82 3f
       0.7422726 1.1187931 0.47726977 1.0195068

graph_prop.message_funcs.0.weight f4 [32, 34]
000000 6a fd c1 bf 6b 56 1e 3f 2b f2 bf 3f e3 74 55 3f
       -1.5155461 0.61850613 1.4995779 0.8338148
000010 61 04 10 3e ce 65 74 be 12 fa a3 be c1 49 e2 3f
       0.1406417 -0.2386696 -0.32026726 1.7678758
000020 8f f8 5c 3e 97 fc 22 bf 4e 2c 3f 3f a2 87 84 bf
       0.21579193 -0.6366667 0.7467698 -1.0353892
000030 40 43 a4 3e 04 02 a2 3d b4 2e 5d 3f bf a4 eb be
       0.32082558 0.07910541 0.8639939 -0.4602413
000040 c4 47 93 3f 03 c0 4c 3f 0b c5 69 3f 41 8b 41 3d
       1.1506276 0.79980487 0.9131629 0.047251943
000050 3a f7 38 bf 66 84 d8 bd e0 7a 4c 3f 96 43 72 bf
       -0.7225224 -0.10572128 0.7987499 -0.9463438
000060 9b 57 36 3e 15 e6 2c bf f9 c9 47 3f 7a 6f dc 3e
       0.17806856 -0.6753858 0.7804256 0.430538
000070 d0 2d 66 bd 14 fc 25 bf 10 e1 52 3e aa 7c 09 bf
       -0.056196034 -0.64837766 0.20593667 -0.5370585
000080 58 9b 10 40 10 9b 59 3e 7c c2 98 bf 82 02 45 3e
       2.2594814 0.21250558 -1.1934352 0.19239238
000090 f7 81 19 3d 4d 5a 9d 3f 10 f5 af be ac 03 0b 3f
       0.03747746 1.2293183 -0.34366655 0.5430248
0000a0 d1 de 53 3f 80 de 1f 3f c2 a9 78 bf fa 59 4c 3f
       0.82761866 0.62448883 -0.9713403 0.79824793
0000b0 8d 11 df be 5a 5f 2e bf 9b c9 5e bf 98 d1 a4 3f
       -0.43568078 -0.68114245 -0.87026376 1.2876463
0000c0 af 55 b6 bf 7a 32 cf be 36 b1 c9 3e fa 31 9a 3f
       -1.4244899 -0.40468198 0.39393014 1.2046502
0000d0 28 f9 ab 3e 45 6a bb 3f f4 f0 79 bf 71 e6 93 bf
       0.3358853 1.4641806 -0.9763329 -1.15547
0000e0 5d b3 b6 bd 12 d9 80 3e 3b de 1a bf 30 6b de be
       -0.089209296 0.25165612 -0.60495347 -0.43441153
0000f0 dd 1c 47 bf 9b 81 77 3f 87 de c3 bf 50 6a 39 bd
       -0.77778417 0.9668214 -1.5302285 -0.045267403
000100 1e be 50 bf 67 f3 03 3e 0b 5e 95 bf 4e 45 23 bf
       -0.81540096 0.1288582 -1.1669325 -0.63777626
000110 5c 08 4f 3f 28 50 d8 3f 4b 7b 00 c0 9a 81 74 3f
       0.8087213 1.6899462 -2.0075252 0.95510256
000120 52 e1 04 c0 74 d7 89 3f cd 22 49 bd b4 ab 27 bf
       -2.0762525 1.0768876 -0.049105454 -0.65496373
000130 f9 e6 cc bf e8 8f e3 bf 4d 5d 96 3f 7c b9 0b 40
       -1.6007987 -1.7778292 1.1747223 2.183196
000140 7c 32 1c bf da a7 81 bf c7 fe 8b bf 60 45 58 3f
       -0.61014533 -1.0129349 -1.0937127 0.8448086
000150 d3 03 4c 3f ef 31 e4 3f 4e a7 15 3f cc 05 0b 40
       0.79693335 1.7827739 0.5845841 2.1722288
000160 7b bf bb bf 04 c5 a7 3f f3 ac 9d 3f ee 4a 65 bf
       -1.466781 1.3106999 1.2318405 -0.8956746
000170 01 68 73 3f e7 74 32 c0 f0 52 ea 3f 97 79 de 3f
       0.9508057 -2.7883852 1.830656 1.7380856
000180 0b 24 54 bf d9 ed 65 bf 5c 96 72 3e 2a e1 0a 3f
       -0.828675 -0.8981605 0.2369017 0.54249823
000190 b7 b4 60 3f 8b db 2a c0 2c c1 85 3e 42 f3 97 bf
       0.8777575 -2.6696498 0.2612394 -1.1871111
0001a0 1c f8 ac 3f ae c6 9c bf cf 50 02 40 f8 c3 bb be
       1.3513217 -1.2248132 2.0361822 -0.3667295
0001b0 2b 23 89 3f 90 c5 4e bf 5a 17 fa 3f 7f 7d 1d 40
       1.0713857 -0.80770206 1.9538376 2.4607847
0001c0 47 f4 bc bf db 13 3a bf 33 a1 cb 3e cf 9c 82 3f
       -1.4762048 -0.7268655 0.39771423 1.0204104
0001d0 ca 93 1b 3f e5 0d b2 be c0 69 27 c0 32 76 09 c0
       0.60772383 -0.34776226 -2.6158295 -2.147839
0001e0 69 88 0e bf 51 86 e2 bf d6 3f ca 3f 15 f6 7e bf
       -0.55676895 -1.769724 1.5800731 -0.9959424
0001f0 f3 28 a2 bf ee 1d be 3f ea ca 98 bf 07 b1 1f 40
       -1.2668747 1.4852884 -1.1936924 2.49518
000200 91 87 f9 bf 05 a6 0c c0 4b bd e6 be 9d ad 7b 3f
       -1.9494497 -2.197633 -0.45066294 0.9831179
000210 54 f4 f9 bf ab b0 02 bf 09 2c ab bd 0a d0 fb 3e
       -1.9527688 -0.51050824 -0.083580084 0.4918216
000220 de 1b d1 be 6c c2 e8 3d e5 27 0a 3f 4d 64 82 3f
       -0.40841573 0.11365208 0.53967124 1.0186859
000230 e7 f7 d9 3e ba af 99 bb a6 97 80 be 41 a5 f4 bd
       0.42571947 -0.0046901377 -0.251157 -0.11945582
000240 75 51 39 3f 22 b3 18 bf 31 88 ed 3e 75 57 3a 3f
       0.7238992 -0.59648335 0.46392968 0.727897
000250 53 60 27 3f f6 bc 4c bf 0d 40 5d 3f 9f e5 ba be
       0.65381354 -0.7997583 0.8642586 -0.36503312
000260 82 1a 62 3f 05 54 d6 be 6d e1 56 bc eb 27 b6 be
       0.883217 -0.41860977 -0.013115269 -0.3557733
000270 08 66 16 3d 63 4f b6 be 66 77 6b bf 0d de 58 3e
       0.0367184 -0.35607442 -0.9197906 0.21178456
000280 ee 33 97 bf bf 25 06 3f 88 c1 80 bf c2 8c c5 be
       -1.1812723 0.52401346 -1.0059061 -0.38583952
000290 4d b3 1d bc 55 44 b5 3e 53 16 0a bf 1d 87 38 bf
       -0.009625268 0.35403696 -0.53940314 -0.72081167
0002a0 e4 1b 9f 3f 86 92 e0 bf a4 02 c4 be fb 5b c8 3e
       1.2430387 -1.7544715 -0.38283265 0.39132676
0002b0 e0 0b a4 3f 61 d0 84 bf c7 ee 9a 3f 12 56 6e 3f
       1.2816124 -1.0376092 1.2104119 0.9310008
0002c0 b8 2d 6c 3f ce 03 88 bf dc 73 a7 3f 8d 09 5b 3f
       0.9225726 -1.0626161 1.3082232 0.8556145
0002d0 fd 87 3a be f8 4a cf 3e 30 55 11 3f 82 dc ea bd
       -0.18215938 0.40486884 0.5677061 -0.1146784
0002e0 13 a4 1a 3e d4 6b 8b bf d5 9c 57 be a2 ff d7 be
       0.15101652 -1.0892282 -0.2105592 -0.4218722
0002f0 9b 6d 28 bf 17 60 6a be af 27 43 3f 89 c5 a1 3f
       -0.65792245 -0.22888218 0.7623243 1.2638408
000300 30 c1 09 3f f6 43 a8 bf 19 07 8a 3f 45 c2 54 be
       0.53810406 -1.314574 1.0783416 -0.20777233
000310 95 48 82 3f c0 cd e9 be e1 a9 9c bb 9b 02 09 3e
       1.01784 -0.45664787 -0.0047809933 0.133799
000320 bf c3 2e 3d 4e c6 b5 3f 8f d5 a4 bf a2 5c 47 3f
       0.042667147 1.4201143 -1.2877673 0.7787572
000330 58 22 46 3d 36 02 16 3f 37 a8 d9 bf ca 19 1e 3e
       0.048372597 0.58597124 -1.700446 0.15439525
000340 cb cc 6b be cb 71 91 3f 7f 67 89 3e 61 b6 13 bf
       -0.23027341 1.1362852 0.26836774 -0.57700163
000350 96 1a 83 bf 9d 6e cc bf 3b a1 e8 3f 73 87 bc 3f
       -1.0242488 -1.5971256 1.8174204 1.4728836
000360 4c a6 d4 be 0e 85 33 bf 5b 19 0f bf 9a e3 46 bc
       -0.41533124 -0.701249 -0.55898064 -0.012139225
000370 f0 ba 54 3f 00 89 89 3f 8f 04 6a bf 92 2f a5 3f
       0.83097744 1.0744934 -0.91413206 1.2905142
000380 43 96 04 bf a8 f2 94 3f 39 f2 ce 3e 28 23 22 c0
       -0.5179178 1.1636553 0.40419176 -2.5333958
000390 02 3e 5c 3f 80 db d2 bf 8b 45 24 40 99 8d d7 3f
       0.86032116 -1.6473236 2.5667446 1.6840087
0003a0 31 4d 33 3f b4 f4 a4 3e 72 d4 c2 3e 25 c6 a0 3f
       0.7003966 0.32217944 0.38052708 1.2560469
0003b0 c8 68 17 bf 2c 2c 94 3b 01 72 66 3f 1d 2d 89 3e
       -0.5914426 0.0045218673 0.90017706 0.2679223
0003c0 25 28 01 c0 3e bb ef 3f cb 0e c2 bf ef 8a 0d 3e
       -2.0180752 1.8729017 -1.5160764 0.1382253
0003d0 d8 b3 b8 be f3 74 67 bf 3e 25 99 bf f1 32 fd be
       -0.3607471 -0.90412825 -1.196449 -0.49452928
0003e0 62 0c 73 bd 53 89 c1 3f 92 d7 42 bf 64 f4 be be
       -0.05933798 1.5120033 -0.76110184 -0.3729583
0003f0 1e f5 45 bf c4 fb 33 3f 89 14 9c 3f d4 17 47 3f
       -0.77327144 0.7030604 1.2193767 0.77770734

graph_prop.message_funcs.0.bias f4 [32]
000000 e4 c6 0a c0 67 73 b1 3f bc f4 6d c0 a9 8b 8c 40
       -2.1683893 1.3863343 -3.7180624 4.3920484
000010 6e ed 90 bf 2f 90 26 40 bb ab a3 3e c9 10 1a c0
       -1.1322458 2.6025503 0.31966957 -2.4072745
000020 4b ec 4b 40 58 bc b6 3f ce ee 07 c0 4d 8d b8 bd
       3.1862972 1.4276228 -2.1239505 -0.09011326
000030 bf 6d 46 40 44 79 00 40 77 66 4f 40 34 5c ea 3f
       3.1004484 2.0074015 3.240629 1.8309388
000040 9d aa 1b 40 66 c7 2b c0 67 83 62 c0 75 88 4b bf
       2.4322884 -2.6840453 -3.5392702 -0.7950509
000050 2a bc 01 3e 3d 68 63 40 7e 03 31 40 bc 8f 07 bf
       0.12669435 3.5532372 2.7658381 -0.52953696
000060 ba 32 ab bf 7c 9d 84 be 3c 95 b9 be 58 48 3d 3f
       -1.3374856 -0.259014 -0.3624667 0.7393851
000070 8a ad e9 3f cd 86 98 bf 60 5d d3 bf b5 cd 89 bf
       1.8256085 -1.1916138 -1.6512871 -1.0765902

graph_prop.message_funcs.1.weight f4 [32, 34]
000000 e1 ad 53 c0 64 d2 38 40 74 30 68 40 d1 ae 46 c0
       -3.3074877 2.8878412 3.6279573 -3.10442
000010 f6 9a 3b c0 d7 af 31 40 a0 dc 24 40 44 fb 47 c0
       -2.931333 2.7763574 2.575966 -3.124711
000020 48 41 ea 3e d1 e6 59 40 d7 ff 14 40 a5 57 65 40
       0.4575293 3.404713 2.3281152 3.5834744
000030 06 00 f6 3b 8c 39 d0 bf 40 a6 46 be 27 8c 4b 40
       0.007507327 -1.6267562 -0.19399357 3.1804292
000040 91 43 33 c0 46 59 3a 40 5e 78 58 40 df 20 47 bf
       -2.800999 2.9116988 3.3823466 -0.7778453
000050 74 29 18 c0 dd 1f 41 40 b1 5b 33 40 62 d1 1b c0
       -2.37753 3.0175698 2.8024714 -2.4346547
000060 a1 db f7 bd 7b c0 3c 40 dc 69 4e 40 0d c9 5f 40
       -0.12102438 2.949248 3.2252111 3.4966462
000070 f5 ff 0b 40 cf cc 3f c0 2c 23 c8 be 74 fa 20 40
       2.1874974 -2.9968755 -0.39089334 2.5152864
000080 0a 5e b2 3f 01 e2 4d c0 81 e7 d6 bf ea d3 a8 be
       1.3934948 -3.2169192 -1.6789399 -0.32974178
000090 dd d1 55 be 56 71 a7 bf 09 b9 35 3e 82 4c 3c 3e
       -0.20880838 -1.3081462 0.17746367 0.1838856
0000a0 d5 2e 0b 40 fc 2c c4 bd fc df f0 3f 80 b8 bd be
       2.1747334 -0.095788926 1.8818355 -0.37054825
0000b0 19 a1 32 bd b2 ab 17 bf f0 41 2d 3e c7 ee a5 bf
       -0.043610666 -0.5924636 0.16919684 -1.2963494
0000c0 7d 5f 09 c0 a7 4e b2 3e 2c a8 93 bf 60 56 cb bf
       -2.1464531 0.34825632 -1.1535697 -1.5885735
0000d0 78 27 28 bf 43 dc cb bf 2f 93 a6 3f c8 b1 4c 3e
       -0.65685225 -1.5926594 1.3013667 0.19989693
0000e0 f9 9a 42 40 bc ee 5e 3f d2 93 19 bd f3 47 32 bf
       3.0407088 0.8708303 -0.037494488 -0.69641036
0000f0 c9 a7 26 bf 05 67 89 bf 9f fc 85 bf b8 4b b5 3e
       -0.6509977 -1.0734564 -1.0467719 0.3540933
000100 48 9a 34 c0 fa 80 b3 be ac 9c d6 be c7 02 02 bd
       -2.8219166 -0.3505934 -0.41916406 -0.03174093
000110 5a f5 95 be a4 37 3b c0 37 f0 26 c0 5f 96 74 3e
       -0.2928875 -2.925271 -2.6084116 0.23885487
000120 ec 13 df 3f 9c 55 b8 bf be 69 5c bf e6 3a 0b 40
       1.7427955 -1.4401126 -0.8609885 2.1754699
000130 79 f8 a2 bf 76 83 11 c0 2c 54 36 c0 c7 44 2b c0
       -1.2732078 -2.2736487 -2.8488874 -2.6760728
000140 d5 4a a9 bd cb 89 5c 40 56 4a bf ba b0 10 3e c0
       -0.08266226 3.4459102 -0.0014594297 -2.9697685
000150 c2 51 88 3f 5a 38 38 c0 84 7b 09 c0 4f f1 ac bf
       1.064995 -2.8784394 -2.1481638 -1.3511142
000160 77 18 5d 3f d0 02 3e c0 27 91 82 bf e3 aa 24 40
       0.86365455 -2.9689217 -1.0200547 2.57293
000170 6d b1 b6 be dc 1f cc bf 94 f3 15 c0 78 4e 04 c0
       -0.3568224 -1.5947223 -2.3429918 -2.0672894
000180 9d d8 14 c0 6b 47 11 40 10 d2 a8 bf 22 2c 6a bd
       -2.325721 2.269984 -1.3189106 -0.057170995
000190 2d fa 4d be 4e 95 dc 3f 91 71 e6 bf 90 33 1a 3e
       -0.20114966 1.7233064 -1.8003408 0.15058732
0001a0 2b b9 11 3f 2c 3c 8e bf fe 45 d6 3e 40 ae b5 3e
       0.5692317 -1.1112113 0.41850275 0.35484505
0001b0 db 7e 89 3f 7b 9a 32 be 25 ba 89 3f e9 86 a1 3e
       1.0741838 -0.17441742 1.0759932 0.3154824
0001c0 73 9a c7 be b0 39 4d be 9c 29 fc bf 49 6f a4 bf
       -0.38985023 -0.20041537 -1.9700198 -1.2846462
0001d0 11 56 93 bf 69 15 f8 3f 4d 14 ad bf 4f b4 53 bf
       -1.151064 1.9381534 -1.352182 -0.82697004
0001e0 54 d1 6c be 01 4f 94 be b1 55 71 3f 1a 47 6d 3f
       -0.23126727 -0.28966525 0.9427138 0.9268662
0001f0 31 57 1e 40 d6 40 ec 3e ba 90 0c 3f 2f 59 82 be
       2.4740717 0.46143216 0.54908335 -0.25458667
000200 3c 36 c1 bd c0 ad 97 be c7 c6 3c bf c0 29 0a bf
       -0.094341725 -0.29624748 -0.7374081 -0.53969955
000210 bf a3 87 bf 71 04 13 be 25 dc ce 3f e9 79 12 3f
       -1.0596846 -0.14357163 1.6160933 0.5721727
000220 d9 d9 90 3f 3a f0 cd be bc 5e 8b be 00 de 7b 3f
       1.1316482 -0.4022234 -0.27220714 0.9838562
000230 9b 23 47 3f b2 9d 1d bf 51 35 e6 be b4 bd dd be
       0.77788705 -0.6156875 -0.44962552 -0.43308794
000240 ee fa e4 3d dc 0f 04 be 06 2f bc be a0 cf 62 bf
       0.111806735 -0.12896675 -0.36754626 -0.8859806
000250 a0 03 d7 bf 15 95 44 be 7c 63 9f be db cb 3b bf
       -1.6797981 -0.19197495 -0.31130588 -0.73357934
000260 5e bc c6 3f 65 bb 20 bf bc 5c 16 bf fa 4c 98 3e
       1.5526235 -0.6278594 -0.5873525 0.29746228
000270 52 1c b3 3e bb 48 19 3d e2 c0 56 bf a9 41 c2 be
       0.34982544 0.037422877 -0.83888066 -0.3794072
000280 67 4d a7 3e 1e 20 a7 be d1 5a e1 bd 78 47 91 3e
       0.3267624 -0.3264169 -0.1100365 0.2837484
000290 43 09 a7 bf ce e4 9e 3f e7 66 0e bf 9a 28 8a be
       -1.3049701 1.2413576 -0.55625767 -0.26984102
0002a0 44 e2 a0 3f a6 a6 a1 3f 9c 35 fe 3e 63 9b 90 be
       1.2569051 1.2628982 0.49650276 -0.2824355
0002b0 05 01 44 3f e8 56 d4 3e 9c 0c a4 bd d1 17 fe bd
       0.76564056 0.41472554 -0.080102175 -0.12406886
0002c0 93 b0 8d bf 9f a3 c3 be bf 87 8a be 75 f3 3f 3f
       -1.1069511 -0.3821077 -0.2705669 0.7498086
0002d0 95 64 10 bf 1c de db 3e e0 e8 36 bf a8 e4 2b bd
       -0.56403476 0.42942894 -0.7144909 -0.04196611
0002e0 d8 e1 30 3f 8e 87 a3 3e db 05 06 3e e7 d7 59 3f
       0.6909461 0.31939358 0.13088171 0.85095066
0002f0 28 39 ab be e2 2b 13 3f 42 c0 88 3e fd 83 9f 3e
       -0.33442044 0.57488835 0.2670918 0.31155387
000300 30 25 e7 bf db 9e 55 bf 4e 95 27 bf 86 73 d7 be
       -1.8058224 -0.8344552 -0.65462196 -0.42080325
000310 60 80 3f bd 64 3c a2 3e 8f 4a 83 3d 76 23 26 3f
       -0.046753287 0.316867 0.06410705 0.6489786
000320 33 7d 07 be 0e 81 23 bf 77 18 f4 3f 6a c6 a3 3e
       -0.13231353 -0.63868797 1.9069966 0.31987315
000330 a1 77 34 3f 76 75 5b bf 50 bc b5 3d 20 12 57 be
       0.7049504 -0.85726106 0.088738084 -0.21003008
000340 99 0e d4 3c 53 7c 79 3e b2 7d 72 bf 63 fb e3 3e
       0.025885867 0.24363832 -0.94723046 0.4452773
000350 6b 2e 11 bf b3 18 c2 3e 71 14 35 bf 03 74 55 be
       -0.56711453 0.3790947 -0.70734316 -0.20845036
000360 40 7f bb bd 9c ed 63 3f 9d a1 8d 3e 11 57 4f be
       -0.091551304 0.8903444 0.27662364 -0.20248057
000370 14 f0 4a 3e 89 76 44 3f a3 c0 3c be 9e 2c 07 3e
       0.19818145 0.7674337 -0.1843286 0.13200614
000380 49 41 07 be 7b d5 1a bf 92 59 03 c0 03 f1 45 3e
       -0.13208498 -0.60481995 -2.052342 0.1933022
000390 c1 b9 6f bf f0 33 9c be 1a d7 13 bf ee 0a 7a 3e
       -0.9364281 -0.30508375 -0.57750094 0.24418232
0003a0 d4 04 53 3e 7d b1 be 3e 5f 64 72 be 3e bd eb bd
       0.2060731 0.37244788 -0.23671101 -0.115107045
0003b0 49 90 80 3f 37 27 e3 3e b8 53 02 40 74 0a 2c c0
       1.0044032 0.44365856 2.0363598 -2.688138
0003c0 fc 2a 49 c0 b1 84 57 3f 91 6e 32 40 76 62 13 c0
       -3.1432486 0.84186846 2.7879984 -2.3028846
0003d0 a4 8f d8 bf f5 b7 6d 40 50 4a 04 c0 be 99 24 c0
       -1.6918836 3.7143528 -2.0670357 -2.5718837
0003e0 02 ae 2d c0 85 49 45 c0 0c ac a4 3d 9a 6c 26 40
       -2.7137456 -3.0826123 0.08040628 2.6003785
0003f0 58 59 56 bf e4 fb 19 c0 c6 2b ce 3f e4 d9 4a c0
       -0.8373008 -2.4059992 1.6107109 -3.169549

graph_prop.message_funcs.1.bias f4 [32]
000000 b7 12 69 c0 7a 3f 37 3f 2b b6 23 40 55 42 73 3c
       -3.6417673 0.7158123 2.5579937 0.014847358
000010 93 e2 05 3f 19 a7 59 3e ca 6c a0 bb 71 2f 48 40
       0.5229885 0.21255149 -0.004895781 3.1278956
000020 9f 55 28 c0 84 a3 0b 3e c6 ab d8 be 66 b7 c9 3f
       -2.630226 0.13636595 -0.42318553 1.5759094
000030 1c 0b 21 40 9d 2c bc bf 37 61 06 40 b9 11 87 bf
       2.516303 -1.4701115 2.0996835 -1.0552284
000040 a2 0c 23 40 89 43 86 3f c7 ae 63 40 40 da ec bf
       2.547646 1.048936 3.5575426 -1.8504105
000050 02 8b c9 3f 34 67 dd 3f 94 5c 5e be cf cd 4d 40
       1.5745547 1.729712 -0.21715003 3.2156866
000060 d9 bc 09 3f c4 9b 02 c0 dc d5 f9 bf 10 62 08 40
       0.53803784 -2.0407572 -1.951839 2.1309853
000070 ad 76 07 40 de 04 0e 40 ec 13 0c 40 2c eb 75 3f
       2.1166184 2.219047 2.188716 0.9606197

graph_prop.node_update_funcs.0.weight_ih f4 [48, 32]
000000 52 55 9b bf 14 a5 fc be f0 f4 2c be 49 ab e2 be
       -1.2135413 -0.49344695 -0.16890311 -0.44271305
000010 7c 37 b6 bf 54 27 00 bf 3e 22 bd 3e fa c9 c8 be
       -1.4235682 -0.5006001 0.36940187 -0.39216596
000020 82 83 ec be 85 04 39 3f 62 c3 a8 bf 22 48 06 be
       -0.46194082 0.7227252 -1.3184626 -0.13113454
000030 e7 81 2e be ad 1e 64 bd 66 b3 0e bf 3f d3 fa be
       -0.17041741 -0.055693317 -0.5574249 -0.48989293
000040 46 65 24 bf 81 e6 15 3e fb a5 86 3d 61 49 91 bd
       -0.6421703 0.14638712 0.06574627 -0.07094074
000050 b6 69 16 3e ed af a6 be 7a 82 ad be ca 23 71 bf
       0.14688763 -0.32556096 -0.33888608 -0.94195235
000060 cd 47 21 be 0a 31 1e be fd 02 d2 be 8c ed 5e bf
       -0.15750046 -0.15448394 -0.41017905 -0.8708122
000070 89 d6 b0 3e 01 fe 06 bf af 3a 01 bf 46 9d 8f be
       0.34538677 -0.5273133 -0.5048017 -0.28049678
000080 93 59 29 bf 3e 1b b6 3f 3c 22 74 bf c2 19 b5 3f
       -0.66152304 1.4227064 -0.9536474 1.4148486
000090 a3 92 2e bf 7e dd ad 3f 36 94 60 3f 99 1c 9b 3e
       -0.681925 1.3583219 0.8772615 0.30295256
0000a0 b6 52 9c 3f f6 3e 9c 3f d9 35 3d bf 4a 89 93 bf
       1.2212741 1.2206714 -0.7391029 -1.1526272
0000b0 18 6b b1 3f be 2a 35 bf ee 3d 97 3e 5d 6a ad 3f
       1.3860807 -0.70768344 0.29539436 1.3548084
0000c0 a5 91 8a 3f 5d a6 80 bf 6c 68 8f bf 6c 4a 9e 3f
       1.0825697 -1.005077 -1.1203742 1.2366462
0000d0 9d bf bf 3f 13 94 85 3f 76 c6 4b bf 5d a8 38 bf
       1.4980351 1.0435814 -0.795997 -0.721319
0000e0 e4 9c d4 bf 0c 8f 31 bf d6 7b 51 bf fe ef 75 3f
       -1.6610379 -0.693589 -0.81829584 0.96069324
0000f0 f0 53 b1 3f fa 6b 9c bf 76 bb 81 bf 21 10 70 bf
       1.3853741 -1.2220452 -1.0135334 -0.9377461
000100 a6 b6 09 3d 1f bc ef bc 96 44 84 be 91 77 c9 3e
       0.033621453 -0.029264508 -0.25833577 0.39349034
000110 9a c8 b1 be 54 7d 13 bf eb 6d d1 3e 03 57 8b bf
       -0.3472336 -0.5761311 0.40904173 -1.0885929
000120 88 dd 10 be 7e 39 0d 3f 65 3f e6 be 3a c5 06 be
       -0.14147007 0.5516585 -0.4497024 -0.13161173
000130 b2 a2 9d 3d 41 14 14 bf 6d 44 8f 3e 8b 42 50 bf
       0.07697047 -0.57843405 0.27981892 -0.81351537
000140 f1 d6 e5 3e b2 3b b7 bf a7 38 e9 bd 09 ab cc bc
       0.4489055 -1.4315093 -0.11387759 -0.0249839
000150 8a 83 1e bf 5a 24 b1 3d 30 98 34 3e f1 65 97 3e
       -0.6191946 0.08649512 0.1763618 0.29569963
000160 67 59 79 3d ea f2 1f be 57 25 d8 be 95 c0 ce bc
       0.060876276 -0.15620008 -0.42215988 -0.025238315
000170 fa 9f 82 3f f0 c1 ab bd 63 c6 d7 be 44 26 21 be
       1.0205071 -0.083866 -0.42143545 -0.15737253
000180 a0 e5 5a bf e4 d3 12 3f d6 8c 48 3d 3a 06 ef 3d
       -0.8550663 0.5735457 0.048962437 0.116711095
000190 d5 8d 24 bf ac ac 5d bf 2c d4 16 3f 1f b2 06 3d
       -0.6427892 -0.865916 0.589175 0.032884713
0001a0 84 f1 47 3f 2a 89 96 be 69 84 03 bf d5 c0 5d 3a
       0.781029 -0.29401523 -0.51373917 0.0008459215
0001b0 55 88 04 3e 6f 88 8c bf b0 dc 18 3f 8a aa be bd
       0.12942632 -1.0979136 0.5971174 -0.093098715
0001c0 bd 7f 04 3f 6c 2a 38 bf ff e1 9e bd 8e 33 5a bf
       0.51757413 -0.7193973 -0.07757949 -0.85234916
0001d0 d3 ec 08 3e c7 55 61 be cc a9 7c 3e d0 09 59 3e
       0.13371591 -0.22005378 0.24674147 0.2119515
0001e0 02 5b 18 3d a9 68 91 bd a1 d9 9b bf 3f 4d fc bd
       0.037196167 -0.071000405 -1.217579 -0.12319421
0001f0 dd f3 fa 3e 09 0b 8c bf 58 2c e2 3e ce 08 b4 bf
       0.49014178 -1.0940868 0.44174457 -1.4065187
000200 20 b1 bf bf c0 d7 e7 be 65 64 92 bf 1f 4c ac 3f
       -1.4975929 -0.45281792 -1.1436888 1.346073
000210 d7 a9 09 c0 da 68 1c be 74 17 c2 bf a6 3c bf bf
       -2.1509912 -0.15274373 -1.5163407 -1.4940383
000220 85 0f 1d 3f cf 71 4b 3f 65 5f a9 bf 06 b3 ce bf
       0.61351806 0.79470533 -1.3232237 -1.6148384
000230 a4 86 8b 3f 47 fa ab bf f8 a3 55 3f f9 a9 d8 3d
       1.0900464 -1.3435754 0.8345332 0.10579295
000240 fe ec 5d 3f 5b 94 85 be 70 cd 84 bf b9 09 f4 bf
       0.86689746 -0.2608975 -1.0375195 -1.9065467
000250 66 38 8b 3e 47 80 89 3f bc 4a a0 3f 4b 7c 94 bf
       0.27191466 1.0742272 1.2522807 -1.1600431
000260 34 68 50 3e 03 1d 2e bf 85 f8 0a 3d 8e 30 bb bf
       0.2035225 -0.6801302 0.033928413 -1.4624193
000270 79 54 32 3e 2f d2 a5 bf 3f 8a d2 3f 62 f4 97 bf
       0.17415036 -1.2954768 1.6448439 -1.1871455
000280 ce 2d b1 3d 75 08 9e 3e 0d b3 f3 3b 04 92 94 3e
       0.08651315 0.30865827 0.007437116 0.2901765
000290 3f dc 42 be 48 3c 40 3f fb 2b 71 3f ab e5 bf 3e
       -0.1902933 0.7509198 0.94207734 0.3747991
0002a0 61 b7 3b 3f 9a b6 29 3f ae 4d 64 3e 50 5a 5f 3f
       0.7332669 0.6629425 0.22295257 0.8724718
0002b0 bf 1f 23 3f d4 2f 0b 3f ec 05 45 3e b3 f8 14 3f
       0.63720316 0.54369855 0.1924054 0.58191985
0002c0 49 5d 2c 3f 8c 11 96 3f 81 67 e9 bd 90 d8 2d bc
       0.6732984 1.1724105 -0.11396695 -0.010610715
0002d0 fb 45 bf 3e 1b 82 98 3e dd 60 d6 3e 25 71 94 3f
       0.37358078 0.29786763 0.41870776 1.1597029
0002e0 8a f6 eb 3e 14 59 81 be c3 e7 d8 3c 84 fc d1 3e
       0.46086532 -0.25263274 0.0264777 0.41012967
0002f0 e5 71 99 3e e2 63 5e 3f 14 5f a9 3e b2 85 1f 3e
       0.29969707 0.8687116 0.3308035 0.15578344
000300 13 7d d0 be ee 6e 4c 3f f2 1b cd be 4f 2d 82 3f
       -0.40720424 0.79856765 -0.40060383 1.0170077
000310 44 63 a7 bf 0f 6f 04 bf 92 ea 07 bf 99 72 25 bf
       -1.3077168 -0.5173196 -0.530923 -0.6462799
000320 b0 14 5a 3f 94 c8 30 bd e9 41 95 be 63 55 89 be
       0.85187817 -0.043160036 -0.29151848 -0.26822957
000330 52 b0 10 3f 23 25 59 bf 5a f6 9b 3f a7 7d d8 be
       0.56519043 -0.8482229 1.2184556 -0.42283365
000340 0d 43 e7 3e db 54 18 bf 8c 5a a0 be a5 3f f6 bd
       0.45168343 -0.5950448 -0.31319082 -0.12023858
000350 be ef db 3e ea 47 6c 3f ee b3 c5 3f 80 6f 00 3d
       0.42956346 0.9229723 1.5445535 0.031356335
000360 dc 2a 43 be 54 4a 98 3e 9f 10 51 be f3 73 91 3e
       -0.19059318 0.29744208 -0.20416497 0.28408775
000370 91 70 7b 3f 0d 50 3b bf 08 67 0a 3e dd 94 22 bf
       0.9821864 -0.7316902 0.13515866 -0.635084
000380 65 2a 23 3e b4 9e 76 be 18 52 e1 bd 09 02 1c be
       0.15934141 -0.24083978 -0.11001986 -0.15235151
000390 fd f5 45 bd 4d 41 e5 be a4 da ab bc 8b 1b 41 3d
       -0.048330296 -0.44776383 -0.02097828 0.047145408
0003a0 34 35 84 bf fb 05 1e bf 29 bd 2a 3f 4e 0e 87 bd
       -1.0328736 -0.61727875 0.66694885 -0.06594525
0003b0 ec a0 2e bf ec 82 ee 3d a5 9b d9 be 05 4a 0b bf
       -0.682143 0.11646065 -0.4250156 -0.5440982
0003c0 49 38 4b bf 4d b5 85 3e b0 3b 39 3f 68 99 cf 3e
       -0.7938276 0.26114884 0.723567 0.40546727
0003d0 bc 74 39 3e 3a 9a 62 be e2 ec 9f be ed 4d 9e 3e
       0.18110937 -0.22129145 -0.31235415 0.30918828
0003e0 7b 21 70 be 2e 08 84 be 5f 5e c8 3e 54 91 b6 bd
       -0.23450272 -0.2578749 0.391345 -0.08914438
0003f0 d5 b8 c9 bd 27 27 d1 3e e8 28 01 bf 19 2b 6a 3e
       -0.09849707 0.40850183 -0.50453043 0.22868003

graph_prop.node_update_funcs.0.weight_hh f4 [48, 16]
000000 8c b9 f8 bc 1c 48 38 be ec cf 29 bf 5f 0b c7 3e
       -0.030361913 -0.17996258 -0.6633289 0.38875863
000010 5d 6f e5 be 5b a0 06 be f3 1e 22 bf 60 89 10 bf
       -0.44811526 -0.13147108 -0.63328475 -0.5645962
000020 4a 7c 94 3e 9e a3 dd be 74 70 15 3e a2 de 90 be
       0.29001075 -0.43288893 0.14593679 -0.28294855
000030 1c cb 33 bd 56 bf c0 bd 42 31 53 3d 67 1a 88 bc
       -0.043894872 -0.094114944 0.051560648 -0.016614152
000040 73 43 5c bf 25 54 87 3f b9 54 df 3f ce 58 25 3f
       -0.8604042 1.0572554 1.744773 0.6458863
000050 42 81 85 3f 57 a3 d7 3d 17 0c 92 3f c8 e0 ab 3f
       1.0430071 0.105292015 1.140994 1.3427973
000060 26 26 83 bf 7c cc 97 3e b1 b8 33 3f a7 6d 3d bf
       -1.0246017 0.29648197 0.7020369 -0.7399544
000070 a3 74 a4 be 28 e5 8c 3f ae 5b 87 be 6f 99 3c bf
       -0.32120237 1.1007433 -0.26437134 -0.7367162
000080 6a d1 9e be b3 c8 b6 be d3 59 1f be 58 26 c3 3e
       -0.31019145 -0.35699996 -0.15561609 0.3811519
000090 30 d5 80 3e 9c 62 8e be 34 99 b8 3e 65 04 dd be
       0.2516265 -0.27809608 0.36054385 -0.43167415
0000a0 c5 31 aa be 61 c2 00 bd bc 77 ee 3e ef 62 b6 be
       -0.33241096 -0.031435374 0.46575725 -0.35622355
0000b0 8b f2 3c bf 2f 65 bc be f7 8f 3d 3f 72 48 74 be
       -0.7380759 -0.36795947 0.740478 -0.2385576
0000c0 5c 6f ef be 0e d3 2c bf 72 23 09 3e ba 34 ac bd
       -0.46764648 -0.67509544 0.13392428 -0.08408494
0000d0 15 be 67 3f 39 3a 54 bf d4 de 55 bf ca 31 24 3f
       0.9052442 -0.8290134 -0.83543134 0.6413847
0000e0 e5 d9 c2 3d 6e c4 1c bf 9e 51 4c 3e 01 cb 9c be
       0.09514216 -0.6123723 0.1995301 -0.3062363
0000f0 83 02 3b bf a0 47 d3 3e 62 53 71 bf a4 f2 f2 3e
       -0.7305071 0.41265583 -0.9426786 0.47450745
000100 e7 78 89 bf 78 8e a9 bf 53 5b b7 bf d6 2f 51 bf
       -1.0740021 -1.3246603 -1.4324745 -0.81713617
000110 2b 0c d3 3f fa fd 66 bf cc 9c bc be 31 04 4a bf
       1.6488088 -0.9023129 -0.36838377 -0.78912646
000120 fc 32 e4 be 1a cb 1e 3f 09 7e 2b 3f c2 f8 8d 3c
       -0.44570148 0.6202866 0.6698919 0.017330531
000130 59 97 9b be 7e 8a 8d 3f ab 04 4f 3f 8e 7d c2 bf
       -0.30388907 1.105789 0.808665 -1.5194566
000140 3e 9e 1d 3f 13 76 b0 3e 68 9b 48 3f 7c d4 82 3f
       0.61569583 0.34465083 0.7836213 1.0221095
000150 7e e6 de be 91 20 5d bf 4c c0 0b 3f fe ac a5 3c
       -0.43535227 -0.8637782 0.54590297 0.02022409
000160 d5 42 8f bc 69 94 44 be 35 b2 03 be 29 b6 0f be
       -0.017487923 -0.19197239 -0.1286095 -0.14034332
000170 95 e8 94 bf 7e 62 4d bf 9e b1 37 bd b5 09 97 3d
       -1.1633478 -0.8022841 -0.044847123 0.07374898
000180 25 b3 14 3f c4 21 20 3f b5 f7 cf 3e 53 c8 d7 bc
       0.5808585 0.6255152 0.40618673 -0.02634064
000190 87 aa 4b 3f 33 33 f2 be 32 02 6b 3d b0 b2 f1 3e
       0.7955708 -0.47304687 0.05737514 0.4720664
0001a0 aa 79 19 bf 60 ab 0d bf b7 98 01 bf 80 e9 ab bd
       -0.5995127 -0.5533962 -0.5062365 -0.08394146
0001b0 8d e4 50 bf f8 8d 2a be af 1f b9 be 18 bc 31 bf
       -0.8159874 -0.1665572 -0.36156985 -0.69427633
0001c0 53 70 35 3e 0b ba 62 bd 18 db 1f 3f 32 84 2a bd
       0.1771863 -0.055353206 0.62443686 -0.041629978
0001d0 ee 41 a2 bd d5 bc d4 bd 82 41 43 bd 19 b5 aa 3e
       -0.07922731 -0.10387579 -0.047669895 0.33341292
0001e0 84 78 67 be 9d b0 0b bf b4 17 1c bf 87 c2 72 be
       -0.22604567 -0.54566365 -0.6097367 -0.23707019
0001f0 99 ba f4 bd bc c6 b0 be 26 26 32 3e 35 95 b7 be
       -0.11949653 -0.34526622 0.17397365 -0.35856023
000200 24 0d f8 3d 9f 3f 8e 3e 18 05 99 bd d9 73 bd bd
       0.121118814 0.27782914 -0.07471675 -0.09250612
000210 82 ba bf bd 6d 0f b8 be ab 8c 9a be 4c 31 81 3f
       -0.093617454 -0.3594927 -0.30185446 1.0093169
000220 bd 18 01 be 24 20 b3 be 08 d5 8d 3e e9 5b 4c 3e
       -0.12607093 -0.3498546 0.27701592 0.19956936
000230 9f 9c de 3e 62 8e 86 3e 0f d8 a5 be b1 62 1a 3f
       0.43478867 0.26280504 -0.32391402 0.6030684
000240 09 83 03 bf 79 9c 0a 3f 52 18 2b be cd 8b 17 bf
       -0.5137182 0.5414501 -0.16708496 -0.59197694
000250 0e 53 e4 be 25 c6 fa bd e6 e6 8d 3f cf bb 5e 3e
       -0.44594616 -0.12244824 1.108609 0.21751331
000260 a7 34 30 bf a7 7e 4c 3e e8 77 95 be 27 c7 06 3f
       -0.6883034 0.19970189 -0.29193044 0.5264763
000270 31 da ae 3d ee 14 54 3f b8 98 50 3f 67 7e 40 bb
       0.085377105 0.82844436 0.8148303 -0.0029372217
000280 5f 75 5d bd 7d 1c 6e bf 83 9e 2b bf f7 a7 f8 3e
       -0.054067012 -0.9301222 -0.67038745 0.48565647
000290 6b 14 4f 3f c8 8b b3 be 4e b7 90 be 80 a5 19 3e
       0.8089053 -0.35067582 -0.2826485 0.1500454
0002a0 ea d7 40 be cf 2e c7 3e 1a d7 59 be 53 07 fb be
       -0.18832365 0.389029 -0.21273461 -0.49029025
0002b0 ff b7 32 bf ba f5 25 3d a4 b5 69 bf ce b4 46 3f
       -0.69812006 0.040517546 -0.91292787 0.77619636
0002c0 5f 36 99 3d ee df 11 3f df 40 07 3f 0f a2 34 bf
       0.074810736 0.56982315 0.5283336 -0.7055978
0002d0 2a dd 82 3e 3b bf c4 3e 3d 63 5c 3f 87 59 14 3e
       0.2555936 0.38427147 0.86088926 0.14487277
0002e0 9c f2 a5 3e e6 71 20 3f c4 5a 29 bf 6d 73 f9 bd
       0.3241166 0.62673795 -0.6615412 -0.12180219
0002f0 54 9a 61 3f df 83 4b bd 73 cf 35 3f 61 2e 65 bf
       0.8812611 -0.04968631 0.7101967 -0.89523894
000300 f9 69 fe bd 9d 7e 55 bf 88 80 86 bf 52 9f 17 bf
       -0.124225564 -0.8339632 -1.0507975 -0.5922748
000310 f5 f2 d6 bd 96 71 e5 3e a9 8b 34 bf f3 e0 f4 be
       -0.10495559 0.44813222 -0.70525604 -0.47827873
000320 53 73 2f 3f c2 c5 b2 3e 65 3c 04 3e 73 e0 29 3e
       0.68535346 0.34916502 0.12913664 0.16589527
000330 52 eb 90 3e 3d a8 c1 3d a1 11 7c be e2 6d 11 be
       0.28304535 0.09455917 -0.246161 -0.14202073
000340 02 11 9b bd 1f 2c c0 be ac 4c 64 3e 27 ae 15 be
       -0.07571603 -0.37533662 0.22294873 -0.14617215
000350 21 0a 50 3f db e5 4f bf 78 c7 09 3f 71 23 1f bd
       0.81265455 -0.81210107 0.5381999 -0.03885216
000360 54 61 8d 3e 22 2b 77 be e6 f6 ad 3d 5f 0f cf 3d
       0.27613318 -0.24137548 0.08494358 0.10110354
000370 dd 13 bf be 9e 5b 5d 3f c7 78 8b be f0 08 81 bf
       -0.37319842 0.8646792 -0.27240583 -1.0080853
000380 0d ba 9e bd 48 e9 8a be 4f da 49 3e ef a8 bd 3d
       -0.0775033 -0.27131104 0.19712184 0.09260737
000390 41 b9 06 3d 1b 53 0c be 27 1f 26 be df 4d e9 bd
       0.032891516 -0.13703577 -0.16222821 -0.11391806
0003a0 79 99 97 be 2d 86 98 3d 41 ed f5 3d a9 6e f2 3d
       -0.29609278 0.07447467 0.12008143 0.11837513
0003b0 4d 0d 75 bc 12 db f4 3d 01 27 32 be af d3 4b 3e
       -0.014956784 0.11955847 -0.17397691 0.1990497
0003c0 86 19 bb bf be 2e a8 bf 54 97 7f 3f 87 ba c1 bf
       -1.4617164 -1.3139265 0.99840283 -1.5135049
0003d0 53 c9 36 3f 2a 23 8f bf b9 e7 4b 3f 7d 1c d0 3f
       0.71400946 -1.1182606 0.79650456 1.6258694
0003e0 ed b2 20 c0 29 75 6f 3e 6e f0 da bf 52 c6 fc bf
       -2.5109208 0.23384537 -1.7104623 -1.9748023
0003f0 bb 9c cd bf 24 ce a7 3f d9 e9 b3 bf 81 8e 99 bf
       -1.6063455 1.3109784 -1.405574 -1.1996614

graph_prop.node_update_funcs.0.bias_ih f4 [48]
000000 e5 e7 b5 3f 02 70 2a c0 50 ee 7c 3f b8 a9 e5 3f
       1.4211394 -2.6630864 0.98801136 1.7942419
000010 4d 43 bc 3f b3 df d3 bf ac 11 ec 3f 4f d6 39 bf
       1.4708039 -1.6552643 1.8442893 -0.72592634
000020 e1 23 ea be b5 36 f5 bf 37 a8 9f 3f f7 39 61 be
       -0.45730498 -1.915732 1.247321 -0.21994768
000030 22 d0 99 bf f3 68 e5 3f df f3 f0 bf b6 29 3c 40
       -1.2016642 1.7922653 -1.8824424 2.9400458
000040 62 43 27 c0 0f d4 27 40 55 a0 0f 3f 96 e5 86 3f
       -2.6134877 2.622318 0.5610402 1.0538814
000050 e6 10 c4 3d 3c 68 99 be 89 4c a3 3f dc 3f 76 3f
       0.095735356 -0.29962337 1.2757732 0.9619119
000060 73 76 cf bf 21 a5 18 bf bf b4 d5 3e a3 14 11 c0
       -1.6208023 -0.59626967 0.4173946 -2.2668846
000070 8a 97 c2 3f 67 f8 b9 3f 48 fa be 3f 2d 23 35 3e
       1.5202496 1.4528931 1.492013 0.176892
000080 e2 e4 9e be fb f3 27 c0 8e 83 ce be 73 f4 e4 bf
       -0.31034 -2.6242664 -0.40334743 -1.78871
000090 72 c1 7a 3f 37 a7 ab bf 22 57 a2 3e 7e 22 e3 3f
       0.97951424 -1.3410405 0.31707102 1.7744901
0000a0 63 18 ab bf 25 68 e5 bf eb e9 c2 be c5 6d 38 c0
       -1.3366817 -1.7922407 -0.3806909 -2.8816998
0000b0 75 00 7b bf 0d 50 3c 3f 82 02 2c c0 3e 5f 25 c0
       -0.9804757 0.7355965 -2.687653 -2.5839381

graph_prop.node_update_funcs.0.bias_hh f4 [48]
000000 32 a7 cd be db 28 f4 bf ac e7 bb 3e 5b e2 65 3f
       -0.40166622 -1.9074968 0.3670019 0.89798516
000010 d6 06 14 40 bb 01 1c bf d8 ec a3 3c af 2b b2 be
       2.3129172 -0.6094014 0.020010397 -0.34798953
000020 2c 86 52 bf 31 13 86 3f ab 9a c0 be 3f 32 33 3f
       -0.8223598 1.0474607 -0.37618002 0.69998544
000030 f8 9b 3d 3f fd df 06 40 d8 0f 0e 3f 98 d5 28 40
       0.74066114 2.1074212 0.55492926 2.6380367
000040 73 e1 2a c0 4b 1f bd 3f 79 0b 2d 3f 86 08 fc 3f
       -2.6700103 1.4775175 0.6759563 1.9690101
000050 0f 9c bd be aa 4f 95 3e 15 0b be 3f bf e7 37 40
       -0.37033126 0.2916234 1.4847132 2.8735197
000060 8d 60 44 c0 d0 28 9e bf 88 6e 63 c0 ad 1d 3e c0
       -3.068393 -1.2356205 -3.5536213 -2.9705613
000070 b0 81 b4 3f 55 71 a2 3f 6c fe f6 3f 78 d3 11 c0
       1.4102077 1.2690836 1.9296393 -2.278532
000080 1d f7 4f bf 0b 87 0d bf 54 19 df bf 82 98 c0 bf
       -0.8123644 -0.55284184 -1.7429605 -1.5046542
000090 e9 06 2e 40 1e 74 27 be 2f 8e 34 c0 fa ce ee 3d
       2.7191718 -0.16352889 -2.8211782 0.116605714
0000a0 92 d5 a8 3f 72 f4 8a bf ed 8d ae 3e 7a 61 c2 bf
       1.3190176 -1.0855849 0.34092656 -1.5185997
0000b0 ba 46 0a c0 61 a2 bb bf 9e eb 19 bf 09 fe 33 c0
       -2.1605668 -1.4658929 -0.6012515 -2.81238

graph_prop.node_update_funcs.1.weight_ih f4 [48, 32]
000000 15 91 a6 bf 0f d9 a5 bf bf 71 ad 3f ec 40 d2 bf
       -1.3013026 -1.2956866 1.3550338 -1.6426063
000010 72 02 1f 3e 4e a6 be bf 01 ba e6 bf 65 1b b3 3d
       0.15528277 -1.4894502 -1.8025514 0.087454595
000020 82 c4 ad bf 59 73 bd bf 2d 90 9e be 60 d4 7b 3f
       -1.3575594 -1.4800826 -0.30969372 0.98370934
000030 04 a8 78 3f d0 c5 9c bf b3 65 df 3f d2 78 2e bf
       0.9713137 -1.2247868 1.7452911 -0.6815311
000040 52 21 90 3e 45 7e 34 bf f1 9c b9 3f 5f 06 8d bf
       0.2815042 -0.7050517 1.450102 -1.1017569
000050 aa 57 f7 3f eb 9d 1a 3f 71 f3 93 bf ae 9b 5f 3f
       1.9323628 0.60397214 -1.1558667 0.87346923
000060 b0 79 ad bf f6 e1 ac bf 97 e2 d0 bf fa 64 c0 3f
       -1.3552761 -1.3506458 -1.631915 1.5030816
000070 73 27 8b bf 90 67 57 bd e8 ab 18 bf de 19 ca bf
       -1.0871414 -0.052589 -0.5963731 -1.5789144
000080 95 d3 3a be 30 c0 fc 3d 69 d9 06 3f 23 59 83 be
       -0.18244775 0.12341344 0.5267549 -0.25653943
000090 0b d1 ff bc a3 17 54 bf 82 3b 24 bf 23 a5 94 3e
       -0.03122761 -0.82848567 -0.641533 0.2903224
0000a0 01 f4 47 be e7 fa d9 bc eb 2c 4c 3f f4 b5 53 3c
       -0.19526674 -0.026608897 0.7975604 0.012921799
0000b0 9c 5e ef 3e 2b bc 8b 3e 58 3a a7 3a 53 84 eb 3e
       0.4675187 0.27291998 0.0012758477 0.45999393
0000c0 4c 4d e2 3e df 33 a8 3e 5c fb ff bd 62 42 c2 3e
       0.44199598 0.32852075 -0.12499115 0.3794127
0000d0 95 de 79 bd 40 92 7b bd 26 83 f2 3d 45 27 a0 3e
       -0.061003286 -0.06141877 0.11841421 0.3127996
0000e0 d6 6c d4 be 62 61 6a be c7 a4 5a 3e 47 2f 1d bf
       -0.41489285 -0.22888711 0.2135192 -0.61400265
0000f0 37 db 0f bf 44 26 97 3e a7 50 8b be 93 0d 55 be
       -0.5619387 0.29521382 -0.2720997 -0.2080596
000100 c4 40 ff 3e 8e ef 94 3e e4 c7 47 3e 83 53 d1 3e
       0.498541 0.29089016 0.19509846 0.40884027
000110 06 5d 87 be 09 67 06 3f 0e 26 84 3c 69 2a 22 bc
       -0.2643816 0.5250097 0.016131427 -0.009897807
000120 42 31 eb 3d 8b 51 e7 3e 93 7f c2 bd 73 e1 87 be
       0.114840046 0.451794 -0.09496989 -0.26539192
000130 ba ed 3e bf 6b 0a 12 3e ae 4f da be cb b0 6f 3f
       -0.7458149 0.14261787 -0.42638916 0.9362914
000140 68 d6 a4 be 1e b0 1a 3f 51 2b ed 3d be b9 92 3f
       -0.3219483 0.60424984 0.115805276 1.1462934
000150 53 5c 01 be a2 62 d2 bd e0 0a 5a 3d 08 58 b6 be
       -0.12632875 -0.10272719 0.053233027 -0.35614038
000160 23 75 f2 3d c5 8b 58 3d 38 c4 3d 3f 6f a8 5d 3f
       0.11838748 0.05286767 0.7412753 0.86585134
000170 8e 72 1a 3f 7d 09 ce 3d 12 9e 60 3e 1c 95 9a 3e
       0.60331047 0.100604035 0.21935299 0.30191886
000180 2d 02 78 bf 58 7e da 3d b9 00 2e 3f 27 79 6b bf
       -0.9687832 0.106686294 0.6796985 -0.9198174
000190 1f 59 b4 bf 8b 59 8c bf 8b 67 90 bf 52 12 b7 3f
       -1.4089698 -1.0964826 -1.1281599 1.4302466
0001a0 da 0e 42 3f 0a ff 99 bf 2e 04 ea 3f 52 ca a4 bf
       0.7580391 -1.2030957 1.8282526 -1.2874243
0001b0 82 d4 f6 3f 28 d2 d1 bf 3b 87 cf 3f 80 d6 c4 3f
       1.9283602 -1.639226 1.6213144 1.537796
0001c0 ca 5b 71 3f ef b6 c2 bf 14 32 9f 3e 2e 8c 89 3f
       0.94280684 -1.5212077 0.31092894 1.0745904
0001d0 d6 4c c5 3f d4 44 53 3f 96 52 59 bf 89 91 a0 3f
       1.5414073 0.825269 -0.8489164 1.2544414
0001e0 a8 e3 a0 bf 63 a7 97 3f ce b5 36 be 2d b2 b1 bf
       -1.2569475 1.1847957 -0.1784279 -1.38825
0001f0 be 4b a1 3f 3d f0 90 bf 8f 26 6f bf 1f e2 91 bf
       1.260124 -1.1323315 -0.9341821 -1.1397132
000200 f5 e6 6e 3b 22 72 ec be e3 9a 2e be 30 be 2f bf
       0.003645358 -0.46180826 -0.17051272 -0.6864958
000210 c2 1c f6 be 51 06 78 be 70 96 0d bf 6a d0 91 3e
       -0.48068815 -0.2422116 -0.55307674 0.2847932
000220 9a 02 ac 3d 91 68 08 bf ac 9b 83 3e 36 02 fa 3e
       0.08398934 -0.53284556 0.25704706 0.48829812
000230 5d 0e 27 be f7 de 08 3d 12 b5 99 be 50 9b 2a 3f
       -0.16314073 0.03341576 -0.30020958 0.6664324
000240 63 5e e3 be b9 ab 37 bf e0 a7 02 bf c1 28 4a be
       -0.4440795 -0.717464 -0.51037407 -0.19742109
000250 51 ff 5a 3f 80 b8 31 3f 7b c8 0d 3f 81 e6 09 bf
       0.8554583 0.6942215 0.55384034 -0.53867346
000260 12 9b 56 be ca f8 86 3c 29 50 98 be 9c 9f 2c 3e
       -0.20957592 0.016476054 -0.29748657 0.16857761
000270 5b 81 b5 bc 11 34 1b 3f 60 e2 ed 3e 90 63 96 bf
       -0.022156408 0.6062632 0.46461773 -1.1749134
000280 be 6a 57 be 56 58 47 3e a8 02 00 bd 83 6c ae 3d
       -0.21036813 0.19467291 -0.031252533 0.08516791
000290 c8 35 5f bd 91 52 05 be 31 17 c4 be 56 f4 52 3e
       -0.05449465 -0.13019778 -0.38298944 0.2060102
0002a0 d3 5f 00 bf 0f 2a 04 bf 34 9d 94 3e 17 47 ff bd
       -0.50146216 -0.51626676 0.29026186 -0.12464731
0002b0 2f 95 0e 3f d4 4d 00 be 59 49 72 3e a2 bb b8 3e
       0.55696386 -0.12529689 0.23660792 0.36080652
0002c0 0d 61 b8 be 90 31 e4 be e6 e0 db 3e 28 b5 3e be
       -0.36011544 -0.44569063 0.4294502 -0.18623793
0002d0 0e a2 11 3f fb b7 a0 3e a1 8a c6 3e e4 9f 7d 3d
       0.568879 0.31390366 0.3877764 0.06192006
0002e0 fe 1c 0f bf a3 8c 5a 3e c9 9f 69 be 24 1d 84 3e
       -0.55903614 0.21342711 -0.2281486 0.25803483
0002f0 b0 a8 a3 3e dd b1 05 3f 6a c5 4a 3d 11 23 8d be
       0.31964636 0.5222452 0.049504675 -0.27565816
000300 a4 ac 32 3f 5c ef 3d 3e e8 b3 c6 be 3a ba 8d 3f
       0.6979468 0.1854834 -0.38809133 1.1072457
000310 57 0b 00 bf 5c 10 08 3e 76 cd a3 3e d0 5f 44 bf
       -0.50017303 0.1328749 0.31992692 -0.767087
000320 e3 ea 0d 3f 56 32 ef 3e 17 fe c0 3f 51 77 11 bf
       0.55436534 0.4671809 1.5077542 -0.5682269
000330 46 fe 23 bf 3b 3f 58 3e 26 93 07 bf 2c 8a 41 3f
       -0.64059865 0.2111787 -0.52958906 0.7560146
000340 05 ea 2b bf 4f ac 95 bd be 7a b7 3d 8e fc 7b 3f
       -0.6715396 -0.07308256 0.08958958 0.9843224
000350 99 21 59 be 1b 05 20 3e 8d b7 04 3f 68 a4 50 bf
       -0.21204223 0.15626948 0.51842576 -0.81500864
000360 b8 44 f0 3e f9 ec 6a 3f bb aa 73 3f b0 de 88 be
       0.46927428 0.9176784 0.9518239 -0.26732397
000370 5f 7a c7 3e 5b e3 ae 3e a2 f9 76 3f ed a8 ad 3e
       0.3896055 0.34157833 0.9647466 0.33917943
000380 c8 9c 80 bf 7d d6 93 3f 61 35 68 3e e0 c7 01 bf
       -1.0047846 1.1549832 0.22676612 -0.5069561
000390 b6 bd 07 40 4f 57 4b 3f fa af 20 bf b3 ce f5 3e
       2.120954 0.794301 -0.6276852 0.4800926
0003a0 d7 96 aa bf 99 0f a1 3f 49 d0 31 3e 7a ca 08 40
       -1.3327283 1.2582885 0.1736461 2.1373582
0003b0 2e 96 23 3e b1 11 30 3f 72 d5 c1 3d 6d 4c 18 3e
       0.15975258 0.68776995 0.094645396 0.14872904
0003c0 b5 59 66 3f 78 07 02 3f c1 f2 cd 3f 78 7c 76 3f
       0.8998063 0.50792646 1.6089708 0.96283674
0003d0 f4 7d aa 3f 1d 27 bf 3f e0 27 b2 bf d7 d3 c9 3f
       1.3319688 1.4933811 -1.3918419 1.5767773
0003e0 3c 77 e7 3f ef 4b e0 bf 80 ae ca bf c9 53 ac be
       1.8083262 -1.7523173 -1.5834503 -0.33657673
0003f0 0e 52 35 bf 4c 20 64 3e c2 5a 17 bf 1a 66 86 bf
       -0.7082833 0.22277945 -0.5912286 -1.0499909
