housingpipeline/housingpipeline/dgmg/restarts/dgmg_model_epoch_0_batch_2080.pth (torch, 297576 bytes, 42 tensors)

graph_embed.node_gating.0.weight f4 [1, 16]
0	0xbe527b50	-0.20554852
1	0x3f33cb92	0.702325
2	0x3c266e6c	0.010158163
3	0x3f592411	0.8482066
4	0xbd55ccb7	-0.052197184
5	0x3eddfc49	0.4335654
6	0xbe5625f2	-0.20912912
7	0xbe807596	-0.2508971
8	0xbe9839d1	-0.2973161
9	0xbeda378b	-0.426205
10	0xbe2cec07	-0.16886912
11	0x3eeb9538	0.46012282
12	0xbefbee20	-0.49205112
13	0xbedd96ff	-0.43279263
14	0xbe1e6c52	-0.15471008
15	0xbee4e2c0	-0.44704247

graph_embed.node_to_graph.weight f4 [32, 16]
0	0x3e058ad7	0.13041244
1	0x3f182d51	0.5944415
2	0x3e72d15e	0.2371268
3	0xbe28477f	-0.16433524
4	0xbf0027a1	-0.5006047
5	0x3d9f530a	0.0777951
6	0x3e7c2468	0.24623263
7	0x3f3b7cbc	0.73237205
8	0x3dff5f0c	0.12469301
9	0xbe9c60f3	-0.30542716
10	0x3d7b94af	0.061421093
11	0x3d475f5a	0.04867492
12	0x3e88a1f8	0.26686072
13	0x3d9fc2a0	0.07800794
14	0xbe280ac8	-0.16410363
15	0x3d69a646	0.057043336
16	0x3e0df691	0.13863589
17	0x3dc2e0e2	0.09515549
18	0xbebc4fb7	-0.36779568
19	0x3d70837e	0.05871915
20	0x3e11aa2f	0.14225076
21	0x3d55559a	0.05208359
22	0xbe771318	-0.24128377
23	0x3ed40d56	0.41416425
24	0x3d58f967	0.052972224
25	0xbe226ee8	-0.1586262
26	0x3e600327	0.21876203
27	0x3ea352e1	0.3189917
28	0xbe419685	-0.18905075
29	0x3edf9d7a	0.43674833
30	0xbd1fe2f9	-0.039034817
31	0xbf0796da	-0.52964556
32	0x3eeed6a9	0.46648148
33	0xbe48909b	-0.19586413
34	0xbef34487	-0.4751322
35	0x3e5fe252	0.21863678
36	0x3e26bb9d	0.16282506
37	0xbe35fc60	-0.17772055
38	0x3e5c41f1	0.2150953
39	0xbe84f92b	-0.2597135
40	0x3e3ab6d8	0.18233812
41	0xbbd6763a	-0.0065448554
42	0x3cdf4dcb	0.027258774
43	0x3ea6a330	0.32546377
44	0x3cfe6cdc	0.031057768
45	0xbc0a9fa5	-0.008460914
46	0x3e61d069	0.22052158
47	0xbe8768d8	-0.26447177
48	0x3ede8ab1	0.43465188
49	0x3ccbbf7a	0.024871577
50	0x3dfaedb3	0.12252369
51	0xbe7a8bcf	-0.24467395
52	0xbbe3bbaf	-0.006949864
53	0xbda4d711	-0.08048833
54	0x3e0cf4a7	0.13765202
55	0x3e42908d	0.19000454
56	0x3ed528a0	0.41632557
57	0x3f16f94c	0.58974147
58	0x3e2bf6c8	0.16793358
59	0xbf24145f	-0.64093584
60	0x3e1bae11	0.1520312
61	0xbeecf12f	-0.46277758
62	0x3ec2583f	0.3795795
63	0x3ee6cf4d	0.45080033
64	0xbec4434e	-0.383326
65	0xbe2ef70f	-0.17086433
66	0xbdb453e7	-0.088050656
67	0xbe31cf74	-0.17364293
68	0x3dc2549e	0.09488796
69	0xbec7fd8f	-0.39060637
70	0xbeb779da	-0.35835153
71	0xbdf58cb7	-0.1198973
72	0x3e671f1b	0.2257046
73	0xbe0364eb	-0.12831466
74	0xbd7f4bc3	-0.06232811
75	0xbe414c52	-0.1887677
76	0xbc620da8	-0.013797201
77	0xbd85046a	-0.064949825
78	0xbd44580e	-0.047935538
79	0x3d34f434	0.044178203
80	0xbd27fcdd	-0.041012634
81	0xbe1e5ffe	-0.15466306
82	0xbc7bb5c6	-0.015363162
83	0xbe158b11	-0.14603831
84	0x3c021fff	0.007942199
85	0xbe03b14d	-0.12860604
86	0x3dd14f0c	0.10220155
87	0x3e6aed4f	0.22942089
88	0xbf1b9979	-0.60781056
89	0xbe3d4f81	-0.1848736
90	0x3ee63b2e	0.44967026
91	0x3dd844ca	0.105599955
92	0xbeac94d4	-0.33707297
93	0x3dbb5c46	0.09148459
94	0x3e9b8b2c	0.30379617
95	0xbe818bf2	-0.25302082
96	0xbef31413	-0.47476253
97	0xbd280573	-0.04102082
98	0xbeaad83a	-0.33368093
99	0x3cc73360	0.02431649
100	0x3e9ccded	0.3062586
101	0xbdbdabf2	-0.092613116
102	0x3e21a799	0.1578659
103	0xbd898356	-0.067145035
104	0x3e726ad8	0.2367357
105	0x3e11803c	0.14209074
106	0xbeef1c61	-0.4670134
107	0x3e9d954e	0.30777973
108	0xbd5c2e61	-0.053755168
109	0x3e37967a	0.17928496
110	0xbe422c8c	-0.18962306
111	0xbee81698	-0.45329738
112	0x3e34eee1	0.1766925
113	0xbb9e55ee	-0.004832021
114	0x3e5adff3	0.21374492
115	0xbd063d8d	-0.032773543
116	0x3e484449	0.19557299
117	0xbe81b993	-0.25336894
118	0xbcdaddfa	-0.026717175
119	0x3ec7b8e3	0.39008245
120	0xbea22f61	-0.31676772
121	0xbde4fc0f	-0.11180889
122	0x3e69ef31	0.2284515
123	0x3eb49cf5	0.35276
124	0x3e3a931a	0.18220177
125	0xbd63c8ef	-0.055611547
126	0x3c8fb1a4	0.01754076
127	0xbd30237b	-0.043002587
128	0x3ec6f880	0.38861465
129	0x3da175a4	0.07883766
130	0x3eca3cb8	0.3949945
131	0xbdd68176	-0.104739115
132	0xbdc0974e	-0.09403859
133	0x3d21d7b4	0.03951235
134	0x3eadbafd	0.33931723
135	0xbe28622a	-0.16443697
136	0x3edbf73d	0.42962065
137	0x3f3711c2	0.7151147
138	0x3e98e5f9	0.29862955
139	0xbf1bb12d	-0.60817224
140	0xbdc4b3bc	-0.09604594
141	0x3e0abbc3	0.13548188
142	0x3ef09841	0.4699116
143	0x3f3aff13	0.7304546
144	0x3cda3054	0.026634373
145	0x3eedf96a	0.4647935
146	0x3e211a33	0.1573265
147	0x3dd2d2ee	0.10294138
148	0xbdd33441	-0.10312701
149	0xbe4a5a89	-0.19761099
150	0xbdaccd65	-0.084376134
151	0x3e14eccd	0.14543457
152	0xbe103b11	-0.14085032
153	0xbf17c6c6	-0.5928768
154	0x3e1294df	0.14314602
155	0x3ee22f5c	0.44176757
156	0xbe11aeb7	-0.14226805
157	0xbbe09bc0	-0.0068545043
158	0xbe8dbef0	-0.27684736
159	0xbeb4f7c3	-0.35345277
160	0xbc2f653d	-0.010705289
161	0x3e36bfae	0.17846557
162	0xbc9c11df	-0.01905149
163	0xbe18b534	-0.14912874
164	0xbe2243e8	-0.15846217
165	0x3dba8c7b	0.09108826
166	0xbe0264e1	-0.12733795
167	0x3e35c24b	0.17749898
168	0x3ed2ddf4	0.41184962
169	0x3e1ee2d4	0.15516216
170	0x3e05449b	0.13014452
171	0xbe5bf6ae	-0.2148082
172	0x3e0419fe	0.1290054
173	0xbe15eee6	-0.14641914
174	0xbeab1731	-0.3341613
175	0xbd4c08d2	-0.0498131
176	0xbeae0756	-0.33989972
177	0xbda312f7	-0.07962602
178	0x3e9beab5	0.30452505
179	0xbcc54477	-0.024080498
180	0x3dc7027c	0.09717271
181	0x3e18d726	0.14925823
182	0xbe76332d	-0.2404296
183	0x3d30d45b	0.043171268
184	0xbdffc32b	-0.12488397
185	0x3d567aca	0.052363195
186	0xbee6e26f	-0.4509463
187	0x3ee9a5d5	0.45634332
188	0x3a8eafb2	0.0010886102
189	0x3d1a3d72	0.037656255
190	0x3de60fc7	0.11233478
191	0xbda39ff9	-0.07989497
192	0x3cf230b1	0.029564233
193	0xbe3bbb09	-0.18333067
194	0xbe68a927	-0.22720776
195	0xbdfe9434	-0.12430611
196	0x3e3a7235	0.18207629
197	0x3e80c50f	0.25150344
198	0xbdca4e15	-0.09878174
199	0xbf34e82e	-0.7066678
200	0x3e3d4e59	0.18486919
201	0x3f0e87ec	0.5567615
202	0xbda4c313	-0.0804502
203	0x3e459720	0.19295931
204	0xbe517e9d	-0.20458455
205	0x3e91e6ef	0.284965
206	0xbe85ea44	-0.26155293
207	0xbed09972	-0.4074207
208	0xbd81d08f	-0.063386075
209	0x3b7b9361	0.0038387405
210	0xbe633c45	-0.2219096
211	0xbe23d323	-0.15998511
212	0x3db8c2f1	0.09021557
213	0x3e217f0b	0.1577112
214	0x3daf7fb4	0.08569279
215	0x3e2bb311	0.16767527
216	0x3e3dc575	0.18532355
217	0xbce2b180	-0.02767253
218	0xbca680ce	-0.02032509
219	0xbe544c32	-0.20732191
220	0xbea3513d	-0.31897917
221	0x3e9bbd3f	0.3041782
222	0x3e02e287	0.12781726
223	0xbd0f97b7	-0.035056796
224	0x3df37c67	0.11888962
225	0x3e53d22f	0.20685647
226	0x3e59b6a2	0.21261075
227	0x3e3d698d	0.18497296
228	0xbd571d1f	-0.052518006
229	0x3e0a8731	0.13528134
230	0xbe83a50a	-0.25711852
231	0xbd45b718	-0.048270315
232	0xbe90f554	-0.2831217
233	0x3ecf1ebc	0.40453136
234	0xbd992827	-0.074783616
235	0xbec1c5b1	-0.3784614
236	0x3e02c606	0.12770852
237	0xbe1623eb	-0.14662139
238	0xbda7813e	-0.08178948
239	0x3f1d4d62	0.614462
240	0x3dc700dc	0.09716961
241	0x3e368250	0.17823148
242	0x3e9dbbbd	0.30807295
243	0x3e1945eb	0.14968078
244	0xbde97368	-0.11398965
245	0x3e2a9578	0.1665858
246	0x3dde8056	0.10864322
247	0xbdb12960	-0.0865047
248	0xbe1d5fc6	-0.15368566
249	0x3df054ea	0.11734946
250	0x3eae145e	0.33999914
251	0xbe0e186d	-0.13876505
252	0xbe4d0a01	-0.20023347
253	0x3e27ffe4	0.16406208
254	0xbcee6c4b	-0.029104372
255	0x3e7792a7	0.24177037

graph_embed.node_to_graph.bias f4 [32]
0	0x400073a8	2.007059
1	0xbe86384b	-0.26214823
2	0x3f011659	0.50424725
3	0x3cbaab4b	0.022786757
4	0xbe500f60	-0.20318365
5	0x3f0d10db	0.55103844
6	0xbf93364d	-1.1500946
7	0x3f7ec587	0.9952015
8	0xbf82e74a	-1.0226834
9	0x3d6a1eb7	0.0571582
10	0xbea37bf4	-0.31930506
11	0xbf8da2a6	-1.1065261
12	0xbf3c2d5c	-0.7350671
13	0xbf8ac7a9	-1.0842181
14	0x3eae85ca	0.34086448
15	0x3eeb5d82	0.45969778
16	0xbed67a10	-0.4189
17	0xbeca0cd1	-0.39462903
18	0x3e8a29dd	0.26985064
19	0x3f23ac4f	0.639348
20	0xbf74b27d	-0.9558485
21	0xbfce316f	-1.6108836
22	0xbebf4a8c	-0.37361562
23	0x3d9c34a7	0.0762723
24	0xbeb48d89	-0.35264233
25	0x3e2d900b	0.1694948
26	0x3e851be7	0.2599785
27	0x3ee2b8f9	0.44281748
28	0x3e567277	0.20942102
29	0xbe6d469d	-0.23171468
30	0x3f7b7a18	0.98233175
31	0x3fe2caeb	1.7718176

graph_prop.message_funcs.0.weight f4 [32, 34]
0	0xbdef0ec4	-0.11672738
1	0x3de4c990	0.111712575
2	0x3e9faaab	0.31184897
3	0x3e32561f	0.17415665
4	0x3df78a35	0.12086908
5	0x3de97c5d	0.114006735
6	0xbd58d4de	-0.05293738
7	0x3eb81b5b	0.3595837
8	0xbdec3f02	-0.11535455
9	0x3d2091a6	0.0392014
10	0x3ce01be8	0.027357057
11	0xbdfe9e6b	-0.124325596
12	0xbdbd578a	-0.092452124
13	0xbdd477d6	-0.103744194
14	0x3df2a3fc	0.11847684
15	0xbd429b1b	-0.0475112
16	0x3dee142d	0.11624942
17	0x3e03fe0d	0.12889881
18	0xbea6a2f9	-0.32546213
19	0xbd403365	-0.046924014
20	0xbed65d28	-0.41867948
21	0x3e759abb	0.23984806
22	0x3d49687b	0.049171906
23	0xbe26ae77	-0.1627749
24	0xbe1faab0	-0.15592456
25	0x3daac141	0.083376415
26	0x3d879331	0.066198714
27	0x3eba4af3	0.36385307
28	0x3ce31b84	0.027723081
29	0x3d76c028	0.06024185
30	0xbf138f59	-0.57640606
31	0x3e156aa6	0.14591464
32	0x3d05449b	0.03253613
33	0xbbff0753	-0.0077828555
34	0xbe8b6b43	-0.27230272
35	0x3d967b8f	0.07347786
36	0x3d335361	0.04378069
37	0x3e00c8f6	0.1257666
38	0xbb14548a	-0.0022633397
39	0x3d9d005c	0.07666084
40	0x3e0d26cc	0.13784331
41	0x3e80ed6b	0.25181136
42	0xbea30f1c	-0.31847465
43	0xbe4b04da	-0.1982607
44	0xbcb0c15d	-0.021576578
45	0xbe303163	-0.1720634
46	0xbdb513a3	-0.08841636
47	0x3dc97e24	0.098385125
48	0x3ab43340	0.0013748184
49	0xbe544c65	-0.20732267
50	0xbdcca898	-0.09993094
51	0x3da4b09b	0.08041497
52	0xbd307674	-0.043081716
53	0xbd2f41be	-0.042787306
54	0x3e78c531	0.24293973
55	0x3e22c97e	0.15897176
56	0x3cf8c772	0.03036854
57	0x3daabc53	0.08336701
58	0xbe935af7	-0.28780338
59	0x3e5c2e1e	0.21501967
60	0xbe3ce394	-0.18446189
61	0xbe81d6bb	-0.2535914
62	0xbe733796	-0.23751673
63	0xbdc4ce90	-0.09609711
64	0x3e3a01ff	0.18164824
65	0xbd8bf18b	-0.0683318
66	0xbcfb1915	-0.030651608
67	0x3de978a6	0.11399965
68	0x3d0883cc	0.033328816
69	0x3e426afa	0.18986121
70	0xbe15701c	-0.14593548
71	0xbc04bce5	-0.008101677
72	0xbd570460	-0.052494407
73	0xbd423b4e	-0.04741984
74	0xbd1171e8	-0.03550902
75	0x3d8b0e09	0.06789786
76	0xbe3c7977	-0.1840571
77	0xbe9e4483	-0.30911645
78	0xbbcd70df	-0.006269559
79	0x3e7a81be	0.24463555
80	0xbe293818	-0.16525304
81	0x3dbd8ed5	0.09255759
82	0xbebd1f10	-0.3693776
83	0x3b8afd35	0.0042416104
84	0xbe82bdd2	-0.25535446
85	0xbd7f4d5c	-0.062329635
86	0xbe2eb1a6	-0.17059955
87	0x3e773eb6	0.24145016
88	0x3d62d5c3	0.05537964
89	0x3dbe1055	0.09280459
90	0x3df39c13	0.11895003
91	0x3d6bd46a	0.05757562
92	0xbe377dee	-0.17919132
93	0xbf05feaa	-0.5234171
94	0xbdc7b13d	-0.097506024
95	0x3e69900b	0.22808854
96	0xbe243972	-0.16037539
97	0xbc8faf24	-0.017539568
98	0x3ed13428	0.40860105
99	0xbe0283ad	-0.12745543
100	0x3d90c259	0.07068319
101	0xbd02d935	-0.031945426
102	0xbd4b3463	-0.049610507
103	0xbdcd46af	-0.100232475
104	0x3e848694	0.25883925
105	0xbea3ea9b	-0.32014927
106	0x3e8a0774	0.2695881
107	0x3dbe2567	0.09284478
108	0xbcdba3e5	-0.02681155
109	0x3d7dc669	0.061956797
110	0x3cc202e2	0.023683015
111	0x3ea1e27e	0.31618112
112	0x3dddd0d3	0.10830846
113	0xbc90f238	-0.017693624
114	0x3ce4b7b1	0.027919622
115	0x3d937efe	0.07201956
116	0x3f03defd	0.5151213
117	0xbe09b8a4	-0.13449341
118	0xbeb3230a	-0.3498767
119	0xbc761798	-0.015020274
120	0x3eb6ed36	0.35727853
121	0xbd7b3264	-0.061327353
122	0xbe8589f3	-0.2608181
123	0x3d9f18e8	0.07768422
124	0xbd9e70e5	-0.07736377
125	0xbcfa5fd4	-0.030563273
126	0x3d80e78b	0.06294163
127	0x3ed72e5e	0.42027563
128	0xbe922898	-0.28546596
129	0xbeb3d22f	-0.35121295
130	0x3d6bbb72	0.05755181
131	0x3ce1b3f8	0.027551636
132	0xbd1e5763	-0.038657557
133	0x3db6d4c7	0.08927303
134	0xbceb8ca6	-0.02875359
135	0xbca2acfc	-0.019857876
136	0x3d936980	0.07197857
137	0x3de73020	0.11288476
138	0x3cbff08a	0.023430128
139	0xbd9b88e1	-0.07594467
140	0xbe54a88b	-0.20767419
141	0x3e029abd	0.1275434
142	0x3caef60e	0.021357562
143	0x3db9f46a	0.090798214
144	0xbdd14f28	-0.10220176
145	0xbd54d864	-0.05196418
146	0xbe11bf8f	-0.1423323
147	0x3e1a5992	0.15073231
148	0x3db4ef72	0.08834733
149	0x3e0453b6	0.12922558
150	0x3e73082f	0.2373359
151	0x3c8543d3	0.016267693
152	0x3d93a3ec	0.07209
153	0x3bfc097c	0.0076915603
154	0x3e0d1d23	0.13780646
155	0x3e6da666	0.23208007
156	0x3ce10b1a	0.027471114
157	0xbda9c122	-0.0828879
158	0xbd9d04d7	-0.07666939
159	0x3e628e1f	0.22124527
160	0xbd9004a8	-0.07032138
161	0x3e3f6ca1	0.18693782
162	0xbded22d3	-0.11578908
163	0xbdb69b57	-0.089163475
164	0xbe93e486	-0.28885287
165	0xbdfb1576	-0.12259953
166	0xbd0d7976	-0.034539662
167	0x3dec6405	0.11542515
168	0x3eb48d1f	0.35263917
169	0xbe4705cd	-0.19435807
170	0x3d3d0af1	0.046153013
171	0x3da996da	0.08280726
172	0xbe209f3c	-0.15685743
173	0xbd2d6cb9	-0.042340014
174	0xbe28c520	-0.16481447
175	0xbe04adb6	-0.1295689
176	0xbdd1bbd6	-0.10240905
177	0xbde084e4	-0.10962847
178	0x3dda914a	0.10672243
179	0x3e29bce9	0.1657597
180	0x3cb62542	0.022234563
181	0x3de58d4f	0.11208593
182	0x3e59a802	0.21255496
183	0x3e54f8d7	0.2079805
184	0xbd4b5e18	-0.04965028
185	0xbe1a9bed	-0.15098543
186	0xbd148e2e	-0.036268406
187	0xbe88f500	-0.2674942
188	0x3e8612fb	0.26186356
189	0xbe180a65	-0.14847715
190	0x3ea28173	0.31739387
191	0xbf116de7	-0.5680832
192	0x3c919bd4	0.0177745
193	0x3d2c168b	0.042013686
194	0x3e7dbc78	0.24778926
195	0x3dcb0bcd	0.0991436
196	0xbe35a808	-0.1773988
197	0xbf1be06f	-0.60889333
198	0x3d48c27c	0.0490136
199	0x3e08f1d1	0.13373496
200	0x3f1abf23	0.604479
201	0xb94d9f0c	-0.00019609573
202	0x3cf0f706	0.029414665
203	0xbd0c0fba	-0.034194686
204	0xbd05a990	-0.03263241
205	0xbdbb1e28	-0.09136611
206	0xbe31a4c5	-0.17348011
207	0xbc820233	-0.01587019
208	0x3be10504	0.006867053
209	0xbd190ce6	-0.037365817
210	0x3d8ae5b2	0.06782092
211	0x3deb176a	0.11479075
212	0xbe3efb63	-0.18650584
213	0xbe966a50	-0.29377985
214	0x3e231d13	0.1592906
215	0x3dc32de1	0.09530235
216	0xbeaf5854	-0.34247077
217	0x3dcf42e0	0.10120177
218	0xbe975a4b	-0.29561076
219	0x3e59d6e1	0.21273376
220	0x3df9b8c2	0.12193443
221	0x3d1c338f	0.038135108
222	0x3dde5acd	0.108571626
223	0x3e555836	0.20834431
224	0x3b43ca57	0.0029875243
225	0xbdcf7c3b	-0.10131117
226	0xbe1ee9bc	-0.1551885
227	0xbd023017	-0.031784143
228	0x3d9050a8	0.07046634
229	0x3e053038	0.13006675
230	0x3ddd509a	0.10806389
231	0xbd5d5e31	-0.054044906
232	0x3c57d9c5	0.013174479
233	0x3e30ef30	0.17278743
234	0x3e54606e	0.2073991
235	0x3defd41a	0.11710377
236	0x3e141966	0.14462814
237	0x3c1d7cb8	0.009612255
238	0x3e53e089	0.20691122
239	0xbd631654	-0.055441216
240	0xbebbeff7	-0.36706516
241	0xbdac3e47	-0.08410316
242	0xbdcc83a8	-0.09986049
243	0x3eae11d3	0.33997974
244	0xbd974eb9	-0.07388062
245	0xbe32ae5d	-0.17449327
246	0xbcc45b71	-0.023969384
247	0xbe02f75e	-0.12789676
248	0xbd6ca40c	-0.057773635
249	0x3ebc573f	0.36785313
250	0xbe1a4ac9	-0.15067591
251	0xbcc9d8e9	-0.024639564
252	0xbe3f2c7a	-0.1866931
253	0x3bdf6efe	0.006818651
254	0x3e17d021	0.14825489
255	0x3e0b9bbf	0.13633631

graph_prop.message_funcs.0.bias f4 [32]
0	0xbeaa63f2	-0.33279377
1	0x3c82b382	0.015954737
2	0x3d6afa12	0.057367392
3	0x3e705062	0.23468164
4	0xbe7c26db	-0.24624197
5	0x3dc0a8e1	0.09407211
6	0x3dc184e9	0.09449179
7	0xbe33fcaf	-0.1757686
8	0x3d9c9570	0.076456904
9	0x3e123125	0.1427656
10	0xbe47ecf9	-0.19523992
11	0xbd666f43	-0.05625845
12	0x3eead06f	0.45862147
13	0xbe2c1297	-0.16803966
14	0x3da8d902	0.08244516
15	0x3e800820	0.250062
16	0x3e7d2d7c	0.24724382
17	0xbda4e13a	-0.08050771
18	0x3d5aaee1	0.053389434
19	0xbe452f39	-0.19256295
20	0x3e606b4e	0.21915933
21	0x3e39f677	0.18160425
22	0x3de48b7a	0.111594155
23	0xbde3bee1	-0.11120392
24	0x3e9d5f54	0.30736792
25	0x3d8616a1	0.06547285
26	0xbcd2660f	-0.025683431
27	0xbe2a8df5	-0.16655715
28	0x3e801b5f	0.25020882
29	0xbf0b6a1b	-0.5445878
30	0x3edf8389	0.4365504
31	0x3c95dc8f	0.018293647

graph_prop.message_funcs.1.weight f4 [32, 34]
0	0xbe12f5c4	-0.14351565
1	0xbdf265da	-0.11835833
2	0x3ed8e85f	0.42364785
3	0x3d0adc2e	0.033901386
4	0xbeaf4007	-0.34228536
5	0x3e451f99	0.19250335
6	0x3c63b696	0.013898512
7	0xbd6a6c8a	-0.057232417
8	0xbea64099	-0.3247116
9	0x3e1d7a7e	0.15378758
10	0x3d845f3b	0.06463476
11	0x3e966287	0.29372045
12	0xbe00cac4	-0.12577349
13	0x3e690f5c	0.22759765
14	0xbd9ebbd7	-0.07750671
15	0x3e7dadfb	0.247734
16	0xbc83c5da	-0.016085554
17	0xbe084bd6	-0.13310179
18	0x3dc51de7	0.09624844
19	0x3e421b2e	0.1895568
20	0xbcc14d38	-0.023596391
21	0x3c84d9c6	0.016217124
22	0x3e25c6ce	0.16189119
23	0x3e1acc5f	0.15117024
24	0xbe76428a	-0.2404882
25	0x3d4161f2	0.04721255
26	0x3e70cc81	0.23515512
27	0x3e88c52e	0.26712936
28	0xbd3d6da2	-0.046247132
29	0xbd6d45f4	-0.05792804
30	0x3d9f5e2f	0.07781636
31	0xbc48bedd	-0.012252537
32	0x3c9f8cdd	0.019476349
33	0x3dcca00e	0.099914655
34	0x3c4b6cf6	0.012416115
35	0x3df8a77d	0.12141321
36	0x3cc506dc	0.024051122
37	0x3eb3f9ad	0.35151425
38	0x3c026a95	0.007959981
39	0xbd261a5b	-0.04055248
40	0xbe20ad39	-0.15691079
41	0xbe195da0	-0.14977121
42	0x3e8192f1	0.2530742
43	0xbd8a814f	-0.06762945
44	0x3d64eccf	0.0558899
45	0xbe1747d8	-0.147735
46	0xbdc1de96	-0.09466283
47	0xbe0204ad	-0.12697096
48	0xbe2d6140	-0.16931629
49	0xbcd3255e	-0.025774654
50	0x3db12354	0.086493164
51	0x3dff46c5	0.1246467
52	0xbdf7258e	-0.1206771
53	0xbdd2c412	-0.10291304
54	0x3e22ef5f	0.15911625
55	0x3e457618	0.1928333
56	0xbe75e8a6	-0.2401453
57	0x3c7ecf23	0.015552315
58	0xbe80c91d	-0.25153437
59	0xbd749219	-0.059709642
60	0xbe91f354	-0.28505957
61	0xbc9705fb	-0.018435469
62	0x3e62806b	0.221193
63	0x3df641a4	0.12024239
64	0x3e1cfa85	0.1532994
65	0xbe882939	-0.2659395
66	0xbd7b8dbd	-0.06141447
67	0x3e1ede86	0.15514573
68	0xbe12c0e6	-0.14331397
69	0xbd5ec0a2	-0.054382928
70	0xbe11925f	-0.14215992
71	0xbc152a55	-0.009104331
72	0xbe2d451d	-0.16920896
73	0xbe1ad8e0	-0.15121794
74	0x3e0833a6	0.13300952
75	0xbdf7d75b	-0.12101623
76	0x3a89cdc4	0.0010513593
77	0xbe637c82	-0.22215465
78	0xbe84954f	-0.25895163
79	0x3da82a3b	0.0821118
80	0xbdbe1953	-0.09282174
81	0x3e8e773e	0.2782535
82	0xbe5a72fe	-0.21332929
83	0xbe125769	-0.14291157
84	0xbe7ea73c	-0.24868482
85	0xbeeee245	-0.46657005
86	0xbe11150a	-0.14168182
87	0x3d272899	0.0408102
88	0xbe1776d5	-0.14791425
89	0xbeba2682	-0.36357504
90	0xbd9eac50	-0.0774771
91	0xbd054758	-0.03253874
92	0x3ea7243b	0.3264483
93	0xbd681a1f	-0.056665536
94	0x3df99b4f	0.12187826
95	0x3db182b4	0.08667508
96	0xbe154aed	-0.14579363
97	0xbea71eb6	-0.32640618
98	0x3d5c029e	0.053713433
99	0x3e8ad276	0.27113694
100	0x3cc76399	0.024339484
101	0x3d1ddaed	0.038538862
102	0xbe8f2c70	-0.2796359
103	0xbcbb6fb7	-0.022880418
104	0x3e1898c9	0.14902033
105	0x3dbc0e7b	0.091824494
106	0xbe01025d	-0.12598558
107	0xbe1d47c6	-0.1535941
108	0xbd69c37b	-0.05707119
109	0xbd1f6fa5	-0.038924832
110	0xbdbdf3e0	-0.09275031
111	0x3e858440	0.2607746
112	0x3ddd2ae4	0.10799196
113	0x3e24da82	0.16098979
114	0xbe5c8e9d	-0.21538778
115	0xbe5737fe	-0.21017453
116	0x3e79acf4	0.24382383
117	0x3e97c8d2	0.296454
118	0xbd8865cb	-0.066600405
119	0x3e4102c5	0.18848713
120	0xbe6cb7ea	-0.23117033
121	0xbe8f887b	-0.28033814
122	0x3df8ffa6	0.12158136
123	0xbd3c325a	-0.045946456
124	0xbe446c09	-0.19181837
125	0x3e3638be	0.17795083
126	0xbcf16a0d	-0.029469514
127	0x3d2b1e9f	0.04177725
128	0xbea788fe	-0.32721704
129	0xbe48ff9b	-0.19628756
130	0x3d9adc1d	0.075615145
131	0x3e63afee	0.2223508
132	0x3eb53cea	0.35398036
133	0xbe8a39d8	-0.26997256
134	0xbd1d7d5e	-0.038449638
135	0x3c9a7dfa	0.018858898
136	0x3e0b49bc	0.13602346
137	0xbdff06f9	-0.12452502
138	0xbe0de6f4	-0.13857633
139	0x3ba64458	0.005074065
140	0x3da7ca15	0.08192841
141	0xbda14d08	-0.07876021
142	0xbddcb4bd	-0.107766606
143	0x3c610fde	0.013736693
144	0xbd4cb83f	-0.0499804
145	0x3d208b3f	0.039195295
146	0xbe2cd970	-0.16879821
147	0xbda7f241	-0.08200503
148	0xbdd2090a	-0.1025563
149	0xbd38ee4d	-0.045149136
150	0x3dd8e6c4	0.1059089
151	0xbdf70b61	-0.12062717
152	0x3e8e0833	0.2774063
153	0xbe981219	-0.29701307
154	0xbd9f4f2d	-0.077787735
155	0xbdc11d9f	-0.09429478
156	0x3ed08876	0.4072911
157	0xbb556c67	-0.0032565834
158	0xbe35433c	-0.17701429
159	0x3df8a37f	0.121405594
160	0x3d47590e	0.048668914
161	0xbdbb9ede	-0.09161161
162	0xbe4c82f0	-0.19971824
163	0x3e5b3f9d	0.21410985
164	0xbce759ff	-0.028241156
165	0x3e33c8ec	0.17557114
166	0x3e2840d8	0.16430986
167	0xbe9b093c	-0.30280483
168	0x3d67bfa8	0.056579262
169	0x3e0763f0	0.13221717
170	0xbe161da8	-0.1465975
171	0x3e010d5d	0.12602754
172	0x3e790263	0.24317317
173	0x3cd63a6f	0.02615091
174	0xbea4247a	-0.3205908
175	0x3e22b31b	0.15888636
176	0xbd12b4ce	-0.03581696
177	0xbd40ab78	-0.047038525
178	0x3cdbd0ff	0.026833056
179	0x3e0f983c	0.14022917
180	0xbc158ad2	-0.009127336
181	0x3db7b3a9	0.08969814
182	0x3cb97137	0.022636993
183	0xbd4b2a5f	-0.049600955
184	0xbe55f9eb	-0.20896117
185	0xbc7730f0	-0.015087351
186	0xbea90aeb	-0.33016142
187	0xbd6ed0dd	-0.058304656
188	0x3e4973ad	0.19673033
189	0xbd9e956e	-0.07743345
190	0x3ec0d40a	0.37661773
191	0x3bc725c9	0.0060775024
192	0xbe87344b	-0.26407084
193	0x3e8c26c8	0.27373338
194	0x3b8d2d76	0.004308398
195	0xbe77a9f6	-0.24185929
196	0x3da4953c	0.08036277
197	0xbdd4e545	-0.10395292
198	0x3be57e21	0.007003561
199	0x3e7715a8	0.24129355
200	0x3d0cf5bb	0.034414034
201	0xbeaf3916	-0.3422324
202	0x3daf1672	0.08549203
203	0x3e07b89c	0.13254017
204	0x3e3d941e	0.18513533
205	0xbe328465	-0.17433317
206	0x3e922556	0.2854411
207	0xbdc119ed	-0.09428773
208	0xbe74c661	-0.239038
209	0x3ea48476	0.3213231
210	0x3e1627bf	0.146636
211	0xbdc200f8	-0.09472841
212	0xbda712b0	-0.08157861
213	0x3e58d8cd	0.21176453
214	0x3cac472c	0.021030031
215	0x3e1fd2de	0.15607783
216	0xbe728c97	-0.23686443
217	0x3e4e6494	0.20155555
218	0xbe4170ba	-0.18890658
219	0x3e810d80	0.25205612
220	0xbdee17e4	-0.116256505
221	0x3db374c3	0.08762505
222	0x3dd79dae	0.10528122
223	0xbe81669a	-0.2527359
224	0x3d9c2fa7	0.076262765
225	0xbe62cb2b	-0.22147815
226	0xbec32da7	-0.38120767
227	0x3e33fb84	0.17576414
228	0x3d99f898	0.075181186
229	0xbe98b11b	-0.2982262
230	0xbde14990	-0.11000359
231	0xbddaaac7	-0.106771044
232	0xbd38b404	-0.04509355
233	0x3d94f346	0.07272963
234	0xbe8f01c2	-0.2793103
235	0xbd8798bc	-0.06620929
236	0x3df37f0b	0.11889466
237	0xbd9d83df	-0.07691168
238	0xbdede916	-0.11616723
239	0xbd17238f	-0.036899146
240	0xbc012abf	-0.007883727
241	0x3ca8f108	0.020622745
242	0x3e3b567a	0.18294707
243	0xbe72f2a6	-0.23725376
244	0x3db22f6c	0.08700451
245	0x3d8ace2e	0.06777607
246	0xbd9848b8	-0.07435745
247	0xbd7c1181	-0.06154013
248	0x3dc6fb34	0.09715882
249	0xbdffa269	-0.12482149
250	0x3e4c9b4b	0.19981115
251	0xbdce352a	-0.10068734
252	0x3e88daf1	0.2672954
253	0xbc97738e	-0.018487718
254	0x3d9ef6ca	0.07761915
255	0xbe24750e	-0.16060278

graph_prop.message_funcs.1.bias f4 [32]
0	0xbe9786c6	-0.2959501
1	0xbc538833	-0.01291089
2	0x3db1986d	0.08671651
3	0xbe62bc4c	-0.22142142
4	0xbd959106	-0.07303052
5	0x3da1c231	0.07898367
6	0xbe0d522a	-0.13800874
7	0x3d30f8f7	0.04320618
8	0xbe079620	-0.13240862
9	0x3d9dcd53	0.07705178
10	0xbd1fce64	-0.03901519
11	0x3d9265c7	0.07148319
12	0x3d8ee68c	0.06977567
13	0x3e55f4c9	0.2089416
14	0xbc0bb3e2	-0.008526774
15	0xbd462d4e	-0.04838305
16	0x3e89491f	0.268136
17	0x3d9a327c	0.075291604
18	0xbd6a69f0	-0.057229936
19	0xbd72862e	-0.059209995
20	0x3ddbf0fe	0.10739325
21	0x3d605c6b	0.054775637
22	0xbde164ea	-0.11005576
23	0x3e49ca19	0.19706
24	0x3eaf980e	0.34295696
25	0xbe59471d	-0.21218534
26	0xbe9c13cb	-0.3048385
27	0x3e2d673b	0.1693391
28	0x3dbeaebf	0.09310674
29	0x3e0f58c8	0.13998711
30	0xbd2b4b81	-0.041820053
31	0x3d2d2705	0.04227354

graph_prop.node_update_funcs.0.weight_ih f4 [48, 32]
0	0xbe2f6a82	-0.17130473
1	0x3df7981a	0.12089558
2	0xbe829b1d	-0.25508967
3	0xbe886f19	-0.2664726
4	0xbeaa54dc	-0.33267868
5	0xbe43c187	-0.19116794
6	0xbd77423e	-0.060365908
7	0xbea96170	-0.3308215
8	0xbe4f7e6f	-0.20263074
9	0x3df86e4f	0.12130415
10	0xbed4af86	-0.41540164
11	0xbe91b1db	-0.28456005
12	0x3dbcd955	0.0922114
13	0xbca8d807	-0.020610822
14	0x3cc9e104	0.024643429
15	0x3e18f065	0.14935453
16	0x3d40acc7	0.047039773
17	0xbdc63eeb	-0.096799694
18	0xbd991c56	-0.07476108
19	0xbeaabaa3	-0.33345518
20	0xbe67464d	-0.22585411
21	0x3dd6e1a1	0.10492254
22	0xbe422a78	-0.18961513
23	0x3ea849d5	0.3286883
24	0x3d02f419	0.03197107
25	0xbd670804	-0.05640413
26	0xbe451a29	-0.1924826
27	0xbe29431d	-0.16529508
28	0xbe076659	-0.13222636
29	0xbdd4eb60	-0.10396457
30	0xbb26b873	-0.002543953
31	0x3dd840ce	0.105592355
32	0x3ebc2fdd	0.36755267
33	0x3e7fd873	0.24984913
34	0x3e0a92c5	0.1353255
35	0x3e6eb67c	0.233118
36	0xbd776ee1	-0.060408477
37	0xbd35ddcb	-0.04440097
38	0x3d3ab573	0.0455832
39	0xbdc5b969	-0.09654505
40	0x3e578aa8	0.21048987
41	0xba4d60a4	-0.000783453
42	0x3e206959	0.15665187
43	0x3e3cf1ae	0.18451568
44	0x3e647269	0.22309269
45	0x3ebd2cc3	0.36948213
46	0xbe4879a6	-0.19577655
47	0x3ada0fb4	0.001663676
48	0x3c8a8ce9	0.016912894
49	0xbd611ae6	-0.054957293
50	0x3de9f23a	0.11423154
51	0xbd629c1d	-0.055324662
52	0x3e9e398b	0.30903277
53	0x3d7f2f5f	0.062301036
54	0x3e86ce73	0.26329383
55	0x3ed22ee7	0.4105141
56	0xbe44ada1	-0.19206859
57	0xbe01acd0	-0.12663579
58	0x3eab3a1c	0.3344277
59	0x3c92d428	0.01792343
60	0x3e8a047f	0.26956555
61	0xbd065c75	-0.032803018
62	0x3da2e78f	0.079543225
63	0xbde9b4cd	-0.11411438
64	0x3f05f080	0.523201
65	0x3e11d142	0.14239982
66	0xbbdfcf35	-0.006830121
67	0x3e2ee9d0	0.1708138
68	0x3c921bc3	0.017835503
69	0xbe7ceccb	-0.24699704
70	0x3e57992d	0.21054526
71	0xbed5ad80	-0.41733932
72	0xbeed4ea1	-0.46349052
73	0x3dbec9c1	0.09315825
74	0x3d4479de	0.047967784
75	0x3c544df5	0.0129580395
76	0xbe20c105	-0.15698631
77	0xbd939b06	-0.07207303
78	0x3ed6db1b	0.4196404
79	0xbf1dd5c5	-0.6165431
80	0xbd4121cb	-0.047151368
81	0xbf3738a9	-0.7157083
82	0x3c98f07b	0.018669358
83	0x3ee6d9eb	0.45088133
84	0xbedec42e	-0.43509048
85	0x3d1b579d	0.03792535
86	0xbe9cd836	-0.30633706
87	0xbd2e990b	-0.042626422
88	0xbed1db49	-0.40987614
89	0xbd14877f	-0.03626203
90	0xbe9f8a02	-0.3115998
91	0x3f0cd9c4	0.55019784
92	0x3e43dd49	0.19127382
93	0x3da145d1	0.078746445
94	0xbd49e707	-0.04929259
95	0xbd115cb9	-0.035488818
96	0xbdb0fa95	-0.08641545
97	0xbe1134f6	-0.14180359
98	0xbea2360a	-0.31681854
99	0x3ded85c5	0.1159778
100	0xbe9b181f	-0.3029184
101	0xbe6d5a76	-0.2317904
102	0x3e9611ef	0.29310557
103	0x3e16a3b2	0.14710882
104	0xbd9ca5cd	-0.076488115
105	0x3cb9e31c	0.022691302
106	0x3e0a32da	0.13495961
107	0xbd99abd6	-0.07503478
108	0xbda060cc	-0.078309625
109	0x3db343a8	0.08753139
110	0x3db5f7f3	0.08885183
111	0xbe5a7ab7	-0.21335874
112	0xbd16e774	-0.036841825
113	0xbe451796	-0.19247279
114	0xbe099f60	-0.13439703
115	0xbe9a8007	-0.30175802
116	0xbd9b91f4	-0.07596198
117	0xbe83416e	-0.25635856
118	0xbc257930	-0.010099694
119	0x3da0b8ca	0.07847746
120	0xbe6dac4e	-0.2321026
121	0xbe0977bc	-0.13424581
122	0xbe729377	-0.23689066
123	0xbe0823f3	-0.13294964
124	0x3e320500	0.1738472
125	0xbe3ed6e9	-0.18636669
126	0xbcacc392	-0.021089349
127	0xbf39877f	-0.72472376
128	0xbdc8b9b9	-0.09801049
129	0x3db97d99	0.09057159
130	0x3d8706dc	0.06593105
131	0x3ebed401	0.3727112
132	0xbe500425	-0.20314081
133	0xbee95f56	-0.45580548
134	0xbbcfe7aa	-0.006344755
135	0xbeba87fc	-0.36431873
136	0xbe62fb7c	-0.22166246
137	0x3d104a2f	0.035226997
138	0x3e1c14ab	0.15242259
139	0xbe948aab	-0.29012045
140	0xbd883bda	-0.06652041
141	0x3df139d2	0.117786065
142	0x3d0b9131	0.034074012
143	0xbe486ce1	-0.19572784
144	0xbd1aced5	-0.037794907
145	0xbe014fc7	-0.12628089
146	0xbdc52b75	-0.096274294
147	0xbc7e7892	-0.015531676
148	0x3e1327ed	0.14370699
149	0xbdfba456	-0.12287204
150	0xbdbc91b1	-0.09207476
151	0x3e6e3506	0.23262414
152	0xbf15707a	-0.5837475
153	0x3e28711e	0.16449401
154	0x3e542ef3	0.20721035
155	0x3e025ba1	0.12730266
156	0x3e8936fc	0.26799762
157	0x3e792085	0.24328811
158	0xbacb3bd0	-0.0015505496
159	0x3e56873c	0.20950025
160	0xbe91c9b5	-0.28474203
161	0xbed58425	-0.4170238
162	0x3e0998b5	0.1343716
163	0xbd70a7fe	-0.05875396
164	0xbe0cf92c	-0.13766927
165	0x3e360eb8	0.17779052
166	0x3e415387	0.1887952
167	0x3e4b4a3f	0.19852541
168	0x3ebea44a	0.37234718
169	0x3eafcec5	0.3433744
170	0xbe11c8b1	-0.14236714
171	0x3e08db4c	0.13364905
172	0x3eafb793	0.34319744
173	0xbdecb17d	-0.11557291
174	0xbec2cc0b	-0.38046297
175	0x3d92f07c	0.07174775
176	0x3d8fdb50	0.070242524
177	0xbb27dd60	-0.0025614128
178	0xbe8f2488	-0.2795756
179	0xbd475272	-0.04866261
180	0xbc6b0df5	-0.014346589
181	0xbe9e76c1	-0.30949977
182	0xbea9fb9d	-0.33199778
183	0x3e3ede15	0.18639405
184	0x3ea7a3fd	0.327423
185	0xbd86350d	-0.065530874
186	0xbeaef3c9	-0.34170368
187	0xbebf662d	-0.3738264
188	0xbe914415	-0.28372255
189	0x3d76f524	0.060292378
190	0x3e017783	0.12643246
191	0x3e578a7b	0.2104892
192	0x3c0918f0	0.008367762
193	0x3e610366	0.21973953
194	0xbd1fced3	-0.039015602
195	0x3dcdb96a	0.100451306
196	0xbe339c5c	-0.17540115
197	0x3d63a0e5	0.055573363
198	0xbd2a394c	-0.04155855
199	0xbe4fb1dc	-0.20282692
200	0xbdee57de	-0.11637853
201	0x3e2a2698	0.16616285
202	0xbdfff41e	-0.124977335
203	0x3e72311f	0.2365155
204	0x3e3db564	0.18526226
205	0xbe1af664	-0.15133053
206	0x3eaa0a5d	0.33211032
207	0xbe617e7f	-0.2202091
208	0xbe1ea344	-0.15491968
209	0xbe5e8163	-0.21729045
210	0xbd1053f6	-0.03523632
211	0x3ef39bf1	0.4757991
212	0xbe432dae	-0.19060394
213	0x3d130ab7	0.03589889
214	0x3dcc3765	0.09971503
215	0x3e3750c5	0.17901905
216	0x3d4ab392	0.049487658
217	0x3e4510e7	0.19244729
218	0x3c89437e	0.016755816
219	0x3ea80a70	0.32820463
220	0x3e0dc05c	0.1384291
221	0xbe9e0e1d	-0.30870143
222	0xbe01b26e	-0.12665722
223	0x3d83b88c	0.06431684
224	0xbe6e689b	-0.23282091
225	0xbf06108c	-0.52369
226	0xbe81638e	-0.25271267
227	0xbe8fdd55	-0.2809855
228	0xbea53296	-0.32265157
229	0xbd633611	-0.055471484
230	0xbe84ce59	-0.2593868
231	0xbec17897	-0.37787315
232	0xbf379235	-0.7170747
233	0xbe436f18	-0.19085348
234	0x3e538fc0	0.20660305
235	0xbd79de5b	-0.06100307
236	0xbe6aa0ad	-0.22912855
237	0xbf123741	-0.5711556
238	0xbea5a67b	-0.32353577
239	0xbe080171	-0.132818
240	0xbdce2d7a	-0.10067268
241	0xbe05116a	-0.12994924
242	0x3d4bfb21	0.049800042
243	0xbd72645f	-0.059177753
244	0xbdeff31d	-0.11716292
245	0x3e001943	0.12509637
246	0x3e0eaf9b	0.13934176
247	0x3cf57e64	0.029967494
248	0x3ccc6086	0.02494837
249	0xbda05afd	-0.07829855
250	0xbd94791c	-0.07249662
251	0xbed4c5b2	-0.4155708
252	0xbd702708	-0.058630973
253	0xbd6cb909	-0.05779365
254	0xbe007bfe	-0.125473
255	0xbdb5895e	-0.08864091

graph_prop.node_update_funcs.0.weight_hh f4 [48, 16]
0	0xbe3c5357	-0.18391167
1	0xbdf37f79	-0.11889548
2	0xbe103723	-0.14083533
3	0x3e11178e	0.14169142
4	0xbe315025	-0.17315729
5	0xbe06255b	-0.13100187
6	0x3d23805f	0.039917346
7	0xbeb600f2	-0.35547596
8	0x3e48230b	0.19544618
9	0x3d1fbeee	0.039000444
10	0x3a9fbd44	0.0012187143
11	0xbe0b8393	-0.1362441
12	0x3d3228cb	0.043495934
13	0x3e87b26a	0.26503307
14	0xbdd30164	-0.103029996
15	0x3e18ebea	0.14933744
16	0xbd73fe86	-0.059568904
17	0x3d110a13	0.03541
18	0x3ec3ce3b	0.3824328
19	0x3dde67f2	0.1085967
20	0x3e489472	0.19587877
21	0xbea656ed	-0.32488194
22	0x3e8eff50	0.27929163
23	0x3dc3f34b	0.09567889
24	0xbe933a2e	-0.28755325
25	0xbdc97964	-0.098376065
26	0x3db5ba07	0.088733725
27	0xbd03c1ac	-0.03216712
28	0xbe0c302e	-0.13690254
29	0x3e2af2f3	0.1669424
30	0x3de45979	0.11149878
31	0x3daad6d0	0.083417535
32	0x3e35551f	0.17708252
33	0x3da00c73	0.078148745
34	0x3e12f883	0.14352612
35	0x3e52c8b0	0.20584369
36	0xbc8cde19	-0.017195748
37	0x3e1c6454	0.15272647
38	0x3ef99b15	0.4875113
39	0x3e8849b6	0.26618737
40	0xbd7e07fa	-0.062019326
41	0xbeb6fc18	-0.35739207
42	0xbcb694ef	-0.022287814
43	0x3e85b2d4	0.26112998
44	0xbd8da939	-0.06917042
45	0xbcdb14dd	-0.026743347
46	0x3e844861	0.2583647
47	0xbe46255b	-0.19350187
48	0xbe997d36	-0.2997834
49	0xbe0a390b	-0.13498323
50	0x3e943920	0.28949833
51	0xbe778e86	-0.24175462
52	0x3eb016de	0.34392446
53	0xbafd13a4	-0.0019308222
54	0xbf387148	-0.72047853
55	0x3ecfe044	0.4060079
56	0x3c98f295	0.01867036
57	0xbc8ddcb1	-0.017317148
58	0xbea39cf1	-0.31955674
59	0x3dca86d3	0.09888997
60	0x3e0ef676	0.13961205
61	0x3ef7fd69	0.48435524
62	0xbe94427b	-0.2895697
63	0x3dde4c10	0.108543515
64	0x3d2a4f32	0.041579433
65	0xbe572e27	-0.210137
66	0xbe822a4d	-0.25422898
67	0x3e293ba3	0.16526656
68	0x3ed9f2c0	0.42568016
69	0xbed61f3b	-0.41820702
70	0xbc6b70a4	-0.014370117
71	0x3e4969ad	0.19669218
72	0xbec0e710	-0.37676287
73	0xbf40d1de	-0.7532023
74	0xbdc69d39	-0.096979566
75	0x3d9d8ef6	0.07693283
76	0xbed97238	-0.42469954
77	0x3e913df5	0.28367582
78	0x3f972428	1.1807909
79	0xbed0ee57	-0.4080684
80	0x3dd5bfb4	0.10436955
81	0xbe05c10b	-0.13061921
82	0x3dc8b880	0.098008156
83	0x3e32f5ac	0.17476529
84	0xbeb7cb51	-0.35897306
85	0x3e90a54f	0.2825112
86	0xbd818d11	-0.063257344
87	0xbec8f722	-0.39251047
88	0x3d78b377	0.060718026
89	0x3e89de2b	0.26927313
90	0xbe8c3004	-0.27380383
91	0xbbac4273	-0.005256945
92	0xbebda29e	-0.3703813
93	0xbee1a4fd	-0.4407119
94	0xbf057108	-0.52125597
95	0x3f0ead13	0.5573284
96	0x3e5b6055	0.21423467
97	0x3da27fda	0.07934542
98	0xbdda218f	-0.10650932
99	0xbdea70b9	-0.114472814
100	0x3eb6580a	0.35614043
101	0xbd0badfe	-0.03410148
102	0xbbed4359	-0.0072406945
103	0x3e3b732d	0.18305655
104	0xbdd4c18a	-0.10388477
105	0xbd3b3cbf	-0.04571223
106	0xbf0761ac	-0.5288341
107	0xbd838df4	-0.0642356
108	0xbea7fd04	-0.32810223
109	0x3e87adbc	0.26499736
110	0x3e2fe8a7	0.17178594
111	0xbe4ec470	-0.20192122
112	0xbd4483f9	-0.04797742
113	0xbec0b707	-0.3763964
114	0xbd832758	-0.064039886
115	0xbe8471fe	-0.2586822
116	0x3e1becd2	0.15227059
117	0x3cf98aaf	0.030461637
118	0xbdb4b5aa	-0.08823712
119	0x3da995bd	0.082805134
120	0x3c86a1fa	0.016434658
121	0x3caca947	0.021076811
122	0xbf17d9aa	-0.59316504
123	0xbda1f1bc	-0.07907435
124	0x3e43394a	0.19064823
125	0xbc950c3e	-0.018194314
126	0xbd343cbf	-0.044003244
127	0xbe90ce76	-0.28282517
128	0x3e3502b9	0.1767682
129	0x3cd9357b	0.02651476
130	0xbe08acf3	-0.13347225
131	0xbe8ca3b0	-0.27468634
132	0x3e0e8b0d	0.13920231
133	0x3e70980a	0.23495498
134	0xbe51c640	-0.20485783
135	0x3e8d59ce	0.27607578
136	0xbe8b6d76	-0.2723195
137	0xbe314b98	-0.17313993
138	0xbc07dc43	-0.008292261
139	0xbe102b72	-0.14079073
140	0x3e0392a1	0.12848903
141	0x3e984d26	0.2974636
142	0xbe6fe9dd	-0.23429056
143	0x3e9237a8	0.28558087
144	0xbf16ccc3	-0.5890619
145	0xbd8e93d9	-0.069617935
146	0xbebf1745	-0.3732244
147	0x3e2d61fe	0.16931912
148	0x3dd9146e	0.105996
149	0xbe7a336c	-0.24433678
150	0x3e99856e	0.2998461
151	0xbe118bf2	-0.14213541
152	0x3e89e5e1	0.26933196
153	0xbd03c0ff	-0.032166477
154	0x3e8245f9	0.2544401
155	0xbda9f0a0	-0.08297849
156	0xbe2b6ab5	-0.16739924
157	0x3e503bea	0.20335355
158	0x3e9f0e4b	0.31065592
159	0x3d9ba094	0.07598987
160	0xbe7fbc5e	-0.249742
161	0xbdee1d2a	-0.11626656
162	0xbe472c78	-0.19450557
163	0x3d74ca1b	0.059763055
164	0xbcc96806	-0.024585735
165	0x3df6146b	0.12015613
166	0xbd08a96a	-0.03336469
167	0xbdb87e30	-0.09008443
168	0xbed25165	-0.41077724
169	0x3ee83c04	0.45358288
170	0xbea7b4fc	-0.32755268
171	0x3e8939c5	0.26801887
172	0x3e350b21	0.17680027
173	0x3ea40566	0.3203537
174	0xbed7a685	-0.42119232
175	0x3d5393e4	0.05165471
176	0xbda6d7c9	-0.081466265
177	0xbe9158f4	-0.28388178
178	0xbba58d18	-0.00505222
179	0xbe9803c9	-0.29690388
180	0x3ec5dd4d	0.38645402
181	0xbcf5fe27	-0.030028416
182	0xbeb34d46	-0.35019892
183	0xbe79990f	-0.24374793
184	0xbdbfb625	-0.09360913
185	0xbe32d70d	-0.17464848
186	0x3e0c540c	0.13703936
187	0xbecef4dd	-0.4042119
188	0x3d58db6d	0.052943636
189	0xbeae6764	-0.34063256
190	0xbe8c39a4	-0.27387726
191	0xbed82bd5	-0.4222094
192	0xbe64590b	-0.22299592
193	0xbf159196	-0.5842527
194	0xbef13a66	-0.47114867
195	0xbeb55945	-0.3541967
196	0xbe9147ed	-0.28375188
197	0x3dd98835	0.106216826
198	0xbe86240d	-0.2619938
199	0xbeca1908	-0.39472222
200	0x3db244e5	0.08704547
201	0x3e5a332d	0.21308585
202	0x3d509862	0.050926574
203	0x3d814dac	0.06313643
204	0x3e81cf13	0.25353298
205	0x3cce45aa	0.025179703
206	0x3dda6586	0.10663895
207	0x3dcddd36	0.10051958
208	0xbe9fe4e5	-0.3122932
209	0xbe9f2dec	-0.31089723
210	0xbea7dc3e	-0.3278522
211	0xbec28272	-0.37990147
212	0x3ed02e55	0.4066035
213	0x3bab2668	0.0052230842
214	0xbd78322f	-0.060594734
215	0xbe1154fe	-0.14192578
216	0x3da33834	0.07969704
217	0xbe2e22d3	-0.17005472
218	0x3f306cf2	0.6891624
219	0x3ee94c8b	0.4556621
220	0x3d83ec0f	0.06441509
221	0x3f1acca2	0.60468495
222	0xbec78db7	-0.38975307
223	0xbf1fb2ce	-0.6238221
224	0x3e7e791c	0.24850887
225	0xbea24519	-0.31693342
226	0xbe8a56cc	-0.27019346
227	0xbd02e279	-0.031954262
228	0x3cb4594b	0.022015234
229	0x3d979355	0.07401148
230	0xbe299cf2	-0.16563776
231	0xbe3f5584	-0.18684965
232	0xbe9ab598	-0.3021667
233	0x3e4b3a1f	0.1984639
234	0x3d0bf65d	0.034170497
235	0x3e100890	0.14065766
236	0x3e0282dc	0.12745231
237	0x3df9a258	0.12189168
238	0xbe403548	-0.18770325
239	0x3e98fff3	0.29882774
240	0xbdcb8833	-0.09938087
241	0xbe3b01ea	-0.18262449
242	0x3ecb52cc	0.39711607
243	0xbe657e83	-0.22411542
244	0xbd9c5dfe	-0.07635115
245	0xbe56fc20	-0.20994616
246	0x3e86304d	0.26208726
247	0x3c4b0f81	0.012393833
248	0xbb6b1704	-0.0035871873
249	0xbecf8b4d	-0.40535966
250	0x3d260290	0.040529788
251	0xbe118b7b	-0.14213364
252	0xbe58a514	-0.21156722
253	0x3e85f67f	0.26164624
254	0x3e77fff5	0.24218734
255	0xbe53b6fd	-0.20675273

graph_prop.node_update_funcs.0.bias_ih f4 [48]
0	0x3f9c2f6b	1.2201971
1	0xbfa792f8	-1.3091726
2	0x3eec9530	0.4620757
3	0x3f89b43e	1.075813
4	0x3e9b1c12	0.30294853
5	0xbfbae006	-1.4599617
6	0x3f886f67	1.0658997
7	0xbecb29e3	-0.39680395
8	0xbe3e5b9d	-0.18589635
9	0xbf8dce58	-1.1078596
10	0x3f86f8a2	1.0544627
11	0x3ed7ff9b	0.421872
12	0xbfc43cb1	-1.5331022
13	0x3f2fa547	0.6861157
14	0xbfa9eeaf	-1.3275965
15	0x3fd11afa	1.6336358
16	0xbf76e0d2	-0.964368
17	0x3fd51d7f	1.6649626
18	0xbe6a6ff8	-0.22894275
19	0x3f926d62	1.1439631
20	0xbe674f0f	-0.22588752
21	0x3f0bc0e1	0.54591185
22	0x3d4d87fc	0.050178513
23	0x3ec8fbb1	0.39254525
24	0x3f2cbc15	0.6747449
25	0x3d9b0fcc	0.075713724
26	0x400ca7c0	2.1977386
27	0x3d6e40ad	0.05816715
28	0x3f08abee	0.53387344
29	0x3f67e595	0.9058469
30	0x3ef47ba3	0.47750577
31	0x3dd30121	0.1030295
32	0x3fae97b0	1.3640041
33	0xbeffc1d9	-0.49952582
34	0x3ee80b83	0.45321283
35	0xbf08d4c3	-0.5344965
36	0xbf297b0d	-0.66203386
37	0xbdcbadf0	-0.09945285
38	0x3fb29347	1.3951195
39	0x3ff7ad67	1.9349793
40	0x3f0c99d5	0.5492223
41	0xbf0f355e	-0.55940807
42	0x3f57789a	0.841684
43	0xbf5fc4af	-0.8740949
44	0xbead7f90	-0.33886385
45	0x3e637797	0.22213589
46	0xc01ad2d4	-2.419118
47	0xbfc60cb8	-1.5472631

graph_prop.node_update_funcs.0.bias_hh f4 [48]
0	0xbf1a4479	-0.6026073
1	0xbf0db718	-0.55357504
2	0xbe22bf9d	-0.15893407
3	0x3e37ddb6	0.1795567
4	0x3f92917f	1.1450652
5	0xbed404e0	-0.4140997
6	0xbf42253a	-0.75838053
7	0xbc9a8d9d	-0.018866355
8	0xbf0d0b1f	-0.55095094
9	0x3fed7b8e	1.8553331
10	0xbf11ac7a	-0.56903803
11	0x3fabc041	1.3418046
12	0x3ed185ca	0.40922385
13	0x3f8029a9	1.0012714
14	0x3f8e0d34	1.1097779
15	0x3faa72b0	1.331625
16	0xbf82ac8c	-1.0208907
17	0x3f05296f	0.5201635
18	0xbde986ca	-0.11402662
19	0x4003c82d	2.0590928
20	0xbf3123df	-0.6919536
21	0x3f918e6c	1.1371589
22	0x3e84ab51	0.25911954
23	0x40137728	2.3041477
24	0xbf45d96b	-0.7728488
25	0xbf104a74	-0.56363606
26	0xbfe2fabe	-1.773277
27	0xbf253fe3	-0.6455061
28	0x3ed9007b	0.4238318
29	0x3f38d76d	0.72203714
30	0x3f6a461b	0.9151322
31	0xc0168d98	-2.3523922
32	0x3f5ac954	0.8546345
33	0x3fca3639	1.5797797
34	0xbf395bcb	-0.7240569
35	0xbe1ddbfa	-0.15415946
36	0x3fc5058d	1.5392319
37	0x3f8f242a	1.1182911
38	0xbfd5bef8	-1.6698904
39	0xbf08badb	-0.5341012
40	0x3f815146	1.0102928
41	0x3d5d86c3	0.054083597
42	0x3fa395bc	1.278007
43	0xbfa66ad4	-1.3001351
44	0xbfac12de	-1.3443258
45	0xbfd4c29c	-1.662189
46	0xbe3fffdc	-0.18749946
47	0xbf686b2e	-0.90788543

graph_prop.node_update_funcs.1.weight_ih f4 [48, 32]
0	0x3eb681e1	0.35645965
1	0xbe97581d	-0.29559413
2	0x3e6c0ced	0.23051806
3	0xbe37b76d	-0.17941065
4	0x3da06b3a	0.07832952
5	0xbd4ff7c2	-0.05077339
6	0xbe957101	-0.29187778
7	0x3e6eb233	0.23310165
8	0x3df34031	0.11877478
9	0xbe3e7358	-0.18598688
10	0x3d49a8fe	0.04923343
11	0xbe9e5d59	-0.30930594
12	0xbe847eb2	-0.2587791
13	0x3e1d76dc	0.15377373
14	0x3ed2a91e	0.4114465
15	0x3dea70b4	0.11447278
16	0xbd074919	-0.033028696
17	0x3ebcbc5c	0.36862457
18	0x3e12961d	0.14315076
19	0xbdf5cb82	-0.12001707
20	0x3ea475dc	0.3212117
21	0x3ce8defd	0.028426642
22	0x3dd43ae3	0.10362794
23	0x3d70a6a7	0.058752682
24	0xbebffb70	-0.3749652
25	0x3e587027	0.21136533
26	0xbcb3c9f2	-0.021946881
27	0x3d5ae618	0.05344209
28	0x3e25c99d	0.1619019
29	0x3ebd1cd1	0.36936048
30	0x3d556c6d	0.052105356
31	0x3dae3fea	0.085082844
32	0xbd6358f5	-0.055504758
33	0x3dd4eb16	0.103964016
34	0x3d5a6010	0.05331427
35	0x3c70088f	0.014650478
36	0x3d8ef0d9	0.06979532
37	0x3e0dd497	0.13850628
38	0xbdc437c1	-0.09580947
39	0xbd64ec2e	-0.0558893
40	0xbec11d63	-0.37717733
41	0xbcd9dda2	-0.02659494
42	0x3e0bf738	0.13668525
43	0xbde6acda	-0.112634376
44	0xbd9d6be3	-0.076865934
45	0x3df1b6c3	0.11802437
46	0xbe0be144	-0.13660151
47	0xbda04a16	-0.07826631
48	0x3de7c07d	0.11316011
49	0xbe136225	-0.14392908
50	0xbd1d704f	-0.038437184
51	0xbd8943f5	-0.06702415
52	0xbe5d2f55	-0.21600087
53	0xbed330f5	-0.4124829
54	0x3e752665	0.23940428
55	0xbe09e4ee	-0.13466236
56	0xbe69bc32	-0.22825697
57	0xbe51a72a	-0.20473924
58	0xbe0fc3d0	-0.1403954
59	0x3e89e0a8	0.26929212
60	0x3d0ec3d3	0.03485472
61	0xbd70a0c8	-0.058747083
62	0xbe57d5e3	-0.21077685
63	0x3d6ac56f	0.057317194
64	0xbc81454d	-0.015780116
65	0xbe017c9f	-0.12645195
66	0x3e5b9fb4	0.2144764
67	0x3d9ace95	0.07558934
68	0x3b10eaf8	0.0022112709
69	0xbd32da8a	-0.043665446
70	0x3da53ef4	0.08068648
71	0xbee97eaf	-0.45604464
72	0xbcdced4b	-0.026968619
73	0xbe218b7c	-0.15775865
74	0x3ec91610	0.39274645
75	0x3dd18f98	0.102324665
76	0xbe943bbb	-0.2895182
77	0xbe48fc2a	-0.19627443
78	0xbd2cbaba	-0.042170264
79	0x3e822626	0.2541973
80	0xbea574eb	-0.32315764
81	0x3e90ea5c	0.28303802
82	0x3e75794c	0.23972052
83	0x3e09ab81	0.1344433
84	0xbd4fa680	-0.050695896
85	0x3e857332	0.2606445
86	0x3d14986b	0.03627817
87	0xbe6e95b6	-0.23299298
88	0x3c6d7155	0.0144923525
89	0x3cf9d1b0	0.030495495
90	0x3e0d676e	0.13808987
91	0x3dba42b4	0.09094754
92	0x3b98bd43	0.0046612336
93	0xbd11ff7e	-0.035644047
94	0x3e8a5122	0.27015024
95	0x3eb3d1db	0.35121045
96	0x3ddd42bd	0.10803745
97	0x3c967102	0.018364433
98	0xbe1c317a	-0.15253249
99	0x3e89a869	0.268863
100	0x3df80420	0.12110162
101	0x3d2e0bc6	0.042491697
102	0x3ddb8c6f	0.10720145
103	0x3edb8d76	0.42881364
104	0x3e4be700	0.19912338
105	0x3de93cf9	0.11388583
106	0x3e89b8e3	0.2689887
107	0x3e0d7424	0.13813835
108	0x3ebb6cb4	0.3660637
109	0x3d1266f7	0.035742726
110	0x3e04030e	0.1289179
111	0x3c8ca8a2	0.017170254
112	0x3de5d1d9	0.11221666
113	0x3d3e4c7d	0.046459664
114	0x3e3b57be	0.1829519
115	0x3e8638e7	0.26215288
116	0x3d1ed223	0.03877462
117	0x3e25b76d	0.16183253
118	0x3ea17b7c	0.31539524
119	0x3e690e75	0.22759421
120	0x3e87fbd1	0.26559308
121	0xba3034c3	-0.00067217293
122	0x3e795c7a	0.24351683
123	0x3e717121	0.23578312
124	0x3e25d00a	0.16192642
125	0x3db4e376	0.08832447
126	0x3ebdd199	0.37073973
127	0x3eab125d	0.33412448
128	0x3e334d66	0.17509994
129	0x3d277573	0.040883493
130	0xbbdddebe	-0.0067709377
131	0xbd6145a1	-0.054998044
132	0xbdc3a33b	-0.09552618
133	0x3e03ac27	0.1285864
134	0xbe3afc42	-0.18260291
135	0x3b1eebec	0.0024249507
136	0xbe2e16f5	-0.17000945
137	0xbc89a8e9	-0.016804175
138	0xbd4c8eb3	-0.049940776
139	0x3e4fb92f	0.20285486
140	0x3dcd9eea	0.10040076
141	0x3e4cbf9c	0.19994968
142	0x3df53532	0.11973037
143	0x3e291a80	0.16514015
144	0x3ec352bf	0.38149068
145	0x3e256c1c	0.16154522
146	0x3e4fddee	0.20299503
147	0x3e9a4669	0.30131844
148	0x3e98f3ab	0.29873404
149	0x3ecf5feb	0.40502867
150	0x3e4268ec	0.18985337
151	0xbd67da84	-0.056604877
152	0x3e271860	0.16317892
153	0x3c69365d	0.014234153
154	0x3e8bc39f	0.27297685
155	0xbd2cf6f5	-0.042227704
156	0x3af8b270	0.0018974077
157	0x3ed07483	0.4071389
158	0x3d88a948	0.06672913
159	0xbe9c6765	-0.30547634
160	0x3e2621a6	0.16223773
161	0x3d3ec962	0.046578772
162	0xbe2d43be	-0.16920373
163	0xbe612b94	-0.2198928
164	0xbd931e39	-0.07183499
165	0x3d777851	0.060417477
166	0x3d5d4ce5	0.05402841
167	0x3e25f032	0.16204908
168	0x3e39474f	0.18093608
169	0xbea5cdac	-0.32383478
170	0x3e3469f8	0.17618549
171	0xbe254906	-0.16141137
172	0x3db2fa12	0.087391034
173	0x3e39ffe9	0.18164028
174	0x3d5d0866	0.053963087
175	0xbd8b4a91	-0.06801332
176	0xbea103fe	-0.31448358
177	0x3cb843a5	0.022493193
178	0x3e61b9da	0.22043553
179	0xbcd48af3	-0.025945162
180	0x3e56f22e	0.20990822
181	0x3e0f5019	0.13995399
182	0x3e273bc5	0.16331394
183	0x3dc228c8	0.09480435
184	0x3e35df45	0.17760952
185	0xbd4b0738	-0.04956743
186	0x3d77c2eb	0.060488623
187	0x3a396b20	0.0007073153
188	0x3ea014ea	0.31265956
189	0x3ea46d54	0.3211466
190	0x3db288bb	0.087174855
191	0x3e395c48	0.18101609
192	0xbd894756	-0.067030594
193	0xbe837e18	-0.2568214
194	0x3e7d0ec2	0.24712661
195	0x3e424e6d	0.1897523
196	0xbe0f2550	-0.13979077
197	0x3e472cf8	0.19450748
198	0x3e67c15b	0.22632353
199	0xbe6016d0	-0.21883702
200	0xbe4c1ec8	-0.19933617
201	0x3e327d82	0.1743069
202	0x3e27e43b	0.16395657
203	0xbe789891	-0.2427695
204	0x3e1af277	0.15131555
205	0x3e0e195d	0.13876863
206	0xbd90f1c7	-0.07077365
207	0xbe00c7f9	-0.12576284
208	0xbc07fd29	-0.008300104
209	0x3ec71c89	0.38888958
210	0x3ec99f9a	0.3937958
211	0x3eb28ce8	0.34873128
212	0x3d89f292	0.0673572
213	0xbe2df3d0	-0.16987538
214	0x3ea09c96	0.31369466
215	0x3d7756be	0.06038546
216	0x3e5c601b	0.21521036
217	0x3ecb52b3	0.39711532
218	0xbd14fe36	-0.036375247
219	0x3e8c5a9d	0.27412882
220	0xbe0e4527	-0.13893567
221	0x3dda1ed9	0.10650415
222	0x3f4f775b	0.81041497
223	0x3e4a0903	0.1973
224	0x3c986240	0.018601537
225	0xbf03a10c	-0.51417613
226	0x3d2f05ea	0.04273025
227	0x3da434b6	0.08017866
228	0x3e7a9547	0.24471007
229	0x3e8c0b7a	0.27352506
230	0x3de9ee9b	0.114224635
231	0x3dfacaf7	0.12245744
232	0x3e4ef317	0.20209919
233	0xbe9cac9f	-0.3060045
234	0xbdbe8c16	-0.09304063
235	0x3e608d39	0.21928872
236	0xbe97b8be	-0.29633135
237	0xbe252d7d	-0.16130634
238	0xbd65d555	-0.056111652
239	0x3d1f38b6	0.038872443
240	0xbd3e1759	-0.046408985
241	0xbe8e6daf	-0.27818057
242	0x3d76dc4b	0.06026868
243	0x3e6c2b5d	0.23063417
244	0x3ecf187a	0.40448362
245	0x3b518f25	0.003197619
246	0x3dae4018	0.08508319
247	0x3d053297	0.03251895
248	0xbcbec55b	-0.023287466
249	0xbd3d7715	-0.046256144
250	0xbe70b183	-0.23505215
251	0x3da7e321	0.08197618
252	0xbdc914ed	-0.098184444
253	0x3e62d5c3	0.22151856
254	0x3e2d0fff	0.16900633
255	0xbb193562	-0.0023377766
