housingpipeline/housingpipeline/dgmg/restarts/dgmg_model_epoch_0_batch_700.pth (torch, 297529 bytes, 42 tensors)

graph_embed.node_gating.0.weight f4 [1, 16]
000000 95 61 b4 3f b4 45 99 40 d4 e3 dd bf 93 f1 9a 40
       1.409228 4.7897587 -1.7335153 4.841989
000010 a5 ad 01 c0 f6 59 88 40 5c c8 b2 bf f7 9b 14 c0
       -2.0262234 4.2609816 -1.3967395 -2.3220193
000020 c9 5d 5f c0 6a 74 8e c0 c0 05 8a 40 17 77 3a 40
       -3.4900992 -4.4517107 4.313202 2.9135187
000030 08 b6 a8 3f bf 9e 21 c0 7b 83 91 3f 90 85 d1 3f
       1.3180552 -2.525314 1.136825 1.6368885

graph_embed.node_to_graph.weight f4 [32, 16]
000000 81 99 0b c0 d7 fc 85 bf 73 97 c8 3f cd 9a ea 3f
       -2.1812441 -1.0467786 1.5671219 1.8328491
000010 c9 77 bb 3f 39 65 ee 3f 59 10 19 40 ce d8 c5 3f
       1.464593 1.8624641 2.3916228 1.5456789
000020 ec fc 04 c0 e9 ae 0b c0 35 6b 4a 40 93 71 ab bf
       -2.0779371 -2.1825507 3.1627934 -1.3394035
000030 10 d0 d0 bf 08 da c9 3f b1 49 2b c0 85 99 ec bf
       -1.6313496 1.5769663 -2.6763728 -1.848435
000040 77 a0 ed bc fd 6f 43 be 7a 7a 7b bf db 7b 20 bf
       -0.02900718 -0.19085689 -0.9823376 -0.6268899
000050 f3 d7 b6 3e 2f 7d 10 3f 47 37 cd be 4c 35 73 3e
       0.3571163 0.56441015 -0.40081236 0.237508
000060 ed 4b 55 3e 45 72 06 3f 48 16 50 be 00 94 1b 3f
       0.20829745 0.5251811 -0.20321 0.60772705
000070 a6 1b b2 3e 7e f8 87 3f e6 ac 3d 3e 1e ca 04 bf
       0.3478672 1.0622709 0.18522987 -0.51870906
000080 44 a1 aa 3f 3b 59 dd 3f 16 99 54 3e 1a cb 0b 40
       1.3330464 1.7292856 0.20761523 2.1842713
000090 bf 91 80 bf 89 af 4a be 69 73 d5 3e 92 b8 be be
       -1.0044478 -0.19793524 0.41689613 -0.3725019
0000a0 01 a2 d8 3e 08 e7 b0 bf 6f 46 53 bc 37 3c 19 3f
       0.423111 -1.3820505 -0.012895211 0.59857506
0000b0 b6 e0 06 bf a8 f5 9a bf bb 6a ef 3f cb 86 28 3f
       -0.5268663 -1.2106218 1.8704447 0.6583068
0000c0 5a 88 9a 3f c6 45 63 3f 38 43 b3 bf ff 21 90 bf
       1.2072861 0.8877834 -1.4004889 -1.1260375
0000d0 09 e8 19 bf 6c 45 ad be 59 16 be bf bc 01 fe bf
       -0.6011968 -0.33842027 -1.485057 -1.9844279
0000e0 aa 33 eb 3f 92 2e c6 3e 84 dd 93 3c e6 68 06 3f
       1.8375142 0.38707405 0.018049963 0.5250381
0000f0 00 f6 d9 3f 7d 9e e4 bf d6 fc 3b 3f eb 6f 97 3f
       1.7028198 -1.7860867 0.7343267 1.183103
000100 b0 41 0a c0 ca d3 c6 bf 75 6d 12 40 c2 fc 84 3f
       -2.1602592 -1.5533383 2.2879307 1.0389636
000110 69 d6 cb 3f 78 fb c1 bf 23 37 ff 3f ae 98 19 40
       1.5924808 -1.5154867 1.9938701 2.3999438
000120 0d da db bf be fc 64 be d9 5d df 3e 65 b8 20 c0
       -1.7175919 -0.22362038 0.43626288 -2.5112545
000130 d6 e5 1a c0 72 27 b8 3f cb 58 e1 bf 4c 73 e5 bf
       -2.420278 1.4387038 -1.7605222 -1.7925811
000140 24 69 14 be 17 3e 80 be 36 e9 83 3f 13 32 23 3f
       -0.14493233 -0.2504737 1.0305545 0.6374828
000150 92 ee 63 3e e3 1c 8e bf b4 91 bd 3f 08 63 d1 3f
       0.22258976 -1.1102566 1.481009 1.6358347
000160 f3 99 81 bf 2d f9 07 bf dd 7e e5 bd 91 9b 56 bf
       -1.0125107 -0.5311459 -0.11205838 -0.83831125
000170 02 b7 aa bf 45 16 f7 3d a3 53 84 bc 33 6f c2 be
       -1.33371 0.120647945 -0.016153162 -0.37975463
000180 b8 5a 3b c0 59 c2 1f c0 8f f2 5f 3f bc a5 de 3d
       -2.927412 -2.496237 0.8747949 0.10871455
000190 f8 6f 1c 40 86 c4 dd 3e c0 d7 04 40 b9 a4 a2 3f
       2.444334 0.43313998 2.0756683 1.2706519
0001a0 51 f2 97 bf fe df 83 3f 3a 75 98 3f 8d 59 9d bf
       -1.1870824 1.0302732 1.1910775 -1.2292954
0001b0 0d c0 d5 bf d3 25 19 40 18 a3 3c c0 45 83 21 c0
       -1.6699234 2.3929336 -2.9474545 -2.523637
0001c0 4c 84 12 be 1b a1 a9 3f d5 80 c6 3f 96 b1 43 40
       -0.1430828 1.325229 1.5508066 3.057714
0001d0 79 1a 90 3e d4 4b ee 3f b9 c7 e5 3f 8c cd a3 3f
       0.28145197 1.8616891 1.7951576 1.2797103
0001e0 f9 77 32 c0 ad 29 7c c0 c4 6c 2b 40 ae 76 1c bd
       -2.7885725 -3.9400437 2.6785135 -0.03819912
0001f0 b8 63 9a bf bd 3c 9c 3d c4 56 10 bf e3 f1 49 bf
       -1.2061682 0.076287724 -0.56382394 -0.78884715
000200 0b 9f 81 3e 99 3d 47 bf 02 21 e6 be 45 96 fa bf
       0.25316653 -0.77828366 -0.44947058 -1.9577109
000210 bc 72 f4 3d 7d b0 5e bf fd f1 83 bf c8 51 7d bf
       0.11935946 -0.8698805 -1.0308224 -0.98952913
000220 80 26 0b 40 6c 0b 13 40 44 4b 28 bf 91 2e ed be
       2.1742249 2.2975721 -0.65739846 -0.4632459
000230 33 a0 71 3f 8d 92 83 3e 4c 89 1e 3e 4f 9b 64 3f
       0.9438507 0.25697747 0.15482062 0.8929948
000240 67 6c cd 3f 2f e2 b0 3f bc 59 d0 bf 08 a4 18 c0
       1.6048707 1.3819026 -1.6277385 -2.3850117
000250 35 e4 b3 bf 0c 41 e5 be c8 f7 fb bf 9d 2e 6b bf
       -1.4054018 -0.4477619 -1.9684992 -0.91868
000260 36 b0 d8 3f ab 6a bb 3f ba 71 2a c0 fb 92 dc 3f
       1.6928775 1.4641927 -2.6631913 1.7232355
000270 f2 9c d7 3f aa c5 07 bf cc cc df 3f 41 1b 7c 3f
       1.6844771 -0.53035986 1.7484374 0.98479086
000280 1a 36 19 40 01 73 15 40 c7 37 a5 bf 26 0c ca bf
       2.393927 2.3351443 -1.2907647 -1.5784957
000290 15 94 22 c0 96 64 a1 bf 5e 77 0c c0 c6 90 5b bf
       -2.5402882 -1.2608821 -2.1947856 -0.8576778
0002a0 cb a2 2e 40 8f 6e 57 3f e6 fd 2a c0 2e ee 9f 3f
       2.728686 0.84153074 -2.6717467 1.2494562
0002b0 b4 ed f3 3f aa 3e 06 c0 d0 cc 10 40 c9 49 03 40
       1.9056916 -2.0975747 2.2625008 2.0513785
0002c0 e4 48 80 3e 22 60 19 be 65 cd 00 c0 04 2f 29 c0
       0.2505561 -0.14978078 -2.0125363 -2.6434946
0002d0 77 92 b4 be 84 d1 4f be 54 4b 15 c0 e6 a0 fd bf
       -0.35267994 -0.20294768 -2.3327227 -1.9814727
0002e0 1d be ec 3f 89 96 2b 40 d6 50 f9 bf f6 54 19 40
       1.8495518 2.681063 -1.9477794 2.3958106
0002f0 a4 3a ff 3f d4 67 2c be b3 ad a8 3f ec 63 a5 3f
       1.9939771 -0.16836482 1.3178009 1.2921119
000300 04 89 31 c0 7d d4 44 c0 ad 52 05 40 cf 50 ac 3f
       -2.7739878 -3.0754693 2.0831711 1.3462161
000310 ff 1d 39 40 db cd 8f 3f 95 79 1a 40 23 7f e1 3f
       2.8924558 1.1234697 2.4136708 1.7616924
000320 c3 19 0c c0 2c 14 7f 3f 78 b7 f8 3f 00 9b 14 c0
       -2.1890724 0.99640155 1.943099 -2.3219604
000330 fe 6e 2a c0 f5 27 4a 40 a0 a4 3e c0 3e 5a 40 c0
       -2.6630244 3.1586888 -2.978798 -3.005508
000340 a3 49 01 3f fd 3a 38 bf d6 6c 04 c0 67 28 3e c0
       0.50502986 -0.7196501 -2.0691428 -2.971216
000350 6d b0 bf be 1b 03 1f bf 6e cb e2 bf 07 33 8d bf
       -0.3743929 -0.62114114 -1.7718332 -1.1031197
000360 cf aa 1f 40 94 94 0a 40 96 6d f4 bf c7 ff 81 3f
       2.4948003 2.1653185 -1.9095943 1.0156182
000370 08 c4 d0 3f a4 b7 29 be 53 91 21 3f e6 b7 9e 3f
       1.6309824 -0.1657396 0.6311237 1.2399871
000380 ad 79 4e 3f b0 8a 5b 3f 92 d7 a5 bf 7d 5a a7 be
       0.8065441 0.85758495 -1.2956412 -0.32686225
000390 6a 44 2f bf ea ce 1f 3f 0a 21 e8 bf c4 cf fa bf
       -0.68463767 0.624251 -1.8135083 -1.9594655
0003a0 67 1d 79 3f a8 f6 0c 3e b5 93 04 3f f8 b6 88 3f
       0.9731049 0.13765967 0.51787883 1.0680838
0003b0 e3 7f da 3f 4d 8a 96 bf 56 f7 a1 3e 24 5b c1 3f
       1.7070278 -1.1760956 0.31634015 1.5105939
0003c0 9f 0b e9 3d d8 6d 8a be 7d 69 ae 3e d4 f9 b2 be
       0.1137917 -0.2703693 0.34064856 -0.3495623
0003d0 f6 41 67 3e 01 69 d0 be 9c 8b 00 3f a4 e1 19 3f
       0.22583756 -0.40705112 0.50213027 0.60109925
0003e0 7d 1f e7 be e6 67 cd 3e 68 3f ea be 59 83 74 bf
       -0.4514121 0.4011833 -0.457515 -0.9551292
0003f0 5f 43 c8 be 39 79 d3 bd d1 be bc be 2c 29 84 3e
       -0.391139 -0.10325856 -0.3686433 0.25812662

graph_embed.node_to_graph.bias f4 [32]
000000 50 1f 03 40 b6 39 82 3e 00 7a cf 3e 3a 6b a8 be
       2.0487862 0.25434655 0.40522766 -0.32894307
000010 ea f7 c6 3f 00 8b d4 3f ef 54 59 bf af d6 e9 bf
       1.5544407 1.660492 -0.84895223 -1.8268641
000020 72 82 f7 bf ae 9a 66 bf 92 11 76 bf dc be f3 3e
       -1.9336684 -0.9007977 -0.9612056 0.47606552
000030 39 be 64 bf 41 2c 39 be 69 2b 86 bf dd 2d fa 3f
       -0.89352757 -0.18083288 -1.0481998 1.9545246
000040 5e c3 0b c0 01 79 43 3b 6c 00 fc be 65 65 47 40
       -2.1837993 0.0029826763 -0.49219072 3.1155636
000050 42 75 00 bf 86 01 bd bf 98 43 05 c0 f9 79 bf 3e
       -0.5017892 -1.476609 -2.0822506 0.37397745
000060 15 d1 12 3e 2c 24 98 3e 8b 28 70 bf 7f 87 54 3f
       0.14337571 0.29715097 -0.93811864 0.8301925
000070 c9 cc 3b 3f 6b 84 90 3f df 0a e6 3e 31 b9 75 3f
       0.7335935 1.1290411 0.4493017 0.95985705

graph_prop.message_funcs.0.weight f4 [32, 34]
000000 a1 5c c2 bf ec b9 0f 3f 3f 7d c5 3f 70 e2 3b 3f
       -1.5184518 0.5614307 1.5428847 0.7339239
000010 73 51 41 3e c9 c6 76 be 65 b4 91 be 43 4d e3 3f
       0.18878727 -0.24099268 -0.28457943 1.7757953
000020 26 d7 80 3e a8 38 14 bf 70 b4 34 3f a3 e9 8a bf
       0.25164145 -0.5789895 0.70587826 -1.085255
000030 17 87 99 3e 22 14 5b 3d df 7e 53 3f 72 38 ef be
       0.29985878 0.053485997 0.82615465 -0.46722752
000040 3c bf 95 3f 71 f4 3d 3f 10 bc 4f 3f 11 1c 64 3e
       1.1698985 0.74201113 0.81146336 0.22276331
000050 f2 3d 3d bf b8 d4 75 be b0 8b 48 3f 6c 2b 4f bf
       -0.73922646 -0.24006927 0.78338146 -0.8092563
000060 22 c4 b2 3d 9d da 27 bf 5e d9 22 3f b8 f4 cd 3e
       0.087288156 -0.6556795 0.63612926 0.40225768
000070 e1 fc 76 bd c6 9f 39 bf 0d 1b f2 3d cb 2f eb be
       -0.060299758 -0.7250942 0.11821566 -0.459349
000080 fb 05 0d 40 78 40 76 3e 23 c9 a3 bf 14 5a ec 3d
       2.20349 0.2404803 -1.2795757 0.115406185
000090 88 5a 0c 3e 18 69 84 3f 05 17 8c be fb 05 0b 3f
       0.1370641 1.0344572 -0.27361313 0.54306
0000a0 b7 7f 68 3f b1 b7 33 3f 0c 53 61 bf 2d d3 5f 3f
       0.9081988 0.70202166 -0.88017344 0.87431604
0000b0 8b 5d 12 bf ab 52 47 bf d3 4a 6f bf ae 74 a2 3f
       -0.57173985 -0.77860516 -0.9347355 1.2691858
0000c0 a6 ef bd bf e8 dd d6 be 60 fb 6d 3e 2b f9 87 3f
       -1.483876 -0.41966176 0.23240423 1.0622915
0000d0 bd ba 4e 3e 57 21 94 3f b3 33 6a bf 99 86 48 bf
       0.20188423 1.1572675 -0.91485137 -0.7833038
0000e0 fa d0 20 be 0e 1c d1 3e 63 c1 25 bf 1b fb b3 be
       -0.15704718 0.40841717 -0.6474821 -0.35152516
0000f0 64 d5 78 bf 20 cc 59 3f 15 8b bb bf ed b2 0d be
       -0.9720061 0.85077095 -1.465182 -0.13837786
000100 2e b5 6f bf 4f 58 72 3e 78 09 8f bf e9 a2 1e bf
       -0.93635833 0.236665 -1.1174765 -0.6196733
000110 ea 31 57 3f 9c 3b cb 3f b9 86 f0 bf 5a 0b 6d 3f
       0.8406054 1.5877566 -1.8791114 0.92595446
000120 c9 46 f9 bf 45 8d 7e 3f 1c 9e a8 3c 3b df 17 bf
       -1.9474727 0.9943431 0.020583205 -0.59325
000130 2d 33 c2 bf 78 fe d5 bf bd 6d 8d 3f 7f 21 03 40
       -1.5171868 -1.6718283 1.1049114 2.0489194
000140 76 d6 21 bf 5c 1b 7b bf 2a 6d 91 bf a2 f0 54 3f
       -0.63217866 -0.9808862 -1.1361439 0.83179677
000150 fd 63 37 3f e5 b7 d7 3f f8 c8 ee 3e ca a1 09 40
       0.71636945 1.6852995 0.46637702 2.1504998
000160 d0 75 ba bf 6d 87 9f 3f f0 0c 97 3f 92 66 3e bf
       -1.4567204 1.2463204 1.1800823 -0.7437526
000170 dd 74 66 3f 7c fa 2e c0 9c cc d4 3f a8 38 d5 3f
       0.9002207 -2.7340384 1.6624942 1.6657915
000180 71 b1 56 bf 0a 4e 77 bf 0f e1 dd 3d bb fe 20 3f
       -0.83864504 -0.96603453 0.10833942 0.6288869
000190 09 c7 57 3f b9 b1 26 c0 6c 83 84 3e 20 0a 86 bf
       0.8428808 -2.6045973 0.25881517 -1.047184
0001a0 35 1e 98 3f 44 b3 9b bf a6 77 e9 3f ea ae 9b be
       1.1884218 -1.2164083 1.8239639 -0.30406886
0001b0 9d 4a 74 3f 80 d0 70 bf 77 12 eb 3f 1d e5 13 40
       0.9542635 -0.94068146 1.836501 2.310859
0001c0 7a c4 b0 bf a3 02 0d bf 1c ab e1 3e 9c 67 7b 3f
       -1.380996 -0.5508215 0.4407586 0.9820497
0001d0 d9 66 2f 3f c1 c3 b6 be b3 19 1f c0 5f e9 fc bf
       0.6851631 -0.35696223 -2.4859436 -1.9758719
0001e0 ee e9 e9 be 4e 1c d5 bf d1 05 c3 3f b4 00 73 bf
       -0.45686287 -1.6649263 1.523615 -0.9492295
0001f0 8c 18 9d bf 25 cf 9f 3f 40 c3 95 bf 19 68 19 40
       -1.2273116 1.248509 -1.170021 2.3969786
000200 6a 91 d8 bf ec fa 03 c0 4b 60 d0 be 33 59 8f 3f
       -1.6919377 -2.06219 -0.40698466 1.1199096
000210 1d 0c de bf 00 06 25 bf 3f 29 8e bd b7 2a f2 3e
       -1.7347447 -0.6446228 -0.06941461 0.47298214
000220 95 76 d5 be 8a 2c d6 3d 11 56 0e 3f 9f 15 6f 3f
       -0.41692033 0.10457714 0.55600077 0.93392366
000230 63 b4 dc 3e e6 ee d2 3c ab 1a 6e be cf 79 04 be
       0.43106374 0.025748681 -0.2325236 -0.12937091
000240 00 09 3c 3f 79 10 12 bf a0 2a da 3e 7b 54 34 3f
       0.7345123 -0.57056385 0.42610645 0.70441407
000250 b1 48 28 3f 2b 23 4c bf e7 ed 5c 3f 00 a6 b4 be
       0.6573592 -0.7974116 0.8630051 -0.35282898
000260 46 95 67 3f 84 53 c5 be 33 8f bd bc 78 14 22 be
       0.9046215 -0.3854028 -0.023139572 -0.1582812
000270 5c 70 8e 3c 2e a0 fa be bc ca 60 bf ab f4 94 3e
       0.017387562 -0.48950332 -0.8780935 0.29092917
000280 51 e4 9b bf 51 c9 00 3f f6 d1 82 bf db 3e bb be
       -1.2179052 0.50307184 -1.0220325 -0.36571392
000290 70 8a 83 bd ef f6 99 3e 43 08 09 bf 76 69 31 bf
       -0.06422889 0.30071208 -0.5352823 -0.69301546
0002a0 4d 68 9b 3f eb 5b dc bf b6 ad 94 be 0d 75 04 3f
       1.2141205 -1.7215551 -0.2903878 0.51741105
0002b0 f0 42 88 3f 3d 58 5d bf 14 b9 82 3f 7a 47 7c 3f
       1.0645428 -0.86462766 1.0212731 0.98546565
0002c0 ed 29 48 3f 9d 91 96 bf 01 7d 94 3f 44 ac 2f 3f
       0.78188974 -1.1763188 1.1600648 0.6862223
0002d0 7b b2 8c bd 67 48 15 3f 3d 5c 2b 3f 2e c9 c3 bd
       -0.0686998 0.583136 0.6693762 -0.09559856
0002e0 1f 20 9a 3e da c7 86 bf a4 0a 73 bd 20 26 7b be
       0.3010263 -1.052974 -0.05933632 -0.24526262
0002f0 b6 cd f2 be 35 62 81 3c 01 4f 3c 3f c4 ba 7a 3f
       -0.4742257 0.0157939 0.7355805 0.9794123
000300 af 15 1c 3f 59 3b c0 bf d5 89 8c 3f 34 76 9f be
       0.60970587 -1.5018111 1.0979563 -0.3114487
000310 80 ec a2 3f 5d 8f b2 be 46 3f 4e bd ef 6a 88 3e
       1.2728424 -0.34875003 -0.05035331 0.26644084
000320 6f fc 65 3e 88 80 9e 3f 8f 9d a6 bf 4d af 46 3f
       0.22459577 1.2382975 -1.3016833 0.7761124
000330 01 1b c9 3d c4 ac 10 3f 8e d5 d3 bf f9 be 12 3e
       0.09819604 0.5651362 -1.6549547 0.14330663
000340 41 8f 50 be 4a 40 8d 3f 5e 99 89 3e b6 8b 15 bf
       -0.20367147 1.1035244 0.26874822 -0.58416307
000350 64 9f 80 bf d0 57 c8 bf c8 d7 e3 3f 96 9b b7 3f
       -1.0048642 -1.5651798 1.7800226 1.4344356
000360 e6 e6 ce be bc 58 27 bf 41 f0 0b bf 57 46 19 bd
       -0.40410537 -0.6536977 -0.54663473 -0.037420597
000370 29 da 41 3f 66 53 8b 3f cc 20 79 bf 4b 3a 92 3f
       0.7572351 1.0884826 -0.9731567 1.142404
000380 83 93 10 bf 31 a9 a5 3f 52 50 b7 3e 47 b4 1d c0
       -0.56475085 1.2942258 0.35803467 -2.4641283
000390 bf 2e 4b 3f 1f 53 d5 bf eb 0c 22 40 7e e4 d9 3f
       0.79368204 -1.6665992 2.5320385 1.7022855
0003a0 cd c7 32 3f 51 d2 89 3e d6 d7 be 3e bd d5 a0 3f
       0.6983612 0.2691827 0.37274045 1.2565228
0003b0 7c 98 1b bf 24 95 22 bc 39 40 4d 3f a8 9d cb 3d
       -0.6077955 -0.009923253 0.8017612 0.0994218
0003c0 ab d7 e0 bf 89 d3 d2 3f b2 ae af bf 2c eb a8 3d
       -1.7565817 1.6470805 -1.3725188 0.082479805
0003d0 95 2b 3d be bf 07 36 bf e9 08 82 bf 52 8f 94 be
       -0.18473656 -0.7110557 -1.0158969 -0.29015595
0003e0 76 97 5f be ba 3c ab 3f fc 94 64 bf 8f e2 bc be
       -0.21835122 1.3377907 -0.8928983 -0.368916
0003f0 55 4c 70 bf 20 87 3a 3f ff 4a 82 3f 0d 88 19 3f
       -0.93866473 0.72862434 1.0179137 0.5997322

graph_prop.message_funcs.0.bias f4 [32]
000000 e4 86 02 c0 10 d1 b5 3f ce ae 63 c0 49 89 85 40
       -2.039483 1.4204426 -3.5575442 4.1730084
000010 9f f6 8b bf aa 35 17 40 5e 66 96 3e b0 9b 0b c0
       -1.0934638 2.3626504 0.29374975 -2.1813774
000020 02 a0 47 40 62 f9 9a 3f d6 a1 f3 bf fe 57 3b be
       3.119141 1.2107356 -1.9033763 -0.18295285
000030 36 31 39 40 bb 0c e6 3f 53 48 40 40 8c 23 d6 3f
       2.8936286 1.7972635 3.0044143 1.6729598
000040 8f bf 0d 40 78 0e 28 c0 2e da 54 c0 1c 58 36 bf
       2.2148168 -2.625883 -3.3258166 -0.71228194
000050 a0 03 55 3e 49 9a 57 40 84 63 2b 40 16 66 f5 be
       0.20802164 3.3687918 2.677949 -0.47929448
000060 19 d1 af bf e4 0c 6f be 4f e4 de be 16 12 4b 3f
       -1.3735687 -0.23344761 -0.4353356 0.7932447
000070 6d c0 d1 3f 5d 82 83 bf ee fd cc bf 6c 6d 91 bf
       1.6386849 -1.0274159 -1.6014993 -1.1361518

graph_prop.message_funcs.1.weight f4 [32, 34]
000000 45 08 49 c0 2f 7b 2e 40 42 2b 5c 40 15 d0 47 c0
       -3.1411297 2.7262685 3.4401402 -3.1220753
000010 18 45 40 c0 43 ce 2c 40 1f b2 2c 40 2a 8c 3a c0
       -3.0042171 2.7000892 2.6983716 -2.914805
000020 22 1b 0d 3f 75 17 56 40 5e 3b 08 40 44 5a 5f 40
       0.55119526 3.3451817 2.1286235 3.4898844
000030 06 dd 1b be 58 e2 b3 bf 38 62 a1 be ed 85 4e 40
       -0.15221033 -1.405345 -0.31520247 3.2269242
000040 ff 6e 2d c0 28 fd 2e 40 af 85 49 40 fb f3 6b bf
       -2.7098997 2.7342014 3.1487844 -0.9216916
000050 45 1d 1a c0 da 36 35 40 aa fe 36 40 80 2e 0b c0
       -2.4080365 2.8314729 2.8592935 -2.1747131
000060 7d ee b8 bd cd fc 36 40 d3 ab 45 40 5d 98 57 40
       -0.09029863 2.8591797 3.0886123 3.3686745
000070 e9 22 fd 3f 74 6e 37 c0 c7 b7 1c bf 29 c1 27 40
       1.9776279 -2.8661165 -0.6121792 2.6211646
000080 cc 8e bb 3f e6 05 48 c0 43 a1 e0 bf c2 42 20 be
       1.4652953 -3.12536 -1.7549213 -0.15650466
000090 42 1f 62 bd 0e c1 95 bf b8 ef 9b 3e 96 5e 47 3e
       -0.05520559 -1.1699541 0.30456328 0.19469675
0000a0 9e 98 f9 3f 8c 36 67 be 25 0f dd 3f 2c 99 d0 be
       1.94997 -0.22579402 1.7270247 -0.4074186
0000b0 6d c8 0b 3e 33 5e 0d bf 1d 90 b7 3e 65 62 b7 bf
       0.13650675 -0.5522186 0.35852137 -1.4326903
0000c0 b5 29 f7 bf ca 9d 13 3e 27 65 87 bf 7d e7 b1 bf
       -1.9309603 0.1441566 -1.0577744 -1.389877
0000d0 3c b9 db be 0d 95 ab bf c7 f6 9e 3f 4f 76 c7 3e
       -0.4291476 -1.3404862 1.241906 0.3895745
0000e0 7c b8 34 40 4f 41 1c 3f c6 a1 14 3d af b1 0d bf
       2.82376 0.61037153 0.03628709 -0.5534925
0000f0 72 cb 04 bf 85 56 61 bf 0b 14 50 bf e8 f1 ae 3e
       -0.5187293 -0.88022643 -0.81280583 0.34168935
000100 8d 13 23 c0 a9 dc 00 bf 26 c9 05 bf 80 6d 23 bd
       -2.5480683 -0.503367 -0.52260053 -0.03989935
000110 3d 5f b7 be d8 6e 2f c0 fd 9c 1b c0 21 bb ba 3e
       -0.3581485 -2.7411404 -2.4314568 0.36470893
000120 41 6a e7 3f 92 a4 ae bf c8 ec 7b bf 1d 76 ff 3f
       1.8079301 -1.3643973 -0.98408175 1.995792
000130 e7 93 a7 bf f5 1b 0c c0 f9 0f 27 c0 4f 86 21 c0
       -1.3092011 -2.1892064 -2.61035 -2.5238225
000140 ae f0 cc 3d c5 05 51 40 77 32 22 3e 7c 5e 41 c0
       0.100068435 3.2659771 0.15839563 -3.0213919
000150 de c1 5f 3f ea 3e 2d c0 9d bb f7 bf ae de 95 bf
       0.8740519 -2.706965 -1.935413 -1.1708581
000160 cf a7 88 3f f3 6e 36 c0 ca e0 9d bf f2 2c 17 40
       1.0676211 -2.8505218 -1.2334225 2.3621182
000170 bd 6f 0c bf 27 62 cc bf fc 02 0e c0 5a 22 00 c0
       -0.54858 -1.5967454 -2.2189322 -2.0020967
000180 1c 93 05 c0 6a 6d 04 40 a2 ff 8e bf 9f 80 98 be
       -2.0871038 2.069178 -1.1171763 -0.2978563
000190 52 54 86 be 18 c9 d7 3f e4 7e e5 bf 90 2f 78 3e
       -0.26236206 1.6858244 -1.7929349 0.24236894
0001a0 9d 0f 25 3f 4e 29 85 bf c5 ec e5 3e 46 6e c6 3e
       0.6447695 -1.040323 0.44907203 0.38756007
0001b0 cb 8a 7a 3f 5a 1e 7a be 45 48 82 3f a5 86 a6 3e
       0.9786803 -0.2442564 1.0178305 0.325246
0001c0 f5 02 8e be 15 cc 1d be c8 9b f1 bf e9 ba a9 bf
       -0.2773663 -0.15409882 -1.8875666 -1.3260165
0001d0 6e 41 85 bf ce 87 e6 3f d8 6f b1 bf 2e 4f 33 bf
       -1.0410593 1.8010194 -1.3862257 -0.70042694
0001e0 57 d3 dd bd 8b b8 08 be 36 23 72 3f 86 0b 76 3f
       -0.108313255 -0.13351648 0.9458498 0.96111333
0001f0 2d 1c 15 40 df 7d 9b 3e 34 d5 f2 3e 50 84 6a be
       2.3298447 0.3036947 0.47428286 -0.22902036
000200 35 90 dd bc bb 7c 6c be 2f 39 14 bf 48 62 07 bf
       -0.027046302 -0.23094456 -0.57899755 -0.5288434
000210 3d 4b 67 bf a1 41 8d be 68 7f cb 3f c4 84 0d 3f
       -0.9034918 -0.27589133 1.5898256 0.5528071
000220 c2 cf 91 3f 49 5c b5 be 78 66 2e be 25 e8 80 3f
       1.1391528 -0.3542197 -0.17031276 1.0070845
000230 b4 a3 42 3f 10 90 10 bf 7d 80 f7 be 98 29 01 bf
       0.7603104 -0.5646982 -0.48340216 -0.5045409
000240 4c 66 d4 3d 38 6a c0 bd 72 65 7e be c6 84 47 bf
       0.10371074 -0.093952596 -0.24843386 -0.7793697
000250 9f e5 ce bf af 33 5e be ce a7 85 be 71 b6 3d bf
       -1.6163825 -0.21699403 -0.26104587 -0.7410651
000260 07 75 b1 3f bb a4 0c bf 00 55 01 bf 04 c2 c2 3e
       1.3863839 -0.5493886 -0.50520325 0.38038647
000270 3c b9 06 3f c7 83 40 3d a8 91 65 bf 32 8c cc be
       0.52626395 0.047000673 -0.8967538 -0.3995071
000280 bf 9c b6 3d a6 b5 d8 be dd 27 98 bd 3f 8b 9b 3e
       0.08916616 -0.42326087 -0.07429478 0.30379674
000290 40 dd 9b bf 3c 7f 90 3f 76 31 de be 54 09 e3 be
       -1.2176895 1.1288829 -0.4339711 -0.44343054
0002a0 c5 7f 8e 3f 18 76 9c 3f ec aa 19 3f 4b 15 ad be
       1.1132742 1.2223539 0.6002643 -0.33805308
0002b0 93 b5 34 3f c2 55 b9 3e f9 01 3c be 68 f8 a7 bd
       0.7058956 0.3619824 -0.18360128 -0.082016766
0002c0 8b ce 7e bf fa f3 9f be a2 83 30 be f2 ea 42 3f
       -0.9953391 -0.31240827 -0.17237714 0.7613975
0002d0 f6 8b 1e bf d0 ff f1 3e d9 78 4b bf 25 64 ba 3d
       -0.61932313 0.47265482 -0.79481274 0.09101132
0002e0 65 05 18 3f b8 2b c9 3e fe 84 e5 bc 40 bd 43 3f
       0.5938323 0.39291167 -0.028017517 0.7646065
0002f0 ae 9a d6 be 94 97 f8 3e 90 0d f8 3e 41 54 1e 3e
       -0.41914886 0.48553145 0.48447847 0.15461828
000300 23 a0 df bf 8b b0 2c bf fa 81 5a bf e8 e6 05 bf
       -1.7470745 -0.67456883 -0.8535458 -0.5230546
000310 d2 af cd bd fa d8 40 3e 14 16 c6 3c 42 84 17 3f
       -0.10043301 0.1883277 0.02418045 0.59186184
000320 a5 ca 7f be 32 4c 32 bf 03 d9 01 40 89 9f a1 3e
       -0.24979647 -0.69647515 2.0288703 0.31567028
000330 b7 86 53 3f ff fd 6c bf 22 d3 37 3d 82 a6 82 be
       0.82627434 -0.9257507 0.044879086 -0.2551766
000340 28 de 96 bd 24 f8 92 3e 9b ea 50 bf 19 36 f8 3e
       -0.07366592 0.2870494 -0.8160798 0.48478773
000350 57 87 e9 be cd 05 d6 3e 89 8a 3c bf 51 78 0d be
       -0.4561107 0.418013 -0.7364889 -0.13815428
000360 6c 1e 42 be 02 be 79 3f ee 33 37 3e 9c 9f c1 bd
       -0.18956918 0.97555554 0.17890903 -0.09454271
000370 06 d2 97 3c 85 eb 2c 3f 11 49 8c be a8 8f 30 3d
       0.018532764 0.67546874 -0.27399495 0.04310575
000380 7f 0b 16 3e 1b 30 41 bf 6d da ff bf 53 36 b8 3e
       0.14652823 -0.7546403 -1.9988533 0.35978946
000390 af 71 90 bf 2e d1 db be 38 64 1c bf 32 8f d0 3d
       -1.1284693 -0.4293303 -0.6109042 0.10183562
0003a0 c6 64 22 3e b2 94 90 3e 4c 09 b8 be f6 a1 4c be
       0.15858755 0.28238446 -0.35944593 -0.19983658
0003b0 19 1a 8e 3f 76 98 db 3e ce b1 e9 3f 51 5a 1e c0
       1.1101714 0.42889756 1.8257387 -2.4742625
0003c0 3a 75 3c c0 6a c9 78 3f fb 85 37 40 92 27 10 c0
       -2.944655 0.97182333 2.8675525 -2.2524152
0003d0 17 06 e8 bf ca 92 62 40 d2 19 07 c0 ea ba 20 c0
       -1.8126858 3.5402093 -2.110951 -2.5114083
0003e0 9b d5 20 c0 63 a9 40 c0 d8 33 87 3e 8d 78 18 40
       -2.5130374 -3.0103385 0.2640674 2.3823578
0003f0 94 5d 20 bf 55 9b 1e c0 43 f2 c9 3f 2f 53 3c c0
       -0.6264279 -2.4782307 1.5777057 -2.9425771

graph_prop.message_funcs.1.bias f4 [32]
000000 ae f9 5c c0 ae 31 04 3f 00 61 16 40 87 38 a5 bd
       -3.4527392 0.51638305 2.3496704 -0.08067422
000010 36 cc db 3e ad 59 7a 3e 44 4b db 3c f9 70 3a 40
       0.42929238 0.24448271 0.026769288 2.9131453
000020 17 f6 1e c0 35 60 05 3e 2d 41 ec be 6f ae bb 3f
       -2.4837701 0.13024981 -0.46143475 1.4662608
000030 c5 f3 11 40 c3 91 ac bf 69 f1 ef 3f 83 0f 87 bf
       2.2805035 -1.3481983 1.8745548 -1.0551609
000040 db 8c 17 40 6e 62 7d 3f 4a 1a 53 40 52 e3 dd bf
       2.3679721 0.98978317 3.2984796 -1.7334998
000050 22 0d b9 3f c0 95 c6 3f b8 13 c4 bd 90 85 41 40
       1.4457133 1.551445 -0.095740736 3.023777
000060 ea 8c 08 3f ce ba f9 bf 05 5b e9 bf 2e 73 01 40
       0.5334002 -1.9510133 -1.8230902 2.022655
000070 20 ad fd 3f 6b e1 f6 3f 1d 22 e5 3f 29 62 7c 3f
       1.9818459 1.9287542 1.7901036 0.9858728

graph_prop.node_update_funcs.0.weight_ih f4 [48, 32]
000000 3f 6d 97 bf 2d e4 ec be aa 00 46 be 97 af d8 be
       -1.1830214 -0.46267834 -0.19336191 -0.42321464
000010 74 9f b2 bf d4 2f fb be 2a b2 ad 3e 14 4d ca be
       -1.3954911 -0.49059927 0.3392499 -0.3951193
000020 23 13 df be ac 3d 32 3f 89 63 a6 bf 85 3d 13 be
       -0.43569288 0.69625354 -1.2999126 -0.14378937
000030 71 3c 22 be 69 07 78 bd 01 fb 06 bf 32 db ed be
       -0.15843369 -0.060553942 -0.5272675 -0.46456295
000040 d2 8c 1e bf 2a 91 1b 3e 34 2c 4a 3d 97 d1 c0 bd
       -0.61933625 0.15192094 0.04935856 -0.09414976
000050 3b 54 19 3e 75 ce 99 be b1 df 9e be 3e 2d 67 bf
       0.14973538 -0.30040327 -0.31030038 -0.9030341
000060 2b a7 1f be fc 7e 0d be 37 d6 d8 be 16 8c 5e bf
       -0.15591113 -0.13817972 -0.42350933 -0.86932504
000070 dc e3 a5 3e 77 3a 06 bf df 33 fd be b1 f4 8c be
       0.32400405 -0.5243296 -0.49453637 -0.27530435
000080 60 58 22 bf c7 4b b2 3f 19 f3 6b bf f2 0b b1 3f
       -0.634161 1.3929375 -0.9216781 1.383177
000090 5a d6 29 bf 7f 69 a9 3f ae 02 5b 3f 05 91 97 3e
       -0.663427 1.323532 0.85550964 0.2960283
0000a0 a1 c9 98 3f b3 f5 97 3f e6 6c 36 bf c3 1c 8f bf
       1.1936532 1.1871856 -0.71259916 -1.1180652
0000b0 34 45 ad 3f 14 47 2e bf cc 6d 8f 3e 0a 2e a9 3f
       1.3536744 -0.68077207 0.28013456 1.3217175
0000c0 1a d9 86 3f 15 11 7b bf cc 3d 8b bf 35 82 9a 3f
       1.0535004 -0.9807294 -1.0878234 1.2070986
0000d0 37 0b bc 3f 7d d4 81 3f a5 8a 45 bf 2e 97 31 bf
       1.4690922 1.0142971 -0.7716468 -0.69371307
0000e0 db 02 d0 bf 14 2f 2e bf cd 75 4a bf d5 1d 70 3f
       -1.6250871 -0.68040586 -0.79086 0.9379552
0000f0 b8 96 ad 3f b5 bc 98 bf 0a 22 7c bf b3 36 6a bf
       1.3561621 -1.1932589 -0.9848944 -0.91489714
000100 dd 06 3c 3d fa b2 d7 bc e3 27 81 be a1 ea c6 3e
       0.045904983 -0.02633046 -0.25225744 0.38850883
000110 8e 89 ad be 84 82 11 bf 9c 8b ce 3e 27 51 89 bf
       -0.33894008 -0.56839776 0.40340889 -1.0727891
000120 4c 96 18 be 5a d2 0a 3f ac 62 e0 be 92 3d 04 be
       -0.14901084 0.5422722 -0.4382528 -0.12914112
000130 65 ca 8f 3d f8 4e 11 bf 37 47 91 3e bb f4 4e bf
       0.070210256 -0.5676112 0.28374645 -0.8084218
000140 f8 df df 3e a3 26 b5 bf c4 1b de bd c2 10 7a bc
       0.43725562 -1.4152416 -0.108451396 -0.015262784
000150 61 a6 1d bf a0 b5 aa 3d ba 5c 2c 3e cb 8d 93 3e
       -0.61582 0.083354235 0.16832247 0.28819117
000160 57 6d 50 3d 95 24 1c be 81 bd d6 be e4 f7 55 bc
       0.050885525 -0.1524833 -0.41941455 -0.01305959
000170 59 6d 80 3f 0e 06 a5 bd c5 6d d3 be 66 be 1d be
       1.003337 -0.080577955 -0.41294685 -0.15404662
000180 c1 39 56 bf 16 48 0e 3f 80 23 8e 3d 6a f3 e4 3d
       -0.83681875 0.55578744 0.06940365 0.1117924
000190 94 cd 25 bf 89 e4 54 bf 68 e7 19 3f bd 2c ad 3c
       -0.6476681 -0.83161217 0.6011872 0.021139497
0001a0 bc c2 40 3f 15 df 86 be 8f cb 01 bf 70 c2 5d 3c
       0.7529714 -0.26342073 -0.5070123 0.013535127
0001b0 b8 b7 04 3e ed bd 87 bf a0 06 16 3f 03 f4 c4 bd
       0.12960708 -1.0604836 0.5860386 -0.09616854
0001c0 d4 2b 05 3f 41 93 36 bf eb 71 ac bd 22 51 56 bf
       0.5202 -0.7131844 -0.08420166 -0.8371755
0001d0 d9 ed ff 3d 7e bb 54 be 41 d1 71 3e 98 93 49 3e
       0.12496538 -0.20774648 0.2361498 0.19685209
0001e0 bc eb 1c 3d 13 8d a0 bd 00 44 98 bf 8d c6 dc bd
       0.03831075 -0.07839408 -1.1895752 -0.10780058
0001f0 b9 c0 ff 3e 5e 36 89 bf 01 fe d9 3e 1d da b0 bf
       0.49951723 -1.0719717 0.42576602 -1.3816563
000200 08 52 bc bf 1c 61 d5 be 34 6a 8e bf 0e e0 a8 3f
       -1.4712534 -0.4167565 -1.1126161 1.3193376
000210 33 17 07 c0 26 ce 1f be 65 cc bd bf 25 59 bc bf
       -2.110791 -0.15605983 -1.4828001 -1.4714705
000220 f9 ab 18 3f e9 56 49 3f 6f f0 a4 bf 39 a3 ca bf
       0.5963741 0.7864824 -1.2885875 -1.5831062
000230 fc 14 89 3f 07 7b a5 bf 12 41 4e 3f d8 60 d2 3d
       1.0709529 -1.292817 0.8056804 0.10272378
000240 f6 6a 5b 3f 2b 79 84 be 99 6a 82 bf 94 03 ef bf
       0.85710084 -0.25873694 -1.0188781 -1.8672967
000250 55 ea 8a 3e 4b e4 88 3f 69 ba 9c 3f ae 28 96 bf
       0.27131906 1.069467 1.2244388 -1.1731164
000260 76 3a 3f 3e 38 5d 28 bf 63 ab 0c 3d 10 7a b6 bf
       0.18674645 -0.6576724 0.034343135 -1.4256
000270 9d 33 39 3e d0 8c 9f bf 16 55 cf 3f da ce 8e bf
       0.18086095 -1.2464848 1.6197841 -1.1156876
000280 e3 03 a0 3d ca 53 95 3e 17 cc 27 3c a6 fe 8f 3e
       0.07813241 0.29165488 0.01024153 0.2812397
000290 ed 96 3d be 5f 13 3d 3f a3 3f 6d 3f 27 42 bd 3e
       -0.18514605 0.7385768 0.92675227 0.36964533
0002a0 d9 c2 39 3f 1a d2 28 3f 15 b8 54 3e 84 08 5c 3f
       0.7256294 0.6594559 0.20773347 0.85950494
0002b0 7b b1 1f 3f b5 d9 06 3f 45 8a 3e 3e 4a 69 11 3f
       0.6238019 0.52675945 0.18607433 0.56801283
0002c0 09 72 29 3f 77 54 93 3f 2c f8 e9 bd 14 ce 5c bc
       0.6618963 1.1510152 -0.11424288 -0.013476867
0002d0 4c bf bc 3e b6 11 90 3e ba 1d ce 3e 36 d7 91 3f
       0.36864698 0.28138512 0.40257055 1.1393802
0002e0 ab aa ec 3e 0f 9f 78 be 07 94 b7 3c 0e 39 c5 3e
       0.4622396 -0.24279426 0.022409452 0.38520092
0002f0 aa ea 94 3e 4e b3 58 3f 6f bc a5 3e 77 42 21 3e
       0.29085284 0.846486 0.32370326 0.1574801
000300 4d 64 cc be f6 37 49 3f b9 42 c9 be 82 b2 7f 3f
       -0.39920273 0.78601015 -0.39308718 0.99881756
000310 5d 5e a4 bf ce 1f 01 bf 67 80 05 bf c0 79 23 bf
       -1.2841297 -0.50439155 -0.5214905 -0.6385765
000320 88 8d 54 3f a7 70 19 bd f4 19 94 be 4a da 84 be
       0.8302846 -0.03746095 -0.2892605 -0.2594779
000330 d9 8d 0e 3f 9c b8 55 bf a3 97 99 3f 1c c6 d6 be
       0.5568519 -0.83484817 1.1999401 -0.4194802
000340 92 cf e0 3e 33 3e 16 bf e3 0b 9e be ca ad dd bd
       0.43908364 -0.5868866 -0.30868444 -0.10824163
000350 df c6 d4 3e 7d 43 67 3f 64 d4 c1 3f f0 b6 0c 3d
       0.41557977 0.90337354 1.5142941 0.03435415
000360 c5 88 3f be b3 af 96 3e 0a a9 4b be 81 51 91 3e
       -0.18704517 0.29430923 -0.19888702 0.28382495
000370 84 37 77 3f 13 6e 39 bf 61 df 05 3e 74 ad 1e bf
       0.96569085 -0.72433585 0.13073494 -0.6198342
000380 b6 a6 1b 3e 2c a5 7d be a1 c9 e5 bd 45 1c 20 be
       0.15200314 -0.2477004 -0.11220098 -0.15635784
000390 06 13 61 bd 24 16 e0 be 23 9d e0 bc 4f 29 11 3d
       -0.054949783 -0.43766892 -0.027418679 0.035439786
0003a0 d2 7e 83 bf 93 76 1b bf ae 1d 28 3f f5 a1 89 bd
       -1.0273077 -0.60727805 0.6567029 -0.06720344
0003b0 0c 06 2c bf a9 ba ca 3d a2 73 da be ad 59 09 bf
       -0.67196727 0.09898884 -0.42666346 -0.5365246
0003c0 f2 f1 46 bf 72 18 82 3e 6f e9 35 3f c3 f4 c9 3e
       -0.7771293 0.25409275 0.71059316 0.3944455
0003d0 54 b7 32 3e 01 9f 5a be bf 05 9a be f2 fd 9b 3e
       0.17452747 -0.21349718 -0.3008251 0.30467182
0003e0 f7 af 6a be 7e 88 82 be f1 2a c2 3e ba b2 bd bd
       -0.22918688 -0.2549476 0.37923387 -0.09262605
0003f0 4c 6b c6 bd 1e b3 cc 3e c8 e1 fe be 83 5a 64 3e
       -0.09688434 0.39980406 -0.49781632 0.22300152

graph_prop.node_update_funcs.0.weight_hh f4 [48, 16]
000000 4a 3b 41 bd 3e 44 41 be 34 22 24 bf 80 e0 bf 3e
       -0.047175683 -0.18873689 -0.6411469 0.37475967
000010 6f 93 da be 75 ef 18 be 58 1b 1c bf db 52 0d bf
       -0.42690608 -0.14935096 -0.60979223 -0.5520455
000020 45 f4 99 3e ec 0f d3 be ef 76 0a 3e 2f eb 97 be
       0.30069175 -0.41223085 0.13521932 -0.29671618
000030 12 67 72 bd ee 21 a4 bd 70 cb 0d 3d 1e d4 aa bc
       -0.059180327 -0.08014284 0.03461784 -0.020853098
000040 8b b7 56 bf ff 08 84 3f 6e c7 da 3f d8 11 22 3f
       -0.83873814 1.0315245 1.7092111 0.6330848
000050 a1 95 82 3f 82 21 bf 3d bf 32 8f 3f 30 dc a7 3f
       1.0201913 0.09332563 1.1187361 1.3114071
000060 b8 f5 80 bf ec 76 90 3e 7c ef 2f 3f 06 67 38 bf
       -1.0074987 0.2821573 0.687248 -0.720322
000070 4b 4b a2 be 67 e3 89 3f 1b 1e 82 be 39 c5 36 bf
       -0.3169807 1.0772523 -0.25413594 -0.7139469
000080 2e 38 99 be e2 81 b1 be 15 3d 16 be ef 67 c1 3e
       -0.29925674 -0.34669405 -0.14671738 0.37774608
000090 c3 8f 7d 3e 92 0d 8a be 7d 34 ba 3e dc 63 d5 be
       0.24761872 -0.26963478 0.3636817 -0.4167775
0000a0 67 e9 a5 be b1 ac 13 bd f3 10 e9 3e 54 17 af be
       -0.32404634 -0.036053363 0.45520744 -0.34197485
0000b0 40 53 39 bf 38 db b8 be 0b 42 3b 3f a8 72 73 be
       -0.72392654 -0.3610475 0.7314765 -0.23774207
0000c0 39 67 ee be 0e 12 28 bf ef b8 0a 3e b2 06 bb bd
       -0.46563128 -0.6565255 0.13547109 -0.091321364
0000d0 e3 b7 63 3f 3d 51 4c bf 0b 71 55 bf 9c ac 20 3f
       0.88952464 -0.7981146 -0.83375615 0.6276338
0000e0 67 c7 b5 3d 30 6c 1b bf 3f 12 40 3e 8a f5 96 be
       0.088759236 -0.60711956 0.1875696 -0.29484206
0000f0 f6 ac 34 bf c4 f6 cf 3e b7 28 6b bf 5f ea ea 3e
       -0.7057642 0.40617955 -0.91859 0.45881936
000100 8b 74 86 bf 07 8a a6 bf 53 3f b4 bf c7 f3 4b bf
       -1.0504316 -1.3010873 -1.4081825 -0.7966885
000110 a7 bf cf 3f 0b 70 64 bf 14 d3 b8 be 83 c9 44 bf
       1.6230363 -0.89233464 -0.3609854 -0.7686998
000120 cc 5e e3 be 48 57 17 3f 63 57 27 3f 20 3a 9c 3c
       -0.44408262 0.59117556 0.65367717 0.019070685
000130 99 b1 9c be 81 4c 8b 3f 1c 1d 51 3f 9e 7a bf bf
       -0.30604246 1.0882722 0.8168504 -1.4959295
000140 9b 82 1a 3f ba 76 ab 3e 5f 90 44 3f fe fd 7e 3f
       0.6035554 0.3348902 0.7678279 0.9960631
000150 46 8d de be 57 fa 55 bf a2 50 08 3f a2 37 30 3c
       -0.43467158 -0.83585113 0.53248036 0.010755451
000160 62 8f 65 bc 8e ea 39 be b7 7b 0c be b5 4f 0c be
       -0.014011236 -0.18155882 -0.13719068 -0.13702281
000170 3b 67 93 bf 95 4c 4b bf de 91 51 bd 7d 72 a4 3d
       -1.1515878 -0.7941373 -0.0511645 0.080296494
000180 88 be 12 3f 18 27 1d 3f 52 99 ca 3e 59 94 e0 bc
       0.5732198 0.6138778 0.395701 -0.027414488
000190 69 7d 49 3f c8 a0 ed be 20 1a 6d 3d 72 a7 ee 3e
       0.78706986 -0.4641173 0.057886243 0.46612126
0001a0 16 e6 16 bf 66 f3 0a bf d6 30 02 bf 0f 4d a8 bd
       -0.58944833 -0.54277647 -0.5085577 -0.08217823
0001b0 ee 5c 4e bf 81 5e 20 be c6 7c b2 be d1 53 2f bf
       -0.8061055 -0.1566105 -0.3486082 -0.6848727
0001c0 c5 17 2f 3e c7 47 7d bd 70 06 1c 3f 2a 12 39 bd
       0.17098911 -0.06183603 0.6094732 -0.04518334
0001d0 01 98 98 bd 33 50 d3 bd 97 35 45 bd ca 0a a8 3e
       -0.074508674 -0.10318031 -0.04814681 0.3282073
0001e0 d8 41 63 be 45 ca 08 bf df d2 1b bf 38 6c 6e be
       -0.22193086 -0.5343364 -0.6086864 -0.2328347
0001f0 f7 ff e5 bd 97 20 ad be c3 58 2e 3e e8 af b7 be
       -0.11230462 -0.33813927 0.17026047 -0.35876393
000200 e1 23 fb 3d 31 ed 8b 3e 0a 7e 9a bd 50 00 c4 bd
       0.12262703 0.273294 -0.07543571 -0.09570372
000210 ad 8a b7 bd a4 8d b1 be f3 24 99 be 74 1b 7e 3f
       -0.08961997 -0.34678376 -0.29911003 0.9926064
000220 a3 44 04 be 16 ec b1 be ca 80 8a 3e 11 7e 45 3e
       -0.12916808 -0.34750432 0.27051383 0.19286372
000230 4a 18 db 3e 78 b0 86 3e 32 ae a5 be 9e d4 18 3f
       0.4279197 0.2630651 -0.32359463 0.5969943
000240 2b 38 04 bf c6 dd 06 3f 15 17 30 be 57 d5 12 bf
       -0.51648206 0.5268215 -0.17196305 -0.5735678
000250 0a 88 dd be b1 41 01 be 0c 91 8b 3f ca f4 54 3e
       -0.43267852 -0.12622716 1.090364 0.20796505
000260 5e 4a 2a bf 9c d7 44 3e 36 54 8d be 4c 21 03 3f
       -0.66519725 0.19222873 -0.2760331 0.5122268
000270 61 e9 a0 3d 77 ff 4f 3f dc b6 4d 3f 15 4d 98 3a
       0.078570135 0.81249183 0.80357146 0.0011619652
000280 81 32 96 bd 4c 83 67 bf 3b c4 27 bf dd 58 f0 3e
       -0.073338516 -0.9043472 -0.655338 0.46942797
000290 fd 4a 47 3f 75 9e a3 be 95 e7 91 be 05 3f 08 3e
       0.778488 -0.3195683 -0.28496996 0.1330529
0002a0 1d 1e 52 be ba 9f c2 3e c1 bb 4b be 2c 25 ee be
       -0.205193 0.38012487 -0.19895841 -0.46512735
0002b0 e7 93 2b bf 3d 24 0f 3d f3 e0 63 bf 24 00 40 3f
       -0.67022556 0.03494667 -0.8901512 0.75000215
0002c0 28 fb 95 3d de e0 0c 3f ff c4 04 3f e9 36 31 bf
       0.07323295 0.5503062 0.5186309 -0.6922441
0002d0 3a 63 82 3e e5 1e bf 3e 80 62 55 3f a1 fa 0b 3e
       0.2546633 0.37328258 0.83353424 0.13669826
0002e0 bc 64 9f 3e f2 5e 1a 3f 35 da 24 bf f1 e7 06 be
       0.31131542 0.60301125 -0.6439546 -0.13174416
0002f0 c4 6d 5c 3f 1c 87 80 bd 09 cc 2f 3f 54 49 61 bf
       0.8610499 -0.0627577 0.6867071 -0.88002515
000300 da 46 05 be 90 76 54 bf 0f 00 85 bf 82 13 19 bf
       -0.13015309 -0.8299341 -1.0390643 -0.5979539
000310 c0 7f d6 bd 83 c1 e6 3e db 66 32 bf 9f f9 fa be
       -0.10473585 0.45069513 -0.69688195 -0.4901857
000320 ce a8 2d 3f b7 50 b3 3e f3 60 07 3e 0a 74 2c 3e
       0.678357 0.35022518 0.13220577 0.1684114
000330 17 07 96 3e 0b 9f c2 3d 1b 80 6f be 49 9b 18 be
       0.29302284 0.09502991 -0.23388712 -0.14902987
000340 98 46 94 bd 90 ec bb be ea 97 50 3e 3d 4d 13 be
       -0.07240027 -0.3670392 0.2037045 -0.14384933
000350 c9 61 4c 3f 3a 16 4a bf 1d ba 04 3f 89 bc 4b bd
       0.7983671 -0.78940165 0.51846486 -0.049740348
000360 5d 7e 86 3e c4 2c 7d be 17 26 d6 3d 9f 60 ed 3d
       0.26268283 -0.24724108 0.10456484 0.11590695
000370 dc da b6 be 3c 9f 5c 3f 72 c2 88 be d8 4a 80 bf
       -0.3571385 0.8618047 -0.2671085 -1.002284
000380 9b c8 8f bd 63 d5 8b be 6b 94 3e 3e 0e d3 b9 3d
       -0.07020684 -0.2731124 0.18611304 0.090734586
000390 55 bd 08 3d f0 45 09 be 44 41 25 be 5b 12 ef bd
       0.033383686 -0.13405585 -0.16138178 -0.11673423
0003a0 47 9b 97 be 69 80 9d 3d db 77 f4 3d 0b 83 ef 3d
       -0.29610655 0.07690508 0.11936923 0.11694916
0003b0 9c 1b 51 bc dd 85 f4 3d 1b 10 33 be 31 f4 4d 3e
       -0.01276293 0.11939595 -0.17486612 0.20112683
0003c0 64 8a b5 bf f1 c8 a3 bf b1 65 80 3f 24 ad bf bf
       -1.4182858 -1.2795697 1.0031034 -1.4974713
0003d0 47 1d 35 3f 40 4b 8b bf ef 67 4e 3f 28 22 ca 3f
       0.707478 -1.088234 0.8062734 1.5791674
0003e0 cc 21 1c c0 18 82 6d 3e fd ec d4 bf 8c e0 f6 bf
       -2.4395628 0.23194158 -1.6634823 -1.9287276
0003f0 32 a4 c8 bf a8 3e a6 3f 61 1b ae bf 50 a8 95 bf
       -1.5675108 1.2987871 -1.3602105 -1.169199

graph_prop.node_update_funcs.0.bias_ih f4 [48]
000000 0c ef b6 3f 4d 3c 28 c0 a2 e7 79 3f d9 70 e2 3f
       1.4291701 -2.6286805 0.9761907 1.7690688
000010 73 d8 b8 3f 78 71 d3 bf 0e 04 ea 3f c9 38 38 bf
       1.4441055 -1.6519003 1.8282487 -0.7196165
000020 4c 16 e7 be e2 a2 f2 bf 42 7e 9e 3f bb 10 53 be
       -0.451342 -1.8955958 1.2382281 -0.20611851
000030 e6 54 9b bf 29 de e1 3f 7c 60 ef bf 8f de 39 40
       -1.2135284 1.7645923 -1.870132 2.904209
000040 e6 7f 25 c0 ce e4 25 40 3d 68 0c 3f d4 42 87 3f
       -2.5859313 2.5920901 0.54846555 1.0567269
000050 ec 2e c0 3d a0 47 a3 be a7 37 a0 3f 74 ee 80 3f
       0.0938395 -0.31890583 1.2516984 1.007277
000060 21 57 c8 bf e8 a0 08 bf 9b 30 f6 3e 84 62 0d c0
       -1.565159 -0.53370523 0.48083958 -2.209138
000070 dd ab bf 3f fa a8 b5 3f de 8b bb 3f 12 f9 20 3e
       1.4974324 1.4192193 1.4652059 0.15720013
000080 fe 6b 8c be 67 75 24 c0 98 de c2 be e6 67 e2 bf
       -0.27426142 -2.5696657 -0.3806045 -1.7687957
000090 5a af 71 3f 4d 53 a7 bf 8d 46 ae 3e c2 d5 e3 3f
       0.9440819 -1.3072296 0.340382 1.7799609
0000a0 2d 1f a4 bf 58 2f e1 bf a0 16 69 be e5 b5 35 c0
       -1.2822014 -1.7592573 -0.22762537 -2.839227
0000b0 86 6d 79 bf aa a0 56 3f 8a 62 2b c0 33 d6 22 c0
       -0.97432745 0.83838904 -2.6778893 -2.5443237

graph_prop.node_update_funcs.0.bias_hh f4 [48]
000000 92 8a c9 be 59 c1 ef bf 3d da b5 3e d1 70 5f 3f
       -0.39363533 -1.873088 0.35518065 0.8728152
000010 6f 51 12 40 3d 25 1b bf b7 08 82 3b bf f0 ae be
       2.2862203 -0.60603696 0.003968324 -0.3416805
000020 59 ff 50 bf 04 a7 88 3f 9d 42 c5 be 98 bc 36 3f
       -0.8163963 1.0675969 -0.38527384 0.7138152
000030 66 92 3a 3f 9c 1a 05 40 b4 36 11 3f 71 8a 26 40
       0.72879636 2.079749 0.56724095 2.6021998
000040 f7 1d 29 c0 d4 40 b9 3f 61 d3 29 3f c4 65 fc 3f
       -2.642454 1.4472909 0.66338164 1.9718556
000050 8f 94 be be 46 70 8b 3e 33 f6 ba 3f ed ce 3a 40
       -0.37222716 0.27234095 1.4606384 2.9188797
000060 ec d0 40 c0 b6 26 96 bf 07 5f 5f c0 8e 6b 3a c0
       -3.0127516 -1.1730564 -3.490175 -2.9128146
000070 03 96 b1 3f e8 21 9e 3f 02 90 f3 3f 18 16 13 c0
       1.3873905 1.2354097 1.9028323 -2.2982235
000080 11 b9 46 bf 1b 74 ff be b1 8f dc bf ea 58 bd bf
       -0.7762614 -0.4989327 -1.7231351 -1.479276
000090 90 0f 2c 40 97 35 02 be d7 ed 32 c0 7a 7c d3 3d
       2.6884499 -0.12715755 -2.7957666 0.103264764
0000a0 7b fa a7 3f d4 eb 85 bf 04 2e 03 3f 90 5d c1 bf
       1.3123316 -1.0462594 0.5124209 -1.5106678
0000b0 ed 6d 09 c0 81 d5 ad bf 36 9b 16 bf 20 92 2f c0
       -2.1473343 -1.3580781 -0.58830583 -2.7432938

graph_prop.node_update_funcs.1.weight_ih f4 [48, 32]
000000 f5 29 a1 bf df 2c a2 bf 6e 31 a9 3f 21 e7 cc bf
       -1.2590929 -1.2669944 1.321821 -1.6008035
000010 b4 20 21 3e 7a 7a b9 bf 81 b4 e1 bf 92 3f b9 3d
       0.15735132 -1.4490502 -1.763321 0.09045328
000020 0d 23 a9 bf 45 2a b9 bf cd 34 98 be 2e ac 73 3f
       -1.3213822 -1.4466025 -0.29727784 0.951846
000030 79 04 71 3f d0 96 98 bf c8 ec da 3f c8 c5 28 bf
       0.9414745 -1.1921024 1.710351 -0.6592679
000040 c1 c5 8a 3e f5 1d 2e bf 87 73 b5 3f fa 47 89 bf
       0.27104 -0.6801446 1.4175881 -1.072509
000050 98 ee f1 3f ef ee 16 3f da 30 90 bf 44 e8 59 3f
       1.8900938 0.58958334 -1.1264908 0.85120034
000060 b9 31 aa bf b6 06 a8 bf 6c bb cb bf cc ae bb 3f
       -1.3296424 -1.3127048 -1.5916572 1.4662719
000070 42 9d 86 bf 21 16 27 bd 57 f6 14 bf 52 ac c4 bf
       -1.0516741 -0.04079259 -0.58188385 -1.5365088
000080 c7 82 3a be 59 05 f5 3d ad b3 03 3f 78 25 81 be
       -0.1821395 0.119639106 0.5144604 -0.252239
000090 c9 0c e2 bc 81 32 4e bf e9 71 20 bf bc 4b 90 3e
       -0.027593987 -0.8054581 -0.62673813 0.2818278
0000a0 b4 72 4f be 57 2b ef bc 8b 37 48 3f bd 78 77 3c
       -0.202586 -0.02919547 0.7820975 0.01510447
0000b0 82 35 e5 3e 4e 83 8b 3e 32 a1 de bb c7 c0 e4 3e
       0.44767386 0.27248615 -0.0067941183 0.44678327
0000c0 f6 fa dd 3e 77 1f a4 3e ec 3f f7 bd bb a5 bb 3e
       0.4335553 0.32055256 -0.12072739 0.3664988
0000d0 12 4f 80 bd 5e ea 91 bd 18 58 fb 3d 54 3a 99 3e
       -0.062650815 -0.0712478 0.12272662 0.29927313
0000e0 e9 78 d1 be aa 74 6d be a7 8e 4e 3e 72 7c 17 bf
       -0.4091256 -0.23189035 0.20171605 -0.59174263
0000f0 d6 54 0d bf d0 aa 93 3e f1 32 8c be 28 c3 4b be
       -0.55207574 0.28841257 -0.27382615 -0.19898665
000100 a3 cb f9 3e 6b c5 90 3e 63 cd 47 3e e9 04 ce 3e
       0.48788175 0.28275618 0.19511943 0.4023812
000110 e3 45 84 be 82 93 03 3f 96 8a 8a 3c 72 58 99 bc
       -0.2583457 0.51396954 0.016911786 -0.018718932
000120 7e 0e e3 3d 03 d4 e0 3e fb 7f ad bd c8 0b 84 be
       0.110867485 0.43911752 -0.08471676 -0.25790238
000130 f7 59 3c bf 14 59 0a 3e 5f 8d d6 be 94 28 6c 3f
       -0.73574775 0.13510543 -0.41904733 0.9224942
000140 d2 ca a4 be 1c df 18 3f 9f 3e f2 3d 68 16 90 3f
       -0.3218599 0.5971544 0.1182835 1.1256838
000150 59 80 fe bd 3f de c2 bd 87 94 57 3d 95 eb b4 be
       -0.12426824 -0.09515046 0.05263188 -0.35335985
000160 b2 b7 ed 3d 04 7c 55 3d 71 8f 3a 3f 8a 52 59 3f
       0.11607303 0.052120224 0.72875124 0.8489157
000170 96 59 17 3f c1 9e c7 3d ca 06 62 3e c8 a8 9a 3e
       0.5912107 0.09747077 0.22072902 0.30206895
000180 3a 1f 72 bf 2f ff db 3d c1 3f 29 3f 3d a1 64 bf
       -0.945789 0.10742032 0.66112906 -0.8930853
000190 f7 07 b0 bf 90 27 89 bf ec e8 8c bf 3d 7e b4 3f
       -1.3752431 -1.0715199 -1.1008582 1.4101025
0001a0 4a 0f 3f 3f 3f 58 96 bf 38 bd e5 3f 96 e2 a0 bf
       0.74632704 -1.174568 1.794837 -1.2569149
0001b0 42 9a f2 3f 0c 4d cd bf 7f 77 cb 3f 26 db c0 3f
       1.8953326 -1.6039138 1.5895842 1.5066879
0001c0 bb 72 6d 3f df 5a be bf 8b 22 9e 3e 3b 93 87 3f
       0.9275319 -1.4871482 0.3088573 1.0591806
0001d0 39 34 c1 3f 42 ee 4f 3f f7 f8 52 bf f9 f2 9d 3f
       1.5094062 0.8122293 -0.8241114 1.2339774
0001e0 e5 c3 9c bf 4a 87 94 3f a0 40 2e be 4c 2b ad bf
       -1.2247282 1.1603787 -0.1701684 -1.3528838
0001f0 7b 8d 9e 3f 0c 9b 8d bf b2 05 68 bf fd cf 8d bf
       1.2386926 -1.1062942 -0.9063369 -1.1079098
000200 40 59 1f 3c 2f 35 e4 be d9 82 2b be df 1e 2c bf
       0.009725869 -0.44571826 -0.16749133 -0.67234606
000210 2a 0a ef be 8b b6 6b be 15 36 0a bf 13 3e 8c 3e
       -0.46687442 -0.23018853 -0.5398877 0.2739111
000220 26 34 95 3d 78 3a 04 bf 64 fe 7d 3e 9c 22 f5 3e
       0.07285337 -0.51651716 0.24804074 0.47877967
000230 97 63 1b be 0d e9 24 3d 5f e7 93 be c7 fa 26 3f
       -0.1517471 0.040261317 -0.2888746 0.65226406
000240 d8 1f d9 be a9 72 32 bf d0 5a fb be 7f 18 3c be
       -0.42407107 -0.6970621 -0.49092722 -0.1836872
000250 62 d6 56 3f fb f5 2e 3f fa 05 0b 3f d4 fc 05 bf
       0.8392087 0.68344086 0.54305995 -0.5233891
000260 2f f1 49 be bc 0f 22 3c 60 7a 90 be 66 02 26 3e
       -0.1972091 0.009891447 -0.28218365 0.16211852
000270 0f 82 a8 bc 98 8f 19 3f f4 8c e7 3e 78 b2 93 bf
       -0.02056983 0.5998473 0.45224726 -1.1538839
000280 a8 b4 50 be 8b 46 44 3e 9f c4 07 bd 7a 24 a2 3d
       -0.20381415 0.19167535 -0.033146497 0.079171136
000290 19 40 63 bd 0e d9 01 be 8d 8a c0 be 61 92 52 3e
       -0.05548105 -0.12680456 -0.37605706 0.20563652
0002a0 af 1e fb be e1 62 03 bf 26 e9 92 3e 1b c1 01 be
       -0.49046847 -0.5132275 0.28693503 -0.1267132
0002b0 e4 8a 0c 3f fc e9 f5 bd 62 92 6f 3e 7c 0c b5 3e
       0.5489943 -0.120075196 0.23395684 0.35361087
0002c0 9b 2b b8 be a5 e8 df be bd 6e d9 3e fd ad 3c be
       -0.35970768 -0.4373218 0.424673 -0.18425746
0002d0 78 11 10 3f c1 d3 9e 3e b8 b1 c4 3e 58 7c 7f 3d
       0.56276655 0.3102093 0.3841684 0.062374443
0002e0 8e 93 0b bf 22 cf 55 3e 96 a1 64 be b8 b0 81 3e
       -0.54522026 0.20879796 -0.22327265 0.25330138
0002f0 e0 3d a3 3e 00 8a 04 3f 32 3e 4d 3d ad 9d 88 be
       0.31883144 0.5177307 0.050108142 -0.26682797
000300 fb 1c 2d 3f af 69 2d 3e 7a b3 bc be ce 77 8a 3f
       0.67622346 0.16934846 -0.3685568 1.0817811
000310 42 93 fc be 3b b5 02 3e 01 7e a0 3e a0 96 40 bf
       -0.493311 0.12764446 0.31346133 -0.75229836
000320 49 7d 08 3f 75 52 eb 3e ea ac bc 3f 0d 06 0f bf
       0.5331617 0.45961347 1.4740269 -0.5586861
000330 16 22 1f bf 43 00 52 3e 35 14 04 bf 0b 3d 3b 3f
       -0.62161386 0.20507912 -0.51593333 0.7314002
000340 21 76 27 bf 40 8d 79 bd 31 0f d3 3d a9 2f 77 3f
       -0.65414625 -0.060925722 0.10305632 0.965571
000350 7c 66 4f be b4 39 14 3e 37 dc 02 3f 46 2f 4b bf
       -0.20253938 0.14475137 0.5111727 -0.7936901
000360 ae 26 ed 3e fc 77 66 3f f1 8f 6d 3f 91 09 82 be
       0.46318573 0.9002683 0.9279776 -0.25397924
000370 38 fb be 3e 15 ae ad 3e 04 69 75 3f 8b 56 aa 3e
       0.3730104 0.33921877 0.95863366 0.33269152
000380 16 5d 7c bf ee 5a 8f 3f 82 39 66 3e 0d 21 fe be
       -0.9857954 1.1199625 0.22482875 -0.4963459
000390 fd 23 05 40 72 23 48 3f 36 4d 1d bf f4 ba f3 3e
       2.0803216 0.78179085 -0.6144594 0.4760357
0003a0 6e 57 a6 bf 97 be 9c 3f cd 8f 30 3e 2b 18 06 40
       -1.2995431 1.2245663 0.17242356 2.095225
0003b0 d7 3f 1e 3e b6 db 2b 3f 03 13 c2 3d e9 41 18 3e
       0.1545404 0.6713213 0.094762824 0.14868893
0003c0 60 14 62 3f 31 fc fc 3e 13 a3 c9 3f fc a0 73 3f
       0.8831234 0.49411157 1.5752891 0.9516752
0003d0 e9 69 a8 3f 75 de ba 3f d1 1d ae bf de b6 c5 3f
       1.3157321 1.4599138 -1.3602849 1.5446432
0003e0 8e 66 e2 3f b4 95 db bf 7a 98 c6 bf 28 28 a9 be
       1.7687547 -1.7155061 -1.5515282 -0.3303845
0003f0 65 9d 32 bf 0b 6f 67 3e d6 a3 13 bf 1e df 83 bf
       -0.69771415 0.22600953 -0.5767187 -1.0302465
