housingpipeline/housingpipeline/dgmg/old data/model_cycles.pth (torch, 58415 bytes, 22 tensors)

weight f4 [1, 16]
00000000: 20e3 41bf 523d b0be f53c 8e3e 833e 833e
00000010: c819 c33d 41f5 a53e 08f6 0dbd b163 fe3d
00000020: 2d58 3abf 2b14 2e3e 7656 fe3e 3f58 533e
00000030: 4438 83be 8458 533e 6765 223f 4722 703e
-0.7573719 -0.34421784 0.27780882 0.2563363 0.09526402 0.32413676 -0.03465846 0.124213584
-0.72790796 0.16999881 0.4967534 0.20639132 -0.25628865 0.20639235 0.6343598 0.23450576

weight f4 [32, 16]
00000000: 4b22 a43e 7f06 e0bd c829 a43d 0f04 8ebc
00000010: fff5 93bd 1041 8dbd c615 82bd cdc6 2b3b
00000020: 7bc1 f2bd 4eb5 ed3c 87a4 a1bd 527c 0fbe
00000030: 5746 47bd 9253 913d b1d6 853e d237 17be
00000040: 88b3 c43e 31bd 1bbe f812 c4be bd20 803d
00000050: a315 f1bd 8e0a 7bbe f280 7dbe 90c6 2f3e
00000060: 5425 ee3d 38df 3fbe ad4d bcbe bcc4 d1be
00000070: bd7e fbbe f4aa 983e eca1 0e3f f719 933c
00000080: 6328 af3e 0d39 e73c 2bf9 6abe 8b32 c63e
00000090: d4ac fe3d a6d5 d43b 1b7f a0bd 6a0a e5bd
000000a0: c115 28be 02e2 873d 7598 f1bd fd3d 03be
000000b0: 4984 63bd c900 96bd 65e8 b3be 5dab a83d
000000c0: a8b7 c7be 0984 88bd 74a1 b13d c42f 3cbe
000000d0: 415f a73c d27b ff3d 7996 f73c 2f1e f33d
000000e0: 3e16 463e 79ca 4cbe 9255 97bd b3c6 873b
000000f0: d13d 4cbe da5c 253e 035e d33e b661 76bc
00000100: d203 223e 1c1f 403d 4fe0 243b f440 45be
00000110: 2800 d93e 8ad5 54be f2cb 053c 9520 4f3e
00000120: 3400 a43e d208 343e f772 34bc 54bb b3bd
00000130: 244a a83e 3be0 703d fefd 093e 2640 3dbe
00000140: 6cb6 033e 37d7 6abe e703 a3be 8949 cbbd
00000150: 4728 d5bd a12f 51be 5509 703e 7e7b bcbe
00000160: 1528 933e 910c 2c3e 6e8d 213e f378 57bd
00000170: 7767 113d 41a2 993e aea0 263e c847 303e
00000180: 5879 2dbe e8f6 a4be 01ff d6be 8bbf 593d
00000190: 375b e6bd fa50 17be e8c5 b2bc 0f49 e2bd
000001a0: 6575 423d 97c9 c93e 975b 683e ddbd 5c3d
000001b0: 7fc9 9d3b a1b3 2b3d cdfc 113e d2fd b538
000001c0: 566c 4e3c 1c22 ab3d fa24 bbbc 0475 393e
000001d0: 30af 59be 3528 55bc e56d 7b3d f36d 213e
000001e0: cc70 bdbe b48c d33e b330 75bd 522e a03d
000001f0: 64cd 72be 73ce 72bc c274 e23d f86d e63d
00000200: cec9 06bd 0ad7 86be 5a22 ff3e 4013 ca3d
00000210: c0b1 8d3e 39f0 8dbd 3dde 3e3e 97ba 9bbe
00000220: 2eac 35be 69a7 0bbd b039 21be 2fda 473d
00000230: 8231 3c3e 293c 94bc 8e52 863d 6620 073e
00000240: 456b 9c3e 1456 9a3e 1a72 69bb 5a6d 9e3e
00000250: a62f 64bc 4e5e 29be 4c7c 983d 73b9 80be
00000260: 2a7c c3be 4cca 613e 514a 03be 9138 553e
00000270: a7c9 093e 967a b8bc d3fa 13be 8e63 0d3e
00000280: b042 2f3e b89d 92be 29bb 13bd 1eed 2e3e
00000290: 9644 a1bd 9e76 ca3d 1b9e 42be 1a47 553e
000002a0: e358 6ebd d856 96be cd13 2b3e 2c9c cabe
000002b0: 30ec 603e 8672 e23e 0d83 403d 15f2 c43e
000002c0: 6cc8 803e 5152 6bbd d919 ea3d 8c5f c4bd
000002d0: 1916 223e 4b3e f0bc 29ec e4bd f833 793e
000002e0: 34a5 7a3b eb8e 50be e03f 943d de19 663e
000002f0: 7f75 6f3e 0b80 00be 412a 0dbe ae29 0cbd
00000300: 475e de3e 9119 b2be 49e2 d2bd 7dd9 fb3e
00000310: 0a7f 853e f2c0 11be 18f1 68be 63b3 30be
00000320: 5903 b73d 5342 503e 3c1a ffbc 0051 2a3e
00000330: 61ef 2abe 9ead 2b3e 9fe2 103d c2b5 08bd
00000340: cd38 733e 96c4 08bd d13b 113e c710 bbbc
00000350: 1f82 dcbd f0f8 4ebd c84a 30be 6e3c ab3e
00000360: 2589 bebe 9269 56be d287 023e 8e7d 0d3e
00000370: 919f b33e 0fc1 8bbd 555e 4ebe 810b 963e
00000380: dcab 693e 348a 81bd 5571 6fbe c1b8 b1bc
00000390: 8d16 d23c ae79 ccbe c3e4 053f 88a4 ce3d
000003a0: 338b 17be 7dda 183e 2a60 7b3d 2086 7ebd
000003b0: 9342 14be 9f00 15bd e40a 5b3e 8147 94be
000003c0: 19d6 3dbd d369 3cbc f68b d13e 33b8 053e
000003d0: d51c 303d b79a 68bd 956f 943e fc57 6bb7
000003e0: 5f43 1ebd ce74 d93d 5ca4 c1bd 7a01 02bf
000003f0: 987c 70be 002a 40be a84d 24be a340 eb3d
0.32057413 -0.10938739 0.08015782 -0.01733592 -0.072246544 -0.06897175 -0.06351809 0.0026211024
-0.1185331 0.029017117 -0.07892709 -0.14012268 -0.048651066 0.07096018 0.2614036 -0.14767388
0.3841822 -0.1520889 -0.38295722 0.06256244 -0.11771705 -0.24515745 -0.2475622 0.1716559
0.116282135 -0.18737495 -0.36778012 -0.4097041 -0.4912013 0.29817927 0.55715823 0.017956717
0.342105 0.028225446 -0.22946613 0.38710436 0.12435308 0.0064951954 -0.078367434 -0.11183627
-0.16414548 0.066349044 -0.11796657 -0.12816615 -0.05554608 -0.073243685 -0.3513824 0.0823581
-0.39007306 -0.06665809 0.08673373 -0.18377596 0.020431163 0.12474789 0.030223118 0.118709914
0.19344422 -0.19999112 -0.07389368 0.00414356 -0.19945456 0.16148701 0.41282663 -0.015037945
0.1582177 0.04690467 0.0025158112 -0.19263059 0.42382932 -0.20784584 0.0081663 0.20227273
0.32031405 0.1758149 -0.011013738 -0.087759644 0.32869065 0.058807593 0.13475797 -0.18481502
0.12862557 -0.2293366 -0.31838915 -0.09926135 -0.10408073 -0.20428325 0.2344106 -0.36812967
0.28741518 0.16801669 0.15776607 -0.05260558 0.035499062 0.30006602 0.16272232 0.17214882
-0.1694082 -0.32219625 -0.41991428 0.053161185 -0.112478666 -0.14776984 -0.021822885 -0.11049091
0.047475237 0.39411613 0.22691189 0.053892005 0.00481528 0.041919354 0.14256592 8.67803e-05
0.0125990715 0.08356115 -0.02284478 0.18111044 -0.21258235 -0.013010074 0.0613841 0.15764599
-0.3700012 0.41318285 -0.059860896 0.07821335 -0.23711163 -0.014819729 0.11057426 0.112514436
-0.0329073 -0.26335937 0.49830896 0.09866953 0.27674675 -0.069305845 0.18639465 -0.30415794
-0.17741463 -0.0340952 -0.15744662 0.04879206 0.1837826 -0.018095093 0.06558715 0.13195953
0.3055059 0.30143797 -0.0035620988 0.30942804 -0.013927376 -0.1653988 0.07445583 -0.25141487
-0.38180667 0.22049826 -0.12821318 0.2082236 0.1345583 -0.022519391 -0.1445115 0.13807508
0.17115283 -0.28635955 -0.03606716 0.1708264 -0.0787441 0.09885906 -0.19005625 0.20827904
-0.058190238 -0.29363132 0.16706772 -0.39572275 0.21965098 0.44228 0.04699998 0.38465944
0.2515291 -0.05745155 0.11430711 -0.095885366 0.15828742 -0.029326579 -0.111778565 0.24336231
0.0038245441 -0.20367019 0.07238746 0.22470805 0.23384665 -0.12548845 -0.1378565 -0.034219436
0.43431303 -0.3478513 -0.10297067 0.49189368 0.26073486 -0.14233759 -0.2274822 -0.1725593
0.089361854 0.203378 -0.03114044 0.16632462 -0.16692878 0.16765448 0.035372373 -0.033376463
0.23752137 -0.033390604 0.14182974 -0.022835148 -0.10767006 -0.050530374 -0.17216027 0.33444542
-0.37214008 -0.2093871 0.12747124 0.13817427 0.35082677 -0.068239324 -0.20153172 0.29305652
0.22819465 -0.06325188 -0.23383076 -0.021694543 0.025645519 -0.39936584 0.5230219 0.100899756
-0.14799194 0.14927097 0.061371006 -0.06213963 -0.14478521 -0.036377545 0.21390873 -0.28960803
-0.046346758 -0.01149984 0.40927094 0.13058548 0.042996246 -0.056788173 0.2899138 -1.4027577e-05
-0.03863847 0.10617982 -0.09455177 -0.50783503 -0.23485029 -0.18766022 -0.16045249 0.11486938

bias f4 [32]
00000000: f792 b2be 9c5b a3bf d7bb ffbe 2df0 0240
00000010: 2e8f 1940 0d94 dfbe cb91 3a3f 1218 0cbd
00000020: e033 9ebe 216c 8bbe 46c6 c73f 5532 0bbf
00000030: 499a c73e 242b de3f 8f49 c5bf 0162 d0be
00000040: f699 4c3f 644d 9dbd fc9d d53e 4764 b53f
00000050: 50c2 b53d 92f9 523e 6c52 c0bf cfba 9ebf
00000060: 18be 763e 7ac1 543f bfb7 16bf 2ab0 03c0
00000070: 3a10 edbd 8e4c a6be 5c16 99bf e4e2 d93f
-0.3487775 -1.2762332 -0.49947998 2.0459092 2.399364 -0.4366764 0.7287871 -0.034202643
-0.30898952 -0.27230933 1.5607383 -0.54373676 0.38984898 1.7356915 -1.5413073 -0.4069977
0.79922426 -0.07680777 0.41722095 1.4171227 0.08874953 0.20603016 -1.5025153 -1.240076
0.24095953 0.8310772 -0.58874124 -2.0576272 -0.115753606 -0.32480282 -1.1959949 1.7022367

weight f4 [32, 33]
00000000: 38bd e7bd 8d10 593c 11f9 053e 7904 06bd
00000010: 1366 a83b 3c82 42be b086 f73b df18 5f3d
00000020: 37b9 b63c 9824 dd3b 6e13 8a3d fe27 453d
00000030: 5b56 713d 587d cebd da39 92bc adaa adbc
00000040: 7044 8d3d 362f 573e 5e13 63be 8f59 123d
00000050: 18ba 9a3d 9c28 a73d b082 063d b3e0 bebd
00000060: 9db9 80bc df34 e9bc 93bb 2bbe 0e20 b0bc
00000070: ef41 b33b b1a2 203d 4739 213d fe0d 89bd
00000080: 70dc 87bd ecd2 91bb fff2 b23c 2eb7 cc3d
00000090: e855 60bd fa8e 0d3e 36a0 023e 8ede 2abd
000000a0: 6561 c2bd e7a5 bd3d 1647 8ebd 45e7 31be
000000b0: f2fe 933c ba15 7d3e 61e7 5dbe 6737 c7bd
000000c0: 91b4 933d 6be4 69bd 73a1 fbbd f6ae f83d
000000d0: b5e8 6cbd 454d 6bbb 3677 b53c 7c7c e4bb
000000e0: 9541 cdbd f7d0 5d3e 9526 973d 6f79 d53d
000000f0: 8724 f7bd 4c31 bc3e 57db 1e3d 342d e6bc
00000100: fcf9 823d 8763 19be eb76 743d bc5f d2bc
00000110: 08ee 37be 2ae3 65be d1a8 c5bd f36a 3b3e
00000120: 9529 0f3c fddf efbb 18ff f7bd 50b8 043d
00000130: c4bd 9b3c 8084 43bb 7453 153e d641 80bd
00000140: 33f8 c9bc 342f 983d a428 af3d ab20 84bd
00000150: 46a2 f8bd c5ee 56bc d8db a73b b9ef 0fbe
00000160: 821b 6b3e e171 fc3d b65a cb3c 0ca3 a2bd
00000170: 49dc cabd 158b b33d 7926 1fbd 3ed4 a53d
00000180: e989 9d3d 5b74 87bd 3b29 20be 8b87 4c3d
00000190: 580e 003e a166 933d 56a8 9abd 0fd4 843d
000001a0: f67d 193d 659b b1bc ec72 213e 5c7b 2cbd
000001b0: ae16 b53d 15f9 98bd 5b6e 753d 69cf dabd
000001c0: 7f63 1d3b ef1a 4dbc 820f 5539 a654 413c
000001d0: e7da 453e 24ce 41be e615 433e 1fb5 9c3d
000001e0: 3d07 a03d 393c 8ebc 151c 4a3e 42ce 353d
000001f0: 2412 8c3d 44de f23c 54f9 1cbe 2c6e a0bd
00000200: ea21 c7bd 8231 da3d ff0a d7bd 589e 143d
00000210: 2aaf 39bd 6f6f ecbd 9db2 d73b 55ac 173e
00000220: 1daf a93c e2c4 633d 6528 103d bd15 95bd
00000230: 161e b4bc 0066 fbbd 8fea 6dbd d87e 963c
00000240: 380b 96bc 5c1e 2b3e d06f 043c 7009 463d
00000250: 18a8 873d 9647 36be 96ed b83d 2401 bfbd
00000260: c277 183c 4aab 263e a33b 1d3d 330f 00bd
00000270: 3553 97be ccd4 8a3b ec1b 813d b9f3 66bd
00000280: bb52 54be 2da6 793c fad1 f6bb a926 d23c
00000290: 4b1a 593e 0772 8fbd f8b7 053e c700 db3d
000002a0: f286 aebd 3465 2a3c 2818 90bc 8500 ad3c
000002b0: f4ec f43d f7f0 8bbd 29e7 87bd b01c 8abd
000002c0: 5e6d d43c b0f4 a93d d7d7 92bd c7a8 043e
000002d0: 65e2 2c3e caa8 cabd a303 d33b 180c 453d
000002e0: 0a7c 5dbd 2761 393d 521d 063e 45ea a23d
000002f0: 98c7 0e3e 56eb 37bc 4527 d7bc 9eb6 913d
00000300: a8aa 13be 6c2e eebc 4caf 1e3e 3cbc a3bd
00000310: 689b 52bd 084b 993d 7896 35be f2f2 3cbd
00000320: debb a3bd 57de 24bd 1874 5bbd e280 9b3d
00000330: 40c9 12be 2699 b23b a02e 233e 6c04 633e
00000340: f22c 94bc d4da 3fbc 68d6 1f3c 462f 4ebd
00000350: a8ff c3bd efcc a0bd dcad 41be 1626 96bd
00000360: 1775 71bd 989e fdbd d2ed 8d3e b090 473e
00000370: fab0 393d b6e9 843d c824 233e 7f85 17bd
00000380: 9792 023e 69c4 f83c 9654 09be ec31 793d
00000390: b92d 5f3a 8fe0 dbbc 2185 0bbd 5623 0f3d
000003a0: 1eba 813d 1241 35bc 5907 e13c 9603 253c
000003b0: f808 adbd c663 64bd d355 c3bd a7a0 d6bc
000003c0: 7e34 d2bd 9705 823d 6c11 bc3d 0957 b23d
000003d0: 902a ac3d a950 fc3d e250 e43d 7b4a a83c
000003e0: 192b 6ebd 6e32 2f3d 1f94 b9bd 648f de3d
000003f0: 05a9 a3bd e4f4 9bbd d785 81bd bf82 08bc
-0.113153875 0.013248575 0.13083293 -0.03271911 0.0051391213 -0.18994993 0.007553898 0.05446708
0.022305114 0.006748747 0.06741987 0.048133843 0.058920246 -0.10082501 -0.017849851 -0.021199549
0.06897819 0.21014103 -0.22175357 0.03572994 0.07555026 0.081620425 0.032839477 -0.09320202
-0.015713507 -0.028467594 -0.16770773 -0.02149966 0.0054705064 0.039217655 0.039361265 -0.06692122
-0.06633842 -0.0044501927 0.021844385 0.09995876 -0.054769427 0.13824072 0.12756428 -0.04171615
-0.09491233 0.09260159 -0.06947152 -0.17373379 0.018065903 0.2471532 -0.21670295 -0.09727364
0.07212175 -0.057102602 -0.12286653 0.12142746 -0.057839114 -0.003590421 0.02215157 -0.0069728475
-0.100222744 0.21661745 0.07380406 0.10423552 -0.12067514 0.3675636 0.038783398 -0.028097726
0.06395337 -0.14979373 0.05968372 -0.025680415 -0.17961895 -0.22449937 -0.0965134 0.18302517
0.008737941 -0.0073204027 -0.12109202 0.032402337 0.019011386 -0.0029833615 0.14582616 -0.06262557
-0.024654483 0.07430878 0.085526735 -0.064515434 -0.12140326 -0.0131184505 0.005122643 -0.1405629
0.22959712 0.12326408 0.024823528 -0.07941255 -0.09905297 0.08766762 -0.03885505 0.080971226
0.0769232 -0.0661399 -0.15640728 0.04993395 0.12505472 0.07197309 -0.07551639 0.064857595
0.03747364 -0.021680543 0.15766495 -0.042109832 0.088422164 -0.074693836 0.059919696 -0.106840916
0.0024015603 -0.0125186285 0.0002031904 0.011799967 0.19321786 -0.18926293 0.19051322 0.076517336
0.078138806 -0.0173627 0.19737275 0.044386156 0.068393975 0.029647 -0.15329486 -0.078335136
-0.097232655 0.10653974 -0.10500144 0.03628382 -0.045333065 -0.11544692 0.0065825717 0.14811833
0.020713383 0.055607684 0.035194773 -0.07279537 -0.021987002 -0.12275314 -0.05808502 0.01837103
-0.018315896 0.167108 0.008083299 0.048348844 0.06623858 -0.17800745 0.09029691 -0.093263894
0.009305896 0.16276279 0.038386952 -0.031264495 -0.2955567 0.004236793 0.06304154 -0.056384776
-0.20734684 0.015237373 -0.0075323554 0.0256532 0.21201436 -0.07004171 0.1305846 0.10693508
-0.085218325 0.010400105 -0.017589644 0.021118412 0.11959258 -0.0683307 -0.06635887 -0.06743753
0.025931057 0.082986236 -0.071700744 0.12955008 0.16883238 -0.09895475 0.0064396425 0.048107237
-0.05407337 0.045258667 0.13097122 0.079548396 0.13943326 -0.011225542 -0.026263842 0.071149096
-0.14420569 -0.02907487 0.15496558 -0.07994887 -0.05141774 0.07485014 -0.1773318 -0.04613013
-0.07994817 -0.040251102 -0.053577513 0.07592942 -0.14334583 0.0054503856 0.15935755 0.22169656
-0.018087838 -0.011709888 0.009755708 -0.050338052 -0.09570247 -0.07851588 -0.18913978 -0.07331483
-0.058949556 -0.12383765 0.27720505 0.19488788 0.045334794 0.06489889 0.15932 -0.036992546
0.12751232 0.030367093 -0.13411173 0.060838625 0.0008513588 -0.026840476 -0.03406251 0.03494581
0.06334327 -0.011062877 0.027469324 0.010071656 -0.08448976 -0.055759214 -0.09537854 -0.026199652
-0.10263918 0.063487224 0.091830105 0.08708007 0.08406556 0.12320072 0.1114824 0.020543328
-0.05814657 0.042772703 -0.09061455 0.10867193 -0.07991222 -0.076150686 -0.06324356 -0.008331954

bias f4 [32]
00000000: b5dc 033d 22cd 13be 1a0e f23d 6566 89bd
00000010: bc50 a03c 24d9 003d 98cb cb3d 654a 12be
00000020: cb97 73bd f467 fdbc ab23 2c3b f2a1 50be
00000030: b0dc be3d 2c05 7fbd 7c32 55bd 119a 153d
00000040: e2f5 b0bd 1467 ee3b aa6c febd 8886 b33d
00000050: 437e 0cbd ab30 8ebd e864 523e 0262 743d
00000060: 2ebe 853e 4cde cebd 13fb c13b 0636 f63a
00000070: 2f0a d2bc d3d8 c43d 2ede 103e 18f0 ea3b
0.032192905 -0.1443372 0.11819096 -0.06708983 0.019569747 0.03145708 0.09950942 -0.14286192
-0.059470933 -0.030933358 0.0026266377 -0.20374277 0.093194366 -0.06226079 -0.0520501 0.036523882
-0.086406484 0.0072754715 -0.1242307 0.08765894 -0.0343001 -0.069428764 0.20546305 0.05966378
0.26121658 -0.101009935 0.005919823 0.0018784411 -0.025639622 0.096116684 0.14147255 0.0071697347

weight f4 [32, 33]
00000000: d8c0 2cbd e3bc 1dbd 6ae1 08be b565 78be
00000010: f899 99bb 9c6b 87bd 8f60 8a3d f55b 3ebe
00000020: b4bd d03c 58a6 103d 0c16 14bd fb37 7ebd
00000030: 60fe c9bc c0f6 a93c 0f3b 54be 4873 fe3d
00000040: 47b5 c8bc b32a 543e eb98 c83c bbd4 8f3c
00000050: dff8 dfbd 3b68 86bd 3f69 b23d 4418 d23d
00000060: 6993 bf3d 3a22 93bc d2dc 073d 971d 7b3d
00000070: 947c f33d 901e dabd 2d93 fc3d fa66 84bd
00000080: a325 9bbd c306 3dbe f347 87bd 7709 33bd
00000090: fd95 b93d f9ac 4bbe 0a11 9ebd dd75 133e
000000a0: 0187 62bc 353f a23d de4a 68bd bc81 10bd
000000b0: d22b adbd 89ac 48bd 03f8 53bc 8a6d 04bd
000000c0: 4023 0f3d 94f7 fcbc ad45 403b d5d0 e2bd
000000d0: e54c 44be f922 b4bc 363a 8cbe 78c8 8cbc
000000e0: 5766 203e e3db e63c 35ee 283d ea4f dbbd
000000f0: 4471 983d dc2c 35be 8f93 01bd 5c15 a0bc
00000100: 4f8b 20bd 44f7 36bd c338 bf3b de09 393d
00000110: 0c7f 8cbd 0332 3d3e c9f8 45be 05f8 963d
00000120: fd5d 7bbe f633 d73d ea66 acbb 76aa 0d3e
00000130: cbb9 07be d49f 34bd 731b dd3c 0815 8ebd
00000140: 5ba4 3d3e 298b 033e 5a60 59bd ddc9 c33d
00000150: fff2 f9bd 944b 633e 1d29 f43c 0094 ab3c
00000160: f4f1 ed3d 8479 263e a266 cf3d 1955 cb3d
00000170: 15a6 2f3e 2a3a 47bd eed3 423b a08c c7bd
00000180: eb0a f13d ca8b 9fbc eb49 41bd f547 213e
00000190: da47 0dbe 51e9 db3d 0323 33be 3b1d 70bc
000001a0: 4358 cf3d 3e98 473d 77bf 1f3e b572 3a3d
000001b0: e119 c23d aa24 4b3e 07a1 193d a48a 09be
000001c0: b5be 833c 3818 6fbc 5f6a d0bc bcd4 cd3d
000001d0: a685 e6bd d4bd 953a 4759 283d 1796 453e
000001e0: d79a 5f3d 3b7a 383d d725 483e e2e6 de3c
000001f0: 06a5 c5bd ac81 02be 2251 3fbe 41b6 4e3d
00000200: 39c8 0c3d 21f9 1abe 6262 9a3d ce28 683d
00000210: 5c5d 8cbd 6458 683d cdfe 0f3d fbb2 61bd
00000220: 06ae 433e 6fb7 913c 71ce efbc 43a6 683d
00000230: 90a1 9fbd 9c2c cc3d c74c a8bd 13bb 1a3d
00000240: 5336 8fbd 0636 db3b 0d8a fb3c 5180 1e3e
00000250: 3007 7ebd 0125 b8bd 2a30 c13d 92a7 9c3d
00000260: 7b78 f23c 0bc4 983c 0c60 263e 3890 22be
00000270: 00da 5f3c 820f b53d 7dd9 a13d 039f 923e
00000280: a155 df3d 0e2a cabd 98d1 973d 0817 b2bd
00000290: e575 843c 5f1c afbd 5ca6 823c 1fbc d83d
000002a0: c959 6d3c accd 363d a56d 303d 0051 1b3d
000002b0: 6fee 443c 7097 723e 7f30 a3bc 8186 5ebd
000002c0: e608 09be 99c4 393c 1f01 69bd 0765 323e
000002d0: 3306 283e 0016 5b3e 2b6f 393e d04f 443e
000002e0: 1cff 553e 5701 8fbd 6561 babb ef8c 023e
000002f0: dc1e 92bd 0b06 a03c e2d2 463d 7420 e3bd
00000300: 7fbc aebd 5022 8fbd 3bb4 02bd 2479 e93d
00000310: 2538 24bd e458 d63d 9fa5 a7bd 3bcf b8bc
00000320: ff4b 0f3d 2b90 b23d 6cce a3bd de7b 97bc
00000330: e52c 23be 95a6 193e 57c6 a13d 808e bc3d
00000340: f27a 03be 0937 d93b de68 1a3d 450e 353e
00000350: e0b2 67bd 1dbc dabc 1764 83bd 7302 073e
00000360: 36af 213e d6cd 75be 0a5c fe3d af2d 63bd
00000370: 30e0 a0bd 5bfc 8cbd 4f1f c4bd 86f5 5cbd
00000380: 7928 0abc ebf7 df3c e8a5 3b3e 3de5 533c
00000390: 62f1 073e fea3 703d 4fac fcb9 fcee 843d
000003a0: 3503 fabd 62d0 323e 8a0b c8bd 777c 4d3d
000003b0: c9d4 a33b e917 cd3d a18c 113e 8ae8 edbd
000003c0: e0fe 9fbd 4b73 5eba 8edd 2c3e 71cd 013e
000003d0: cf08 f4bc 273d a4bc e9ec 11be 7fd9 42be
000003e0: f493 81bc a082 2f3e 7064 e43d 0008 933d
000003f0: fa27 6abd 75ac 073e de13 99bd 5e6c 453d
-0.042176098 -0.038510215 -0.13367239 -0.24257548 -0.004687544 -0.06612322 0.06756698 -0.18589766
0.025481082 0.035314888 -0.036153838 -0.062065106 -0.024657428 0.020747542 -0.20725654 0.12424332
-0.024500502 0.20719413 0.02448698 0.017557492 -0.1093614 -0.06562849 0.0871148 0.102585346
0.09354288 -0.017960656 0.033169575 0.061307516 0.11888996 -0.106503606 0.12332759 -0.06464954
-0.07575538 -0.1845961 -0.0660552 -0.0437102 0.09061811 -0.19890203 -0.07718094 0.1440043
-0.013826133 0.07922212 -0.056712024 -0.035279974 -0.08455624 -0.048992667 -0.012937549 -0.032331027
0.034945726 -0.030879773 0.0029338405 -0.11074988 -0.19169958 -0.021989333 -0.2738816 -0.017185435
0.1566404 0.028181022 0.041242797 -0.10708602 0.07443479 -0.17692894 -0.031634863 -0.019541435
-0.039195355 -0.044669405 0.005835624 0.045175426 -0.0686017 0.18476109 -0.19333185 0.07371525
-0.24547572 0.10507958 -0.0052612917 0.13834557 -0.13254468 -0.044097736 0.026990628 -0.06937605
0.18519728 0.12846054 -0.053070404 0.09559987 -0.12204551 0.221968 0.02980476 0.020944595
0.116184145 0.16257292 0.101269975 0.099283405 0.17153199 -0.048639454 0.002972837 -0.09743619
0.117696606 -0.019475836 -0.047189634 0.15750106 -0.1379694 0.10737861 -0.17493825 -0.014655407
0.101242565 0.048729174 0.15600382 0.04551955 0.09477592 0.19838205 0.037507083 -0.13431793
0.016082147 -0.014593177 -0.025441347 0.100503415 -0.1125596 0.0011424371 0.041100767 0.19295536
0.054591026 0.045038443 0.19545685 0.027209703 -0.09650616 -0.12744778 -0.18683293 0.05046678
0.034370635 -0.15134098 0.07538296 0.05667954 -0.068537444 0.05672492 0.035155106 -0.05510233
0.19109353 0.017787663 -0.029273244 0.056799185 -0.077944875 0.09969446 -0.08217769 0.037776064
-0.069927834 0.0066897897 0.030705476 0.15478636 -0.062018573 -0.08991433 0.09433015 0.07649149
0.029598465 0.018648168 0.16247576 -0.15875328 0.013662815 0.088408485 0.07902811 0.2863694
0.10905004 -0.098713025 0.07413024 -0.08695799 0.016169498 -0.08550333 0.015948467 0.10582756
0.0144867385 0.044629738 0.043073315 0.037919044 0.012019738 0.23690581 -0.019920586 -0.05432749
-0.133823 0.011338376 -0.056885835 0.17421351 0.16408615 0.21395111 0.18108813 0.19171071
0.20898098 -0.069826774 -0.00568788 0.12749074 -0.07134792 0.019534132 0.048540957 -0.11090174
-0.085320465 -0.069889665 -0.031910162 0.11400059 -0.040092606 0.10466173 -0.081858866 -0.022559753
0.034984585 0.08718904 -0.07998356 -0.018491682 -0.15935095 0.15004952 0.078991584 0.09206867
-0.12839869 0.006628875 0.037697665 0.17681225 -0.056567073 -0.026701028 -0.06415575 0.13184528
0.15789494 -0.24004301 0.12419899 -0.05546349 -0.0785526 -0.068840705 -0.09576284 -0.053945087
-0.008432501 0.027339896 0.18325007 0.012933073 0.13275674 0.058750145 -0.00048193565 0.06490895
-0.12207643 0.17462304 -0.09767826 0.050167527 0.004999731 0.10014326 0.14213802 -0.11616619
-0.078122854 -0.0008485808 0.16881391 0.12676026 -0.029789357 -0.020048691 -0.1425053 -0.1902828
-0.01581762 0.17139673 0.111519694 0.0717926 -0.05716703 0.13249381 -0.074744925 0.04819905

bias f4 [32]
00000000: 0ffc 95bd aa72 2abc 797d 0a3d a144 27be
00000010: 9a04 7a3d 4ea7 933d 35cf 61bd e871 d3bd
00000020: 6e0d cc3d ccfc 763d 16cd 493d c136 f43d
00000030: fdf5 d23d 9d4c 37be 2e88 6cbd 1c2a 3dbd
00000040: c1f5 52bd 64df 92bd 821e c23c 8e6a 963d
00000050: 6912 583e 9eca 58be d180 8b3d 52df 2f3e
00000060: e5f2 55bd 7ed4 69bc abc3 19bc 1c27 70be
00000070: ec28 af3e 31a9 82bd 1677 ca3d 2fa8 943b
-0.07323467 -0.010403315 0.033811066 -0.16334774 0.061039545 0.07209645 -0.05512925 -0.1032446
0.09963499 0.06029968 0.04926785 0.11924506 0.10300825 -0.1790032 -0.05774706 -0.046182737
-0.0515039 -0.07171515 0.023696188 0.073445424 0.21100773 -0.21171042 0.06811679 0.17175034
-0.052233595 -0.0142718535 -0.00938503 -0.23452419 0.34210908 -0.06379927 0.09885995 0.0045366506

weight_ih f4 [48, 32]
00000000: 4156 65bd 78a1 c1bd f1d8 b8bd 33af 5f3e
00000010: 1ff5 dd3a f9c3 903d 75bd 483e b2f8 b4bd
00000020: 55b3 163e 7dfb 5c3d 9de4 0dbb 8f2a ad3e
00000030: a064 4b3e 552d 113e 9ba6 94bd 7a52 343e
00000040: 3d1a a2bb 6f94 323e cb27 353e 3de8 fabd
00000050: 09c2 5c3e e5ac 3b3e 411b 5dbc 285f 213e
00000060: efb6 e4bd b56d c8bd c7de 2bbe 3cbb 19be
00000070: 965e 24bd a681 24be 8d85 2a3e c062 6dbe
00000080: 17a7 d9bc 2565 423e c4ff 803e db54 c7bd
00000090: f8a9 06be 2c1f 853d 0337 403e 729f e2bd
000000a0: b7bf a8bd d890 1abe 419b c03d 1e6a 91bc
000000b0: 77cf 88be 92e9 52bd 78af 12be a334 a6bc
000000c0: e02a 9cbb 216d 21be b363 9bbb a37b c93d
000000d0: f0e1 30be d71e 443e 2732 2d3a 7f7a 673e
000000e0: b70c 623d e169 383d 6db8 27be 7e73 093e
000000f0: d3ba 5e3d 877c 1a3e db70 d5bd 83dc ddbe
00000100: fa40 903b dd47 73be fdbf f03d 63c3 93be
00000110: 7035 a33e 5483 7b3d 3447 61be f32a 2dbe
00000120: 98bb 0b3d 0f0c 18bd b778 843d 6000 483e
00000130: 51bd 9e3d 7bac b0bc d7f5 983d de77 4bbe
00000140: be1a ba3d 0017 cd3e c64f 253e d509 023e
00000150: 3761 9d3b 5356 3cbe e983 97bd 8d92 303e
00000160: 507b 71bc 9171 0e3e d0e1 eabd b242 203e
00000170: 51a8 023e 802a b23d 4ad3 42bd d7b9 edbd
00000180: 5c0d 0cbe 1c70 233d 0b7d 083e 6a27 703e
00000190: e75d 46be 9dd2 12be e67f 95be 4409 03be
000001a0: 8f8b fa3d 15f1 8bbe 5195 b1bd 80aa 52bd
000001b0: c7ad b5bd 840e 443e 7639 bfbc 6905 a03d
000001c0: 8e58 74bd 3761 24be ce0a 553e 29c7 923e
000001d0: a274 bf3d e309 98be 052e 9c3c 805d 4e3d
000001e0: a4b0 0abe 97e1 65be bf04 0cbb 1fc4 2e3e
000001f0: 12ac 6cbd 2086 943d 811f 753d d719 f23c
00000200: 5bb0 50bd c6c1 aa3d 1559 58bd 19ae 4b3d
00000210: 24a8 1f3e b72a 6e3e 3d38 4b3d 260b 643e
00000220: fd1f 40be 624a e7bd 22c8 7e3e 96bc 9abd
00000230: 6488 3c3d 9efa 92be 6f18 d6be 7e81 443e
00000240: edf0 d9bd 6f28 013e e918 493e 8929 e6bd
00000250: 2f21 0a3e d13a b1bd d6e0 16be 1755 393e
00000260: 2c88 e2bc f6cc 7ebc 1e6e 13be 71bc af3c
00000270: c250 953c 0103 063d 3d3b a23d 17d6 0d3e
00000280: 5a0e dcbc efd3 25be 5043 423d 6693 033e
00000290: 8f19 2d3d 6278 26be 4970 cabb ed7d 8c3d
000002a0: cf55 703e 79ec a3bd 0e58 e63d b181 613e
000002b0: 1fdc 06be bd6c 223d 0952 89be 4af6 69bd
000002c0: a644 a43e e5df 74bd fd5e 7a3e 1c6b 82bd
000002d0: 9305 f5bd 5c53 923d a1b4 71be b23d 92be
000002e0: 6a66 d43d 11a0 2ebb b2fe ac3d e70d 21be
000002f0: 6837 32be 4b76 ad3e 04b8 f7bc 0d07 15bd
00000300: 0164 fd3d 5722 64be 47e2 903e 64b3 1c3e
00000310: 7c31 b1bc d8e8 d33d d226 a6bc 886c 87be
00000320: 9548 97bc 4329 7abd def7 a83d dbf7 f93c
00000330: 210f 9d3d 175a 93be 17ce bdbd 310c 633d
00000340: 6378 d03d 53a0 94bd 596a 59bc 8ce3 3dbd
00000350: 4805 363d 0147 d9bd 356f cc3c 52bf 0c3e
00000360: 7795 3bbe 63ef bb3e 29f5 c03d 1cbe a5bd
00000370: a66b 1d3e 1203 2abe 81eb 823c 7087 debd
00000380: 2136 aebd f947 e7be f0ad 0d3e 7d3c 233e
00000390: c413 e1bc 1166 4bbd ff6b 26be 793e 263e
000003a0: b90c e7bc 417f 4b3e 3af0 e43d eeb7 ccbd
000003b0: f1c4 dcbd b50b e03d 6bde 6d3c c925 43bd
000003c0: ed7b e13d 9e92 fdbd 0291 85bd bd83 22bc
000003d0: fefc e8bc 9c1f 563d ab8c 503c 34e4 92bd
000003e0: 3e32 0abe 4567 9a3b 1cea eabd 34b8 053d
000003f0: 0dd7 673e 5a5d 14be e453 3c3d 98c4 f43d
-0.05599046 -0.09454626 -0.09025753 0.21844177 0.0016934014 0.07068629 0.19603522 -0.08836497
0.14716847 0.053950775 -0.0021651157 0.33821532 0.19862604 0.14177449 -0.0725834 0.17609587
-0.0049469755 0.17439435 0.17690961 -0.12251327 0.21558394 0.18327673 -0.013495267 0.15758955
-0.11167704 -0.0978655 -0.16784202 -0.1501283 -0.040129267 -0.16065082 0.16652508 -0.23182201
-0.026568932 0.18983896 0.25195134 -0.09732982 -0.13150775 0.06500086 0.18770985 -0.11065568
-0.08239692 -0.15094316 0.09404612 -0.017750796 -0.26720783 -0.05149228 -0.14324749 -0.020288771
-0.0047658533 -0.15764286 -0.0047421097 0.09838035 -0.17273688 0.1915239 0.00066068996 0.22605322
0.055187907 0.04502285 -0.16378947 0.13422963 0.05437739 0.15086566 -0.10421916 -0.433323
0.004402277 -0.23757882 0.11755369 -0.28860006 0.31876707 0.06140454 -0.21999818 -0.16910915
0.03411445 -0.037120875 0.06468337 0.19531393 0.07750953 -0.02156662 0.07468765 -0.19869944
0.09087132 0.4005661 0.16143712 0.12699063 0.0048028487 -0.18392305 -0.07398207 0.17243405
-0.014738873 0.1391051 -0.114688516 0.15650442 0.1275952 0.086995125 -0.047564782 -0.11607712
-0.13676971 0.039901838 0.1332895 0.23452535 -0.19371758 -0.14338155 -0.2919914 -0.12796503
0.1223365 -0.27332368 -0.08671058 -0.051432133 -0.08871036 0.19146162 -0.02334283 0.07813532
-0.059654765 -0.1605271 0.20804903 0.28667572 0.09348418 -0.29695043 0.019064913 0.050382137
-0.13543946 -0.22449337 -0.0021365134 0.17067002 -0.057781287 0.07252145 0.059844498 0.029553337
-0.050949436 0.083377406 -0.05281933 0.04972658 0.15591484 0.23258482 0.04961418 0.22269878
-0.18762203 -0.11293484 0.24881032 -0.07555501 0.04602851 -0.2870683 -0.41815516 0.19190022
-0.10641656 0.1261308 0.19638409 -0.11238391 0.13489221 -0.086537965 -0.14734206 0.18098865
-0.027652822 -0.015551796 -0.14397475 0.02145216 0.018226985 0.03271771 0.07921455 0.138512
-0.026862312 -0.16194128 0.047427475 0.12849197 0.042260703 -0.1625686 -0.006177936 0.06859956
0.23470233 -0.08004088 0.11247264 0.2202213 -0.13169907 0.039654482 -0.268204 -0.057119645
0.32083625 -0.059783835 0.24450298 -0.06368086 -0.11963954 0.07144806 -0.2360406 -0.28562695
0.103710964 -0.00266457 0.08447017 -0.1572796 -0.17403948 0.33879313 -0.030239113 -0.036383677
0.1237259 -0.22278725 0.28297636 0.15302807 -0.021630041 0.10347146 -0.020282183 -0.2644999
-0.018467227 -0.061074506 0.08250402 0.030513695 0.07668901 -0.2877967 -0.09267824 0.05543155
0.10179212 -0.07257142 -0.013269984 -0.046359584 0.04443863 -0.10609246 0.024955371 0.13744858
-0.18318735 0.36706075 0.094217606 -0.08092901 0.15373096 -0.16602734 0.015981438 -0.108656764
-0.08506418 -0.45172098 0.13835883 0.15941043 -0.027475245 -0.049657885 -0.16252135 0.16234769
-0.028204309 0.19872762 0.11178632 -0.09996019 -0.10779751 0.10939733 0.014518361 -0.047643457
0.11009965 -0.12381481 -0.06521799 -0.009919104 -0.028440949 0.05227624 0.01272885 -0.071724325
-0.13495728 0.0047120177 -0.11470434 0.032646373 0.22640629 -0.14488736 0.04597844 0.1195156

weight_hh f4 [48, 16]
00000000: b444 f13d 55cd 08bc b48d 9a3c 6451 dc3e
00000010: dd53 db3d c264 1a3e 3ef7 003e 18fb b23d
00000020: 8318 803d d97f 97ba 0a58 08be 1b8b 02bd
00000030: 8a3d 08bd c1a8 14be f314 d13c 4c6e dbbd
00000040: c43b 5ebd 2cb6 39be 7c3c 50be a710 3abe
00000050: 1230 8f3e 728d 613e 1bd3 563e 810b 84bd
00000060: 18c9 2b3c 8899 913e ecec ffbc 0286 d4bc
00000070: bb70 5bbe dfd5 2c3d e778 b13c cb00 df3d
00000080: 7369 843d 7fe8 24bd 1a36 01bd abbf 62bd
00000090: b3e8 0d3e 5cc7 e2bc 7a0b 2e3d 9844 aa3d
000000a0: b251 dcbd 4a59 a93d a818 bcbd 9259 b53c
000000b0: 0816 4d3d df09 e1bd d669 83bd 3dbc 3ebd
000000c0: 7db0 1d3c 5664 85be 9943 bcbd e8c1 cfbc
000000d0: 76d9 093e d5a7 b83d 3937 af3d 25ba 573e
000000e0: 4c6e 26be 39be c7bd ec6e 01bc bfec 963e
000000f0: 201a 32be e8e4 91bd 304f de3a ce71 013e
00000100: 58b3 5fbe b0af 0fbe 616c e13d 2586 773e
00000110: 522a 24be f9e9 3cbd 0ed5 7e3e 7528 a1bc
00000120: e43d 2e3d 8c31 42be 43ca 0abe 67fe dcbd
00000130: 017b fb3d 78e0 42bd ebae 543e c873 573e
00000140: ba81 843d cc58 09bd 9e6e c13c 69f5 83bd
00000150: 3a9a 7e3d 4042 bcbc bb58 4dbe 67b6 023e
00000160: 9ec5 873d abac 26bd 1777 30be 3adb e43d
00000170: 66d5 3dbe 8499 90bd 7bfa 8e3e 61c7 b83e
00000180: 5993 363c f748 033e db6e 90be 0700 3abd
00000190: 8991 913e 30f0 ffbc bf26 103e 6947 73bd
000001a0: e2ad 0ebe 20e3 533d 2058 2a3d c97d a8bd
000001b0: 6fa8 3dbd cf79 5dbe 8064 59be af61 3cbd
000001c0: da5c ccbd 89b7 a03c 421f fdbd 46be 2cbd
000001d0: 2211 21bd 5b6f 8a3d 7f70 4f3d aac4 fe3d
000001e0: 1232 303e 8beb 46bd 61cd 143e 9001 713d
000001f0: 8754 9d3e 55a6 783c 9251 0ebe d44c 49be
00000200: 066d 303e 869e c5bb c474 d13c d925 25be
00000210: 198b bebe 4ef6 6bbd 9d29 b13c 7f16 b73c
00000220: c9b7 303e 3afc 9b3e f278 b5bc b41b 2a3d
00000230: b20b abbd 858b bfbd 35e6 95bc d89e b7bd
00000240: a9c5 92bd ecf2 e23d 6d00 c23d 3abc 283e
00000250: 0684 993d d692 df3d 826c 5cbe 3f52 ac3d
00000260: a829 c8bd 1d96 663d 00b0 3abe 722b 1bbe
00000270: c3e1 d33d 36ce 83be 8e31 573d 449b 623d
00000280: 081d b43e c815 413d 5981 c73c 47f7 56bc
00000290: 0263 623e dccc fd3c 0dba acbc 39d0 e73d
000002a0: cb8a cf3d 801c a5bd 6e7e 0a3e 2c8c 783e
000002b0: 6292 9f3e 6727 013e 60c5 82be 3373 473e
000002c0: dae7 b2bc bfb1 a1bd 3a34 b83d 3f7a 06be
000002d0: d1f9 44be ab05 4bbd 1298 7bbd 6e4a 2c3e
000002e0: 686f 27b8 754a 0abe afaf ce3c 63b5 453e
000002f0: fd52 ee3d 4ec0 62be 8c32 8f3d fe67 d2bd
00000300: b2fd c43d 640d 06be 7960 673d 3620 bcbd
00000310: cdd3 6a3c 051a 82be a012 11be 46a7 ccbd
00000320: aacd 033e 4c75 3c3c 5b1f dc3c 0eec 843e
00000330: cb66 6dbd a3b6 743e 76da b0bd bec4 703d
00000340: 10e8 263e dca6 a8bd 4b80 9d3d 3c17 e13b
00000350: 99ec 9dbe 493e 8f3c 615f 0f3e 5f36 c53d
00000360: 4967 2dbe 423f 11be 2418 903e e790 0cbe
00000370: 7db5 80be f44b 35be b1e8 19be 5624 0abd
00000380: 5bc5 a03c a551 313e e47f 9dbd f997 79bd
00000390: a66e f7bd b883 65be 98db 89bd fdac 09bf
000003a0: 6f73 7fb9 a8f1 063a d814 6d3d caf2 2cbd
000003b0: 1410 a5bd 78e6 afbd fd5e 58be 87d4 94bd
000003c0: 1ee2 243d 7052 e5bd fa09 b83c b07e 1bbd
000003d0: 40e6 4cbd 368e 363e 6421 46be f5f6 06be
000003e0: ee14 d73c 9c5f b0be c428 4dbe ac86 813e
000003f0: 2e51 aabd e204 af3d c4f6 fbbd 7cc0 99be
0.11780682 -0.008349736 0.018866397 0.43030846 0.10709355 0.15077499 0.12594315 0.087392986
0.06254675 -0.0011558487 -0.13314834 -0.031870943 -0.033261813 -0.145175 0.025522685 -0.10714397
-0.054256216 -0.181359 -0.20335573 -0.18170415 0.27966362 0.22026613 0.20978968 -0.06447507
0.010484956 0.28437448 -0.031240903 -0.025942806 -0.21429722 0.04219615 0.021664096 0.10888823
0.06465425 -0.040260788 -0.031545736 -0.05535857 0.13858299 -0.027682953 0.042491414 0.083138645
-0.1075777 0.08268984 -0.0918439 0.022137437 0.05006984 -0.10988211 -0.06416671 -0.046566237
0.009624598 -0.26053113 -0.09192581 -0.025361016 0.13461861 0.090163864 0.08555455 0.21067102
-0.16253012 -0.09753079 -0.007899981 0.29477498 -0.17392778 -0.071237385 0.0016960856 0.1264107
-0.21845758 -0.14031863 0.11007 0.24172266 -0.16031769 -0.04612157 0.24885961 -0.019672612
0.042539492 -0.18964213 -0.13553719 -0.10790711 0.122793205 -0.04757735 0.20769851 0.21040261
0.06470056 -0.03353195 0.023612317 -0.06443293 0.0621588 -0.02298081 -0.20053379 0.12764893
0.06629489 -0.040692013 -0.17232929 0.11174627 -0.18538436 -0.07060531 0.27925476 0.36089614
0.011143529 0.12820803 -0.28209576 -0.045410182 0.28431347 -0.03124246 0.1407728 -0.059394274
-0.13933519 0.051730275 0.04158795 -0.082271166 -0.04630321 -0.21628498 -0.21229744 -0.045991596
-0.099786475 0.019618766 -0.123594776 -0.042173646 -0.03932298 0.067595206 0.050644394 0.124398544
0.172066 -0.048564475 0.14531471 0.05883938 0.30728552 0.015176375 -0.13898304 -0.19658214
0.17229089 -0.0060308604 0.025568374 -0.16127719 -0.37215498 -0.05760794 0.021626288 0.022349594
0.17257608 0.3046587 -0.022152398 0.041530326 -0.0835184 -0.09352783 -0.018298248 -0.08965844
-0.07166607 0.1108149 0.094727375 0.16478053 0.074958846 0.109166786 -0.21525767 0.08414125
-0.0977357 0.056295503 -0.18231201 -0.15153292 0.10345795 -0.25743264 0.052537493 0.055323854
0.351784 0.047139913 0.02435367 -0.013120479 0.22108081 0.030981474 -0.02108481 0.11319012
0.101338945 -0.080620766 0.13524792 0.24272221 0.3116637 0.12612687 -0.2554121 0.19477539
-0.021839071 -0.078952305 0.089943364 -0.1313257 -0.19235922 -0.049565952 -0.061424322 0.16825268
-3.9919658e-05 -0.13504966 0.025230257 0.19307475 0.116369225 -0.22143671 0.06992063 -0.10273741
0.09618701 -0.13091046 0.056488488 -0.09185831 0.014332724 -0.25410476 -0.14167261 -0.099928424
0.12871423 0.011502575 0.02687042 0.25961345 -0.05795936 0.23897795 -0.08635418 0.058781378
0.16299462 -0.08234951 0.076904856 0.006869225 -0.30844572 0.017485755 0.14001228 0.09629511
-0.16933931 -0.14184287 0.28143418 -0.13727151 -0.25138465 -0.17704755 -0.15030171 -0.03372606
0.019625356 0.17316301 -0.07690409 -0.060935948 -0.120816514 -0.22413528 -0.06731337 -0.53779584
-0.00024361697 0.0005147704 0.057881206 -0.04222373 -0.08059707 -0.0858888 -0.21129985 -0.07267099
0.040254705 -0.11197364 0.022465695 -0.037962615 -0.05002427 0.17827687 -0.19348675 -0.13180144
0.026255097 -0.34447944 -0.20035082 0.2529806 -0.08316265 0.08545853 -0.12302926 -0.30029666

bias_ih f4 [48]
00000000: 5b44 fdbe 9507 0c3f be7b 32bf 59b9 85be
00000010: 189e 87bf 4974 0d3f 6509 d23f 2996 dabf
00000020: 08e7 0240 29bb d73f 5e22 7e3f 1336 d6bf
00000030: 1885 81bf dc2e 2dbf 6644 bbbf c416 863f
00000040: 0440 26bf 8f63 18bf dbe1 3e3e f082 7bbe
00000050: a498 933d baa0 173f 1ca5 77bf 8ffe 36bf
00000060: c3ee babe cbad 9abe 9560 4740 9fdf 80bf
00000070: 45fe 13bf d035 c43e 7edb 013f ca68 313e
00000080: 4bc2 2abf 9268 84bf b293 2640 dc75 0abe
00000090: a085 93bf 0be2 e33d d421 d43e ac82 e8bf
000000a0: 240e 66bf ee24 a13d 9ea7 d9be 1ebb 86bc
000000b0: fa00 e4be aba2 a5bf 9b48 e7be 4ac4 a9be
-0.49466214 0.5469907 -0.69720066 -0.26117972 -1.0595121 0.5525556 1.6409117 -1.7077075
2.045351 1.6853992 0.9927119 -1.6735252 -1.0118742 -0.67649627 -1.4630249 1.0475698
-0.6494143 -0.59526914 0.18640845 -0.24561667 0.07206848 0.59229624 -0.9673631 -0.71482176
-0.36510286 -0.3021072 3.11527 -1.0068244 -0.5780986 0.38322306 0.50725543 0.1732513
-0.6670272 -1.0344412 2.6027646 -0.13521522 -1.1525154 0.11127099 0.4143206 -1.8164878
-0.89865327 0.07868372 -0.42510694 -0.016446646 -0.44531995 -1.2940267 -0.4517258 -0.3315757

bias_hh f4 [48]
00000000: 97e0 6c3f 640f e43d 96cc 9a3f cc8a 91bf
00000010: a729 cbbf c4b6 0abe 579d 8b3e 1e50 42be
00000020: e207 1fba 2a9f d23e c957 113f 67ec cf3f
00000030: dbe2 df3f ce61 97bf d3b3 95be c5d5 99be
00000040: 8ec4 343f 7a6b 033e e95d 093f 9dab 9fbe
00000050: 7671 f7bf a21d cabe c925 4d3f f95e 1bbe
00000060: c3a1 6d3e cfd0 2f40 bcef 80bf dc9a dc3d
00000070: f158 473f 2b59 5b3f d510 283d 878c 40be
00000080: 9f45 393f 7847 673f 608e 87bf 2519 fc3e
00000090: baba 2bbd 0381 c43d 2056 b83f a468 03bf
000000a0: 81a4 b23f 24a4 d53e 5635 043e 1e00 263e
000000b0: 012e 1a3f 5112 f2be b87f cfbf e132 5ebe
0.92530197 0.11135748 1.2093685 -1.1370482 -1.5872086 -0.13546282 0.27268478 -0.18975875
-0.0006066543 0.41137058 0.56774575 1.6244019 1.7491106 -1.1826723 -0.29238757 -0.30045906
0.7061242 0.12833968 0.5365892 -0.31185618 -1.93315 -0.39475733 0.8013578 -0.15172948
0.23206238 2.7471197 -1.0073161 0.107717246 0.7787009 0.85682935 0.041031677 -0.18803607
0.7237186 0.9034343 -1.0590324 0.49237934 -0.041926123 0.095949195 1.4401283 -0.51331544
1.3956453 0.41726792 0.12910971 0.16210982 0.60226446 -0.472796 -1.6210852 -0.21699096

weight_ih f4 [48, 32]
00000000: f3f9 353e 3026 c7be 3fcd a83c b58d ab3d
00000010: 4041 a93e 7878 2bbd 9817 22be 7a07 c63d
00000020: b3ea 7d3d 6474 babd 6edc 4bbd 7d74 11be
00000030: b663 29bd a2fa 503d a4e2 acbd 3515 abbc
00000040: 150f 9dbb e896 3abe d95c 773c 1c3f efbd
00000050: ec31 db3d 354a 993d 6ce7 383c be16 ba3c
00000060: c8ea cbbc cf64 af3d d4b4 f4bd 6355 de3d
00000070: fadd aa3e b52f 243e 6ef2 313e dbf5 d73d
00000080: fb0b f3bd b00d 49ba 3627 b73c 03f8 bcbd
00000090: 1010 7e3b 3659 cfbd 2789 2a3c 85c3 e93d
000000a0: 412b 763e bba1 103e 21dc ccbc fe03 a7bd
000000b0: 7d27 8a3d 3b3e 883d 7d33 fbbd 4b36 8abe
000000c0: 9eee 0e3e a22a 0ebe 1bf1 e63d 7b6e 60be
000000d0: c628 14be 5e1b a83b 801b d23d 75a9 20be
000000e0: e12f 5abd 224d ec3d 0515 073e df2e 4abe
000000f0: 08ad 8f3d b28e fc3d fa08 643e 0936 003c
00000100: 4e4c 16bd c88e 79be aa10 0fbe b1f0 b2bd
00000110: 3c28 eabd 3bff 19be 6873 b6bd a71c ea3c
00000120: 9ec3 2cbe c373 6abd 47da 483e a95b 1abd
00000130: fec1 12be 1f6b a13c f43e f7be e9e6 c23c
00000140: 7dcf b33e 0c69 1dbd 2704 283e 2027 49bb
00000150: aa87 4cbe fa0b 0f3c aee6 e23d 3222 133e
00000160: 77c4 94bd 1f5a 8c3d 05a1 af3d 35d2 96bd
00000170: 0938 2dbe ee06 15be c79d 323d b39c 12be
00000180: f398 a2bc 48f5 3c3c 9d2a 01be c700 033e
00000190: 5c26 3a3e 9eaa 553e 432e 15bb 79d9 b13d
000001a0: 227b 923d c99e 8fbe 01dc 2c3e 75ef 58bc
000001b0: 215d 213e 58b2 a93c 87b0 ef3c 5870 2f3c
000001c0: df8c 093e cb01 82bd 07d5 16be c909 c2bd
000001d0: 74d1 1bbe f12c 45be 6d2f 19be dc2d 173d
000001e0: 99a0 8fbd 71d4 0d3e e9db 82bd c34b 7e3e
000001f0: b745 bfbd 5e1f 8bbd 2024 51be 5d54 97be
00000200: 2ad0 07bc e8d0 2ebe f36e cfbd 5483 19be
00000210: a3e5 b0be 5338 953e 3710 2b3d 9ed9 52be
00000220: 96fe 053e ba49 683c 296d 33bd 4592 52be
00000230: f4f0 133d 9df4 383e 5ac2 a1bc 51c9 a93d
00000240: ee57 febc a0eb 9c3e a1f2 773d 3a75 6b3d
00000250: 9c07 abbc 2939 ef3d 99dd 7ebe b599 353e
00000260: 2658 53bd 1423 f4bc 83ba 3f3d 74d7 e73d
00000270: 5c15 353b 4790 fdbc 1244 8c3e 658a d33d
00000280: e7d9 063e da4c b43b 97c2 3fbc 4caa 2bbe
00000290: d3ca 143d 73bc 12be d090 aa3d 83a1 6c3e
000002a0: 4b41 6b3e 1f96 adbd 3623 303e e56b 8e3d
000002b0: 4af0 21be b9c0 1e3d f922 babe 7b9e ea3d
000002c0: 740e 03be 52cf b63d 5ca7 2bbe f2b7 2ebe
000002d0: fe59 653e 3663 103d f259 13bb 6fd5 fcbd
000002e0: 98b3 2b3e 7d03 73bd 6cdd 06be f4f5 d33c
000002f0: 1644 10be 039c 373e 10b1 8d3d 9c87 543c
00000300: 16d0 ed3d 646d 2fbb da16 3b3c ccd3 59bd
00000310: 38ea 84be 6a56 4d3e ba32 bc3d bb0b 9b3e
00000320: 874b 743d 070d 953d 2593 19be 0fe8 4ebe
00000330: ef9b 9ebc 6757 c2bd a747 38bd f066 04be
00000340: e6c8 d53d d7fb 7bbd de71 02be 435f 1e3e
00000350: 9563 90be 5ea0 e93c 62a7 63be 7e35 bebd
00000360: d516 b7bd 4e22 453e 7590 6fbe 6e45 22be
00000370: 5045 4dbe 0710 4c3e 93e5 47bd 3df1 473e
00000380: 93ec 43bd ad72 423e dd49 033d bcac 393d
00000390: f247 c1bd 68f9 dbbd 46b4 26be 000c 89bd
000003a0: a525 67be 0c46 463e 464d 133e f175 5ebe
000003b0: 075d ba3d 46c3 973d 0242 1e3e 904e cebd
000003c0: ea6c 1c3e e766 31be 5c6d cc3d 1423 c4be
000003d0: 80cc 653e 0eef 3b3c b00c b4bc b726 853e
000003e0: 1215 cc3d 2c3d 49bd 18c2 c6bd 4b4f 35bd
000003f0: 699e 2cbe 998f 85bc 919b eebd e6b6 6b3e
0.1777113 -0.38896322 0.020605681 0.08376638 0.33057594 -0.041862935 -0.15829313 0.09669395
0.061991405 -0.09104231 -0.049770765 -0.14204593 -0.041354857 0.051020272 -0.08441666 -0.020884136
-0.0047930577 -0.18221629 0.01509782 -0.11681959 0.10702881 0.07484857 0.011285644 0.022715922
-0.024892226 0.085641496 -0.11948553 0.1085613 0.3337248 0.16033824 0.17377636 0.1054494
-0.118675195 -0.0007669581 0.022357564 -0.09226992 0.0038766898 -0.101244375 0.010408676 0.114142455
0.24039938 0.14124195 -0.02500731 -0.08155058 0.06745813 0.066524945 -0.1226568 -0.26994547
0.13958213 -0.1388345 0.11276456 -0.21917145 -0.14468679 0.0051302155 0.102591515 -0.15689643
-0.053268317 0.115381494 0.13191612 -0.19744442 0.07015425 0.123319045 0.2226905 0.007825383
-0.036693864 -0.24370873 -0.139712 -0.087373145 -0.11433455 -0.15038769 -0.08908731 0.028578116
-0.16871497 -0.057239305 0.19614516 -0.03768507 -0.14331815 0.0197044 -0.48290217 0.023791747
0.35119238 -0.03843026 0.16407834 -0.0030693486 -0.19973627 0.008730883 0.11079155 0.14368513
-0.07264035 0.06853127 0.08575634 -0.073643126 -0.16915907 -0.14553425 0.0436075 -0.14317589
-0.019848322 0.011533089 -0.12613912 0.12793265 0.18178695 0.20865867 -0.002276317 0.08684058
0.07152392 -0.2805083 0.168808 -0.013240685 0.15758182 0.020714924 0.02925898 0.010707937
0.13432644 -0.06347998 -0.14729701 -0.094745226 -0.15216619 -0.19255425 -0.14959498 0.03690897
-0.070130534 0.13850571 -0.06389601 0.24833588 -0.09339469 -0.06793092 -0.20423937 -0.29556552
-0.008289376 -0.17071879 -0.10128584 -0.14991504 -0.345502 0.29144534 0.04176351 -0.20590827
0.13085398 0.014177734 -0.043805275 -0.2056361 0.036118463 0.18062063 -0.019745994 0.08290351
-0.031047788 0.30648518 0.060534123 0.057484843 -0.020877652 0.11680824 -0.2488922 0.17734416
-0.051597737 -0.029801883 0.04680873 0.11320391 0.002763114 -0.030952586 0.27395684 0.10329131
0.1316906 0.0055023255 -0.011704109 -0.16764182 0.03632624 -0.143297 0.08328402 0.23108487
0.22974126 -0.08475899 0.17200932 0.06954173 -0.15814319 0.038758013 -0.36354807 0.11456009
-0.12798482 0.08926262 -0.16763061 -0.17062357 0.2239761 0.035250865 -0.0022484032 -0.12345397
0.16767728 -0.0593295 -0.13170403 0.025874116 -0.14088473 0.17930607 0.069185376 0.012971785
0.11611955 -0.0026768083 0.011419022 -0.0531805 -0.25959945 0.20052496 0.09189363 0.30282387
0.05964234 0.072778754 -0.14997537 -0.20205711 -0.019361464 -0.09489327 -0.044990208 -0.12929893
0.10438709 -0.06151947 -0.1273875 0.15466027 -0.28200975 0.028518852 -0.2223182 -0.092875466
-0.08939902 0.19251367 -0.2339495 -0.15846798 -0.20045972 0.19927989 -0.048802923 0.19525619
-0.047833037 0.18989058 0.032052863 0.045330748 -0.094375506 -0.1074093 -0.16279706 -0.06691742
-0.22572954 0.19362658 0.14384946 -0.21724679 0.09099775 0.07410292 0.15454867 -0.10073578
0.15275922 -0.1732441 0.09981796 -0.38308012 0.22441292 0.011470569 -0.021978706 0.260061
0.09964956 -0.049130604 -0.09704989 -0.044265073 -0.16857304 -0.016303824 -0.11650766 0.23018989

weight_hh f4 [48, 16]
00000000: 57a9 af3d 59d0 083e 4f9b a83d 6f73 a63d
00000010: c614 013d 0a50 9d3e 0802 3d3e e66b fc3c
00000020: 1440 3ebd 8999 963d c99f a23c 0d5d 493e
00000030: 145c 6e3e 0d42 f0bd 6efd 36bd e4b4 f7bd
00000040: ec91 d33c 3475 acbd 88de a0bd 6d6a 74bd
00000050: 11b5 1fbe d572 97bc ada0 2bbe 422b 223d
00000060: 1881 0c3e be74 103e 5968 cfbd 86e4 803e
00000070: 4ade c43d de3c bebd cd66 d33e 1618 f4bb
00000080: 33b2 0e3e 233c f63c 2a0c 233e 8e01 e0bd
00000090: 0b96 17be 0ead 5dbe c9f7 023e ae6a f33d
000000a0: c1e7 d43c 1fa6 8fbc 2348 b63d d4de 343e
000000b0: 7bf9 3f3e dffb 0dbd 6d0d e43d b25d 03bd
000000c0: a778 d53d 314a 3e3d 0b44 14be bf3e c5bc
000000d0: d61c f03c 06ed 05be f4fb 873d c7f9 91be
000000e0: 7db5 4abe 7318 f9bd 4096 0d3e 63dc 953d
000000f0: dde4 803c 9bd2 283d 7596 8ebd 6e1f 5dbe
00000100: 9c38 a5bd aae8 8fbd de4c c4bd 33b8 9dbe
00000110: 9da9 dbbe 16b6 293d 0de4 1b3e dcbc aebd
00000120: 941a 053e ded6 a03e 5396 95bd 0dff c23d
00000130: 2e37 cdbd eb64 25be 82cb 41be 2b93 443c
00000140: a049 1a3e 7196 ddbd d3f0 0a3e ca0e 3a3d
00000150: 2b5f 1b3d bb91 f5bc fd65 32bd 273b b7bd
00000160: 21ad b93d 8a9b b23d 18ce 903d ab23 5dbd
00000170: 1cb3 dbbd 22b2 80be 4624 8f3d 19ff d3bd
00000180: 9baf d1be 3122 05be 1054 c73d de04 9fbd
00000190: 2c6b f63d a11f 01bd 720c 65be 07da 4e3e
000001a0: dd5b fd3d 44c3 c4bd 4bfc 853d 6d13 b43c
000001b0: 3096 7a3e 153d c43d 75f2 0c3e 08ce 19bd
000001c0: a579 61be 9837 83be e4e8 48be 6353 ac3b
000001d0: d050 ab3d 066c 8fbd b886 723e 7be2 ffbd
000001e0: 1885 bd3d 813e a63b 0610 2fbd 3782 a3be
000001f0: 66f4 c73d d8c7 29be 9d0d 1b3e 855a fd3d
00000200: 60b5 10ba a41a 883e 2008 ac3c d035 793d
00000210: ed16 25bc f2b1 93bc 900e 0cbd c149 083e
00000220: 5814 4dbc 6ca0 8fbe 2628 033d 44cc 493c
00000230: 50ec d03c ed4c 6cbe 1e44 09bd febd cfbd
00000240: 99e2 5abc d1b2 8dbd b98c 713e fec0 f63d
00000250: 64cc b7be 43be 0f3e 241f 9dbd d0a5 143d
00000260: f1ad 03be f3f2 15be b4e1 27bb 17c1 1ebe
00000270: 0487 0ebe 0cec 093e a0e1 e2bc 7923 a9bc
00000280: 9b0d 00bd 3d18 b0be d957 1abe dfd1 67bc
00000290: a8d3 77be 863a 1cbd 608e b63d cd2f b13e
000002a0: c572 34be 0453 b63d c23f b6bd 344e c83d
000002b0: 8781 57be da6b 49bc 9c41 37be 0cc8 ec3c
000002c0: 61d0 84be 4114 483e 10df c8bd ccab 12bc
000002d0: c467 29be fa4b 0e3e ab0f 0d3e 4fbb 6dbe
000002e0: 8aea aebd 7f14 e8bd 58bc 813e 281d 363e
000002f0: becd afbd 80c6 3a3e ba25 ab3e 4b1c f13d
00000300: a16c c83a ddaa fdbd 5d08 d93c 0c65 9dbe
00000310: f21b 4cbe 4fc3 69bd 27e8 8bbd d371 a8bd
00000320: 17c2 853e a4aa 753d eabc 6dbd e14f 813b
00000330: cfc3 c8bd aaa7 f63c 7f9f 40be 94ad edbd
00000340: 3432 8b3e 836e 54be 8c1d 5dbd aefc d73d
00000350: bcce 423e db5d 723e d014 cb3d 7040 413e
00000360: 69d9 6abe a5f2 52bd c82b e1bd 2cad 67be
00000370: e65d 2bbe 7355 c0bd b894 b33e 1922 b33d
00000380: 5f87 c73d f5e5 513d dadc 8d3e e2dc b7bd
00000390: 35c8 b33d cf90 61bd d678 aabd bd97 0d3e
000003a0: 64ba 0bbc e067 5bbd 8717 a83d 8de2 723d
000003b0: 07e0 113e 38c8 d4bd bf4d e5bc e056 163e
000003c0: 53a2 523e 084b b13d 7614 913c af89 af3d
000003d0: 6e12 a43c e1ca 113d 3bee 07bd 5e89 7bbc
000003e0: 844c 89bd 74a3 093e df63 61bd 8f61 89bd
000003f0: 0b02 cc3d 14d1 25be 92b0 1a3e 6f30 95be
0.08577221 0.13360728 0.08232748 0.08127486 0.03151395 0.30725127 0.18457806 0.030813169
-0.04644783 0.07353503 0.019851582 0.19664402 0.23277313 -0.11731348 -0.044675283 -0.12095049
0.025826417 -0.08420792 -0.078549445 -0.059671808 -0.15596415 -0.018487373 -0.16760512 0.039592035
0.1372112 0.14107034 -0.101273246 0.2517435 0.09612711 -0.09288953 0.41289368 -0.0074491603
0.13935165 0.030057972 0.15922609 -0.109377965 -0.1480333 -0.21648046 0.12789835 0.11885582
0.025989415 -0.017535267 0.08900478 0.17663127 0.18747513 -0.03466403 0.11135373 -0.032071777
0.10423403 0.046457473 -0.14479081 -0.024077771 0.029310625 -0.13078699 0.06639853 -0.28510877
-0.19795795 -0.121628664 0.13826847 0.07317426 0.01573413 0.041216474 -0.06962291 -0.2159402
-0.08067438 -0.07026799 -0.09584974 -0.30804595 -0.42902842 0.041433416 0.15223713 -0.08532116
0.1299842 0.3141393 -0.07304063 0.09521303 -0.1002029 -0.16151778 -0.18925288 0.011997978
0.15067148 -0.1081971 0.1356843 0.04542426 0.037932556 -0.029976716 -0.043554295 -0.08946829
0.09066225 0.08721073 0.07070559 -0.053989094 -0.10727522 -0.25135905 0.069893405 -0.103513904
-0.4095429 -0.13001324 0.097328305 -0.077646 0.1203216 -0.031524304 -0.22368029 0.20200358
0.12371037 -0.096075565 0.06542262 0.02198192 0.24471354 0.09581963 0.13764365 -0.037550002
-0.2201906 -0.25628352 -0.1962009 0.005258964 0.08365023 -0.07003026 0.23684204 -0.124943696
0.09253901 0.005073369 -0.04273989 -0.31935284 0.09763412 -0.1658014 0.15141912 0.12370781
-0.0005520191 0.26582825 0.020999968 0.060842335 -0.010076267 -0.018029187 -0.034193575 0.13309385
-0.012517057 -0.2805208 0.03202071 0.012316767 0.025503308 -0.2307622 -0.033512227 -0.1014366
-0.013359689 -0.06918872 0.23588838 0.12048529 -0.35898125 0.14037423 -0.07671955 0.036290944
-0.12859322 -0.14643459 -0.0025616707 -0.15503345 -0.13918692 0.13468951 -0.027695477 -0.020646797
-0.031262975 -0.34393492 -0.15072574 -0.014149158 -0.24201834 -0.03814175 0.089138746 0.34606782
-0.17621906 0.08902553 -0.088988796 0.09780541 -0.21045505 -0.01229378 -0.17896122 0.028903984
-0.2594023 0.19538976 -0.09808171 -0.008952092 -0.1654349 0.1389617 0.13775508 -0.23215984
-0.085408285 -0.11332034 0.25339007 0.1778456 -0.08584164 0.18239784 0.3342722 0.117729746
0.0015291163 -0.12386105 0.026493246 -0.30741155 -0.19932535 -0.057071026 -0.06831389 -0.08224835
0.2612464 0.05997719 -0.05804149 0.00394629 -0.098029725 0.030109245 -0.18810843 -0.11605373
0.2718674 -0.20745282 -0.053983256 0.10546242 0.19024175 0.23668616 0.09916079 0.18872237
-0.22934498 -0.051500935 -0.10994679 -0.22624654 -0.16735038 -0.09391298 0.350744 0.08746738
0.09742617 0.051244695 0.2770756 -0.08977677 0.08778421 -0.05506974 -0.08323829 0.13827415
-0.008528326 -0.05356586 0.082076125 0.059298087 0.14245616 -0.10389751 -0.027991174 0.14681578
0.20569734 0.08656889 0.017709952 0.08571183 0.02002832 0.03559387 -0.03318618 -0.015352575
-0.06704047 0.13441259 -0.055026885 -0.06708061 0.09961327 -0.16193038 0.15106419 -0.29138514

bias_ih f4 [48]
00000000: f46d 673f cb6b 413f dd3b 91bf 58d2 9dbc
00000010: 86c2 e3bf 4d78 d7be 2811 f7be 1411 f23e
00000020: 4a9a f03e 8bb3 de3d ae25 c9be fa3e ad3e
00000030: ce1e c1bf fd72 b13f 191b 5abf fca7 bd3c
00000040: 9474 a83e f90c 8f3f c1e9 873f 90c9 0bbf
00000050: 0659 ee3d 03f5 bdbd 67e3 18bf ccd7 e53e
00000060: 1c96 99be c4df fe3e 5864 ac3f 6198 833f
00000070: 4407 7fbf 18af 21bf e90a d2bf d9d7 823c
00000080: 174f c7bf 6edb f6be dee3 04c0 8fb7 e2be
00000090: 5f10 32be 0e27 5fbf 9449 b23e 0a9d 4f3e
000000a0: 6e4f 833e a0a1 42bf 1f33 57be 6c35 973f
000000b0: d7fa b73e 5997 81bf b9b5 8cbf 754b 8c3f
0.9040215 0.75555104 -1.1346394 -0.019265339 -1.7793739 -0.4208397 -0.48255277 0.47278655
0.46992713 0.10874089 -0.3928656 0.3383711 -1.5087526 1.3863217 -0.851976 0.02315139
0.32901442 1.1175834 1.0618211 -0.54604435 0.116380736 -0.09275248 -0.5972199 0.44891202
-0.29997337 0.49780095 1.3468122 1.0280877 -0.9962046 -0.63157797 -1.640958 0.015972065
-1.5571011 -0.48214287 -2.076408 -0.4428067 -0.17389058 -0.8716897 0.3482176 0.2027475
0.25646538 -0.7602787 -0.21015595 1.1813178 0.35933563 -1.0124313 -1.0992957 1.0960528
