housingpipeline/housingpipeline/dgmg/model.pth (torch, 293760 bytes, 42 tensors)

graph_embed.node_gating.0.weight f4 [1, 16]
0	0x3e1f1b39	0.15537728
1	0x409c1414	4.877451
2	0xbfd33150	-1.6499424
3	0x4082fda0	4.09346
4	0xbfe95bc1	-1.8231126
5	0x409ce574	4.9030094
6	0xbfaffde0	-1.3749352
7	0xc05afdd6	-3.421743
8	0xc08e5506	-4.447879
9	0xc0a3cca1	-5.118729
10	0x4091107f	4.5332637
11	0x405f8a16	3.492803
12	0x3fa32499	1.2745544
13	0xbff9a015	-1.9501978
14	0x3fcf899e	1.6213872
15	0x3f801d70	1.0008984

graph_embed.node_to_graph.weight f4 [32, 16]
0	0xc0079219	-2.118292
1	0xbf8162b2	-1.0108244
2	0x3fd63c3c	1.6737132
3	0x401fb022	2.4951253
4	0x3fb0a4f7	1.3800343
5	0x3fc4bd36	1.5370243
6	0x4012b37e	2.2922053
7	0x3fed7a18	1.8552885
8	0xbfb9386b	-1.4470342
9	0xbfc12df0	-1.5092144
10	0x404f96bb	3.2435749
11	0xbff961ce	-1.9482973
12	0xbfe09baf	-1.7547511
13	0x3fb1b753	1.3884071
14	0xc02d565e	-2.7083964
15	0xbfcdb313	-1.6070274
16	0x3f00cacd	0.5030945
17	0xbe9fe81e	-0.3123178
18	0xbf616a24	-0.8805258
19	0x3ecb7383	0.39736566
20	0x3f10bda8	0.5653939
21	0x3e5d9a72	0.21640947
22	0xbea39a14	-0.3195349
23	0x3f3795b6	0.71712816
24	0x3ec13801	0.3773804
25	0x3f61d3c5	0.8821376
26	0xbf0657db	-0.52477807
27	0x3ea29ddf	0.3176107
28	0x3eb83110	0.35974932
29	0x3f892662	1.0714839
30	0x3dfda5d2	0.12385143
31	0xbc8f097a	-0.017460573
32	0x3f0ceb00	0.5504608
33	0x3fdd3c26	1.7283981
34	0x3c377628	0.011197604
35	0x3f7a1ffe	0.97705066
36	0xbf8e0483	-1.1095127
37	0x3ee9003f	0.45508
38	0x3e904d65	0.28184047
39	0xbf82f5a4	-1.0231214
40	0x3cddc60a	0.027071971
41	0xbfcccefc	-1.6000667
42	0x3d311739	0.043235037
43	0x3f60899d	0.8770998
44	0xbf1dd970	-0.6165991
45	0xbf92413e	-1.142616
46	0x3ffec7e6	1.9904754
47	0xbe04f951	-0.12985732
48	0x3f3ad1e1	0.729765
49	0x3f6a3c7c	0.9149854
50	0xbfb7d037	-1.4360417
51	0xbf59925e	-0.84988964
52	0xbf1fd583	-0.6243517
53	0xbedb0694	-0.42778456
54	0xbf99657b	-1.1984094
55	0xc018f391	-2.389866
56	0x3fdef24c	1.7417693
57	0x3e604ddf	0.21904705
58	0xbe6f60c9	-0.23376764
59	0x3f288333	0.65825194
60	0x3fcb2f53	1.5873817
61	0xbfcfa696	-1.6222713
62	0x3f2725dd	0.6529215
63	0x3f4fd259	0.8118034
64	0xbfbe5144	-1.486855
65	0xbf966692	-1.1750052
66	0x400bffd6	2.18749
67	0x3f1c2679	0.60996205
68	0x3f9e3b06	1.2361763
69	0xbf945b53	-1.159037
70	0x3fe3c08c	1.7793136
71	0x402d8eef	2.711849
72	0xc0037cdc	-2.0544958
73	0xbf3ae508	-0.73005724
74	0x3f9a295a	1.204387
75	0xc0088da8	-2.133646
76	0xc0009517	-2.0090997
77	0x3f53129c	0.8245027
78	0xbfb36235	-1.4014345
79	0xbff42e5c	-1.9076648
80	0x3e63d77c	0.2225017
81	0xbf0aa2ca	-0.54154646
82	0x3f9d4f59	1.228984
83	0x3fec6b1b	1.8470186
84	0x3f14d124	0.58131623
85	0xbfc7a3c2	-1.559685
86	0x3fc727b1	1.5558988
87	0x401a6784	2.412568
88	0xbe76a039	-0.24084558
89	0x3e82af40	0.2552433
90	0xbf2fff18	-0.6874862
91	0xbfc0224c	-1.5010467
92	0xbfce4dfc	-1.6117549
93	0x3e6dac62	0.2321029
94	0xbea37b6b	-0.31930098
95	0x3eeb502c	0.45959604
96	0xc03dbc61	-2.9646227
97	0xc014afb0	-2.323223
98	0x3f85c885	1.0451819
99	0xbf3c4fab	-0.73559064
100	0x40258b33	2.586621
101	0x3f34eb03	0.706711
102	0x40092616	2.1429496
103	0x3f9863ee	1.1905496
104	0xbffae276	-1.960036
105	0x3e5b9d14	0.2144664
106	0x3fa1566a	1.2604496
107	0xbf1f18fe	-0.6214751
108	0xbfa0701e	-1.2534215
109	0x401d2300	2.4552612
110	0xc03a1a13	-2.9078414
111	0xc02b8fbe	-2.6806483
112	0xbf85f579	-1.0465537
113	0x3f8d6f4f	1.1049594
114	0x3fbcf987	1.476365
115	0x404fc685	3.2464917
116	0x3f3a8fff	0.7287597
117	0x400d5779	2.208464
118	0x400a0c70	2.1570091
119	0x3f9633a3	1.1734508
120	0xc01d6afd	-2.459655
121	0xc05dfeb6	-3.4686713
122	0x40073a7c	2.1129446
123	0xbf1ae176	-0.60500276
124	0xbfbbc006	-1.4667976
125	0x3f1bc467	0.6084656
126	0xbfa00359	-1.2501022
127	0xbf2883ac	-0.65825915
128	0x3ddfbc09	0.10924537
129	0xbf0def15	-0.55442935
130	0xbefc48c4	-0.49274266
131	0xc03a2a8b	-2.9088466
132	0x3d645b32	0.055751033
133	0xbf48b8a8	-0.78406763
134	0xbf828338	-1.0196295
135	0xbfd0128c	-1.625566
136	0x3fa90195	1.3203608
137	0x3fbc3512	1.4703696
138	0xbe87fc07	-0.2655947
139	0x3e46d3fa	0.194168
140	0x3f90f10b	1.132356
141	0x3f065300	0.524704
142	0x3e87e463	0.26541433
143	0x3e92a357	0.28640243
144	0x3fe2757f	1.7692107
145	0x3f857a63	1.0427974
146	0xbfd5ced9	-1.670375
147	0xbfb27b49	-1.3943874
148	0xbf9a179f	-1.2038459
149	0xbf56ead6	-0.8395208
150	0xbffc4efd	-1.9711605
151	0xbf38df1e	-0.7221545
152	0x400d6c03	2.2097175
153	0x400aed97	2.1707513
154	0xc0353def	-2.8319051
155	0x3fa70bb2	1.3050444
156	0x3fa75e80	1.3075714
157	0xbeeab275	-0.45839277
158	0x3fc52a01	1.5403444
159	0x3f8d3e1b	1.1034578
160	0x400dde83	2.216706
161	0x400d7609	2.2103293
162	0xbf9d4093	-1.2285331
163	0xc00210dd	-2.0322793
164	0xc01ea7dc	-2.4789953
165	0xbfa9e919	-1.3274261
166	0xc00859cc	-2.1304808
167	0xbf91a676	-1.1378925
168	0x4017a480	2.3694153
169	0x3ef28ce1	0.47373107
170	0xc02c4a9e	-2.6920543
171	0x3fd94e69	1.6977054
172	0x3fe52101	1.7900697
173	0xbff7d7fd	-1.9362789
174	0x4011197b	2.2671802
175	0x3ff3d857	1.9050397
176	0x3f3ad1c9	0.72976357
177	0xbdb17378	-0.08664602
178	0xc00ed94d	-2.232013
179	0xc0423b22	-3.0348592
180	0xbee94089	-0.4555705
181	0xbe47b79b	-0.19503634
182	0xc016e674	-2.3578157
183	0xc005ca12	-2.0904584
184	0x3fc47344	1.5347676
185	0x401eef70	2.483364
186	0xbfa07b49	-1.2537624
187	0x402cf88c	2.70267
188	0x4009fec7	2.1561754
189	0xbe67de52	-0.22643402
190	0x3fbf5608	1.494813
191	0x3f861efc	1.0478206
192	0xc0335311	-2.801945
193	0xc02f4fa4	-2.7392359
194	0x400867ac	2.1313276
195	0x3ea4d567	0.32194063
196	0x403b2c1b	2.924567
197	0x3fd78330	1.683691
198	0x401ae248	2.420061
199	0x3fcd086d	1.6018196
200	0xc03d2707	-2.955507
201	0xbe3ebfb1	-0.18627812
202	0x40135505	2.3020642
203	0xbfcbfb26	-1.593602
204	0xc011af98	-2.2763424
205	0x404a9cb9	3.1658156
206	0xc034411b	-2.8164737
207	0xc04ec5da	-3.230826
208	0x3f8a7f34	1.0820069
209	0xbf4e05bb	-0.80477494
210	0xc006fb56	-2.1090903
211	0xc04e1f9e	-3.2206798
212	0xbebb6d77	-0.36606953
213	0xbf324723	-0.69639796
214	0xbfe0de25	-1.7567793
215	0xbf7ddb18	-0.99162436
216	0x4012557c	2.2864676
217	0x40081b1a	2.1266541
218	0xbfe016bb	-1.7506937
219	0x3f92ca9d	1.1468083
220	0x3fde5d13	1.7372154
221	0xbe666367	-0.22498856
222	0x3f397b0a	0.7245337
223	0x3fa4ee49	1.2885219
224	0x3de40b0f	0.11134922
225	0x3f20d2f7	0.62821907
226	0xbfa4ee75	-1.2885271
227	0x3c08f139	0.008358293
228	0xbf001456	-0.5003103
229	0x3ed3888c	0.41315114
230	0xbfd0253b	-1.6261362
231	0xc01c05dd	-2.4378579
232	0x3f8f044c	1.1173186
233	0x3e8cb3b9	0.27480868
234	0x3b84006f	0.004028372
235	0x3f681f0d	0.9067238
236	0x3fb5f271	1.4214612
237	0xbf410c79	-0.75409657
238	0x3d822982	0.06355573
239	0x3fa248ed	1.2678505
240	0x3f39e300	0.72612
241	0xbf1d7ed4	-0.6152165
242	0x3f71ecbc	0.94501853
243	0x3f5c86a8	0.8614297
244	0x3ee9d3f6	0.45669526
245	0xbf89b484	-1.0758214
246	0x3f0ec918	0.55775595
247	0x3fe0c790	1.7560902
248	0x3f15d322	0.5852529
249	0x3faaa1c2	1.3330615
250	0xbf44b1b3	-0.7683365
251	0xbfe8149e	-1.8131292
252	0xbf3d83a7	-0.7402901
253	0xbe6961b1	-0.22791173
254	0xbf2083b6	-0.62700975
255	0x3fc3bc5b	1.5291857

graph_embed.node_to_graph.bias f4 [32]
0	0x401c9f3f	2.4472196
1	0x3e84f0c0	0.25964928
2	0x3ed29918	0.41132426
3	0xbed5fa3f	-0.41792485
4	0x40056c5c	2.0847387
5	0x3feb933d	1.8404309
6	0xbf8861f9	-1.0654899
7	0xc01580e2	-2.3359914
8	0xc00fac64	-2.244897
9	0xbf49df4d	-0.78856355
10	0xbfa18dea	-1.2621434
11	0x3f31a1cd	0.69387513
12	0xbf8d6717	-1.1047086
13	0xbe1108da	-0.14163533
14	0xbfb2910b	-1.3950514
15	0x400abd28	2.1677952
16	0xc027dc5d	-2.622825
17	0xbe4d6626	-0.20058498
18	0xbf3b91b0	-0.73269176
19	0x40560b43	3.3444374
20	0xbedbc49c	-0.4292344
21	0xbfeec5b6	-1.8654087
22	0xc02360d8	-2.5527859
23	0x3e97976a	0.29607707
24	0x3eb99df7	0.3625333
25	0x3f151aa6	0.5824379
26	0xbfa9a626	-1.325383
27	0x3f974f19	1.1821014
28	0x3f50cd39	0.81563145
29	0x3fc65527	1.5494736
30	0x3ecb1602	0.39665228
31	0x3f9f9746	1.246804

graph_prop.message_funcs.0.weight f4 [32, 34]
0	0xbf04e786	-0.51915777
1	0x3f872a91	1.0559865
2	0x3f8d3476	1.1031635
3	0x3fbe8588	1.48845
4	0xbf042c00	-0.5162964
5	0xbe874d45	-0.2642614
6	0xbf153101	-0.582779
7	0x3f9f3de7	1.2440766
8	0xbd596fbe	-0.05308508
9	0xbf772711	-0.96543986
10	0x3e7686c3	0.24074845
11	0xbee23f9d	-0.44189158
12	0x3f027e8c	0.50974345
13	0x3f43baf6	0.76457155
14	0x3fb0f067	1.3823365
15	0x3e2b321d	0.16718335
16	0x3dfe1d92	0.12407984
17	0x3f7299fb	0.94766206
18	0x3f55ce20	0.83517647
19	0xbf6b2095	-0.9184659
20	0xbf4c680f	-0.7984628
21	0x3f07bab3	0.53019255
22	0x3d1e7a73	0.038690995
23	0xbfa2b02a	-1.2710011
24	0x3e2cbf43	0.16869836
25	0xbf7a476a	-0.9776522
26	0x3fb24d0b	1.3929762
27	0x3f462f05	0.77415496
28	0x3f4b95c6	0.7952541
29	0xbf0ae230	-0.54251385
30	0x3f935309	1.1509715
31	0xbf72b1dc	-0.9480264
32	0x400d503f	2.2080228
33	0x3ed02fce	0.40661472
34	0xbe128d0e	-0.1431162
35	0x3c861a7e	0.016370054
36	0xbe653664	-0.2238403
37	0x3f76204e	0.96143043
38	0xbef85c5b	-0.48507962
39	0x3d47c258	0.048769325
40	0x3f931d2c	1.1493278
41	0x3ed1a4f6	0.40946168
42	0xbf80631a	-1.0030243
43	0x3f6a6351	0.91557795
44	0xbef9ae1a	-0.4876564
45	0xbf28d80a	-0.6595465
46	0xbf8adbe4	-1.0848355
47	0x3fcd9e87	1.6064004
48	0xbfe11466	-1.758435
49	0x3ebaff5c	0.3652295
50	0x405ff82d	3.4995224
51	0x3f5d8882	0.8653642
52	0x3eac2c29	0.33627442
53	0x40224bac	2.5358686
54	0xbf587391	-0.8455134
55	0xbfede142	-1.8584368
56	0xbd909e15	-0.07061402
57	0xbdba447f	-0.09095096
58	0xbf06c14f	-0.52638716
59	0xbebc5081	-0.3678017
60	0x3e47aba1	0.19499065
61	0x3f411803	0.75427264
62	0xbfb15eb0	-1.3857021
63	0xbf1523ed	-0.58257943
64	0xbf4e3335	-0.80546886
65	0xbee7b0a0	-0.45251942
66	0xbfa19dcd	-1.2626282
67	0xbf000fac	-0.50023913
68	0xbd827456	-0.063698456
69	0x3ff4ae8d	1.9115769
70	0xc016cbfa	-2.3561997
71	0x3f61cde1	0.8820477
72	0xc037116c	-2.8604383
73	0x3faca343	1.3487324
74	0xbec9ca65	-0.39412227
75	0xbf8dc511	-1.1075765
76	0xbfff8c3c	-1.9964671
77	0xc0068dc9	-2.1024039
78	0x3f8e829a	1.1133606
79	0x402d8a49	2.7115653
80	0xbee2021b	-0.4414223
81	0xbf653cec	-0.89546084
82	0xbf433487	-0.76252025
83	0x3f7d4e37	0.9894747
84	0x3f1c32e0	0.6101513
85	0x401a9e68	2.4159184
86	0x3ec36fcb	0.3817123
87	0x4004b076	2.0732703
88	0xbff98eeb	-1.949674
89	0x3fb7c80f	1.4357928
90	0x3f63232a	0.8872553
91	0xbf56d078	-0.8391185
92	0x3e79134b	0.24323766
93	0xc05d3b73	-3.4567535
94	0x40050c88	2.0788898
95	0x4010591f	2.2554395
96	0xbf3e9a85	-0.7445453
97	0xbfa1b389	-1.2632915
98	0x3f91c79c	1.1389041
99	0x3e90e1f2	0.28297383
100	0x3f41276b	0.7545077
101	0xc01626bb	-2.346114
102	0x3f8ef850	1.1169529
103	0xbfb0e674	-1.3820329
104	0x3fca65f8	1.5812368
105	0xbfc4350b	-1.5328687
106	0x401dba64	2.4645014
107	0xbed6ce68	-0.4195435
108	0x3f98a1c5	1.1924368
109	0xbf088d26	-0.53340375
110	0x40155243	2.3331459
111	0x40340f58	2.8134365
112	0xbfb23f36	-1.392554
113	0xbf8b9eb1	-1.0907804
114	0x3ec250e5	0.37952343
115	0x3f7dc32b	0.9912593
116	0x3e9f21d4	0.31080496
117	0xbf07fb6c	-0.53118014
118	0xbfddccc2	-1.7328112
119	0xc043b7cc	-3.058093
120	0xbed25b1b	-0.41085133
121	0xbfeed13c	-1.8657603
122	0x40085ff5	2.1308568
123	0xbf1ed016	-0.62036264
124	0xbf5a09d5	-0.8517125
125	0x3f7db832	0.99109185
126	0xbe9011b6	-0.28138512
127	0x404cd22e	3.2003284
128	0xc00d3cef	-2.206844
129	0xc02d85b0	-2.7112846
130	0xbd9ff513	-0.07810416
131	0x3fdd20e6	1.7275665
132	0xc0160a3f	-2.3443754
133	0xbf00f456	-0.5037283
134	0xbdfb97c2	-0.12284805
135	0x3f24f37a	0.64434016
136	0x3f9aeb19	1.2102996
137	0x3eb0edfc	0.34556568
138	0x3e87ee93	0.26549205
139	0x3fc42921	1.5325052
140	0xbe5d3fd4	-0.2160638
141	0xbd9ff704	-0.07810786
142	0xbee1a144	-0.44068348
143	0xbec14a16	-0.37751836
144	0x3f00257e	0.5005721
145	0xbf488e05	-0.78341705
146	0xbe11516d	-0.14191218
147	0x3f96d945	1.1785055
148	0x3f51293c	0.81703544
149	0xbd093af4	-0.033503488
150	0x3f8b3bd0	1.0877628
151	0x3f088cea	0.5334002
152	0x3f1ce01e	0.61279476
153	0xbe6b2f17	-0.22967182
154	0x3ddbb667	0.1072815
155	0xbf72e5dd	-0.94881994
156	0x3c88a1c6	0.016678702
157	0x3b333aa7	0.0027348192
158	0xbfbe9317	-1.4888638
159	0xbd95c1d1	-0.07312358
160	0xbf8f9f17	-1.1220425
161	0x3eba3136	0.3636567
162	0xbed8dc86	-0.42355746
163	0xbe867bf9	-0.2626646
164	0x3f376d1a	0.7165085
165	0x3f2bc280	0.6709366
166	0x3da6e89d	0.08149836
167	0xbf9ba9fa	-1.2161248
168	0x3fb06e0a	1.3783581
169	0xbf592749	-0.8482557
170	0xbfcc871c	-1.5978732
171	0xbe9d0143	-0.30665025
172	0x3ff28131	1.8945676
173	0xbf803a3b	-1.001777
174	0x3ffdb542	1.982094
175	0x3f97937f	1.1841887
176	0x3fc26ebd	1.5190045
177	0xbf15abc4	-0.5846522
178	0x3fef39a4	1.8689466
179	0x3fb8f917	1.4451016
180	0x3ea4945a	0.32144433
181	0xbedd9a6c	-0.43281877
182	0x3d5749d3	0.05256064
183	0xbf238926	-0.63881147
184	0xbeb23526	-0.34806174
185	0xc002ed25	-2.0457242
186	0xc03b1a68	-2.9234867
187	0xbf5507d8	-0.83215094
188	0xbee6b349	-0.4505866
189	0xbf7a17f1	-0.9769278
190	0x3f8351c7	1.0259331
191	0x3fca076a	1.5783513
192	0x3fb47024	1.4096723
193	0xbee44bf4	-0.44589198
194	0x3fab215c	1.3369555
195	0x3e85fe1c	0.26170433
196	0xbe95b034	-0.29235995
197	0xbf7f198d	-0.9964836
198	0xbf43d527	-0.7649712
199	0x3e11a488	0.1422292
200	0xbf87828e	-1.0586717
201	0x40226964	2.5376825
202	0xbfaf16bf	-1.3678817
203	0x3f2152a2	0.6301671
204	0x3e024998	0.12723386
205	0x3e8567c0	0.26055717
206	0xbfb5c6d1	-1.4201299
207	0xbb9e3863	-0.004828499
208	0xbe870025	-0.26367298
209	0x3fdf5770	1.7448559
210	0x3ee2f5b3	0.4432808
211	0xbed820a8	-0.42212415
212	0xbf6771da	-0.904081
213	0xbfb01c48	-1.3758631
214	0x40017a9d	2.0231087
215	0x3f9def4e	1.2338655
216	0xbf1737c1	-0.5906945
217	0xbf606e0e	-0.8766793
218	0xbf3187f1	-0.69348055
219	0xbed8570b	-0.4225391
220	0x3dd7f45f	0.10544657
221	0x3f2fc1e5	0.68655235
222	0xbf137e9c	-0.57615066
223	0x3f8c7053	1.0971779
224	0x3e2369fa	0.15958396
225	0x3fbeb661	1.4899408
226	0x3f1ef64f	0.6209459
227	0xc045aff0	-3.0888634
228	0x3fb2f007	1.39795
229	0xbfa643d6	-1.2989452
230	0x3fdef2bc	1.7417827
231	0x3f91b1cc	1.1382384
232	0x3ef6eb3c	0.48226345
233	0x3fb4b878	1.4118795
234	0x3e6821af	0.226691
235	0x3f8a63c7	1.08117
236	0xbf0b6774	-0.5445473
237	0xbdad2498	-0.08454245
238	0x400a0a5c	2.1568823
239	0x3f517172	0.8181373
240	0xc0338c4c	-2.805438
241	0x3ffd8ac1	1.9807969
242	0xc017d075	-2.3720982
243	0xbe858f54	-0.26085913
244	0xbf6f70e3	-0.93531626
245	0xbfd97bd9	-1.699092
246	0xbfdf519a	-1.7446778
247	0xbfa16c8f	-1.2611254
248	0xbdf3b96b	-0.119006
249	0x4021b598	2.5267086
250	0xbea094df	-0.3136358
251	0x3ebffb30	0.37496328
252	0xbe809af2	-0.25118214
253	0x3fb4a06d	1.4111458
254	0x4075a0ed	3.8379471
255	0x3f929b65	1.1453673

graph_prop.message_funcs.0.bias f4 [32]
0	0xc0233901	-2.5503542
1	0x3f02d47e	0.5110549
2	0xc08d4b8c	-4.415472
3	0x40987958	4.7648125
4	0xc00595a8	-2.0872593
5	0x4080e971	4.0284963
6	0x3f478ce9	0.77949387
7	0xc075de39	-3.8416884
8	0x404432f2	3.0656095
9	0x40325b09	2.7868063
10	0xc044ee77	-3.0770547
11	0xbf115533	-0.5677063
12	0x40838ddf	4.1110682
13	0x40407560	3.007164
14	0x409000d5	4.5001016
15	0x3fdb4ad5	1.7132212
16	0x4068b9ea	3.6363473
17	0xc0210b31	-2.516308
18	0xc08e9d1a	-4.4566774
19	0xbf89cf26	-1.0766342
20	0xbe887cc6	-0.26657695
21	0x4072979e	3.790504
22	0x400f6c20	2.2409744
23	0xbfdf1d46	-1.7430809
24	0xbfa98d8c	-1.3246322
25	0xbf82fbf3	-1.0233139
26	0x3e72b5c4	0.2370215
27	0x3e8ded56	0.27720135
28	0x40370bc9	2.8600943
29	0xc00db6c2	-2.2142797
30	0xbfe5bef4	-1.7948899
31	0xbf5fa7d8	-0.87365484

graph_prop.message_funcs.1.weight f4 [32, 34]
0	0xc0432f11	-3.0497477
1	0x403dda2a	2.9664407
2	0x405a26e1	3.408623
3	0xc04a5034	-3.1611452
4	0xc0044442	-2.0666661
5	0x401e1030	2.469738
6	0x400fc436	2.2463508
7	0xc0372610	-2.8616982
8	0x3f0d990b	0.5531165
9	0x404c7c99	3.1951048
10	0x40171e61	2.3612292
11	0x404d1c55	3.2048542
12	0x3eccafdb	0.39977917
13	0xc00cd00a	-2.2001977
14	0x3e69c47b	0.22828858
15	0x402ea812	2.7290082
16	0xc027ba53	-2.6207473
17	0x4020f470	2.5149193
18	0x4066e60a	3.6077905
19	0xbe37b49d	-0.17939992
20	0xbfb853be	-1.4400556
21	0x40655ebd	3.5839074
22	0x407f5821	3.989754
23	0xc04886d0	-3.1332283
24	0x3e83282f	0.25616595
25	0x404a2d4e	3.1590152
26	0x40045dde	2.0682292
27	0x40633a00	3.550415
28	0x3f81efcf	1.0151309
29	0xc0281d64	-2.6267939
30	0xbf3b1609	-0.730805
31	0x40054cdf	2.0828168
32	0x3fe06ab7	1.7532567
33	0xc04cac6b	-3.1980236
34	0xbfc2baa9	-1.5213214
35	0xc00f075f	-2.234825
36	0xbf817ed8	-1.0116835
37	0xbffe40e6	-1.9863555
38	0xbfe269d9	-1.7688552
39	0xbc7454a5	-0.014912759
40	0x4093de29	4.620869
41	0x3f3077a5	0.68932563
42	0x400d2b6b	2.205775
43	0xbd8d8582	-0.0691023
44	0xbf4fe55b	-0.81209344
45	0xbf95d054	-1.1704202
46	0xbffc4070	-1.9707165
47	0x3df77b81	0.120841034
48	0xc078e33a	-3.8888688
49	0x401d1a54	2.454732
50	0xc01c26de	-2.4398723
51	0xc01b99d3	-2.4312637
52	0xc0340f46	-2.8134322
53	0xc0583e58	-3.3788052
54	0x3f89b8f7	1.0759572
55	0xbfe25212	-1.7681296
56	0x40322f24	2.7841272
57	0x405f1bd7	3.4860742
58	0xbfd070a8	-1.628438
59	0xc0195a26	-2.3961272
60	0x3f83c13f	1.0293349
61	0xc04ff7f6	-3.2495093
62	0xbf81b8f7	-1.0134572
63	0xbf499866	-0.78748167
64	0xc0708e28	-3.7586765
65	0x3e9b2d07	0.3030779
66	0x3f0e2cd1	0.55537134
67	0x3fac3db5	1.3456331
68	0xbf5652e6	-0.8372024
69	0xc0365932	-2.849194
70	0xc030157b	-2.751311
71	0xbdeb6941	-0.11494685
72	0x3ea3b46e	0.31973594
73	0xbfc3d9c6	-1.5300834
74	0xbd3277e5	-0.04357137
75	0x400f42be	2.2384486
76	0xbfd3a698	-1.6535215
77	0xc017b009	-2.3701193
78	0xc04daa6b	-3.2135265
79	0xc02afcf1	-2.6716883
80	0xbf6f9073	-0.93579787
81	0x407c4ead	3.942302
82	0xbc6b6be9	-0.0143689895
83	0xc00b84bd	-2.1799767
84	0x3e9d57c6	0.30731028
85	0xc018c896	-2.3872428
86	0xc0216efc	-2.522399
87	0xbfed43c7	-1.8536309
88	0xbe13bad9	-0.14426745
89	0xc077f868	-3.8745365
90	0xc01e9301	-2.4777224
91	0x4054d515	3.3255055
92	0xbf84da62	-1.0379145
93	0xbff51560	-1.9147148
94	0xbf001dbc	-0.5004537
95	0xc0316fe6	-2.7724547
96	0xbf78e889	-0.9722982
97	0x3fa49ca3	1.2860302
98	0xbf5f5bbf	-0.8724937
99	0x3d9f1b2f	0.07768857
100	0xbe0a26ed	-0.13491412
101	0x40130fb8	2.2978344
102	0xc03edd8b	-2.982272
103	0x3dafcceb	0.08584007
104	0xbc3c9a54	-0.011511404
105	0xbfc8de24	-1.5692792
106	0x3ea7858f	0.32719085
107	0xbee682dc	-0.45021713
108	0x3ff634c5	1.9234854
109	0x3e82690b	0.25470766
110	0x3d848cd7	0.064721756
111	0xbec6f1c4	-0.38856328
112	0xbf3f9b31	-0.7484618
113	0xbf50de72	-0.81589425
114	0xc02abf78	-2.6679363
115	0xbfab07d6	-1.3361766
116	0xbfae5a7c	-1.3621364
117	0x3ff827bc	1.9387126
118	0xc000a5ae	-2.0101123
119	0xbf442f22	-0.7663442
120	0xbf0b88a0	-0.5450535
121	0xbf75137b	-0.9573285
122	0x3f1512f2	0.58232033
123	0x3ee64832	0.44976956
124	0x400a950f	2.1653478
125	0x3f3fcd22	0.7492238
126	0xbe504a38	-0.20340812
127	0xbf203c98	-0.6259246
128	0x3e822f7a	0.25426847
129	0xbf83bbcc	-1.0291686
130	0xbefb9425	-0.49136463
131	0xbf95b871	-1.1696912
132	0xbf8c5493	-1.096331
133	0xbe519c93	-0.20469885
134	0x3faa2021	1.3291055
135	0x3fa6ce1a	1.3031647
136	0xbec14a71	-0.37752107
137	0xbbcefc42	-0.0063166926
138	0xbf55303e	-0.83276737
139	0x3ed62d34	0.41831362
140	0x3f9b3bef	1.2127665
141	0xbfd966a0	-1.6984444
142	0xbe99964b	-0.29997477
143	0x3e14fff5	0.14550765
144	0xbf6385af	-0.8887586
145	0xbf83fa3d	-1.0310742
146	0xbecf2e68	-0.40465093
147	0xbffdfbb9	-1.9842445
148	0xbfda4c86	-1.7054603
149	0xbf4ea6f5	-0.80723506
150	0x3d77157f	0.060323235
151	0xbfb515fc	-1.4147334
152	0x3fa3da91	1.2801076
153	0xbf34f4dd	-0.7068613
154	0xbf4344a9	-0.7627664
155	0x3db0dccc	0.08635864
156	0xbeacc8b3	-0.3374687
157	0xbe027f8d	-0.1274397
158	0xbf501ad6	-0.8129095
159	0xbe0e1db3	-0.13878517
160	0xbe2f11f4	-0.17096692
161	0xbf16a752	-0.5884906
162	0x3d92f246	0.07175116
163	0xbe5cc78b	-0.21560495
164	0xbfae278c	-1.3605819
165	0x3f578b38	0.84196806
166	0xbf27756d	-0.6541355
167	0xbd3d1356	-0.04616102
168	0x3fa76748	1.3078394
169	0x3fa3ca71	1.2796155
170	0xbf2fec57	-0.6872
171	0x3ea4c7a8	0.32183576
172	0x3f613f58	0.8798728
173	0x3ef09a26	0.46992606
174	0x3f357c2f	0.70892614
175	0xbf243867	-0.64148563
176	0xbfac6cfb	-1.3470758
177	0xbea7c1fe	-0.32765192
178	0xbf692ee4	-0.91087174
179	0x3f089b22	0.53361714
180	0xbe0caff2	-0.13738993
181	0xbd5e5b16	-0.054286085
182	0xbef1cdcc	-0.47227323
183	0xbf5825d3	-0.84432715
184	0x3fbdc8f5	1.4826952
185	0xbf00d215	-0.5032056
186	0x3f2c61c8	0.673367
187	0x3f94c2f2	1.1621993
188	0x3e333ee2	0.17504457
189	0x3f9e0a38	1.2346869
190	0xbe004d18	-0.12529409
191	0x3f25dfce	0.64794624
192	0xbfe481d0	-1.7852116
193	0xbfdcafb5	-1.7241122
194	0xbe8291ec	-0.25501955
195	0x3db6ec82	0.08931829
196	0x3c945536	0.018107038
197	0x3ecb7b46	0.39742488
198	0x3d88ae3a	0.06673856
199	0x3ed0df80	0.40795517
200	0x3e9d0f81	0.3067589
201	0xbf582498	-0.8443084
202	0x3fd1339a	1.6343873
203	0x3ee001d2	0.4375139
204	0x3d9d033e	0.07666634
205	0xbc69b428	-0.014264144
206	0x3e594d5d	0.21220918
207	0xbe143c5f	-0.14476155
208	0x3ee4d2d8	0.4469211
209	0xbe0130bb	-0.12616245
210	0xbfac93e6	-1.3482635
211	0x3ea944fe	0.3306045
212	0xbf53834a	-0.82622206
213	0x3ea8755c	0.32902038
214	0xbe42c26c	-0.19019479
215	0xbebb3138	-0.36560988
216	0x3dff3970	0.12462127
217	0x3ec8229e	0.3908891
218	0x3f98dec4	1.1942983
219	0xbf16cac9	-0.58903176
220	0x3f2d5b04	0.67717004
221	0x3fa28f06	1.2699897
222	0x3f087827	0.5330834
223	0x3f79bb94	0.97551847
224	0xbef304d8	-0.47464633
225	0xbe02e4b1	-0.12782551
226	0xc015bd86	-2.3396926
227	0xbf51035d	-0.81645757
228	0xbec32342	-0.38112837
229	0x3f003647	0.5008282
230	0xbe8531bd	-0.2601451
231	0x3e9a7374	0.3016621
232	0x3f0b5aac	0.5443523
233	0x3d8482f4	0.0647029
234	0x3ee29057	0.44250748
235	0xbf1cbf5b	-0.61229485
236	0x3f93ba5e	1.154125
237	0x3ee1e93d	0.4412326
238	0x3fecfde8	1.8514986
239	0xc032eaae	-2.7955737
240	0xc03b9e91	-2.9315531
241	0x3f495e3a	0.78659403
242	0x3fdf6513	1.745272
243	0xc0020046	-2.0312667
244	0xbfa5f2e9	-1.2964755
245	0x4056b52c	3.3548079
246	0xc007b77d	-2.1205742
247	0xc01368be	-2.303268
248	0xc041e6c1	-3.029709
249	0xc02332db	-2.549979
250	0xbe9d6cd1	-0.30747083
251	0x405bf45b	3.4367893
252	0xbf9fdd8e	-1.2489488
253	0xbfd1891a	-1.6369965
254	0x3fa4ccaf	1.2874964
255	0xc02e5de1	-2.72448

graph_prop.message_funcs.1.bias f4 [32]
0	0xc07ae813	-3.9204147
1	0x40389aad	2.8844407
2	0x4051c31a	3.277533
3	0x3efaab3b	0.48958763
4	0x3f8852b8	1.0650244
5	0x3ce5b708	0.028041378
6	0xbea03e16	-0.31297368
7	0x405d139e	3.4543223
8	0xc023aedd	-2.5575478
9	0x3ed2c12e	0.4116301
10	0x3de883df	0.113532774
11	0x3fe406a3	1.7814525
12	0x405d3ebc	3.456954
13	0xbf9d4707	-1.2287301
14	0x40464cd9	3.0984404
15	0xbf260330	-0.64848614
16	0x4048f090	3.1396828
17	0x3f916172	1.1357863
18	0x40858859	4.172894
19	0xbfac3415	-1.3453394
20	0x3fd56e7a	1.667434
21	0x4022cf1e	2.5438914
22	0x3e55709c	0.20843738
23	0x408314e9	4.0963025
24	0x3ed7f5d8	0.4217975
25	0xc0019d94	-2.0252428
26	0xbfec921c	-1.8482089
27	0x4007e821	2.123543
28	0x40040ea8	2.0633945
29	0x402bd303	2.6847541
30	0x405d31da	3.4561677
31	0x3f437b3d	0.7635992

graph_prop.node_update_funcs.0.weight_ih f4 [48, 32]
0	0xbf9c8d86	-1.223069
1	0xbf00cf32	-0.50316155
2	0xbe24fa65	-0.16111143
3	0xbee5cb8c	-0.44881856
4	0xbfb75936	-1.43241
5	0xbf00e75a	-0.50353014
6	0x3ec20180	0.3789177
7	0xbec8711e	-0.39148802
8	0xbef0c02f	-0.47021624
9	0x3f3b2737	0.7310671
10	0xbfa98091	-1.324236
11	0xbe0239db	-0.12717383
12	0xbe327bfd	-0.1743011
13	0xbd5d7cba	-0.054074027
14	0xbf1118b5	-0.56678325
15	0xbefee7a1	-0.49786094
16	0xbf2631be	-0.6491965
17	0x3e141325	0.14460428
18	0x3d912b8e	0.070883855
19	0xbd829d3a	-0.06377645
20	0x3e157276	0.14594445
21	0xbeaab56c	-0.3334154
22	0xbeb21d0e	-0.34787792
23	0xbf743da3	-0.9540655
24	0xbe21c2b7	-0.15796934
25	0xbe236494	-0.15956336
26	0xbecfd733	-0.4059387
27	0xbf5efee6	-0.87107694
28	0x3eb44032	0.35205227
29	0xbf073d70	-0.5282812
30	0xbf020636	-0.5079073
31	0xbe9072d5	-0.2821261
32	0xbf2b9ad5	-0.6703313
33	0x3fb75907	1.4324044
34	0xbf76bcff	-0.96382135
35	0x3fb66461	1.4249383
36	0xbf301e91	-0.6879664
37	0x3faf4c7f	1.369522
38	0x3f626628	0.8843713
39	0x3e9c5eae	0.30540985
40	0x3f9d7491	1.2301198
41	0x3f9d9fbc	1.2314372
42	0xbf3f63ca	-0.7476164
43	0xbf94f76f	-1.1638011
44	0x3fb2bcc9	1.3963863
45	0xbf3767d6	-0.71642816
46	0x3e99b451	0.30020383
47	0x3faec7cf	1.3654727
48	0x3f8bc3ca	1.0919125
49	0xbf81a94d	-1.0129791
50	0xbf90bd74	-1.1307817
51	0x3f9f8097	1.2461118
52	0x3fc0f0a6	1.507344
53	0x3f86c649	1.0529262
54	0xbf4dd049	-0.8039594
55	0xbf3af58c	-0.73030925
56	0xbfd619b4	-1.6726594
57	0xbf32b2df	-0.69804186
58	0xbf53c29e	-0.8271884
59	0x3f77d0e1	0.968031
60	0x3fb28981	1.3948213
61	0xbf9d9ca8	-1.2313433
62	0xbf82e73c	-1.0226817
63	0xbf71f9fc	-0.9452207
64	0x3cf7f90d	0.030270124
65	0xbd15828d	-0.036501456
66	0xbe8556ec	-0.2604288
67	0x3eca78a1	0.39545158
68	0xbeb32ebf	-0.34996602
69	0xbf1437e0	-0.5789776
70	0x3ed23c8c	0.4106182
71	0xbf8c004b	-1.093759
72	0xbe112857	-0.14175545
73	0x3f0df766	0.55455625
74	0xbee82d70	-0.45347166
75	0xbe078f86	-0.13238344
76	0x3da21643	0.07914402
77	0xbf15043c	-0.58209586
78	0x3e8eacf5	0.2786633
79	0xbf50e40e	-0.81597984
80	0x3ee71f2c	0.4514097
81	0xbfb7ceff	-1.4360045
82	0xbdeac336	-0.11463015
83	0xbce76ab4	-0.028249122
84	0xbf1ecdbf	-0.62032694
85	0x3db07188	0.08615404
86	0x3e371397	0.17878567
87	0x3e98b1e1	0.2982321
88	0x3d838f1d	0.06423781
89	0xbe21528e	-0.15754148
90	0xbed89317	-0.4229972
91	0xbcf7ed44	-0.030264504
92	0x3f835109	1.0259105
93	0xbdadf6f7	-0.084943704
94	0xbed92b67	-0.42415926
95	0xbe22c84b	-0.15896718
96	0xbf488c92	-0.78339493
97	0x3f08a5d4	0.53378034
98	0xbd865c54	-0.06560579
99	0x3e50fec5	0.20409687
100	0xbf21beb7	-0.6318163
101	0xbf66bf25	-0.90135413
102	0x3f069339	0.52568394
103	0xbd1605bb	-0.03662656
104	0x3f437ff5	0.7636712
105	0xbea5fd94	-0.32420027
106	0xbf18fde8	-0.5976243
107	0xbd7385d0	-0.059453785
108	0x3deaf512	0.11472525
109	0xbf9161a1	-1.1357919
110	0x3f25408d	0.6455162
111	0xbe200aba	-0.15629092
112	0x3efeb13f	0.49744603
113	0xbf28ff3b	-0.6601445
114	0xbde5c479	-0.11219115
115	0xbf6b75b4	-0.91976476
116	0x3dad592f	0.08464276
117	0xbe7e6711	-0.24844004
118	0x3e5ddf56	0.21667227
119	0x3e9ba8c6	0.304022
120	0x3ce5a462	0.028032485
121	0xbdddfe17	-0.108394794
122	0xbf981a2f	-1.1882991
123	0xbe31f79a	-0.17379609
124	0x3ed95f4b	0.42455515
125	0xbf96ae49	-1.1771938
126	0x3edffb68	0.43746495
127	0xbfb62997	-1.4231442
128	0xbfb3e7a1	-1.4055063
129	0xbf0933a8	-0.53594446
130	0xbfa13dfc	-1.2597041
131	0x3fc72883	1.5559238
132	0xc00806c2	-2.1254125
133	0xbea2bef6	-0.31786317
134	0xbfd4f8e4	-1.6638455
135	0xbfc1a087	-1.5127114
136	0x3f1fa04d	0.62353975
137	0x3f189256	0.5959829
138	0xbfb38583	-1.402512
139	0xbfdf51f5	-1.7446886
140	0x3f75621b	0.9585282
141	0xbfba3ea0	-1.4550362
142	0x3f7a1626	0.97690046
143	0xbd861298	-0.06546515
144	0x3f2e11cd	0.6799591
145	0xbe3d9a28	-0.18515837
146	0xbf7873f1	-0.9705191
147	0xbff549eb	-1.9163183
148	0x3e8b53f7	0.27212498
149	0x3f6a0f49	0.91429573
150	0x3fa2711b	1.2690767
151	0xbf84b578	-1.036788
152	0x3e0ad158	0.13556421
153	0xbf339a24	-0.70157075
154	0x3d65a469	0.056064997
155	0xbfc85351	-1.5650426
156	0xbccb7a56	-0.024838608
157	0xbfb52f73	-1.4155105
158	0x3fc35b32	1.5262206
159	0xbfab7546	-1.3395164
160	0x3db687f5	0.089126505
161	0x3ea0e358	0.3142345
162	0x3bdc201c	0.006717695
163	0x3e95ffd9	0.2929676
164	0xbe449a9a	-0.19199601
165	0x3f414cb2	0.7550765
166	0x3f728a10	0.94741917
167	0x3ec0c396	0.3764922
168	0x3f3c5865	0.7357238
169	0x3f2a0d77	0.66426796
170	0x3e69665f	0.22792958
171	0x3f60788c	0.8768394
172	0x3f2430e8	0.64137125
173	0x3f0caba7	0.5494942
174	0x3e47430f	0.19459175
175	0x3f162002	0.5864259
176	0x3f2d5c5b	0.6771905
177	0x3f96e769	1.1789371
178	0xbde9019b	-0.11377259
179	0xbc18d7ec	-0.009328824
180	0x3ec0045d	0.3750333
181	0x3e9b1eb3	0.3029686
182	0x3ed90ca0	0.42392445
183	0x3f954653	1.1662086
184	0x3eebbe25	0.46043506
185	0xbe83118b	-0.25599322
186	0x3ce6efd1	0.028190525
187	0x3ed62c73	0.41830787
188	0x3e9b0fa2	0.30285364
189	0x3f6057f1	0.8763419
190	0x3eaa8780	0.33306503
191	0x3e1f0859	0.15530528
192	0xbed21050	-0.4102807
193	0x3f4ccd96	0.800012
194	0xbecdc2cb	-0.40187678
195	0x3f82c333	1.021582
196	0xbfa89cd7	-1.3172864
197	0xbf0535c0	-0.5203514
198	0xbf07a923	-0.5299246
199	0xbf272cae	-0.6530255
200	0x3f5bf518	0.8592086
201	0xbd3609ae	-0.044442825
202	0xbe95d55d	-0.29264346
203	0xbe89e3c9	-0.269316
204	0x3f117d42	0.56831753
205	0xbf59d03f	-0.85083383
206	0x3f9d857e	1.2306364
207	0xbed9036b	-0.4238542
208	0x3ee9e413	0.4568182
209	0xbf1914db	-0.5979745
210	0xbea14b2e	-0.3150267
211	0xbdfb606f	-0.122742526
212	0x3edd0c6d	0.43173543
213	0x3f6e2500	0.9302521
214	0x3fc679bd	1.5505902
215	0xbb4ea55f	-0.0031531674
216	0xbe463a55	-0.1935819
217	0x3e988812	0.29791313
218	0xbe52822c	-0.20557469
219	0x3e9261ed	0.28590336
220	0x3f7d50cf	0.9895143
221	0xbf3c13b7	-0.7346758
222	0x3e02b3c0	0.12763882
223	0xbf2386cb	-0.6387755
224	0x3e25aadc	0.16178459
225	0xbe745d7e	-0.2386379
226	0xbddfc144	-0.10925534
227	0xbe1a5f8a	-0.15075508
228	0xbd3d619c	-0.046235666
229	0xbee6f510	-0.45108843
230	0xbc99c0ec	-0.01876875
231	0x3d5083b2	0.050906844
232	0xbf847056	-1.0346782
233	0xbf1ed4f4	-0.6204369
234	0x3f2b8ecf	0.67014784
235	0xbd853d52	-0.065058365
236	0xbf2f74c8	-0.6853757
237	0x3df9b273	0.121922396
238	0xbed968ea	-0.42462856
239	0xbf0be996	-0.546533
240	0xbf4c9651	-0.79916865
241	0x3e86e3aa	0.2634557
242	0x3f3a4b54	0.7277119
243	0x3ed16119	0.40894392
244	0x3e3b5f2b	0.18298022
245	0xbe6512e6	-0.2237049
246	0xbea1d9ee	-0.3161158
247	0x3e9ee454	0.31033576
248	0xbe71e5c5	-0.23622806
249	0xbe846832	-0.25860745
250	0x3eca55b1	0.39518502
251	0xbdb473d7	-0.08811157
252	0xbdcb22d9	-0.09918756
253	0x3ed2904c	0.41125715
254	0xbf01b841	-0.50671774
255	0x3e6c2367	0.2306038

graph_prop.node_update_funcs.0.weight_hh f4 [48, 16]
0	0xbccd6408	-0.025072113
1	0xbe356667	-0.17714845
2	0xbf2b8b7c	-0.6700971
3	0x3ec95140	0.393198
4	0xbee8d02c	-0.45471323
5	0xbe010baf	-0.12602113
6	0xbf23f4f2	-0.6404563
7	0xbf1188fc	-0.56849647
8	0x3e92bfa1	0.28661826
9	0xbee0e412	-0.43924004
10	0x3e18b331	0.14912106
11	0xbe8eb341	-0.27871135
12	0xbd205b23	-0.039149415
13	0xbdc9776d	-0.09837232
14	0x3d68e51e	0.05685913
15	0xbc784a97	-0.015154502
16	0xbf5e0a32	-0.86734307
17	0x3f8865e6	1.0656097
18	0x3fe0c841	1.7561113
19	0x3f267296	0.65018594
20	0x3f86732f	1.0503901
21	0x3ddf73b6	0.10910742
22	0x3f92f738	1.1481695
23	0x3fad2c5b	1.3529161
24	0xbf83e164	-1.0303159
25	0x3e9a09ca	0.30085593
26	0x3f350184	0.7070544
27	0xbf3f09df	-0.7462444
28	0xbea53d5c	-0.32273376
29	0x3f8de0ec	1.1084266
30	0xbe89218f	-0.26783416
31	0xbf3e7b81	-0.744072
32	0xbea09d3d	-0.31369963
33	0xbeb870ac	-0.36023462
34	0xbe22052f	-0.1582229
35	0x3ec3a9c4	0.38215458
36	0x3e815efb	0.25267777
37	0xbe8fd0c0	-0.2808895
38	0x3eb80309	0.35939816
39	0xbedf6cff	-0.43637845
40	0xbeab9a37	-0.33516094
41	0xbcf6f239	-0.030144798
42	0x3ef03b59	0.4692028
43	0xbeb8ac58	-0.36068988
44	0xbf3e1c74	-0.74262166
45	0xbebd8771	-0.37017396
46	0x3f3e3a0f	0.7430734
47	0xbe7470ee	-0.23871204
48	0xbef42bf3	-0.4768978
49	0xbf2dfaca	-0.679608
50	0x3dd43e2e	0.10363422
51	0xbda74d46	-0.081690356
52	0x3f66e91d	0.9019945
53	0xbf56c43e	-0.8389319
54	0xbf55ce50	-0.8351793
55	0x3f29a141	0.6626168
56	0x3dce1d4b	0.10064181
57	0xbf1c5aac	-0.61075854
58	0x3e5013e4	0.20320088
59	0xbea29bc0	-0.31759453
60	0xbf3cf72c	-0.73814654
61	0x3ed78e53	0.42100772
62	0xbf739fcc	-0.95165706
63	0x3eff78fa	0.49896985
64	0xbf89fed0	-1.0780888
65	0xbfa9f8ea	-1.3279088
66	0xbfb8d1ff	-1.4439086
67	0xbf51d6d4	-0.81968427
68	0x3fd378a7	1.6521195
69	0xbf643f54	-0.8915913
70	0xbebfd757	-0.3746898
71	0xbf4d1b20	-0.80119514
72	0xbef70e56	-0.48253125
73	0x3f2016a0	0.62534523
74	0x3f2dcbe6	0.6788925
75	0x3d6ede72	0.05831761
76	0xbe8b687e	-0.2722816
77	0x3f8e4175	1.1113726
78	0x3f5abafa	0.85441554
79	0xbfc37187	-1.5269021
80	0x3f1ea8b1	0.6197615
81	0x3eb2144c	0.3478111
82	0x3f49e87f	0.78870386
83	0x3f83e016	1.0302761
84	0xbedf080a	-0.4356082
85	0xbf5f6603	-0.8726503
86	0x3f0cc80e	0.5499276
87	0x3cc0d5f9	0.02353953
88	0xbc9b403d	-0.01895153
89	0xbe47de6a	-0.19518438
90	0xbe010c4a	-0.12602344
91	0xbe10ec1b	-0.14152567
92	0xbf956486	-1.1671302
93	0xbf4e01aa	-0.8047129
94	0xbd2e927a	-0.04262016
95	0x3d9251ee	0.07144533
96	0x3f1522ca	0.5825621
97	0x3f211875	0.62927943
98	0x3ed19bfb	0.40939316
99	0xbcdd547a	-0.02701782
100	0x3f4c49c1	0.7980004
101	0xbef3b08f	-0.4759564
102	0x3d69a793	0.057044577
103	0x3ef2a5ab	0.4739202
104	0xbf1a4dae	-0.6027478
105	0xbf0e9e4f	-0.5571031
106	0xbf0106dd	-0.504011
107	0xbdad3b3a	-0.08458562
108	0xbf51abbb	-0.81902665
109	0xbe2e0b32	-0.16996458
110	0xbebb1e89	-0.36546734
111	0xbf32975c	-0.69762206
112	0x3e375817	0.17904697
113	0xbd5a5e75	-0.053312737
114	0x3f210e81	0.62912756
115	0xbd2676b1	-0.040640537
116	0xbda5cedb	-0.08096095
117	0xbdd50dc3	-0.104030155
118	0xbd427b3f	-0.047480818
119	0x3eab76a7	0.33488962
120	0xbe68ca74	-0.2273348
121	0xbf0c9117	-0.5490889
122	0xbf1c23bd	-0.6099203
123	0xbe743230	-0.2384727
124	0xbdf930fd	-0.12167547
125	0xbeb1f8f7	-0.34760258
126	0x3e331577	0.17488657
127	0xbeb76cf1	-0.35825303
128	0x3df6fa5d	0.12059472
129	0x3e8f00a9	0.2793019
130	0xbd988922	-0.07448031
131	0xbdbb3d28	-0.09142524
132	0xbdc266e3	-0.0949228
133	0xbeba2127	-0.36353418
134	0xbe9b00d9	-0.30274084
135	0x3f81de91	1.0146047
136	0xbdff9ef5	-0.124814905
137	0xbeb382d8	-0.35060763
138	0x3e8efc8e	0.2792706
139	0x3e4eabd6	0.20182738
140	0x3edfe4dc	0.43729293
141	0x3e86879b	0.26275334
142	0xbea5ece6	-0.32407302
143	0x3f1ae56d	0.60506326
144	0xbf033bdc	-0.51263213
145	0x3f0bd901	0.54627997
146	0xbe29762f	-0.1654899
147	0xbf191def	-0.598113
148	0xbee67fc4	-0.45019352
149	0xbdf7b9c2	-0.12095977
150	0x3f8ea71d	1.1144749
151	0x3e62301a	0.22088662
152	0xbf320deb	-0.6955249
153	0x3e4ecac4	0.20194536
154	0xbe981c13	-0.2970892
155	0x3f07f90d	0.53114396
156	0x3db3dd89	0.08782489
157	0x3f556e9f	0.8337192
158	0x3f518d74	0.81856465
159	0xbb8b66ae	-0.0042541837
160	0xbd4468f0	-0.04795164
161	0xbf70351f	-0.93831056
162	0xbf2cdb4d	-0.67522126
163	0x3efb5a66	0.49092406
164	0x3f519317	0.81865066
165	0xbeb8b227	-0.3607342
166	0xbe905e1e	-0.28196806
167	0x3e1eee41	0.15520574
168	0xbe3b3def	-0.18285345
169	0x3ec87764	0.39153588
170	0xbe5e4779	-0.21706952
171	0xbeff1fd1	-0.49828961
172	0xbf350122	-0.70704854
173	0x3d2cd4d1	0.042195145
174	0xbf6b9ae5	-0.92033225
175	0x3f48d055	0.7844289
176	0x3d99ee0a	0.075161055
177	0x3f13745e	0.5759944
178	0x3f080c10	0.53143406
179	0xbf35bbb5	-0.70989543
180	0x3e82fad4	0.25581992
181	0x3ec6a005	0.3879396
182	0x3f5e99c4	0.8695338
183	0x3e16fa20	0.14743853
184	0x3ea813d0	0.32827616
185	0x3f226506	0.634354
186	0xbf2ac7c1	-0.6671105
187	0xbdf2861a	-0.11841984
188	0x3f634154	0.8877156
189	0xbd39e9ea	-0.045389093
190	0x3f37aeac	0.71750903
191	0xbf666cca	-0.9000975
192	0xbdfab1fd	-0.1224098
193	0xbf55c8cc	-0.83509517
194	0xbf86fdbf	-1.0546187
195	0xbf173bbf	-0.5907554
196	0xbdd74af9	-0.10512347
197	0x3ee51955	0.4474589
198	0xbf3543ec	-0.70806766
199	0xbef30ae4	-0.47469246
200	0x3f300a10	0.68765354
201	0x3eb28588	0.348675
202	0x3e031c15	0.12803681
203	0x3e28b7ad	0.16476317
204	0x3e8f4ccf	0.27988288
205	0x3dc10e78	0.09426588
206	0xbe7fc219	-0.24976386
207	0xbe0f5ca5	-0.14000185
208	0xbd9d4da5	-0.07680825
209	0xbec173d2	-0.37783676
210	0x3e6a10aa	0.2285792
211	0xbe168616	-0.14699587
212	0x3f5127b3	0.817012
213	0xbf519b31	-0.8187743
214	0x3f0b40c6	0.5439571
215	0xbd1230a3	-0.035690915
216	0x3e8f6c53	0.28012332
217	0xbe755c69	-0.23961033
218	0x3da247de	0.07923864
219	0x3dc632a1	0.096776254
220	0xbec17ad5	-0.37789026
221	0x3f5d961c	0.86557174
222	0xbe8c5619	-0.27409437
223	0xbf814126	-1.0098007
224	0xbda3412f	-0.07971417
225	0xbe8a9342	-0.27065474
226	0x3e4d4a28	0.2004782
227	0x3dbe9ffc	0.09307858
228	0x3d05a259	0.03262553
229	0xbe0d1f68	-0.13781512
230	0xbe26616b	-0.162481
231	0xbde748cf	-0.11293184
232	0xbe97a1af	-0.29615542
233	0x3d973993	0.07384028
234	0x3df61744	0.12016156
235	0x3df3b622	0.118999735
236	0xbc7f3256	-0.015575966
237	0x3df51c5b	0.11968299
238	0xbe31c895	-0.17361672
239	0x3e4b18a2	0.19833615
240	0xbfbce388	-1.4756937
241	0xbfa9a199	-1.3252441
242	0x3f7f1ce0	0.99653435
243	0xbfc24f49	-1.5180446
244	0x3f3744dc	0.71589446
245	0xbf90704f	-1.1284274
246	0x3f4afe66	0.7929443
247	0x3fd208a0	1.6408882
248	0xc0223050	-2.5341988
249	0x3e6fa566	0.23402938
250	0xbfdcd5ef	-1.7252787
251	0xbffea8d2	-1.989527
252	0xbfcf423c	-1.6192088
253	0x3fa84078	1.3144674
254	0xbfb5c910	-1.4201984
255	0xbf9acd8d	-1.2093979

graph_prop.node_update_funcs.0.bias_ih f4 [48]
0	0x3fb59391	1.4185659
1	0xc02b2640	-2.6742096
2	0x3f7de8b3	0.99183196
3	0x3fea33c0	1.8297043
4	0x3fc088c2	1.5041735
5	0xbfd40548	-1.6564112
6	0x3fecb622	1.8493083
7	0xbf3a501a	-0.72778475
8	0xbeeb01b1	-0.45899728
9	0xbff6104e	-1.9223726
10	0x3fa06e73	1.2533706
11	0xbe65bb06	-0.22434625
12	0xbf995a88	-1.1980753
13	0x3fe689c2	1.801079
14	0xbff17b00	-1.8865662
15	0x403ce87c	2.9516897
16	0xc042415f	-3.03524
17	0x402c5f53	2.6933181
18	0x3f06ea3a	0.5270115
19	0x3fb0befb	1.3808283
20	0x3d368d9b	0.04456864
21	0xbe7986c8	-0.24367821
22	0x3fa9c27b	1.3262476
23	0x3f51e7d5	0.8199437
24	0xbfd27c83	-1.6444248
25	0xbef763d4	-0.4831835
26	0x3eae4050	0.34033442
27	0xc017a48a	-2.3694177
28	0x3fd0d894	1.6316094
29	0x3f9a1fdc	1.2040973
30	0x3fc700bb	1.5547098
31	0x3e69ad52	0.22820023
32	0xbea49359	-0.32143667
33	0xc0291143	-2.6416786
34	0xbec1c629	-0.37846497
35	0xc00956f7	-2.145933
36	0x3f8c9f1f	1.098606
37	0xbfabd4fe	-1.3424375
38	0x3e98176a	0.29705364
39	0x3fe82d50	1.8138828
40	0xbfad718e	-1.3550279
41	0xbfe70c73	-1.8050674
42	0xbff68499	-1.9259216
43	0xc03b776d	-2.9291642
44	0xbf95d5a7	-1.1705827
45	0x3ef4056f	0.47660396
46	0xc02c3810	-2.6909218
47	0xc0335025	-2.8017666

graph_prop.node_update_funcs.0.bias_hh f4 [48]
0	0xbecef8ca	-0.40424186
1	0xbff595a5	-1.9186293
2	0x3ebddc94	0.3708235
3	0x3f6ef679	0.9334484
4	0x4016296d	2.3462784
5	0xbf1c4ce5	-0.6105483
6	0x3ccd1533	0.025034523
7	0xbeb31f67	-0.34984896
8	0xbf52f506	-0.82405126
9	0x3f853998	1.0408201
10	0xbebd8272	-0.37013584
11	0x3f321214	0.69558835
12	0x3f3e8727	0.74424976
13	0x40077040	2.1162262
14	0x3f0d016f	0.5508031
15	0x4029945e	2.6496806
16	0xc045df70	-3.0917625
17	0x3fc63604	1.5485234
18	0x3f24555c	0.6419275
19	0x4012f0f0	2.2959557
20	0xbed7cec5	-0.4214994
21	0x3eb1f48d	0.3475689
22	0x3fc48107	1.5351876
23	0x402ed1e4	2.7315607
24	0xc045e334	-3.0919924
25	0xbf8faf2d	-1.1225334
26	0xc0685d10	-3.63068
27	0xc044ad94	-3.0730944
28	0x3fc2c2ba	1.5215676
29	0x3f8298d1	1.0202886
30	0x3fff04df	1.9923362
31	0xc00e8aed	-2.2272294
32	0xbf52d290	-0.8235254
33	0xbf11f107	-0.57008404
34	0xbfd6d875	-1.6784807
35	0xbfeef37b	-1.8668054
36	0x402f05fb	2.73474
37	0xbe336510	-0.17519021
38	0xc0390b89	-2.891329
39	0x3df779e0	0.12083793
40	0x3fa925fc	1.3214717
41	0xbf905c05	-1.1278082
42	0xbfa57153	-1.2925209
43	0xbfce3be5	-1.6112028
44	0xc00a8c70	-2.1648216
45	0xbfdd44ae	-1.7286584
46	0xbf1b080c	-0.60559154
47	0xc0339917	-2.8062189

graph_prop.node_update_funcs.1.weight_ih f4 [48, 32]
0	0xbfa8517c	-1.3149867
1	0xbfa70f7d	-1.3051602
2	0x3faeccf5	1.3656298
3	0xbfd3fc9f	-1.6561469
4	0x3e1de9f2	0.15421274
5	0xbfc053eb	-1.502561
6	0xbfe85ac6	-1.8152702
7	0x3db0a552	0.08625282
8	0xbfaf436b	-1.3692449
9	0xbfbed903	-1.4909977
10	0xbea0a9a5	-0.31379429
11	0x3f7e638d	0.9937065
12	0x3f7b18e7	0.9808487
13	0xbf9e23b9	-1.2354652
14	0x3fe0d493	1.7564873
15	0xbf305c2e	-0.68890655
16	0x3e91ae26	0.28453177
17	0xbf368f71	-0.71312624
18	0x3fbaec48	1.4603357
19	0xbf8e429d	-1.1114079
20	0x3ff913e7	1.9459199
21	0x3f1bc000	0.60839844
22	0xbf9526f8	-1.1652517
23	0x3f6161c4	0.88039804
24	0xbfae8b8a	-1.3636334
25	0xbfae7096	-1.3628109
26	0xbfd28e38	-1.6449652
27	0x3fc1e5a3	1.5148205
28	0xbf8c9ce9	-1.0985385
29	0xbd678fc8	-0.056533605
30	0xbf19e54f	-0.6011552
31	0xbfcbdbbe	-1.5926435
32	0xbe3a2a0c	-0.18180102
33	0x3ddfb196	0.10922544
34	0x3f06d782	0.5267259
35	0xbe853076	-0.26013535
36	0xbd06af4b	-0.032882016
37	0xbf561dd7	-0.8363928
38	0xbf258a53	-0.6466419
39	0x3e9287fa	0.28619367
40	0xbe40fa1a	-0.18845406
41	0xbcc48617	-0.02398972
42	0x3f4d9edf	0.80320543
43	0x3c499ee7	0.012305952
44	0x3eec61e8	0.46168447
45	0x3e9224ff	0.2854385
46	0xbb615a35	-0.0034386043
47	0x3eec2b17	0.46126625
48	0x3ee2362c	0.44181955
49	0x3ea92ad6	0.33040494
50	0xbe0e69c2	-0.13907531
51	0x3ec7de82	0.39036947
52	0xbd6f7c2c	-0.05846803
53	0xbd7d4a64	-0.061838523
54	0x3df04507	0.11731916
55	0x3e9f417d	0.3110465
56	0xbed5d413	-0.41763362
57	0xbe688529	-0.22707047
58	0x3e5fd3e7	0.21858178
59	0xbf1fd46f	-0.6243352
60	0xbf114b6c	-0.5675571
61	0x3e944a05	0.28962722
62	0xbe9f81e4	-0.31153786
63	0xbe582ca2	-0.21110776
64	0x3f007db1	0.5019179
65	0x3e963f12	0.29344994
66	0x3e47cbe6	0.19511375
67	0x3ed25e82	0.4108773
68	0xbe884ce5	-0.26621166
69	0x3f0748e2	0.52845585
70	0x3c810f73	0.015754437
71	0xbbe5d42b	-0.007013818
72	0x3dedc2b1	0.116094
73	0x3ee95e34	0.45579684
74	0xbdc8eb5f	-0.098105185
75	0xbe890ca5	-0.2676746
76	0xbf3fbea8	-0.74900293
77	0x3e1496aa	0.14510599
78	0xbedb7f2b	-0.4287046
79	0x3f70d8f2	0.9408103
80	0xbea4d496	-0.3219344
81	0x3f1b3e7c	0.6064222
82	0x3debaf1f	0.11508011
83	0x3f9396d4	1.1530404
84	0xbe01cb1a	-0.12675133
85	0xbdd71dff	-0.10503768
86	0x3d5aa6f8	0.05338189
87	0xbeb6c376	-0.35696
88	0x3df40790	0.11915505
89	0x3d595820	0.05306256
90	0x3f3ebfdd	0.7451151
91	0x3f5f0518	0.8711715
92	0x3f1b71ff	0.6072082
93	0x3dcfe64c	0.101513475
94	0x3e601a96	0.21885142
95	0x3e9a8b5d	0.3018445
96	0xbf79db7f	-0.9760055
97	0x3dda9bf8	0.1067428
98	0x3f2f8d45	0.68574935
99	0xbf6d93a5	-0.9280341
100	0xbfb5afe7	-1.4194306
101	0xbf8d5c4d	-1.1043793
102	0xbf9181d2	-1.1367743
103	0x3fb7eb59	1.4368697
104	0x3f42ff00	0.7617035
105	0xbf9b20ea	-1.211942
106	0x3feb61c6	1.8389213
107	0xbfa6099b	-1.2971681
108	0x3ff82897	1.9387387
109	0xbfd33c13	-1.6502708
110	0x3fd0cfad	1.6313378
111	0x3fc6196b	1.5476507
112	0x3f72aec9	0.9479795
113	0xbfc414a8	-1.5318804
114	0x3e9f7350	0.31142664
115	0x3f8a34dd	1.0797383
116	0x3fc6988b	1.5515302
117	0x3f54516f	0.8293676
118	0xbf5b5b31	-0.8568602
119	0x3fa164b7	1.2608861
120	0xbfa22a99	-1.266925
121	0x3f98a58e	1.1925523
122	0xbe39502e	-0.18096992
123	0xbfb31f6a	-1.3993962
124	0x3fa22a37	1.2669133
125	0xbf91ffcb	-1.1406187
126	0xbf7172b2	-0.94315636
127	0xbf932c36	-1.1497867
128	0x3ee9675b	0.45586666
129	0xbf35987a	-0.70935786
130	0xbecedd4f	-0.4040322
131	0xbe86c182	-0.2631951
132	0xbef06ca1	-0.46957877
133	0x3d3f748e	0.046742015
134	0xbebe7c70	-0.37204313
135	0xbe51921e	-0.20465896
136	0x3ec84e85	0.39122406
137	0xbe3be7c4	-0.1835013
138	0x3e696cc5	0.22795399
139	0x3c6e3a05	0.0145402
140	0xbef40866	-0.47662657
141	0xbe90bf51	-0.28270963
142	0xbf28bc04	-0.6591189
143	0x3f74a73f	0.955677
144	0xbf6412aa	-0.8909098
145	0xbf869948	-1.0515528
146	0xbf892ef8	-1.0717459
147	0x3e8eb283	0.2787057
148	0x3f038b33	0.51384276
149	0x3efbb17f	0.49158856
150	0x3ef5ddef	0.48020884
151	0xbf776559	-0.9663902
152	0x3d459721	0.04823983
153	0x3ec66c44	0.38754475
154	0x3df51321	0.11966539
155	0xbeac9841	-0.3370991
156	0x3eed4d47	0.4634802
157	0x3e509065	0.20367582
158	0x3f73f787	0.9529957
159	0xbfad904c	-1.3559661
160	0xbeabaed4	-0.3353182
161	0x3d959b4b	0.073050104
162	0xbe18d50a	-0.14925018
163	0xbd118221	-0.03552449
164	0x3d8900bc	0.06689593
165	0xbd362f19	-0.04447851
166	0xbefd4b5e	-0.49471563
167	0x3ea855f5	0.3287808
168	0xbf20995d	-0.62734014
169	0xbf232948	-0.63734865
170	0x3e2d6dec	0.16936463
171	0xba8bc6db	-0.0010664122
172	0x3f0e9ed9	0.5571113
173	0xbb96edaf	-0.004605971
174	0x3e263771	0.16232087
175	0x3e760ffe	0.24029538
176	0xbe7329ef	-0.23746465
177	0xbea6ba7c	-0.3256415
178	0x3f0d8b3d	0.55290586
179	0xbe9e7fbf	-0.30956838
180	0x3f315997	0.6927733
181	0x3e4e5d42	0.20152763
182	0x3e919930	0.28437185
183	0x3e3c2809	0.18374647
184	0xbee2bc5b	-0.4428433
185	0x3dbcbcb4	0.0921568
186	0xbeb4625b	-0.3523129
187	0x3ec3cc17	0.38241646
188	0x3e49fc10	0.1972506
189	0x3ecedea1	0.40404227
190	0xbd96eba0	-0.07369161
191	0xbe20caae	-0.15702316
192	0x3f33d673	0.702491
193	0x3e37d6c7	0.17953025
194	0xbecc0552	-0.3984781
195	0x3f8dc5d0	1.1075993
196	0xbf019f1c	-0.50633407
197	0x3e01da07	0.12680827
198	0x3ea24713	0.3169485
199	0xbf41cdd4	-0.75704694
200	0x3f10c23d	0.56546384
201	0x3ef882af	0.48537204
202	0x3fc31c53	1.5243019
203	0xbf15e134	-0.5854676
204	0xbf2317a9	-0.6370798
205	0x3e5fd9af	0.21860383
206	0xbf06baf9	-0.5262905
207	0x3f414275	0.7549203
208	0xbf25d69b	-0.64780587
209	0xbd1f8e35	-0.03895398
210	0x3da2f0ea	0.07956107
211	0x3f809e09	1.0048229
212	0xbe44bed4	-0.1921342
213	0x3db661c7	0.08905368
214	0x3f051055	0.51978046
215	0xbf533493	-0.82502097
216	0x3ee74113	0.45166835
217	0x3f6e0539	0.9297672
218	0x3f7737d1	0.96569544
219	0xbe9876d8	-0.2977817
220	0x3ec7b09e	0.39001936
221	0x3eb6b569	0.3568528
222	0x3f6306fe	0.88682544
223	0x3ea97e2c	0.33104074
224	0xbf8160b8	-1.0107641
225	0x3f9549dc	1.1663165
226	0x3e6943bf	0.2277975
227	0xbf029b6e	-0.51018417
228	0x40089243	2.133927
229	0x3f4c654d	0.7984207
230	0xbf21c0a7	-0.6318459
231	0x3ef692ee	0.48158973
232	0xbfabe7d8	-1.3430128
233	0x3fa271e2	1.2691004
234	0x3e326006	0.17419443
235	0x4009a65d	2.150779
236	0x3e2560c2	0.16150191
237	0x3f316cde	0.69306743
238	0x3dc2274e	0.09480153
239	0x3e184f6f	0.14874052
240	0x3f67be93	0.9052517
241	0x3f03374b	0.51256245
242	0x3fcf51ac	1.6196799
243	0x3f7778bf	0.9666862
244	0x3fab30de	1.3374288
245	0x3fc0809a	1.5039246
246	0xbfb37109	-1.401887
247	0x3fcb2602	1.5870974
248	0x3fe9176a	1.821027
249	0xbfe1cadf	-1.7640036
250	0xbfcbf3a8	-1.5933733
251	0xbead47fa	-0.33843976
252	0xbf362d6a	-0.71163046
253	0x3e6354ea	0.22200361
254	0xbf1882c3	-0.59574527
255	0xbf873970	-1.0564404
