housingpipeline/housingpipeline/dgmg/model.pth (torch, 308868 bytes, 52 tensors)

graph_embed.node_gating.0.weight f4 [1, 16]
00000000: 215b 8b3e b7fc c33d cec4 5c3e 4367 bcbc
00000010: 7de4 373d c6ab 1d3e 9bec 103e 92f6 9e3e
00000020: 1333 80bd 9db3 84bb 2ecd dcbd 2f37 b33e
00000030: df28 12bf af80 a43d 76d9 aabd 0c31 1a40
0.27217963 0.09569686 0.2155945 -0.022998458 0.044895638 0.15397558 0.14152758 0.31047493
-0.06259742 -0.004049732 -0.107813224 0.3500304 -0.57093614 0.08032357 -0.08342259 2.4092436

graph_embed.node_to_graph.weight f4 [32, 16]
00000000: 6e46 8abe 7a00 b73e 193e a73e 316e de3c
00000010: 452a 9a3e aac8 72bd d99a 2c3d 1f30 8f3c
00000020: a4f9 39bf 77b5 6bbd c990 a23d 3cfa bc3e
00000030: a1eb 0a3e a5a0 05bd b246 813e 9811 b13e
00000040: ddca 743d 7006 6fbe 3cbe 9f3d ccd7 28bf
00000050: 49d0 1e3f d0bb d7be 480e 92bc c1f2 9f3d
00000060: ecf1 d03e 9962 4fbe 3a11 433f 9a2e 2d3e
00000070: 10dc 4dbe e9c3 c03e 103e 94b9 2fdd 8a3d
00000080: 465b 7bbe 9b14 b8be 36af 053e c3f4 1bbe
00000090: 440f 6abc 14df 85be 013a 8dbe 1ae3 913e
000000a0: 2bab 303e 2483 a4bd 2e27 933f b351 4e3e
000000b0: 5c01 57be a71f d43e 1d32 0a3d fe6b 823d
000000c0: a81a aa3c 1589 b13e f935 813e 7e5c b13e
000000d0: f8d6 7bbd 4572 c03d b337 143e 29e6 96bd
000000e0: 507b 5cbf 555f d93e 37e6 9b3d 3aaf 9ebd
000000f0: 32a6 043e 2e8c ed3d 098d dfbc e618 99be
00000100: 2c60 983e c053 01be c5cf c7bd 5163 e8be
00000110: 471a 813e d57d 92bd 79ca 45be 1391 9a3d
00000120: baab 373e 6b99 18be aca4 95be c57b 9fbe
00000130: 645a dfbd 43d4 b5be bf0b b9be 4762 a0be
00000140: 02c9 bb3e 8251 3f3e ee74 8dbe 016f 99be
00000150: df92 b33e db35 08bf 220b 36bd b34d 8bbe
00000160: 0f42 ee3e b44d 4a3e c1b3 01be 53b2 dd3d
00000170: d15b cbbe 3f81 0abe 76c7 42bf 10c4 ddbd
00000180: 160e 37bb 9cc4 1cbe bff5 d1bd 2b1a 82be
00000190: 2bf8 2fbe 828f d93d 7375 9ebc 6a6c 943d
000001a0: 851e f03e 0730 bebd ca26 173e faa3 8bbc
000001b0: 162d db3d fcff b73e 2dec a3be 0262 9abe
000001c0: ae19 d7bd dc88 303e a934 7e3d 52a2 f03d
000001d0: 531b 56be 77e6 15bf f84c 4b3e 41cf c3bd
000001e0: f52a 8dbe 0c90 1f3e 2ba2 4fbf baac 103e
000001f0: e61d b13e 9990 50be a226 bebe 6700 4ebf
00000200: 5c6e 6ebe ca21 8abd 4766 34be 6317 4bbe
00000210: 5c2a bf3c 3ca5 e53d fc44 b03e 1efe 843b
00000220: ef19 0b3f 971b ed3c df58 7fbf 2f5c d0bd
00000230: 6bd6 92bd 5f28 bbbd d256 81be 24f2 9e3d
00000240: 5e23 ddbe 5e2b d5be 9cdf a2be 12d8 583e
00000250: 18c0 93bd db19 893e 984b 2abe 94a3 183c
00000260: 42ee c93e 29c2 04be 1c2f f3be 0cfc 793d
00000270: 46d0 9b3e fd5f b5bc 3c48 233c 9170 b43d
00000280: 2866 41be 9d50 733e a4ec f1be a988 413e
00000290: ae72 093e 9098 d23d f392 003d cd86 6bbe
000002a0: 239f 29bd d1e2 e03d f340 b9bf ba6d 42bd
000002b0: 7c48 0a3e 9dcb 373e b023 3dbd c4db bebe
000002c0: 604f fe3d 8b23 b33d 54f4 63be ece1 223c
000002d0: 6a47 ae3e e71c 5a3e 5808 033f b95c 873d
000002e0: 44c1 9fbc 09ba adba 8e77 76bd 879b d63e
000002f0: 2500 953e a640 c73e af01 17be 05be bc3e
00000300: 8bf6 7dbd 69ff febe 3ecb 12be 222e 0abf
00000310: 5456 383e 9ffc abbe 77b6 38be 0ac2 7b3e
00000320: f424 33be f53f 3f3e 50dd debe 5d8a e1bd
00000330: 59d7 583c fe5e bc3e 904d 7bbf be65 3dbe
00000340: a297 863e 35f6 36be 8672 8f3e bf0b fdbe
00000350: 47c0 9fbe 08b3 debd 5f54 1b3f f1d3 dcbd
00000360: cc25 903e a11a 103d 6af7 233f 42d4 08be
00000370: b2d3 96be 22df 0a3f 5998 113a 4ce7 643e
00000380: fff9 64be aa22 10bf c55a 84bd 7de7 2e3e
00000390: 1df8 f23e 3e18 2ebf ca25 c1be a2c3 353f
000003a0: 9fd3 9dbe 4882 b7bd 329c 4f3f 15cb 55bd
000003b0: 0033 aa3c 0ef5 023f 47af b03d 178a 103f
000003c0: f2bc c73d 7266 11bd fa3c b83e 0777 533e
000003d0: b76f aabb 2eed 903e 6653 63be b8d1 2f3e
000003e0: aaa8 0d3f ded8 52bd 3375 ca3e f20d 123f
000003f0: f892 abbe f4f9 69bd 7da5 9c3e 73aa d63d
-0.2700686 0.3574255 0.32664564 0.027152153 0.30110374 -0.0592734 0.04213986 0.017479
-0.72646546 -0.057546105 0.07937772 0.36909664 0.13566448 -0.032623906 0.2524925 0.34583735
0.059763778 -0.233423 0.07799956 -0.6595428 0.6203657 -0.42135477 -0.017829075 0.078099735
0.40809572 -0.20252456 0.7619816 0.16912308 -0.20103478 0.37649468 -0.00028275 0.06780469
-0.24546537 -0.3595322 0.13055119 -0.15230088 -0.014285866 -0.26146758 -0.27583316 0.28493577
0.17252795 -0.080328256 1.1496332 0.20148353 -0.20996612 0.414304 0.033739198 0.06368254
0.020764664 0.34674898 0.2523649 0.34640878 -0.061484307 0.09396795 0.14474373 -0.07368118
-0.8612566 0.42455545 0.07612269 -0.077482656 0.12954023 0.11599003 -0.02728893 -0.29901809
0.29760873 -0.12629604 -0.09756426 -0.45388272 0.2521536 -0.07152907 -0.19315518 0.07547202
0.17936602 -0.14902274 -0.29227197 -0.31149116 -0.109059125 -0.35513505 -0.36141774 -0.3132498
0.36676794 0.18683437 -0.27628273 -0.29967502 0.3507299 -0.53207177 -0.04444421 -0.27207717
0.46534774 0.19756204 -0.12666227 0.10825028 -0.39718488 -0.13525866 -0.76085603 -0.108284116
-0.002793198 -0.15309376 -0.102519505 -0.2541059 -0.17184512 0.10623075 -0.019343114 0.07247241
0.46898285 -0.09286504 0.1476089 -0.017045964 0.10701959 0.35937488 -0.32016125 -0.301529
-0.10502945 0.17239708 0.06206194 0.1174971 -0.20908861 -0.58554786 0.1985358 -0.09561015
-0.27571836 0.15582293 -0.81106824 0.1412839 0.34593123 -0.2036766 -0.3713885 -0.80469364
-0.23284286 -0.06744726 -0.1761714 -0.1983314 0.023335628 0.112131566 0.3442763 0.0040586134
0.54336447 0.02894382 -0.9974498 -0.101738326 -0.07169803 -0.091385596 -0.2526155 0.077610284
-0.43191046 -0.4163465 -0.31811225 0.21176174 -0.07214373 0.2677754 -0.16630399 0.009316344
0.3943959 -0.12964691 -0.4749688 0.061031386 0.30432338 -0.022140497 0.0099659525 0.08810533
-0.18886626 0.2376122 -0.47250855 0.18899788 0.13422653 0.10283005 0.03139014 -0.23000641
-0.04141153 0.10980762 -1.4472946 -0.047467925 0.13504213 0.17948766 -0.046176612 -0.37277043
0.12417483 0.08747014 -0.22261173 0.009941559 0.3403886 0.21300088 0.51184607 0.06609482
-0.019501336 -0.0013254295 -0.06017261 0.41915533 0.29101673 0.3891651 -0.14746736 0.36863723
-0.0620027 -0.49804237 -0.14335343 -0.53976643 0.18001682 -0.33591172 -0.18038355 0.24585739
-0.17494565 0.18676741 -0.43528223 -0.11012719 0.013234937 0.36791223 -0.98165226 -0.18495843
0.26287562 -0.17867358 0.28017062 -0.49423024 -0.31201383 -0.10873991 0.60675615 -0.10782612
0.28153837 0.035181645 0.640494 -0.1336222 -0.29458386 0.54246724 0.00055540126 0.22353858
-0.22360991 -0.56302893 -0.064626254 0.17080493 0.4745492 -0.6800574 -0.37724143 0.71001637
-0.30825517 -0.08960396 0.8109771 -0.052195627 0.020776272 0.51155174 0.086271815 0.5646071
0.09752835 -0.03549809 0.3598402 0.20650874 -0.0052013057 0.28305954 -0.22199783 0.17169845
0.55335486 -0.051476352 0.3954254 0.5705253 -0.33510566 -0.05712314 0.30595008 0.10481729

graph_embed.node_to_graph.bias f4 [32]
00000000: c303 723f a45f a1be ad08 8f3e e6f7 c3bc
00000010: a5c7 27bf aa48 d2bf 8c6a 2fbc 6da0 9ebe
00000020: 5a9b e93c e8d2 743f e878 c6be 2303 613f
00000030: d39e 1bbf a97b c3bb e6fd ef3d adf0 6e3f
00000040: f309 c8bf e80a 063f d784 a13f d30d af3f
00000050: aa2b c8bd 61d3 00bf 2ff0 6dbe 95ae 94bf
00000060: 3234 95bc c80a 8bbe a197 4abe f3a7 babe
00000070: 1e19 23bd b46e efbe a222 9cbe ac5e a3bd
0.9453699 -0.3151828 0.27936307 -0.023921918 -0.6553901 -1.6428425 -0.010706555 -0.3098177
0.02851646 0.9563432 -0.3876412 0.8789541 -0.6078922 -0.005965669 0.11718349 0.9333599
-1.5628036 0.5236039 1.2618665 1.3676094 -0.09773953 -0.5032254 -0.23236154 -1.1615778
-0.018213365 -0.27156663 -0.19784404 -0.3645626 -0.039818875 -0.46764147 -0.30495173 -0.079770416

graph_prop.message_funcs.0.weight f4 [32, 34]
00000000: f867 763e 197a c53d fc15 35bf 8cc2 483f
00000010: 1e4f 523f 3035 9a3e 032c 24bf 2e26 e5bd
00000020: 6e7e e03d 40df 8d3e d982 0f3e 0d4c c93d
00000030: 09f3 61bf 871a 133f ec61 b4bd 8fbb fb3e
00000040: ea34 f23e 7f43 9f3e 42b6 173f 9c48 52be
00000050: d136 88be df73 d9be beaf 0d3e 9683 473f
00000060: 61df c7be 9327 883e 0255 aebe ecbb f73d
00000070: cf0a 54be 8636 2b3f 6029 6abf 0ffe 3a3f
00000080: cb1c 90be 9bee 70be 8fbe 513e a68f 553e
00000090: d38d 293e 82a4 1dbe 4be5 90bd b221 9d3d
000000a0: 638f f93e 8af6 353e 15ce 943d cf80 70be
000000b0: 8fcf 6f3e e74d f23e 6246 2abd ce5d 84be
000000c0: 9830 10bf b56f 583f d147 86bc 9bae 1f3f
000000d0: 4cc1 703e 5fd9 06bf 47b0 4d3e 1d85 96bd
000000e0: 31f2 0d3e 9187 313e 9192 903e def7 203e
000000f0: 39c2 2d3e 67ad 3b3e 46d8 57bb 5da2 8d3e
00000100: cc37 c43c e985 1b3e 81f6 123e 1f5a 0ebf
00000110: 1449 ae3d e6b8 aa3e 303a f33d 7d48 883e
00000120: 807e 9d3e 13aa 263f d05b 4c3f 52df 063f
00000130: d0f0 a43d 7f17 86bd 69da 6c3d d002 f03e
00000140: 5db9 dfbe 5d7a 473e cfda abbe 1480 243f
00000150: 9988 843d f12f e03e 9530 6c3e 7232 39bf
00000160: ff86 29be 55b8 a23e dd3a 9a3e 16e8 eb3e
00000170: 0241 50bb 5d88 51bf 8a08 183e 4753 163f
00000180: 6ed9 d5be ac47 373f 88cb 97bd d20d 323f
00000190: 9e0e 033f fcc4 4fbf 89df 523f b49c 233f
000001a0: 206a 353f 5544 183f 5727 26bf eb73 babd
000001b0: 5e97 8cbe 095c 403f 2902 c7be c981 6d3e
000001c0: a070 b2bc 8baa 233e f2da f93e 6076 60be
000001d0: e624 abbe bd17 463e b161 d23e 4b9f c9be
000001e0: 4eda 293e 87eb b0bd 5c89 1abf ee6e 16be
000001f0: 5c01 ee3e 1818 273f ba2b b5be 44ae cebe
00000200: 8b01 3d3f 3b04 bb3d 0b3e 6f3d b651 8c3e
00000210: b133 fb3d 07df a5be c2da 7dbe fe53 bf3e
00000220: 70b0 bc3e c75d 093e 9050 763f 8caf 09be
00000230: b74a 81be a924 aa3d 6545 d53e 2050 0e3f
00000240: d593 9c3d faed 063e b933 88be a0f7 0d3f
00000250: 7d75 b53d ff43 d1be c21e 0ebc 92ea 243f
00000260: ed17 f1bd 85dc 5cbe 68ae 973c c76c 8cbc
00000270: c40b 7f3e 15f6 a1bd 3961 0c3e fb35 e63e
00000280: 74c1 a5bc 995c c23d 9c68 41bd f356 4f3d
00000290: 4b29 f63d 0675 0c3d db21 b7bc df1d 043d
000002a0: 4047 383d ba45 273e ec31 f9bd f701 833e
000002b0: 017a 05bf 0be5 6f3f 6a61 da3e a871 573e
000002c0: c229 733d c87a 31be 70b1 acbe f57b 2a3e
000002d0: 715c 843e 65cf 0dbe 7b1a 9bbe 0c16 263f
000002e0: 3e79 dd3d 301d 3f3e 16e2 b23e ece8 d43e
000002f0: 8ff6 24be 5830 4fbd 7719 19be 7985 5e3e
00000300: 1f3f 723f 6519 4b3f 4739 aabe 40ba c4bd
00000310: 67e8 6c3e d880 0a3f 0a8c 05bf 3024 363f
00000320: fa6a dcbe 185c 693e 4d27 2abf fb83 47bf
00000330: 9c38 083e 534c 353d 8559 12bf 5b12 803f
00000340: fec3 443f df00 353f 9d7c d1bd 9541 06be
00000350: 8b07 6c3e ddcb c43e 47c6 bd3e 98bc 2b3d
00000360: d61a 9dbe 3209 483d 56b4 193e 1e5a 22be
00000370: 1d57 613e c245 063e 6ad0 003e f7b6 383e
00000380: 528c 71be 3d58 f23e 5cae 963d 88a5 243e
00000390: 7ca2 8fbe 7123 2ebd ba37 a7bd c11d ae3e
000003a0: 5872 c5be 628b 703e a04d 30be f1a2 6dbe
000003b0: c34e 4dbe e4e6 dabe 2d75 e93d ae61 32be
000003c0: 0757 0cbf bb3c 8c3f 9cce 493e 8bd4 073f
000003d0: b1db 2dbe ab65 a2be a39b 653d e45c 0b3f
000003e0: 482d b5bc ba3d 273e 5106 6dbe 93d9 b93e
000003f0: b4ae c33e 3e71 d8be 5b03 a43e a87b 10be
0.24063098 0.09642429 -0.7073667 0.78421855 0.82151973 0.30118704 -0.64129657 -0.11188923
0.109616145 0.2770939 0.14014758 0.09828959 -0.8826147 0.5746235 -0.088077396 0.49166533
0.47305995 0.31106183 0.5926248 -0.20535511 -0.26604322 -0.42471215 0.13836572 0.7793516
-0.39037612 0.26592693 -0.3404923 0.1209639 -0.20707248 0.6688007 -0.91469383 0.7304391
-0.28146967 -0.23528521 0.20482849 0.20855579 0.16558008 -0.15394786 -0.07074984 0.076724425
0.48742208 0.17769828 0.072658695 -0.23486637 0.23419021 0.4732506 -0.04157103 -0.25852817
-0.5632415 0.8454545 -0.016391667 0.623758 0.23511237 -0.5267543 0.20086776 -0.07349608
0.1386192 0.1733687 0.2823682 0.15719554 0.16968621 0.18327866 -0.0032935305 0.27662936
0.023952387 0.15187801 0.14351846 -0.55606264 0.08510032 0.3334419 0.11876333 0.26617804
0.30760574 0.6510326 0.79827595 0.5268451 0.08053744 -0.0654745 0.05782548 0.46877146
-0.43696108 0.19480272 -0.33565375 0.6425793 0.064713664 0.43786576 0.23065408 -0.723426
-0.16555403 0.3178126 0.30123034 0.46075505 -0.003177703 -0.818487 0.14847007 0.5872082
-0.41767448 0.7159374 -0.074118674 0.6955234 0.5119418 -0.8115995 0.8237234 0.63910985
0.7086506 0.59479266 -0.6490378 -0.09104141 -0.27459234 0.75140435 -0.38868836 0.2319404
-0.02178222 0.15983026 0.48799855 -0.21920156 -0.3342659 0.19344993 0.41090158 -0.39379343
0.16587183 -0.08638673 -0.60365844 -0.14690754 0.46485412 0.6527114 -0.35384923 -0.4036733
0.7383048 0.09131666 0.05840878 0.2740609 0.12265719 -0.3239672 -0.2479048 0.37368768
0.3685336 0.1341468 0.9621668 -0.13445872 -0.25252315 0.083077736 0.41654506 0.5559101
0.07645384 0.13176718 -0.2660196 0.5545597 0.088603 -0.4087219 -0.008674325 0.64420426
-0.117721416 -0.21568497 0.01851578 -0.017141713 0.24906832 -0.079082645 0.13708963 0.4496306
-0.020233847 0.09490318 -0.047218904 0.05062003 0.12019595 0.03429129 -0.02235501 0.03225505
0.044989824 0.16335192 -0.12167725 0.25587437 -0.5213929 0.93708867 0.42652446 0.2103945
0.059365995 -0.17331994 -0.33729124 0.16648848 0.25851777 -0.13848646 -0.3029364 0.6487739
0.10814141 0.18663478 0.34938115 0.41583955 -0.1610968 -0.050583214 -0.1495112 0.21730603
0.94627565 0.79335624 -0.33246824 -0.09605837 0.2313553 0.5410285 -0.5216681 0.7114897
-0.43050367 0.22789037 -0.6646622 -0.7793576 0.13302845 0.04426224 -0.57167846 1.0005602
0.7686156 0.70704454 -0.10228846 -0.13110955 0.23049752 0.38436785 0.37065336 0.041927904
-0.30684537 0.048836894 0.15010199 -0.1585469 0.22005887 0.13112548 0.12579504 0.18038546
-0.23588684 0.47332945 0.07357475 0.1607877 -0.28053653 -0.04251427 -0.08164926 0.34007075
-0.385638 0.2349067 -0.17217112 -0.23206688 -0.20049576 -0.4275428 0.11399303 -0.17420074
-0.54820293 1.0956033 0.19707721 0.5305869 -0.16978337 -0.31718192 0.05605663 0.54438615
-0.022116318 0.1633214 -0.23146941 0.36298808 0.38219225 -0.42273897 0.3203381 -0.14109671

graph_prop.message_funcs.0.bias f4 [32]
00000000: 6c88 0ebf 1b17 edbe a090 63bf f006 9a3e
00000010: 6f6e b9be cdf4 f1be 1f09 e6bc 61bc d03c
00000020: 1dea 99be 15ec 97be 7643 0cbf 5edb c0be
00000030: 5340 a3be 917d dbbe 1fc0 0fbf ff83 dabe
00000040: 5c67 b3be b7a0 39bf 1e0c 1abf a295 3c3f
00000050: b69e 64be 5336 ddbe 9d12 cabd 2c65 aa3d
00000060: 0a0c 2fbe 752d 5dbf db54 033e 16c6 05bf
00000070: d28b e9be ed03 cabe 1163 a4be ef5b 883e
-0.55676913 -0.4630669 -0.88892555 0.30083418 -0.36217067 -0.4725708 -0.028080521 0.025480451
-0.30061427 -0.29672304 -0.5479044 -0.37667364 -0.31885013 -0.42869237 -0.5615253 -0.4267883
-0.35039794 -0.72510856 -0.6017474 0.7366582 -0.22326168 -0.4320551 -0.098668315 0.08320078
-0.17094436 -0.86397487 0.12825339 -0.5225538 -0.45614487 -0.3945612 -0.32106832 0.2663264

graph_prop.message_funcs.1.weight f4 [32, 34]
00000000: 7e88 a33e 2224 753e c1cb 583f f330 0b3f
00000010: ccbf 573d 2271 853d 2fb6 803e 8e51 19bd
00000020: 4797 043e edcb 0b3d e3a6 f83c bd87 863e
00000030: f921 e0bd 487e 00bf 3612 943d 6e20 dfbd
00000040: d1ef a9bd 0b8c 15be d456 ee3e d353 a03e
00000050: edfe 123e 3729 943f 26c5 113f 8e13 b13d
00000060: cfd4 e53b a036 a6be ab50 29bd c33f ab3e
00000070: 1d05 98bd 1cda 04bf 551e 923e 1389 31be
00000080: 273e ed3d 3f33 47bf b558 59be 09ec 53be
00000090: cd21 0c3e b77d d3bc e88c a3bd 0c71 e03e
000000a0: 18cb 18bf 85ce 16be 141a 583e bff8 01bf
000000b0: 68a5 7f3d 68b7 933e 22af 03bf eb7e ee3c
000000c0: 00b0 80bb 5c1b c2be db95 1f3f 5616 083f
000000d0: e879 e5be d8f2 063f 7393 563f e2dc 31be
000000e0: b195 8a3e b0b4 263f 66d6 4a3d 2a45 0b3f
000000f0: 8f58 91be 71e2 523e b557 43be bd83 443e
00000100: 332a 6fbf 2d04 293e dd07 ee3d 983a cdbf
00000110: d056 a93e 526e dbbd 4b5b dc3e f0cb 013e
00000120: eaa6 23be c498 bbbe 9473 80bd bdec 98bd
00000130: 0291 993e 4da0 bb3e 111b bcbd ff15 463e
00000140: cb87 52be c0d8 ccbd 1e0e 243e 28a6 78be
00000150: cb4f 8d3e e119 893c 6295 503f 2967 36bd
00000160: 283c 853e 9d37 30bf d90a ac3e da3c cd3e
00000170: 8794 e33d a4bd 6ebf 4aec a23e f1bb a23e
00000180: 3dd0 523e 4d2d 9bbd e8a1 2fbe 5248 67be
00000190: b704 383d 4859 b5bf 8e4d 1bbd ec53 d93e
000001a0: d1c6 dabe e9ea 543e 99b5 293d 30c7 fdbd
000001b0: 119f 01bf 4e0a ea3d ce8e dabd 73bd 0dbd
000001c0: da71 c4be 25a0 e9be f821 253e 265b 553e
000001d0: 69ff 5fbe 1aad 363d e35f 8a3e 8a3e 07be
000001e0: b287 043f 8efa 4bbf 1098 f9bd 9e03 f4be
000001f0: d3ee dbbe 97ca b1bd 5eda 17bf 2b03 f63e
00000200: 8a7e bdbe 6a4c b03e c4a4 543e 2cc9 0f3f
00000210: 5b6e 42be 8072 1f3f 8026 c8be 1416 9c3f
00000220: 87fb a53e 5cae a13d 89a7 b63e 9100 903e
00000230: 30c6 023d 1abf c1be dccc cfbc 5058 f1bd
00000240: 76ce f8bd 7145 f33e 9d8a c6be ff8e 0dbc
00000250: 4fc4 8b3d 0b88 35be 3738 fcbd b476 ad3d
00000260: bd1f 82bf a562 4bbe ab7a 84be 171f b6be
00000270: ddfb a53e cbc8 2b3f 4158 21bd dc10 57bd
00000280: 1527 1a3f 1a2a e6bf afbd 3cbe b343 7ebd
00000290: 8f3c 1cbf 1c8c 2b3d 1a99 e03e f52e a8be
000002a0: 3c61 a33c 8c91 98ba 4bf0 213e 561d 09be
000002b0: fae8 1ebf 73b7 903e 3b4a d33e bb81 17be
000002c0: 3a9e c5be 8980 193e f47c cabe b0f6 2dbe
000002d0: e3f9 f1bd 1823 9f3e 6de5 3c3f cf9d c2be
000002e0: db8e b33e a994 5c3b e564 99be 9fd5 cabe
000002f0: 34cc 30bf 3cee 1bbf 096d 863e 0267 b33d
00000300: 92bd 63bd ee32 ac3c 00da 99bd d783 94be
00000310: ed1e 31be 75cd 23be a4bb b7be 38b3 653e
00000320: 5acc 093f eac6 6a3e 6754 4bbd 6952 6c3e
00000330: 5f45 d33e 585a d7bd 7778 663f de03 833e
00000340: 8546 36bd 2c6f 03bf 430f 583d b723 aa3b
00000350: d86c cf3c 48ce 48be 7056 5b3d 5e97 5dbe
00000360: 29ae 0e3f abd6 1bbf bb5c 0e3e 29eb 953d
00000370: 9908 55bf 319d 00be 3166 fc3e 9465 e83b
00000380: 44c6 b23e 6cde 59be 8564 29bd fb46 913e
00000390: fd7b 4ebe 8fac 38bf 8493 353e 0eae 333e
000003a0: 5ced 2ebe 2ffd d2bd 8e49 e4bc 0a5f 583e
000003b0: 6c5a f0be aeb0 79bf d856 fd3d 1b03 fbbe
000003c0: a220 ff3e 2aaf e73c c7eb 43bd 7dfe febe
000003d0: 37ed 313c 5808 5dbe 94f5 fdbc 7c02 2f3f
000003e0: 117d 75bd dc83 af3a 7cf8 2b3e 569d adbd
000003f0: f1e7 dbbe 54b9 c9bc eeaa d53e 950e ddbe
0.31940073 0.23939565 0.84685904 0.54371566 0.052673146 0.06515719 0.25138995 -0.037431292
0.12948333 0.034130026 0.030353015 0.26275435 -0.1094398 -0.5019269 0.07230036 -0.10894857
-0.082976945 -0.14604203 0.4655062 0.31313953 0.14355059 1.1575078 0.5694145 0.08646308
0.007013894 -0.3246355 -0.041336697 0.33447084 -0.0742285 -0.5189531 0.28538767 -0.17337446
0.1158412 -0.7781257 -0.21225245 -0.20695509 0.13684769 -0.025816781 -0.0798586 0.43836248
-0.59684896 -0.14727218 0.21103698 -0.5077018 0.062413603 0.28850865 -0.51439106 0.029113254
-0.003927231 -0.379115 0.62338036 0.5315908 -0.4481957 0.527143 0.8381874 -0.17369416
0.2706733 0.6511946 0.049520873 0.5440241 -0.28387877 0.20594193 -0.19076426 0.19190879
-0.93423766 0.16505499 0.116225936 -1.6033506 0.33074045 -0.10714401 0.430384 0.12675452
-0.15981641 -0.36639988 -0.06272045 -0.07467029 0.29993445 0.36645737 -0.0918485 0.19344328
-0.20559613 -0.10002279 0.1602101 -0.24282134 0.2759994 0.016735973 0.8147794 -0.044531975
0.26022458 -0.6883486 0.33602026 0.4008549 0.11112314 -0.9325812 0.318209 0.31784013
0.20587249 -0.07577 -0.17151606 -0.22586182 0.04492637 -1.4167871 -0.03791576 0.4244684
-0.4272981 0.20792736 0.04143295 -0.123915076 -0.5063334 0.11427747 -0.10671769 -0.0346045
-0.38368112 -0.45629993 0.1612624 0.20835552 -0.21874775 0.044598676 0.2702628 -0.1320745
0.51769555 -0.7967919 -0.12187207 -0.4765901 -0.42955646 -0.08681219 -0.59317577 0.48049292
-0.37010604 0.344333 0.20765978 0.5616634 -0.1898741 0.6228409 -0.39091873 1.2194238
0.32418463 0.078945845 0.35674694 0.28125432 0.031927288 -0.3784111 -0.02536624 -0.117844224
-0.12148754 0.47513917 -0.3877763 -0.00864005 0.06824552 -0.17727678 -0.1231541 0.084699064
-1.0165936 -0.19861849 -0.25874838 -0.35570595 0.3241872 0.6710326 -0.039390806 -0.052506313
0.60215884 -1.7981598 -0.18431734 -0.06207628 -0.61029905 0.041881666 0.43866807 -0.32848325
0.019943826 -0.0011640056 0.1581432 -0.13390097 -0.62074244 0.2826496 0.4126757 -0.14795582
-0.3859728 0.14990439 -0.39548457 -0.16988635 -0.1181524 0.31081462 0.73787576 -0.38011023
0.35069928 0.0033657944 -0.2995979 -0.39616105 -0.6906159 -0.6091039 0.26255062 0.087598816
-0.05560071 0.021020379 -0.07512283 -0.29006836 -0.17296953 -0.15996344 -0.35885346 0.22431648
0.5382744 0.22927442 -0.04964104 0.23078312 0.41263863 -0.105152786 0.90027565 0.25588888
-0.044500846 -0.5134151 0.05274893 0.005192246 0.025320455 -0.1960994 0.05354923 -0.21639773
0.557345 -0.6087443 0.13902561 0.07320244 -0.83216244 -0.12559964 0.49296716 0.007092187
0.3491689 -0.21276253 -0.04135563 0.28374466 -0.20164485 -0.72138304 0.17732054 0.17546865
-0.17082733 -0.10302197 -0.027867105 0.21130005 -0.46943986 -0.97535217 0.1237008 -0.49025807
0.49829584 0.028281767 -0.047832277 -0.49803534 0.010859779 -0.21585214 -0.03100089 0.68363166
-0.059933726 0.0013390738 0.16794008 -0.08477275 -0.42950395 -0.024624504 0.41731972 -0.43175188

graph_prop.message_funcs.1.bias f4 [32]
00000000: b2ae 823e 21c6 82be a850 0c3e 6a90 86bf
00000010: 8ccd febe 4375 babe f8a4 91be 7083 eebe
00000020: 9eb0 07bf 1218 21bf 0bd2 0fbe 7a37 6abf
00000030: 4d29 ccbe df42 803c cea6 f3be 5db4 96be
00000040: 9e4e 883c 0a6d 613f 25b5 46bf 9678 01bf
00000050: 794a c6be 22b5 363d de2d a5be 5b1d ebbe
00000060: 32b9 0e3e 4f6e 2f3f 894d c6be 94b5 89bf
00000070: 24a9 5c3e 616e b3bf e751 39bf 90c0 64bf
0.25523907 -0.25541785 0.13702643 -1.0512822 -0.49766195 -0.3641759 -0.28446174 -0.46584654
-0.5300387 -0.62927353 -0.14044969 -0.914909 -0.3987526 0.015656887 -0.475882 -0.2943448
0.01663905 0.88057005 -0.77620155 -0.50574625 -0.38728693 0.044606335 -0.32261556 -0.45920834
0.13937834 0.6852769 -0.3873103 -1.0758538 0.21548897 -1.401806 -0.723906 -0.8935633

graph_prop.node_update_funcs.0.weight_ih f4 [48, 32]
00000000: 9673 5cbe 8607 7fbe 67d5 43bf 74d0 e63d
00000010: f068 933e bc27 84be 102b 0d3f 01c6 113f
00000020: 3ce1 a83e e11e afbd fab9 75be 6468 efbd
00000030: a6b8 903e 3824 8bbe 7f29 babd c3bf d8be
00000040: 240d d1be 6f33 47be ae8a dfbe 26dc d13e
00000050: a946 15be f59a dcbd 8c35 8fbe 47fc 3ebe
00000060: aa2e dc3c b1ed 99be 94c0 2c3f 64a5 1cbf
00000070: 1b2c 47be 7c39 003e c05d e93e eea5 123f
00000080: 7007 1bbf 449b 0cbf f0e9 90bd d01d 49be
00000090: 429e 16bf 7bb7 4f3d be9d 00be 0ce2 40bf
000000a0: 2b38 283e 7a7b bd3e 5360 ad3e 30f3 e33e
000000b0: 7ba6 d0bd 607a 9b3e 367d 93be eeb1 c13d
000000c0: c93e 17be 0a6f e0be b58c 463d 68f0 7e3f
000000d0: 3338 9abd dc7b 37bf 8dc9 82be 7c9e 54be
000000e0: f7d9 d1be ddbc 60bf be19 3a3f 6bf5 2fbe
000000f0: 05d3 a63e acee 06bf 74e3 a9be 4dee 45bf
00000100: 88df 55bb 6aab 0cbf 6fb4 c2bd 8bac 08bd
00000110: 7606 84be ac2d 89be d15e bcbe d8eb 853d
00000120: 9ce2 5d3e 05e0 903d 9c9a cdbe 7e92 b0bc
00000130: f6fe 64be edda 7fbe 41b9 e6bd 16b9 b1bd
00000140: 6596 22be 19e2 a4bd aa93 a7bd a787 5abd
00000150: 51a6 91be 27c7 bebe 1b35 5fbe 8126 92bd
00000160: c897 a53c 3f7b 09be 4fa3 3dbd c902 42be
00000170: f2f4 75be 89f0 67be 8c0c 10be 91f0 87be
00000180: 3814 6fbd 0729 333f e729 193f 5eb1 063e
00000190: 5566 1a3f cd13 c7be 581a 003e ed08 a0bd
000001a0: cbdc b6be b9a2 c33d 2851 df3e 4cdb 01bf
000001b0: 3da7 9fbe 5b04 693f 0e0c 6cbd 9d4f c9be
000001c0: 3f78 383e 6e41 c0bc 6b33 e43d f881 6e3f
000001d0: 1ae8 cdbe 9dd5 15be 3516 2cbf 8a09 a4be
000001e0: 31cf f0be 3104 c3be fa60 e13e 4696 b9be
000001f0: 46cc 273f 77f1 58be 0c0c 96be 86db 443e
00000200: 4d0c 14be ce51 563f 9281 3f3e d306 893e
00000210: 4a7c 2b3f ba31 d13c 844d 90be 03c7 3ebd
00000220: 16c4 183f 3374 233f 67b4 993f 4a67 673f
00000230: 0fb0 563e 8a8d 2b3f 7e6b bdbe 5256 463f
00000240: 59da c13e e095 a6be d9fd ac3d b893 9c3e
00000250: 2661 bbbc 7eca 983d 83dd 9c3d d80a e73e
00000260: 710f f1bd 4e8e 88be b486 133e a73d be3e
00000270: 2304 d43e 93e5 17bf a18e 69be 4da2 c4be
00000280: 83a5 fabd bbed 123f 543f f33d d3a0 3c3d
00000290: 5b5d 02bf 26f9 783e e45d 71bc 75cd 44be
000002a0: 44dd 1dbe 31c1 d9bd 7ed0 1c3f 7b6d febe
000002b0: 2a5a 01bf 5471 a73e f305 36be 164b bd3e
000002c0: 5c64 8fbe 0fce 38bd f0fa 35be 012c ecbe
000002d0: c216 f0be 208f 73be c554 b0bc f8c6 293c
000002e0: cb32 65bf bed8 36be bed9 d53d 691b 14bd
000002f0: 82b2 523e fdff 0b3f d00b d0be 1983 07bf
00000300: 595f 57be 5003 b03e f802 a23e fe0b 08be
00000310: ecbc a93d f97d dfbe ac1d 4dbe f0f7 16bf
00000320: 0b8b 433e ce1f a53e 0552 273f 0ed7 bfbe
00000330: 956b a4be 7687 0e3f 7979 8fbe f991 173f
00000340: 2d1d cb3d c68b aabe 1df4 90bc c399 18be
00000350: 05d7 adbd 6f14 a23e 54ec c03c f831 e03d
00000360: 33ed fbbe 1d41 b73e 709c dabd 01af 9b3e
00000370: e850 083f 494e 5ebf d039 20be b6a3 903e
00000380: da67 70bf 392e 033d 6f77 4a3e 9a19 0dbe
00000390: b8dc 2e3e 1456 cfbe 695c d2be de0c aebe
000003a0: e516 85be 9bc2 dd3d 2532 b73e e1ff 133d
000003b0: 25b9 11bf 17e7 9a3e 84ce fa3d 23aa e1bb
000003c0: 1e36 8ebe 7bf8 73be 478a cebd f422 493f
000003d0: ff79 83be 592a 24bf 03fc 0f3e 2370 47be
000003e0: b3c9 d7be c329 46bf d204 b63e 6cba 583e
000003f0: 96a6 333f 9d65 dcba ec40 0bbf 4bf9 3f3e
-0.21528468 -0.24905214 -0.764975 0.11270228 0.28790998 -0.25811565 0.55143833 0.56942755
0.3298434 -0.085508116 -0.23996726 -0.11689833 0.28265876 -0.2717607 -0.09089946 -0.42333803
-0.40830338 -0.19453214 -0.43660492 0.40988272 -0.14577736 -0.10771743 -0.2797054 -0.18650924
0.02687772 -0.30064157 0.6748135 -0.61189866 -0.19450419 0.12521929 0.45579338 0.5728444
-0.60558224 -0.54924417 -0.0707587 -0.19640279 -0.5883523 0.05071209 -0.12560174 -0.7534492
0.16427676 0.37008268 0.33862552 0.44521475 -0.10188004 0.30366802 -0.28806466 0.094577655
-0.14770044 -0.43834716 0.048474032 0.9958558 -0.075302504 -0.7167337 -0.25544396 -0.20763582
-0.40986606 -0.8778818 0.7269553 -0.17183463 0.3258287 -0.52707934 -0.33181345 -0.77316743
-0.0032634456 -0.5494906 -0.09507071 -0.033367675 -0.2578618 -0.26792657 -0.3679109 0.06539124
0.21668476 0.07073978 -0.4015702 -0.021554228 -0.22362885 -0.24985857 -0.11265803 -0.086778805
-0.15877683 -0.08050937 -0.081824616 -0.053352024 -0.28447202 -0.37261316 -0.21797602 -0.0713625
0.020213977 -0.13425921 -0.04629832 -0.18946375 -0.2401922 -0.2265035 -0.14067286 -0.26550725
-0.05836889 0.6998448 0.5982956 0.13153598 0.60312396 -0.38882294 0.1251005 -0.078142025
-0.35715327 0.09552521 0.43616605 -0.50725245 -0.3118228 0.9102227 -0.057628684 -0.39318553
0.1801462 -0.0234687 0.1114262 0.93167067 -0.40216142 -0.14632268 -0.67221385 -0.32038528
-0.47033074 -0.38089135 0.440193 -0.36247462 0.6554607 -0.21185862 -0.29306066 0.19224367
-0.14457817 0.83718574 0.18701771 0.2676302 0.66986525 0.025536407 -0.2818414 -0.04657651
0.59674203 0.6384918 1.200818 0.9039198 0.20965599 0.67012846 -0.36996073 0.77475464
0.378619 -0.3253622 0.08446855 0.3058145 -0.022873472 0.07460497 0.076594375 0.4512546
-0.11770523 -0.2667107 0.14406854 0.37156412 0.41409406 -0.5933468 -0.22808315 -0.38405076
-0.122386 0.57394 0.11877313 0.04605181 -0.509237 0.24313793 -0.014731858 -0.19219
-0.15416437 -0.106325515 0.61255634 -0.49692902 -0.50528204 0.3270365 -0.17775707 0.3697135
-0.28006256 -0.045118388 -0.17771506 -0.46127322 -0.46892363 -0.23785067 -0.021524796 0.010362379
-0.8953063 -0.17856118 0.10441922 -0.036158953 0.20575908 0.5468748 -0.40634012 -0.52934414
-0.21032466 0.34377527 0.3164289 -0.13285825 0.08287987 -0.43650797 -0.2003085 -0.5897207
0.1909601 0.32250828 0.65359527 -0.3746876 -0.3211333 0.55675447 -0.28022364 0.5920711
0.09917674 -0.33309764 -0.017694527 -0.14902405 -0.08488277 0.31656215 0.02355019 0.10947031
-0.49204406 0.35791865 -0.10674369 0.30406955 0.53248453 -0.86838204 -0.15647054 0.28249902
-0.93908465 0.032026503 0.19772123 -0.13779297 0.17076385 -0.4049536 -0.41086128 -0.33994192
-0.2599403 0.10828134 0.35780445 0.036132697 -0.56923133 0.30254433 0.12246421 -0.006886737
-0.27775663 -0.23825257 -0.10084968 0.7856896 -0.25679013 -0.6412712 0.14060979 -0.1947637
-0.42146072 -0.77407473 0.35550553 0.21164864 0.70176065 -0.0016814951 -0.5439594 0.18747441

graph_prop.node_update_funcs.0.weight_hh f4 [48, 16]
00000000: d850 bbbd e309 9b3e bb9e 123f 3f78 74be
00000010: ddc0 223e 9f49 1bbe ce11 c03c 7f45 f8be
00000020: ba61 5c3d ecdf e83d 59e5 ba3c d334 1b3f
00000030: b99e 013f 24e6 64bf e37b 853e c6d7 dcbe
00000040: a5af 733d 354d 363e a565 a03e 9131 3ebf
00000050: a6d1 4dbd ff4c edbd 860a cbbd 71f2 7ebe
00000060: 0ef4 15be f2a6 bdbe 109e 913e c2f5 13bf
00000070: 45e2 8fbd c7c0 10bf 2e83 8ebe 6651 fabe
00000080: 3f8c ec3d 46a6 be3e e5d8 5d3e fddd 8f3e
00000090: 1dde 8dbe 676c e43e d70b 3abc c76a 40be
000000a0: 0497 f7bd 1924 3bbf d6b3 39bc 1199 40be
000000b0: c8cf af3e 99d7 57be 0cb6 043f a8f4 35bd
000000c0: 9d62 2f3d ea7d cfbe 163a c0bd c81a f9bd
000000d0: 59b2 9abd 9cd3 0a3e f35d 5f3e ba25 18be
000000e0: ac03 b13e 8dde 48be ef03 f43d 9b01 a63e
000000f0: 9907 03be 8389 ad3d d7f0 3a3e 7f36 e1bd
00000100: 61d2 6dbd 54f9 acbe 38cd a03f 5c57 113f
00000110: 40e5 12bf 06c7 d3bd 597c 6ebf 9c98 edbe
00000120: 4303 81bd 6214 453e 9ac0 b5bd 4eb9 c3be
00000130: ed8a 1ebf b551 58be 5a2d 323d bd54 bf3e
00000140: 5a71 9f3e 0fdd 7d3e 6ec8 eebd 01e0 a13e
00000150: 9fc2 86bf 871d 1bbf 5ebd 3a3f 83e7 a8be
00000160: 5dcb 7c3e 0fd9 a3bf 2d6c 183e 9e52 1dbe
00000170: 76fa cc3d f207 993e 20a2 a03d 95e1 733e
00000180: 2bd3 21bd 1971 0e3f a466 2b3e f52d f0bd
00000190: fc3f 62be 181c 67be 184e 803e 4d4c 243e
000001a0: 946b 223e 82e0 a2be 9f54 a53c 6f43 543e
000001b0: 243b d63e 9003 f2be 29e0 10be 37b0 41be
000001c0: d02e ed3d 9dd1 4bbf d877 143f eb13 3ebf
000001d0: fbca 6f3e abf0 38be 6eda 31be e6e6 913e
000001e0: a3bc 8bbe 86f6 61bf b994 00be d5f9 00bf
000001f0: 47da 4b3e 5e1d a2be d2d6 96be 864e c1be
00000200: 69d0 4f3d 4b10 6cbe 155d 1e3e 2f65 e3bd
00000210: 8936 8fbe c621 ac3c 6a5f a93e 6c51 813e
00000220: 4afc 1ebf 4a55 c2bc 74b3 8fbe 8c10 0b3e
00000230: 9c18 58be fa7d 48be 088a 583e 7913 ca3d
00000240: bee6 9ebe 5c9c cabe 7308 573f cb3e 053e
00000250: d6a7 b8be db8a a2be 3851 5c3e 9626 80bd
00000260: 553b 08bd 3862 d73e 1e37 4ebe ddf7 a53c
00000270: 5987 483f 3751 38bf a6ac b4bd 796a 99be
00000280: b2cf c13e 6f33 aebd 8827 32bf ffe2 90be
00000290: 87ca 7dbe c06e 743e f077 513d e64e 423e
000002a0: 991d 353e 0703 143d c504 0cbe 88e5 713e
000002b0: 0f8b e0bd 3661 08bf 0ebe fc3e bd1e dbbd
000002c0: b054 53be 7587 ecbe 590c 5cbe b8ef 913e
000002d0: 6aaa 08bc f4b1 bd3e d531 0abd 3909 d7bd
000002e0: d18a 35be d688 e3bd e418 583e 7d44 82be
000002f0: 9d10 0dbf fadb e6be 9db2 2c3e 3abd b6bd
00000300: 5948 a5be 0774 2fbf bcd6 9cbc d822 b23e
00000310: a6bb b33e 51c8 5dbf 77f6 86be 6bcd e0bd
00000320: 0ea4 0d3e d81b f03e a63f 6bbe c8b2 a23e
00000330: b835 8f3e 7849 613d 9750 34bf c5ea 77bd
00000340: b2a7 af3d 4a32 e73e 30c3 853e 8296 333e
00000350: 5ce5 3abf 75f9 a4be aefe 2bbe 1e0d 4b3e
00000360: ac8e 6b3e d6e3 fcbd f31f 9a3e 8f5a c7be
00000370: d19d 08bf bd22 3abd 0048 793e 9f0d c4be
00000380: 9775 0ebd 5bfe e33e b469 aebd bc07 eebc
00000390: 88ee 89be 1044 aebe af0e c2be daa5 64be
000003a0: a6d6 563e 2311 81be 56aa 28bc dc14 cbbe
000003b0: f1ba 443e 5dc4 673e b0b0 683e b32b 6cbe
000003c0: e139 85be 7a5c 2ebf 036c bebd 05dc 07bf
000003d0: f9b1 8f3e 6d1b c13e 2512 b63d aea9 153d
000003e0: 82e3 2e3f 6964 77be 74ac 713e f8b2 bb3d
000003f0: 1d4e febe 978d a83d 0d73 993e 942c b73d
-0.09146279 0.3028098 0.57273453 -0.23873995 0.15893884 -0.15164803 0.02344599 -0.4849052
0.053804137 0.11370835 0.02281444 0.6062748 0.50632817 -0.89413667 0.2607108 -0.43133372
0.05949368 0.1780289 0.3132755 -0.7429438 -0.050248764 -0.115869515 -0.099141166 -0.24897172
-0.1464388 -0.37041432 0.28440905 -0.5779687 -0.07025579 -0.56544155 -0.27834457 -0.48890227
0.11550187 0.37236232 0.2166477 0.2809905 -0.2770852 0.44613954 -0.011355362 -0.18790732
-0.12089351 -0.73101956 -0.01133438 -0.1880839 0.34338212 -0.21078338 0.5184028 -0.044422776
0.042818654 -0.40525752 -0.09386079 -0.12163311 -0.07553548 0.13557285 0.21813183 -0.14858142
0.34573114 -0.19616146 0.11914813 0.324231 -0.12795867 0.08473494 0.18255936 -0.109967224
-0.05806196 -0.33783972 1.2562628 0.56773925 -0.5738106 -0.10340695 -0.9315849 -0.46405494
-0.0629945 0.19246057 -0.088746265 -0.38227314 -0.61930734 -0.21124919 0.043500282 0.37369338
0.31141168 0.24791358 -0.11659323 0.31616214 -1.0528144 -0.6059193 0.729452 -0.3298913
0.24686952 -1.2800616 0.14885016 -0.15363547 0.10008709 0.29888874 0.07843423 0.23816521
-0.039508026 0.55641323 0.16738373 -0.117275156 -0.2209472 -0.2256931 0.2505958 0.16044731
0.1586135 -0.3181191 0.020181952 0.20728849 0.41841996 -0.47268343 -0.1414801 -0.18914877
0.115811944 -0.7961672 0.5799537 -0.7424914 0.23417275 -0.18060558 -0.1736848 0.28496474
-0.27292356 -0.8826679 -0.12556733 -0.50381213 0.19907485 -0.3166303 -0.2946077 -0.3775522
0.050735865 -0.2305309 0.15465195 -0.111032836 -0.27971295 0.021012198 0.33080608 0.25257432
-0.6210371 -0.02372231 -0.280666 0.13580531 -0.21103138 -0.19579306 0.21146405 0.09866995
-0.31035417 -0.39572418 0.8399727 0.13012235 -0.3606555 -0.31746563 0.21515357 -0.0625736
-0.03325971 0.42067122 -0.20138213 0.020259792 0.78331524 -0.71998924 -0.088219926 -0.29964045
0.3785377 -0.08505904 -0.6959157 -0.28298184 -0.2478429 0.23870373 0.051139772 0.1897541
0.17687072 0.0361357 -0.13673694 0.23622715 -0.10964023 -0.5327333 0.4936375 -0.10699222
-0.20637774 -0.46197096 -0.21489085 0.28503203 -0.008341411 0.3704983 -0.03373893 -0.10499806
-0.17728736 -0.11110084 0.21103245 -0.25442877 -0.55103475 -0.45089704 0.1686501 -0.08922811
-0.3228176 -0.6853642 -0.019145362 0.3479221 0.35104102 -0.86633784 -0.26359913 -0.1097668
0.13832113 0.46896243 -0.22973499 0.31777024 0.27970672 0.055001706 -0.7043547 -0.060526628
0.08576907 0.45155555 0.2612548 0.17537883 -0.73006225 -0.3222157 -0.16796371 0.19829223
0.23003644 -0.12348144 0.301025 -0.38936278 -0.5336581 -0.045443285 0.24343872 -0.38291642
-0.03478011 0.44529995 -0.08516255 -0.029056422 -0.26939797 -0.34036303 -0.37901828 -0.22328892
0.2098032 -0.25208387 -0.0102945175 -0.39664352 0.19211937 0.226335 0.22723651 -0.23063545
-0.2602072 -0.6810986 -0.09297945 -0.530701 0.2806547 0.37716237 0.088901795 0.036538772
0.683159 -0.24159397 0.23600942 0.09164995 -0.4966897 0.08230131 0.2997059 0.089440495

graph_prop.node_update_funcs.0.bias_ih f4 [48]
00000000: dac7 a23f 38f7 37bd 1b3e 16bf c8e8 82bf
00000010: faf5 d73f a285 473f b203 8b3e e64c 433f
00000020: fc31 f6be e8cc 6bbe 8962 b7be 19ca 7f3f
00000030: 4eec e13e dad0 d5be ec4a 413f 2711 ee3e
00000040: be74 bb3f 8652 1ac0 9625 b33e d836 733f
00000050: 47db 713f 61f7 ebbf ea09 b8bf 4d56 20bf
00000060: 8a57 b3be 929e 46bf f8d2 45bf 8709 c3be
00000070: d15d 843f 8c1f 073e b473 5ebf a976 0f3f
00000080: 22f5 91bf 8f5a 92be 014a 7d3e 71b6 b13f
00000090: 3669 74be bacc e23f ced4 be3f 0437 e8bf
000000a0: 2d41 503f 91dd d83b 98fa 633f 1406 a93e
000000b0: ae6e 243f 0da1 f2bf 7ee0 fc3e f99e cd3e
1.271724 -0.0449135 -0.58688515 -1.0227289 1.6871941 0.7793828 0.27151257 0.7628921
-0.4808501 -0.23027384 -0.35817364 0.9991775 0.441256 -0.41760904 0.75504947 0.4649746
1.4645002 -2.4112868 0.34989613 0.9500556 0.94475216 -1.8434869 -1.4378026 -0.62631685
-0.35027725 -0.7758571 -0.7727504 -0.38093206 1.034113 0.13195628 -0.868953 0.56040436
-1.1402934 -0.28584716 0.24735261 1.3883802 -0.2386826 1.7718728 1.4908693 -1.814179
0.8134945 0.0066182096 0.8905425 0.3301245 0.64231384 -1.8955399 0.49390024 0.4016035

graph_prop.node_update_funcs.0.bias_hh f4 [48]
00000000: 8cf9 16be ad0a 0f3f d388 ca3f e206 3d3f
00000010: 47db dbbf 2dd6 b3bf e7e2 b43e 0742 df3d
00000020: da7c 8fbe 4cfd a83e b28e 68bf f4cf 92bf
00000030: c00c 893f 5c88 d13f 7141 e93e 872e 273f
00000040: 7c12 b43e 0449 c5bf 2cce 82bf 4aaf 5f3f
00000050: adcb 1d40 0bf4 15c0 36e4 9fbf 8a56 b3bf
00000060: 62f4 863f e57e d63f 9c97 20c0 2f6c a8bc
00000070: 72bb a23f cfd6 d9bf 0560 acbf dd6c c7be
00000080: 898e cfbe 35f3 6ebf 9336 983f e59a 423e
00000090: e821 7dbf 3d23 2bbf 6d3d e83e 015e debf
000000a0: 579e 2cbd 14a3 a3bf 09a1 253f a84c d3bf
000000b0: b4f1 9dbf 2dcf 20bf 8dca df3f 48a7 c73f
-0.14743632 0.55875665 1.5823005 0.7383863 -1.7176293 -1.4049736 0.35329363 0.109012656
-0.28024942 0.3300575 -0.90842736 -1.1469712 1.0707016 1.6369739 0.4555774 0.6530537
0.35170352 -1.5412908 -1.0219169 0.87376845 2.4655564 -2.3430202 -1.249152 -1.4010785
1.054333 1.6757475 -2.5092535 -0.020559398 1.2713454 -1.7018679 -1.3466803 -0.38950244
-0.40538433 -0.93339854 1.1891655 0.190044 -0.9887986 -0.66850644 0.45359364 -1.7372438
-0.042143192 -1.2784142 0.64698845 -1.6507769 -1.2339387 -0.62816125 1.7483689 1.5597925

graph_prop.node_update_funcs.1.weight_ih f4 [48, 32]
00000000: e773 ccbe 520d 1fbf 3880 64bf 1b89 2dbf
00000010: d16a a5be ed8f 073d 6779 e9be 6c7a 79be
00000020: ba87 903d 94f3 c9be 620d 72be ac22 2cbf
00000030: c8a8 fa3d 6d90 86be 884d 45be 4dfc 29bf
00000040: 5115 823e f13b 0f3d 57e0 0fbf 9c23 babd
00000050: 6c9b adbe 4e7a 79be 7cad 51bf 2656 5bbf
00000060: fc5a 993e 381d 803e ac86 f2bd 3494 c3bd
00000070: 1666 583e a04b 993b 194c 2c3c baf1 8dbe
00000080: 57b3 36bf 86c0 45bf 2066 3dbd 0298 8abe
00000090: e24c 4f3e 7a84 3c3f 7194 6ebb e217 b2be
000000a0: c775 823e cab8 f53e 28cb 4a3e efc4 853f
000000b0: 18d8 853f 35e7 24bf ef4c 03be 5884 6cbe
000000c0: 6ca0 e13e a6d6 253e 5dc3 edbe c9d3 283e
000000d0: 1156 943e b751 e5bd 362f 9cbe 6c1d 123f
000000e0: ca4c 873e f258 bd3e ad51 2e3f c0a1 853e
000000f0: e106 873e e566 093f c9f2 08bf c9eb a4bb
00000100: 4ee5 a53e 7658 34be 96e2 d53d 2768 3bbf
00000110: bbb7 b33d 5b38 e7be a545 dcbe a2c3 52bd
00000120: e9fe 0abf c333 e2be 7a3b e1bd 7351 11bf
00000130: 6234 cebe 077d 99bd c62e 15be b68b c3be
00000140: 935d b0be b346 7f3d 8f89 28be a883 95be
00000150: 69d1 413f f4b8 3cbe 2ac6 e63d 57b8 47bc
00000160: efcc 8abe d625 c3bd ffac b2be e966 03bf
00000170: a371 19bf 98eb 5ebf 303f 27be 89c4 e0bd
00000180: 169f 72be 929c 763d d129 553e 2b0c f03e
00000190: 21a1 0a3f b7d8 033e 9827 093f 5305 e13c
000001a0: 8019 c8ba c59a fb3e 1e35 0b3f fa08 bfbd
000001b0: 62c5 023e 6b60 cd3e 5e22 463f e753 d83e
000001c0: 832f f9bd 3efa 1bbf bad7 2e3f 59f6 293e
000001d0: 0845 bc3e afd9 8e3c f71c 9a3e 9f8c 9e3e
000001e0: 98b0 e23c 4114 a1be fba8 0ebe 32e6 df3d
000001f0: bf90 28bf 304f d33e 5d8e f83d 076d 853e
00000200: d0d6 163e 1f4a 983d e23c 40bd d568 03be
00000210: 6e92 03bf b688 bbbc 847a c43e bbd3 b1ba
00000220: bf45 183e 4a2a 51be 0acd b3bc 75ca e4bd
00000230: a031 403f 4791 55bd a6c2 103f 11c9 363f
00000240: 2f10 6b3c 42be 203e ff2f 1bbe f4ab bdbe
00000250: b393 68bd eb2c ec3e 43a7 153e d396 843e
00000260: d842 53be 550f 1d3f 9ee9 47be 0b58 363e
00000270: cdd3 0c3d 3fa6 463d b7ee 2bbe 3abc d9be
00000280: 05e7 3e3e 6455 8b3e 6c83 d03e 15f1 f83e
00000290: 9033 1e3e 4823 c63e 8fdc 323f 129a 1e3f
000002a0: b606 0b3f 0c6b 8d3e 2dfe 8f3e a6a7 183e
000002b0: 00fe ec3e fef1 593e a2d4 d23e 9f6a 4f3f
000002c0: 2fde de3e f1b4 36be 308f 57be 04a4 a9be
000002d0: 7258 8abe c3cb c43e 647d 2e3d c0e4 463f
000002e0: 0e8d 9ebe a9ff 3e3e 3aa5 11be 7ecd e33e
000002f0: b138 b8be a940 4c3f 814c 52bc c8e8 df3e
00000300: 32db 513f c8e6 a7be 62e2 863e f4f6 72bf
00000310: b82e d63e 66b2 0abf ad5d 2abe 3156 a93f
00000320: 84ed 40bf 9d08 d3be 213b 8dbe 2e92 a0be
00000330: 222b 11bf 73da a13e b1d8 4abf 3bac 87be
00000340: 58e9 d6be db39 723e 5aca 15bd 3d11 803e
00000350: 9b9c 783e 9e99 76bf bc2b 1d3e aad5 3c3f
00000360: 605e a9bd 1c63 c43c 74d1 513e 4204 003f
00000370: 96c9 1e3e 07b2 7dbe 4119 823e c5f7 1cbe
00000380: e9f5 3d3c c09b 1cbf 76ce 20bf 5d1a 57be
00000390: 6fcf 2abf b47b d73e 2d01 59be 4e2c 22bf
000003a0: 76b6 ca3e 0ad0 18bf e8c9 8dbe 4c4d 923d
000003b0: 0a4c 913e f525 89bd 673e 82be f55c 16bd
000003c0: c035 463e bc8d e83e cafa b0be ba4f b93d
000003d0: 0267 ccbe fccb 533e f255 483e 65f9 d6be
000003e0: ad95 6f3e f92b 5e3e 8dbc a5be cc7e 04bf
000003f0: 5924 9e3e d1a2 efbe 4b22 0bbe 351c 3bbd
-0.39932176 -0.621297 -0.89258146 -0.6778733 -0.32308057 0.033096243 -0.45600435 -0.24363106
0.07057138 -0.39443648 -0.23637918 -0.67240405 0.12239224 -0.26282063 -0.19267857 -0.66400605
0.25406888 0.034969274 -0.5620169 -0.09088823 -0.3390764 -0.24363062 -0.8190534 -0.8567833
0.29952228 0.25022292 -0.11842093 -0.09549752 0.21132693 0.0046782047 0.01051619 -0.27723485
-0.713674 -0.7724689 -0.046239972 -0.27069098 0.20244172 0.73639643 -0.0036404396 -0.34783846
0.25480482 0.47992545 0.1980406 1.0450724 1.0456572 -0.64415294 -0.12822317 -0.2309736
0.44067705 0.16195163 -0.46438113 0.1648704 0.28971913 -0.111972265 -0.3050477 0.57076144
0.26425773 0.36981922 0.6809338 0.26099968 0.26372436 0.5367263 -0.5349546 -0.0050329906
0.32401508 -0.1761187 0.104436085 -0.732058 0.08775278 -0.45160183 -0.43021885 -0.0514561
-0.5429521 -0.44180116 -0.109976724 -0.56764907 -0.4027434 -0.0749455 -0.14568624 -0.38192528
-0.3444639 0.062323283 -0.16458724 -0.29202008 0.7571016 -0.18429929 0.112682655 -0.012189946
-0.27109477 -0.09528701 -0.3489761 -0.51328903 -0.5993902 -0.8707824 -0.16332698 -0.10974986
-0.23693499 0.06020791 0.20816733 0.46884283 0.54152113 0.12875639 0.5357604 0.02746836
-0.0015266389 0.49141517 0.54377925 -0.09327884 0.12770608 0.40112624 0.7739619 0.42251512
-0.12167265 -0.60928714 0.6829792 0.1659788 0.36771417 0.017437784 0.30100223 0.3096666
0.027672097 -0.31460765 -0.13931648 0.10932578 -0.65845865 0.41271353 0.12136529 0.26059744
0.14730382 0.074360125 -0.046933062 -0.12832959 -0.5139531 -0.022892337 0.38374722 -0.0013567129
0.14870356 -0.20426288 -0.021948356 -0.11171428 0.7507572 -0.0521405 0.5654701 0.71400553
0.01434712 0.15697578 -0.15155028 -0.37045252 -0.056781482 0.4612802 0.14614587 0.2589632
-0.20630968 0.6135152 -0.19522712 0.17807023 0.034381676 0.04849839 -0.16790281 -0.42526418
0.18642814 0.27213585 0.40725267 0.4862143 0.15449357 0.38698792 0.69867796 0.6195384
0.54307115 0.27620733 0.28123608 0.14907703 0.46287537 0.21283719 0.4117785 0.81022066
0.43528888 -0.17842461 -0.21050715 -0.33132946 -0.27020603 0.38436708 0.04260005 0.77692795
-0.3096699 0.18652214 -0.14223185 0.44492716 -0.35980752 0.79786164 -0.012835623 0.43732285
0.8197509 -0.3279326 0.2634459 -0.9490807 0.4183252 -0.54178464 -0.16637297 1.3229429
-0.7536242 -0.4121751 -0.27584174 -0.31361526 -0.5670644 0.31611976 -0.79236895 -0.2649859
-0.41974902 0.23654883 -0.03656993 0.25013152 0.2427849 -0.9632815 0.15348715 0.73763525
-0.08269954 0.02397304 0.20490056 0.50006497 0.15506586 -0.24774943 0.25409892 -0.15328892
0.011594274 -0.61175156 -0.62815034 -0.2100615 -0.6672277 0.42086565 -0.21191855 -0.63348854
0.39592332 -0.5969244 -0.27693105 0.071436495 0.28378326 -0.06696693 -0.25438234 -0.036709744
0.19356441 0.45420635 -0.34566337 0.0904841 -0.3992234 0.20683283 0.19564036 -0.41987148
0.2339694 0.21696462 -0.32370415 -0.51755977 0.30887106 -0.46803907 -0.135873 -0.045681197

graph_prop.node_update_funcs.1.weight_hh f4 [48, 16]
00000000: 26eb cd3d de7f 7a3e d703 e73e 1599 ecbc
00000010: 8992 a43d d784 9abe 95be 003f 96ad cbbe
00000020: c592 13be e522 a63e a9fe e53c 1330 14bf
00000030: a2bd 47bd 7716 6abf 75a6 d63e b011 22bf
00000040: ad89 003f 9043 a93d 3cd2 443f 4227 1a3f
00000050: 2ccd 25bf 7a50 7fbe 725d 3d3e a912 e9be
00000060: b5ad a03d d3a5 0ebf 1382 183f 8a05 c3bd
00000070: f9d4 e03e 9e97 7dbf 6108 603e 68dc 02bf
00000080: 4b3f 0e3f 157b 783e bf61 a5bd ad38 1ebe
00000090: 6ecc c33e aa02 9f3e 4e9c 923e 9a4f f3be
000000a0: 204a 9d3e 86e9 24bc c958 e03e 9252 21bd
000000b0: b569 29bf 6b94 82bd fb51 d5bd bea3 123e
000000c0: 2305 97be b72a fc3d 8e7d 60bc 786c f1bd
000000d0: d3b4 263f c436 4e3d 08a0 34bf 91e7 473b
000000e0: f882 aa3e 1a88 c2bd 2d3f ad3d d5f3 143f
000000f0: 17a5 bcbc ebfc a83e d782 6cbf 721e 813f
00000100: 9cdc 0e3e 2251 d93d 5650 6c3d 6a73 8f3e
00000110: b8d7 f7bd 6944 933e 32a6 4f3e 86f1 9dbe
00000120: c604 dbbe 2ed1 763e 9432 15bd d256 bebc
00000130: bce9 153e c446 27be e224 823e 6b2e ad3d
00000140: d433 b23d e207 ebbe e578 6d3f 9eb0 2e3f
00000150: c278 ce3d 5450 a7be 0aa5 15bd 636e f63d
00000160: 1da9 24bf 6a12 a63e 5a8f b53c a6f6 96bd
00000170: 79a2 163f e4c0 b23e ad2b 59bf f419 dd3e
00000180: 1619 24be 3918 c7be cde0 623d beb4 0cbe
00000190: 0153 ac3d acb9 fc3d 6543 243f 2160 2fbd
000001a0: 2216 543f 4869 c13e b1b3 9fbe e25b 77be
000001b0: 5da6 0fbf 2e82 9fbe f010 833e 77b8 85be
000001c0: 9d5e ae3d ebb0 1bbf 206d 1b3e 74dc b63e
000001d0: 1fb9 19bf 8e93 21bf 7254 963f 8a41 58be
000001e0: e526 473d 2ae2 803e 31ea 523e 20ff 21be
000001f0: 7d86 513e 717e 06bf ee16 a33e fa0a 49bf
00000200: e6d9 62bf d2ef d9bd e68d 9bbd 2d9f 8dbd
00000210: cf71 343e 7c40 2b3e 5b0a 843c 2065 393e
00000220: 447f 893e adfa 40be 403b cb3e 0e9d ffbd
00000230: cb05 90be d1c7 863e 9d80 6e3e 4a5e afbd
00000240: 8897 da3e a697 5a3e f323 463e 7021 803e
00000250: 0f60 3a3e 467c 8e3e f65a 4a3f 13be 56be
00000260: 147a e9be 1a04 a53e bf8b 9d3d fd72 69be
00000270: 5f6e a03e d250 33bf 3d8d 7c3e a8d3 c63d
00000280: 4906 753e b3e4 53bf c22f 2f3e 5ba1 cf3e
00000290: b100 0dbe 4ceb 4ebe e67d 573e 41fb 23bf
000002a0: 07cc 193f 5a2f 283e 78d4 0a3f dfaa 7c3e
000002b0: 0ebd 903e a68f 0cbf a699 e33d e82b 1abd
000002c0: 65c7 5e3e bd7c 7e3d 4d8d 243e 5efd b63e
000002d0: d18f 953e 6317 ad3e a9d1 063e b9c3 5a3e
000002e0: 0663 5bbd f045 aebd 34b3 68bf 4a8e 10bf
000002f0: e3fa 45be 79f1 9bbe a70e afbe 97a3 5a3e
00000300: 4133 a73e 4e18 c2be 011c 3ebd 15ab 733e
00000310: a533 853e 738d 0b3d fd01 b53e 5240 bd3c
00000320: 4987 20be 712d 713e 6228 aebd 9de9 a4be
00000330: eb24 13bf b0b5 c5be dfde a93e bc81 83be
00000340: 6f64 bf3e a10b 79be 9c1d b2be ff5a 45bf
00000350: a38e a8be 8b2e 56bd 07a5 923d 560f ea3e
00000360: a079 1ebf 4ef7 57bf 89d8 d53e f68c 5f3d
00000370: b3e6 32be efeb 493c 2046 c53c 560c d23d
00000380: fbf8 18bf 8ae4 803e 5b45 903e b776 833e
00000390: 3f7f 81bd 481e 343d 3edf ab3e 649a a6be
000003a0: e254 753e aa25 993c 6624 913e 9d1f b2be
000003b0: 4743 853e 1f8d f73c 6bc6 fd3e fefc 09bf
000003c0: b670 f8be a970 7fbd 49ea 64be 41ff a1be
000003d0: 7e10 0dbf 89fa a4be 738a 453e 1c73 a5be
000003e0: f500 6fbf 8a84 b1bd 096b 143f 50eb bbbe
000003f0: 13b2 16bf 683c 8fbf ca58 0c3f a0a1 03bf
0.10054617 0.2446284 0.45120117 -0.028881589 0.08035762 -0.30179474 0.50290805 -0.39780873
-0.14411457 0.32448497 0.028075533 -0.57885855 -0.048764832 -0.9144053 0.41923872 -0.6330824
0.50210077 0.0826484 0.7688329 0.6021615 -0.6476619 -0.24933043 0.18492678 -0.4552205
0.07845632 -0.5572178 0.5957348 -0.09522541 0.43912485 -0.99059474 0.21878196 -0.51117563
0.5556533 0.24265702 -0.08075284 -0.15451308 0.38241905 0.3105672 0.28634876 -0.4752167
0.30720615 -0.010065442 0.43817738 -0.039385386 -0.6617692 -0.06375965 -0.10416027 0.14320275
-0.29496107 0.12312835 -0.01370181 -0.11788267 0.65119666 0.050345197 -0.7055669 0.0030503015
0.33303046 -0.094986156 0.084593154 0.5818456 -0.02302794 0.3300546 -0.92387146 1.0087416
0.13951343 0.10611178 0.0576938 0.2801774 -0.12101692 0.2876313 0.20278242 -0.3084833
-0.4277708 0.24103233 -0.03642519 -0.023234759 0.14639944 -0.16335589 0.25418764 0.08456119
0.08701292 -0.45904452 0.92762595 0.68238246 0.100816265 -0.32678473 -0.036534347 0.12032773
-0.64320546 0.32435924 0.022163082 -0.07371263 0.58841664 0.3491279 -0.8483227 0.43183863
-0.16025195 -0.38885668 0.055390168 -0.13740823 0.08414269 0.123401016 0.64165336 -0.042816285
0.8284627 0.37775636 -0.3119178 -0.24156144 -0.56113225 -0.31154007 0.2559886 -0.26117298
0.0851414 -0.6081683 0.15178347 0.35715067 -0.600481 -0.63115776 1.1744521 -0.21118751
0.048621077 0.2517255 0.2059715 -0.15819979 0.2046146 -0.52536684 0.3185343 -0.78532374
-0.88613737 -0.10641445 -0.07595424 -0.06915126 0.1762154 0.16723818 0.01611822 0.18104982
0.26854908 -0.18845625 0.39693642 -0.12481128 -0.2812942 0.26324323 0.2329125 -0.08562906
0.42693734 0.21346912 0.19349651 0.2502551 0.18200706 0.27829188 0.79045045 -0.20970945
-0.4560095 0.32229692 0.0769267 -0.22797771 0.31334206 -0.70045197 0.24663253 0.09708339
0.23928179 -0.8277084 0.17108062 0.40552792 -0.13769795 -0.20206946 0.2104412 -0.6405526
0.60076946 0.16424313 0.5423045 0.24674557 0.28269237 -0.5490669 0.111132905 -0.03763953
0.2175575 0.06213068 0.16069527 0.3574018 0.29211286 0.33806905 0.13165917 0.21363725
-0.053561233 -0.08509433 -0.9089844 -0.56467116 -0.19333987 -0.30457667 -0.34190866 0.21351467
0.3265629 -0.37909168 -0.046413425 0.23795731 0.26015964 0.034070443 0.3535308 0.02310196
-0.15676607 0.23552491 -0.08503796 -0.32209483 -0.5747821 -0.3861518 0.3317785 -0.25684917
0.37381312 -0.24320842 -0.34788215 -0.77091974 -0.32921323 -0.05229048 0.07160383 0.45714825
-0.61904335 -0.8436173 0.41766766 0.05457779 -0.17470817 0.012324317 0.02408129 0.10256259
-0.59754914 0.2517436 0.28177914 0.2567651 -0.063230984 0.04397419 0.33568758 -0.32539666
0.23958161 0.018694717 0.28348082 -0.34789744 0.2602789 0.030218659 0.49565443 -0.5390166
-0.48523492 -0.0623633 -0.22354998 -0.31640056 -0.5510329 -0.32222393 0.19291095 -0.32314384
-0.93360835 -0.08667858 0.5797582 -0.36702967 -0.5886547 -1.119031 0.5482298 -0.51418495

graph_prop.node_update_funcs.1.bias_ih f4 [48]
00000000: eadb 893f e640 503f c494 2b3f 6138 47be
00000010: c3ad d23d 2854 34be 73bd f13e d68a b5be
00000020: 0bd1 81bf 9dee 91be ae21 1f40 6d4c d4bd
00000030: c5bc 923f bc61 babf b49c d43f e178 f13e
00000040: b6e7 9abe 7c09 7a3c e6e1 5540 1f2c e43f
00000050: c091 473f f7b7 10c0 3f2e 963f 5b3a 0abf
00000060: 73d5 10c0 22c1 5040 92b4 bcbf 130e aabf
00000070: 446e b2bf 1d7d 2940 9c8c 873e 154f f8bf
00000080: 63ff 7e3e e7d0 2940 488e 02c0 cfcf dbbf
00000090: 301e 2e3b a4b1 113f 8e60 0abf 5f03 f7bf
000000a0: abfc 1b3f f142 25be bdc3 ef3e 2400 c7bd
000000b0: 1a38 463e c83d 09c0 a662 8cbf 4046 18c0
1.0770237 0.8134903 0.67023873 -0.194551 0.10287049 -0.17610228 0.4721485 -0.35457486
-1.014192 -0.2850236 2.4864306 -0.103661396 1.1463858 -1.4561076 1.6610322 0.47162536
-0.30254906 0.01526105 3.3419127 1.7825965 0.7795677 -2.2612283 1.1732863 -0.53995293
-2.263028 3.261788 -1.4742606 -1.3285545 -1.39399 2.6482613 0.26474464 -1.9399134
0.2490211 2.6533754 -2.0399342 -1.7172793 0.0026568286 0.56911683 -0.5405358 -1.9297904
0.60932416 -0.16138817 0.46829024 -0.09716824 0.19357339 -2.1443958 -1.0967605 -2.3792877

graph_prop.node_update_funcs.1.bias_hh f4 [48]
00000000: c745 62be 8959 813e 97b1 a0be 49bd cfbe
00000010: 4f00 98bf c90c d13f 7a51 843f e6b7 a63f
00000020: aa9e 0a3f 629b 15c0 f4bf 76bf 8208 b5bf
00000030: 6886 3c3f f61b 5c3f 2a8b c73f c116 0e3f
00000040: 5a21 57c0 5a95 97bf b864 013f 6489 263f
00000050: 3e5f e33f dbee dfbd 6802 ad3e 56ad 8a3f
00000060: c157 7f3f 305f 223f 205d b43e bd23 6fbf
00000070: 018a 2cbf 552d 723f 27b5 d2bf aaca 65bf
00000080: 0723 2b40 fb0a 6340 221d bdbf 4672 45bf
00000090: ba4f 423f b94d 523e 3ac9 433f 6647 cfbf
000000a0: d034 5d3f fb07 10bf b0d6 77be 62bf c1be
000000b0: ea29 9f3e c667 7f3f 249a ebbe 7296 a9bf
-0.2209693 0.25263622 -0.3138549 -0.405741 -1.1875094 1.6332027 1.0337365 1.3024871
0.5414835 -2.3376088 -0.9638665 -1.4143221 0.7364259 0.85980165 1.5589345 0.5550347
-3.3614106 -1.1842453 0.5054431 0.6505339 1.7763441 -0.1093423 0.33790898 1.0834148
0.99743277 0.63426495 0.352273 -0.9341391 -0.6739808 0.9460042 -1.6461533 -0.89762366
2.674013 3.5475452 -1.4774516 -0.7712749 0.75902903 0.20537461 0.7647892 -1.6193664
0.8640871 -0.5626218 -0.2420299 -0.37841326 0.31086665 0.9976772 -0.46016037 -1.3249037
