housingpipeline/housingpipeline/dgmg/model.pth (torch, 852393 bytes, 64 tensors)

graph_embed.node_gating.0.weight f4 [1, 32]
0.55295247 0.18552348 -0.08872523 0.070633054 0.41116753 0.020736957 0.2932253 0.13460903
0.10758786 0.46370378 0.1702909 -0.39928758 -0.4142733 -0.08595606 0.019826857 -0.39218116
-0.19745727 0.093496166 -0.049869753 -0.2777092 -0.003802295 0.32972488 0.26165625 0.42190158
-0.09777533 0.4737308 -0.076483145 0.20103252 0.10394094 0.29685205 0.21369338 0.2995737
00000000: 4b8e 0d3f def9 3d3e 93b5 b5bd 10a8 903d
00000010: 8d84 d23e 8de0 a93c a021 963e f3d6 093e
00000020: 0657 dc3d 956a ed3e bd60 2e3e 6c6f ccbe
00000030: a11b d4be bb09 b0bd ef6b a23c f8cb c8be
00000040: 3d32 4abe eb7a bf3d 3a44 4cbd e62f 8ebe
00000050: ed2f 79bb b3d1 a83e cff7 853e 7c03 d83e
00000060: 6f3e c8bd d88c f23e 32a3 9cbd 78db 4d3e
00000070: fdde d43d fefc 973e 70d2 5a3e b961 993e

graph_embed.node_to_graph.weight f4 [128, 32]
-0.043739524 0.34609017 0.04036281 0.32875445 -0.124406494 0.0053133494 0.15697287 0.50913405
0.058935415 0.14537565 0.12574048 -0.3420895 -0.1348256 0.18546876 -0.21363758 0.18157102
-0.27452943 -0.17716561 -0.05801666 0.05697441 -0.18522829 0.32639614 0.10091713 -0.001189431
-0.21234673 0.021121984 -0.0046717376 -0.09134251 -0.39087364 0.21739918 -0.109107524 -0.09147718
0.0145013165 -0.23471226 0.23692977 -0.22382978 0.08389904 0.07573401 -0.34564403 -0.5362892
0.06444986 -0.41100192 -0.023779608 0.34555018 -0.10843937 -0.16261512 -0.043146364 -0.10605849
-0.41750613 0.25200325 0.097880945 0.1600804 0.054031983 -0.060492147 -0.0071331067 0.031759962
0.0034594699 0.22286648 0.21526152 0.26430833 -0.23951364 0.4328937 0.23323655 0.14823675
-0.24338162 0.11720896 0.04333297 -0.19430362 0.09070635 -0.18176529 0.19424288 -0.318577
-0.08839009 -0.023115339 -0.108889185 0.095904216 -0.14128385 0.051270504 0.15063022 -0.070570245
0.2034492 -0.21908505 0.23131305 0.056395918 0.23973872 -0.03403345 0.13099565 -0.37425476
-0.10954488 0.26509482 -0.17139517 -0.24833436 0.260468 -0.03163797 -0.20605883 0.019877888
0.10105433 -0.025376135 0.013660725 -0.0053625065 -0.20979454 0.006489329 -0.082658395 0.34424922
-0.30267698 0.085051306 -0.22883096 0.07217285 -0.036976237 -0.3477606 0.06813934 -0.13099656
-0.36591464 0.077747226 0.0023022294 0.003955186 -0.15248138 -0.068541534 0.015577437 0.04023456
0.060046107 -0.116739914 -0.015257227 0.2695572 -0.15414545 0.15206993 0.0053422176 0.18771455
0.15584324 -0.58159304 -0.22300383 -0.2274499 0.103362836 0.14977233 -0.03794317 0.0942432
-0.12831263 -0.2794107 0.4530456 -0.12899591 -0.007944697 0.18700506 0.38194454 0.038538612
0.27742603 -0.034517493 0.21733993 0.03219396 0.2909152 0.25567546 0.092362784 0.16452052
0.0025367292 0.24563453 -0.16392076 0.2115689 -0.08159466 0.0025637913 0.15115704 0.20342118
-0.13759401 -0.25087833 0.06933741 -0.48226064 0.16763307 0.10630614 -0.26512825 -0.28364515
-0.26003253 -0.5333501 0.14864339 0.30087763 -0.13011761 -0.014187879 0.21821032 0.06486754
0.28773463 0.27809325 -0.04103085 -0.3027457 0.3892892 0.2699119 -0.08463127 0.24697094
0.33189783 0.010522921 0.012931798 0.040154926 0.29305246 -0.03183393 0.23153149 0.13736051
-0.23737302 -0.007770456 -0.28573373 -0.014636289 -0.11877854 0.1370125 0.26104638 0.12754567
0.4832631 0.061786138 0.24846584 -0.033791468 -0.07447615 0.43630773 0.18090285 0.1238618
0.13797262 0.031250544 -0.15563448 0.27324596 0.20266047 -0.120029435 -0.19757694 0.09322351
-0.08845346 0.08607701 0.08896114 0.20912634 0.18904608 -0.19227321 0.104290955 -0.09752124
0.049730822 -0.19373684 0.15596864 -0.25900242 0.05710181 0.083414935 0.34942544 -0.2063894
-0.17340156 -0.2412173 -0.14452861 0.037148878 -0.15111084 0.07077893 0.28669184 0.19260517
0.05514807 0.14387588 0.5007739 0.11830399 -0.058765955 0.065986276 0.053101204 0.05451923
0.06993873 0.2545977 0.027065827 0.05700917 0.14319548 -0.09856421 0.35602772 0.056816995
00000000: 3728 33bd bb32 b13e 7953 253d 8152 a83e
00000010: d5c8 febd 9b1b ae3b 7fbd 203e 9c56 023f
00000020: 4366 713d 5bdd 143e 1dc2 003e 5b26 afbe
00000030: b90f 0abe 86eb 3d3e cfc3 5abe c1ed 393e
00000040: 1f8f 8cbe e76a 35be e1a2 6dbd 005e 693d
00000050: 7cac 3dbe 651d a73e a4ad ce3d aee6 9bba
00000060: 6c71 59be 0308 ad3c 6015 99bb c811 bbbd
00000070: 9720 c8be e49d 5e3e c473 dfbd 6358 bbbd
00000080: ee96 6d3c 6958 70be b89d 723e a233 65be
00000090: 43d3 ab3d 6f1a 9b3d 41f8 b0be 404a 09bf
000000a0: 4afe 833d d86e d2be 74cd c2bc f4eb b03e
000000b0: 7615 debd 9484 26be 3eba 30bd 3235 d9bd
000000c0: 5dc3 d5be 9206 813e ce75 c83d 1eec 233e
000000d0: a450 5d3d 9dc6 77bd d6bc e9bb bc16 023d
000000e0: 46b8 623b 1c37 643e 846d 5c3e 6c53 873e
000000f0: 1043 75be 3ea4 dd3e 90d5 6e3e 60cb 173e
00000100: 0839 79be 400b f03d ea7d 313d 87f7 46be
00000110: 40c4 b93d ae20 3abe 9be7 463e 861c a3be
00000120: dd05 b5bd 615c bdbc 4b01 dfbd 6e69 c43d
00000130: b7ac 10be 0501 523d cf3e 1a3e 2287 90bd
00000140: fd54 503e d557 60be 54dd 6c3e 68ff 663d
00000150: 117e 753e a966 0bbd b923 063e 529e bfbe
00000160: 1159 e0bd 82ba 873e 3782 2fbe 5d4b 7ebe
00000170: 105c 853e d196 01bd 1601 53be f4d6 a23c
00000180: 93f5 ce3d 9de1 cfbc 3cd1 5f3c f7b7 afbb
00000190: 61d4 56be 70a4 d43b ce48 a9bd 6f41 b03e
000001a0: 7af8 9abe 612f ae3d aa52 6abe 5ccf 933d
000001b0: 6574 17bd ad0d b2be a38c 8b3d f623 06be
000001c0: 2a59 bbbe f039 9f3d 00e1 163b 819a 813b
000001d0: 1424 1cbe 815f 8cbd 8238 7f3c fecc 243d
000001e0: e8f2 753d 5615 efbd 73f9 79bc 6703 8a3e
000001f0: 4ed8 1dbe 38b8 1b3e c50d af3b 3e38 403e
00000200: 5f95 1f3e 48e3 14bf 1e5b 64be a0e8 68be
00000210: e5af d33d eb5d 193e 4c6a 1bbd 9402 c13d
00000220: 6364 03be eb0e 8fbe 98f5 e73e 8117 04be
00000230: 792a 02bc 417e 3f3e 3c8e c33e aada 1d3d
00000240: c90a 8e3e 3762 0dbd 5c8e 5e3e d0dd 033d
00000250: d6f2 943e e5e7 823e b328 bd3d 1178 283e
00000260: 413f 263b 9e87 7b3e d8da 27be 85a5 583e
00000270: 1a1b a7bd 4805 283b e9c8 1a3e a44d 503e
00000280: 72e5 0cbe 2073 80be c600 8e3d deea f6be
00000290: 01a8 2b3e 09b7 d93d e4be 87be f039 91be
000002a0: fc22 85be a289 08bf f935 183e a20c 9a3e
000002b0: 8d3d 05be 4774 68bc 8772 5f3e 46d9 843d
000002c0: f451 933e 3d62 8e3e f70f 28bd 7c01 9bbe
000002d0: ea50 c73e e431 8a3e 2953 adbd f3e5 7c3e
000002e0: 83ee a93e 5468 2c3c e4df 533c 7e79 243d
000002f0: f90a 963e 4c64 02bd 9716 6d3e 3ca8 0c3e
00000300: ea11 73be 4f9f febb b14b 92be 0ccd 6fbc
00000310: 2a42 f3bd 014d 0c3e dfa7 853e 559b 023e
00000320: 436e f73e 7613 7d3d d46d 7e3e ec68 0abd
00000330: f486 98bd ba63 df3e 993e 393e 41ab fd3d
00000340: b248 0d3e 9200 003d a55e 1fbe e5e6 8b3e
00000350: 3a86 4f3e fed1 f5bd 9c51 4abe f8eb be3d
00000360: 1627 b5bd 2549 b03d 4231 b63d 3725 563e
00000370: 4c95 413e 45e3 44be 7f96 d53d 37b9 c7bd
00000380: 8cb2 4b3d f362 46be 3eb6 1f3e f79b 84be
00000390: 96e3 693d 73d5 aa3d e4e7 b23e be57 53be
000003a0: 2e90 31be ab01 77be 4fff 13be 6c29 183d
000003b0: cdbc 1abe 8bf4 903d 46c9 923e 4a3a 453e
000003c0: f1e2 613d 3354 133e b832 003f 5d49 f23d
000003d0: 92b4 70bd d023 873d a680 593d 8e4f 5f3d
000003e0: 093c 8f3d a15a 823e 27b9 dd3c 7382 693d
000003f0: d6a1 123e 08dc c9bd 4449 b63e f0b8 683d

graph_embed.node_to_graph.bias f4 [128]
0.23770459 0.9829872 0.743364 0.5571199 1.3077922 0.19480832 -0.9706188 1.389974
-0.25833935 -1.1913007 0.45048973 -0.30503738 0.30601943 -0.43381372 -0.85037726 0.21072324
-0.15377203 -0.87872463 -0.044602837 -0.7853262 0.13068809 -0.061269015 1.5993602 1.1436578
-0.5858911 1.3801469 -0.05597487 0.13381255 -0.38666227 0.007215808 0.3040822 0.13410799
-0.16257519 0.49203727 0.40497762 -0.4369899 0.63696975 0.24395223 -1.5285908 0.10389284
-1.409992 2.0999596 0.952184 -0.5663997 -0.3419367 1.166954 0.38329425 0.9040477
-1.2726575 -1.743834 0.36172497 0.82981735 -0.49731594 -0.6736386 -0.0162388 -1.5741774
-0.07465302 -0.49050295 0.11875643 -0.22204399 0.4025213 0.7725815 0.45763934 1.0563681
0.13069381 1.6331649 0.405782 0.19957428 0.76667905 -0.004353897 0.49159044 0.88596606
-0.55695 -0.21379353 0.37464595 -1.7614673 -0.33689728 -0.17934895 0.79624796 0.7472223
2.502473 -1.1278895 -0.3566606 -1.364763 0.66532916 0.0779455 -0.9766319 -0.005321323
-1.4505258 -0.36146805 1.1485662 -0.7901482 -0.9043536 -0.97441596 0.29895884 0.3555379
-0.30854577 -0.8751019 -1.4074179 0.16615371 0.7332568 -0.038017165 0.0050938814 1.5576714
-0.038196277 0.7492106 0.67805743 -0.39570823 -0.21085243 0.7177567 -0.21069485 0.2198362
-0.9044872 -0.027699092 -0.13630642 -0.006078627 -0.4062993 -0.27592027 -0.95753014 -1.6728342
-0.8257501 -0.54117936 2.0509825 -0.85045826 -0.11203926 0.31010735 -1.34223 0.4762681
00000000: d568 733e 0da5 7b3f 1a4d 3e3f 699f 0e3f
00000010: bc65 a73f d57b 473e 797a 78bf abea b13f
00000020: 0e45 84be 8b7c 98bf 97a6 e63e dc2d 9cbe
00000030: 94ae 9c3e d51c debe 53b2 59bf d5c7 573e
00000040: 6a76 1dbe 19f4 60bf 77b1 36bd 230b 49bf
00000050: 19d3 053e 38f5 7abd d6b7 cc3f 6163 923f
00000060: f6fc 15bf a7a8 b03f e845 65bd 2806 093e
00000070: 99f8 c5be 9672 ec3b aab0 9b3e 9b53 093e
00000080: 1c7a 26be 4fec fb3e 3a59 cf3e 24bd dfbe
00000090: 7310 233f 9dce 793e dda8 c3bf c5c5 d43d
000000a0: 9e7a b4bf bd65 0640 55c2 733f 92ff 10bf
000000b0: 5412 afbe c05e 953f 253f c43e ac6f 673f
000000c0: 71e6 a2bf f435 dfbf 0434 b93e e96e 543f
000000d0: 32a0 febe 9473 2cbf 3b07 85bc a57e c9bf
000000e0: afe3 98bd 3423 fbbe 9236 f33d 805f 63be
000000f0: 4617 ce3e e7c7 453f b44f ea3e 1237 873f
00000100: 99d4 053e 8c0b d13f a9c2 cf3e 335d 4c3e
00000110: 1445 443f 23ab 8ebb beb1 fb3e acce 623f
00000120: 4694 0ebf b1ec 5abe 98d1 bf3e c377 e1bf
00000130: cd7d acbe 40a7 37be e8d6 4b3f f649 3f3f
00000140: 8528 2040 af5e 90bf 389c b6be 8eb0 aebf
00000150: 0353 2a3f e4a1 9f3d 8c04 7abf 7e5e aebb
00000160: d4aa b9bf 5712 b9be 3804 933f 2747 4abf
00000170: b883 67bf 5373 79bf 2211 993e 1009 b63e
00000180: b6f9 9dbe ae06 60bf 4526 b4bf 3324 2a3e
00000190: b8b6 3b3f e3b7 1bbd 93ea a63b c761 c73f
000001a0: b373 1cbd 44cc 3f3f 2c95 2d3f 459a cabe
000001b0: b3e9 57be e7be 373f 64c0 57be be1c 613e
000001c0: 798c 67bf 35e9 e2bc e993 0bbe 382f c7bb
000001d0: 7606 d0be 6c45 8dbe b220 75bf 6e1f d6bf
000001e0: 5c64 53bf bb8a 0abf 4c43 0340 a2b7 59bf
000001f0: d774 e5bd 64c6 9e3e 31ce abbf 6ad9 f33e

graph_prop.message_funcs.0.weight f4 [64, 67]
0.16042975 -0.092400886 -0.11366616 -0.04309606 0.04876344 0.09204654 0.013485053 0.014513278
0.05515112 -0.013975857 0.09884721 -0.010012067 0.27687928 -0.16108912 -0.030002408 0.22435544
-0.08393362 -0.028377999 -0.094225526 -0.2151288 -0.018908907 0.023780083 0.16176604 0.11282368
0.12894127 0.30203572 -0.15577221 -0.13909177 0.05847121 -0.063751906 -0.06475558 0.023552747
-0.0072934055 0.0059740143 -0.18349595 0.18024126 0.023027483 0.10863029 -0.17873788 -0.1799783
0.07684772 0.2979228 0.0032130075 0.15895033 0.06895224 0.337388 0.20149705 0.1638711
-0.07294047 -0.01603973 -0.1670197 -0.046231717 0.097206645 0.04004412 0.00053433503 -0.18091716
0.29570326 0.16492896 0.018266574 0.18848033 -0.16955133 0.37840086 0.28466216 -0.044968985
0.05367901 0.0021812122 0.20743498 0.022978118 0.04630184 -0.0039122417 -0.150534 -0.08330947
-0.030495433 0.11095868 -0.022327458 0.20436163 0.11719414 -0.06234127 -0.025861647 -0.15399615
-0.012924915 -0.021728108 0.0018012226 0.094362706 -0.12418883 0.03949918 0.09178665 -0.1983023
0.049651317 0.0809866 0.31696707 0.03138666 0.048552755 -0.03673665 0.091270186 0.033905048
0.16060589 0.07422081 -0.03958292 -0.18973063 0.18890686 -0.38485277 0.2399999 0.017762715
0.0077921934 0.08166335 -0.16246134 0.06760148 0.07338061 -0.09985784 -0.12559004 0.08924984
0.07595172 -0.11421242 0.068338 -0.11335869 -0.28262743 -0.28648412 0.13194607 -0.16287254
-0.20303163 0.026132029 -0.20855506 -0.09371959 -0.06829391 -0.12989168 -0.018675305 0.07205075
-0.26466313 -0.25826037 -0.09980253 0.0047439043 0.003508646 0.11482713 0.3145617 0.038077418
0.107356414 -0.032771155 0.070586264 0.056460623 0.049834434 -0.01960499 0.1621185 0.16248982
-0.15986432 0.027188387 0.037995424 -0.015800517 0.019479606 0.13953835 -0.022058213 -0.13980642
0.10530129 0.048224486 -0.035276785 0.07423751 -0.14752527 0.14462058 -0.036983218 0.008221049
-0.041548297 -0.11150479 -0.11846867 0.08356072 0.040396906 -0.09660235 -0.29017586 0.053310823
0.13557146 0.04888129 0.20458291 0.07095048 0.20302482 -0.21795759 -0.10417829 -0.099634014
-0.034866042 0.11268964 0.0812276 0.14239277 -0.0929221 -0.096890785 -0.08599761 -0.22904643
-0.16708897 -0.11157476 -0.1831318 -0.007680027 -0.09080676 0.053870212 -0.12282912 -0.15396017
0.09374032 -0.09014751 -0.096284956 0.15407954 -0.058383144 0.013000563 -0.17147143 -0.026713096
-0.069565676 -0.019268388 -0.030220162 -0.13203631 -0.19343708 -0.11914943 -0.15396015 0.1262643
0.016478537 0.10986302 0.31046438 -0.20252794 0.012542754 0.021416958 -0.050038703 0.04977182
-0.01124093 -0.073127836 0.06514174 -0.10749404 0.073829114 0.0011804047 -0.05240328 -0.09694799
-0.038419403 0.17178157 0.05230491 0.22778074 -0.15911198 0.17828706 0.103691325 0.05131577
-0.012869133 -0.13083947 -0.01849073 -0.1404863 0.011499323 -0.07530659 0.083151385 0.0891629
0.15268984 0.09298671 -0.011957168 0.009676087 0.020567594 -0.016162924 -0.04462169 -0.12239905
-0.083203435 0.035145603 -0.090524785 0.23240663 -0.16519526 0.05428858 -0.06194294 0.18977109
00000000: b247 243e ad3c bdbd cec9 e8bd 7f85 30bd
00000010: 2cbc 473d e582 bc3d 69f0 5c3c 1ac9 6d3c
00000020: 24e6 613d fefa 64bc 6870 ca3d a709 24bc
00000030: 1fc3 8d3e 8cf4 24be 9cc7 f5bc 6fbd 653e
00000040: 64e5 abbd fa78 e8bc 50f9 c0bd b94a 5cbe
00000050: dae6 9abc 73ce c23c ffa5 253e 1a10 e73d
00000060: 2e09 043e 6da4 9a3e c082 1fbe 136e 0ebe
00000070: 827f 6f3d 5c90 82bd 939e 84bd b1f1 c03c
00000080: 85fd eebb aac1 c33b 5de6 3bbe 2a91 383e
00000090: 22a4 bc3c 8f79 de3d 1007 37be 3b4c 38be
000000a0: 5662 9d3d 5689 983e 5291 523b e0c3 223e
000000b0: d536 8d3d 1fbe ac3e 3e55 4e3e d3cd 273e
000000c0: d061 95bd c065 83bc 3607 2bbe 785d 3dbd
000000d0: 4714 c73d 4e05 243d 9e12 0c3a 5942 39be
000000e0: 6b66 973e 23e3 283e c8a3 953c fd00 413e
000000f0: dd9e 2dbe c2bd c13e 3dbf 913e 6631 38bd
00000100: 86de 5b3d abf2 0e3b d669 543e 9b3c bc3c
00000110: 00a7 3d3d 4332 80bb 9625 1abe 289e aabd
00000120: 8fd1 f9bc 4e3e e33d 13e8 b6bc 2d44 513e
00000130: 7b03 f03d 8f59 7fbd cedb d3bc 2bb1 1dbe
00000140: 06c3 53bc 25ff b1bc 0017 ec3a 3c41 c13d
00000150: b756 febd e4c9 213d a4fa bb3d c20f 4bbe
00000160: 2e5f 4b3d 4ddc a53d 8249 a23e 4c8f 003d
00000170: 41df 463d 2b79 16bd ddeb ba3d 05e0 0a3d
00000180: df75 243e 1401 983d b321 22bd bf48 42be
00000190: cd70 413e 6c0b c5be 89c2 753e 1d83 913c
000001a0: a855 ff3b 1d3f a73d 445c 26be a572 8a3d
000001b0: 9348 963d 4482 ccbd ad9a 00be 9fc8 b63d
000001c0: 938c 9b3d 34e8 e9bd cbf4 8b3d 9a28 e8bd
000001d0: 8bb4 90be 0cae 92be df1c 073e 0fc8 26be
000001e0: 86e7 4fbe d612 d63c 758f 55be 0ef0 bfbd
000001f0: addd 8bbd 5302 05be f4fc 98bc 588f 933d
00000200: ed81 87be b43a 84be 4565 ccbd c172 9b3b
00000210: 50f1 653b 7d2a eb3d 3b0e a13e 11f7 1b3d
00000220: aedd db3d 0c3b 06bd 888f 903d 4143 673d
00000230: 311f 4c3d a59a a0bc 6402 263e bb63 263e
00000240: 79b3 23be 2eba de3c 17a1 1b3d 1670 81bc
00000250: b293 9f3c 24e3 0e3e 6db3 b4bc 6a29 0fbe
00000260: 34a8 d73d 0a87 453d 647e 10bd d609 983d
00000270: dd10 17be 6b17 143e b77b 17bd 94b1 063c
00000280: 8c2e 2abd a05c e4bd b49f f2bd e221 ab3d
00000290: 3a77 253d 74d7 c5bd ee91 94be 735c 5a3d
000002a0: 3fd3 0a3e bf37 483d 2f7e 513e 7c4e 913d
000002b0: bde5 4f3e 4630 5fbe 6d5b d5bd eb0c ccbd
000002c0: b2cf 0ebd d3c9 e63d a85a a63d 69cf 113e
000002d0: f14d bebd ad6e c6bd 841f b0bd 268b 6abe
000002e0: 5f19 2bbe 4f81 e4bd e786 3bbe bca8 fbbb
000002f0: e5f8 b9bd 03a7 5c3d d58d fbbd bca7 1dbe
00000300: edfa bf3d 429f b8bd 0c31 c5bd 07c7 1d3e
00000310: 2a23 6fbd 5000 553c 3596 2fbe 6cd5 dabc
00000320: 7378 8ebd bdd8 9dbc 4690 f7bc 8734 07be
00000330: 5f14 46be 9e04 f4bd bba7 1dbe 6e4b 013e
00000340: fffd 863c ddff e03d 30f5 9e3e 7c63 4fbe
00000350: 2080 4d3c 9e72 af3c 62f5 4cbd 89dd 4b3d
00000360: e12b 38bc 0cc4 95bd 0869 853d d625 dcbd
00000370: b833 973d cfb7 9a3a d2a4 56bd ab8c c6bd
00000380: aa5d 1dbd 82e7 2f3e ac3d 563d 5b3f 693e
00000390: 40ee 22be e290 363e 1e5c d43d 7c30 523d
000003a0: 0ed9 52bc c8fa 05be df79 97bc a4db 0fbe
000003b0: a867 3c3c 573a 9abd 464b aa3d 0a9b b63d
000003c0: ba5a 1c3e d16f be3d ffe7 43bc 7388 1e3c
000003d0: 5f7d a83c 1c68 84bc 3cc5 36bd 5aac fabd
000003e0: 9066 aabd d6f4 0f3d 0f65 b9bd 01fc 6d3e
000003f0: f228 29be b45d 5e3d e1b7 7dbd 5a53 423e

graph_prop.message_funcs.0.bias f4 [64]
0.07785706 0.077961035 0.104226485 0.111824706 -0.018098293 -0.011097443 -0.05627463 -0.085384496
0.30618048 0.2707281 -0.2173818 0.29707345 -0.024572011 -0.07070076 0.08364408 -0.019328713
0.007830872 -0.15941069 0.10769661 0.15724945 0.2729129 0.13059036 -0.031280942 -0.038511556
0.07306678 -0.18642849 -0.03122036 0.014132844 0.10227895 -0.12770833 0.16813734 0.02530248
-0.029244155 0.16887218 -0.13542491 0.100901715 -0.16745546 0.06331731 -0.04771791 0.119538836
0.19134504 -0.0055206954 0.096124016 0.20608863 -0.08379636 0.061365254 -0.12697364 -0.19283816
0.017350737 -0.08043671 0.09434089 0.00853335 0.094529755 -0.18220885 0.24422716 -0.12668028
0.13463558 -0.08101707 -0.09923696 0.11871011 0.25123766 0.13934827 0.17126803 -0.106018886
00000000: 8673 9f3d 09aa 9f3d b274 d53d 5a04 e53d
00000010: df42 94bc 0dd2 35bc 3a80 66bd 11de aebd
00000020: b0c3 9c3e e09c 8a3e 5699 5ebe 031a 983e
00000030: 3e4b c9bc 8fcb 90bd 964d ab3d 4057 9ebc
00000040: 0f4d 003c 8e3c 23be 0a90 dc3d 0006 213e
00000050: 3dbb 8b3e 7bb9 053e 7220 00bd 4bbe 1dbd
00000060: 09a4 953d 1ce7 3ebe d7c1 ffbc 728d 673c
00000070: a077 d13d f9c5 02be 322c 2c3e 2647 cf3c
00000080: 7091 efbc d4ec 2c3e d4ac 0abe 8fa5 ce3d
00000090: 7279 2bbe 81ac 813d db73 43bd c7d0 f43d
000000a0: f4ef 433e f3e6 b4bb abdc c43d e608 533e
000000b0: 6d9d abbd 225a 7b3d 6105 02be 5e77 45be
000000c0: 2223 8e3c 00bc a4bd cc35 c13d 77cf 0b3c
000000d0: d198 c13d f594 3abe af16 7a3e 7ab8 01be
000000e0: e9dd 093e 47ec a5bd bf3c cbbd 491e f33d
000000f0: 39a2 803e 50b1 0e3e e360 2f3e 6e20 d9bd

graph_prop.message_funcs.1.weight f4 [64, 67]
0.20095858 -0.26078132 -0.077489406 -0.32220614 -0.08755871 -0.121314 -0.18280405 -0.12680687
0.020529438 0.1256604 -0.055989943 0.124013506 0.13368145 0.101197995 -0.07955994 -0.1050822
-0.45149726 0.10414772 -0.076520406 0.05484369 -0.011118073 -0.10303068 -0.014867435 0.057923265
0.08187916 -0.04252231 -0.07206203 -0.17333162 -0.17219332 -0.03388729 -0.011711783 -0.1369588
0.1292769 -0.19153164 0.045959175 -0.08173923 0.067024805 0.085903384 -0.11354926 -0.0135161765
0.04073447 0.32722297 0.03263002 -0.026183762 -0.08363595 0.11487429 -0.13262159 -0.098402485
0.15514016 -0.114860766 0.35124767 0.020377276 -0.036291655 0.07685545 0.06224698 0.30391312
-0.10866117 -0.047822993 -0.09620453 0.0063857576 -0.08044731 -0.04882138 -0.057219286 -0.06436784
0.21151514 0.06855523 -0.028072912 -0.041322216 0.0071014296 -0.018079193 -0.050352797 -0.11655457
-0.0139988875 0.07049729 0.11662195 -0.16672242 0.04671207 -0.0074925204 0.0748141 -0.013499792
0.058645498 -0.12652299 0.08025092 0.13062066 -0.04771998 0.011783862 0.16111082 0.14153537
0.0042693024 -0.03589311 -0.05813538 -0.064331345 0.017473033 0.25570866 -0.28666723 -0.13032982
0.09405491 0.082548864 -0.2040423 -0.14614123 0.06748602 -0.25060403 -0.066499375 0.014706035
0.052806653 0.20454437 0.13066928 0.100986965 -0.45841366 -0.066587016 0.05136431 -0.013516497
-0.2079803 0.13075942 0.0089281425 -0.18115424 -0.116283566 -0.0899088 -0.023068791 -0.08046446
0.19773391 0.16323291 0.28990656 0.16221228 0.050745986 0.0315396 -0.41873437 0.08532977
-0.1118478 -0.02207247 0.21581285 -0.054529697 0.03773721 -0.074733935 0.095935464 0.2420707
0.19227713 -0.015583072 0.020285852 0.05757278 -0.070369445 -0.069389865 -0.27339345 -0.111555405
0.13960645 0.18258114 0.018284842 0.06764774 -0.18078241 0.12575257 0.098013766 -0.14783607
0.09909079 -0.121973336 -0.14078777 0.06232296 0.0029430701 -0.12027639 0.029101038 -0.05278153
0.09527876 -0.046244264 0.13229229 -0.12324271 -0.15396097 -0.08624432 0.12738438 0.0031776188
-0.111426756 -0.049756356 -0.047906328 -0.14069055 0.112065576 0.0810755 -0.04084261 -0.051599834
-0.08781014 -0.1849849 0.033360492 0.04872277 -0.1816667 0.11353953 0.013439071 -0.081724025
0.20836398 0.22027285 0.023345625 -0.009156821 0.25976643 0.122590676 0.047838677 -0.0071660364
-0.05959707 0.067911446 -0.17413735 0.10620778 0.035441376 -0.101586446 0.1822925 0.004449941
0.13131474 0.101233646 -0.21572657 -0.030955736 -0.16337045 0.09532643 -0.05580781 0.08908449
0.12853509 0.019606035 -0.017499743 0.0147068715 0.3394082 -0.23363933 -0.06524016 0.08686986
-0.109581545 -0.030396404 0.04509666 -0.023288058 0.15761714 -0.050043546 0.09511225 -0.019120224
-0.04298723 -0.12933737 0.12018063 -0.03958899 -0.19251423 -0.37077743 -0.020187829 0.13571256
0.042749487 0.015876397 0.18137422 -0.3923445 -0.12882097 -0.24955335 0.08600724 0.1654245
0.029670814 0.064920984 -0.024271969 -0.021344194 0.1611515 0.034696523 0.13794424 0.018911503
-0.037582 0.079208076 -0.15634026 -0.33253762 -0.025633931 -0.06452864 0.23236385 0.18965992
00000000: 16c8 4d3e 2185 85be c4b2 9ebd 34f8 a4be
00000010: fb51 b3bd 7973 f8bd fc30 3bbe a9d9 01be
00000020: 5a2d a83c 1fad 003e b655 65bd cbfa fd3d
00000030: cae3 083e e540 cf3d 52f0 a2bd 5635 d7bd
00000040: a62a e7be 664b d53d bbb6 9cbd c7a3 603d
00000050: 9428 36bc c001 d3bd 8b96 73bc f240 6d3d
00000060: 43b0 a73d e02b 2ebd 4295 93bd d87d 31be
00000070: 7253 30be 66cd 0abd c7e2 3fbc ed3e 0cbe
00000080: 2a61 043e df20 44be b03f 3c3d e666 a7bd
00000090: 4d44 893d 1dee af3d 848c e8bd f472 5dbc
000000a0: 30d9 263d c589 a73e 0ea7 053d 547f d6bc
000000b0: 5349 abbd 3643 eb3d f4cd 07be 3e87 c9bd
000000c0: 10dd 1e3e 1f3c ebbd bcd6 b33e 3fee a63c
000000d0: 8fa6 14bd 6466 9d3d b0f6 7e3d 809a 9b3e
000000e0: bf89 debd 0be2 43bd e106 c5bd 9e3f d13b
000000f0: 8fc1 a4bd edf8 47bd c55e 6abd 49d3 83bd
00000100: 6d97 583e af66 8c3d 2af9 e5bc 7c41 29bd
00000110: 1cb3 e83b d11a 94bc bc3e 4ebd 2ab4 eebd
00000120: 975b 65bc e260 903d 7dd7 ee3d 48b9 2abe
00000130: 2855 3f3d d183 f5bb 2338 993d 3b2e 5dbc
00000140: 4336 703d 3e8f 01be 985a a43d 6cc1 053e
00000150: 0776 43bd 1911 413c 3cfa 243e a6ee 103e
00000160: 81e5 8b3b a704 13bd 5d1f 6ebd 27c0 83bd
00000170: 9b23 8f3c 3fec 823e 0cc6 92be 2e75 05be
00000180: dc9f c03d 610f a93d 77f0 50be 0ca6 15be
00000190: 1c36 8a3d 2c4f 80be d330 88bd 95f1 703c
000001a0: ca4b 583d 1474 513e 2bce 053e 41d2 ce3d
000001b0: 32b5 eabe c65e 88bd 6263 523d 4c74 5dbc
000001c0: caf8 54be cce5 053e 5847 123c 7f80 39be
000001d0: 1426 eebd 1b22 b8bd c3fa bcbc 8dca a4bd
000001e0: c27a 4a3e 8726 273e a26e 943e fa1a 263e
000001f0: 06db 4f3d ab2f 013d 5a64 d6be 60c1 ae3d
00000200: 7610 e5bd 53d1 b4bc 0bfe 5c3e 885a 5fbd
00000210: 5592 1a3d 1b0e 99bd d079 c43d 62e1 773e
00000220: 4ce4 443e 2450 7fbc 842e a63c 6fd1 6b3d
00000230: db1d 90bd 461c 8ebd 3afa 8bbe 2977 e4bd
00000240: fef4 0e3e 8df6 3a3e 18ca 953c e68a 8a3d
00000250: 061f 39be 48c5 003e 71bb c83d 5762 17be
00000260: 1df0 ca3d 28cd f9bd ab2a 10be 5c46 7f3d
00000270: 86e0 403b 7853 f6bd 4d65 ee3c 7231 58bd
00000280: 8321 c33d a06a 3dbd a177 073e ad66 fcbd
00000290: f2a7 1dbe dda0 b0bd 0d71 023e 993f 503b
000002a0: b633 e4bd 52cd 4bbd 6d39 44bd 2f11 10be
000002b0: a382 e53d e90a a63d 954a 27bd 595a 53bd
000002c0: cdd5 b3bd ae6c 3dbe 03a5 083d 8791 473d
000002d0: d606 3abe 6a87 e83d 8d2f 5c3c ed5e a7bd
000002e0: 5e5d 553e 358f 613e 533f bf3c 7e06 16bc
000002f0: 1b00 853e d210 fb3d 7df2 433d 12d1 eabb
00000300: 0f1c 74bd 2815 8b3d 1051 32be 7783 d93d
00000310: fa2a 113d 8e0c d0bd e3aa 3a3e d0d0 913b
00000320: 5f77 063e 9653 cf3d 6de7 5cbe e296 fdbc
00000330: 954a 27be 813a c33d bb96 64bd ee71 b63d
00000340: b49e 033e d69c a03c 9f5b 8fbc 17f5 703c
00000350: e9c6 ad3e 263f 6fbe a29c 85bd d3e8 b13d
00000360: 4a6c e0bd e101 f9bc 46b7 383d 99c6 bebc
00000370: 6366 213e 76fa 4cbd 36ca c23d 04a2 9cbc
00000380: 6113 30bd 0471 04be 4321 f63d 1128 22bd
00000390: 7322 45be 8ad6 bdbe f260 a5bc 3cf8 0a3e
000003a0: 161a 2f3d 380f 823c 2aba 393e 61e1 c8be
000003b0: a5e9 03be ea8a 7fbe 9024 b03d 0a65 293e
000003c0: 3510 f33c 4bf5 843d 02d6 c6bc 05da aebc
000003d0: e604 253e f11d 0e3d 4141 0d3e 4cec 9a3c
000003e0: 95ef 19bd d837 a23d a917 20be 5f42 aabe
000003f0: 40fe d1bc 9727 84bd caf0 6d3e 3636 423e

graph_prop.message_funcs.1.bias f4 [64]
0.19555417 -0.12509762 0.026745435 -0.011898425 0.21905632 -0.010641298 0.19184181 0.20331484
0.049252603 -0.04401098 0.11386224 -0.05018846 -0.21990535 0.045750253 -0.07063082 -0.02450866
0.054336183 0.065888666 0.02397893 0.15236059 0.1732391 0.012359351 0.018876122 0.15925236
0.18831672 -0.029542442 0.13746363 -0.09817199 0.122003786 -0.050252937 0.31919482 -0.25878644
-0.095909975 -0.21837798 -0.08109229 0.002737645 0.1280239 0.0536672 0.20029862 -0.20804101
0.09232351 0.03668292 0.076236196 -0.16123772 -0.04052499 -0.07478052 -0.019674959 -0.21750154
-0.042859625 0.0612652 -0.23159242 0.0949457 0.08566786 -0.026496744 0.15669212 0.054524817
0.019960266 0.16360846 -0.061887633 0.0021956249 0.09900431 -0.14434099 0.12243011 -0.012205815
00000000: 5a3f 483e 9719 00be 3e19 db3c 9df1 42bc
00000010: 4d50 603e d758 2ebc 2e72 443e c431 503e
00000020: 19bd 493d db44 34bd 9b30 e93d 6a92 4dbd
00000030: de2e 61be 9e64 3b3d e4a6 90bd 63c6 c8bc
00000040: 9e8f 5e3d a3f0 863d 766f c43c 6a04 1c3e
00000050: 9765 313e e07e 4a3c 19a2 9a3c 0d13 233e
00000060: 19d6 403e fe02 f2bc 44c3 0c3e 650e c9bd
00000070: 1fdd f93d 06d6 4dbd 816d a33e a87f 84be
00000080: 736c c4bd 7a9e 5fbe b713 a6bd 106a 333b
00000090: b218 033e 23d2 5b3d 151b 4d3e b408 55be
000000a0: 1c14 bd3d d440 163d b921 9c3d 801b 25be
000000b0: 88fd 25bd 8726 99bd 612d a1bc b9b8 5ebe
000000c0: 938d 2fbd 38f1 7a3d 9026 6dbe e472 c23d
000000d0: a272 af3d b30f d9bc e673 203e 6a55 5f3d
000000e0: b683 a33c fa88 273e e37d 7dbd 79e4 0f3b
000000f0: c6c2 ca3d 20ce 13be a3bc fa3d e6fa 47bc

graph_prop.message_funcs.2.weight f4 [64, 67]
0.09357088 -0.009839927 0.08102334 0.13368927 -0.1768232 -0.063260905 -0.14207633 -0.3116403
-0.016831608 -0.3734147 0.0796446 0.0048375665 0.09394892 0.078461 -0.090466335 0.31980315
-0.25669292 -0.0030865995 -0.17397942 -0.029557053 -0.09706037 0.20549527 0.055693857 0.021549249
0.14859407 -0.124734074 0.09830011 -0.21656403 -0.076162994 -0.027327059 -0.08349252 0.16307376
-0.05275344 0.08491581 -0.18439643 0.23379134 0.031840578 -0.06265765 -0.013876341 -0.08378438
-0.045907706 0.40316823 -0.14786597 0.2270714 -0.13135396 -0.12564857 -0.045341387 -0.02109436
-0.2561444 0.029487588 -0.347434 -0.12138298 0.023722293 -0.34643626 0.028397316 0.04518993
0.1789079 -0.035239223 0.03119895 -0.24835081 0.023570145 0.07507223 0.27269116 -0.068844296
0.06979734 -0.042968016 0.34472612 0.03912111 -0.10230553 0.07250003 0.18791747 -0.086830944
0.013022923 -0.18986292 -0.060277183 -0.11979305 -0.042545844 0.1926679 -0.120085984 -0.058044188
-0.034251563 -0.07940447 0.15669441 -0.2087282 0.0070551215 0.09308026 -0.13187283 -0.056427952
0.12707591 -0.19769351 0.04670069 -0.11340267 0.047936864 0.02808854 0.0073945294 -0.0032853154
0.056790423 0.15161662 -0.14449179 0.18804322 0.26204595 -0.12181624 0.1310711 0.08730185
0.19421352 -0.17902994 0.099206075 -0.19793372 0.081793346 0.07973526 -0.05337348 0.040213436
-0.34639627 0.19096325 0.31619263 -0.23120718 0.34083796 0.21457715 0.13280255 0.17950879
-0.21974859 -0.20704328 0.010977938 0.063969515 0.026349789 0.23442799 -0.12327845 0.16124076
0.16244031 0.12219997 0.028444324 0.25570372 0.00086648425 0.13117498 0.06310006 -0.12802261
-0.052483995 0.12541147 0.08803767 0.054954685 0.25197637 0.0679352 -0.22543775 -0.04937186
0.054902412 -0.003972257 0.08860788 -0.1071999 0.056526702 0.116822794 -0.12829179 -0.11164209
-0.19688125 0.04364442 -0.17667258 0.02219967 0.012406398 -0.059874125 0.047948346 -0.07888133
0.10520013 -0.06732489 0.12564452 -0.023496589 -0.03520993 -0.010833388 -0.26547346 -0.1572388
0.046231844 -0.062092245 0.032778557 0.026422469 -0.32495147 0.3520241 0.16285092 0.53390723
0.032163903 0.19243012 0.11020363 0.04269539 0.07586358 -0.5695124 -0.15765414 0.24079563
0.034166344 -0.11462809 0.088250145 -0.49289536 -0.12281326 -0.31272376 0.11661442 -0.0641423
0.071286894 0.14876288 0.00035893536 0.089968696 0.4853755 0.00391074 0.6356172 0.026850889
0.15961064 -0.0033960748 -0.09971956 0.1982182 0.119826645 -0.11123243 0.11317032 -0.07277193
-0.024033252 -0.1552744 -0.14366971 -0.31519702 -0.25087842 0.2037263 -0.010606838 -0.037942637
-0.005341073 -0.02505489 -0.22573452 -0.13451236 0.005281029 0.1698475 0.107842326 0.23927487
0.095194444 0.13586324 0.01926339 0.09063753 0.11632082 -0.08364053 -0.05535444 -0.11436479
-0.0897134 -0.15395157 0.16484125 -0.13485664 0.11723214 -0.10266694 0.16536821 -0.19686882
-0.20090505 -0.070775844 -0.06510308 0.06164214 -0.0015399891 0.18754233 0.13059555 0.141114
-0.0034573073 0.20691797 -0.07071574 0.20922263 0.17688751 -0.11241119 -0.02845344 -0.12055004
00000000: 17a2 bf3d a537 21bc 91ef a53d d7e5 083e
00000010: 2411 35be ef8e 81bd 757c 11be 518f 9fbe
00000020: 71e2 89bc 3630 bfbe b51c a33d 7384 9e3b
00000030: 4b68 c03d 29b0 a03d 6a46 b9bd 3dbd a33e
00000040: 416d 83be 8c48 4abb a927 32be a221 f2bc
00000050: 96c7 c6bd 5a6d 523e 3e1f 643d 0d88 b03c
00000060: 0b29 183e 9474 ffbd 9151 c93d f6c2 5dbe
00000070: 58fb 9bbd ffdc dfbc 20fe aabd cffc 263e
00000080: fe13 58bd 57e8 ad3d 6bd2 3cbe ff66 6f3e
00000090: 446b 023d a752 80bd 9859 63bc 2597 abbd
000000a0: b809 3cbd 116c ce3e 2d6a 17be 6885 683e
000000b0: a781 06be 05aa 00be e4b7 39bd 14ce acbc
000000c0: 5c25 83be f48f f13c dfe2 b1be a497 f8bd
000000d0: 4155 c23c 1860 b1be 7da1 e83c 1319 393d
000000e0: a233 373e 0157 10bd f194 ff3c ad4f 7ebe
000000f0: 2d16 c13c 78bf 993d 2d9e 8b3e 3dfe 8cbd
00000100: e8f1 8e3d 3bff 2fbd f17f b03e 753d 203d
00000110: 9085 d1bd e57a 943d 706d 403e 6cd4 b1bd
00000120: 195e 553c 6d6b 42be 35e5 76bd 0f56 f5bd
00000130: 8d44 2ebd bc4a 453e a4ef f5bd bebf 6dbd
00000140: 5e4b 0cbd d09e a2bd 8074 203e d8bc 55be
00000150: a62e e73b dda0 be3d ac09 07be ff20 67bd
00000160: 3020 023e 2b70 4abe 3949 3f3d a93f e8bd
00000170: 7259 443d f019 e63c cf4d f23b 724e 57bb
00000180: 139d 683d 6341 1b3e a8f5 13be 678e 403e
00000190: e32a 863e cb7a f9bd 8137 063e 50cb b23d
000001a0: e9df 463e a053 37be 8e2c cb3d 23af 4abe
000001b0: 4583 a73d 3d4c a33d 269e 5abd d8b6 243d
000001c0: da5a b1be df8b 433e 00e4 a13e 93c1 6cbe
000001d0: 5082 ae3e 1dba 5b3e 64fd 073e 27d1 373e
000001e0: c605 61be 2703 54be cfdc 333c 7302 833d
000001f0: 83db d73c e40d 703e 6979 fcbd 4c1c 253e
00000200: c156 263e fa43 fa3d 1204 e93c 99eb 823e
00000210: c624 633a bc52 063e 9b3a 813d 5c18 03be
00000220: 75f9 56bd dd6b 003e 184d b43d 2a18 613d
00000230: 0c03 813e 9c21 8b3d 27d9 66be 263a 4abd
00000240: 5ae1 603d b529 82bb 0c78 b53d 9f8b dbbd
00000250: 8b88 673d ca40 ef3d ec5e 03be 9ca4 e4bd
00000260: 3d9b 49be 7ec4 323d a8e9 34be 15dc b53c
00000270: 3444 4b3c 923e 75bd 7c65 443d 898c a1bd
00000280: 2a73 d73d a2e1 89bd f5a8 003e eb7b c0bc
00000290: 4a38 10bd 867e 31bc 23ec 87be 3503 21be
000002a0: 9a5d 3d3d 7054 7ebd cf42 063d ef73 d83c
000002b0: 0a60 a6be 813c b43e 64c2 263e 25ae 083f
000002c0: 4cbe 033d 670c 453e 71b2 e13d 5ce1 2e3d
000002d0: 5d5e 9b3d 91cb 11bf 1670 21be 2193 763e
000002e0: 02f2 0b3d 22c2 eabd 7ebc b43d c85c fcbe
000002f0: 8585 fbbd 541d a0be 8bd3 ee3d 0a5d 83bd
00000300: ddfe 913d 4c55 183e 7d2f bc39 8241 b83d
00000310: 2383 f83e aa25 803b cfb7 223f 65f6 db3c
00000320: f970 233e ae90 5ebb c539 ccbd b6f9 4a3e
00000330: ac67 f53d d4cd e3bd d7c5 e73d 7309 95bd
00000340: 62e1 c4bc 4100 1fbe 271e 13be 8161 a1be
00000350: 2373 80be a19d 503e 4ec8 2dbc bd69 1bbd
00000360: 2b04 afbb ea3f cdbc f326 67be 9cbd 09be
00000370: 7b0c ad3b 81ec 2d3e 70dc dc3d 7904 753e
00000380: 4ef5 c23d bc1f 0b3e 42ce 9d3c 2ba0 b93d
00000390: 9c39 ee3d ba4b abbd 56bb 62bd 1638 eabd
000003a0: a9bb b7bd 7ba5 1dbe 25cc 283e dc17 0abe
000003b0: 6717 f03d 0b43 d2bd 4956 293e fb97 49be
000003c0: 0eba 4dbe edf2 90bd c354 85bd 787c 7c3d
000003d0: 76d9 c9ba 190b 403e d7ba 053e 3080 103e
000003e0: fe93 62bb 4ee2 533e 6ad3 90bd 753e 563e
000003f0: 0022 353e d737 e6bd 3017 e9bc f0e2 f6bd

graph_prop.message_funcs.2.bias f4 [64]
0.23703241 -0.068360046 -0.05738716 -0.12924062 -0.112836294 0.32615072 0.06335038 0.20188442
0.086974114 -0.29139844 -0.095747896 -0.04480212 -0.0723407 -0.11632848 0.24298587 0.060752057
0.0110140275 0.17191637 0.31946835 0.042927884 0.124073274 0.033654593 0.0802356 -0.0015407398
-0.15906826 -0.12160099 0.13545091 -0.4163968 -0.11521474 -0.12559606 -0.0033284726 -0.1213121
0.053883757 -0.14367858 -0.17416763 0.10286287 -0.08394716 0.15296099 -0.028697504 0.08178218
0.15530388 0.076085426 0.18636894 -0.13808353 -0.12647983 -0.09993297 0.20458157 -0.1523717
-0.075133055 -0.115719505 0.022270061 -0.18643439 0.08839188 0.22527573 0.008258079 0.06448492
-0.072485186 -0.120659105 -0.18846866 -0.3278743 0.24585448 -0.009880617 0.08735909 -0.1754789
00000000: a0b8 723e 5a00 8cbd cc0e 6bbd a757 04be
00000010: b716 e7bd 3afd a63e d8bd 813d caba 4e3e
00000020: 7c1f b23d 2d32 95be 7917 c4bd 6e82 37bd
00000030: 5c27 94bd a03d eebd 4ad1 783e 26d7 783d
00000040: 2e74 343c d80a 303e 5b91 a33e 26d5 2f3d
00000050: 211a fe3d 66d9 093d 9052 a43d a6f2 c9ba
00000060: cae2 22be f109 f9bd a5b3 0a3e f631 d5be
00000070: b5f5 ebbd 419c 00be 8122 5abb 7a72 f8bd
00000080: 37b5 5c3d 7a20 13be 0059 32be c5a9 d23d
00000090: 7dec abbd cea1 1c3e 0717 ebbc 6a7d a73d
000000a0: fb07 1f3e add2 9b3d 80d7 3e3e c565 0dbe
000000b0: ee83 01be a8a9 ccbd d57d 513e 5407 1cbe
000000c0: 5cdf 99bd 59fe ecbd b46f b63c a8e8 3ebe
000000d0: cd06 b53d aeae 663e e54c 073c ab10 843d
000000e0: 1d73 94bd 1f1c f7bd eefd 40be 24df a7be
000000f0: 47c1 7b3e 50e2 21bc 53e9 b23d beb0 33be

graph_prop.message_funcs.3.weight f4 [64, 67]
-0.10405972 0.038411327 -0.07634124 0.003806277 -0.25987238 0.04059658 -0.060916934 -0.06419415
-0.10691374 0.067393385 0.087741375 -0.052932184 -0.05532564 0.098023735 0.09246312 -0.02097779
-0.054760724 0.06446414 -0.0012065398 -0.036219146 0.041315887 -0.30487636 -0.014364259 0.07366618
0.09807209 0.016320016 -0.06467416 0.059019394 -0.01127098 -0.051479165 0.048120342 0.15558563
0.116138846 -0.06770795 0.3518223 -0.30344826 0.084433384 -0.17273115 -0.008389098 0.09666482
-0.18629308 0.09913609 0.27430472 -0.1334966 -0.38722628 -0.049038153 0.02845975 0.12645726
0.013513089 -0.1096185 0.08127549 -0.25497907 -0.29041207 -0.25818157 0.0776794 0.23704576
0.0048658303 0.17889935 -0.19052383 0.11528442 -0.09814525 0.15153164 0.16941668 0.100078344
0.105859615 -0.034470625 0.11654445 -0.12103227 -0.08861239 -0.11004109 0.026834896 -0.10312346
-0.024436705 -0.1070592 0.20910072 -0.080072954 0.024734352 0.14126308 0.20745431 0.096857116
-0.016394163 0.27636907 -0.12233169 -0.23532751 -0.11945453 0.16971938 -0.21469642 0.097472735
-0.076144494 0.16914886 -0.10342241 0.18833604 0.12433849 0.066537164 -0.06333583 -0.032655872
-0.03167065 0.01588809 -0.0135942185 0.09171444 -0.11451772 0.4003272 -0.08737285 0.12226501
-0.05031649 -0.07807515 -0.27691594 0.1812005 0.05900183 -0.102434576 0.098380916 -0.12137458
0.013058813 -0.5412843 0.00053065555 0.272225 0.021970915 -0.20590258 -0.27914092 0.29113832
0.2139339 -0.18165886 -0.22759204 0.072879046 0.16210517 -0.0988253 -0.08664997 0.48532188
0.105260685 -0.01759382 0.034648586 0.040756352 -0.02450198 -0.005047996 0.23178466 -0.0062304074
0.12174173 0.0833064 0.021482794 -0.008804121 0.044462085 -0.005459519 -0.1896536 -0.0944375
-0.060563155 -0.20874667 0.24563289 -0.037252057 -0.05651112 0.18774159 -0.059900474 0.11671854
0.31533086 -0.04415536 0.013478463 -0.03842705 0.08226816 -0.13283548 -0.34975207 -0.20506033
-0.12577045 -0.10616981 -0.04792816 0.05533343 0.10503216 -0.20261677 0.097676374 -0.013454579
-0.19285396 -0.05264499 -0.112810075 -0.0018252691 0.12928547 0.046765823 0.28355888 0.25468022
0.4809377 -0.14288732 -9.132804e-05 -0.059458736 0.18980692 0.11632249 -0.3581737 -0.021111075
0.088868394 0.07947491 0.1038618 -0.4359715 0.09570415 0.5001846 0.033609804 0.06376532
-0.03488459 0.114534184 -0.24222338 -0.058208354 0.17910977 -0.11384141 0.23023865 -0.0026148865
-0.025056345 -0.028332468 -0.1687766 0.030266745 0.042341597 -0.14815225 0.14006276 0.02319802
-0.04930578 -0.0021617117 -0.20967494 -0.025562922 -0.09614858 0.025876587 0.12414963 0.03331407
-0.03524799 -0.026349278 -0.04424554 0.088366486 0.10109933 0.029006127 -0.12537675 -0.08341062
-0.27787036 -0.0671725 -0.13662523 -0.11110632 -0.2615082 0.17338595 0.048361767 -0.05414701
-0.13242863 -0.01894819 0.009933223 -0.114249595 -0.034328934 -0.0037912452 0.15573443 0.074848466
0.02902942 -0.2037457 -0.13862894 -0.44937107 -0.084376626 -0.08740779 -0.12814417 0.2452423
0.15907562 -0.10431881 0.23145993 0.0033222812 0.19558772 0.08744929 -0.021137943 -0.0771994
00000000: 431d d5bd 3255 1d3d cc58 9cbd bb72 793b
00000010: fe0d 85be 9948 263d 0984 79bd 3978 83bd
00000020: 97f5 dabd 8b05 8a3d c0b1 b33d 6bcf 58bd
00000030: 239d 62bd abc0 c83d 4e5d bd3d 9dd9 abbc
00000040: c84c 60bd c605 843d c224 9eba 875a 14bd
00000050: d93a 293d c118 9cbe 1258 6bbc 4bde 963d
00000060: 05da c83d 8eb1 853c e373 84bd 52be 713d
00000070: eba9 38bc d1db 52bd d619 453d d751 1f3e
00000080: 34da ed3d 77aa 8abd 0d22 b43e 925d 9bbe
00000090: 69eb ac3d 6fe0 30be 6d72 09bc 35f8 c53d
000000a0: 9dc3 3ebe dd07 cb3d ab71 8c3e 55b3 08be
000000b0: 8642 c6be 3bdc 48bd 6c24 e93c 037e 013e
000000c0: 0166 5d3c aa7f e0bd c473 a63d 9e8c 82be
000000d0: e4b0 94be 6030 84be 6116 9f3d 20bc 723e
000000e0: 8b71 9f3b 6431 373e ae18 43be 3d1a ec3d
000000f0: 6000 c9bd 1c2b 1b3e 917b 2d3e e0f5 cc3d
00000100: edcc d83d 1231 0dbd dbae ee3d c4df f7bd
00000110: 6a7a b5bd 395d e1bd dbd4 db3c 6532 d3bd
00000120: 7c2f c8bc db41 dbbd 801e 563e 4afd a3bd
00000130: b29f ca3c 45a7 103e e76e 543e 065d c63d
00000140: 0d4d 86bc 3f80 8d3e 0989 fabd b2f9 70be
00000150: 94a4 f4bd ebca 2d3e 61d9 5bbe c99f c73d
00000160: a5f1 9bbd 5c35 2d3e 21cf d3bd 2adb 403e
00000170: 2ea5 fe3d a344 883d 37b6 81bd 2ac2 05bd
00000180: 15b9 01bd bd27 823c 49ba 5ebc c8d4 bb3d
00000190: 4488 eabd b0f7 cc3e 89f0 b2bd 1466 fa3d
000001a0: aa18 4ebd dde5 9fbd edc7 8dbe a08c 393e
000001b0: e7ab 713d 38c9 d1bd ef7b c93d 3c93 f8bd
000001c0: a2f4 553c 9c91 0abf b11b 0b3a 1361 8b3e
000001d0: 59fc b33c 20d8 52be 8feb 8ebe 1510 953e
000001e0: 7d11 5b3e c804 3abe e30d 69be 9c41 953d
000001f0: e6fe 253e eb64 cabd 8a75 b1bd 1c7c f83e
00000200: ea92 d73d ea20 90bc adeb 0d3d 22f0 263d
00000210: 60b8 c8bc a969 a5bb f558 6d3e 7228 ccbb
00000220: ba53 f93d 8c9c aa3d affc af3c 293f 10bc
00000230: e01d 363d c4e5 b2bb 8e34 42be 7368 c1bd
00000240: 1211 78bd b0c1 55be 3087 7b3e 9d95 18bd
00000250: 3478 67bd 553f 403e 335a 75bd 210a ef3d
00000260: 0c73 a13e 40dc 34bd c5d4 5c3c af65 1dbd
00000270: 367c a83d 0606 08be b412 b3be 56fb 51be
00000280: f8c9 00be 8f6f d9bd 5150 44bd 4fa5 623d
00000290: 1a1b d73d c57a 4fbe 8d0a c83d 9870 5cbc
000002a0: 827b 45be 46a2 57bd f808 e7bd de3d efba
000002b0: 6963 043e 858d 3f3d a12e 913e 7265 823e
000002c0: 773d f63e 0e51 12be 5e87 bfb8 018b 73bd
000002d0: bf5c 423e 7c3a ee3d 8b62 b7be 22f1 acbc
000002e0: a200 b63d bec3 a23d 7fb5 d43d a837 dfbe
000002f0: 8a00 c43d 190c 003f 6faa 093d 6497 823d
00000300: 25e3 0ebd e690 ea3d 6809 78be e26b 6ebd
00000310: 8d68 373e af25 e9bd aec3 6b3e 845e 2bbb
00000320: f742 cdbc 7e19 e8bc c6d3 2cbe f7f1 f73c
00000330: 626e 2d3d 39b5 17be 9d6c 0f3e c609 be3c
00000340: dcf4 49bd 81ab 0dbb 07b5 56be 5569 d1bc
00000350: 8ce9 c4bd 23fb d33c 2942 fe3d 5674 083d
00000360: 3260 10bd 71da d7bc d03a 35bd 7df9 b43d
00000370: 2a0d cf3d 429e ed3c c362 00be 30d3 aabd
00000380: 0645 8ebe bc91 89bd 7ce7 0bbe b68b e3bd
00000390: 67e4 85be 168c 313e fd16 463d 41c9 5dbd
000003a0: 5f9b 07be 3c39 9bbc f5be 223c b1fb e9bd
000003b0: 7f9c 0cbd 8a76 78bb d978 1f3e 274a 993d
000003c0: 1bcf ed3c b6a2 50be bff4 0dbe f713 e6be
000003d0: a7cd acbd db02 b3bd 3a38 03be cc20 7b3e
000003e0: b8e4 223e 1aa5 d5bd d503 6d3e a1ba 593b
000003f0: 2648 483e 9d18 b33d 7b29 adbc b81a 9ebd

graph_prop.message_funcs.3.bias f4 [64]
-0.06354164 -0.22628716 0.22975406 0.058770772 0.3151099 0.16194707 0.037962984 0.16621947
-0.051719073 0.055051822 -0.42432564 -0.031527586 0.023388239 0.01951534 0.14934479 -0.019249251
-0.06124907 0.1479344 0.1196128 -0.03084565 0.23246124 -0.37774357 -0.083557084 -0.22296838
0.06359465 0.0758523 -0.15575507 0.026377218 0.37031725 -0.029643048 0.023381714 -0.08438723
0.25746462 0.06416379 -0.04901282 -0.048448388 0.12357069 -0.07175766 0.08623368 0.029924046
-0.13649331 0.027619507 0.031132137 -0.038349245 0.10202646 0.05776653 0.0019146353 -0.0839974
0.035855774 -0.082755126 0.03565633 0.12374105 -0.10864372 -0.08644847 0.14066367 0.042787764
0.17742473 0.019728316 0.14063059 0.0828422 -0.045681484 -0.055023476 -0.13279061 0.015809305
00000000: 1f22 82bd d2b7 67be a644 6b3e 9fb9 703d
00000010: 1656 a13e 74d5 253e 137f 1b3d 7035 2a3e
00000020: 61d7 53bd 057e 613d 3641 d9be 1223 01bd
00000030: b198 bf3c a2de 9f3c d7ed 183e 9bb0 9dbc
00000040: 4ee0 7abd 1e7c 173e 8ef7 f43d 04b0 fcbc
00000050: 520a 6e3e 9b67 c1be fa1f abbd d351 64be
00000060: e93d 823d 7358 9b3d 427e 1fbe 0915 d83c
00000070: 399a bd3e fad5 f2bc 028b bf3c 36d3 acbd
00000080: 67d2 833e 4e68 833d abc1 48bd d171 46bd
00000090: a112 fd3d aef5 92bd 499b b03d 4623 f53c
000000a0: e7c4 0bbe 4e42 e23c d308 ff3c 1914 1dbd
000000b0: 40f3 d03d 999c 6c3d 80f4 fa3a d406 acbd
000000c0: 81dd 123d 857b a9bd 5f0c 123d f36b fd3d
000000d0: 9980 debd e50b b1bd 230a 103e 3942 2f3d
000000e0: d4ae 353e 479d a13c 7701 103e 2ca9 a93d
000000f0: 821c 3bbd 4c60 61bd 43fa 07be 8482 813c

graph_prop.node_update_funcs.0.weight_ih f4 [96, 64]
0.079281 -0.15295777 -0.12281099 0.073036335 0.19906378 0.13960722 0.11353939 0.05088418
-0.057348404 -0.10764251 0.14557098 -0.114857495 -0.045606405 -0.101684056 -0.003435175 -0.10378898
0.15001307 0.022479529 -0.3979562 0.0021482448 0.21489047 0.06552868 0.024965174 0.020218793
0.011525685 -0.33178622 0.14392892 -0.0376485 -0.036759008 -0.3183414 -0.07801169 0.14214444
0.2449076 -0.20709603 -0.0006590124 0.119648784 -0.055416856 -0.2063654 0.002856607 0.073937066
0.025988339 0.15281294 0.14986123 -0.16270599 -0.03747315 0.042364497 0.11736861 -0.10663191
0.037935454 -0.118153654 0.024078898 0.14671728 0.029432898 -0.0012115861 0.15081342 -0.14129111
-0.035096414 0.014230446 -0.032902956 0.18560006 0.17576699 0.036362745 0.030198483 -0.004606851
0.07496748 0.06793571 -0.084256485 -0.19110738 0.12369477 0.032511327 0.041337047 0.07142286
-0.038293254 0.16395059 -0.028906578 0.008882525 0.15778297 0.106732845 0.20593199 0.0927067
0.07883183 0.059583873 -0.0064125657 0.10341494 0.14617082 0.08108544 -0.20944038 0.13195433
0.04238623 0.1709051 0.18277487 0.0018355682 -0.1543422 -0.07900327 0.10095697 -0.034320753
0.16121463 0.1473884 0.32995296 0.03445254 0.12026977 0.0862668 0.06718898 -0.093700945
0.077746354 -0.045081403 0.2993733 0.11942043 0.17773634 0.06899286 0.10479458 -0.000297946
-0.078147694 0.059354063 0.052013334 -0.034081876 -0.012201828 -0.081440635 0.06618324 0.28015795
-0.044723354 -0.15940626 0.18321784 -0.11455338 -0.06312532 0.0885965 0.12037875 0.070576765
-0.079963066 0.22632353 0.12669225 -0.19125271 -0.020443682 0.19216035 -0.49376106 -0.31839347
0.0064665154 -0.023162201 0.043283507 0.016307637 -0.12542778 -0.027156342 -0.15765178 -0.17897668
0.14940801 0.04767846 0.04345576 -0.1337844 0.008955052 -0.1685006 0.1076124 0.011878079
0.094167635 0.1003727 0.038344357 0.19889642 -0.11115265 -0.0870834 -0.17777483 -0.26433307
0.2124518 -0.10718215 0.23014908 -0.042515047 0.096374564 -0.033628028 0.0061930516 0.05723293
-0.019190812 -0.25315785 0.09357307 0.20680545 -0.074016385 -0.277256 0.19831415 0.116788976
0.005929367 -0.04633777 0.15834029 -0.0772492 0.07489122 0.006992917 -0.3601486 0.14789759
0.07936187 0.10064289 0.030931788 0.13106553 0.034600515 -0.060135454 0.121963084 -0.040445
-0.019852465 0.21520218 -0.016265087 0.022961752 -0.17012842 0.12562448 -0.11690036 -0.2678029
0.10240154 -0.03489109 -0.37527108 0.05591957 0.24969678 0.3728386 -0.09131481 0.06315825
0.10524312 0.015043649 -0.0101039205 -0.004657315 -0.07940649 -0.04218104 -0.041915413 -0.062026076
0.3228184 0.041220203 0.091258086 -0.05463091 0.10267622 -0.13205005 -0.20220812 0.048110712
0.067746505 -0.0836712 -0.009030443 0.1685763 -0.05460944 -0.052485 0.09459717 0.13919559
-0.23185778 -0.045387127 0.06875971 0.12113861 -0.13995215 -0.2873843 0.056037802 -0.112634785
-0.06211314 0.016726704 0.08776551 0.098290674 -0.015105631 0.07114639 -0.10431989 0.14799364
0.23463823 -0.26207483 -0.10036734 0.075195484 0.031683292 -0.0039332146 -0.041413765 -0.12199786
00000000: 145e a23d f6a0 1cbe 5484 fbbd 1394 953d
00000010: 60d7 4b3e 32f5 0e3e 5787 e83d ee6b 503d
00000020: 29e6 6abd ad73 dcbd 8f10 153e 683a ebbd
00000030: c8cd 3abd bb3f d0bd ac20 61bb 518f d4bd
00000040: 079d 193e fd26 b83c eac0 cbbe 91c9 0c3b
00000050: 3f0c 5c3e e733 863d c483 cc3c e2a1 a53c
00000060: 3ad6 3c3c e2df a9be 1a62 133e 5035 1abd
00000070: 9d90 16bd a5fd a2be 98c4 9fbd 508e 113e
00000080: 0fc9 7a3e fb10 54be 93c1 2cba 6c0a f53d
00000090: c9fc 62bd 7451 53be ea35 3b3b 516c 973d
000000a0: 7fe5 d43c ff7a 1c3e 3975 193e 669c 26be
000000b0: 727d 19bd 6586 2d3d f45e f03d d561 dabd
000000c0: 3562 1b3d 8bfa f1bd 1c41 c53c 0e3d 163e
000000d0: 431d f13c 15ce 9eba d56e 1a3e 9eae 10be
000000e0: 42c1 0fbd d126 693c 40c5 06bd f10d 3e3e
000000f0: 43fc 333e 1af1 143d cf62 f73c 11f5 96bb
00000100: 8d88 993d e121 8b3d aa8e acbd a7b1 43be
00000110: af53 fd3d 992a 053d 0951 293d 2646 923d
00000120: 63d9 1cbd aae2 273e 7dcd ecbc 0388 113c
00000130: dc91 213e c096 da3d d6df 523e 03dd bd3d
00000140: 9572 a13d 380e 743d 8020 d2bb 36cb d33d
00000150: cead 153e 2010 a63d 8a77 56be 091f 073e
00000160: 2f9d 2d3d bf01 2f3e 5629 3b3e 7397 f03a
00000170: e20b 1ebe 77cc a1bd 87c2 ce3d eb93 0cbd
00000180: 7315 253e fcec 163e 98ef a83e 1b1e 0d3d
00000190: ff4f f63d a6ac b03d 609a 893d 48e6 bfbd
000001a0: 7b39 9f3d 47a7 38bd 7547 993e b392 f43d
000001b0: 8400 363e 214c 8d3d 8a9e d63d a335 9cb9
000001c0: e60b a0bd 3f1d 733d ef0b 553d 7099 0bbd
000001d0: 2dea 47bc 59ca a6bd 148b 873d dd70 8f3e
000001e0: d62f 37bd 653b 23be 759d 3b3e f69a eabd
000001f0: d947 81bd 1572 b53d 2289 f63d 8d8a 903d
00000200: adc3 a3bd 5bc1 673e 9dbb 013e c0d7 43be
00000210: 8279 a7bc afc5 443e 40ce fcbe 7804 a3be
00000220: 10e5 d33b a8be bdbc 0c4a 313d 9897 853c
00000230: 2470 00be fa76 debc 786f 21be aa45 37be
00000240: 6afe 183e 7d4a 433d abfe 313d c7fe 08be
00000250: 36b8 123c 6c8b 2cbe e463 dc3d 469c 423c
00000260: f6da c03d 3490 cd3d f90e 1d3d 81ab 4b3e
00000270: 00a4 e3bd c858 b2bd 9b0a 36be aa56 87be
00000280: f78c 593e 5182 dbbd 33ac 6b3e 4224 2ebd
00000290: 0760 c53d 8bbd 09bd 15ef ca3b 146d 6a3d
000002a0: 0d36 9dbc e89d 81be 3da3 bf3d cfc4 533e
000002b0: e795 97bd 80f4 8dbe dd12 4b3e 0f2f ef3d
000002c0: 234b c23b accc 3dbd f523 223e d434 9ebd
000002d0: 9160 993d d724 e53b 6665 b8be 7772 173e
000002e0: 7a88 a23d dc1d ce3d a964 fd3c 0b36 063e
000002f0: 45b9 0d3d 9850 76bd c8c7 f93d a8a9 25bd
00000300: a3a1 a2bc f65d 5c3e 5c3e 85bc 491a bc3c
00000310: 2536 2ebe b4a3 003e 7569 efbd 761d 89be
00000320: e6b7 d13d f6e9 0ebd 8823 c0be eb0b 653d
00000330: 83b0 7f3e b3e4 be3e 4203 bbbd 1d59 813d
00000340: b489 d73d a379 763c ea8a 25bc 649c 98bb
00000350: df9f a2bd 07c6 2cbd 7faf 2bbd 0e0f 7ebd
00000360: 7448 a53e 84d6 283d 85e5 ba3d a9c4 5fbd
00000370: e947 d23d 2138 07be a50f 4fbe bd0f 453d
00000380: aebe 8a3d ce5b abbd 6cf4 13bc 449f 2c3e
00000390: 26ae 5fbd 83fa 56bd 29bc c13d 4a89 0e3e
000003a0: 206c 6dbe dae7 39bd e4d1 8c3d 8517 f83d
000003b0: 9e4f 0fbe 0924 93be e587 653d 11ad e6bd
000003c0: 596a 7ebd 7106 893c 67be b33d 9f4c c93d
000003d0: 9c7d 77bc 33b5 913d aba5 d5bd a58b 173e
000003e0: 0145 703e ac2e 86be 648d cdbd 1700 9a3d
000003f0: 57c6 013d 32e2 80bb 7ba1 29bd 04da f9bd
