housingpipeline/housingpipeline/dgmg/model.pth (torch, 296803 bytes, 42 tensors)

graph_embed.node_gating.0.weight f4 [1, 16]
000000 a7 03 7b be 66 ad 02 3f 4f 49 7c 3f 22 5f d6 be
       -0.24513112 0.51045835 0.9854936 -0.41869456
000010 79 2c db bd 0f 55 88 3d 0f 54 fb 3e c8 6a 36 3f
       -0.10701842 0.06656849 0.4908757 0.71256685
000020 de 78 a3 bd 78 49 94 be 0c 3e 9f be 14 f3 a7 bd
       -0.07982038 -0.28962302 -0.31102026 -0.0820066
000030 f5 ce 29 3f de c4 3e 3e 55 f8 75 3e d4 28 b9 bd
       0.66331416 0.18629786 0.24020512 -0.090409905

graph_embed.node_to_graph.weight f4 [32, 16]
000000 f6 45 22 be 8c 78 96 3e 15 ad 99 3c a8 b7 41 bd
       -0.15847 0.29388845 0.01875929 -0.04729429
000010 33 4b 01 be e3 a8 21 bd 10 d5 3b bc f8 ae 35 3d
       -0.12626342 -0.039467704 -0.011464372 0.044356316
000020 e0 c2 19 be 88 b3 3e 3d d0 e6 4c be 3b be 0d be
       -0.15015745 0.046557933 -0.20009923 -0.13842098
000030 a4 fc 6c 3d b2 34 58 be ba 3f 19 3e 50 61 38 be
       0.057858124 -0.21113852 0.14965716 -0.18005872
000040 56 78 82 bc bb e4 3b 3e bf 43 e5 bc 86 07 8c be
       -0.015926521 0.18348972 -0.027986405 -0.2734949
000050 c9 c9 8a bd 02 2c 48 3e c6 5e c0 3d e2 1b 58 be
       -0.06776769 0.19548038 0.093930766 -0.21104386
000060 c4 4d db bd 30 f2 40 be 05 ee a9 3b 3e fa 75 bc
       -0.10708192 -0.18842387 0.005185845 -0.015013276
000070 bc 19 cf be 35 e9 17 3f 48 75 8b 3d 31 3a df be
       -0.4044932 0.5934022 0.06809479 -0.43599084
000080 89 46 e9 3d fe fd f6 3e 38 4c 39 3e 43 f7 86 be
       0.11390407 0.48240656 0.18095481 -0.2636052
000090 f0 d6 bf be 94 2d c5 3d df 5e 81 3e 8b 4e 15 3f
       -0.37468672 0.09627834 0.25267693 0.5832297
0000a0 16 d8 1b 3e 58 66 73 be b3 85 09 3e e9 80 09 bd
       0.15219149 -0.2376951 0.13429908 -0.033570204
0000b0 be 72 90 3e e5 22 24 3e 5e e6 24 be 72 fd 8e 3d
       0.2821254 0.16028936 -0.16103503 0.069819346
0000c0 88 ff 93 3e 1b a0 ac 3d de de 4b be ee c0 bf bd
       0.28905892 0.08428975 -0.19909236 -0.0936297
0000d0 7f ab 6e 3e a1 3b 03 3e fe f8 ca bd 59 fd d4 3e
       0.23307608 0.12815715 -0.09910773 0.4159954
0000e0 ad 8d be 3d 9b 93 af 3d 39 74 1a 3e b2 86 07 be
       0.09304366 0.085730754 0.15083398 -0.13234976
0000f0 02 13 04 be 4d 2f df 3e 34 dc 4d 3e d4 bd 7b bd
       -0.12897876 0.43590775 0.20103532 -0.06146033
000100 f4 8e fa 3e 49 64 41 be 21 a7 d7 be f7 c5 18 3e
       0.4893719 -0.18885912 -0.42119697 0.14919268
000110 cb ba 7a 3e 7c a9 aa bd 7c cd 60 3e 1d b2 8a be
       0.24485318 -0.08333108 0.21953386 -0.27089015
000120 a4 66 40 3e 77 f0 5c 3e 4d cb c6 bd e6 d9 70 3e
       0.18789154 0.21576105 -0.09706745 0.23520622
000130 22 e7 c8 3d a4 74 6a bc 63 ce 8c 3e 69 59 0e be
       0.0980971 -0.014310036 0.2750121 -0.13901295
000140 a8 14 9a 3e 2f 0c 96 3d 0f a0 ab 3b dc 8f b5 bd
       0.30093884 0.073265426 0.0052375863 -0.088653296
000150 5b d8 93 bc 7b 8c 2d be 61 9f c4 bc c4 91 74 3e
       -0.018047502 -0.1694812 -0.024001779 0.2388373
000160 18 e6 ea 3e 8b c7 b0 3e a9 9f 3f 3e b8 6b d9 bd
       0.45878673 0.3452724 0.1871325 -0.10616249
000170 c7 4f 19 3e e9 44 d3 be db 5c 5c 3e 4a 1a 1b be
       0.14971839 -0.41263512 0.21519797 -0.15146747
000180 b5 61 bb be 3a e1 1c be b8 60 75 bd ec 24 52 be
       -0.36597982 -0.15320292 -0.05990669 -0.20521897
000190 51 7c 27 3e 6b 01 95 be 2a aa ab be 3f 01 d2 bd
       0.16356017 -0.29102644 -0.33528262 -0.10254144
0001a0 f9 5d 36 3e 1d fe 1a 3e f9 21 07 be 84 c3 69 be
       0.17809285 0.15135999 -0.13196553 -0.2282849
0001b0 cc ec 23 3d 95 3f 8e bd 8c 65 9f 3d f6 83 05 3e
       0.04002075 -0.06945721 0.077830404 0.1303862
0001c0 b1 e9 b3 bd b2 d8 6b be ca 1e 35 3c 87 b0 97 be
       -0.087848075 -0.23031881 0.011054704 -0.29626867
0001d0 79 d7 bd 3d b5 de 58 bd 71 27 0d 3e e8 39 e1 3d
       0.09269614 -0.052946765 0.13784577 0.10997373
0001e0 65 b9 fb be 22 33 dd 3a 0d 55 0b 3f e0 ab f2 bd
       -0.49164882 0.0016876201 0.5442665 -0.11849189
0001f0 fa 06 94 be de 62 17 3e 7e a7 ad 3e 74 6a 00 be
       -0.28911573 0.14783809 0.3391685 -0.12540609
000200 c3 d9 cf be f0 d3 2d 3c 43 e5 9c be bc de cd 3d
       -0.40595827 0.010609612 -0.30643663 0.10052249
000210 ed 1a 98 3e 6e 31 a2 bd 36 20 8c 3e db 20 1c bd
       0.29708043 -0.07919584 0.27368325 -0.03811727
000220 4c a5 47 3e e9 40 6d 3c 54 f7 b9 be 85 87 82 3e
       0.1949665 0.014480808 -0.3632151 0.25494018
000230 d5 8e 5f be 4e 2d c8 3d f6 16 83 be c1 9b bf be
       -0.2183183 0.09774266 -0.25603455 -0.37423518
000240 60 34 f4 3d 13 b4 d0 bd e0 d2 d2 bc 6d e2 55 bc
       0.11924052 -0.101905964 -0.025735319 -0.013054472
000250 ed cb cc 3e 5e 40 6a be af d6 e5 3b 28 b3 56 3e
       0.39999333 -0.22876117 0.0070141177 0.2096678
000260 e4 db 84 be 33 d2 34 be 28 99 a8 3e a9 96 0d 3e
       -0.25949013 -0.1765831 0.3292935 0.13827004
000270 68 5b 20 3a f8 7d 33 bc a6 90 87 be 68 b9 24 be
       0.0006117136 -0.010955326 -0.26477545 -0.16086352
000280 42 3e fc 3d 79 bd 10 3e 26 d2 1d 3e e8 37 d8 3d
       0.12316562 0.14134778 0.15412197 0.10557538
000290 65 05 2a be 35 52 a9 bd 5c f7 51 3e c6 de 10 be
       -0.1660362 -0.08267633 0.20504516 -0.14147481
0002a0 c9 42 e7 3e 10 f2 5f 3e 27 e9 a9 3e c9 61 d1 3b
       0.4516814 0.21869683 0.33185694 0.0063898307
0002b0 fa 77 6a be 70 55 61 3e 88 64 84 3e e3 27 d7 bc
       -0.2289733 0.22005248 0.2585795 -0.026264137
0002c0 73 53 f3 3d 9d af ae 3e fb c5 56 3e ee 31 88 bd
       0.11881151 0.34118357 0.20973961 -0.06650148
0002d0 2e 79 b4 3b d4 43 a6 be 6c 97 1f be 13 35 1d 3d
       0.00550761 -0.32473624 -0.15585107 0.038380694
0002e0 65 cc d1 bd 11 ac cc be 06 1d 85 bd 4f 84 52 be
       -0.10244063 -0.39975026 -0.064996764 -0.20558284
0002f0 81 c8 80 be ec 02 1b bc 80 35 21 3d a1 f2 cc 3d
       -0.25152972 -0.009461146 0.039357662 0.10007215
000300 6f 80 69 bd d0 a8 d8 3d 80 32 b8 bd 54 15 5d be
       -0.05700725 0.105790734 -0.08994007 -0.21590167
000310 d1 3b 20 be 15 ac 90 3d 7d f6 94 be c8 da e7 3d
       -0.15647818 0.07064072 -0.29094306 0.11321026
000320 9b 7c f9 3e a8 9a 59 3e c4 27 d7 3c 43 3d 53 be
       0.4872788 0.21250403 0.026264079 -0.20628838
000330 70 1b d1 3d 66 b9 db bd 26 37 d4 be ff d1 cd bd
       0.102103114 -0.10728721 -0.41448325 -0.10049819
000340 9c 35 31 be f5 18 c8 bc 93 0b 08 3f 6e d1 5a bd
       -0.17305607 -0.024425963 0.5314266 -0.053422384
000350 08 d4 24 3e a5 99 71 3d c6 46 af bd 2e b9 f7 3d
       0.16096509 0.058984417 -0.08558421 0.12095867
000360 28 ee ea bd c6 a4 de 3d 72 82 9c be 93 78 4c 3d
       -0.11471206 0.10871272 -0.30568272 0.049919676
000370 84 81 60 bc 47 93 98 bd d5 52 a0 3e c0 e4 3f 3e
       -0.013702754 -0.07449966 0.31313196 0.18739605
000380 eb a9 b2 3e 59 87 ea 3d 88 0c 77 3d 8a 1d e7 3d
       0.34895262 0.11451597 0.060314685 0.11284931
000390 7a b3 34 bc f2 3d 42 3e d9 74 8a bd ba ce a4 be
       -0.011029119 0.18968943 -0.06760568 -0.3218897
0003a0 c0 8f fe 37 86 50 8e 3e fd 86 12 3e 65 15 c2 bd
       3.0346098e-05 0.2779581 0.14309306 -0.09476737
0003b0 ec 41 18 be b7 a7 e0 3b 39 64 8c bd 89 1d f8 bd
       -0.14868897 0.0068559307 -0.068550535 -0.121150084
0003c0 88 a8 ac 3d b2 64 14 3e a7 f8 3a bd 38 3b f1 bc
       0.08430582 0.14491537 -0.04564729 -0.029447183
0003d0 a5 96 97 bc 1a b4 4c 3e 37 08 8f 3e ee a7 9e 3e
       -0.01850445 0.19990578 0.27935955 0.30987495
0003e0 e9 5a aa 3d aa b4 4e 3d 41 1b cf 3d 74 13 ac bd
       0.08318121 0.050465263 0.1011262 -0.08402148
0003f0 62 e3 69 be 3c 59 24 3e 4d d1 1f 3e 57 87 d0 3d
       -0.22840646 0.16049665 0.15607186 0.10182064

graph_embed.node_to_graph.bias f4 [32]
000000 08 81 10 3f 56 4e 04 40 d7 a8 0f 3f 9d cd 2f 3f
       0.56446886 2.0672812 0.56117004 0.68673116
000010 7c a7 30 be 76 ac dd 3c 3c b0 ee 3f 1d 82 36 3f
       -0.1725139 0.027059775 1.8647532 0.7129229
000020 ed a0 3d 3f c7 ba 7d 3e 34 20 43 bf d7 3b fd 3e
       0.7407368 0.24778281 -0.76221013 0.49459717
000030 26 78 3a 3e 2c 31 e3 3e ce c8 1b 3f 55 f5 45 3f
       0.18209895 0.44373453 0.6085328 0.7732747
000040 47 d9 84 3e 1e 6c b2 be fd 39 8f be a6 69 8e 3f
       0.2594702 -0.34848112 -0.2797393 1.1125991
000050 52 3e cc 3e d5 77 87 3f 46 d3 44 bf bb 9f ca be
       0.39891297 1.0583445 -0.7688488 -0.3957499
000060 11 2c 43 bf 41 a8 d0 3e 07 6f 96 bf cd f8 8c 3f
       -0.76239115 0.40753368 -1.1752633 1.1013428
000070 b1 6a 66 3f b1 3c ed bd 49 4a 2e 3f d1 56 26 3f
       0.9000655 -0.115838416 0.680821 0.6497622

graph_prop.message_funcs.0.weight f4 [32, 34]
000000 2d ea c1 3c c9 35 4f 3e 73 b3 94 bc 9f 2b 72 bd
       0.023671234 0.20235361 -0.018151974 -0.05912363
000010 3e 69 81 3c f1 49 15 be b8 1b d1 3d ae 3d 9b 3d
       0.015797254 -0.14578988 0.10210365 0.07580124
000020 1b 93 cb bd c1 ea ea 3c 7e fe 85 bd 54 07 e6 bc
       -0.099401675 0.028676393 -0.06542681 -0.028079666
000030 42 50 b6 bd 3e ec 83 3d e1 d4 58 bd f7 a8 f1 3d
       -0.08902027 0.06441544 -0.052937392 0.117998056
000040 20 90 3a bd d1 26 6c 3d c8 f5 35 be c2 20 2c 3e
       -0.045547605 0.057654206 -0.1776954 0.16809371
000050 39 4d ef 3d 4a 22 29 bd c4 a3 dc bc 94 56 7b bd
       0.11684651 -0.041292466 -0.026933558 -0.061361864
000060 87 0d ac bd 5a f0 ac bc be 27 cf 3d d3 0a d6 bc
       -0.08401018 -0.021110702 0.10115002 -0.026128208
000070 04 b0 1d 3e 47 01 2d bc 38 1d 36 3d ad 3f 34 3b
       0.15399176 -0.010559387 0.04446146 0.0027503774
000080 1f ca 99 3c 23 73 9e bd 76 3f 6a be ef d4 cd bc
       0.018773137 -0.07736804 -0.22875771 -0.025125949
000090 df ce b0 3d 49 85 60 3d 5b 89 5f bd 64 9a eb 3d
       0.086332075 0.05481461 -0.05457435 0.11504057
0000a0 2b bb 42 3e e2 e6 aa 3d 63 d4 9f 3c c2 7c 3d 3d
       0.19016711 0.08344819 0.019510454 0.046261556
0000b0 d2 52 de bc 52 b4 a2 bc d9 1c 61 bd 36 b4 8c bd
       -0.027139101 -0.019861374 -0.054959152 -0.0687031
0000c0 59 78 2b 3e 46 dd 56 be c4 f0 34 3d 78 32 b7 3d
       0.16745128 -0.20982847 0.044174924 0.08945173
0000d0 b9 94 42 3c 28 20 81 bd e9 47 1e 3c 04 dd ed bc
       0.011876279 -0.063049614 0.009660699 -0.029036053
0000e0 25 45 2c 3d d9 ed 68 bd 6c d2 ee 3d 79 db 56 bc
       0.04205813 -0.056867454 0.116612285 -0.01311385
0000f0 41 4f 0b be 67 6d 9c bd 39 ba 5e be 28 f2 52 3d
       -0.13604452 -0.07638054 -0.21750726 0.05150047
000100 dd 8e 10 be 08 90 06 3e 09 93 7e 3d d9 86 aa bd
       -0.14116998 0.13140881 0.062151942 -0.083265014
000110 22 36 f9 3d 1a f8 42 bc 04 32 00 3e 09 5e 2a 3e
       0.12168528 -0.011899972 0.1251908 0.16637434
000120 1d b9 d2 bd 72 30 a1 3d c1 de 51 bd 4d c1 d7 3c
       -0.10289214 0.07870568 -0.051237825 0.02633729
000130 49 36 98 bd 1a 23 b5 3c 43 d9 27 be 6f 5f e4 bd
       -0.07432229 0.022111464 -0.16391473 -0.11151015
000140 6d 59 b4 3c 57 69 9a bd 3f ee 71 3b ad f8 ad bd
       0.022015298 -0.07539623 0.0036915687 -0.08494697
000150 85 75 28 3c 98 0b 71 bc 11 e0 08 be 5e 60 92 3d
       0.010281925 -0.014712237 -0.13366725 0.07147287
000160 33 ff bf bd 70 0f 7b bc 18 96 ae 3d 82 cc 24 3b
       -0.09374847 -0.015323505 0.08524722 0.002514631
000170 f1 4b 8e bc 27 9b 7a bd 47 44 53 bc e6 11 02 3e
       -0.017370196 -0.06118312 -0.012894697 0.1270214
000180 b3 12 d9 3c fc 3b 0a 3e 96 86 4e be c5 c2 57 bd
       0.026498174 0.13499445 -0.20168528 -0.05267598
000190 7c 56 91 3d bc 43 83 3c a4 7f 80 3d 9c 10 cf 3d
       0.07096574 0.01602351 0.062743455 0.1011059
0001a0 2c f9 09 3e 45 44 14 3e 23 05 e0 bd c3 b8 e0 bd
       0.13473958 0.14479168 -0.1093848 -0.109727405
0001b0 7c e6 00 3e 03 94 58 3d fd 68 96 bd 00 68 4e bd
       0.12587923 0.05287553 -0.07344244 -0.05039215
0001c0 e0 1a 9f 3c 76 8a 11 bd 2b 60 af bc 00 ba 03 bd
       0.019421995 -0.035532437 -0.021408161 -0.032159805
0001d0 56 e6 d4 bd dc a7 1d be cf 79 c6 bd a5 1e d3 3c
       -0.103954956 -0.15396065 -0.09691202 0.025771448
0001e0 f8 9a 28 3c a0 85 76 bd fd 43 9c bd 23 9f 5f 3d
       0.010290854 -0.06018603 -0.07630155 0.054595124
0001f0 f7 eb 9c bd 59 79 8e 3b 0f 65 1e be a0 d6 41 bd
       -0.07662194 0.004347962 -0.15468238 -0.047323823
000200 b4 7d 0e be e9 d0 21 be 0f ce b9 bc e8 f7 f4 3c
       -0.1391514 -0.15802349 -0.022681264 0.029903367
000210 31 1d cd 3b d1 52 84 3d 30 b7 05 be 40 34 fd bc
       0.0062595834 0.064611085 -0.13058162 -0.030908704
000220 89 fa c6 3c 82 2b 71 3c ae 58 37 bd 20 0c e7 3d
       0.024289386 0.014719846 -0.044762306 0.112816095
000230 26 2d a2 bc d7 77 29 bb 50 24 d0 3c 2f 18 7d 3d
       -0.01979692 -0.0025858784 0.02540794 0.06179064
000240 96 ca b7 bd e3 a5 62 3d e9 9a 94 bd 5e 5f 1d 3c
       -0.08974187 0.055333983 -0.07256109 0.009605257
000250 70 50 5c be d4 d2 ba bd 8f da 14 be 52 aa cb 3d
       -0.2151506 -0.091222435 -0.14536498 0.099445954
000260 d4 3e 9e 3d c7 4b a0 3d ab f9 00 3e 44 00 3c bd
       0.07726827 0.078269534 0.12595241 -0.04589869
000270 90 44 9f 3d 4c 3f 03 3d c0 ca 7d bd 84 e2 e7 3d
       0.07776749 0.032042786 -0.061960936 0.11322501
000280 5d 27 73 bd 80 dd 56 3d 08 52 41 3d bc f2 d2 bc
       -0.05936371 0.052457333 0.04719737 -0.02575051
000290 3e f8 5b 3d 01 69 3a be f6 7c 0d 3e ea d5 fe bc
       0.05370354 -0.18204118 0.138172 -0.031107862
0002a0 d7 69 8f 3e 27 ab d3 bd b4 16 1f 3e 93 7d e8 bc
       0.28010437 -0.10335379 0.15536004 -0.028380191
0002b0 2d 86 90 bd 9e c0 1e bd 23 37 8c bd c1 84 a6 3c
       -0.07056842 -0.038757913 -0.06846454 0.020326974
0002c0 f2 43 0f 3e 09 a2 d4 3d 3f 05 63 3c d8 99 4e 3b
       0.13990763 0.10382468 0.013856231 0.0031524803
0002d0 f8 f6 ba 3d 33 13 02 be 71 28 4c be 08 3c 1f bd
       0.09129137 -0.12702636 -0.19937302 -0.03887561
0002e0 5b df 8d bd 94 28 46 be f9 55 55 bd 56 35 06 3d
       -0.06927367 -0.19351417 -0.052083943 0.03276571
0002f0 fe 44 4e 3d 48 5e 64 3d 8c 90 d8 bd 32 b9 26 3e
       0.050358765 0.055753976 -0.10574445 0.16281584
000300 0e c5 4e bd 5c d3 8f be 7c d9 53 be 2a f3 3d 3b
       -0.050480895 -0.28090942 -0.20688432 0.0028984048
000310 9c cb 82 bd 37 41 83 3d 6b 6d bb 3c 97 36 aa bd
       -0.06386492 0.06408923 0.022879323 -0.083111934
000320 ed 22 2b 3c e6 03 e7 bb 00 ba cb 3c 0e 06 29 be
       0.010445339 -0.0070500253 0.024868965 -0.16506216
000330 5e e1 cc bc 2a d4 69 3c f8 dc ea 3d d7 47 56 bd
       -0.025009807 0.014271775 0.11467928 -0.052314606
000340 4e af 98 bb 28 8b 05 be cd 4b 1a bd 53 53 fc 3b
       -0.00465957 -0.13041365 -0.037669946 0.0077003627
000350 ae a1 22 3e c0 48 50 3e de 07 a3 3d 06 01 2e bd
       0.15881988 0.20340252 0.07960485 -0.042481445
000360 c4 ed 64 bd 0a 4f 9a 3c 8d 03 0e bc 0b 76 9b 3b
       -0.055890813 0.018836517 -0.008667839 0.0047442964
000370 fb 6f 2b 3d 80 49 65 bc 91 c0 8f bb 70 ff 26 3c
       0.04185484 -0.013994575 -0.0043869694 0.010192737
000380 72 da 80 bd 35 9a 3f 3e 36 dd 70 3d 92 74 c0 bd
       -0.06291665 0.18711169 0.058804713 -0.09397234
000390 37 73 33 be 24 08 2e bd 2e f0 c1 3c 83 ff 8f 3c
       -0.1752442 -0.042488232 0.023674097 0.017577892
0003a0 a1 15 7c 3e f9 e4 f4 bd 00 20 f3 3d 77 11 19 3e
       0.24617626 -0.119577356 0.11871338 0.14948069
0003b0 26 3b 27 be df e1 2e 3b 5a fa ee bd 61 af 25 bd
       -0.16331157 0.0026684923 -0.116688445 -0.040450457
0003c0 48 a3 ae bd a3 d0 c6 3d e0 f5 26 3b 8d 2b e5 3d
       -0.08527237 0.09707763 0.0025476143 0.11189947
0003d0 b4 7e 95 3d 55 cb 06 3d 7a 3d a4 bd c2 33 67 3d
       0.07299557 0.032908756 -0.08019538 0.056445844
0003e0 1c 3a 6d 3d 61 b3 2e 3d 36 82 36 be 76 c3 47 3c
       0.057916746 0.042651538 -0.17823109 0.012192598
0003f0 77 10 8d bd f1 9a bb bd ee ae 60 bd d5 7f 71 bc
       -0.06887906 -0.09160412 -0.054854326 -0.01473995

graph_prop.message_funcs.0.bias f4 [32]
000000 01 e0 2e 3e b6 b0 0a 3c b4 fc 1a 3e 50 c1 36 bb
       0.17077638 0.008464983 0.15135461 -0.002788622
000010 73 b1 fd 3d 48 c8 e0 3c 3c 32 c8 bb d9 4d 83 3e
       0.123873614 0.027439252 -0.006109504 0.2564533
000020 20 64 25 3e 46 13 f0 3d 50 ac 25 be fe 5a 84 3d
       0.16151476 0.11722426 -0.16179013 0.06462668
000030 40 9b 11 3e 24 9d b3 b8 a9 d0 ae 3d d7 6d f9 3b
       0.1421938 -8.564655e-05 0.085358925 0.007611971
000040 0e ae b8 bd 99 15 31 3e 1e 95 43 bd df 45 1a 3e
       -0.09017573 0.17293395 -0.04774963 0.15065716
000050 fb 46 09 3d 69 f4 37 3e 8d c4 b6 bc 3b fc c8 bb
       0.033514958 0.17964329 -0.02231052 -0.006133584
000060 8d 54 8e 3d 3f c0 c8 3c 50 28 1b 3e ca c0 81 3d
       0.069497205 0.024505733 0.15152097 0.063356
000070 e4 44 b1 bc c3 73 5b 3e 77 94 e8 3d 7c 0b 59 bd
       -0.021639295 0.21430878 0.113564424 -0.052989468

graph_prop.message_funcs.1.weight f4 [32, 34]
000000 76 a6 9e bc 43 7e a0 3d a1 af 6c bd 92 c7 52 3b
       -0.019366484 0.078365825 -0.05778468 0.003216241
000010 41 22 9e 3d 79 1f b3 3d bd 50 68 be 91 85 cd bc
       0.07721377 0.08746237 -0.22687049 -0.025088103
000020 e8 8d 32 3e e1 04 03 be 0b ee 06 3c 8b 1f c9 3d
       0.17436945 -0.1279483 0.008235465 0.098204695
000030 b7 21 29 3d c9 a4 9d bd 60 f2 35 bb d6 43 86 bd
       0.04129192 -0.07697446 -0.0027762875 -0.065559074
000040 47 47 ad 3d 7d 32 ea bc f1 c0 43 3d 9a 00 12 3e
       0.08460861 -0.028588528 0.047791425 0.14258042
000050 0c d5 a1 3d 36 ed 55 3d 92 b2 9a bd b0 6f 9a bd
       0.079019636 0.052228175 -0.07553591 -0.07540834
000060 d1 67 b4 3d 77 de b9 3d 8a ee ee 3d 4a bd dc bc
       0.08808864 0.09075635 0.116665915 -0.026945729
000070 e6 ac f8 3d 16 3e 7a bc c3 6d ec 3d 14 e2 d4 bd
       0.12142353 -0.0152735915 0.11544373 -0.103946835
000080 64 7e 06 bd 31 4b 30 3d 0a 6d a0 bc 1b 22 7c 3d
       -0.03283538 0.043040458 -0.019583244 0.061555963
000090 82 bb 78 bd 9c 2a 3a bd af 1a c4 3c e9 cd 3c be
       -0.060725696 -0.04545079 0.023938505 -0.18437923
0000a0 e3 96 2b 3d ea 6f 1b bd 39 09 e8 bd 23 ae 29 3d
       0.041891944 -0.037948526 -0.11329884 0.041425835
0000b0 ec c1 e6 3d 5b 49 9f bd 38 c0 d7 bd da 52 c4 bc
       0.112674564 -0.07777663 -0.1053471 -0.023965288
0000c0 c6 aa 36 3e ad 3a ce 3d c3 f2 66 bc dd 6c 98 3d
       0.17838582 0.10069785 -0.014095965 0.07442639
0000d0 eb 1c 00 3e 05 82 7f 3d b1 10 70 3d d5 5c 7a 3c
       0.12511031 0.062379856 0.05860967 0.015280922
0000e0 b9 62 2d 3e 41 8b db 3c a6 9e f4 3b 33 91 2d 3d
       0.16932191 0.0267998 0.0074652014 0.0423748
0000f0 a8 67 a8 3e 22 33 0c be ce 04 44 3e 17 d0 14 3d
       0.32891583 -0.1369138 0.19142458 0.036331262
000100 fb 81 ad bd 11 3b 2b bd f9 28 19 3e ae e3 27 3e
       -0.084720574 -0.041804377 0.14957036 0.16395447
000110 6b c8 2b be 11 c4 28 bd ad f9 9e 3b 60 10 e1 bc
       -0.16775672 -0.04120261 0.004851541 -0.027473629
000120 4f b2 0e be 4a f5 04 be 84 48 97 ba f6 3d de 3d
       -0.13935207 -0.12984195 -0.0011541997 0.10851662
000130 03 ea bd 3d 77 30 21 3e d8 7c 0e be 1f ea ed 3d
       0.0927315 0.15741144 -0.13914812 0.11616921
000140 74 f7 3b 3e 46 80 e8 bd b5 17 7e 3d 17 5b f8 3d
       0.18356115 -0.11352591 0.062034328 0.12126749
000150 44 a3 a8 3d b7 32 55 bd 41 75 86 3d 46 07 13 3d
       0.082342654 -0.05205032 0.06565333 0.03589561
000160 ef 31 f7 bc 74 e5 05 bd a7 4d d8 3d 5f ae 8e 3d
       -0.030175177 -0.032689527 0.10561686 0.069668524
000170 7e 85 e8 bd cc fb 58 3b d5 fd 2b 3e 2b 27 9c 3d
       -0.113535866 0.0033109067 0.16796048 0.07624658
000180 e1 ca 9d bd 5c 14 8b 3d 2f 49 72 3d 97 e3 df 3d
       -0.07704712 0.067909926 0.059151825 0.10932081
000190 e2 97 be bc 7a a0 da 3d 81 8e 97 bd 42 17 6f bd
       -0.023265783 0.1067514 -0.07400227 -0.05837179
0001a0 61 5a fd bc 82 8c 85 bd 40 af 3f 3d 82 7e da bd
       -0.030926885 -0.0652094 0.04679799 -0.10668661
0001b0 83 21 d9 3c 47 01 94 bd 12 c3 23 3c 30 a7 9f bd
       0.026505237 -0.07226806 0.009995239 -0.0779556
0001c0 3f 1b 0e 3a ed 58 b7 bc 16 31 66 bd cd 60 db 3c
       0.000542093 -0.02238127 -0.056199156 0.026779557
0001d0 c5 e1 f6 bc 7a c7 6c bb 2e 0b cf bc 22 03 d9 3d
       -0.030136952 -0.003612964 -0.025273886 0.10596301
0001e0 ca 42 0a bd 2b 38 c7 bc 09 dd 31 be 14 11 1a 3d
       -0.0337551 -0.024318775 -0.17369474 0.037613943
0001f0 52 6e d5 bc 3f 12 a5 bd b0 0a 6f bd fc e7 9b bd
       -0.026053581 -0.08060121 -0.0583598 -0.07612607
000200 f0 ff 11 3d 3a f9 f5 bc 1b 49 05 be f3 d2 78 bc
       0.03564447 -0.030026067 -0.13016169 -0.015187013
000210 0e fd 5a bd 17 5a d8 bb ae d6 99 bd 52 d8 01 be
       -0.053463988 -0.0066025364 -0.0751165 -0.12680176
000220 c2 1b 0c be fc 50 ef bd d3 6f c1 bd df 92 d8 3d
       -0.13682464 -0.116853684 -0.09445157 0.105748884
000230 cf f7 cb 3d ba cf 08 bd bf 40 7f bd c7 42 54 3d
       0.09959375 -0.03340123 -0.062317606 0.051821496
000240 6e 25 5c bd 5d 27 67 3e a3 49 3a bc f4 f1 80 bd
       -0.053746633 0.2257361 -0.011370095 -0.06296149
000250 2c e7 f6 bd c2 13 c1 bd f0 65 a6 bd 22 04 60 bc
       -0.12055811 -0.09427597 -0.08124912 -0.01367286
000260 f2 6f e3 3c f0 2d 11 bc a1 00 4c 3d 04 3c 2d 3d
       0.02776334 -0.00886105 0.049805287 0.042293563
000270 71 6c 73 3d 79 c1 b5 bd 50 77 d6 3d 15 1e cc 3d
       0.05942959 -0.088747926 0.10471976 0.09966675
000280 19 d8 3b 3d cf bc 25 be ae ca e9 3c 81 66 99 bc
       0.045860384 -0.16185306 0.028539028 -0.018725635
000290 7f 78 53 3c d5 21 02 3e 2d 69 29 be da 57 91 bd
       0.0129071465 0.12708218 -0.16544028 -0.070968345
0002a0 75 70 b2 bd e4 a2 8b bc db 2f 4a bd 5c 46 43 be
       -0.08712856 -0.017045446 -0.049362045 -0.19069809
0002b0 96 c6 1e 3e 43 a2 70 bd ee 3c d9 bc 0e 36 67 bc
       0.15505442 -0.058748495 -0.026518311 -0.014112009
0002c0 80 20 89 3d 6f 98 23 3c 42 58 57 bd 8c 9b 2c 3d
       0.06695652 0.0099850735 -0.052574404 0.04214053
0002d0 4f d1 a7 3d 18 58 0d 3e da 3f d6 bd ec 00 bd 3d
       0.08194219 0.13803136 -0.104613975 0.092286915
0002e0 56 21 f5 bd 72 b3 da bc c6 06 2b 3d 12 26 eb 3d
       -0.11969249 -0.026696894 0.041754507 0.11481871
0002f0 77 fb e8 3d 3b e6 b9 bd 28 92 a1 3c 91 84 81 3d
       0.11376088 -0.09077116 0.019723013 0.06324113
000300 38 73 dc bd 6e 24 3c be 17 68 d4 bd 5e 00 f3 3d
       -0.10764164 -0.18373272 -0.10371416 0.118653044
000310 f1 13 c9 bd c5 6c 09 bd 42 5d 0c bd 16 fd ff 3c
       -0.09818257 -0.033550996 -0.034268625 0.03124861
000320 da 32 78 3e f4 61 59 bd 9c e6 42 be 0c 36 96 bd
       0.24238148 -0.05307193 -0.19033283 -0.073345274
000330 88 9d 8f 3c 94 f6 0d 3e 0d d0 14 3e 01 2d 9c 3d
       0.017531171 0.13863593 0.1453249 0.07625771
000340 2b 88 bf bd 13 e9 0d 3d 42 96 f3 bc 22 c3 29 3c
       -0.09352144 0.034646105 -0.029734734 0.010361465
000350 35 07 2a 3d fb 8a cd 3c 83 36 2e be 74 30 64 bd
       0.04151078 0.025090685 -0.17012982 -0.05571027
000360 e3 81 77 3c d4 96 3a bd 39 2e 17 3e d3 30 ef 3d
       0.015106651 -0.045553997 0.14763726 0.11679234
000370 09 3a 40 3e 49 aa 11 3d 13 87 2c bd eb d1 69 bd
       0.18772139 0.035562787 -0.042121004 -0.05708496
000380 77 ee 1f 3e d0 07 36 3d e1 a2 c6 3c ee 9b 04 3e
       0.15618311 0.044441044 0.024247589 0.12950107
000390 b0 ba dc bd e9 4e 3b bd d6 59 6e 3b 66 64 f2 bd
       -0.10777795 -0.04572955 0.0036369464 -0.11835556
0003a0 ab 06 92 bc 8e 2c e4 3d b6 d8 b4 3d e6 1f ef 3d
       -0.017825445 0.11141311 0.08830397 0.11676006
0003b0 33 be a6 bc 22 0a 72 bd 57 87 05 be d1 23 fd bd
       -0.020354366 -0.059091695 -0.1303991 -0.12360347
0003c0 f5 36 d0 bd cc 73 ea 3d 07 2f 5d bd b4 22 ac bd
       -0.10166732 0.11447868 -0.053999927 -0.084050566
0003d0 6a 53 c0 bd 97 90 b4 3d e1 a6 32 3e 47 45 50 be
       -0.0939091 0.08816641 0.17446472 -0.20338927
0003e0 b7 74 a1 3d fa 11 bf bd 1a 4a 80 3d c5 68 17 3e
       0.0788359 -0.09329601 0.06264134 0.1478606
0003f0 dc 61 5b 3d af 92 11 3e f7 07 ee 3d 1f b6 28 3d
       0.053560123 0.14216112 0.11622613 0.04118931

graph_prop.message_funcs.1.bias f4 [32]
000000 a2 7d a4 b9 d5 b5 db 3c 1d d6 e5 3d bb 8f d0 3d
       -0.0003137412 0.026820103 0.112224795 0.101836644
000010 c4 e1 0c be bc 98 c7 3b 60 29 b4 bd ca ed 9c bd
       -0.13757998 0.0060912054 -0.08796954 -0.07662542
000020 9d fd 29 3e 53 25 92 3c 25 00 be 3d 82 b3 5e bd
       0.16600652 0.017840063 0.09277371 -0.05437041
000030 0d db f1 bd 4b 8d d6 3b 60 04 92 bd bd c8 c9 bd
       -0.11809359 0.006547605 -0.07129741 -0.09852741
000040 b8 96 01 3c 2f 71 a8 bd 2d 77 1d 3e 0f b1 0f ba
       0.007909469 -0.08224713 0.15377493 -0.0005481401
000050 a6 03 02 3d 7b 62 09 3c 7b 4f cd 3d 8c 4c a9 3c
       0.03174176 0.008385296 0.10024925 0.020666383
000060 7e 5b c1 3c af 5a 8c bd ab 99 77 3d ca 18 60 3d
       0.023603197 -0.06853234 0.060449284 0.05471114
000070 d7 03 10 3d 6e a2 20 3d 93 d1 f8 bc 28 4d 50 be
       0.035159912 0.039217405 -0.03037337 -0.20341933

graph_prop.node_update_funcs.0.weight_ih f4 [48, 32]
000000 e2 cf 60 3e bf 79 91 bd 2f 23 2c be 3e 93 92 3d
       0.21954301 -0.07103299 -0.16810296 0.071569905
000010 2a c5 0b 3e 70 bc ce 3d e5 42 cd 3d 66 c1 f0 3b
       0.13649431 0.10094535 0.10022525 0.0073472736
000020 78 ec 6e bc 23 a7 ce 3d 28 08 54 3b 74 fa a8 be
       -0.014582746 0.100904725 0.0032353494 -0.3300358
000030 de c3 a1 be ad db 0d bd 67 cc 83 bd f0 59 ae bd
       -0.31594747 -0.034633327 -0.06435471 -0.08513248
000040 36 3f 60 bc bd 4d 68 be ed 38 ef 3d 4b 09 20 bd
       -0.013686946 -0.22685905 0.116807796 -0.039071362
000050 c8 d4 92 3d bf 5b 93 bc 0e 28 c0 bd b1 7c 43 3e
       0.07169491 -0.017988084 -0.0938264 0.19090535
000060 16 89 78 3e f7 fd cf 3d 1a 9d b1 bd 9b 5f f4 3d
       0.24271044 0.10155862 -0.08672543 0.11932298
000070 c9 83 c8 3b 18 91 5b 3e a8 6d 9a 3d 52 e4 81 3e
       0.0061192256 0.21442068 0.075404465 0.25369507
000080 cc 63 72 bc e4 ac 5e 3e d2 ce af bd af bf ab bd
       -0.014794301 0.2174564 -0.0858437 -0.0838617
000090 bd da 54 be 6a c8 51 be bb d3 1b 3d ce e2 07 be
       -0.20786567 -0.20486608 0.03804372 -0.13270113
0000a0 67 0f 8a be b5 99 fa bc e1 c6 58 be 60 8e 8f be
       -0.26964876 -0.030590871 -0.21169616 -0.2803831
0000b0 ab fc 31 bc 7b 14 d8 bd 60 2d a5 3b 99 84 da 3d
       -0.010863463 -0.10550781 0.0050408095 0.10669822
0000c0 99 66 5d bc 2f 5b ae bc f3 69 56 bd 62 b3 0f be
       -0.013513231 -0.021283714 -0.052347135 -0.14033273
0000d0 ef ff c2 bd 1f 99 2f 3e b8 c3 14 be 55 0e ab 3e
       -0.09521472 0.17148255 -0.14527786 0.33409372
0000e0 14 fc 1c bd 58 42 f8 3c 83 e0 8f bd eb 3f 2f 3d
       -0.038326338 0.030305073 -0.07025244 0.042785566
0000f0 c2 69 07 be 05 40 0e bd 5e 74 13 3b 85 b9 be 3d
       -0.13223937 -0.034729023 0.002249978 0.09312729
000100 8b 88 a0 3e f1 e3 f8 bc c4 4c 9a 3c bb 59 50 3e
       0.31354174 -0.030382128 0.018835433 0.2034673
000110 11 59 ba bd 2d c7 af bd 50 ed a7 bd 6e 52 1d 3d
       -0.09099019 -0.08582912 -0.08199561 0.03840869
000120 69 37 02 3e 1d b0 72 bd 36 3f 1d 3e 8a ee 4d 3e
       0.1271645 -0.059249986 0.15356144 0.20110527
000130 3e b4 27 3e 53 20 4d 3e 98 b8 02 be 21 39 27 3c
       0.1637735 0.20031862 -0.1276573 0.010206492
000140 88 54 80 bc df d1 39 be e3 b5 d8 3d 5f 29 c6 bd
       -0.015665308 -0.18146466 0.10581567 -0.0967586
000150 7f f7 37 3e 98 63 0e 3d 31 a1 38 3e 67 66 82 3e
       0.17965506 0.03476295 0.1803024 0.25468752
000160 5a 01 3d be fc 66 6b 3d 49 9d 4d 3e 88 71 b3 3d
       -0.18457547 0.05747126 0.20079531 0.08761889
000170 dd ce 20 3e 1d 4f 73 bd 7b 00 f7 3c 49 24 eb bd
       0.15703912 -0.05940162 0.030151596 -0.1148153
000180 a2 99 8d 3d f8 fb 67 bd b8 6b 4e 3b ae 22 33 3e
       0.06914069 -0.05663678 0.003149731 0.17493698
000190 d8 84 65 bd 83 b2 d8 3d e0 96 08 bc cb 9a 86 be
       -0.056034893 0.105809234 -0.008336753 -0.26289973
0001a0 f2 19 a5 be 48 46 84 3d 51 63 db bc a8 9e c5 bc
       -0.32246357 0.064587176 -0.026780756 -0.024123505
0001b0 48 d6 2b 3e 5f a8 dd 3c dd 9a 22 3e 27 39 66 be
       0.1678096 0.027057825 0.15879388 -0.2248274
0001c0 0c f6 e5 3c a5 1b 77 be d0 37 34 3d e6 07 18 3d
       0.028071426 -0.2413164 0.04399854 0.037116908
0001d0 fc ac 9c 3c 14 54 85 bc 8c 93 85 3d 70 74 e8 bd
       0.019125454 -0.016275443 0.06522283 -0.11350334
0001e0 69 4c d3 3c 09 f5 82 bd af 8d 9d be 87 9d 96 3d
       0.025793271 -0.06394393 -0.30772159 0.07354265
0001f0 f8 40 a0 3d 4c a7 45 bd 19 00 b1 3d 12 53 35 be
       0.07824892 -0.04825525 0.08642597 -0.1770747
000200 5b 28 60 3d 49 00 f6 3d 12 3a 26 3e f1 36 33 3e
       0.054725986 0.12011773 0.1623309 0.17501427
000210 fa f6 9f be 9e a3 51 3c 3f 4a c3 bd c0 60 93 3e
       -0.31243116 0.012795357 -0.09535646 0.28784752
000220 e4 06 f4 bc 5b da 2c 3c 92 db 1c 3e 71 01 13 be
       -0.029788442 0.010550107 0.15318134 -0.14356019
000230 c6 b0 fd bd fe 6b a4 3d ec 67 f3 3d 15 7b 15 be
       -0.123872325 0.080284104 0.11885056 -0.14597733
000240 59 70 0e 3e 39 b0 91 3c 1e ea 0d be bd ad 2c 3d
       0.13910045 0.017784225 -0.1385884 0.042157877
000250 3a 9b fe bd 53 b6 95 be d3 69 ae 3d 1b 26 ea ba
       -0.12431951 -0.29240665 0.08516278 -0.001786414
000260 00 ad 4c 3d b1 21 fd 3d 3e 90 ba bd 33 cf e1 3c
       0.049969673 0.12359942 -0.09109543 0.02756462
000270 54 35 d1 3d 76 8e d1 3a 23 db 3c 3e c5 2b b3 be
       0.1021525 0.0015987891 0.18442969 -0.3499433
000280 64 d6 2f be fe c3 af bd 48 ac f2 3d f2 96 64 3e
       -0.17171627 -0.085823044 0.11849266 0.22323206
000290 f3 4e 73 be c9 4b 9d bd 76 89 e3 3c f5 b3 94 be
       -0.23760585 -0.076804705 0.027775507 -0.29043546
0002a0 30 a6 e1 bb 8c 84 cd 3d 2c 73 ee 3d e9 ad 69 be
       -0.006886266 0.10035047 0.11643061 -0.22820248
0002b0 58 72 27 3d 1e 15 2f 3e f5 2b 42 be 5e 43 3e 3e
       0.04088053 0.170979 -0.18962081 0.18580386
0002c0 36 15 05 be 3b 8f ec bd 4d c5 5c be cd ab c8 bd
       -0.12996373 -0.115507565 -0.2155964 -0.097983934
0002d0 a8 f7 ea 3d 43 e9 22 3e 51 1e 00 be 21 a2 9b 3d
       0.11473018 0.15909295 -0.12511565 0.07599283
0002e0 b3 2c a5 bd bc 27 6a 3d 21 2a b6 3d 7e e8 73 bd
       -0.08065166 0.0571668 0.08894754 -0.059547894
0002f0 c5 1f e0 bd 4a e8 26 3e 66 b9 82 3d 76 52 81 3c
       -0.109435596 0.16299549 0.06383018 0.01578639
000300 e4 32 35 3d 87 ba 02 be ed 3c 48 bd a2 c8 ba 3d
       0.044237986 -0.12766467 -0.04888623 0.09120299
000310 e3 d1 0d be d7 ca 81 bd 7a f7 61 3e 53 d4 63 3e
       -0.13849597 -0.06337517 0.22067061 0.22248964
000320 8c b5 86 3e ba 7d 03 3e 59 d3 3e 3d f1 6f 34 3e
       0.26310384 0.1284093 0.046588276 0.17620827
000330 9c 2f b7 3d 66 89 2b 3b b5 31 88 bd 04 56 c6 3a
       0.08944628 0.0026174425 -0.06650106 0.0015131836
000340 63 88 3d bd 3c f6 80 3c 01 3b 2e be 39 8a 50 3c
       -0.046272647 0.015742414 -0.17014696 0.012728267
000350 0a 77 69 3d bc c1 04 be d5 21 f6 bd db 30 46 3e
       0.05699829 -0.12964529 -0.12018172 0.19354574
000360 db f9 ea 3d ef ff ce 3d b6 f3 aa bd 75 15 7c be
       0.114734374 0.10107409 -0.083472654 -0.2461756
000370 c7 25 53 be ec 5a 59 3e a2 8b 1b 3e 5e 42 01 3e
       -0.2061988 0.2122609 0.15189984 0.12622973
000380 0f 51 93 bd bf 2a 82 3e e5 4c 8e bd cd 24 81 bc
       -0.07193195 0.25423238 -0.0694826 -0.015764618
000390 b5 d1 8d be c2 df 0d 3d 90 39 50 bc 20 1f bc bd
       -0.27699056 0.03463722 -0.0127090365 -0.09185624
0003a0 96 61 84 3c af 34 97 3d af b1 75 bd 72 11 22 3e
       0.016159814 0.073830955 -0.059983905 0.15826967
0003b0 2f 5c 18 3e 9c 73 44 be 1d c1 09 3e b6 ad 38 be
       0.14878915 -0.19184726 0.13452573 -0.18035015
0003c0 34 90 29 be d1 3e f8 bd 7b 35 5c 3c 0b 0d 70 3e
       -0.16558915 -0.12121356 0.013440485 0.23442475
0003d0 d7 11 5d bd 2a 39 1d 3c d8 c8 c1 3d b7 e0 84 3e
       -0.05397209 0.0095961485 0.09462136 0.25952694
0003e0 8e b6 e8 3d 7f 49 49 3e 4b 29 53 bd 3d 8e 78 3e
       0.113629445 0.19656943 -0.051553052 0.2427301
0003f0 07 b2 4d bd c2 b5 7e be 2c c9 74 be a8 be c7 3d
       -0.05021861 -0.24874023 -0.23904866 0.09753162

graph_prop.node_update_funcs.0.weight_hh f4 [48, 16]
000000 9b e6 35 3c 6b 86 09 3e 17 f4 17 3e 6b 4e 19 3c
       0.011102344 0.13430183 0.14839207 0.009357075
000010 79 65 2e 3e a2 3c cd 3e a1 37 c5 bc 4f 04 10 bc
       0.17030896 0.40085322 -0.024074377 -0.00879009
000020 4f 99 e9 3d a3 7e d0 bd 17 a3 86 be 7d 93 81 3d
       0.114061944 -0.10180404 -0.26296303 0.06326959
000030 8a 52 73 3b 88 1f 3a 3e 50 bb 44 3e 10 32 20 be
       0.0037128055 0.1817609 0.19212079 -0.15644097
000040 9b f7 31 3e fd 02 43 3d bb 58 32 3d 14 6d 98 3e
       0.1737961 0.04761027 0.04354165 0.2977072
000050 ac 7a 1e 3e 3b e2 9a be bf 55 40 be ac e1 e2 bb
       0.15476483 -0.30250725 -0.1878271 -0.006923875
000060 ea 21 2c bd 97 ef a7 bd 2b 18 2b 3e 9d 6d 0e bd
       -0.04202453 -0.08199995 0.16708438 -0.034772504
000070 04 e6 81 3d 11 59 23 3e 00 74 6a 3e ee 62 6b 3e
       0.063427 0.15951945 0.22895813 0.22986957
000080 b1 56 10 be 0a 12 3f bc dd a9 a9 bd 12 c3 a7 3d
       -0.1409557 -0.011662016 -0.08284352 0.081915036
000090 46 df c1 bd 68 cc 1a bd ba 93 f7 3d 77 f4 5d be
       -0.09466414 -0.037792593 0.120887235 -0.21675287
0000a0 6f bc c7 3d ea 29 ce ba b7 5b bd bd 44 18 07 bc
       0.09752738 -0.0015729044 -0.09246009 -0.0082455315
0000b0 54 7e 16 bd b8 69 71 3e 33 8d 54 bd c0 9e 25 3e
       -0.03674157 0.23575485 -0.05189247 0.1617384
0000c0 5a ce 83 3d cf 88 6c 3d 3a 68 89 3e 57 ca f4 bd
       0.06435843 0.05774766 0.2683733 -0.11952656
0000d0 30 94 02 3e 9e 2b 8d be 12 22 4c 3e b1 5d 0e be
       0.12751842 -0.2757234 0.19934872 -0.13902928
0000e0 7f 67 3e be 81 b3 1f be d3 59 48 be d8 e4 bc 3d
       -0.18594168 -0.15595819 -0.19565515 0.09223336
0000f0 cc ac 87 bd 4a ca d8 3d 67 af 83 be cf 24 87 3e
       -0.06624755 0.105854586 -0.2571976 0.2639527
000100 96 67 aa 3d c4 84 fd bd 32 4b 5f 3c d3 3d c5 3d
       0.08320539 -0.12378839 0.013628768 0.09630933
000110 78 36 14 be d2 df 3c 3e 32 03 13 3e 8d fa 10 3e
       -0.14473903 0.18444756 0.14356688 0.14158078
000120 53 98 24 be 6a 37 c4 bd 30 ec bc bd a2 68 b7 3e
       -0.16073732 -0.09580882 -0.09224737 0.35822016
000130 c1 02 9a 3c e4 66 b4 bd b3 01 8a bd 4e 80 7a 3d
       0.018800141 -0.08808687 -0.06738605 0.061157517
000140 49 7c 0a 3e 88 8f 78 bd 80 94 c2 3d 77 6c 84 bc
       0.13523974 -0.060683757 0.095009804 -0.016165001
000150 4a af 8e 3e 64 d2 1a 3e f9 bf f4 bc 7b 27 93 3e
       0.2786811 0.1511932 -0.029876696 0.2874106
000160 23 90 81 bd 8b b9 5a 3e e1 2f aa bd bd 3a f1 3b
       -0.0632632 0.21359842 -0.083099134 0.0073617385
000170 2a ac 91 3a 41 c5 de 3d 67 4a b8 bd d1 21 26 3d
       0.0011113931 0.10877467 -0.08998566 0.040559594
000180 0a ea ce 3c 12 ca 1e be 56 1b f3 bd 26 dd e9 3d
       0.025258083 -0.15506771 -0.11870448 0.11419134
000190 94 59 dc 3d f2 67 72 3d c8 7a 58 3c 05 b6 46 3e
       0.10759273 0.05918116 0.013212867 0.19405372
0001a0 b1 4d 15 be 8f 5c 0e be 7a 04 6e bd a0 94 11 bc
       -0.14580418 -0.13902496 -0.058109738 -0.008885533
0001b0 fe 7b ff bd 8e e2 a8 3d 52 90 e3 3d b9 c4 5b be
       -0.124748215 0.08246337 0.11111511 -0.21461762
0001c0 97 4a 4d 3e cc 1c 79 bc 22 43 12 3e 97 e4 3e 3e
       0.20047985 -0.01520462 0.14283422 0.18641888
0001d0 64 54 60 be 76 9d 3b 3d f8 0b 08 3e 40 ac e9 3d
       -0.21907192 0.045804463 0.13285816 0.11409807
0001e0 a4 95 5b bd 07 19 be 3d 47 4e f2 bd 01 23 8c be
       -0.053609505 0.09282117 -0.118313365 -0.27370456
0001f0 d1 6e c9 be db 97 9b be 00 8d 38 3e f2 2e cb 3e
       -0.3934236 -0.30389294 0.18022537 0.39684254
000200 02 b8 18 3c b1 fe 0d bc 6a be 50 bd 20 b6 88 bc
       0.009321215 -0.00866668 -0.050962843 -0.016688406
000210 1a 39 4a 3e 07 a5 cf bd a5 ac 8e bc 52 7f e2 bd
       0.19748345 -0.10138898 -0.017416308 -0.11059441
000220 ed 0a 57 bb 01 ed cc 3d 6f 69 81 be b7 a6 09 be
       -0.0032812909 0.100061424 -0.25275752 -0.13442503
000230 9a f6 c0 be 4f 8c 21 3e e9 2f be bd 72 93 bd bd
       -0.37688142 0.1577618 -0.09286482 -0.092566386
000240 82 ff 9f 3c 8a b5 8f be 0f 0d 8f 3d c3 e5 8a bd
       0.019531015 -0.2806819 0.069849126 -0.06782105
000250 0b 71 7d 3d 67 d1 2f bd 65 0c 20 3e 54 6c db 3b
       0.061875384 -0.04292431 0.15629728 0.0066962633
000260 47 b5 9b bc 02 84 a1 3c d9 26 9f be bf 22 20 be
       -0.019007338 0.019716267 -0.31084326 -0.15638255
000270 bc 31 81 bc 6b f8 94 3d 42 07 61 3e fe 79 41 bc
       -0.015770786 0.072739445 0.21975425 -0.01180887
000280 03 bc dd 3c 62 3c c1 bd 4a 04 b0 bd a5 e0 1f be
       0.02706719 -0.09435345 -0.08594568 -0.15613039
000290 5c 21 5d 3e 08 f9 01 3c dd 59 10 bd 08 cb 1d 3e
       0.21594757 0.007932909 -0.03524195 0.15409482
0002a0 2e c7 0a be 1a 76 93 bd 93 f2 af 3d ef df 4b be
       -0.13552544 -0.072002605 0.08591189 -0.19909643
0002b0 aa 39 e5 3d d3 01 26 3e d1 24 3f be 3d 6a 44 3e
       0.11192639 0.16211633 -0.18666388 0.19181152
0002c0 2c f7 9d be 10 88 c7 bc 0b 3a f5 bd ae ce 20 3e
       -0.3085264 -0.024356872 -0.119739614 0.15703842
0002d0 5e e4 04 3e 1b d6 23 be 74 f9 3b 3e 0b 2a ee bb
       0.1297774 -0.15999644 0.18356878 -0.0072681955
0002e0 46 b4 a6 3d 1c c5 52 3b 77 f2 04 3e 20 e6 ba ba
       0.08139853 0.0032160943 0.12983118 -0.0014259256
0002f0 c1 1f 13 be d2 8b 34 bd f4 cf 48 3e f9 5a 1e 3e
       -0.14367582 -0.044078656 0.19610578 0.15464391
000300 f3 60 c8 bd 4a 8e 00 be 06 80 5b be 9a c1 95 bb
       -0.097841166 -0.12554279 -0.21435556 -0.0045701982
000310 35 0f 26 3e b9 6a e2 bd 96 c3 c0 3d 04 bd 24 3d
       0.16216739 -0.11055512 0.09412305 0.04021932
000320 0f a7 84 be cc 95 b1 3d 36 e6 6f 3e e4 61 cc bc
       -0.25908706 0.086711496 0.23427662 -0.024949022
000330 c9 b5 47 be 90 05 47 bd 2c ae b4 3c 5e 29 2e be
       -0.1950294 -0.04858929 0.022055708 -0.17007968
000340 dc ea 81 3d 0e 22 79 3d 7d 05 08 3e 3d 7a 15 be
       0.06343624 0.060823493 0.13283344 -0.14597411
000350 de 14 0e 3e 63 70 24 3d 6a 91 80 39 33 ac c9 bc
       0.13875148 0.040146243 0.00024522404 -0.024618244
000360 87 85 47 be 75 1f 9c be 96 fd 8c 3d d9 47 c1 be
       -0.1948453 -0.3049275 0.06884305 -0.37750128
000370 de 23 51 3d 08 ec 84 be 3c f3 30 bd 3a 72 6d be
       0.051059596 -0.25961328 -0.043200716 -0.23188105
000380 cb 91 13 be cf 59 c8 be 2c d3 29 3e 7f 7b 0d be
       -0.14411084 -0.3913102 0.16584462 -0.13816641
000390 dc c9 a7 bd 2c 27 04 3e 5b 3d f2 bd 5b 53 73 be
       -0.081927985 0.12905568 -0.11828109 -0.23762266
0003a0 f3 ee 34 be e3 c5 d5 3c 3b 05 d6 bc d3 5e 40 3e
       -0.17669277 0.026095336 -0.026125541 0.18786173
0003b0 df 72 62 3d 26 7b 32 be b5 da d7 3d ee 0d 5d 3e
       0.05528533 -0.1742979 0.10539762 0.21587345
0003c0 61 36 69 3e 54 b0 03 3e d0 7e c3 39 fa c4 51 bc
       0.2277465 0.12860233 0.0003728778 -0.0128033105
0003d0 bc 24 c0 bd 54 c7 9a bc 74 2f a7 3e 53 2f 45 3e
       -0.093820065 -0.018893875 0.3265339 0.19256334
0003e0 c4 0a a1 bd 38 07 58 be cd bf d4 3d 2a 50 1d 3e
       -0.078633815 -0.21096504 0.103881456 0.15362611
0003f0 6b 0e ef 3d 9d 71 0d 3e 8b 8f 15 be db d4 d1 3d
       0.11672672 0.13812871 -0.14605539 0.10245677

graph_prop.node_update_funcs.0.bias_ih f4 [48]
000000 07 1c bb bf bd 58 a1 3f ec 0f 31 bf 24 c1 10 3f
       -1.4617928 1.2605206 -0.6916492 0.5654471
000010 06 e1 37 3f e7 69 39 3e 0d 73 03 bc c5 f3 6e bf
       0.71827734 0.18106805 -0.008023036 -0.9334071
000020 2c c5 17 bf f7 6d d8 3e 33 e8 83 3f 00 26 2d bd
       -0.59285235 0.42271397 1.0305237 -0.042272568
000030 fb 14 f1 be f1 ad 44 3e ce 89 2c 3f df d5 cd be
       -0.4708632 0.19206978 0.67397773 -0.40202233
000040 7e 8c 98 3f 6d 22 4f 3e 2e 65 e2 3e 2e 1b 11 be
       1.1917875 0.20227976 0.4421782 -0.14170524
000050 7a 85 06 bf a6 be 8a bf 9f 2f 54 bf 4c db 89 3f
       -0.5254742 -1.0839431 -0.82885164 1.0770049
000060 8a fc 81 be 35 6c 31 3f 65 ff 5e 3f e7 da b3 bd
       -0.25387985 0.69305736 0.8710845 -0.08781987
000070 aa ac 01 3f 75 18 8e bf 83 0c 87 be 38 78 92 bf
       0.5065409 -1.1101214 -0.26376733 -1.1442938
000080 7f 9e 90 3f 6e 6b 91 bf 66 85 78 3f 8f 63 9a 3f
       1.1298369 -1.136091 0.9707855 1.2061633
000090 8d 7d db 3d ab 19 a2 bf 51 f0 67 3f ec de 25 bf
       0.10717306 -1.2664083 0.9060107 -0.64793277
0000a0 fc fb ec bd 24 fb 7d bf 4f e8 92 3f 08 7c 96 3e
       -0.115715 -0.99211335 1.1477145 0.29391503
0000b0 1b 69 e5 bf 77 4a 92 3e dd 73 ab bf c6 98 c1 3f
       -1.7922701 0.28572437 -1.3394734 1.5124748

graph_prop.node_update_funcs.0.bias_hh f4 [48]
000000 17 24 42 bf 68 d5 d7 3f a4 3b 00 bf 61 f7 19 3f
       -0.7583632 1.6862001 -0.50091004 0.60143095
000010 11 98 72 be 47 1f 3f 3f a0 5d 0d 3d 01 88 43 3f
       -0.23690821 0.746571 0.034513116 0.763794
000020 a3 d1 9f 3e 86 f2 59 3d fc b3 17 40 ae f5 e5 bd
       0.31214628 0.053209804 2.3703604 -0.112285
000030 76 e3 8f 3e 7e 66 79 3f c5 f1 e5 3e e6 55 80 3e
       0.28103226 0.97422016 0.44911018 0.25065535
000040 2c ed b3 3f a5 bf 83 bd 2d 1c ac 3e 30 c4 27 bf
       1.4056754 -0.06433038 0.33615246 -0.65533733
000050 2c 00 24 bf 66 81 a5 3d b9 c0 a2 3f 38 db f4 3f
       -0.6406276 0.080813214 1.2715064 1.91294
000060 3c f2 17 3f e9 25 3c bf bf 60 49 3f c2 9d 9a bf
       0.59353995 -0.73495346 0.7866325 -1.2079394
000070 1c 0b 85 be b8 22 15 3f cc ef 1f c0 da 63 86 bf
       -0.25985038 0.582561 -2.499011 -1.0499222
000080 01 66 31 bf 52 d0 c2 be 21 16 b3 3e f2 ab 9e 3e
       -0.6929627 -0.3804956 0.3497782 0.3099056
000090 24 05 73 3f 1d d7 61 be cf 13 6b bf e8 3c 8a be
       0.9492972 -0.22054715 -0.918271 -0.26999593
0000a0 24 27 f6 be 67 4c fc 3f 9e 9a f3 be 1b 5f 9b 3f
       -0.48076737 1.9710816 -0.475789 1.2138399
0000b0 5c a8 19 3e 57 d3 19 3f 06 88 8c 3f 7c f0 9a 3f
       0.1500563 0.60088104 1.0979011 1.210464

graph_prop.node_update_funcs.1.weight_ih f4 [48, 32]
000000 38 aa 0e be c7 ed 82 3d 8c a6 88 3b a2 a9 6e 3e
       -0.13932121 0.06393009 0.0041702446 0.23306897
000010 f4 a5 b8 bc c4 a6 2d 3e c9 67 63 3d f1 ff 97 3e
       -0.02254007 0.16958147 0.0555189 0.29687455
000020 17 20 64 be 42 f8 5c bd 67 85 de bd 38 f3 33 be
       -0.22277866 -0.053947695 -0.10865288 -0.1757325
000030 39 30 a4 3d 28 e3 bd 3d e6 58 da 3d 45 f9 a6 be
       0.0801701 0.09271842 0.10661487 -0.32612053
000040 8f 1d 85 3c 02 15 76 3e 99 0b 2d bc e5 ec cf 3d
       0.016249446 0.24031451 -0.010561847 0.10152606
000050 48 35 27 3e 99 81 48 3e e4 73 75 be 73 44 81 bd
       0.16328919 0.19580688 -0.2396999 -0.06311884
000060 d1 26 d5 3d fb ac 0f 3c 91 98 96 3e b3 78 60 bd
       0.10407794 0.008769269 0.29413274 -0.054802608
000070 41 db 9f bd 3a 9a 5d be 4d e8 19 3e 89 be d8 bd
       -0.07805491 -0.21640864 0.15030022 -0.10583217
000080 87 3e 9c 3e 1d 4f 55 be 0a 21 2e 3e 87 ee a7 3d
       0.30516455 -0.2083096 0.17004791 0.08199792
000090 97 17 32 3e 97 ef 25 3e ee a9 17 be cc 75 3b 3d
       0.17391811 0.16204678 -0.14810917 0.045766637
0000a0 9d 4d 62 bd 36 f6 33 3e 4d 08 13 bc b4 da 41 be
       -0.0552498 0.17574391 -0.008974147 -0.18931085
0000b0 a8 22 10 3d 06 43 65 3e c6 96 0f 3e d9 27 ce 3d
       0.0351893 0.22388849 0.14022359 0.10066194
0000c0 11 bf fe bd ca f6 90 3e 3f 50 8b bc 64 20 a6 3d
       -0.12438787 0.28313285 -0.017006038 0.08111647
0000d0 43 32 93 bc 9f 61 87 bd 47 0e 44 3d 7c 4d 83 3e
       -0.017968303 -0.066104166 0.04786518 0.25645053
0000e0 8f da b2 be 41 22 32 bd 3d 1a 27 be d7 27 f4 3d
       -0.34932372 -0.0434897 -0.16318603 0.11921661
0000f0 df d4 3a 3e 6e 69 0e 3e 6f 01 12 3c 50 40 61 bd
       0.18245266 0.13907406 0.008911475 -0.054992974
000100 af 63 d9 3d 91 5d c6 3d 9f 81 25 3e 73 67 47 bd
       0.10614716 0.09685815 0.16162728 -0.04868264
000110 53 a9 99 3d 04 4b 29 3d 21 04 20 bd 15 a7 8a bc
       0.07502999 0.041331306 -0.039066438 -0.016925374
000120 dd 68 65 be f6 f2 be bd fc fe 58 3e 4f bf 2e 3d
       -0.22403283 -0.09323685 0.21191019 0.042662915
000130 2d fe 00 be 0c 1d ed 3d e1 18 ad bd 6e b5 ec bd
       -0.1259696 0.11577806 -0.08452011 -0.115580425
000140 2b 3f 40 3e c6 11 c9 bd d1 00 00 3e 0f c7 cd bd
       0.18774097 -0.09817843 0.12500311 -0.10047733
000150 13 e4 43 be 94 52 87 be 0e 9b 9c 3e 97 c0 26 be
       -0.19129972 -0.2643019 0.30587047 -0.16284405
000160 04 5c b5 bd b6 84 8b bd c3 28 9e 3d cc a2 62 3e
       -0.08855441 -0.06812422 0.077226184 0.22132415
000170 c4 27 88 3d 32 8d b8 bd eb fe ff 3a db ac 86 3d
       0.0664821 -0.09011306 0.0019530928 0.06575938
000180 4b a5 1a be 78 fd 36 be 9f 41 86 3e d7 d3 fd 3d
       -0.15102117 -0.17870128 0.2622194 0.12393921
000190 22 e0 03 3e 0a 41 0c be b8 3a 25 3c 54 b0 8e be
       0.12878469 -0.13696685 0.0100848 -0.27868903
0001a0 fd 3f 42 be 97 1c d9 bd 54 4d 48 3e e0 92 14 3d
       -0.18969722 -0.10601156 0.19560748 0.036272883
0001b0 ca a5 05 be a7 ec f0 bc ed 01 a6 3c a9 0c 07 3e
       -0.13051525 -0.02940972 0.02026459 0.13188423
0001c0 16 9f 1b 3d 37 c9 3e 3e e3 bd f3 3d 9e cf ba 3d
       0.037993513 0.18631445 0.119014524 0.09121631
0001d0 c7 1c 5d 3d ef 92 c1 3d 9f 6d 1b be 10 f0 06 be
       0.053982522 0.094518535 -0.15178536 -0.13177514
0001e0 6a 2b 8c 3d 51 65 c0 bd c4 aa 8a bd 34 2f 45 bb
       0.06844218 -0.093943246 -0.06770852 -0.003008795
0001f0 2c 24 19 3d fe ec 25 be c5 82 28 3e c7 ec 6a 3e
       0.03738801 -0.16203687 0.16456135 0.22941886
000200 b0 5b cb bc 91 6b 1c 3d 54 df d9 bd df 18 f6 3d
       -0.024823993 0.03818852 -0.106382996 0.120164625
000210 79 dc 2b 3e 2a a8 e4 bd b4 23 21 be 10 28 cf 3e
       0.16783322 -0.11164887 -0.15736276 0.40460253
000220 65 59 07 3e cb e0 04 be 16 5c 8c 3e b4 1a 1c 3e
       0.13217695 -0.12976377 0.27414006 0.15244561
000230 0a f5 f1 3d 1e b6 39 3d 9a c4 a6 3d d4 5e d6 3d
       0.118143156 0.045339696 0.081429675 0.10467306
000240 47 cf 8c 3d 78 85 bf 3c d1 9e 09 bd 69 ce 70 3d
       0.068754725 0.023379073 -0.033598725 0.058790598
000250 d2 0b 5b 3e 41 7e 86 3c 98 be b0 3e 34 31 59 3d
       0.21391228 0.016417624 0.34520411 0.05302544
000260 71 0c 48 3e dc d4 13 bd 4d 5b 66 3d 8e b9 d1 3b
       0.19535996 -0.03609167 0.056239415 0.0064002937
000270 28 a0 cf 3d 75 31 2a 3d f6 52 87 3e ec 0e 7b 3e
       0.10137969 0.041551072 0.26430482 0.24517411
000280 fd 40 06 3e 7e 9d 21 be dd f5 00 be 70 41 45 3b
       0.13110729 -0.15782735 -0.1259379 0.0030098818
000290 63 4a 6d be 8f c6 3b 3d 69 52 61 be 6f a3 57 bd
       -0.23172908 0.045843657 -0.22004093 -0.052646097
0002a0 62 d9 6b be 4e 64 2e be c8 9f 17 be cb eb d9 3b
       -0.23032144 -0.1703045 -0.14807045 0.006650423
0002b0 5e e5 82 bd 42 20 c3 3d eb 22 44 3d 27 d0 e3 3d
       -0.063914046 0.09527637 0.047884863 0.11123686
0002c0 e7 1e 60 3e b8 f8 89 bd 52 a6 07 bb d8 a4 11 3e
       0.21886788 -0.067368925 -0.00206985 0.14223039
0002d0 61 20 09 3e 8f 97 63 3e 4b 0f 01 3e 55 55 95 be
       0.13391258 0.22225784 0.1260349 -0.29166666
0002e0 c2 d8 56 3d 73 59 6b 3c 99 8b 23 3e 50 51 da bb
       0.05245281 0.014364588 0.15971221 -0.0066625252
0002f0 ae 26 8d 3d 86 a0 bd 3e 88 eb 5f bd b4 6b 47 be
       0.06892143 0.37036532 -0.05466798 -0.19474679
000300 77 3d a0 3d 32 b3 e9 3d cd 12 4d be c0 fb 5a be
       0.078242235 0.11411132 -0.20026703 -0.21385098
000310 47 26 2d be d3 fb bf bc 40 5d 74 bd 3c 26 cd 3d
       -0.16909133 -0.023435509 -0.059659243 0.10017058
000320 e0 26 de 3d 7e 2e 81 be 3e c8 0e 3e 00 7b 97 be
       0.108472586 -0.25230783 0.13943574 -0.2958603
000330 ce 39 3c bd 7e 16 54 3d e2 93 6c bd a5 65 d9 bd
       -0.045953564 0.051779263 -0.05775822 -0.1061509
000340 78 30 c2 be 12 ac 66 bd ed 2f fc 3d cb 04 fe 3c
       -0.37927604 -0.056316443 0.123138286 0.031008145
000350 56 c1 a4 3d d4 fc 65 3d 9e 2c 3d 3d 44 f9 0d bd
       0.080446884 0.05614932 0.04618513 -0.034661546
000360 32 43 a7 3d cd 28 22 be bc c5 0c bd a9 af af bd
       0.08167113 -0.15835877 -0.03436826 -0.085784264
000370 57 e8 0b 3e 14 68 5d 3e dc 14 2c 3d 98 7a c3 3d
       0.1366285 0.21621734 0.04201208 0.09544867
000380 6d 87 3b bc 2a 85 b2 3c 45 fe a9 3d e4 bd f0 bc
       -0.011445862 0.021792013 0.08300451 -0.029387422
000390 e7 62 d2 bd 55 d5 db bd 7e bd da bd f3 e4 84 be
       -0.102727704 -0.10734049 -0.10680674 -0.25955924
0003a0 1c 47 6d be 75 2e 22 3d ee 97 93 bc 7f 1c 97 be
       -0.23171657 0.039595086 -0.018016782 -0.29513928
0003b0 ac fc 83 bd 57 57 b7 bd d5 e4 bf bd 37 25 97 bd
       -0.06444678 -0.08952206 -0.09369818 -0.07380145
0003c0 a3 6b 15 3d 49 dd 2e 3e 70 bd 1c 3e 5d 39 6b 3e
       0.036479603 0.17076601 0.1530664 0.22971101
0003d0 15 38 83 3d 42 ae 41 3d 78 2d 26 3e f2 dc 88 bc
       0.06407181 0.047285326 0.16228282 -0.016706917
0003e0 11 15 cd 3d 6f 04 c1 3e 46 c2 35 be 32 d4 1e be
       0.10013784 0.37698695 -0.1774989 -0.15510634
0003f0 fa 4e fb bd 60 c3 10 3e dd 25 a8 3d b1 df 83 3e
       -0.12270923 0.1413703 0.08210347 0.257566
