housingpipeline/housingpipeline/dgmg/model.pth (torch, 308868 bytes, 52 tensors)

graph_embed.node_gating.0.weight f4 [1, 16]
000000 a8 21 16 3e 1a 2f 22 bf c7 c8 70 3e d1 1d d2 bd
       0.14661276 -0.6335312 0.2351409 -0.10259593
000010 b3 e5 7b be fa 16 52 3e 0b 26 ed 3e 7b ee cc 3d
       -0.24599342 0.20516577 0.46318087 0.10006424
000020 bb 5c 34 3d d3 44 ab be 78 a8 fe bd b8 26 04 bf
       0.044033747 -0.33450946 -0.124344766 -0.5162158
000030 64 b5 11 3d a3 f7 e7 bd 5f e8 42 bd ec bf 1e bd
       0.03557338 -0.1132653 -0.047584888 -0.03875725

graph_embed.node_to_graph.weight f4 [32, 16]
000000 5e 3f de bd 66 ad a5 be 91 fd a9 bd 5c 33 33 3e
       -0.1085193 -0.32358855 -0.08300317 0.17500061
000010 65 18 77 be 2a 38 c4 be f2 2b 41 be 5b ad b9 3d
       -0.241304 -0.383241 -0.1886442 0.09066268
000020 8f dd 51 3e 7d 6c 42 3e cb 02 e2 3d 3b 33 ae be
       0.20494674 0.18986697 0.11035689 -0.3402346
000030 4b c1 b0 ba 52 54 61 bd 72 db 78 be 13 43 3c 3d
       -0.001348534 -0.055012055 -0.24302462 0.045962404
000040 cf 69 cf 3e 7c 2b 8a be b5 c3 fa 3d 91 68 91 3e
       0.40510413 -0.269863 0.122443594 0.2840009
000050 25 a3 8d 3e 36 c4 3e 3e 9f 0a 37 be a9 8d 63 be
       0.27663532 0.18629536 -0.17875145 -0.22222008
000060 74 db 83 3e 1b c6 e2 3c 8c d9 23 be 30 d1 48 3e
       0.25753367 0.027682355 -0.16000956 0.19611049
000070 a9 fa 94 be f7 3d 89 be 26 1b 91 be c2 31 40 bd
       -0.2909749 -0.26805088 -0.28341025 -0.046922453
000080 0d 8b 04 be 71 cd 77 3e dc 6b ac 3e 88 6c c0 be
       -0.12943669 0.24199463 0.3367604 -0.37582803
000090 34 b4 0b 3f 7a 4e 85 be cf 21 b0 be 34 63 be ba
       0.54571843 -0.26036435 -0.34400794 -0.0014525414
0000a0 f4 6c d3 3d c4 cc 8a 3e 03 3a 53 be 8b 78 24 3e
       0.103235155 0.2710935 -0.20627598 0.16061608
0000b0 0c bd 49 be d0 61 03 3e d0 75 87 3d a3 aa 2c 3d
       -0.19701022 0.12830281 0.06614268 0.04215492
0000c0 88 71 03 be 4d 55 a4 3e 2b 96 00 be c2 09 44 be
       -0.12836277 0.3209633 -0.12557285 -0.19144347
0000d0 91 04 70 3e 8d 21 5d 3e 5f 7f 39 3e 4c 43 50 bd
       0.23439242 0.2159483 0.18114994 -0.05084543
0000e0 32 b0 71 3d df 99 6b be ac 00 ee 3d 9e 0c 0d be
       0.059005924 -0.23007916 0.11621222 -0.13774344
0000f0 c8 96 bb 3d 22 8d f0 bc 51 ae 19 be c0 e0 0b be
       0.091596186 -0.029364172 -0.15007903 -0.13659954
000100 74 f8 8a 3e 7b b4 2f bd 11 ef b0 3d ea de dc 3d
       0.2714268 -0.04289673 0.08639348 0.10784705
000110 66 52 02 be a9 93 9e be c7 f4 3a be 29 fb 77 be
       -0.12726745 -0.3097203 -0.18257438 -0.24216904
000120 8f 9c 77 bd 85 08 cf bc f9 26 b3 be a8 05 79 3e
       -0.06045204 -0.025272617 -0.3499067 0.24318564
000130 b6 57 83 be fb 58 34 be c0 31 c8 3e 72 26 ab 3d
       -0.25652856 -0.17612068 0.39100456 0.08356942
000140 ab 11 01 be b4 4f d6 be 55 b1 e1 bd be ba 98 3e
       -0.12604396 -0.41857684 -0.110201515 0.29829973
000150 65 26 e4 bd 79 66 68 be 2a df 0e be eb aa b9 3d
       -0.11140136 -0.2269534 -0.13952318 0.09065803
000160 b0 d7 65 3e 8f 87 35 3e 89 30 3f 3e c0 65 14 be
       0.2244556 0.17727493 0.18670858 -0.1449194
000170 dd c0 e6 bd 47 53 1e 3d 4b eb 11 3e 8f 67 b5 3d
       -0.112672545 0.03865364 0.14249913 0.08857643
000180 16 72 8c 3e eb 08 ad be 22 cd 0b 3e db 76 a7 3b
       0.2743079 -0.33795866 0.1365247 0.005110604
000190 d4 e4 0a be 71 25 ac bd d7 fe 11 be 7b 9f 80 be
       -0.13563854 -0.08405579 -0.1425737 -0.25121674
0001a0 8a 40 0b be d5 9e 41 3e 24 9f 39 3e f2 e1 69 3e
       -0.13598838 0.18908246 0.18127114 0.22840098
0001b0 4e df 99 bd 98 91 22 3e 7c 42 ef 3d 42 8a 04 3d
       -0.07513295 0.15875852 0.11682603 0.032358415
0001c0 a2 40 f2 3d a7 47 0c be 62 75 29 be 1a 52 a6 3e
       0.11828734 -0.13699208 -0.16548684 0.32484514
0001d0 1f 13 d8 bd 36 ee 0b 3f fc d2 e8 3d d0 a0 39 bc
       -0.10550522 0.54660356 0.11368367 -0.011329845
0001e0 25 13 4f be da 2d 19 bd 5a 43 23 bd 40 54 7e bc
       -0.20222147 -0.037397243 -0.039859153 -0.015523016
0001f0 d2 0c 8e 3e dc 06 fa 3e ad 8a e0 bd aa cb 1b 3e
       0.27744156 0.48833358 -0.1096395 0.1521441
000200 a2 f0 ea bd 93 69 ec 3d 16 46 b6 be c4 23 a7 bc
       -0.11471678 0.11543574 -0.35600346 -0.020402797
000210 07 bf a7 bd 0f 71 94 3e 6e 4e 08 3e 9e 0c 71 3e
       -0.081907324 0.28992507 0.13311169 0.2353997
000220 da 36 26 be 5a cd aa bd c5 a9 30 3e fe 57 c8 be
       -0.16231862 -0.08339949 0.17252262 -0.39129633
000230 3c d2 96 be 34 0d 23 be f3 a7 2c be 12 b7 10 3e
       -0.2945727 -0.15923005 -0.16860943 0.14132336
000240 53 22 c6 3e 3e ad 9a be 8f d8 28 3e bf 19 bb bc
       0.38698062 -0.30210298 0.1648886 -0.022839425
000250 ff 2b 58 3b 4f 74 84 3e 57 54 c1 3d 76 98 f8 3d
       0.0032985208 0.25869986 0.09439915 0.121384546
000260 e8 80 95 be b3 20 2c 3e 89 a8 ec 3d 2f 60 93 3e
       -0.2919991 0.16809349 0.11555583 0.2878432
000270 29 0e e4 3c 7f 54 15 3f e5 6a 17 3e 5b d0 da bd
       0.027838783 0.58332056 0.14786871 -0.10684272
000280 f5 31 d2 3d 8d e2 21 3e 11 bc 36 3e 18 22 a9 bd
       0.10263435 0.15809079 0.17845179 -0.08258456
000290 78 ab d1 bc 90 70 79 3e f4 8a 98 bd 26 ff 54 bd
       -0.025594458 0.24359345 -0.07448378 -0.05200114
0002a0 d0 23 11 3e 70 0a d6 bd 2c a1 c0 bd 40 d0 df bd
       0.14173818 -0.104512095 -0.09405741 -0.109283924
0002b0 ea a8 6d 3d df 30 ec bd ef ca ef 3e ec 99 ea 3e
       0.058022417 -0.11532759 0.46834514 0.45820558
0002c0 87 87 f8 bd 9a 04 90 be 28 38 14 3a 12 cb cc 3d
       -0.12135225 -0.2812851 0.000565412 0.0999967
0002d0 e4 04 63 be 35 c6 da 3c 5b 81 51 be f6 ea d7 3c
       -0.22169834 0.02670584 -0.20459501 0.026357155
0002e0 cf 01 07 3f 43 42 35 3e 85 c5 a6 be e5 9c 03 bf
       0.52737135 0.17701058 -0.3257257 -0.5141128
0002f0 5b 0e a6 3d a3 e2 54 be 9a 8a 95 bc f9 63 8f be
       0.08108207 -0.2078958 -0.018254567 -0.2800596
000300 9a 96 c1 bd 7d 5d de 3d 00 17 d2 be ee cf 11 3c
       -0.09452553 0.10857675 -0.41033173 0.008899672
000310 eb 92 c8 be 63 b5 c8 bd 97 e3 ba 3c 40 96 85 3d
       -0.3917459 -0.09800222 0.022813601 0.065227985
000320 2a 3c 53 3d 2e 90 82 bd 1a f6 c5 3d ea aa 1a 3e
       0.05157105 -0.06375156 0.09666081 0.15104261
000330 86 d3 65 be da df 41 3e 13 ed 81 be c6 1d 7c be
       -0.22443971 0.18933049 -0.25376186 -0.24620733
000340 ef ba b8 3e 43 81 55 3e d9 ec 90 3d 2e b2 ae bc
       0.3608012 0.2085009 0.07076425 -0.021325197
000350 d3 1c a9 3e 9c e0 e0 3d 2d ca d4 3e a0 3b 8f 3e
       0.33029804 0.10980341 0.41560498 0.27975178
000360 99 8c 62 bd 96 75 c7 bd dc 47 2f bd 20 e4 24 3e
       -0.055309866 -0.097392246 -0.04279314 0.16102648
000370 4b 96 48 3e 0f 6a 8d 3e d4 9f d3 3d d3 6d ae be
       0.19588582 0.2761998 0.10333219 -0.34068164
000380 bb d8 e0 bd 2f fc 0f 3e ac 09 3a 3d d1 fd 97 3e
       -0.10978838 0.14061044 0.04541938 0.29685834
000390 59 76 17 3f a6 21 51 3d 8c 1b 6d 3d 68 47 1a 3e
       0.5916496 0.05105748 0.0578876 0.15066302
0003a0 1b ad 2c bf d9 38 0e be 05 d9 82 be 1b 5f 7c 3e
       -0.6745164 -0.13888873 -0.25556198 0.24645655
0003b0 ad 82 07 be d2 1b 14 be 35 53 e0 bc 88 c2 00 3f
       -0.13233443 -0.14463738 -0.027383426 0.5029683
0003c0 f0 c8 c6 3e f8 52 7a bd e7 d1 bd ba f5 5a e7 3d
       0.38825178 -0.06111428 -0.0014482111 0.112966456
0003d0 56 00 43 be 06 09 30 3e 3b 60 4d 3e c6 ce e0 be
       -0.19043097 0.17190942 0.2005624 -0.43907756
0003e0 07 6d 59 be c5 ac 93 3e 64 e3 c1 3e c5 c6 28 3d
       -0.21232997 0.2884275 0.37868798 0.041205186
0003f0 94 ce d1 be ce d0 13 be c2 22 7c 3e 9b d8 04 3d
       -0.4097792 -0.14435121 0.24622634 0.032433134

graph_embed.node_to_graph.bias f4 [32]
000000 f4 d0 bb 3e 09 1c 01 3f 7d 1a 12 c0 5c ee ec 3f
       0.36682856 0.50433403 -2.2828667 1.8510242
000010 e9 53 93 3d 17 8a 20 bf 87 f0 c2 bf 1d 20 b4 bf
       0.07193739 -0.6271071 -1.5229653 -1.40723
000020 8f ee 1b 3f b5 25 c4 3f 19 9c 85 bf 3b 8e 88 be
       0.60910887 1.5324007 -1.0438262 -0.26671013
000030 cc a9 ef 3e b9 67 a7 3e 5c a3 62 3c 39 53 dc 3d
       0.46809232 0.32696322 0.013832893 0.10758061
000040 fd 35 dd 3e 18 69 f4 bd 21 43 15 3f 4f c8 d5 bf
       0.43205252 -0.119341075 0.58305556 -1.6701754
000050 33 f5 39 bf 32 46 06 3f 51 65 1c bd 78 ff dc bd
       -0.7263977 0.5245086 -0.03818256 -0.10790914
000060 fd 68 99 3f 66 20 61 bd 39 cf a1 3e 7e 9f b1 be
       1.1985165 -0.05496254 0.3160341 -0.34691995
000070 f5 ea c0 3f 28 7c 07 bf 1c 41 4c 3d c5 37 ae 3f
       1.5071703 -0.5292382 0.04986678 1.361077

graph_prop.message_funcs.0.weight f4 [32, 34]
000000 d3 1b b2 3d 33 ed 25 3e d0 c8 1b 3e 79 6f 68 bd
       0.08696713 0.16203766 0.15213323 -0.056746934
000010 80 5b a2 3d ac 0b 5c 3b 91 3a a6 bd de 7c 8f 3d
       0.079276085 0.0033576293 -0.081166394 0.070062384
000020 77 8d d3 be 7c fa 81 3d 2f 93 51 3e f8 b8 b4 3d
       -0.41318867 0.06346604 0.20466302 0.088243425
000030 85 49 34 be ae a8 21 3d 8b 31 e9 bd b2 03 51 3c
       -0.1760617 0.039467506 -0.11386403 0.012757229
000040 76 26 50 bd e0 1c 9b 3d f9 13 5b 3e d1 e8 b4 3d
       -0.05081793 0.07573867 0.21394338 0.08833469
000050 ba ac 02 be 0b 65 1d be 72 2e 54 3d 88 78 ee 3c
       -0.12761202 -0.15370576 0.051802106 0.029110208
000060 42 3c 01 be 52 3f 64 3d f3 e1 6b bc 12 1f f0 3d
       -0.12620643 0.05572445 -0.014397132 0.11724676
000070 3f 36 5d be 3b 3b d7 bd 1c d8 4e be 3b aa 07 3e
       -0.21602724 -0.10509344 -0.20199627 0.13248532
000080 bf 17 b2 bb cd 42 eb 3b d9 24 8c 3d db 1b f0 bd
       -0.0054349597 0.007179594 0.06842966 -0.11724063
000090 4c 1d 0c be f1 c0 94 3d 89 96 01 bd 63 2e 06 be
       -0.13683051 0.07263363 -0.031637702 -0.13103633
0000a0 fc 76 2f 3e 91 a6 1f bc 3e fd c5 bd ca c5 24 3e
       0.17135233 -0.009744302 -0.09667443 0.16091076
0000b0 2e 16 4f 3e c6 38 c7 3c 37 05 30 3e cf 4f 39 bd
       0.20223305 0.024319064 0.1718949 -0.045242127
0000c0 62 07 40 3d 21 3c 41 bd b3 30 8d 3d 32 f3 3e be
       0.04688204 -0.047176484 0.06894054 -0.18647459
0000d0 23 fd 9c 3d 10 89 b7 bd e4 2f ff bd 6e c6 be 3d
       0.076654695 -0.089616895 -0.12460306 0.09315191
0000e0 ad 19 a4 3d 6c ed d1 3c c2 63 04 3d f6 07 0c be
       0.0801271 0.025625907 0.0323217 -0.13674912
0000f0 97 f9 ee 3c ff 41 33 3d 52 c1 b5 bc 95 6b cf bd
       0.029171748 0.04376411 -0.022186909 -0.101279415
000100 64 c0 01 3e 6d eb 6a 3a 95 40 19 3c f1 28 26 be
       0.12671047 0.0008961473 0.009353776 -0.16226555
000110 86 17 03 3e 5d c6 c8 bd 51 f7 14 3d c0 3b ca 3c
       0.12801942 -0.0980346 0.03636867 0.024686694
000120 5b 3c f6 bd 42 e3 4e be 14 f0 51 3e 21 84 85 3d
       -0.12023231 -0.2020388 0.20501739 0.06519342
000130 57 27 36 3e a7 32 86 3e db 96 01 3e 7b dc 6e bd
       0.17788444 0.2621052 0.12655203 -0.058315735
000140 d2 30 22 3e d5 48 7f bd 6a d1 df 3d b9 86 9c 3d
       0.15838936 -0.062325317 0.109286144 0.07642884
000150 f9 32 1d 3e cd bf d5 3d d3 21 a3 bd 49 c6 a7 3b
       0.15351476 0.10436974 -0.07965436 0.005120073
000160 62 9a 0f 3d 44 d6 73 3d 08 23 03 be 37 72 6d bd
       0.03505934 0.05953051 -0.12806332 -0.057970252
000170 52 29 10 3e 28 66 2d be 6b 81 6e 3c 58 83 41 be
       0.14078262 -0.16933501 0.014557223 -0.1889776
000180 18 73 23 3d 6d 2f 29 bd ca cb 93 3e e9 41 2e be
       0.039904684 -0.041304994 0.28866416 -0.1701733
000190 22 33 47 3d af 04 a4 3d 1c c9 4d be a4 6f 21 3d
       0.04863275 0.08008706 -0.20096248 0.03941311
0001a0 7c 33 51 bd 31 a8 91 bd 6d be 56 be a6 65 0d be
       -0.05107449 -0.07112158 -0.20971079 -0.13808307
0001b0 11 f0 00 bc 69 91 68 bd eb a0 b7 3d 1a 2e 8b 3c
       -0.007869736 -0.0567793 0.089662395 0.016989756
0001c0 a5 50 00 bd 01 66 32 bd 58 97 dc bd a7 8b c0 bd
       -0.03132691 -0.04355431 -0.10771054 -0.094016366
0001d0 dd 65 16 bd 89 db 8d 3d ca 4e dc bd c9 dc 38 3d
       -0.03671824 0.06926639 -0.10757215 0.045132432
0001e0 17 34 21 be 64 04 bd bd be 6a af bc 56 03 e8 bb
       -0.15742527 -0.09229353 -0.021413203 -0.007080476
0001f0 ca 5e 7b 3d 7a 53 39 be 88 34 79 be a1 21 1f 3e
       0.061369695 -0.1809825 -0.24336445 0.15540172
000200 79 e5 9a bd e0 1e de 3d 8f b9 84 bd 3e dc d0 bd
       -0.075633 0.10845733 -0.06480705 -0.10198258
000210 a4 b5 aa bc 86 96 2f 3d e6 10 66 bd 9c fa 9f bd
       -0.020838566 0.04286816 -0.05616846 -0.07811472
000220 76 94 88 bd d7 13 46 bd b5 3e d4 3c 48 ed 1a bd
       -0.06668942 -0.048358764 0.025908807 -0.037823945
000230 52 a4 94 bc fc 52 c4 bc 94 c4 05 be 11 d4 89 3c
       -0.01814476 -0.023965351 -0.1306327 0.016824754
000240 5c 44 a0 bd 47 f1 aa bc ac c8 a0 3d 5e 58 37 3e
       -0.078255385 -0.020867003 0.07850775 0.17904803
000250 a8 2e 4a bc c8 1a 4c be 1f ee a2 bd f4 f9 a7 3d
       -0.012340225 -0.19932091 -0.07955574 0.08201972
000260 76 78 cc 3c ff de c1 3c 36 7a f1 3c ac 0d 57 be
       0.024959784 0.023665903 0.02947722 -0.21001309
000270 75 43 bd bd 7b 97 be 3d 03 6b 26 3d cb 8c ee bc
       -0.09241382 0.09306236 0.040629398 -0.02911987
000280 74 28 55 bd bf 74 ba 3c 66 08 e0 bd 6d f7 f0 3c
       -0.052040532 0.022760747 -0.10939102 0.029414857
000290 ac bb 94 3d d6 b5 be 3d cf 3a 6a be 69 31 dd bd
       0.07262358 0.09312026 -0.22873996 -0.1080044
0002a0 70 73 50 bb be 80 52 bd cc 5a 75 3e 32 79 3d 3d
       -0.0031807087 -0.05139231 0.23960418 0.04625816
0002b0 54 d5 e2 38 61 e0 89 bd 49 90 14 3d 9c 9f 11 3e
       0.00010816255 -0.0673225 0.036270414 0.14221042
0002c0 8f 3b 05 be cc ba 43 3e dd 47 ed bd 37 2c 4a bd
       -0.13011001 0.19114226 -0.115859725 -0.049358573
0002d0 fc ec 7c be cc 7b 01 3e 68 4f ad bd b8 20 60 3d
       -0.24699777 0.12644881 -0.08462411 0.054718703
0002e0 b0 e4 3b 3d 66 5b 13 be b1 30 89 bd 3d f4 be 3d
       0.04587239 -0.14390334 -0.0669874 0.093239285
0002f0 58 6e 87 bd 0b 2b 10 3d f4 60 c2 3d b9 ae 08 3e
       -0.06612843 0.0351973 0.094911486 0.13347901
000300 c4 89 7a bd cb 2d 18 3e bf cb 1c bd 5b d1 81 be
       -0.06116654 0.14861219 -0.038280245 -0.25355038
000310 22 0a 74 be 18 9e 50 be a8 56 cc 3d c1 56 f9 bc
       -0.2383199 -0.20372808 0.09977466 -0.030436875
000320 53 90 90 3d cb 16 25 3d cf 4d 29 3d 23 a8 0e be
       0.07058778 0.04030494 0.04133397 -0.13931327
000330 73 de 52 be a8 3c af 3d ae d4 12 bd 2d e2 4b 3e
       -0.2059267 0.08556491 -0.03584736 0.19910498
000340 b8 a1 ae 3d 5e 1a 02 be f4 94 58 bd 1c 65 2e be
       0.08526939 -0.12705371 -0.052876428 -0.17030758
000350 27 e2 3c 3d 02 f9 38 bd 82 e2 f3 3d 5b 90 2c 3e
       0.046114113 -0.045159347 0.11908437 0.16851942
000360 1a a5 f4 3c 17 cf 3a 3e 0b d8 01 3c 42 2e 48 be
       0.029863883 0.18243061 0.007925044 -0.19548896
000370 3c d8 b3 bd bf de 79 3c 51 d1 2b 3c f8 ac 08 3e
       -0.08781478 0.015250861 0.010486917 0.13347232
000380 46 4b dd bd fb 1b 11 bd a9 ec e2 bd c5 2e cd 3d
       -0.10805373 -0.035427075 -0.110802956 0.10018686
000390 71 e9 e2 3d 83 ae 69 3d a6 2f 9e 3d 68 e9 1d 3e
       0.11079682 0.057051193 0.07723932 0.15421069
0003a0 35 72 1b bd 94 b0 56 bd 10 a5 0e 3e b4 d8 ab 3d
       -0.037950713 -0.05241449 0.13930154 0.08390942
0003b0 2d bd c1 3d cb 1d 8e 3d 8a c1 9f ba c3 2d e3 3d
       0.094599105 0.06939276 -0.0012188416 0.11092713
0003c0 e0 63 c7 3d c1 e0 79 3d fc c9 7b bc dc 49 50 3d
       0.097358465 0.061005358 -0.015367981 0.050851688
0003d0 a4 0c 78 bd f7 2e 99 3d 09 0a 1d be 91 77 4c bd
       -0.06055893 0.07479661 -0.1533586 -0.049918715
0003e0 4a 5e e4 3d 7b f9 6a bd 7b e5 18 3e ee 7e 27 be
       0.11150797 -0.05736683 0.1493129 -0.16357014
0003f0 45 cb b5 3c 24 8b f9 bd a3 dd 0f bd 99 4a db bd
       0.022191653 -0.12184742 -0.03512348 -0.10707588

graph_prop.message_funcs.0.bias f4 [32]
000000 70 12 43 3e 12 72 36 bd 0b 67 e7 bc 98 ca 1d bd
       0.19050002 -0.04454238 -0.028247377 -0.038523287
000010 9a ae 0b bd 83 42 13 be da fc d0 bc 61 1d c5 bc
       -0.03410206 -0.14380841 -0.025511194 -0.02406186
000020 8a 9e 24 be f3 de 3f 3c a8 41 a3 bd e0 21 6c bd
       -0.16076103 0.01171087 -0.07971507 -0.057649493
000030 91 77 4f 3d c6 06 20 3e d8 7a dd bd 48 b9 0d be
       0.050651137 0.15627584 -0.10814446 -0.1384021
000040 b6 4e 32 3d d0 d4 8c bc c9 71 aa 3b 3d ca 83 3d
       0.043532096 -0.01719132 0.0052015525 0.06435058
000050 cf b4 e9 bd d4 b2 61 3d 7e dd 0b be 58 ab c0 bd
       -0.114114396 0.055102184 -0.13658711 -0.09407681
000060 b5 98 89 bd bb 22 ff 3d dd e7 1e be 2c c0 24 3d
       -0.0671858 0.12457796 -0.15518136 0.040222332
000070 7a f1 40 be 31 15 d1 3b 23 2a 2e be c7 01 f1 3d
       -0.18842116 0.0063807 -0.17008261 0.11767917

graph_prop.message_funcs.1.weight f4 [32, 34]
000000 96 7c a8 bc 85 ab 0c bd 99 bb 59 3d b2 44 57 3d
       -0.02056722 -0.03434326 0.053157423 0.052555747
000010 90 bc be 3d a3 f7 ce bd 5b 5d 89 3d 9b 1e 92 3d
       0.09313309 -0.10105827 0.06707259 0.07134744
000020 6d d3 68 3d 30 59 2d be 09 8b 52 3d 1b f4 7e 3d
       0.056842256 -0.16928554 0.051402126 0.062244516
000030 34 8c ce bd bc 3a 4e bc aa fb 1a bd 6f a5 0a be
       -0.100853354 -0.012587246 -0.03783766 -0.1353967
000040 96 2e c7 3c e1 ce 9b bd d5 c6 cf bd 47 eb 38 be
       0.024314206 -0.076078184 -0.10145346 -0.18058501
000050 0f e9 80 bd 29 c8 2e bd db de dc 3d 31 49 69 be
       -0.062944524 -0.042671356 0.10784694 -0.22781827
000060 28 ca 32 be a4 e0 87 bb b7 87 0c 3e 67 6a 6e 3c
       -0.17459929 -0.0041466523 0.13723646 0.0145517355
000070 2e f4 93 3d ee 94 20 3c 86 4a e0 bc 63 6f 99 3d
       0.07224308 0.009801133 -0.027379286 0.074919485
000080 7b 0a 20 3d 0e 69 90 3d 23 cd 1a 3e af 13 d1 bd
       0.039072495 0.070512876 0.15117316 -0.102088325
000090 f6 42 99 bd 10 e8 98 3c e7 c9 32 bc c3 39 7b 3d
       -0.07483475 0.018665344 -0.010912395 0.061334383
0000a0 41 ae 37 bd 6c af 8c bd 34 4b a9 3e 2a 3d 86 3e
       -0.044843916 -0.068693966 0.33065188 0.2621854
0000b0 b1 cd 62 3e fe 5b 24 3e af f4 e8 bd ad 71 3b 3d
       0.22148778 0.16050717 -0.11374795 0.045762707
0000c0 63 5f f7 bc c4 e2 86 bd fd fd 17 3d 81 30 65 be
       -0.030196851 -0.06586221 0.037107456 -0.22381784
0000d0 76 b0 03 be 59 4b 2f 3d 82 96 e7 3b 16 dc cf bc
       -0.12860283 0.042796466 0.0070675025 -0.0253735
0000e0 0b cf be 3d b2 f2 04 be 84 77 07 3e 56 59 e6 3d
       0.09316834 -0.12983206 0.13229185 0.11247508
0000f0 79 c0 e5 3c 50 ad ec bd 23 3c de 3d 8d 79 12 bd
       0.02804588 -0.11556494 0.10851314 -0.03576045
000100 c9 f4 b4 3b 37 92 73 be 1a ca a9 3c 9b f2 01 be
       0.0055223447 -0.23786245 0.020726252 -0.12690203
000110 6f 92 b7 3d 8f 4f 68 bd 20 dd 05 3e 2b 9b d9 3d
       0.08963477 -0.056716498 0.13072634 0.10625299
000120 1d bf 09 3d c3 c3 08 3c e3 d5 50 bd ed 61 c3 3d
       0.033629525 0.0083474545 -0.05098523 0.09540162
000130 c6 d5 1d 3e 75 44 a7 3d cb fb 23 be 42 c6 c5 bd
       0.1541358 0.08167354 -0.1601402 -0.09656955
000140 db c6 a1 3c fa e6 87 3d be aa 07 bd 85 48 9a bd
       0.019748142 0.06635852 -0.033121817 -0.07533363
000150 fa f1 9e 3d 79 02 fa bd 4b f9 20 3e 3c 24 04 3c
       0.07760997 -0.12207503 0.15720098 0.00806528
000160 d4 ac 03 be 14 0c 03 be 7b 87 b9 3c a4 93 b5 bb
       -0.12858897 -0.12797576 0.02264761 -0.005541282
000170 d8 69 01 3e d6 b3 12 3e bc 70 b7 3b a4 58 ec 3c
       0.12638032 0.14326414 0.005598156 0.02885086
000180 c2 73 c7 bd 8b 8b c9 3d 2d 07 4b 39 4f 3e 57 3c
       -0.09738876 0.09841069 0.00019362262 0.013137414
000190 a9 d0 da 3d 06 59 94 bd 31 18 21 3c aa ca 6b 3d
       0.1068433 -0.072435424 0.009832428 0.057566322
0001a0 34 95 34 bd 82 c8 69 3d 7d 80 47 3d b7 64 b1 3d
       -0.044087604 0.057075985 0.04870652 0.08661788
0001b0 db 9a a9 3d 35 aa 74 3d 93 39 f2 bc 4d 42 89 be
       0.082814895 0.059732635 -0.02956847 -0.26808396
0001c0 fb 35 df bd 82 07 78 bd c6 b0 36 3d 0e 23 eb 3d
       -0.10898968 -0.060554035 0.044602178 0.114812955
0001d0 98 f7 20 be d0 b0 9e bd 05 51 14 3e 30 14 27 3d
       -0.1571945 -0.07748568 0.14484031 0.040790737
0001e0 ea 32 9e 3d c0 53 1e 3e 04 75 ef 3d 1e dd 48 be
       0.07724555 0.15461636 0.11692241 -0.196156
0001f0 79 f1 ec bd 7a 67 a8 3d 92 f9 9e bd 17 79 24 3e
       -0.11569495 0.082228616 -0.077624455 0.16061817
000200 d8 65 3e 3d 7a 52 0a be 6d c5 33 bd 8f f7 48 be
       0.046483845 -0.13508025 -0.04388945 -0.19625686
000210 2a a7 bd bd 9e 43 0c be 83 cc e1 bd 99 3b 45 be
       -0.092604 -0.13697669 -0.11025336 -0.19261016
000220 4f c5 32 bc 2f b9 80 3d d9 50 29 be 3b 4c f7 bd
       -0.0109113 0.06285321 -0.16534747 -0.12075087
000230 f1 b4 4e bd 48 67 1f be 5e bd 11 3e dd fa 5b be
       -0.050465528 -0.15566742 0.14232394 -0.21482415
000240 80 77 94 bd 5e 4b 99 3d 48 d3 12 3c 94 04 cc bd
       -0.07249355 0.07485078 0.008961506 -0.09961811
000250 f8 42 50 3d fb 08 e5 bc 5f a1 92 3d aa 25 99 3c
       0.050845116 -0.027958384 0.07159685 0.018694717
000260 95 02 f8 bc 6d 6d 20 bc 8c b7 9f bd 15 10 f0 3d
       -0.030274669 -0.009791714 -0.07798681 0.117218174
000270 01 08 38 be d8 7e 0c be 0c 1c df 3c a5 f9 e3 3c
       -0.17971803 -0.13720262 0.027235053 0.027829
000280 f9 f1 dc 3c bf 15 a5 3e 35 13 6d 3d 50 c7 34 3c
       0.02697085 0.32243153 0.057879645 0.011033848
000290 5e 74 18 be a5 4c a9 3d 8d 4f 76 3c e9 0b 4e 3e
       -0.1488814 0.08266572 0.015033615 0.20121731
0002a0 2c a5 b4 bc 92 86 81 bd 05 24 09 be 71 21 85 3d
       -0.022051416 -0.063244954 -0.13392647 0.06500519
0002b0 67 42 31 be b1 d5 7e 3c 1e 3f 9d 3d a5 e6 12 3e
       -0.17310487 0.015553878 0.07678054 0.14345796
0002c0 aa 6d fc 3d 2c 3d 1f 3e 8c d6 4e bd ee b0 5d 3d
       0.12325604 0.15550679 -0.050497577 0.05412381
0002d0 4b ff 29 be 5a d1 5a 3e 62 70 c9 bc 55 9d d1 3d
       -0.16601293 0.21368924 -0.024589721 0.10235087
0002e0 dd 3b 35 3c b5 54 73 bd bf f9 6e 3e 52 b6 8f 3d
       0.011061636 -0.059406955 0.23337458 0.07017197
0002f0 45 b2 ae 3d c7 ee 0a bd ee fd 17 3d aa ba 1d 3e
       0.08530096 -0.033919122 0.0371074 0.15403238
000300 9d d5 75 bd 70 19 aa 3d fc b8 bc 3d a8 d9 6f bd
       -0.06001817 0.08305633 0.092149705 -0.058557183
000310 4d 26 97 3c 7e 88 00 be 4f 10 7c 3d 03 13 c7 bd
       0.01845088 -0.12552068 0.06153899 -0.09720423
000320 8f dc 5b be 50 a7 cb 3d a9 6b 21 3e d5 ba 3e bd
       -0.21470855 0.09944022 0.15763725 -0.046564896
000330 4b cb ad bb 43 f6 f2 bc 03 1b 35 3d 42 17 53 3d
       -0.0053037754 -0.029658442 0.044215214 0.051535852
000340 90 5b 23 3d 41 22 22 bc ae 31 d4 bc 60 7f ed bd
       0.039882243 -0.009895862 -0.025902595 -0.115965605
000350 86 d5 db 3b fe 34 95 3d f2 ad c8 bd 49 ce ee bd
       0.0067088036 0.07285498 -0.097988024 -0.116604395
000360 2d f4 14 bc 18 95 8d 3c be 2b c8 bd 15 69 08 3e
       -0.009091419 0.017283008 -0.09773968 0.13321336
000370 4e 6e 60 3e 97 ed 2f 3b e1 f2 c0 ba 75 a1 d5 bd
       0.21917078 0.0026844495 -0.0014720821 -0.10431186
000380 58 13 44 3d b0 48 36 3d 53 2e de bc 78 c2 02 3e
       0.04787001 0.044502914 -0.027121698 0.12769496
000390 24 56 c5 3c fd 8c 1d 3d f2 79 e1 bc 23 c5 65 bd
       0.024088927 0.038464535 -0.027523968 -0.056096207
0003a0 56 c7 4c 3e d7 9f 65 bc 2f 33 30 be ca 7d ca 3c
       0.19997916 -0.01401516 -0.17207025 0.024718184
0003b0 90 94 eb bb d2 e9 31 bd 0a 99 03 3a 55 db 97 bd
       -0.007189341 -0.04343588 0.0005020058 -0.07414881
0003c0 97 45 d4 bc ee 9c 21 3c c7 5a 30 be 9c 9e 9a bd
       -0.02591209 0.009864075 -0.17222129 -0.075497836
0003d0 1a b1 a0 bd 2d 6a ee bc bd f5 6c 3e bc 8e 3c 3d
       -0.078462794 -0.029103363 0.23140617 0.04603456
0003e0 f4 ee 30 be 3f c3 d7 3d 55 b4 ce 3c 82 5d d5 bd
       -0.17278653 0.10535287 0.025232473 -0.10418226
0003f0 67 70 eb bd 16 c2 a3 bd b8 43 b5 3d 95 e0 97 3c
       -0.114960484 -0.07996003 0.08850807 0.018539706

graph_prop.message_funcs.1.bias f4 [32]
000000 ca 84 cc bc 45 9b 1c bd 58 b4 0a 3e a7 ff 4e bd
       -0.024965663 -0.038234014 0.13545358 -0.050536778
000010 99 f8 ff 3d ce 89 10 be 32 3c ac bd 00 7f ff bd
       0.12498588 -0.14115068 -0.08409919 -0.12475395
000020 45 1a e1 3d 39 56 51 be 47 c0 69 3d aa 4f b1 3c
       0.10991339 -0.20443048 0.057068136 0.021644432
000030 2d c8 4d be 51 69 57 bd 4f 5f 07 3d 11 d8 b8 3c
       -0.20095892 -0.052590672 0.033049878 0.022563966
000040 cd a4 c3 bc d3 28 ca 3c a9 37 89 3d 87 77 b8 bc
       -0.023882294 0.02467767 0.067000695 -0.022517933
000050 50 0c 20 bd 52 26 fc 3d 2b 77 72 3e 6c 94 8e 3d
       -0.039074242 0.123119965 0.23678271 0.06961903
000060 e7 9b 97 3c b6 db f1 3d 69 f6 8d bd c2 b0 1d 3e
       0.018506957 0.11809485 -0.06931765 0.15399459
000070 4f 3d 2a 3d 72 df bc bd 65 13 0e 3e af d1 9e 3d
       0.041562375 -0.09222306 0.13874586 0.07754838

graph_prop.node_update_funcs.0.weight_ih f4 [48, 32]
000000 3b e0 1b 3d c5 aa 92 3e 16 87 6f 3e 0f 8b 8f bd
       0.03805564 0.28645912 0.23391375 -0.07008945
000010 89 6b b6 3d dd 1c 81 be ee 2e 05 be 79 89 00 be
       0.089072295 -0.25217333 -0.13006184 -0.12552442
000020 2d 83 a9 3e 22 42 6b 3e 5d bc 96 be 6e c7 08 3e
       0.33107892 0.22974446 -0.29440585 0.13357326
000030 bb 6b 09 3e 2e 0b ce bd d6 22 fe 3d 1f 45 88 3d
       0.13420002 -0.10060726 0.12408988 0.06653809
000040 b2 35 3f be 4d 55 8c bd 7a 37 3a 3a 5f eb a5 bd
       -0.18672827 -0.06852207 0.00071036036 -0.08101534
000050 33 a9 36 bd 7a 54 da bd 8f 7e 7e 3d e1 f7 88 be
       -0.044594955 -0.10660644 0.062132414 -0.26751617
000060 0b 6a 0f be 77 a6 c1 3c 28 4a 65 3e 33 56 47 bc
       -0.14005296 0.023638947 0.2239157 -0.012166548
000070 b5 ca fd 3d f0 a5 97 3d 26 1c 3f 3a 8d 71 1a 3c
       0.12392179 0.07404697 0.0007290266 0.009426487
000080 e5 c4 d9 bd f3 52 84 3d 31 57 22 be 7a 9f a7 be
       -0.10633258 0.06461134 -0.15853573 -0.32738858
000090 2b 62 41 be 21 1c 9a bc 8c 31 95 3d f0 13 13 bd
       -0.18885104 -0.018812241 0.07284841 -0.035907686
0000a0 fe c2 17 bd 32 f7 3d be ec ef 18 be e9 3e 13 bd
       -0.037051193 -0.18551329 -0.14935273 -0.035948668
0000b0 5e 9a 17 be 81 0d 0b be 70 16 ee 3c 74 ef 8b 3d
       -0.1480498 -0.1357937 0.029063433 0.068327814
0000c0 5f 0a 89 bd 8f b5 8c bd 73 a8 9b bc 2c aa e2 3d
       -0.06691431 -0.06870567 -0.019001221 0.11067614
0000d0 16 c7 fa 3d 1c ea fc 3d cd a7 46 3e 95 1b 86 be
       0.12245004 0.1234934 0.19399948 -0.26192918
0000e0 a6 fd 07 3e a0 8b 49 be 49 6d 70 be e6 f0 6b 3e
       0.13280353 -0.19682169 -0.23479189 0.23041114
0000f0 b4 ec d6 bd 2d c8 7d 3d b1 4a ce bd 46 3e e0 3d
       -0.10494366 0.06195848 -0.1007284 0.10949378
000100 3f 0f bd 3c 5f 00 1d 3e c8 7f f3 bc 38 3e f6 bb
       0.023078559 0.15332173 -0.029724017 -0.0075147413
000110 17 79 cd 3d 5f 25 d2 bd ab af 8c 3d 15 58 49 3e
       0.10032862 -0.10261034 0.068694435 0.19662507
000120 c2 2a 34 bd c9 b0 d7 3d 39 06 df 3d df b7 6d 3c
       -0.04398609 0.10531766 0.10889859 0.01450917
000130 40 39 04 be 9c 58 36 3c 4d 61 2b be ff e9 04 3e
       -0.12912464 0.011129525 -0.16736336 0.12979887
000140 88 3a 29 bd 36 80 39 3e 44 a4 90 3e 3a d3 15 3d
       -0.041315585 0.18115315 0.28250325 0.036578394
000150 e3 73 e8 3d 44 8f ec bd 70 e9 34 3e a2 be 9b be
       0.11350229 -0.11550763 0.17667174 -0.3041888
000160 95 32 29 3e 73 de 19 be 30 95 a1 3d 29 9a bc be
       0.16523202 -0.15026264 0.078897834 -0.36836365
000170 38 cb 7b be 41 0d c3 bd 40 02 29 3d 86 72 0a be
       -0.2458924 -0.09524012 0.04126191 -0.1352025
000180 b8 d6 07 be c9 6b 02 be d3 22 d3 3e 76 66 22 bc
       -0.13265502 -0.1273643 0.41237506 -0.009912124
000190 aa e9 09 3d 96 56 1f be 9d 6f e4 3d 6a f4 9e bc
       0.033670105 -0.15560374 0.11154101 -0.019403655
0001a0 c4 30 7f be a9 5a 1e be f4 ce 89 bd b8 a2 5a be
       -0.24920946 -0.15464272 -0.06728926 -0.21351135
0001b0 9d 54 13 3c 54 41 0f bd f3 56 8b bd f5 46 5c be
       0.008992341 -0.03497441 -0.068036936 -0.21511443
0001c0 d5 21 f1 bd a3 d3 b6 3d c3 ea 8a 3d e0 84 ad 3e
       -0.11774031 0.08927085 0.067830585 0.33890438
0001d0 09 a6 58 be 4c a5 e5 bd 95 8a bf bc c4 55 3d 3d
       -0.21157087 -0.112131685 -0.02338151 0.04622437
0001e0 fa 3e 36 3e fb 6c 1f be 0d 34 cc 3d f5 4a 7e 3e
       0.17797461 -0.15568916 0.099708654 0.24833281
0001f0 fa 84 13 3e d5 90 0c be 4a fd d5 3d e4 bc 14 bd
       0.14406195 -0.13727124 0.10448702 -0.036312953
000200 d5 2b 55 be 7f 8a 1d 3d 2f 35 cf 3b 14 c0 92 be
       -0.20817502 0.03846216 0.0063234787 -0.2866217
000210 5e 17 0b be a4 a5 b1 bd 56 8e 31 be c6 56 b3 3d
       -0.13583133 -0.086741716 -0.17339453 0.08756785
000220 15 27 9f bb 1e 5b 07 3d 07 ce 6e be aa 75 95 be
       -0.004856954 0.03304588 -0.2332078 -0.29191333
000230 f6 d8 d6 bd 48 5a f2 bc b4 b0 73 be 5c 17 c6 bc
       -0.10490601 -0.029584065 -0.23797876 -0.02418106
000240 cd 02 26 be 26 f4 0b 3c ba 52 3b be b1 a5 97 3d
       -0.16212006 0.008542096 -0.18293276 0.0740465
000250 4e 50 b9 3c b0 62 76 bd 47 eb 14 3d 61 0d 9a 3d
       0.0226213 -0.06015271 0.03635719 0.07522083
000260 a8 bd 28 be 81 07 71 3d c1 a1 3f 3e 3f 44 aa 3d
       -0.16478598 0.058845047 0.18714048 0.08313798
000270 f8 32 66 be 78 6b ea 35 67 31 c4 bd 8e 5c 8e bd
       -0.2248038 1.7465636e-06 -0.09579735 -0.06951247
000280 aa 48 7f be de 0b 8f be de 46 c5 bd 2f df 5d bd
       -0.24930063 -0.2793874 -0.096326575 -0.054167923
000290 31 ad f8 bc 54 7a 15 3c 50 84 87 be ee 57 a5 3d
       -0.030356022 0.009123404 -0.26468134 0.08073412
0002a0 82 4d ec 3d 18 0e d8 bd f2 ac 75 bd a6 77 7e bd
       0.11538221 -0.10549563 -0.059979387 -0.062125824
0002b0 be 93 c8 bd 96 49 f1 bd 26 eb 67 3d 61 1e bb 3d
       -0.097938046 -0.117816135 0.05662074 0.09136654
0002c0 e1 0f 4b 3d 38 94 07 be cf 27 84 be 4b e2 f4 3d
       0.04957569 -0.13240135 -0.25811622 0.119572245
0002d0 89 76 34 3e 3a da 0d bd 38 be e6 3d 2b 63 1c be
       0.17623343 -0.034631945 0.1126675 -0.15272205
0002e0 2d 25 01 bd 21 1f 1b 3e f5 1b b8 bd a3 40 0e be
       -0.031529594 0.15148593 -0.089897074 -0.13891844
0002f0 64 94 a0 3d fd 10 ac bd 1d b0 b2 3d 79 e5 3c 3d
       0.07840803 -0.08401678 0.08724997 0.04611728
000300 a2 00 a9 bc 6d 8e 1b bd 02 27 e9 3c d4 ff 1f 3e
       -0.020630185 -0.037977625 0.028460983 0.15624934
000310 7e 89 92 3d 04 23 d9 3d 36 4b 8c bd a7 c4 ab 3e
       0.07155131 0.10602382 -0.06850283 0.3354847
000320 54 e9 56 bd 11 bf e8 bb f1 1d 47 be a2 ef e4 3d
       -0.052468613 -0.007102855 -0.19445015 0.11178519
000330 04 c9 d9 3d ce 5e e9 3d ec a4 07 3e aa de 22 be
       0.10634044 0.11395036 0.13246506 -0.15905252
000340 15 0c 70 be 1e e7 01 bc 22 0d 86 bd b4 b0 3c 3e
       -0.23442109 -0.007928638 -0.06545474 0.18426782
000350 b7 15 00 be 95 84 0a bd 1b e9 7c 3d 28 2d 49 be
       -0.12508284 -0.033817846 0.061745744 -0.19646132
000360 0a 42 ce bd 6e 4d 4e 3e ce cc 73 3b 8e 68 8c 3c
       -0.1007119 0.20146725 0.003720093 0.0171397
000370 f8 57 3d be 9b b7 0c be 57 15 e7 3d 70 1f d9 3e
       -0.18490589 -0.13741915 0.11283367 0.42406797
000380 2c 90 26 3e 3c 85 48 be 5b ed 9a bd dc 23 a7 bb
       0.16265935 -0.19582075 -0.07564803 -0.0051007103
000390 75 b1 91 bd 90 a2 13 bd 3c d8 0e bb 6b 65 15 bc
       -0.07113925 -0.036043704 -0.0021796366 -0.009118418
0003a0 b4 78 c2 bd 48 a5 8a 3d d6 84 72 be 6d b4 0f 3d
       -0.094956785 0.06769806 -0.23683485 0.035084177
0003b0 40 8c 45 be e5 4b 79 3d 44 eb 7b bc 82 ac 34 3e
       -0.19291782 0.060863394 -0.015375916 0.17643932
0003c0 4e a5 c5 3d 8c 27 26 bd 42 ca 81 bd 2a df 94 bd
       0.0965067 -0.04056506 -0.06337406 -0.07269128
0003d0 d7 80 ef bc e8 71 f0 bd d6 10 a7 3e 7c c2 8e 3e
       -0.02923624 -0.11740476 0.32630032 0.27882755
0003e0 e5 37 ef 3d 3f 62 7d 3d 69 26 5a bd bd 10 05 3b
       0.11680583 0.061861273 -0.053259287 0.0020304166
0003f0 10 5f f2 bc 51 0c 4e be 89 c6 2c be 90 e9 ef bd
       -0.029586345 -0.20121886 -0.1687261 -0.117144704

graph_prop.node_update_funcs.0.weight_hh f4 [48, 16]
000000 bf 57 bc 3e 50 66 f1 bd c0 78 15 bc 28 4c 1d 3d
       0.36785695 -0.11787093 -0.009123027 0.038402706
000010 6e 54 27 bd 20 50 f8 3d 18 ad 7e 3c 95 fa 5f bd
       -0.040852003 0.12124658 0.015544198 -0.054682333
000020 61 df 8d 3d cb 22 9f 3c 87 85 47 be 34 bc ef bd
       0.06927372 0.01942577 -0.1948453 -0.11705819
000030 9e 96 a4 be 55 e4 60 be 43 d5 8a 3d 10 3d 84 3d
       -0.32146162 -0.21962102 0.06778958 0.06456959
000040 de 13 2a bd ff 94 1b bd 2b 2c 37 3e 61 8c 87 3d
       -0.041522853 -0.03798389 0.17887942 0.06618572
000050 a6 63 02 be 91 96 10 3e 79 e9 f7 3d 23 e7 1e 3e
       -0.12733325 0.14119937 0.12105078 0.15517859
000060 bd 31 27 3a f5 31 20 3e 87 a3 17 3e b3 d3 6e be
       0.0006377956 0.15644057 0.14808474 -0.23322944
000070 d5 89 54 3b 4d 27 be 3e 1b 45 e5 bd 7e 9e f1 bb
       0.0032430787 0.3713936 -0.111948214 -0.00737363
000080 58 20 ce 3c 6d bb c0 be e3 f8 b0 bd ee 11 01 be
       0.025161907 -0.37642995 -0.086412214 -0.12604496
000090 50 4d 76 bc 0b d5 24 3e 0b 1b 8a bd ec 4f 03 3d
       -0.015033081 0.16096894 -0.06743439 0.03205864
0000a0 66 ef 50 be 64 93 96 3d 96 2f 25 3e f9 f6 94 3d
       -0.20403823 0.07352331 0.16131434 0.07273669
0000b0 c8 e0 52 3d 22 88 fc bd d9 4c 99 3d a6 ff 73 be
       0.0514839 -0.12330653 0.07485361 -0.23827991
0000c0 59 db 18 bd 52 66 9e 3e 81 9d 53 3e a5 a0 7d 3d
       -0.03731856 0.3093744 0.20665552 0.06192078
0000d0 c7 3a 6a be 6d 11 e4 bd 71 19 35 be c0 c2 44 3e
       -0.22873984 -0.11136136 -0.17685486 0.19214916
0000e0 2e 2c ab bd 4d 81 d4 3d b1 bf 75 be a5 c8 39 3c
       -0.08358036 0.10376225 -0.23998906 0.011339341
0000f0 ef 11 e0 be f2 04 58 3d d2 14 0c 3e 83 79 7e be
       -0.43763682 0.05273909 0.13679817 -0.2485104
000100 b3 09 cf 3d e8 41 3a 3d 8a 4d 01 be 65 2d 81 bc
       0.10109272 0.04547301 -0.12627235 -0.015768716
000110 24 94 41 be 3f 47 a1 3c f2 bd 71 bd 7f e2 56 3e
       -0.18904167 0.019687293 -0.059019037 0.20984839
000120 67 84 51 be 7c c4 ab be 29 ca 81 bd b4 eb ad bd
       -0.20460664 -0.33548343 -0.06337387 -0.084922224
000130 7a 0d cd bd 10 da 41 3e ca 9f d6 3d 12 48 31 3e
       -0.10012336 0.1893084 0.10479696 0.17312649
000140 3c 44 12 be 03 c0 3f 3e 76 bc 58 3d 28 8a 52 3d
       -0.14283842 0.1872559 0.052914105 0.051401287
000150 54 c9 1e be 93 d1 c1 3e ff a1 a5 3e b3 8f 37 be
       -0.15506488 0.37855205 0.32350156 -0.1792591
000160 8b 6c 41 bd ec 8d a0 3e 53 6f ac bd 59 ea 03 3d
       -0.047222655 0.31358278 -0.08419671 0.032205913
000170 ee 19 37 bc c6 68 2d be 50 ac 40 3e d5 b7 c0 bb
       -0.011175616 -0.16934499 0.18815732 -0.0058812895
000180 2c a1 9e 3e c3 95 14 bd d6 11 84 bd 43 50 80 3e
       0.3098234 -0.036275636 -0.064487144 0.25061235
000190 40 5e 76 bd 28 c0 1a 3e c4 8b 44 3d 26 08 8d 3e
       -0.060148478 0.15112364 0.047984853 0.2754528
0001a0 cc 87 9c 3e b0 f4 72 bd 32 c3 ef 3e e5 da 43 bd
       0.30572355 -0.059315383 0.4682861 -0.047816176
0001b0 c8 84 25 3e 61 fb 81 bd dd 38 86 be b3 95 e6 bd
       0.16163933 -0.06346775 -0.26215258 -0.112590216
0001c0 48 1a 00 be 82 80 60 be 30 b7 1f be 6e 46 58 3e
       -0.12510026 -0.21924022 -0.15597224 0.21120617
0001d0 91 f1 75 bd 88 80 f3 3d 90 f6 4f be 7b 8f 2a be
       -0.06004483 0.1188975 -0.203089 -0.16656296
0001e0 eb f4 fc 3c d5 cc ee bd 7f c8 ea bd aa 2c be bc
       0.030878505 -0.11660162 -0.11464023 -0.023214657
0001f0 da 7d d1 3d c7 06 0f 3e c8 c2 1a bd 37 df ec 3d
       0.102290824 0.13967429 -0.037783414 0.11566012
000200 ee a7 34 bd 64 30 81 bd 72 49 bc bd 48 fb 80 3e
       -0.044105463 -0.06308058 -0.09193696 0.25191712
000210 6f 43 fa bd f8 d3 58 3e 60 e4 c0 3e 54 ec 3a bd
       -0.12219893 0.2117461 0.37674236 -0.045635536
000220 18 73 d4 bd 4c b8 d2 bd da 51 13 be 20 64 a1 bc
       -0.10373515 -0.10289058 -0.14386693 -0.019701064
000230 b3 86 19 be 27 cb 7d bd ed 7d 8c 3d 98 a4 49 bd
       -0.1499279 -0.06196132 0.06859956 -0.049229234
000240 f5 01 af 3c b8 3b b2 bd c6 e9 4e 3d 16 9f 0b be
       0.021363238 -0.08702797 0.050515912 -0.13634905
000250 e1 19 ee bd a5 e3 88 bd 3f e5 d4 bd ee 30 98 bd
       -0.1162603 -0.06684045 -0.10395288 -0.074312076
000260 49 9d 4f 3e c8 a9 1a 3e 3a 44 b9 bd 5f 36 eb bd
       0.20274843 0.15103829 -0.09046216 -0.1148498
000270 1f 26 aa 3d 4a 0f d0 3d d4 c0 c6 3d 9e e4 c9 3d
       0.08308052 0.10159166 0.09704748 0.098580584
000280 32 04 09 3c cf ae 0d bd ae 9e 50 be ab ce fe 3d
       0.008362817 -0.03459054 -0.20373031 0.124417625
000290 29 11 78 be d1 a0 ae bd e4 b8 89 3e a6 aa 75 be
       -0.24225296 -0.08526767 0.26898873 -0.23990878
0002a0 c0 0e 8b 3d 5e 89 5c 3e 88 3e ca bd 9d 86 09 3e
       0.06789923 0.21536776 -0.09875208 0.13430257
0002b0 28 b5 a3 bd ed 33 f9 3d 80 bb d8 3e 10 3f 55 3e
       -0.07993537 0.12168107 0.4233055 0.20824838
0002c0 96 f0 4d be a1 e7 8e 3c ed dc ec bd 01 fa 9d bd
       -0.20111308 0.017444434 -0.11565576 -0.077137
0002d0 18 3a 14 3e 05 a4 16 3e 85 8c 75 bd 3a 89 a6 3d
       0.14475286 0.14711006 -0.059948463 0.08131643
0002e0 bc d8 c5 3d 4f 33 a8 bb 55 1b 8b 3c e4 da a8 3e
       0.096604794 -0.0051330696 0.016980806 0.329795
0002f0 64 db 91 bd 7a 77 41 3d b0 06 14 3e a2 29 60 bd
       -0.071219236 0.047233082 0.14455676 -0.054727204
000300 1b 97 20 be 48 3d 11 bd f2 7d 00 be 26 f3 33 be
       -0.15682642 -0.035458833 -0.12548044 -0.17573223
000310 f8 b1 12 be d1 58 0e 3d 4d 17 02 be 7e c0 f3 bd
       -0.14325702 0.03475267 -0.12704201 -0.11901949
000320 20 30 94 bb f1 b5 09 3e 82 e1 6b bc eb de b5 be
       -0.0045223385 0.13448311 -0.014397027 -0.35521635
000330 fc b5 f7 bd 88 d0 4a be 45 4b 25 be aa 33 4f be
       -0.12095258 -0.19806111 -0.16141994 -0.20234552
000340 c1 3c 90 3e a5 de 0a 3e 31 5c b6 bd 41 4d 86 bd
       0.28171352 0.13561495 -0.08904303 -0.06557704
000350 06 b7 12 3e 9a b2 60 3e 96 4e a0 3d 1f 2a ce bd
       0.1432763 0.21943131 0.07827489 -0.10066628
000360 71 6a 51 be 70 18 4f be 60 f9 ef 3d c1 c5 82 bb
       -0.2045076 -0.20224166 0.117174864 -0.0039908593
000370 12 6c 2f bd 79 6d 94 3e a5 43 9c 3a 92 97 1d 3e
       -0.042827673 0.2898977 0.0011922015 0.1538985
000380 da d9 b5 3d 7c 01 9d bc 8d d4 eb bd 4d 15 45 bd
       0.088794425 -0.019165747 -0.1151515 -0.048116017
000390 4d bf 1b 3b 22 6f 1e 3e 2d a4 08 3d ce ee 82 3b
       0.0023765147 0.15472081 0.033359695 0.003995753
0003a0 fe 52 17 3e 84 40 d3 3e 1b 22 17 be 2d d3 e0 bb
       0.14777753 0.4126016 -0.14759104 -0.0068611116
0003b0 e0 0b 14 3e 40 6c 9f 3c 78 3b c2 be 5e 20 8f be
       0.14457655 0.019460797 -0.37935996 -0.27954382
0003c0 fe 3a 30 3d 30 53 77 3e df a6 ff bd f6 48 90 be
       0.04302501 0.24152827 -0.12483 -0.28180665
0003d0 eb 26 62 be a2 45 ea bc 66 5e 1f 3d 2a 72 97 bd
       -0.22085159 -0.028597657 0.038908385 -0.07394822
0003e0 ce ed 26 bc 8d de 8c 3e 93 50 29 3e 25 ad 68 3e
       -0.010188533 0.27513543 0.16534643 0.227223
0003f0 0d 82 40 3e 53 49 50 3e cd 1b 68 3c 6c d8 31 bd
       0.1879961 0.20340471 0.0141667845 -0.043419287

graph_prop.node_update_funcs.0.bias_ih f4 [48]
000000 75 d4 84 3f ac 03 41 bf f4 28 59 3f 0a c9 dd 3d
       1.0377337 -0.7539623 0.84828115 0.10829361
000010 fd 45 88 3f cc 1b 93 be cf ef 70 3f 1c a5 b4 3f
       1.0646359 -0.28732145 0.9411592 1.4112887
000020 24 73 95 3c 41 8d 5a bf d0 b6 5a bf 2d f6 5f bf
       0.01824338 -0.85371786 -0.854352 -0.8748501
000030 29 ad df be d5 72 05 be 5a f6 33 3e 88 63 38 bf
       -0.43686798 -0.13032086 0.17574444 -0.7202687
000040 30 7c ba 3e 31 2c 87 3f 28 8f d9 3c ee 1b 3b 3f
       0.36422873 1.0560361 0.02655752 0.7308949
000050 46 c4 52 be 96 ac 50 bf 37 12 71 be 15 38 97 3f
       -0.20582685 -0.81513345 -0.23542105 1.181399
000060 57 e4 46 3f 8c 53 e4 bf 5a 9e 01 3f 1d fa 55 3f
       0.7769217 -1.7837996 0.5063225 0.8358477
000070 3a f6 8c 3e 0e bc 4c 3e f1 af f6 3f 5c 2d 92 3f
       0.27531606 0.19993612 1.9272443 1.1420093
000080 1d 60 8b 3e 76 bc 38 3f 65 71 ae 3c 32 44 16 3f
       0.27221766 0.7216257 0.021294305 0.5869781
000090 ad f9 84 bf 73 6e 7b bf 4b 1c 05 3f 7f 08 49 bf
       -1.0388695 -0.9821541 0.51996297 -0.7852859
0000a0 87 97 42 bd 30 47 ed be 27 0b fa bf ba 74 f1 3f
       -0.04750779 -0.46343374 -1.9534653 1.8863747
0000b0 f8 2e 90 bf ce 70 9f bf 9a 58 2c bf c8 b0 9c 3f
       -1.1264334 -1.24563 -0.67322695 1.2241449

graph_prop.node_update_funcs.0.bias_hh f4 [48]
000000 86 38 7c 3d 79 3f 0e be 12 ef a5 bf be 77 47 be
       0.061577342 -0.138914 -1.2963583 -0.19479272
000010 de 69 80 bf ba 14 d3 3e 33 a8 2f bf 2d 78 f4 3f
       -1.0032308 0.4122675 -0.68616027 1.9099175
000020 7c 01 af bf ae 30 e4 3f e8 5b c2 be 19 9e a9 3f
       -1.3672328 1.7827356 -0.37960744 1.3251373
000030 36 1c cc 3f f2 95 06 40 4b fe 8a 3f af 1a ba be
       1.5946109 2.102902 1.0858854 -0.36348483
000040 8a 9f 9a 3c 7d e8 e1 bf 5f fd 2f 3c 46 3d 8f bd
       0.018874902 -1.7649075 0.010741561 -0.06994109
000050 54 38 c7 3e d1 8e 32 3e ef 0d bd be 7b a6 5f bd
       0.38910162 0.17437293 -0.36924693 -0.054602128
000060 d6 30 19 be 1d 71 0b be 82 c5 8f 3f 74 05 84 bf
       -0.14960036 -0.13617368 1.123215 -1.0314164
000070 a0 61 a5 bf 15 6f 19 be 24 5f 7c bf 2b 13 f3 3d
       -1.2920418 -0.1498378 -0.98582673 0.118688904
000080 fa b3 85 bf 58 f5 3e 40 61 78 db bf 22 93 cf 3e
       -1.044555 2.9837246 -1.7146112 0.4054194
000090 9b 9f 20 bf 1d da bb bf 5c 61 50 bf 98 0d 97 be
       -0.6274354 -1.4675938 -0.8139856 -0.2950256
0000a0 d9 3e 12 40 93 02 20 bf 88 35 a3 3e dd 8b 1d 3f
       2.285086 -0.6250393 0.3187678 0.6154154
0000b0 ee f5 dd bd 8e a6 a1 be a9 be 65 bc 1d 63 55 3e
       -0.10837923 -0.31572384 -0.014022508 0.2083859

graph_prop.node_update_funcs.1.weight_ih f4 [48, 32]
000000 ee e6 45 be 22 68 26 be d5 1b 07 3e e6 b6 cc 3b
       -0.19326374 -0.16250661 0.13194211 0.006247389
000010 0a d4 90 be 05 84 f1 3d 02 68 f4 bd ed 46 a5 bd
       -0.28286773 0.11792759 -0.119339004 -0.08070169
000020 cd 83 3a bd 36 13 9d 3e 8b 6a c5 3d cb 1e 21 3e
       -0.04553585 0.3067872 0.09639462 0.15734403
000030 a3 5c b1 3c c9 15 23 bd 4c 85 09 3e 18 ce 6d 3d
       0.021650618 -0.039815698 0.13429755 0.058057874
000040 06 6d e0 3d c2 e3 c4 bd fe b1 95 3c e5 7c f5 3d
       0.109582946 -0.09613754 0.01827335 0.11986712
000050 26 a0 9b 3d 9a eb 6f 3e a9 04 8f be 7b 19 de 3c
       0.07598905 0.23429719 -0.27933243 0.02711176
000060 17 80 19 be c7 80 0f bd 46 38 42 3e 74 62 ad 3d
       -0.14990269 -0.03503492 0.18966779 0.08466044
000070 23 70 a3 3d dd cd 70 3d c4 11 43 bc a8 a8 ea 3d
       0.07980373 0.058790077 -0.011906091 0.1145795
000080 9f ed 35 3e e8 d5 6a bd 78 02 21 bd 24 71 ca bd
       0.17766427 -0.057332903 -0.039308995 -0.09884861
000090 93 9e 51 bb 1d b6 8a 3e 6f 69 fd bd 10 2e 52 bc
       -0.0031985387 0.27092066 -0.123736255 -0.012828365
0000a0 82 72 31 be 5b ef a8 bd 95 1e a0 bc ec 99 a1 bd
       -0.17328838 -0.082487784 -0.019545833 -0.078906864
0000b0 a2 b7 76 be 8e 09 1e 3d 7f c8 29 be e7 70 a3 bc
       -0.24093488 0.03858333 -0.1658039 -0.019951297
0000c0 f7 a7 9e be a0 05 e4 bd 63 6b ac bd 04 63 48 3e
       -0.30987522 -0.111338854 -0.0841892 0.19569021
0000d0 1f 07 ba bd df 6c 0d be 83 56 36 3b 4e 78 9b 3d
       -0.090833895 -0.13811062 0.002782256 0.07591306
0000e0 f7 21 17 be e5 89 88 3e df a5 19 bd 19 ec 03 be
       -0.1475905 0.26667705 -0.037511703 -0.12883033
0000f0 ef 79 93 bd 17 cb 93 bd 12 ff c3 be 85 d0 76 3d
       -0.07200991 -0.07216471 -0.3828054 0.060257453
000100 fc 8b df 3d 8b a7 0b 3e bd 2c 0d be b9 2f 07 be
       0.10915372 0.13638131 -0.13786598 -0.13201798
000110 ff f5 ba bd 23 99 dd 3b 97 84 19 3d 58 6f ab bd
       -0.09128951 0.00676264 0.037479963 -0.083708465
000120 13 52 4e bd cd c9 0d 3e 5e 13 c2 bc 85 b2 49 3e
       -0.05037124 0.13846512 -0.023690876 0.19697006
000130 66 5c 21 3c 8f 42 77 be 9b f9 29 3c 96 88 16 3d
       0.00984869 -0.24146484 0.010374452 0.036751352
000140 d1 52 71 3e 23 6a 5d bd cf d8 84 be 90 55 c8 bc
       0.23566748 -0.054056298 -0.25946662 -0.024454862
000150 ee 78 60 3d fe 77 b1 be 93 08 b8 bd 5c 18 ae be
       0.054802828 -0.3466186 -0.089860104 -0.3400296
000160 95 cc 3b 3d 59 92 67 be 20 28 af 3d 0f 87 52 be
       0.0458494 -0.22614421 0.08552575 -0.20559333
000170 1c 63 6d be 43 dd b5 bc 77 5c d0 3d 9b ed 44 be
       -0.23182338 -0.022200232 0.10173886 -0.19231264
000180 83 59 e1 bd 39 a5 56 be da ee 81 3e c3 07 20 be
       -0.11003401 -0.20961465 0.25377542 -0.15627961
000190 95 bf c5 3d cf 83 80 be d5 63 f6 bd db 7c 2f be
       0.09655682 -0.25100562 -0.1203076 -0.17137472
0001a0 6e f4 9c 3d 47 44 26 3c 90 95 69 bc 39 5c 6e 3d
       0.07663809 0.0101481145 -0.01425685 0.05819342
0001b0 02 e4 a2 bd 06 bb 77 bc 6f 4c 50 be 17 24 85 be
       -0.07953645 -0.015120273 -0.20341657 -0.26004097
0001c0 8e 49 97 3e df 17 30 3e 9e d2 00 be bc af 5d 3e
       0.29548305 0.17196606 -0.12580344 0.21649069
0001d0 0a 3c 00 3c 78 e0 2f be 30 98 68 3d 05 de 28 be
       0.007826814 -0.17175472 0.056785762 -0.16490944
0001e0 ac b3 47 3d e8 24 7a 3d 73 fe 1e 3e 6d 69 21 be
       0.048755333 0.061070353 0.15526752 -0.15762873
0001f0 5b 4d dd bd 91 ca 8b bd 21 b5 7a 3a 1e 52 99 3e
       -0.1080577 -0.06825746 0.00095637335 0.29945463
000200 c7 8b 80 be e8 48 30 3c 5e b6 57 bd 03 b3 bc bd
       -0.25106642 0.01075957 -0.052664153 -0.09213831
000210 3c 0c 35 be 31 e2 7b be 8b d3 9f be 2f e0 0e 3e
       -0.17680448 -0.24598004 -0.31216082 0.13952707
000220 d0 ad 2d 3e 2a e2 aa be 68 43 54 be ee d1 16 bd
       0.16960835 -0.33375674 -0.20728838 -0.0368213
000230 8d 1f bd bc 2c 69 af bd 91 af ee 3d e7 ee e0 39
       -0.023086334 -0.08564982 0.116545804 0.00042902605
000240 de bf 66 be 86 e3 cb bc 9b 32 c5 bd d6 67 01 3d
       -0.22534129 -0.024888765 -0.09628793 0.031593166
000250 06 a3 a7 3e ed 0a 8f 3c 01 a2 0a 3e e1 5a b2 3d
       0.32741565 0.017461265 0.13538362 0.0870874
000260 0e fd 40 bc 74 64 d9 3c 06 94 94 3e 89 22 2e 3d
       -0.011779083 0.026537158 0.29019183 0.042513404
000270 1b 2f d0 3d 0f 85 fb 3d 95 03 a2 3d 0d fa a0 bd
       0.10165235 0.12281238 0.079108395 -0.078601934
000280 1d 5f 79 3d 34 7e c8 3d 74 b3 e2 bb 19 b3 21 3e
       0.060881723 0.09789696 -0.006918365 0.15790977
000290 9a 9b 92 3e dd 17 fc bd 1e 09 6c be b2 c1 f6 3c
       0.2863434 -0.12309239 -0.23050353 0.030121658
0002a0 df 75 42 3e 98 76 94 3e 9d 3d 30 3e eb 93 56 3e
       0.18990277 0.2899673 0.17211004 0.20954864
0002b0 e4 96 1a 3e b5 a2 3b bc b1 49 8b bd ef 94 db bc
       0.15096623 -0.011452367 -0.06801165 -0.026804416
0002c0 42 94 0d be d6 16 64 3d d6 dc ef 3b 11 df 01 be
       -0.13826087 0.05568584 0.007320027 -0.1268275
0002d0 19 f2 2a 3e 81 c8 dd 3b 96 22 72 be 89 fc 67 3e
       0.16693915 0.0067682867 -0.23646006 0.22654928
0002e0 0e 2a 5d 3d 88 ca 91 3e a0 80 0f be d8 7d 76 3d
       0.053995185 0.28474832 -0.1401391 0.060178608
0002f0 c0 bc 0f be bd 8e 49 3e 29 9b 4f 3c 9d ad e1 bd
       -0.14036846 0.19683357 0.01267127 -0.11019442
000300 51 7b 32 3e 80 a8 53 3d d6 ae 49 be 06 e9 c4 bc
       0.17429854 0.051674366 -0.19695601 -0.024036895
000310 bb 69 9e 3d 98 5c 60 bd 95 c5 01 be 8a c4 32 3d
       0.0773501 -0.054775804 -0.12673028 0.043644466
000320 c7 60 51 bd a2 5d 24 be f5 d6 92 bd 02 a1 3b be
       -0.051117685 -0.16051343 -0.07169906 -0.18323138
000330 ab 60 f4 3d 2e 8d 81 bd c6 be c2 bb b2 53 72 be
       0.119325005 -0.06325756 -0.005943152 -0.2366474
000340 1a d0 99 3c bb 5f 9c be d3 22 50 3e 8c 2c 01 bd
       0.018775988 -0.30541787 0.20325784 -0.031536624
000350 91 a5 c3 bc 57 74 f8 bd f0 fe a5 bd 36 08 84 bd
       -0.02388266 -0.12131565 -0.08105266 -0.064468786
000360 e2 a9 7e be b5 39 82 be dd 8c b8 3c e1 f0 35 3d
       -0.24869493 -0.25434652 0.022528106 0.044419173
000370 ca bc d3 bd 3e 4c 04 3d 19 7e af be e2 b3 54 3e
       -0.10338743 0.032299273 -0.34275892 0.20771745
000380 f2 1b 1d be db 58 75 3d a1 a4 02 3e 11 da cb bb
       -0.15342692 0.059899192 0.12758113 -0.006221064
000390 38 ee 26 3e ba 06 e3 3d 4f 69 4c be e3 3c 86 3d
       0.1630181 0.11085267 -0.19962047 0.06554582
0003a0 f4 1f 9f be 55 3a 37 be 67 cd 23 bd c7 fa 2e 3e
       -0.31079066 -0.17893346 -0.03999081 0.17087851
0003b0 f5 24 da bc 22 5a 54 bd ef a5 9e 3d 6d 18 72 bd
       -0.02662895 -0.05184377 0.07746493 -0.059105325
0003c0 34 07 6f 3e 56 32 a9 3e fd bf ca 3d 96 ec 84 be
       0.23342592 0.33046216 0.098999 -0.2596175
0003d0 c8 3e 6a 3e 0b 1f f0 3d 18 1d 8e bd 16 5c 2c be
       0.22875512 0.11724671 -0.06939143 -0.16832003
0003e0 8b e3 6d bc 88 54 e7 bd b0 94 1e 3e 9e 57 f9 bc
       -0.0145195825 -0.1129542 0.15486407 -0.030437287
0003f0 6b 2e 7b be b9 6e f8 bb 75 98 c0 bd 3e 10 28 3e
       -0.24529426 -0.0075815585 -0.09404079 0.16412446
