housingpipeline/housingpipeline/dgmg/model_old.pth (torch, 293760 bytes, 42 tensors)

graph_embed.node_gating.0.weight f4 [1, 16]
0.25260037 0.5423276 0.16916865 0.5709855 -0.02995715 0.30153012 -0.053448997 -0.45945352
-0.28058425 -0.023219587 0.20479494 -0.21273121 -0.17041782 -0.32450968 0.007172147 -0.017591704
00000000: d654 813e fbd5 0a3f 8c3a 2d3e 1b2c 123f
00000010: b268 f5bc 2862 9a3e 56ed 5abd 7e3d ebbe
00000020: bda8 8fbe 0137 bebc c4b5 513e 36d6 59be
00000030: 0282 2ebe 2226 a6be 5404 eb3b 7a1c 90bc

graph_embed.node_to_graph.weight f4 [32, 16]
0.118952 0.47424874 0.18722688 -0.25903696 -0.36799738 0.08842705 0.2436994 0.5885657
0.14722313 -0.23211473 0.1296324 -0.028231474 0.28806296 0.15525268 -0.16690649 0.07563134
0.28362143 0.08913079 -0.20496 -0.0978552 0.22540462 0.13353157 -0.09419441 0.41089278
0.09714645 0.085607104 0.1535857 -0.13766296 -0.13551612 0.4415626 0.19424817 -0.066849664
0.4831462 -0.18156375 -0.4266135 0.14347704 0.23900622 -0.076416805 0.22749014 -0.27538878
0.19399834 0.21093942 -0.091255024 0.22869751 0.09298242 -0.008110888 0.27976686 -0.1459794
0.3077799 0.06611908 0.011296492 -0.08224414 -0.011697549 -0.17652452 -0.032029364 0.24400602
0.45195264 0.3506566 0.18054421 -0.09904544 0.15545036 -0.4194938 0.21082148 -0.14398395
-0.37273675 -0.14606221 -0.065856546 -0.21147235 0.15697244 -0.28390136 -0.32731718 -0.10761564
0.18476392 0.14612518 -0.12559846 -0.23528464 0.034410547 -0.06270437 0.082038336 0.122989535
-0.09428422 -0.22262646 0.0055844365 -0.30220574 0.086744376 -0.04602315 0.1453883 0.10538236
-0.48547444 -0.0032416172 0.5501563 -0.12512274 -0.29454806 0.15433592 0.34261265 -0.1324189
-0.40007627 0.0024470384 -0.29936695 0.10595338 0.30464783 -0.08734668 0.26471385 -0.031937942
0.18916592 0.020829072 -0.36874446 0.26106206 -0.21154219 0.09184472 -0.26110485 -0.36774337
0.12557249 -0.10914948 -0.020204768 -0.007183429 0.406067 -0.23565792 -0.0009089762 0.21428363
-0.2657705 -0.17180496 0.32331112 0.1448758 0.005859217 -0.017339267 -0.26915798 -0.15381873
0.13124186 0.13496785 0.16321014 0.11355258 -0.15727489 -0.091682106 0.19584706 -0.1328967
0.443869 0.22757122 0.32424948 0.014531428 -0.21983972 0.2119471 0.25840273 -0.018030243
0.112526365 0.34942466 0.20427087 -0.07236564 -0.0006997711 -0.31786028 -0.14777209 0.033761647
-0.09619512 -0.40435782 -0.059079755 -0.2121212 -0.25673133 -0.0030577732 0.04306665 0.09310042
-0.06320965 0.11299372 -0.0953601 -0.22162801 -0.16224852 0.07753492 -0.28301162 0.10874419
0.49339867 0.20776099 0.03207546 -0.21277864 0.09699255 -0.101085916 -0.40965033 -0.1074462
-0.16924974 -0.032277357 0.5364997 -0.05000206 0.16607578 0.051725272 -0.09454241 0.12528381
-0.11852179 0.11335984 -0.30926734 0.054041855 -0.009024922 -0.07819725 0.30614954 0.19198833
0.34147692 0.118036695 0.05185316 0.10546062 -0.01947471 0.19828 -0.058872316 -0.3291124
0.007298607 0.270828 0.15015131 -0.10326772 -0.1571691 0.01533946 -0.072769724 -0.12878355
0.090576515 0.13780913 -0.04014626 -0.023639215 -0.012668585 0.1929583 0.2714246 0.3144084
0.0769982 0.0552336 0.095258646 -0.07746532 -0.22322926 0.15423757 0.15133053 0.10882056
0.04739018 0.1860473 0.16694613 0.26467133 -0.07376283 -0.038985886 -0.4005391 -0.04891709
-0.22827029 0.17266378 -0.015558242 -0.118531875 0.1257629 -0.11407619 -0.21393204 0.33788306
-0.012445268 0.13162018 0.23021685 0.12289671 -0.085401155 0.051543865 -0.104395084 -0.08212244
-0.15180762 0.16857757 0.107031055 0.07652461 -0.14901112 0.28595242 0.08057597 -0.007843209
00000000: 1b9d f33d bbd0 f23e 67b8 3f3e 7ea0 84be
00000010: 276a bcbe 3e19 b53d 568c 793e 3eac 163f
00000020: a9c1 163e 7caf 6dbe 5bbe 043e b145 e7bc
00000030: fd7c 933e 8ffa 1e3e 89e9 2abe 9be4 9a3d
00000040: d436 913e 348a b63d 09e1 51be 4f68 c8bd
00000050: 78d0 663e 80bc 083e 00e9 c0bd 8a60 d23e
00000060: b8f4 c63d c752 af3d 9245 1d3e 85f7 0cbe
00000070: bdc4 0abe 7e14 e23e fee8 463e 7ae8 88bd
00000080: f05e f73e d9eb 39be 166d dabe a5eb 123e
00000090: 0cbe 743e 6a80 9cbd 2df3 683e c2ff 8cbe
000000a0: 80a7 463e 8100 583e eae3 babd ae2f 6a3e
000000b0: 916d be3d 88e3 04bc 9a3d 8f3e a07b 15be
000000c0: 5495 9d3e 7169 873d ec14 393c 9e6f a8bd
000000d0: 14a7 3fbc d8c2 34be 3931 03bd b7dc 793e
000000e0: 5666 e73e 4389 b33e 95e0 383e 56d8 cabd
000000f0: 612e 1f3e e4c7 d6be 96e1 573e 8770 13be
00000100: 5ad7 bebe 5591 15be ccdf 86bd 358c 58be
00000110: 62bd 203e 855b 91be 1e96 a7be 9765 dcbd
00000120: c132 3d3e d7a1 153e e29c 00be 75ee 70be
00000130: 13f2 0c3d 266b 80bd b703 a83d f0e1 fb3d
00000140: 1618 c1bd 31f8 63be a6fd b63b b6ba 9abe
00000150: 09a7 b13d c582 3cbd ace0 143e b5d2 d73d
00000160: 1b90 f8be 5071 54bb 0bd7 0c3f 2d20 00be
00000170: 01cf 96be 3c0a 1e3e ed6a af3e d298 07be
00000180: ccd6 ccbe 7e5e 203b a046 99be 16fe d83d
00000190: cdfa 9b3e d1e2 b2bd 9388 873e 5cd1 02bd
000001a0: b6b4 413e bba1 aa3c 13cc bcbe eda9 853e
000001b0: 849e 58be 1619 bc3d 89af 85be dc48 bcbe
000001c0: 1396 003e c389 dfbd 7884 a5bc f862 ebbb
000001d0: 04e8 cf3e 4f50 71be 5c48 6eba 2b6d 5b3e
000001e0: 1213 88be a4ed 2fbe 0989 a53e 525a 143e
000001f0: adfe bf3b 140b 8ebc 13cf 89be a882 1dbe
00000200: 4464 063e 0335 0a3e 8f20 273e 418e e83d
00000210: ab0c 21be d4c3 bbbd 228c 483e 1316 08be
00000220: cc42 e33e 6e08 693e 0704 a63e 3a15 6e3c
00000230: aa1d 61be a908 593e 5d4d 843e 29b4 93bc
00000240: 3974 e63d cae7 b23e 622c 513e 7034 94bd
00000250: d870 37ba 95be a2be 9151 17be a749 0a3d
00000260: f201 c5bd fd07 cfbe 9dfd 71bd 4d36 59be
00000270: 4a72 83be ec64 48bb a866 303d 6fab be3d
00000280: 1074 81bd 4069 e73d 284c c3bd 74f2 62be
00000290: 7a24 26be a1ca 9e3d e6e6 90be 46b5 de3d
000002a0: c09e fc3e 4cbf 543e 8f61 033d a5e2 59be
000002b0: 08a4 c63d 2206 cfbd b0bd d1be c10c dcbd
000002c0: ce4f 2dbe 4335 04bd 0b58 093f f6ce 4cbd
000002d0: c50f 2a3e e1dd 533d 739f c1bd 664a 003e
000002e0: 8dbb f2bd 3429 e83d 4a58 9ebe fe5a 5d3d
000002f0: 44dd 13bc e125 a0bd a2bf 9c3e 9798 443e
00000300: 10d6 ae3e 39bd f13d fb63 543d bdfb d73d
00000310: 6d89 9fbc ea09 4b3e 1924 71bd 6c81 a8be
00000320: 2729 ef3b f8a9 8a3e 44c1 193e 077e d3bd
00000330: f0f0 20be 5c52 7b3c 4b08 95bd d6df 03be
00000340: 2e80 b93d d61d 0d3e 6870 24bd 07a7 c1bc
00000350: e68f 4fbc dc96 453e 2af8 8a3e 23fa a03e
00000360: 3bb1 9d3d a13c 623d f716 c33d 23a6 9ebd
00000370: 3696 64be 74f0 1d3e 64f6 1a3e 50dd de3d
00000380: 351c 423d 2f83 3e3e edf3 2a3e 0083 873e
00000390: f710 97bd aaaf 1fbd 7613 cdbe 495d 48bd
000003a0: b0bf 69be c6ce 303e ffe7 7ebc d7c0 f2bd
000003b0: fdc7 003e c7a0 e9bd 0011 5bbe 02ff ac3e
000003c0: 3de7 4bbc 71c7 063e f7bd 6b3e 45b1 fb3d
000003d0: cde6 aebd a91f 533d 17cd d5bd cf2f a8bd
000003e0: 7573 1bbe 999f 2c3e 1933 db3d efb8 9c3d
000003f0: 5f96 18be 5b68 923e 0405 a53d ce80 00bc

graph_embed.node_to_graph.bias f4 [32]
2.1441154 -0.27888244 0.43989527 0.054797612 -0.28397426 0.61709696 -1.1537474 1.1686089
-0.9554339 0.14734177 -0.28343692 -1.1316081 -1.0644724 -1.2004188 0.41469938 0.45848578
-0.30181345 -0.75194174 0.32078746 0.6324382 -1.004545 -1.6764272 -0.08825013 -0.25893447
-0.56664735 0.27752757 0.38707387 0.48217607 0.18967871 -0.21841228 0.9353858 2.062651
00000000: 3039 0940 aec9 8ebe f439 e13e 7673 603d
00000010: 1365 91be 11fa 1d3f ffad 93bf fa94 953f
00000020: 5197 74bf c3e0 163e a51e 91be 89d8 90bf
00000030: a240 88bf 53a7 99bf 7a53 d43e a6be ea3e
00000040: 4b87 9abe 417f 40bf 413e a43e 78e7 213f
00000050: ee94 80bf 2b95 d6bf 7cbc b4bd 0f93 84be
00000060: cd0f 11bf 1818 8e3e 8c2e c63e c8df f63e
00000070: 233b 423e 78a7 5fbe 7275 6f3f 7902 0440

graph_prop.message_funcs.0.weight f4 [32, 34]
-0.1330633 0.12542439 0.06751839 -0.077032834 0.11527514 -0.016595447 0.11627478 0.16161078
-0.11078103 0.086032696 -0.05795763 0.033733036 -0.06701899 0.014602028 -0.1716273 -0.10308336
0.028406205 -0.07606356 0.010614939 -0.07723667 0.0060767718 -0.023577703 -0.14236501 0.07505435
-0.10130972 -0.007094917 0.078275315 0.009206008 -0.010472691 -0.06920254 -0.020420514 0.13498893
0.03226043 0.12639119 -0.20860663 -0.046967406 0.06504175 0.010225587 0.06749218 0.10789458
0.14182833 0.15051916 -0.102706276 -0.1179789 0.13154529 0.04688489 -0.080390014 -0.042474188
0.025943775 -0.04151516 -0.027238162 -0.027076403 -0.10979314 -0.1607678 -0.09198138 0.033210065
0.017783402 -0.055710077 -0.06955377 0.0472883 -0.07064797 -0.0015723224 -0.16061412 -0.040256448
-0.13246034 -0.16507424 -0.027025454 0.037344407 0.011218259 0.05604995 -0.12690006 -0.027183205
0.020996591 0.0060454733 -0.048069756 0.10550022 -0.023974316 0.0044904943 0.021937642 0.06590418
-0.08594463 0.04924179 -0.07796128 0.014848426 -0.21198756 -0.09787957 -0.14183185 0.10392675
0.07438486 0.070388764 0.11994857 -0.047997072 0.073669635 0.036232438 -0.06527984 0.11659648
-0.055767734 0.047869064 0.039774064 -0.020916427 0.05985294 -0.18747412 0.13248023 -0.024150897
0.27463132 -0.10777199 0.15910576 -0.02096793 -0.064444065 -0.03201482 -0.063226044 0.01471586
0.14372599 0.09901682 0.009270371 0.0096974475 0.09867427 -0.13285957 -0.20351736 -0.03266833
-0.07341972 -0.19880897 -0.047788292 0.039864805 0.05764865 0.05924633 -0.10075359 0.15777983
-0.04628277 -0.28532314 -0.2113909 0.008362022 -0.05696041 0.05824946 0.01928199 -0.07710216
0.018374167 -0.010446079 0.033021756 -0.15778029 -0.032973323 0.006438354 0.10723094 -0.056763638
-0.012017038 -0.12529089 -0.043121472 0.015588373 0.16718292 0.19670385 0.076205835 -0.035619445
-0.047485095 0.018128196 -0.0005076826 0.012024014 0.033701878 -0.019810108 -0.011070631 0.006864736
-0.07037777 0.19316106 0.05054211 -0.0856411 -0.16698582 -0.04946559 0.01943354 0.024683496
0.25311854 -0.126698 0.12551057 0.14507198 -0.15476935 0.009837027 -0.12359905 -0.04720527
-0.09118517 0.09194573 -0.0047192597 0.118418224 0.06559646 0.040591132 -0.07307482 0.049589336
0.05087857 0.049447104 -0.17006034 0.008210456 -0.060655188 -0.08460895 -0.061295085 -0.021191048
-0.010773527 -0.065090984 -0.010246334 -0.052580617 -0.06610953 -0.01703754 0.14127174 0.15957312
-0.029431554 0.03632015 -0.020237776 -0.080010675 -0.005574486 0.020706916 -0.018126091 -0.042565893
-0.029595591 0.01933311 0.12094725 0.14177546 -0.13276339 -0.04702912 0.077649444 0.060403377
-0.22774205 0.008171389 -0.03093767 -0.02150194 0.11648312 -0.038073618 0.025553001 0.06825229
-0.09745534 -0.0955365 -0.18900006 0.07057879 0.0030477599 -0.015586819 0.011848978 -0.0458296
0.05162315 0.00093105977 0.023509342 0.07302143 0.16593257 0.0475181 0.0100897495 -0.0805433
-0.12074887 0.0025735577 -0.05249717 0.2848626 0.07605571 -0.037233047 -0.024540886 -0.17059807
0.0030322098 0.19497322 -0.033778187 -0.026740385 0.07729243 -0.19091171 0.041813966 0.11970106
00000000: bf41 08be 406f 003e 1547 8a3d 64c3 9dbd
00000010: 5f15 ec3d 2df3 87bc 7921 ee3d 4c7d 253e
00000020: 2ae1 e2bd e931 b03d fb64 6dbd a72b 0a3d
00000030: 4141 89bd 583d 6f3c 11bf 2fbe 5e1d d3bd
00000040: 21b4 e83c 36c7 9bbd 48ea 2d3c 422e 9ebd
00000050: a81f c73b 0726 c1bc 22c8 11be 18b6 993d
00000060: 787b cfbd 7a7c e8bb cf4e a03d ccd4 163c
00000070: a695 2bbc 10ba 8dbd ec48 a7bc 8a3a 0a3e
00000080: 8323 043d b16c 013e fa9c 55be e560 40bd
00000090: 9c34 853d 3889 273c 5739 8a3d d5f7 dc3d
000000a0: 723b 113e b221 1a3e ab57 d2bd ec9e f1bd
000000b0: cfb3 063e 5f0a 403d 85a3 a4bd 6af9 2dbd
000000c0: 0a88 d43c cd0b 2abd 9122 dfbc 55cf ddbc
000000d0: 3adb e0bd 50a0 24be bc60 bcbd 4707 083d
000000e0: 7fae 913c 4030 64bd 3572 8ebd 60b1 413d
000000f0: e2af 90bd 6316 ceba 0778 24be f2e3 24bd
00000100: afa3 07be 3909 29be 7c64 ddbc 73f6 183d
00000110: cacc 373c a294 653d 17f2 01be 50af debc
00000120: 0b01 ac3c 1b19 c63b cbe4 44bd 8010 d83d
00000130: c965 c4bc ff24 933b 92b6 b33c c5f8 863d
00000140: bd03 b0bd c2b1 493d 2aaa 9fbd d046 733c
00000150: 4413 59be 1675 c8bd 5e3c 11be 8cd7 d43d
00000160: 1757 983d fc27 903d 99a7 f53d 9498 44bd
00000170: 1be0 963d 7768 143d 70b1 85bd 23ca ee3d
00000180: b56c 64bd 5a12 443d 21ea 223d ed58 abbc
00000190: 5b28 753d 37f9 3fbe e6a8 073e 1ad8 c5bc
000001a0: 7a9c 8c3e 90b7 dcbd 9fec 223e f0c4 abbc
000001b0: 40fb 83bd f921 03bd a87c 81bd ca1a 713c
000001c0: e82c 133e 55c9 ca3d c1e2 173c 0be2 1e3c
000001d0: bc15 ca3d 570c 08be db66 50be 3acf 05bd
000001e0: 145d 96bd 9494 4bbe a8bd 43bd 4749 233d
000001f0: fe20 6c3d 48ac 723d e657 cebd 0991 213e
00000200: 0093 3dbd e015 92be db76 58be dd00 093c
00000210: 524f 69bd fc96 6e3d 44f5 9d3c bde7 9dbd
00000220: 6c85 963c 0826 2bbc d241 073d 2891 21be
00000230: 090f 07bd d4f8 d23b e59b db3d fd80 68bd
00000240: 1ce3 44bc 414c 00be 24a0 30bd 6066 7f3c
00000250: 0032 2b3e bc6c 493e ce11 9c3d b2e5 11bd
00000260: bb7f 42bd 9581 943c 0116 05ba 5f00 453c
00000270: fb0a 0a3d cf48 a2bc 9861 35bc 94f1 e03b
00000280: 3822 90bd 03cc 453e 3e05 4f3d 9a64 afbd
00000290: 55fe 2abe 6e9c 4abd 1633 9f3c 0b35 ca3c
000002a0: c198 813e 1fbd 01be d885 003e c08d 143e
000002b0: db7b 1ebe 7b2b 213c 8021 fdbd 505a 41bd
000002c0: 4abf babd 0b4e bc3d 05a4 9abb 4185 f23d
000002d0: 7057 863d e342 263d 40a8 95bd 301e 4b3d
000002e0: 0c66 503d 0c89 4a3d 4c24 2ebe 2685 063c
000002f0: 9371 78bd 7547 adbd 8e10 7bbd d998 adbc
00000300: 7383 30bc 6c4e 85bd 3de0 27bc c65e 57bd
00000310: 6f64 87bd 5092 8bbc 8aa9 103e 2367 233e
00000320: 711a f1bc 70c4 143d b1c9 a5bc a3dc a3bd
00000330: 2eaa b6bb 8da1 a93c 2b7d 94bc 9359 2ebd
00000340: 7472 f2bc 7860 9e3c 31b3 f73d 962d 113e
00000350: 20f3 07be 9ba1 40bd ac06 9f3d 8869 773d
00000360: 3635 69be 4ae1 053c ff70 fdbc d624 b0bc
00000370: b48e ee3d 15f3 1bbd 8754 d13c dbc7 8b3d
00000380: aa96 c7bd a4a8 c3bd 3b89 41be 9d8b 903d
00000390: edbc 473b db5f 7fbc 3722 423c d2b7 3bbd
000003a0: cc72 533d 5d12 743a aa96 c03c 428c 953d
000003b0: 3aea 293e 57a2 423d 7a4f 253c e3f3 a4bd
000003c0: 2f4b f7bd 22a9 283b 4607 57bd 83d9 913e
000003d0: 19c3 9b3d ae81 18bd f809 c9bc 43b1 2ebe
000003e0: 0ab8 463b 0fa7 473e ff5a 0abd a70e dbbc
000003f0: 7e4b 9e3d 5c7e 43be 1f45 2b3d d425 f53d

graph_prop.message_funcs.0.bias f4 [32]
-0.04127338 0.050284043 -0.0234717 0.06637408 -0.06888729 -0.052429426 0.019069446 -0.17809184
0.04129254 -0.033076387 -0.11899932 0.04643289 0.12100089 -0.08350289 -0.097065166 -0.019847844
0.1831431 0.10621447 -0.007998433 0.06751868 0.13108578 0.06907007 0.05132994 0.008417112
0.16467053 0.028445255 0.0016371934 0.035966042 0.328094 -0.14495851 0.19569741 0.027623838
00000000: 470e 29bd a4f6 4d3d b947 c0bc 22ef 873d
00000010: c814 8dbd 3dc0 56bd 8737 9c3c b55d 36be
00000020: 5e22 293d 1b7b 07bd eab5 f3bd 6a30 3e3d
00000030: 51cf f73d 9003 abbd 1aca c6bd f297 a2bc
00000040: dd89 3b3e f986 d93d dc0b 03bc 3c47 8a3d
00000050: 5a3b 063e 9c74 8d3d 583f 523d ede7 093c
00000060: 649f 283e 0606 e93c 1897 d63a 2151 133d
00000070: f0fb a73e 0170 14be e764 483e 634b e23c

graph_prop.message_funcs.1.weight f4 [32, 34]
-0.093844056 -0.04311084 0.14554158 0.17102829 -0.17704776 -0.038953222 0.001071671 -0.033180237
-0.14643255 -0.128577 -0.00826819 0.11458335 0.09964143 0.16377881 -0.13781367 0.122352704
0.18157627 -0.11130664 0.07050693 0.12763813 0.07356508 -0.057903014 0.061015498 0.031965557
-0.03612777 -0.026053727 0.10690843 0.077970766 -0.10582882 0.0011329979 0.16978672 0.0827619
-0.07821344 0.06034801 0.06611894 0.10579015 -0.014629999 0.11499151 -0.07005 -0.063285135
-0.037297882 -0.06460179 0.039153304 -0.09904954 0.03192228 -0.06407984 0.018294001 -0.08515766
0.008499404 -0.013157769 -0.05970004 0.034931064 -0.02588262 0.005602465 -0.032234386 0.0971881
-0.042674985 -0.015813883 -0.18257137 0.04582005 -0.031836454 -0.0730539 -0.049167868 -0.085380636
0.041769058 -0.020889739 -0.12319773 -0.022019235 -0.059797443 -0.0014634138 -0.07082584 -0.12190668
-0.14293557 -0.124921076 -0.09107746 0.096798405 0.095356464 -0.027403874 -0.059079673 0.056977328
-0.048801962 0.22480537 -0.020287568 -0.05894679 -0.12399673 -0.09381295 -0.07704923 -0.009825729
0.021503052 -0.01392795 0.043372113 0.037236486 0.055134468 -0.08374539 0.09878141 0.10472246
0.049732335 -0.16470361 0.024114918 -0.014763037 0.0048206137 0.12190193 -0.17330934 -0.06310925
-0.09101691 -0.009666289 -0.057271615 -0.19629148 0.14896822 -0.059448205 -0.03544577 -0.006789345
0.058879863 0.017130423 -0.043752342 0.037627213 0.07576596 0.14677052 -0.0989539 0.09866936
-0.1120056 -0.01789136 0.034006476 0.10746589 0.10630938 -0.08885634 0.011805876 0.07104295
-0.105242044 -0.17562158 -0.094926775 0.11019683 -0.08931829 -0.024682637 -0.043306787 0.02247626
0.24896994 -0.050451934 -0.18560804 -0.06787769 0.016400244 0.12980571 0.14381102 0.07895286
-0.09777352 0.04043214 -0.02723755 0.014957354 0.045980807 0.018201068 -0.16758819 -0.049830094
0.013438894 -0.041056845 0.15094194 0.122243 0.18416582 0.02881749 -0.050146468 -0.052432626
0.15206009 0.049570758 0.017616421 0.13364635 -0.10231671 -0.05141833 0.006488176 -0.11264611
-0.012316883 0.105630115 0.090487815 0.11901504 -0.028232003 -0.067463376 -0.12648366 -0.1154324
-0.09756209 0.11922366 -0.04951544 -0.09007447 -0.09368577 0.082018435 0.16600494 -0.19827753
0.07562433 -0.100433394 0.05875234 0.14338142 0.04651846 0.13462256 0.12186192 0.047160856
-0.03612412 0.01264116 0.030490117 0.015533231 0.07809133 -0.016223876 0.017610496 0.055295527
-0.08166775 -0.04052725 0.030988777 0.120468415 0.11160269 0.007449056 0.05543305 0.031530324
-0.049990803 0.064497314 -0.01784272 0.041970633 0.06413274 -0.033266105 -0.08933895 -0.09151543
-0.08996092 0.036948603 -0.105604455 0.22427492 0.06172141 0.09419829 0.035909303 -0.020670045
0.011179417 -0.059124537 -0.19178706 -0.044256326 -0.0018024513 -0.10693193 -0.12937994 -0.04810705
0.05540257 -0.05150015 -0.13447441 0.12484879 0.11663835 0.1031429 -0.022957006 -0.1311787
0.12415582 0.015559795 0.04349819 -0.03988707 0.038181216 0.059658125 -0.1587531 0.008504875
0.061551988 -0.03432234 0.14590128 0.009216135 0.027030429 0.025232743 0.06372743 -0.068364315
00000000: 5031 c0bd fe94 30bd da08 153e 0a22 2f3e
00000010: 024c 35be 6a8d 1fbd 5077 8c3a 00e8 07bd
00000020: 6af2 15be b0a9 03be 4d77 07bc adaa ea3d
00000030: ce10 cc3d a2b5 273e 071f 0dbe 0e94 fa3d
00000040: 21ef 393e bcf4 e3bd f065 903d 92b3 023e
00000050: 4aa9 963d b62b 6dbd 63eb 793d 51ee 023d
00000060: b6fa 13bd a06e d5bc cff2 da3d 23af 9f3d
00000070: c8bc d8bd 1a81 943a 92dc 2d3e 127f a93d
00000080: 5e2e a0bd 7a2f 773d 5e69 873d 82a8 d83d
00000090: aab2 6fbc ab80 eb3d 6076 8fbd a39b 81bd
000000a0: aac5 18bd f14d 84bd 375f 203d 7cda cabd
000000b0: f0c0 023d 4b3c 83bd 4ddd 953c 2467 aebd
000000c0: 1641 0b3c af93 57bc 0788 74bd e013 0f3d
000000d0: ca07 d4bc e294 b73b 3408 04bd 8e0a c73d
000000e0: f7cb 2ebd 1e8c 81bc fdf3 3abe cead 3b3d
000000f0: f166 02bd 489d 95bd 3f64 49bd 0bdc aebd
00000100: 0816 2b3d f520 abbc 174f fcbd af61 b4bc
00000110: 2aee 74bd 05d0 bfba 230d 91bd 36aa f9bd
00000120: b45d 12be 9fd6 ffbd d286 babd 3e3e c63d
00000130: 404a c33d 177e e0bc 87fd 71bd 0f61 693d
00000140: 91e4 47bd 6133 663e 1d32 a6bc 3072 71bd
00000150: fff1 fdbd 0121 c0bd fdcb 9dbd 18fc 20bc
00000160: 2b27 b03c 0e32 64bc f5a6 313d 4985 183d
00000170: aed4 613d b482 abbd e84d ca3d bb78 d63d
00000180: 22b4 4b3d 10a8 28be a68c c53c aae0 71bc
00000190: 3df6 9d3b b8a7 f93d 0178 31be 6c3f 81bd
000001a0: 1367 babd 5b5f 1ebc a495 6abd a200 49be
000001b0: 208b 183e f67f 73bd 952f 11bd 2779 debb
000001c0: 032c 713d 1a55 8c3c a835 33bd fe1e 1a3d
000001d0: 2f2b 9b3d 034b 163e 58a8 cabd 2913 ca3d
000001e0: 3163 e5bd e790 92bc 604a 0b3d 1417 dc3d
000001f0: bbb8 d93d 50fa b5bd 6f6d 413c f77e 913d
00000200: 2489 d7bd 25d6 33be f868 c2bd e0ae e13d
00000210: 82ec b6bd 3e33 cabc 7562 31bd 2220 b83c
00000220: faf1 7e3e b0a6 4ebd 0910 3ebe 7503 8bbd
00000230: ce59 863c caeb 043e 3243 133e 09b2 a13d
00000240: 7c3d c8bd 2c9c 253d 4821 dfbc b10f 753c
00000250: 5f56 3c3d 681a 953c 3d9c 2bbe a41a 4cbd
00000260: cf2e 5c3c 392b 28bd 8690 1a3e 8a5a fa3d
00000270: f795 3c3e a812 ec3c 6266 4dbd 98c3 56bd
00000280: a4b5 1b3e b50a 4b3d 5050 903c 97da 083e
00000290: 6c8b d1bd 079c 52bd c49a d43b 01b3 e6bd
000002a0: c0cc 49bc 9a54 d83d ad51 b93d 28be f33d
000002b0: cd46 e7bc 3d2a 8abd ef84 01be d267 ecbd
000002c0: a2ce c7bd 892b f43d b4d0 4abd f778 b8bd
000002d0: 53de bfbd 48f9 a73d 33fd 293e 4409 4bbe
000002e0: eee0 9a3d 06b0 cdbd 4ba6 703d 94d2 123e
000002f0: 248a 3e3d 7fda 093e be92 f93d be2b 413d
00000300: e3f6 13bd de1c 4f3c 69c6 f93c 187f 7e3c
00000310: 59ee 9f3d efe7 84bc e343 903c 907d 623d
00000320: 6c41 a7bd e7ff 25bd 2ddc fd3c 25b8 f63d
00000330: f38f e43d 3617 f43b c40d 633d f125 013d
00000340: 28c3 4cbd 2b17 843d e52a 92bc 66e9 2b3d
00000350: 0758 833d 0a42 08bd 57f7 b6bd 716c bbbd
00000360: 6e3d b8bd 6b57 173d 2647 d8bd 53a8 653e
00000370: 97cf 7c3d 08eb c03d a215 133d 3a54 a9bc
00000380: e029 373c 922c 72bd d463 44be 1f46 35bd
00000390: 3b40 ecba 21ff dabd 2d7c 04be e60b 45bd
000003a0: ceed 623d d2f1 52bd a9b3 09be b9b0 ff3d
000003b0: 16e0 ee3d 963c d33d 5510 bcbc b653 06be
000003c0: 6845 fe3d 83ee 7e3c 282b 323d a060 23bd
000003d0: e863 1c3d 145c 743d 2c90 22be 0858 0b3c
000003e0: f01d 7c3d 9595 0cbd 2567 153e 46ff 163c
000003f0: eb6e dd3c e6b4 ce3c 8783 823d 9702 8cbd

graph_prop.message_funcs.1.bias f4 [32]
-0.15491243 -0.11944432 -0.007509243 -0.10412913 -0.12029048 0.06842866 -0.064959355 0.023538353
-0.056930523 -0.009813293 -0.025974559 -0.062340423 -0.0137542905 0.046797983 -0.105620466 -0.0090326015
0.08194963 0.04398877 -0.13097183 -0.06553961 -0.05543075 -0.010728612 -0.07093419 -0.030087397
0.18652257 -0.12250454 -0.14433065 0.09583961 0.12552018 0.1898204 -0.03607054 0.06254982
00000000: 5da1 1ebe 399f f4bd 1910 f6bb a741 d5bd
00000010: db5a f6bd 5324 8c3d 6909 85bd 81d3 c03c
00000020: fb2f 69bd efc7 20bc 99c8 d4bc ac58 7fbd
00000030: ad59 61bc 3eaf 3f3d 8b4f d8bd 7afd 13bc
00000040: 35d5 a73d 922d 343d 7b1d 06be a239 86bd
00000050: 5b0b 63bd 0fc7 2fbc f245 91bd d879 f6bc
00000060: c6ff 3e3e a9e3 fabd 6acb 13be 8f47 c43d
00000070: 5d88 003e 4760 423e b4be 13bd 1f1a 803d

graph_prop.node_update_funcs.0.weight_ih f4 [48, 32]
-0.010976241 0.21252337 -0.08089938 -0.07576746 -0.20323515 -0.18185352 0.020751774 -0.1345812
-0.24627975 -0.03532681 -0.2165949 -0.26713508 -0.024781637 -0.049491182 0.03495263 0.12071739
0.009794763 -0.0031572534 -0.017650316 -0.12120203 -0.076987006 0.111211576 -0.15272346 0.4134145
0.026554983 0.065294094 -0.08538052 0.08670042 -0.106552534 0.032242574 0.00811952 0.19829893
0.32260993 -0.034100853 0.013634998 0.21021233 -0.08151035 -0.07752015 -0.08628969 0.03697978
0.1356726 -0.0586303 0.15015072 0.19172291 0.18254474 0.19073865 -0.13504155 0.022282088
-0.027238656 -0.16570252 0.09599153 -0.10103772 0.17984837 0.040675532 0.18447737 0.2441279
-0.18646547 0.042867772 0.20339338 0.061368912 0.13082047 -0.074773215 0.042044103 -0.16601653
0.070969924 -0.05002744 -0.0058467155 0.17479964 -0.060585476 0.09741919 -0.007648368 -0.26645926
-0.33457032 0.06227616 -0.034482595 -0.051381998 0.15906386 0.014921007 0.14672177 -0.23438309
0.016679479 -0.2619597 0.050901085 0.040600408 0.019274406 -0.012022861 0.047203477 -0.10048162
0.04265856 -0.061959423 -0.32569644 0.095135756 0.06816191 -0.023639334 0.09541392 -0.14856686
0.063757375 0.12495782 0.16709508 0.17821892 -0.3143238 0.015527004 -0.092237994 0.2954378
-0.018012656 0.010654445 0.1579921 -0.12097744 -0.12387332 0.09304875 0.123048104 -0.14299542
0.14449424 0.0111772185 -0.12862225 0.047126345 -0.11684981 -0.26712838 0.097995095 -0.025453359
0.04974464 0.1276359 -0.08404036 0.013786785 0.0819876 0.017681688 0.22597817 -0.3522343
-0.16959614 -0.07438644 0.13316986 0.22807729 -0.23840344 -0.06594158 0.01693105 -0.2866347
0.005259466 0.098562315 0.11817278 -0.21054097 0.046852533 0.18317236 -0.18259914 0.19518618
-0.12243519 -0.105202116 -0.19991542 -0.07709966 0.12499068 0.13278748 -0.12509724 0.12354854
-0.05588457 0.07255647 0.09128907 -0.024358576 -0.0740669 0.18443042 0.045854338 0.08045957
0.03831939 -0.13183184 -0.040778104 0.095600486 -0.12455484 -0.037065297 0.20213911 0.22062656
0.28600967 0.13221112 0.04346272 0.18103838 0.10183253 0.029633742 -0.052656773 0.021416064
-0.04337285 0.05639178 -0.15980278 0.031017702 0.059967574 -0.15693358 -0.119421504 0.19600466
0.12422013 0.09652586 -0.08039286 -0.24579543 -0.1976837 0.2342497 0.13438815 0.20753956
-0.07676318 0.26095593 -0.076094516 -0.026185365 -0.2889306 0.030276805 -0.029225193 -0.10104425
0.011259163 0.060194224 -0.06780792 0.18377505 0.20079428 -0.17751305 0.15329453 -0.16494815
-0.16139004 -0.06804082 -0.0011618383 0.26059243 -0.07397269 -0.0033518637 0.10671469 0.22091308
0.072573386 0.17910446 -0.051582765 0.22720465 -0.071650095 -0.2738537 -0.23187523 0.01763983
-0.19504572 -0.3310338 -0.16223583 -0.21175571 -0.23660001 0.18795198 -0.13353223 0.025520494
-0.1891726 0.07919012 0.24404468 0.15687124 -0.09131491 -0.15228918 -0.099594705 0.14243472
0.22280183 -0.057853486 0.082967184 0.2437187 -0.07843804 0.24668963 0.1483412 0.22091961
-0.014511618 0.093488604 -0.0039934083 -0.12809625 0.095500015 -0.03147668 0.107110746 -0.046447285
00000000: b1d5 33bc ba9f 593e 93ae a5bd f82b 9bbd
00000010: e01c 50be cf37 3abe a0ff a93c a7cf 09be
00000020: c230 7cbe d8b2 10bd 0ecb 5dbe eec5 88be
00000030: dc02 cbbc 44b7 4abd 7d2a 0f3d ae3a f73d
00000040: 377a 203c ece9 4ebb 6597 90bc c538 f8bd
00000050: 5dab 9dbd e5c2 e33d 8a63 1cbe 11ab d33e
00000060: d689 d93c e9b8 853d fbdb aebd fd8f b13d
00000070: 3738 dabd ca10 043d bc07 053c e00e 4b3e
00000080: 212d a53e 56ad 0bbd 5465 5f3c e741 573e
00000090: e6ee a6bd e2c2 9ebd a6b8 b0bd 1c78 173d
000000a0: c2ed 0a3e 5326 70bd 1cc1 193e 0353 443e
000000b0: 02ed 3a3e fe50 433e 5548 0abe ed88 b63c
000000c0: 9a23 dfbc ecad 29be 3597 c43d ddec cebd
000000d0: 2c2a 383e 639b 263d a3e7 3c3e aafc 793e
000000e0: cef0 3ebe 1e96 2f3d 5b46 503e f85d 7b3d
000000f0: cdf5 053e b322 99bd 7036 2c3d 3d00 2abe
00000100: ae58 913d 93e9 4cbd ce95 bfbb adfe 323e
00000110: 7a28 78bd b683 c73d 299f fabb 596d 88be
00000120: cd4c abbe 4915 7f3d 9f3d 0dbd ee75 52bd
00000130: a3e1 223e 3d77 743c 3b3e 163e 1f02 70be
00000140: 67a3 883c 951f 86be a87d 503d 9d4c 263d
00000150: 5ce5 9d3c 89fb 44bc 6f58 413d 4fc9 cdbd
00000160: beba 2e3d 2ac9 7dbd afc1 a6be 89d6 c23d
00000170: 7998 8b3d 47a7 c1bc 6068 c33d e921 18be
00000180: 3a93 823d e3e9 ff3d f91a 2b3e 057f 363e
00000190: 0def a0be fa64 7e3c 46e7 bcbd a043 973e
000001a0: 478f 93bc fb8f 2e3c aec8 213e 05c3 f7bd
000001b0: 4cb1 fdbd 5890 be3d a500 fc3d 646d 12be
000001c0: 4cf6 133e a720 373c 8db5 03be 8e07 413d
000001d0: f44e efbd 0dc5 88be a7b1 c83d 9083 d0bc
000001e0: 09c1 4b3d fcb2 023e 5a1d acbd f8e1 613c
000001f0: 1de9 a73d 30d9 903c d266 673e 0e58 b4be
00000200: 9caa 2dbe eb57 98bd ae5d 083e 188d 693e
00000210: 0820 74be 610c 87bd fcb2 8a3c c9c1 92be
00000220: 9957 ac3b 0adb c93d 9204 f23d 0d98 57be
00000230: 71e8 3f3d 8991 3b3e 45fb 3abe e3de 473e
00000240: 4dbf fabd 3574 d7bd a1b6 4cbe 6de6 9dbd
00000250: 1dfb ff3d 71f9 073e 7e19 00be 0407 fd3d
00000260: 38e7 64bd 7d98 943d c4f5 ba3d a38b c7bc
00000270: 63b0 97bd 54db 3c3e c2d1 3b3d fdc7 a43d
00000280: cbf4 1c3d edfe 06be f106 27bd 30ca c33d
00000290: 9c16 ffbd c8d1 17bd 8efd 4e3e eeeb 613e
000002a0: dc6f 923e 5a62 073e f705 323d 2062 393e
000002b0: 938d d03d 76c2 f23c a1ae 57bd be70 af3c
000002c0: bba7 31bd 11fb 663d 57a3 23be d618 fe3c
000002d0: 8fa0 753d 32b3 20be 4393 f4bd 72b5 483e
000002e0: 2067 fe3d 5aaf c53d 03a5 a4bd ccb1 7bbe
000002f0: 996d 4abe 27df 6f3e 0c9d 093e 4085 543e
00000300: 0436 9dbd 049c 853e 71d7 9bbd b182 d6bc
00000310: b6ee 93be 1007 f83c ac69 efbc 4af0 cebd
00000320: 5a78 383c 388e 763d e1de 8abd 872f 3c3e
00000330: 049d 4d3e fbc5 35be 3ef9 1c3e 2be8 28be
00000340: 6e43 25be fc58 8bbd d348 98ba 5f6c 853e
00000350: fe7e 97bd f1aa 5bbb 3b8d da3d 0a37 623e
00000360: 5ba1 943d 2967 373e 7348 53bd 56a8 683e
00000370: 49bd 92bd 8d36 8cbe b370 6dbe 6881 903c
00000380: 11ba 47be 437d a9be 2621 26be 7dd6 58be
00000390: 4647 72be 7c76 403e acbc 08be 5b10 d13c
000003a0: 76b6 41be 6e2e a23d d9e6 793e dba2 203e
000003b0: 5003 bbbd b2f1 1bbe 4ff8 cbbd 68da 113e
000003c0: 2a26 643e c7f7 6cbd b3ea a93d 6591 793e
000003d0: 20a4 a0bd 359c 7c3e c1e6 173e c038 623e
000003e0: 23c2 6dbc f476 bf3d 23db 82bb aa2b 03be
000003f0: 8395 c33d b1ed 00bd e15c db3d 823f 3ebd

graph_prop.node_update_funcs.0.weight_hh f4 [48, 16]
-0.1332734 -0.025062084 -0.07844178 0.080218926 -0.11043614 -0.062860206 0.11876974 -0.20908777
0.081597164 0.0135984905 -0.08063044 -0.013562322 -0.034227833 0.20623913 -0.075177364 0.16103464
0.062004823 0.05632715 0.27299684 -0.11884874 0.14219539 -0.27952656 0.18655023 -0.14213604
-0.20077106 -0.15192838 -0.16989185 0.09163425 -0.060760308 0.11107734 -0.24747412 0.28285035
0.07349215 -0.11081589 0.00060398213 0.09932613 -0.13344274 0.20059706 0.15940224 0.14773332
-0.14515886 -0.093957014 -0.107193984 0.35635802 0.0040145693 -0.09619457 -0.08976164 -0.009919586
0.14249341 -0.059679188 0.100691214 0.002505584 0.2940505 0.16710275 -0.041244917 0.28057072
-0.054726146 0.2086021 -0.13603094 0.029822577 0.008389078 0.12990753 -0.046448696 0.008507481
0.030013543 -0.15878984 -0.12077851 0.12431262 0.10814299 0.033314653 0.0023664082 0.18754402
-0.15026776 -0.13384444 -0.05688664 -0.00051653595 -0.11848617 0.08810295 0.1378695 -0.21717505
0.2007766 -0.012897219 0.14865918 0.21595006 -0.20250231 0.028276434 0.123827145 0.09397062
-0.05461528 0.100949734 -0.12952739 -0.26145613 -0.3887415 -0.3121135 0.16213386 0.4267986
0.0015242681 0.00017954654 -0.05853529 -0.025395745 0.20737003 -0.108802 -0.020832285 -0.106081024
-0.0026047116 0.08718193 -0.235975 -0.14463308 -0.38353667 0.1663139 -0.07455228 -0.12610896
0.017557003 -0.2677008 0.057247203 -0.068546124 0.051844276 -0.036629964 0.16274384 0.002764222
-0.024142323 0.031436153 -0.31330073 -0.15424651 -0.021521037 0.057659913 0.2380975 -0.05884728
0.018807832 -0.086724885 -0.09898381 -0.1712157 0.2168477 0.025570357 -0.026973402 0.15438822
-0.12384605 -0.07744523 0.09041215 -0.20103975 0.106208235 0.18532604 -0.15483221 0.20714436
-0.29955378 -0.030622141 -0.11437851 0.14621295 0.11152342 -0.2089914 0.16302961 0.0038119585
0.061282333 0.0150216995 0.1757309 -0.011699595 -0.13248107 -0.06825613 0.16426858 0.23005587
-0.100643076 -0.1198967 -0.22581384 -0.019870397 0.15316539 -0.13180307 0.094601095 0.042853698
-0.26820272 0.089658216 0.28434065 -0.036892567 -0.19549154 -0.05982076 -0.0018211609 -0.11150338
0.068761304 0.06000066 0.14238988 -0.1395343 0.13919766 0.06406708 -0.0051683574 -0.028316732
-0.18884155 -0.3041699 0.05314541 -0.366981 0.061346088 -0.24976245 -0.03688648 -0.23958373
-0.1370676 -0.38853085 0.15666905 -0.14488687 -0.1026116 0.16045567 -0.101107866 -0.23677044
-0.18498 0.044034794 -0.037808206 0.1929417 0.05559055 -0.21120372 0.060545135 0.18605155
0.22316206 0.14088896 0.004367081 -0.0013677352 -0.07707504 -0.01528191 0.33197904 0.19179554
-0.073106304 -0.2034038 0.10718668 0.15469904 0.11364497 0.13931894 -0.122985594 0.105920486
0.066988826 -0.14922646 -0.22505075 -0.09085395 -0.019451922 0.14125569 0.0014767935 -0.06542156
-0.227853 0.12091215 0.19684575 -0.014881587 0.116732545 0.23609716 -0.06727679 0.10438463
-0.04622055 -0.1574617 0.2471537 -0.16409568 -0.1870848 -0.08689188 0.08961237 0.0032466876
-0.12981547 0.033961352 0.0029334354 0.090301104 -0.17222543 0.20155048 0.058655597 -0.13887715
00000000: d278 08be 004f cdbc 15a6 a0bd d249 a43d
00000010: 582c e2bd dabc 80bd 8d3d f33d 1b1b 56be
00000020: 6a1c a73d 34cc 5e3c 9221 a5bd 8034 5ebc
00000030: 7c32 0cbd 5a30 533e 97f6 99bd 44e6 243e
00000040: c5f8 7d3d 4cb7 663d 3ec6 8b3e f866 f3bd
00000050: ab9b 113e 1b1e 8fbe 0607 3f3e 1c8c 11be
00000060: ee96 4dbe 1d93 1bbe 21f8 2dbe bdaa bb3d
00000070: cddf 78bd 847c e33d db69 7dbe c3d1 903e
00000080: 0d83 963d 71f3 e2bd 8e54 1e3a 7f6b cb3d
00000090: 37a5 08be 5169 4d3e 573a 233e 6747 173e
000000a0: 86a4 14be 896c c0bd 8588 dbbd 8f74 b63e
000000b0: a68c 833b a901 c5bd f3d4 b7bd c285 22bc
000000c0: cbe9 113e 2a72 74bd 3237 ce3d b934 243b
000000d0: ca8d 963e fc1c 2b3e 6ef0 28bd f7a6 8f3e
000000e0: 8628 60bd ca9b 553e b24b 0bbe 7a4e f43c
000000f0: 5872 093c 7b06 053e fd40 3ebd f662 0b3c
00000100: f6de f53c ce99 22be b95a f7bd 9d97 fe3d
00000110: 127a dd3d f274 083d be15 1b3b 8a0b 403e
00000120: cbdf 19be 840e 09be f701 69bd 2468 07ba
00000130: e1a8 f2bd 526f b43d aa2d 0d3e 2363 5ebe
00000140: 6298 4d3e db4e 53bc 1d3a 183e 0322 5d3e
00000150: c45c 4fbe fba3 e73c 1699 fd3d ab73 c03d
00000160: 46b4 5fbd bcbe ce3d d4a2 04be 94dd 85be
00000170: 2009 c7be 57cd 9fbe 6b06 263e 5985 da3e
00000180: f3c9 c73a a844 3c39 b3c2 6fbd bd0a d0bc
00000190: cf58 543e 95d3 debd 78a8 aabc 0241 d9bd
000001a0: cfb3 2abb 718c b23d 6ea3 71be b21a 14be
000001b0: eb5e c4be 314e 2a3e deae 98bd b522 01be
000001c0: b4d3 8f3c 1410 89be 0b7c 6a3d e961 8cbd
000001d0: aa5a 543d 4d09 16bd 52a6 263e f327 353b
000001e0: 1fc6 c5bc 32c3 003d f468 a0be ccf2 1dbe
000001f0: e34c b0bc cd2c 6c3d d5cf 733e d809 71bd
00000200: e212 9a3c d19c b1bd 06b8 cabd 2b53 2fbe
00000210: 530d 5e3e ed78 d13c 53f7 dcbc f217 1e3e
00000220: ffa2 fdbd 9b9b 9ebd 012a b93d 5ddd 4dbe
00000230: b483 d93d 1cc6 3d3e 568c 1ebe a71d 543e
00000240: 1d5f 99be 49db fabc 483f eabd d9b8 153e
00000250: 6466 e43d d701 56be 3cf1 263e 0dd2 793b
00000260: 2f03 7b3d 931d 763c cdf2 333e a8af 3fbc
00000270: 1ea9 07be dfc9 8bbd 0636 283e c493 6b3e
00000280: f51d cebd 678c f5bd be3b 67be 3ec7 a2bc
00000290: 63d7 1c3e 62f7 06be 38be c13d 5c87 2f3d
000002a0: de51 89be ba9e b73d 1995 913e a91c 17bd
000002b0: ef2e 48be 9d06 75bd 05b4 eeba e25b e4bd
000002c0: bad2 8c3d 41c3 753d a7ce 113e 14e2 0ebe
000002d0: d589 0e3e 9a35 833d 535b a9bb 7ef8 e7bc
000002e0: ae5f 41be 28bc 9bbe 00af 593d efe4 bbbe
000002f0: 0946 7b3d bac1 7fbe 4716 17bd 7055 75be
00000300: 735b 0cbe 84ed c6be da6d 203e 395d 14be
00000310: 0826 d2bd 7e4e 243e a411 cfbd f373 72be
00000320: 666b 3dbe d45d 343d c7dc 1abd 8292 453e
00000330: ebb2 633d ca45 58be 2dfe 773d 4c84 3e3e
00000340: 9884 643e 3245 103e bb19 8f3b 9445 b3ba
00000350: 85d9 9dbd fa60 7abc 28f9 a93e 0d66 443e
00000360: c2b8 95bd 1649 50be b184 db3d 6d69 1e3e
00000370: b2be e83d a0a9 0e3e dfdf fbbd d7ec d83d
00000380: 7031 893d d2ce 18be b473 66be a311 babd
00000390: a359 9fbc 55a5 103e f890 c13a bdfb 85bd
000003a0: 4c52 69be caa0 f73d ef91 493e e6d1 73bc
000003b0: 7911 ef3d 74c3 713e 6ac8 89bd 9cc7 d53d
000003c0: c251 3dbd a43d 21be dc15 7d3e b308 28be
000003d0: 2893 3fbe 5ff4 b1bd b186 b73d 61c6 543b
000003e0: 59ee 04be 0f1b 0b3d e13e 403b c9ef b83d
000003f0: dd5b 30be 4063 4e3e da40 703d d035 0ebe

graph_prop.node_update_funcs.0.bias_ih f4 [48]
1.1241614 -1.1375756 0.9798022 1.1987349 0.10198735 -1.271541 0.9133272 -0.6450335
-0.10847089 -0.9994848 1.152702 0.28867123 -1.7983613 0.28876626 -1.3418093 1.5185255
-0.7529069 1.688315 -0.49522665 0.5942278 -0.22835125 0.7392538 0.030445622 0.75543153
0.30432922 0.047564358 2.3731868 -0.11873926 0.27646622 0.96929014 0.440229 0.2417118
1.3998578 -0.060322903 0.32732573 -0.66451377 -0.6476144 0.07783782 1.2640548 1.9098365
0.6017105 -0.72803783 0.79133105 -1.2050374 -0.25952342 0.5783057 -2.5076666 -1.0554703
00000000: 85e4 8f3f 149c 91bf 51d4 7a3f 2570 993f
00000010: bede d03d dbc1 a2bf d0cf 693f ea20 25bf
00000020: fc25 debd 3cde 7fbf bd8b 933f b7cc 933e
00000030: b430 e6bf 2cd9 933e 68c0 abbf 0b5f c23f
00000040: 82be 40bf b51a d83f 598e fdbe 501f 183f
00000050: e9d4 69be bd3f 3d3f 1969 f93c f663 413f
00000060: 0ad1 9b3e d8d2 423d 4be2 1740 922d f3bd
00000070: fb8c 8d3e 6623 783f b265 e13e 4c83 773e
00000080: 8a2e b33f 2615 77bd 3d97 a73e 931d 2abf
00000090: 0fca 25bf 6f69 9f3d 8ccc a13f 8675 f43f
000000a0: b309 1a3f b060 3abf ac94 4a3f aa3e 9abf
000000b0: 41e0 84be d80b 143f 9c7d 20c0 a719 87bf

graph_prop.node_update_funcs.0.bias_hh f4 [48]
-0.6986393 -0.3819804 0.35879493 0.30247712 0.94411147 -0.22567959 -0.9109545 -0.26709664
-0.4735233 1.9637103 -0.47080156 1.2085962 0.14396511 0.6039229 1.0955652 1.2165147
-0.8094326 0.54351693 -0.38031074 1.5093611 -0.6944148 1.3304995 0.23938663 2.6670437
-1.1432642 -0.5917861 -1.597828 -0.82241255 0.16642497 0.7854804 0.8778589 -2.2137134
0.8974562 1.6474288 -0.6836014 -0.18571325 1.0921553 1.2678046 -1.8113008 -0.46235397
1.1355503 -0.081750676 1.3326287 -1.4996893 -1.2384619 -1.1498642 -0.22760278 -0.45818165
00000000: 06da 32bf ef92 c3be f8b3 b73e 48de 9a3e
00000010: 4ab1 713f 8d18 67be 5034 69bf e4c0 88be
00000020: a571 f2be dc5a fb3f e70c f1be 48b3 9a3f
00000030: 976b 133e b19a 1a3f 7b3b 8c3f c1b6 9b3f
00000040: fa36 4fbf ed23 0b3f 17b8 c2be bf32 c13f
00000050: 2bc5 31bf cf4d aa3f c521 753e d8b0 2a40
00000060: 7b56 92bf 4b7f 17bf a185 ccbf a189 52bf
00000070: 4f6b 2a3e 3e15 493f 5cbb 603f 7bad 0dc0
00000080: b1bf 653f f2de d23f 8000 2fbf 9d2b 3ebe
00000090: bfcb 8b3f 6c47 a23f b4d8 e7bf a9b9 ecbe
000000a0: b659 913f e66c a7bd 9493 aa3f d2f5 bfbf
000000b0: eb85 9ebf c02e 93bf b410 69be c996 eabe

graph_prop.node_update_funcs.1.weight_ih f4 [48, 32]
0.31206766 -0.20697547 0.1604452 0.0762692 0.15777305 0.14601912 -0.14920372 0.015992586
-0.03797215 0.20053902 -0.006019021 -0.18117921 0.03298406 0.22535281 0.15705846 0.08037444
-0.1288314 0.3185617 0.009128079 0.106683925 0.02116017 -0.0021570085 0.00018800866 0.2361863
-0.33148786 -0.026184374 -0.1580862 0.11697515 0.18360144 0.18969256 -0.034070764 -0.011698064
0.0971224 0.08171449 0.14172582 -0.034884922 0.08815384 0.03097323 -0.055131298 -0.021688765
-0.23919742 -0.107026644 0.19008523 0.039874636 -0.13393645 0.11821875 -0.08084091 -0.1374162
0.16906182 -0.114628725 0.12880208 -0.10555347 -0.20742893 -0.2743247 0.351801 -0.13696232
-0.1718328 -0.10585306 -0.02680736 0.253683 0.05991257 0.055872343 -0.110861264 0.13756634
-0.14556712 -0.16206534 0.26195917 0.11870495 0.10142458 -0.13658284 0.024629235 -0.30241144
-0.16602755 -0.08040333 0.18557763 0.069703355 -0.14065923 -0.03300274 0.04293484 0.15757695
0.00692659 0.12400196 0.18246965 0.09802204 0.036820337 0.11344716 -0.14564939 -0.14189626
0.075813554 -0.092086054 -0.035837818 0.0026258756 0.012759242 -0.17301215 0.19641194 0.21847352
-0.016968751 0.045878448 -0.113889165 0.10372452 0.13182332 -0.113383695 -0.13519244 0.3838615
0.13401902 -0.05003826 0.20419098 0.18517335 0.12071397 0.0719421 0.14231852 0.050947744
0.027585007 -0.011920945 0.0790702 0.11806633 0.21565947 0.15226816 0.30429432 0.04182476
0.14138027 -0.086038634 0.16835293 0.029911138 0.0005498137 0.08698301 0.26888263 0.24139576
0.1263947 -0.1638487 -0.121936776 -0.025124948 -0.23748389 0.03876128 -0.22704276 -0.06771431
-0.23101257 -0.16022588 -0.1707191 -0.0026210982 -0.06458164 0.098436594 0.052259993 0.09338709
0.20877638 -0.08370875 0.008519008 0.14166248 0.13314113 0.22706337 0.095787905 -0.30182526
0.07895704 0.021952054 0.20928681 -0.051330697 0.07619671 0.26820615 -0.020434536 -0.23385344
0.08378994 0.11412213 -0.19444068 -0.20277481 -0.13961095 -0.022788154 -0.069461934 0.1129146
0.11366495 -0.26240063 0.1495771 -0.27353662 -0.037738472 0.05472276 -0.032413837 -0.111917526
-0.38288373 -0.043495327 0.116566144 0.025747953 0.09995676 0.050445784 0.043182187 -0.041184213
0.11188486 -0.13861045 -0.029178673 -0.09365014 0.1489813 0.2083087 0.035692777 0.11084343
-0.0036249054 0.029713778 0.08860947 -0.011853591 -0.08024547 -0.0989084 -0.1066851 -0.25643337
-0.21398601 0.017824216 0.021196187 -0.2911086 -0.057352338 -0.08710992 -0.0948342 -0.058531474
0.048213765 0.18847571 0.15691194 0.23329875 0.10648204 0.049942553 0.14388867 -0.014327931
0.14090511 0.39129782 -0.12673214 -0.13871287 -0.14417075 0.14344364 0.09184521 0.26762623
-0.011311563 -0.3430932 0.010301316 -0.034657545 0.16582058 0.20544368 0.2358751 0.06869094
0.1746194 -0.14374588 -0.17487642 0.24373922 -0.25446495 -0.067231685 -0.20484273 -0.15882733
0.024127752 -0.23605616 0.060146548 0.25658336 0.23017931 0.06751384 0.06325714 0.074278794
-0.15018818 -0.049065493 -0.28364006 0.0629073 -0.16498244 0.15187569 0.19292648 -0.06243957
00000000: 55c7 9f3e 61f1 53be bf4b 243e 0733 9c3d
00000010: 428f 213e 0986 153e dcc8 18be e202 833c
00000020: af88 1bbd 1a5a 4d3e 353b c5bb 0b87 39be
00000030: 4b1a 073d e3c2 663e efd3 203e 5b9b a43d
00000040: 61ec 03be 851a a33e f08d 153c 1a7d da3d
00000050: 1858 ad3c 995c 0dbb 3124 4539 d2da 713e
00000060: c7b8 a9be 9d80 d6bc 59e1 21be ab90 ef3d
00000070: 0402 3c3e c43e 423e c98d 0bbd 3da9 3fbc
00000080: 1ce8 c63d ed59 a73d 9320 113e 7ee3 0ebd
00000090: 008a b43d 92bb fd3c 5bd1 61bd a3ac b1bc
000000a0: 2bf0 74be c930 dbbd b4a5 423e 9653 233d
000000b0: a326 09be ac1c f23d eb8f a5bd d5b6 0cbe
000000c0: 8b1e 2d3e 77c2 eabd b1e4 033e 6b2c d8bd
000000d0: 4068 54be 4974 8cbe 431f b43e da3f 0cbe
000000e0: f0f4 2fbe 7dc9 d8bd 1c9b dbbc bde2 813e
000000f0: e266 753d 66da 643d 3b0b e3bd 31de 0c3e
00000100: 8c0f 15be 75f4 25be 831f 863e 951b f33d
00000110: b1b7 cf3d 5fdc 0bbe 40c3 c93c acd5 9abe
00000120: 2003 2abe 80aa a4bd 1008 3e3e a2c0 8e3d
00000130: f908 10be e22d 07bd 71dc 2f3d da5b 213e
00000140: 73f8 e23b bdf4 fd3d 53d9 3a3e c8bf c83d
00000150: ecd0 163d fc56 e83d 1d25 15be 414d 11be
00000160: 2344 9b3d 9d97 bcbd adca 12bd e216 2c3b
00000170: 240c 513c 192a 31be 3620 493e 86b7 5f3e
00000180: 0d02 8bbc 0aeb 3b3d b93e e9bd 856d d43d
00000190: b1fc 063e b635 e8bd e36f 0abe 7f89 c43e
000001a0: 483c 093e ebf4 4cbd 7117 513e 159e 3d3e
000001b0: e338 f73d 6156 933d f2bb 113e 95ae 503d
000001c0: f4f9 e13c 1150 43bc 8fef a13d c3cc f13d
000001d0: d6d5 5c3e 2fec 1b3e 77cc 9b3e 7150 2b3d
000001e0: fdc5 103e 0635 b0bd b664 2c3e 3408 f53c
000001f0: 5f21 103a 2624 b23d fcaa 893e 7330 773e
00000200: 9d6d 013e f4c7 27be fdb9 f9bd d6d2 cdbc
00000210: fa2e 73be 26c4 1e3d e67d 68be cdad 8abd
00000220: 8f8e 6cbe 4112 24be fdd0 2ebe bbc6 2bbb
00000230: 6143 84bd 2099 c93d 930e 563d bb41 bf3d
00000240: 7ac9 553e 7e6f abbd 4f93 0b3c f80f 113e
00000250: 2656 083e 4d83 683e 732c c43d d788 9abe
00000260: 3bb4 a13d cbd4 b33c 484f 563e 2340 52bd
00000270: 050d 9c3d 5152 893e 5466 a7bc 4777 6fbe
00000280: 0f9a ab3d ddb8 e93d 751b 47be 33a4 4fbe
00000290: 2cf6 0ebe 39ae babc 0f42 8ebd c53f e73d
000002a0: 2bc9 e83d 6059 86be bd2a 193e fe0c 8cbe
000002b0: a893 1abd f924 603d 5fc4 04bd 0435 e5bd
000002c0: 5609 c4be 2828 32bd 3bba ee3d 5fed d23c
000002d0: 21b6 cc3d 3da0 4e3d cedf 303d c7b0 28bd
000002e0: e423 e53d e6ef 0dbe 1d08 efbc a5cb bfbd
000002f0: 8e8e 183e e04e 553e 9732 123d e101 e33d
00000300: d28f 6dbb 4f6a f33c e278 b53d 9035 42bc
00000310: bd57 a4bd 7d90 cabd b87d dabd 3c4b 83be
00000320: 261f 5bbe 1704 923c a0a3 ad3c 300c 95be
00000330: 49ea 6abd b066 b2bd 6f38 c2bd b3be 6fbd
00000340: cc7b 453d c7ff 403e 86ad 203e dee5 6e3e
00000350: 4113 da3d 9090 4c3d 8d57 133e b3bf 6abc
00000360: 6e49 103e 3058 c83e 12c6 01be bf0a 0ebe
00000370: 7fa1 13be e4e2 123e 5719 bc3d 4e06 893e
00000380: 2254 39bc e9a9 afbe dac6 283c 12f5 0dbd
00000390: dfcc 293e d45f 523e 3e89 713e d6ad 8c3d
000003a0: 6ecf 323e 1f32 13be ce12 33be c696 793e
000003b0: 3b49 82be c4b0 89bd 4bc2 51be a2a3 22be
000003c0: 90a7 c53c b5b8 71be 3a5c 763d e55e 833e
000003d0: 20b4 6b3e b244 8a3d f68c 813d 7b1f 983d
000003e0: eeca 19be e6f8 48bd 4539 91be 8bd5 803d
000003f0: 28f1 28be 4d85 1b3e 858e 453e a2c0 7fbd

graph_prop.node_update_funcs.1.weight_hh f4 [48, 16]
0.19221123 0.009084126 -0.18931442 0.28666097 0.09914173 0.1053522 -0.049551994 0.01783348
-0.29860637 0.06681043 -0.0005950319 -0.06608746 -0.13533089 -0.13460663 0.044529427 -0.008669
0.038618747 -0.18087682 -0.009433697 0.22538364 0.063780725 -0.013031883 0.09265272 -0.29573157
0.01374098 0.17596789 0.22202547 -0.0018944045 -0.19962342 -0.018939458 0.006886934 -0.033129394
0.06622383 0.03675325 -0.272629 0.17702863 0.1641457 -0.13829133 -0.25395986 0.06903255
0.018647974 -0.2072126 0.08989573 0.095810026 0.07828219 0.35257864 -0.15209167 -0.069525264
0.059558332 0.16216697 -0.10027586 -0.06539976 -0.045483094 -0.10862162 0.08955574 0.10710102
-0.009772766 -0.13195421 0.18825343 0.0107340645 -0.120084845 0.049422625 0.017853802 0.45518026
0.10337264 0.19461414 -0.10490631 0.049679857 0.09239408 0.20404449 -0.10256306 0.18254846
0.030195683 0.116291136 0.08126424 0.06626515 -0.10816735 -0.037864186 0.12494621 0.23034036
-0.0667263 0.21459025 0.08193327 0.117707334 0.07283396 0.068246335 0.15106909 0.3515964
0.21458727 0.14357446 -0.09161376 0.08072437 -0.2411686 -0.01815961 0.13212569 -0.056430407
-0.10807455 -0.16267174 -0.18173815 0.160734 0.10217215 -0.0712204 -0.059636842 0.1972111
0.22663605 -0.035786927 0.043184347 0.17767216 -0.057245947 -0.34705544 -0.08910303 -0.121608764
0.0348891 -0.0017481237 0.07096315 0.19032054 -0.031430535 -0.011094165 0.03666537 0.045072027
-0.039550275 -0.027676778 0.070029445 -0.18468831 0.11402259 0.2540369 0.098311745 0.1511052
-0.020137614 -0.12912531 -0.028446158 -0.11313195 0.17299092 0.21144016 -0.070551485 0.20673679
-0.059445407 0.09238572 0.11234807 -0.11816115 -0.15281253 0.10891265 -0.1748765 0.056931645
-0.19596371 0.03519837 0.06336268 0.03560145 -0.03787056 -0.13477375 0.11317325 0.0832474
-0.13491492 0.08697318 0.13663834 0.039793573 -0.012017598 -0.055154793 0.050208 0.1935268
-0.115874566 0.18306027 -0.020813 -0.14647366 0.03059032 0.07412459 0.25652957 0.083975375
0.12833104 0.29924935 0.11649822 0.018661112 0.34115484 -0.04219619 -0.2477175 0.054884132
0.09555906 0.03096099 -0.06066192 -0.18142729 0.070093475 0.29781199 -0.0018055583 -0.06118762
0.0006314997 -0.21685909 -0.1998899 -0.09523649 -0.19015744 0.14783694 0.28738898 0.030900827
0.02685973 -0.23867594 0.23779596 -0.01315962 0.10147454 -0.008530428 0.08711601 -0.09906612
-0.055050362 -0.22581448 0.057686746 -0.09890028 0.08843334 -0.047002017 -0.02442898 0.14178723
0.024035063 -0.03964705 0.30279073 0.14881194 -0.017128443 -0.037270498 0.14486443 0.21191928
0.10168662 -0.15717587 -0.038769465 0.035073012 0.10301339 0.22838709 -0.12861207 -0.3433104
0.17123018 0.27501065 -0.04687881 -0.0050775204 0.018290156 -0.07611756 -0.04513801 0.0773978
-0.09403395 -0.2763057 -0.04684223 0.21788771 0.28113952 -0.280005 0.0165521 0.0974136
-0.10723192 0.056702662 -0.03650628 -0.18484524 -0.28554115 0.012644982 -0.031391315 0.12483448
-0.14224447 0.106055975 -0.19821642 0.013646842 0.094126105 0.055549614 -0.069141775 -0.055752426
00000000: 05d3 443e 96d5 143c a4db 41be 3ac5 923e
00000010: d20a cb3d e5c2 d73d 08f7 4abd 8517 923c
00000020: efe2 98be e8d3 883d eafb 1bba dd58 87bd
00000030: 2e94 0abe 52d6 09be 7d64 363d 6c08 0ebc
00000040: b12e 1e3d c637 39be cb8f 1abc f8ca 663e
00000050: 789f 823d ae83 55bc b6c0 bd3d 216a 97be
00000060: d921 613c ed30 343e a55a 633e ab4d f8ba
00000070: 156a 4cbe ec26 9bbc caab e13b b0b2 07bd
00000080: 5ca0 873d 938a 163d 0796 8bbe fe46 353e
00000090: cf15 283e 3e9c 0dbe 0707 82be f060 8d3d
000000a0: a3c3 983c 8a2f 54be 411b b83d 0c38 c43d
000000b0: 6a52 a03d 3085 b43e ebbd 1bbe 4363 8ebd
000000c0: 70f3 733d 190f 263e 6e5d cdbd 4ff0 85bd
000000d0: 7b4c 3abd 0375 debd 0069 b73d c857 db3d
000000e0: f41d 20bc 011f 07be 82c5 403e eedd 2f3c
000000f0: 0bef f5bd 616f 4a3d 2342 923c 630d e93e
00000100: 09b5 d33d ee48 473e 1fd9 d6bd 1b7d 4b3d
00000110: 1b39 bd3d 0af1 503e 950c d2bd fced 3a3e
00000120: f05c f73c 0c2a ee3d de6d a63d 06b6 873d
00000130: d886 ddbd 7a17 1bbd cce3 ff3d 58de 6b3e
00000140: cca7 88bd 8cbd 5b3e a1cc a73d 8b10 f13d
00000150: f929 953d bcc4 8b3d dbb1 1a3e 7104 b43e
00000160: c4bc 5b3e 2f05 133e ff9f bbbd d252 a53d
00000170: e7f4 76be 76c3 94bc f54b 073e 9223 67bd
00000180: 3156 ddbd 6c93 26be 9119 3abe 7497 243e
00000190: a23f d13d 00dc 91bd c345 74bd b5f1 493e
000001a0: 4813 683e 5095 12bd 12e2 303d b1ef 353e
000001b0: ba7a 6abd 40b1 b1be a67b b6bd 040e f9bd
000001c0: dfe7 0e3d 4c21 e5ba 2155 913d 63e3 423e
000001d0: 4ebd 00bd 4dc4 35bc 6d2e 163d 729d 383d
000001e0: 78ff 21bd 69ba e2bc 996b 8f3d ef1e 3dbe
000001f0: ad84 e93d 2011 823e ab57 c93d 52bb 1a3e
00000200: a3f7 a4bc 6d39 04be eb07 e9bc b9b1 e7bd
00000210: 8824 313e c583 583e 4c7d 90bd cfb2 533e
00000220: 077d 73bd b934 bd3d bf16 e63d 79fe f1bd
00000230: e37a 1cbe 980d df3d d312 33be 2831 693d
00000240: b6aa 48be 2b2c 103d 4bc4 813d d3d2 113d
00000250: 291e 1bbd 2102 0abe 60c7 e73d 9d7d aa3d
00000260: 2327 0abe ff1e b23d ecea 0b3e 96fe 223d
00000270: 76e5 44bc fee9 61bd e7a6 4d3d e42b 463e
00000280: a54f edbd 2774 3b3e 0680 aabc 31fd 15be
00000290: 8d98 fa3c a2ce 973d d857 833e 48fb ab3d
000002a0: 3669 033e 3637 993e 9e96 ee3d 30df 983c
000002b0: d9ab ae3e ead5 2cbd a8a9 7dbe 2fce 603d
000002c0: 78b4 c33d e7a1 fd3c a278 78bd 13c8 39be
000002d0: 2b8d 8f3d d07a 983e 7ca8 ecba df9f 7abd
000002e0: 3a8b 253a 4f10 5ebe f0af 4cbe 590b c3bd
000002f0: a2b8 42be 9162 173e a624 933e bb23 fd3c
00000300: f008 dc3c 7767 74be c980 733e 729b 57bc
00000310: e2d1 cf3d 35c3 0bbc e169 b23d 2ee3 cabd
00000320: 7d7c 61bd e93b 67be f048 6c3d 3b8c cabd
00000330: 8a1c b53d 3085 40bd 491f c8bc ac30 113e
00000340: 2ee5 c43c f264 22bd 6307 9b3e 2862 183e
00000350: f350 8cbc f3a8 18bd 5757 143e 5e01 593e
00000360: 1341 d03d b6f2 20be bbcc 1ebd b8a8 0f3d
00000370: aff8 d23d 4ede 693e e2b2 03be 61c6 afbe
00000380: f756 2f3e 32ce 8c3e ff03 40bd 5461 a6bb
00000390: 3dd5 953c 86e3 9bbd a2e2 38bd bd82 9e3d
000003a0: df94 c0bd f177 8dbe a3dd 3fbd f51d 5f3e
000003b0: 85f1 8f3e d15c 8fbe 4598 873c c880 c73d
000003c0: 699c dbbd 0d41 683d 9c87 15bd 1248 3dbe
000003d0: 7332 92be e62c 4f3c 2e94 00bd 38a9 ff3d
000003e0: 89a8 11be e033 d93d 3ff9 4abe 0197 5f3c
000003f0: 30c5 c03d fe87 633d 349a 8dbd a85c 64bd

graph_prop.node_update_funcs.1.bias_ih f4 [48]
-0.31307682 0.44250426 -2.4774218 1.43226 -0.63058925 -0.20873085 -0.9346699 1.2101682
0.38286185 -1.5260402 1.2467594 -0.4104587 -0.82236665 -1.4285665 -1.1956481 0.802276
-0.720876 -0.0061771963 -1.0279459 -0.03228188 0.84715843 -0.61396164 0.30370423 0.033849094
2.3695824 -0.19273008 -1.3428217 0.2644652 0.5117518 0.13925286 0.024754096 0.042916764
-0.7041913 1.5154351 -0.904183 0.047862176 1.2004365 -0.85073894 1.224598 -0.71104574
0.31005275 -0.50787157 0.32856682 -0.56025314 -0.99571824 0.23677005 2.8988955 -0.7942224
00000000: 9b4b a0be eb8f e23e 148e 1ec0 4c54 b73f
00000010: 4c6e 21bf 8abd 55be 8746 6fbf cbe6 9a3f
00000020: 7806 c43e 4955 c3bf d095 9f3f a527 d2be
00000030: 9f86 52bf 44db b6bf ff0a 99bf f661 4d3f
00000040: 548b 38bf 146a cabb bb93 83bf 013a 04bd
00000050: 60df 583f 972c 1dbf 1f7f 9b3e 59a5 0a3d
00000060: 3da7 1740 095b 45be 95e1 abbf fc67 873e
00000070: 2a02 033f 4d98 0e3e 1ac9 ca3c 7dc9 2f3d
00000080: e245 34bf c7f9 c13f 8978 67bf 210b 443d
00000090: e7a7 993f 07ca 59bf a1bf 9c3f 1807 36bf
000000a0: 3cbf 9e3e df03 02bf e939 a83e c06c 0fbf
000000b0: 64e7 7ebf d973 723e 8187 3940 2952 4bbf
