housingpipeline/housingpipeline/dgmg/model.pth (torch, 852393 bytes, 64 tensors)

graph_embed.node_gating.0.weight f4 [1, 32]
0	0x3e1131cc	0.14179152
1	0xbba627d6	-0.005070667
2	0x3dc3adad	0.095546104
3	0xbde1e3d8	-0.11029786
4	0x3ed10c02	0.40829474
5	0xbc9feabd	-0.019521112
6	0x3e592f84	0.21209532
7	0xbd5e7847	-0.054313924
8	0xbd475ff3	-0.04867549
9	0x3e0d327b	0.13788788
10	0x3e66b398	0.22529447
11	0xbe0fcfdd	-0.14044137
12	0xbdbc25c9	-0.091868944
13	0xbc49fc32	-0.012328194
14	0xbdd1a1b7	-0.10235923
15	0xbf0afcf7	-0.54292244
16	0xbe1f3d71	-0.15550782
17	0x3e265f24	0.16247231
18	0xbe0f2c47	-0.13981734
19	0xbed02307	-0.40651724
20	0xbe18adc0	-0.1491003
21	0x3ef1ac12	0.47201592
22	0x3ec15a21	0.37764075
23	0x3ec0b039	0.37634447
24	0x3c2f37b1	0.01069443
25	0x3f4946b0	0.78623486
26	0xbd81a1b8	-0.063296735
27	0x3e6b417b	0.22974198
28	0x3dea69b7	0.11445945
29	0x3e6be62b	0.23037021
30	0x3e33b064	0.17547756
31	0x3eb8e195	0.36109605

graph_embed.node_to_graph.weight f4 [128, 32]
0	0xbdd5be0e	-0.10436641
1	0x3ea6a253	0.3254572
2	0x3dd8e960	0.10591388
3	0x3e67c463	0.2263351
4	0xbd468bef	-0.048473295
5	0x3e22b9e6	0.15891227
6	0x3e2f15fa	0.17098227
7	0x3e8afd4b	0.27146372
8	0xbc6f985a	-0.014623726
9	0x3d0af2cc	0.033922955
10	0x3e513307	0.20429622
11	0xbe52e8a2	-0.20596555
12	0xbe29bf3d	-0.16576858
13	0x3e38662b	0.18007724
14	0x3cac5bf5	0.021039942
15	0x3e20b908	0.15695584
16	0xbe46dc8e	-0.19420072
17	0x3b8837cd	0.0041570426
18	0xbc11040c	-0.0088510625
19	0x3d9f28b9	0.07771439
20	0xbe6722af	-0.22571824
21	0x3ebc1419	0.36734083
22	0x3df6b8b2	0.120469466
23	0xbbcae5d8	-0.0061919503
24	0xbe0a45e7	-0.13503228
25	0x3c528b80	0.012850642
26	0x3b96760c	0.004591709
27	0xbda7816b	-0.081789814
28	0xbe9c3fea	-0.30517513
29	0x3e8b180e	0.2716679
30	0x3bfb3080	0.0076656938
31	0xbe1b332b	-0.15156238
32	0xbd6dfdfb	-0.058103543
33	0xbe2383f4	-0.15968305
34	0x3ded8c6a	0.115990475
35	0xbddb080a	-0.10694893
36	0x3e04d2d9	0.12971057
37	0xbdf51e8f	-0.11968719
38	0xbe8cf6c9	-0.27532032
39	0xbee52d6e	-0.44761223
40	0xbdb36231	-0.08758963
41	0x3cfd070c	0.03088715
42	0xbe6b05ac	-0.22951382
43	0x3ea33b4c	0.31881177
44	0xbd7014cf	-0.058613595
45	0xbdc00b24	-0.09377125
46	0xbda5a767	-0.0808857
47	0x3bfdda73	0.0077469884
48	0xbe4c0a6e	-0.19925854
49	0x3e671eee	0.22570392
50	0x3e558a40	0.2085352
51	0x3e140514	0.14455062
52	0x3e1df81d	0.15426679
53	0xbd8600d6	-0.06543128
54	0xbd22bec9	-0.03973273
55	0x3d54dfdf	0.051971313
56	0x3d18d329	0.037310753
57	0x3d6b4773	0.057441186
58	0x3e3a8cbc	0.18217748
59	0x3e4a9640	0.19783878
60	0x3c90b883	0.017666107
61	0x3ebed109	0.37268856
62	0x3e7b6c48	0.24553025
63	0x3e73ba5d	0.2380156
64	0xbe87a2ec	-0.26491487
65	0xbcd11b3f	-0.025525687
66	0xbdaa0a36	-0.08302729
67	0xbe51219e	-0.2042298
68	0x3d0fc372	0.0350985
69	0xbe110a0b	-0.14163987
70	0x3d884d4c	0.06655368
71	0xbeade40f	-0.33963057
72	0xbd5d398d	-0.054009963
73	0x3d12a76e	0.035804205
74	0xbe35544c	-0.17707938
75	0xbde40232	-0.11133231
76	0xbdc0464a	-0.093884066
77	0x3d424d42	0.04743696
78	0xbd84342e	-0.06455265
79	0xbd9bc824	-0.07606533
80	0x3deead18	0.11654109
81	0xbe5c4e43	-0.2151423
82	0x3dbef210	0.093235135
83	0xbd73279d	-0.05936395
84	0x3e46224c	0.1934902
85	0xbd9fd9f4	-0.07805243
86	0x3d8e2806	0.069412276
87	0xbe85138d	-0.2599148
88	0xbdcd0036	-0.10009806
89	0x3da3d8bf	0.080003254
90	0xbe207a37	-0.15671621
91	0xbdca192c	-0.098680824
92	0xbdcf3661	-0.10117794
93	0x3db4e2b4	0.08832303
94	0xbe22d9eb	-0.15903442
95	0xbd1c02d6	-0.038088642
96	0xbd9b9db9	-0.075984426
97	0x3e3fc5b5	0.18727763
98	0x3afbc56f	0.001920862
99	0x3d9d178f	0.07670509
100	0xbdf5714e	-0.11984502
101	0x3deb675c	0.114943236
102	0xbe01d863	-0.12680201
103	0x3e8e25d7	0.27763245
104	0xbe6d35ba	-0.23165026
105	0x3dafb414	0.08579269
106	0xbdb21614	-0.08695617
107	0x3e11c08b	0.14233606
108	0xbcdc8ddd	-0.026923114
109	0xbe22a7b9	-0.15884294
110	0x3d2e200f	0.042511042
111	0xbd519ce4	-0.051175013
112	0xbe94bf80	-0.29052353
113	0x3d41ad5a	0.04728446
114	0xbd1ff6c2	-0.039053686
115	0x3d2b5b7c	0.041835293
116	0xbe4be8fa	-0.19913092
117	0x3bc119b8	0.0058929585
118	0xbd6b92ca	-0.057513036
119	0xbbcd3753	-0.0062626987
120	0xbdbdf278	-0.09274763
121	0xbdc47a77	-0.09593671
122	0x3c32dc5d	0.0109167965
123	0x3e0613e2	0.13093522
124	0xbd2b64b9	-0.041844103
125	0x3deb6d58	0.11495465
126	0xbd379020	-0.044815183
127	0x3e13af11	0.14422251
128	0x3d978e40	0.07400179
129	0xbec36eff	-0.3817062
130	0xbe16a39e	-0.14710853
131	0xbe3e7641	-0.18599798
132	0x3e247fa5	0.16064318
133	0xbd885ea4	-0.06658676
134	0xbc0ae0ec	-0.008476477
135	0x3e283519	0.16426505
136	0xbdc33999	-0.0953247
137	0xbcdf6c39	-0.027273284
138	0x3ea60a59	0.3242977
139	0xbd01d675	-0.031698663
140	0xbd7516f2	-0.059836335
141	0x3e2ac685	0.16677292
142	0x3e30bfa9	0.17260613
143	0x3c81cb80	0.015844107
144	0x3e818a48	0.25300813
145	0x3bc75eb1	0.006084286
146	0x3e3b55f2	0.18294504
147	0xbc9ef337	-0.019403083
148	0x3e81c7c0	0.2534771
149	0x3d8df05e	0.06930612
150	0xbc836b93	-0.016042506
151	0x3df80c1b	0.12111684
152	0x3d477b76	0.048701726
153	0x3e0978ea	0.13425031
154	0xbd9d86a2	-0.07691695
155	0x3e12ac1c	0.14323467
156	0xbd7acff4	-0.061233476
157	0x3df98306	0.12183194
158	0x3dda9c73	0.106743716
159	0x3e05e367	0.13075028
160	0xbdfb7872	-0.122788325
161	0xbe8b4670	-0.27202177
162	0x3cc10a7f	0.023564575
163	0xbeb847e7	-0.35992357
164	0x3d73dfe4	0.05953969
165	0xbdd849c6	-0.10560946
166	0xbe3e8123	-0.18603949
167	0x3c01f0a2	0.0079309065
168	0xbe110632	-0.1416252
169	0xbe8151ad	-0.25257626
170	0xbd44d52c	-0.04805486
171	0x3e743919	0.23849906
172	0x3c2ad62d	0.01042704
173	0xbdcda7a3	-0.1004174
174	0xbd836411	-0.064155705
175	0x3dee23b0	0.116279006
176	0x3dc1f99a	0.09471436
177	0x3da87092	0.08224596
178	0xbc0c52cb	-0.008564661
179	0xbe9dfce4	-0.30857003
180	0x3eef23b9	0.46706942
181	0xbb9e0dce	-0.004823423
182	0xbe25c3a0	-0.16187906
183	0x3e3de77d	0.18545337
184	0x3e7f6dfc	0.249443
185	0xbdbc5a08	-0.091968596
186	0x3db0dcca	0.08635862
187	0x3e066790	0.13125443
188	0x3df1905a	0.11795111
189	0xbdc05cf9	-0.09392733
190	0x3cee5f06	0.029098045
191	0x3e049613	0.12947874
192	0xbe480d08	-0.19536221
193	0xbe057cea	-0.13035932
194	0xbddaeb22	-0.10689379
195	0xbd1d3775	-0.038382966
196	0xbcb36693	-0.021899497
197	0x3dacf5b2	0.084453
198	0x3d331acb	0.043726724
199	0x3dbf03cc	0.09326896
200	0x3e603540	0.21895313
201	0xbc40e142	-0.011772456
202	0x3e41c902	0.18924335
203	0xbdd1154f	-0.102091424
204	0xbda7d0b4	-0.08194104
205	0x3e20c716	0.15700945
206	0x3d05c103	0.032654773
207	0x3dad66c1	0.084668644
208	0x3d8cc418	0.068733394
209	0x3d180b01	0.03711987
210	0xbddbb552	-0.107279435
211	0x3e84c75f	0.25933358
212	0x3e479ca2	0.19493344
213	0xbcae5fde	-0.021285947
214	0xbd5785a7	-0.052617695
215	0x3d512aaf	0.051066097
216	0xbc6490e3	-0.013950559
217	0x3deaebdd	0.114707686
218	0x3d81a891	0.063309796
219	0x3dff1daa	0.1245683
220	0x3d029df5	0.03188892
221	0xbdf352dc	-0.118810385
222	0xbd616fb1	-0.055038158
223	0xbd89273f	-0.06696939
224	0xbe2068e4	-0.15665013
225	0xbe15af58	-0.1461767
226	0x3e04a828	0.12954772
227	0xbe69014c	-0.22754401
228	0x3d8d70ff	0.06906318
229	0xbddebaf2	-0.10875501
230	0x3e08c05e	0.13354632
231	0xbe28442a	-0.16432253
232	0xbe712f16	-0.23553118
233	0x3d3c4ba9	0.045970593
234	0xbeb10e7a	-0.34581357
235	0x3d11df7f	0.035613533
236	0xbd863a0e	-0.06554042
237	0x3cc1e721	0.023669781
238	0x3c57ab7d	0.013163445
239	0x3e95f0c3	0.2928525
240	0x3c8fe604	0.017565735
241	0x3e30ab14	0.17252761
242	0x3ecba1b8	0.3977182
243	0x3e149451	0.14509703
244	0x3dff4a97	0.12465399
245	0xbd005864	-0.031334296
246	0xbc151b55	-0.009100755
247	0xbad001fd	-0.0015869733
248	0x3de0db1f	0.10979294
249	0x3dacc64a	0.08436258
250	0x3db1397d	0.08653543
251	0x3e19c1aa	0.15015283
252	0x3da06339	0.07831425
253	0xbdecaf47	-0.11556869
254	0x3e6e9e4f	0.23302577
255	0x3d66dcb4	0.056362823

graph_embed.node_to_graph.bias f4 [128]
0	0x3ec42577	0.38309833
1	0x3f8858ec	1.0652137
2	0x3f6e9455	0.93195087
3	0x3f3d8bc1	0.7404137
4	0x3fb1fb7b	1.3904871
5	0x3e8b0498	0.27151942
6	0xbf8a5d4c	-1.0809722
7	0x3fc88272	1.5664809
8	0xbec4e9fe	-0.38459772
9	0xbfa64ca5	-1.299214
10	0x3f15dc38	0.5853915
11	0xbed22377	-0.41042683
12	0x3ec1556f	0.37760493
13	0xbf0330e9	-0.51246506
14	0xbf838325	-1.0274397
15	0x3eba2f16	0.3636405
16	0xbe5d3896	-0.21603617
17	0xbf7b1735	-0.98082286
18	0xbdbc6540	-0.091989994
19	0xbf5d02bb	-0.8633229
20	0x3e72ff12	0.23730114
21	0xbe09d1db	-0.1345896
22	0x3fe11860	1.7585564
23	0x3f9da26a	1.231519
24	0xbf42dbd9	-0.7611671
25	0x3fbfab67	1.4974183
26	0xbe1ea3c8	-0.15492165
27	0x3e3da96f	0.18521665
28	0xbee5a332	-0.4485107
29	0x3ce9e9f9	0.02855395
30	0x3ebbf423	0.367097
31	0x3e8e3116	0.27771825
32	0xbe85dfd0	-0.26147318
33	0x3f248a0e	0.64273155
34	0x3f175932	0.59120476
35	0xbf1a0667	-0.6016602
36	0x3f4aa6c3	0.7916071
37	0x3eb83a23	0.35981855
38	0xbfece007	-1.8505868
39	0x3e1823bc	0.14857382
40	0xbfc941b3	-1.5723175
41	0x4014b4cc	2.323535
42	0x3f8b321d	1.0874668
43	0xbf2f4a49	-0.68472725
44	0xbf139d8e	-0.57662284
45	0x3fae0ac4	1.3597035
46	0x3f150cc8	0.5822263
47	0x3f825590	1.0182362
48	0xbfb97cd6	-1.4491222
49	0xbff35817	-1.9011258
50	0x3eed9c8d	0.464085
51	0x3f7f13ed	0.9963978
52	0xbf37e20f	-0.71829313
53	0xbf3faa75	-0.7486947
54	0xbdc4a50a	-0.09601791
55	0xbfd5da7b	-1.67073
56	0xbe31d786	-0.17367372
57	0xbf11dfb4	-0.5698197
58	0x3e3996a6	0.18123874
59	0xbe870de6	-0.2637779
60	0x3f008145	0.5019725
61	0x3f6b6e15	0.91964847
62	0x3f1a30be	0.60230625
63	0x3f9547b7	1.1662511
64	0x3e6c9406	0.23103341
65	0x3fe5a4ae	1.7940881
66	0x3f04d127	0.5188164
67	0x3e7e1c74	0.24815542
68	0x3f590420	0.8477192
69	0xbd81fcce	-0.06347047
70	0x3f3237db	0.6961648
71	0x3f819034	1.0122132
72	0xbf237d53	-0.63863105
73	0xbeb4a281	-0.3528023
74	0x3ed3eb55	0.41390482
75	0xbff0ee50	-1.8822727
76	0xbeca7039	-0.39538744
77	0xbe835f11	-0.25658467
78	0x3f641c6e	0.8910588
79	0x3f71b2bb	0.94413346
80	0x402c4b1b	2.692084
81	0xbf9fa366	-1.247174
82	0xbeec83d2	-0.4619432
83	0xbfbc5a78	-1.4715109
84	0x3f5b8ba3	0.85759944
85	0x3e76276d	0.24038477
86	0xbf9d5b1b	-1.2293428
87	0x3db81f9b	0.08990403
88	0xbfce2ed2	-1.6108038
89	0xbf02a870	-0.51038265
90	0x3fa75af3	1.307463
91	0xbf7b6e9d	-0.9821566
92	0xbf857f78	-1.0429525
93	0xbf8db70e	-1.1071489
94	0x3ec52ef3	0.38512382
95	0x3eebc110	0.46045732
96	0xbef5de92	-0.4802137
97	0xbf791830	-0.9730253
98	0xbfc0e585	-1.5070044
99	0x3eb7ec81	0.35922626
100	0x3f6efd4d	0.93355256
101	0xbe142d45	-0.14470394
102	0x3d81e611	0.0634271
103	0x3fe40ddd	1.7816731
104	0xbd520654	-0.051275566
105	0x3f6e1539	0.93001133
106	0x3f5d15e3	0.8636152
107	0xbefd1cbe	-0.4943599
108	0xbe9ff6b9	-0.31242922
109	0x3f63968c	0.8890159
110	0xbea0f20d	-0.3143467
111	0x3ec401da	0.38282663
112	0xbf84c534	-1.0372682
113	0xbdcea016	-0.10089128
114	0xbe7325d7	-0.23744904
115	0xbdbe7457	-0.09299534
116	0xbf04b9d4	-0.5184605
117	0xbea18586	-0.31547183
118	0xbf9a7032	-1.2065489
119	0xbff06f91	-1.8784047
120	0xbf6ad875	-0.9173654
121	0xbf22235d	-0.6333521
122	0x400bce1e	2.1844554
123	0xbf779ecf	-0.967267
124	0xbe538f05	-0.20660026
125	0x3ee4c8c8	0.44684434
126	0xbfbe21b2	-1.4854033
127	0x3f14c412	0.5811168

graph_prop.message_funcs.0.weight f4 [64, 67]
0	0x3e1e3238	0.15448844
1	0xbd64cf28	-0.055861622
2	0xbe299208	-0.16559613
3	0xbd9400e2	-0.07226731
4	0xbba4cbaa	-0.0050291615
5	0x3db3e557	0.087839775
6	0xbd36b291	-0.044603888
7	0x3d7770a5	0.06041016
8	0xbd65f04a	-0.05613736
9	0xbd9b297e	-0.075762734
10	0x3cc4fa99	0.024045276
11	0xbad275dd	-0.0016056855
12	0x3e04ac6b	0.12956397
13	0xbe05367a	-0.13009062
14	0xbd35bc04	-0.04436876
15	0x3e3a60d5	0.18201001
16	0xbd94a7b0	-0.07258546
17	0xbd4d0dde	-0.050062053
18	0xbe257f05	-0.16161735
19	0xbe0a9905	-0.13534935
20	0x3dc6dec5	0.09710459
21	0x3d289795	0.041160185
22	0x3e1184f0	0.14210868
23	0x3d5a2197	0.05325469
24	0x3e43b974	0.19113714
25	0x3e847959	0.2587383
26	0xbe3feaa8	-0.18741858
27	0xbe5ee764	-0.21767956
28	0x3cb48e8e	0.022040632
29	0xbe181969	-0.14853443
30	0xbe092bc6	-0.13395604
31	0x3c850510	0.016237766
32	0x3b094c69	0.0020950085
33	0x3d338646	0.043829225
34	0xbe188a0a	-0.14896408
35	0x3e09d4be	0.13460061
36	0x3d83cf25	0.06435994
37	0x3e0b1c31	0.13584973
38	0xbdf817c1	-0.12113906
39	0xbdc9580f	-0.09831249
40	0x3c035cc1	0.00801772
41	0x3e9a4c1f	0.301362
42	0xbd9411ca	-0.072299555
43	0xbcc8ee7e	-0.024527784
44	0xbcbdb90b	-0.023159524
45	0x3e65349c	0.2238335
46	0x3e69488c	0.2278158
47	0x3e08a6da	0.13344899
48	0xbe0fe505	-0.14052208
49	0x3b83f17f	0.0040265913
50	0x3ca79871	0.020458432
51	0x3bacf159	0.0052777943
52	0x3c1ec07f	0.009689449
53	0xbcc8d248	-0.024514332
54	0xbd28ef20	-0.041243672
55	0xbe30328e	-0.17206785
56	0x3e31e4f5	0.17372496
57	0x3e217caf	0.1577022
58	0xbd6859fc	-0.05672644
59	0x3dc5c630	0.09656942
60	0xbd754f18	-0.059889883
61	0x3e68d6e5	0.22738226
62	0x3e21ce88	0.15801442
63	0xbdcec86f	-0.100968234
64	0xbc47dbe2	-0.01219842
65	0x3bc0cd1b	0.0058838255
66	0x3e21dba6	0.15806445
67	0xbc740484	-0.014893655
68	0xbd6c93e5	-0.05775823
69	0x3d57d72a	0.05269543
70	0xbe3c05a8	-0.18361533
71	0xbdb61dc1	-0.08892394
72	0x3d276208	0.040864974
73	0x3bf48953	0.0074626594
74	0xbda358d7	-0.07975929
75	0x3dd22e98	0.10262793
76	0x3d7598bb	0.05996011
77	0xbd81946f	-0.063271396
78	0x3d85b2d5	0.0652825
79	0xbe5c58cc	-0.21518248
80	0x3da8ee5c	0.082485884
81	0xbdf4a650	-0.11945784
82	0xbdb8afc8	-0.090179026
83	0x3e388f44	0.18023401
84	0xbcee3c40	-0.029081464
85	0xbc62e51e	-0.013848571
86	0x3e04a0e8	0.12952006
87	0xbe03f80c	-0.12887591
88	0x3d4dc4ae	0.050236396
89	0x3dc51177	0.09622472
90	0x3e838146	0.25684565
91	0x3d999c20	0.075004816
92	0x3e04cbc1	0.12968351
93	0x3c933329	0.017968731
94	0x3ddcce3e	0.10781525
95	0x3d21261c	0.039342985
96	0x3dbf744d	0.093483545
97	0x3db782b1	0.08960474
98	0xbcc817d3	-0.024425423
99	0xbe45f8e2	-0.19333223
100	0x3e06385d	0.13107438
101	0xbdf8682b	-0.121292435
102	0x3e4658ff	0.19369887
103	0x3d3d29b5	0.046182353
104	0x3db40e7b	0.087918244
105	0x3d08a1d4	0.033357456
106	0xbd3de5a5	-0.046361584
107	0x3c4e94b9	0.0126087
108	0x3e6350b5	0.22198756
109	0xbe102184	-0.14075285
110	0xbc5b28a9	-0.013376393
111	0x3c83b501	0.01607752
112	0x3b42ad5e	0.0029705386
113	0xbdcc2826	-0.09968595
114	0x3db4abe5	0.08821849
115	0xbd883f16	-0.06652658
116	0xbd447592	-0.047963686
117	0x3d423cb7	0.047421183
118	0x3dc3ef80	0.095671654
119	0xbd17f3bb	-0.037097674
120	0xbceb7d19	-0.028746175
121	0xbb8ede04	-0.0043599624
122	0xbe324a2f	-0.17411111
123	0xbdeb2c96	-0.114831135
124	0x3c00a2a2	0.007851275
125	0xbda995c5	-0.082805194
126	0xbd38cf5b	-0.045119625
127	0x3dc69445	0.09696249
128	0xbe355848	-0.17709458
129	0xbd7a0754	-0.061042145
130	0xbc9a60f9	-0.018845068
131	0xbd365de7	-0.044523146
132	0xbc14db4d	-0.0090854885
133	0x3e0223d1	0.12708975
134	0x3e58b93e	0.21164414
135	0xbc64345c	-0.013928499
136	0x3d95219d	0.07281802
137	0xbdb6b64e	-0.089214906
138	0x3cb9681b	0.02263265
139	0xbcc16311	-0.023606809
140	0x3da31ee1	0.07964874
141	0x3d08317d	0.03325032
142	0x3d968902	0.07350351
143	0x3e4c8c1c	0.19975322
144	0xbe5c1b17	-0.21494709
145	0x3db626f4	0.088941485
146	0x3bc41636	0.005984093
147	0xbc3a80de	-0.011383263
148	0xbc908fbc	-0.017646663
149	0x3d6abbbf	0.057307955
150	0xbdd7290f	-0.10505878
151	0xbdd4edd1	-0.103969224
152	0x3db678c9	0.08909757
153	0x3dc6a61d	0.09699652
154	0x3dee232d	0.11627803
155	0x3d638fb0	0.055556953
156	0xbe43a541	-0.19106008
157	0x3d581c6a	0.052761473
158	0xbd841957	-0.06450146
159	0x3c2ff288	0.010738976
160	0xbc0b8a12	-0.008516805
161	0xbd5b1017	-0.05348214
162	0xbdde72a6	-0.10861711
163	0x3d87a442	0.066231266
164	0x3ca6c5ed	0.02035805
165	0xbcbaba51	-0.02279392
166	0xbe8a6f88	-0.27038217
167	0x3cc91177	0.02454446
168	0x3d292d40	0.04130292
169	0x3d6030d7	0.054734077
170	0x3e67d6e9	0.22640575
171	0x3d459c4c	0.04824476
172	0x3dd5b028	0.1043399
173	0x3d16c14b	0.036805432
174	0x3b8334b7	0.004004087
175	0xbe05beed	-0.13061114
176	0xbd12c19f	-0.035829183
177	0x3de1c4e7	0.11023884
178	0x3de7d8f9	0.11320681
179	0x3dde1e33	0.10845604
180	0xbe21bba5	-0.15794237
181	0xbd7e0a20	-0.062021375
182	0xbdcaa07c	-0.09893891
183	0xbe0bd958	-0.13657129
184	0x3e0d47d7	0.13796936
185	0xbd6ca1b4	-0.0577714
186	0xbddbc147	-0.10730224
187	0xbd4f4c05	-0.050609607
188	0xbbfe2ac0	-0.007756561
189	0xbe00f620	-0.12593889
190	0xbe6d7eba	-0.23192874
191	0xbe2e8419	-0.17042579
192	0x3e423da0	0.1896882
193	0xbd2ff582	-0.042958744
194	0x3cbcdf44	0.02305568
195	0x3d437d61	0.047726993
196	0xbe28c344	-0.16480738
197	0x3cb656f4	0.02225826
198	0xbe262317	-0.16224323
199	0xbdaf2983	-0.085528396
200	0xbd9af641	-0.075665005
201	0xbd53ab43	-0.051677
202	0xbd47c366	-0.04877033
203	0xbcf1c882	-0.029514555
204	0xbe7a3bc0	-0.24436855
205	0xbe10bf01	-0.14135362
206	0xbe6c85e0	-0.23097944
207	0x3e18b0a8	0.14911139
208	0x3c073d7d	0.008254406
209	0x3dfde0d2	0.12396397
210	0x3eb9c363	0.3628188
211	0xbe006c2e	-0.12541267
212	0xbcfc42c9	-0.030793564
213	0x3cde9d17	0.027174516
214	0xbc8da1ea	-0.01728912
215	0x3e186366	0.14881667
216	0xbd20bacd	-0.039240647
217	0xbe36d963	-0.17856364
218	0x3d179e72	0.03701634
219	0xbd6cd981	-0.057824615
220	0x3d1d08df	0.03833854
221	0x3d222451	0.039585415
222	0x3c1d4c47	0.0096007055
223	0xbe0b201c	-0.13586468
224	0x3d84c54b	0.06482943
225	0x3d3c945c	0.046039924
226	0x3d2eb0dc	0.042649135
227	0x3e5b7d32	0.21434477
228	0xbe09e5d1	-0.13466574
229	0x3e068561	0.13136818
230	0x3e2c17d8	0.1680597
231	0x3dec6b06	0.115438506
232	0xbc7b541f	-0.01533988
233	0xbe03973c	-0.1285066
234	0xbd2dc6e2	-0.042425998
235	0xbc44bbbd	-0.012007651
236	0xbc6715df	-0.014104336
237	0xbd34f976	-0.044183217
238	0xbaf234b5	-0.0018478843
239	0x3dc8eb45	0.09810499
240	0x3dbac8e4	0.09120348
241	0x3d72d4a5	0.059284825
242	0x3da9ae3b	0.08285185
243	0x3c06379a	0.008191967
244	0x3d1458fd	0.03621768
245	0xbd6805c7	-0.056646135
246	0x3d9a492c	0.07533488
247	0xbd6d0082	-0.057861812
248	0xbdaa6ec7	-0.0832191
249	0x3dd86bd0	0.105674386
250	0x3dbfb8c2	0.09361412
251	0x3e021972	0.12705019
252	0xbe17cf35	-0.14825137
253	0xbd86857a	-0.065684274
254	0xbd7b0028	-0.061279446
255	0x3dc72a38	0.097248495

graph_prop.message_funcs.0.bias f4 [64]
0	0x3c99182f	0.01868829
1	0x3cf09e7f	0.029372452
2	0x3df42bb4	0.11922398
3	0x3de01adc	0.10942623
4	0x3c094d43	0.008380237
5	0xbd4673b7	-0.048450198
6	0xbd1b0fb4	-0.037856773
7	0xbd79f53d	-0.061024893
8	0x3e7ff31a	0.2499508
9	0x3e73f47d	0.23823734
10	0xbe2bace2	-0.16765168
11	0x3e4188c6	0.18899831
12	0xbda38a5b	-0.079853736
13	0xbcdcc492	-0.0269492
14	0x3d656d70	0.05601257
15	0xbdd3f0fd	-0.10348699
16	0x3d6c0034	0.05761738
17	0xbe2d263e	-0.1690912
18	0x3dbb0a77	0.091328554
19	0x3e1f90ed	0.15582629
20	0x3e27fcd1	0.16405036
21	0x3d9ba94f	0.076006524
22	0xbd0aa195	-0.033845503
23	0xbc519fe3	-0.012794468
24	0xbc079d12	-0.008277195
25	0xbe12b931	-0.14328457
26	0x3be2d3d3	0.006922224
27	0xba762213	-0.0009389233
28	0x3dd1761c	0.10227606
29	0xbe020e05	-0.1270066
30	0x3d22a4b5	0.039707858
31	0xbb95d490	-0.0045724586
32	0xbd2a4f64	-0.04157962
33	0x3e10d8bc	0.14145178
34	0xbddd6a4b	-0.108112894
35	0x3dd50327	0.10400992
36	0xbe1e8646	-0.15480909
37	0xbd67a40a	-0.056552924
38	0xbd88d3f3	-0.06681051
39	0x3e284f36	0.16436467
40	0x3e1b5458	0.15168893
41	0x3d7baf72	0.061446615
42	0x3d1e6985	0.03867485
43	0x3db02144	0.08600095
44	0xbe0f4075	-0.13989432
45	0xbb53f8dc	-0.0032344377
46	0xbdb71555	-0.08939616
47	0xbe6cccd3	-0.23125009
48	0x3cf23c0d	0.02956965
49	0xbdb87be8	-0.09008008
50	0x3d9d29b2	0.076739684
51	0x3cef16da	0.029185701
52	0x3e0b8151	0.13623549
53	0xbe26ea9a	-0.16300431
54	0x3dad41e5	0.08459834
55	0xbdc395c1	-0.09550048
56	0x3e03d609	0.12874617
57	0xbe0c8a8b	-0.13724725
58	0xbdeca224	-0.11554363
59	0x3e12e6c9	0.1434585
60	0x3e087e72	0.13329485
61	0x3dff6732	0.12470855
62	0x3dabdd1e	0.08391784
63	0xbdf4f898	-0.11961478

graph_prop.message_funcs.1.weight f4 [64, 67]
0	0x3e50af50	0.20379376
1	0xbe4fb075	-0.20282157
2	0xbc3b96de	-0.011449544
3	0xbd5efa78	-0.054438084
4	0xbd85ddb2	-0.06536426
5	0xbdff88d7	-0.12477272
6	0xbc162d42	-0.009166064
7	0xbe0a5d0b	-0.13512056
8	0x3da4acb1	0.08040751
9	0x3e2319c3	0.15927796
10	0xbda41468	-0.08011705
11	0x3d7dc958	0.061959594
12	0x3db2153f	0.086954586
13	0x3dff831b	0.12476178
14	0xbd259e3d	-0.04043411
15	0xbd4b7214	-0.04966934
16	0xbea0389c	-0.3129319
17	0x3dff7bbe	0.12474774
18	0xbc971984	-0.018444784
19	0x3d4c0efd	0.04981898
20	0xbc7717bd	-0.015081343
21	0xbd8a0cd9	-0.06740732
22	0x3c700f7e	0.014652131
23	0xbc8e89e8	-0.017399743
24	0x3d901bd7	0.0703656
25	0x3c852657	0.016253633
26	0xbd8de576	-0.06928532
27	0xbe05d675	-0.1307009
28	0xbdf5acb9	-0.11995835
29	0xbd258979	-0.040414307
30	0x3b70892d	0.0036702857
31	0xbdca3f2c	-0.0987533
32	0x3e2c35b9	0.16817369
33	0xbe146a26	-0.14493617
34	0x3c9b2823	0.018940037
35	0xbce14389	-0.027498024
36	0x3df7c491	0.12098039
37	0x3c0044cb	0.0078289015
38	0xbe26c440	-0.16285801
39	0xbcb412ba	-0.021981586
40	0x3cbc503d	0.02298748
41	0x3e11340f	0.14180015
42	0x3dccba97	0.09996527
43	0x3a7e3827	0.00096976984
44	0xbd091903	-0.03347112
45	0x3dd3d88c	0.103440374
46	0xbd4a35d5	-0.049367744
47	0xbd3aad65	-0.04557552
48	0x3cfc9dc1	0.030836942
49	0xbe51026d	-0.20411082
50	0x3eb48da4	0.35264313
51	0xbcbc91e1	-0.02301878
52	0xbc1bcc45	-0.009509151
53	0x3dd186eb	0.10230812
54	0x3d17580d	0.036949206
55	0x3e7cb185	0.24677093
56	0xbe166b61	-0.146894
57	0xbd1ca1e9	-0.038240347
58	0xbdd9366b	-0.106060825
59	0x3b4f5481	0.0031636062
60	0xbd8b0764	-0.06788519
61	0xbd8575cb	-0.06516608
62	0xbd9e26ec	-0.077222675
63	0xbca37e20	-0.019957602
64	0x3d939638	0.07206386
65	0x3e016cf6	0.12639222
66	0x3d9d98d8	0.07695168
67	0xbd0cb509	-0.034352336
68	0xbd017282	-0.031603344
69	0x3c49a208	0.012306698
70	0xbd7a8f56	-0.061171852
71	0x3c85e49d	0.016344363
72	0xbdac0ce4	-0.08400896
73	0x3d2ac2f4	0.041689828
74	0x3e150942	0.14554313
75	0xbd9fb3c5	-0.0779796
76	0x3dda5787	0.10661226
77	0x3d9ecfe2	0.07754494
78	0x3d9fcb54	0.07802454
79	0xbd8bcb4b	-0.068258844
80	0x3e1179da	0.14206639
81	0xbd8136ec	-0.06309304
82	0x3d4b85a0	0.04968798
83	0x3da5cb8a	0.080954626
84	0x3de6c1bb	0.1126742
85	0x3e07b5bb	0.13252918
86	0x3dbe2c14	0.09285751
87	0x3da96c81	0.082726486
88	0xbd7c7f49	-0.061644826
89	0x3d1e7fd1	0.038696114
90	0xbcb00e3b	-0.02149116
91	0x3c547d8d	0.012969387
92	0x3dcf337f	0.10117244
93	0x3e4a7085	0.19769485
94	0xbe0ed339	-0.13947763
95	0xbdf07e07	-0.11742788
96	0x3d22fce2	0.03979195
97	0x3c683507	0.014172799
98	0xbe215e54	-0.1575864
99	0xbd446a58	-0.04795298
100	0x3dcdbc5a	0.10045691
101	0xbc2c06d9	-0.0104996795
102	0xbdeae448	-0.114693224
103	0x3d405a72	0.046961255
104	0xbd2b5280	-0.041826725
105	0x3d9d2ef1	0.07674969
106	0x3dd62bb3	0.10457554
107	0x3e373c02	0.17893985
108	0xbe7f9adb	-0.24961416
109	0x3d9b395b	0.07579299
110	0xbc8d0a94	-0.017216958
111	0xbd9a68cd	-0.075395204
112	0xbe116fc4	-0.14202791
113	0x3db84aaa	0.08998616
114	0xbdaddf54	-0.08489862
115	0xbe213786	-0.15743837
116	0x3d847e71	0.06469429
117	0xbbce3b9f	-0.0062937285
118	0xbd620ba4	-0.055186883
119	0xbe290d17	-0.165089
120	0x3e8a41df	0.2700338
121	0x3d801162	0.062533155
122	0x3e0cbcce	0.13743898
123	0x3df34a98	0.11879462
124	0x3d269973	0.040673684
125	0x3ccafbf3	0.024778342
126	0xbeac4dde	-0.33653158
127	0x3dbf7a44	0.09349492
128	0xbb574391	-0.003284667
129	0xbcf1a9a3	-0.029499834
130	0x3e50a2d3	0.20374613
131	0xbd1942e5	-0.03741731
132	0x3d740de6	0.059583567
133	0xbd7e0154	-0.062012985
134	0x3daf3161	0.0855434
135	0x3e25ba86	0.16184434
136	0x3df65992	0.12028803
137	0xbdfce830	-0.12348974
138	0x3d820636	0.06348841
139	0x3da39170	0.079867244
140	0xbe313f4d	-0.17309304
141	0xbd25ee80	-0.040510654
142	0xbe4f83dc	-0.20265144
143	0xbd3e98d6	-0.046532474
144	0x3e5315ad	0.20613737
145	0x3ded443d	0.11585281
146	0xbd164bbe	-0.036693327
147	0x3e0fac5c	0.14030594
148	0xbdb23ee2	-0.087034
149	0x3e4222c8	0.1895858
150	0xbd17efe8	-0.037094027
151	0xbd5f46d3	-0.054510903
152	0x3e0ffa67	0.14060365
153	0xbe411d51	-0.1885884
154	0xbe006182	-0.12537196
155	0x3e0b6ffb	0.13616936
156	0x3bb2baa6	0.005454379
157	0x3bb4ceb6	0.005517806
158	0x3c6324e1	0.013863773
159	0xbc9bfdd2	-0.01904193
160	0x3d3aee1f	0.045637246
161	0x3c19cc3a	0.00938707
162	0x3dc508c3	0.09620812
163	0xbd7d9545	-0.061909933
164	0xbe218d2d	-0.1577651
165	0xbcb7eef3	-0.022452807
166	0x3dfa01e9	0.122073956
167	0x3b933e92	0.004493543
168	0xbdd0332e	-0.10166012
169	0xbd27eae9	-0.040995512
170	0x3e139062	0.14410546
171	0x3c17a179	0.009254807
172	0x3d1d8f5d	0.0384668
173	0x3dd016b6	0.10160582
174	0xbcb61523	-0.022226876
175	0xbcb51507	-0.022104753
176	0x3c9968a7	0.01872666
177	0xbe58641e	-0.21131942
178	0xbcedfd39	-0.02905141
179	0xb9c7605f	-0.0003802804
180	0xbdec1c8c	-0.115288824
181	0x3e11f1cb	0.14252393
182	0x3d10abe3	0.035320174
183	0xbe079550	-0.13240552
184	0x3e2fe9e5	0.17179067
185	0x3e0a5c2a	0.1351172
186	0x3c64c3b4	0.013962675
187	0xbd3d9e34	-0.046293452
188	0x3e6bb8ed	0.23019762
189	0x3e3fff26	0.18749675
190	0x3cf2acdf	0.029623447
191	0x3d3046ed	0.04303639
192	0xbe05b468	-0.13057101
193	0x3dceef27	0.101042084
194	0xbd722023	-0.05911268
195	0xbd96bf6d	-0.0736073
196	0xbe20fcbe	-0.15721413
197	0xbd6fe0d5	-0.058564026
198	0x3dfbe585	0.12299637
199	0x3d55fa51	0.052240673
200	0x3db7dc38	0.0897755
201	0x3d56ede4	0.052472964
202	0xbe050748	-0.12991059
203	0x3bd83569	0.006598164
204	0xbe005050	-0.12530637
205	0x3e0cd9e1	0.13754989
206	0xbe07b19a	-0.13251343
207	0x3e0705d8	0.13185823
208	0x3df7507e	0.120758995
209	0x3de5e620	0.112255335
210	0x3d808812	0.06275953
211	0x3c12e3dd	0.00896546
212	0x3ed6a171	0.41920045
213	0xbe2fabfe	-0.17155454
214	0xbd352692	-0.044226237
215	0x3d1bb594	0.038014963
216	0xbe0000a7	-0.12500249
217	0xbcaa863b	-0.02081596
218	0x3e182961	0.14859535
219	0x3dcfe44e	0.101509675
220	0x3e08f534	0.13374788
221	0xbe347c8b	-0.17625634
222	0x3e0549ae	0.13016388
223	0xbcbb7920	-0.022884905
224	0xbd3b4448	-0.045719415
225	0xbd96a90d	-0.07356463
226	0x3de8c773	0.11366167
227	0xbdab9cd8	-0.08379525
228	0xbd32eae4	-0.04368104
229	0xbea902c0	-0.3300991
230	0x3ca195fb	0.019724837
231	0x3d7d6ad0	0.061869442
232	0x3d015a4d	0.03158026
233	0x3d100a4d	0.035166074
234	0x3dc35946	0.09538512
235	0xbe13f181	-0.14447595
236	0xbe3edc4e	-0.18638727
237	0xbe44361c	-0.19161266
238	0xbd5e3e5c	-0.05425869
239	0x3dcf5aa1	0.10124708
240	0xbba9f257	-0.00518636
241	0x3e2ab7f9	0.16671742
242	0x3d2732be	0.040819876
243	0xbcb4d7ed	-0.022075618
244	0x3d7d3532	0.06181831
245	0x3d707e60	0.05871427
246	0x3df02742	0.11726238
247	0xbd62e488	-0.055393726
248	0xbdabdc80	-0.083916664
249	0x3d4be939	0.049782965
250	0xbc353fc8	-0.01106257
251	0xbdad88b0	-0.08473337
252	0xbc97fd19	-0.018553304
253	0xbd6953bb	-0.056964617
254	0x3e23909a	0.1597313
255	0x3d92af24	0.07162312

graph_prop.message_funcs.1.bias f4 [64]
0	0x3dca5661	0.09879757
1	0xbdf70d85	-0.120631255
2	0xbcd66b96	-0.026174348
3	0x3b96b23c	0.004598884
4	0x3e84ff1a	0.25975877
5	0x3c8273df	0.015924392
6	0x3df2b514	0.11850944
7	0x3e2ba7cc	0.16763228
8	0x3d9cc5a5	0.07654885
9	0xbd1eb415	-0.03874596
10	0x3d44a803	0.04801179
11	0xbda95a99	-0.08269233
12	0xbe16c7bd	-0.14724632
13	0x3b0ed3ad	0.002179365
14	0xbde0eb9e	-0.109824404
15	0xbd98e051	-0.0746466
16	0x3d0ddd4d	0.034634877
17	0x3cca51b3	0.02469716
18	0xba758de4	-0.00093671517
19	0x3e08fa9f	0.13376854
20	0x3e3675b9	0.17818345
21	0xbcfff0b2	-0.031242702
22	0x3ad4674c	0.0016205101
23	0x3e08473a	0.13308421
24	0x3e1971b6	0.14984784
25	0xbcfb22a1	-0.03065616
26	0x3dcdd37e	0.100501046
27	0xbd82ce1a	-0.06386967
28	0x3d3660db	0.044525962
29	0x3c421935	0.01184683
30	0x3e8c8881	0.27447894
31	0xbe4428d7	-0.19156204
32	0xbd955add	-0.072927214
33	0xbe107584	-0.14107329
34	0xbd527195	-0.05137785
35	0x3ce3c38f	0.02780321
36	0x3e1d1dfc	0.1534347
37	0xbcdc314f	-0.02687898
38	0x3e297dd2	0.16551903
39	0xbdf813a8	-0.12113124
40	0x3e1a8c20	0.15092516
41	0xbcaf8ae5	-0.021428535
42	0x3d3b7695	0.045767386
43	0xbe15085d	-0.14553972
44	0xbd2faf8c	-0.042892024
45	0xbdb7ec97	-0.08980673
46	0x3d5485cb	0.051885407
47	0xbe5c5e3a	-0.2152032
48	0xbcb11d0b	-0.021620294
49	0x3c99d9fa	0.018780697
50	0xbe408956	-0.1880239
51	0x3cf4fdaa	0.029906113
52	0x3de31eb4	0.110898405
53	0xbe1b9443	-0.15193276
54	0x3e2b3c48	0.16722214
55	0x3d565dcd	0.05233555
56	0x3c7cfd40	0.015441239
57	0x3e08cac6	0.13358602
58	0xbda57153	-0.080782555
59	0x3c53275d	0.012887803
60	0x3e070659	0.13186015
61	0xbe2ba990	-0.16763902
62	0x3dc33544	0.09531644
63	0x3cfad615	0.03061966

graph_prop.message_funcs.2.weight f4 [64, 67]
0	0x3e0584d6	0.13038954
1	0xbc50cd4f	-0.012744262
2	0x3e0796a0	0.13241053
3	0xbd1b60e2	-0.03793419
4	0xbe080f31	-0.13287045
5	0xbc887b2a	-0.016660292
6	0xbdf7a5ba	-0.12092157
7	0xbde3a4be	-0.111154065
8	0xbd0d8700	-0.034552574
9	0xbe9e3395	-0.3089873
10	0x3c07cc40	0.008288443
11	0x3dd19f2f	0.1023544
12	0x3d9efee9	0.07763464
13	0x3df82c86	0.12117867
14	0xbe4348ee	-0.19070789
15	0x3e815376	0.25258988
16	0xbe427b2f	-0.18992303
17	0x3d81ab75	0.06331531
18	0xbd63d18e	-0.05561977
19	0xbd6ac1fc	-0.057313904
20	0xbd869e2b	-0.06573137
21	0x3c20d6aa	0.009816805
22	0x3d496609	0.049169574
23	0x3d9cbc37	0.07653087
24	0x3dc493c1	0.09598494
25	0xbe07e416	-0.13270602
26	0x3da1ee9d	0.0790684
27	0xbe6e81f5	-0.23291762
28	0xbd7a0a4e	-0.061044984
29	0x3d4165b1	0.04721612
30	0x3d8c41b7	0.068484716
31	0x3e54249c	0.2071709
32	0xbdfcc32b	-0.12341913
33	0x3dbb7a88	0.0915423
34	0xbd8cd082	-0.06875707
35	0x3e097f93	0.13427572
36	0x3cf16d98	0.029471204
37	0xbdad2626	-0.08454542
38	0xbd708c86	-0.058727764
39	0x3dc13397	0.09433668
40	0xbcb93975	-0.022610405
41	0x3e613aa6	0.21995029
42	0xbca5f4ce	-0.020258334
43	0x3dd300f8	0.10302919
44	0xbe30f09a	-0.17279282
45	0xbd4df986	-0.050286792
46	0xbe99fbd6	-0.30074948
47	0xbd6aa74d	-0.057288457
48	0xbe0abd55	-0.13548787
49	0x3dee850f	0.11646473
50	0xbe3c4bf7	-0.18388353
51	0xbe1795ca	-0.14803234
52	0xbdd9ec55	-0.1064078
53	0xbe504def	-0.2034223
54	0x3d389d08	0.04507163
55	0xba8915b9	-0.0010458744
56	0x3e40ccd8	0.18828142
57	0x3d1fe3e4	0.039035693
58	0x3c94521e	0.018105563
59	0xbcab6983	-0.020924335
60	0xbcdbecb5	-0.02684627
61	0x3e50d08f	0.20392059
62	0x3e621237	0.22077261
63	0xbc87a79f	-0.01655942
64	0x3d1b3d7c	0.037900433
65	0xbd9412b2	-0.07230128
66	0x3e816026	0.25268668
67	0xbd2595f9	-0.04042623
68	0x3c022dfd	0.007945535
69	0x3d671702	0.056418426
70	0x3e14d5e6	0.14534721
71	0xbcbb07e5	-0.022830913
72	0x3d727da4	0.05920185
73	0xbe08d489	-0.13362326
74	0xbb16107e	-0.0022898014
75	0xbda68393	-0.081305645
76	0xbd6b7a67	-0.05748978
77	0x3df72b45	0.120688
78	0xbd9eb6b7	-0.07749694
79	0x3bc28df9	0.0059373346
80	0xbd4aaada	-0.049479343
81	0x3aedf197	0.0018153664
82	0x3e2dd749	0.16976656
83	0xbea943d7	-0.3305957
84	0x3ccf1141	0.025276782
85	0x3e22d8d0	0.1590302
86	0xbde24c8f	-0.11049759
87	0x3c57ad68	0.013163902
88	0x3d775807	0.060386684
89	0xbe405314	-0.18781692
90	0x3ddc788c	0.1076518
91	0xbe5c2ec1	-0.2150221
92	0x3d40ec48	0.047100335
93	0xbc11a54d	-0.008889508
94	0x3cbee678	0.023303255
95	0x3c2d54fd	0.010579345
96	0x3e023dc2	0.12718871
97	0x3e16940b	0.14704911
98	0xbe4d4504	-0.20045859
99	0x3e3e340f	0.18574546
100	0x3e269df0	0.16271186
101	0x3db394f4	0.08768645
102	0x3e29c991	0.16580798
103	0x3db9e947	0.09077697
104	0x3ded3c4d	0.11583767
105	0xbddcb2fa	-0.107763246
106	0x3eac11d7	0.3360736
107	0xbe01196d	-0.12607355
108	0x3c950a29	0.018193321
109	0x3e254b7a	0.16142073
110	0x3dba638e	0.0910102
111	0x3e42d89d	0.19027944
112	0xbe60d789	-0.2195722
113	0x3e024764	0.12722546
114	0x3da98edb	0.08279201
115	0xbe2ba329	-0.1676146
116	0x3e2532b0	0.16132617
117	0x3e22877c	0.15871996
118	0x3e201976	0.15634713
119	0x3d9e81ae	0.07739578
120	0xbe2abf68	-0.16674578
121	0xbde8d69f	-0.11369061
122	0xbd9da49d	-0.07697413
123	0x3c87ff1b	0.016601136
124	0xbd59de37	-0.053190436
125	0x3dffb52e	0.12485729
126	0x3b4901ee	0.0030671316
127	0x3e101127	0.14069043
128	0x3e5f4d3f	0.21806811
129	0xbcc77af2	-0.024350617
130	0xbd8d0572	-0.06885804
131	0x3e362f4f	0.17791484
132	0xbc198ed0	-0.009372428
133	0x3d943858	0.07237309
134	0x3dabb984	0.08384994
135	0x3c26e892	0.010187285
136	0xbd39d335	-0.04536744
137	0x3d2d0b2e	0.04224699
138	0x3e08dd32	0.1336563
139	0x3d5ac54a	0.053410806
140	0x3e0e86db	0.13918631
141	0x3d4d9533	0.050191116
142	0xbe1f4e21	-0.15557148
143	0xbe15b52c	-0.14619893
144	0x3cc6e2f1	0.024278136
145	0x3d9daa28	0.0769847
146	0x3dc3e46a	0.09565051
147	0xbe06a02b	-0.13147037
148	0x3d8ed041	0.06973315
149	0x3de226c8	0.11042553
150	0xbddeb336	-0.108740255
151	0xbc942479	-0.018083798
152	0xbd4fc24f	-0.050722416
153	0x3c9a5bd0	0.018842608
154	0xbdce1f4e	-0.10064565
155	0xbc852e7a	-0.016257513
156	0xbdccb8c6	-0.0999618
157	0x3d3c40f1	0.04596037
158	0xbc628680	-0.013826013
159	0xbe2204af	-0.15822099
160	0x3d1012e9	0.035174284
161	0xbe2aafc3	-0.1666861
162	0x3dbd4894	0.09242359
163	0x3c0b2d71	0.008494721
164	0x3d925b31	0.071463
165	0xbd823b67	-0.06358986
166	0xbd0d1ca3	-0.03445114
167	0xbe9cdccb	-0.30637202
168	0xbe0b2513	-0.13588361
169	0xbdc82afa	-0.09773822
170	0x3d612fe0	0.054977298
171	0xbd6e11c6	-0.05812242
172	0xbe2d1571	-0.1690271
173	0x3ec441f0	0.38331556
174	0x3cdaef23	0.026725357
175	0x3e538636	0.20656666
176	0x3d669c8d	0.056301642
177	0x3dc604f5	0.09668914
178	0x3e1d7704	0.15377432
179	0xbd89b899	-0.06724662
180	0x3d42c8e3	0.04755486
181	0xbe9137d2	-0.283629
182	0xbe4dd1c5	-0.20099552
183	0x3e3eca2f	0.18631814
184	0xbbcddb5e	-0.006282254
185	0xbd6d0bac	-0.05787246
186	0x3d71b8f0	0.05901426
187	0xbeab969a	-0.33513337
188	0xbe2c1041	-0.16803075
189	0xbe5853ca	-0.21125713
190	0x3e459376	0.19294533
191	0xbdecce53	-0.11562791
192	0x3db7a87c	0.08967683
193	0x3e369aad	0.17832442
194	0xbd94b033	-0.0726017
195	0x3db1515e	0.08658098
196	0x3e467d2d	0.19383688
197	0xbdb018a0	-0.08598447
198	0x3ef83a29	0.48481873
199	0x3cf47a26	0.029843401
200	0x3e4f9707	0.20272456
201	0x3d683e81	0.056700233
202	0xbd267c49	-0.04064587
203	0x3e17e999	0.14835204
204	0x3d5af0df	0.05345237
205	0xbdc73eaf	-0.09728753
206	0x3d256cdc	0.04038702
207	0x3b709040	0.0036707073
208	0x3d9b4672	0.07581796
209	0xbe34bab3	-0.17649345
210	0xbde9de4e	-0.114193544
211	0xbe8645f8	-0.26225257
212	0xbe23d0d0	-0.15997624
213	0x3e0c5f80	0.13708305
214	0x3decc9d4	0.11561933
215	0x3b9c0e34	0.0047624353
216	0xbd54a0ea	-0.051911272
217	0x3dba7cfa	0.09105869
218	0xbd3599fe	-0.04433631
219	0xbd95f151	-0.07321418
220	0xbcaf762e	-0.021418657
221	0x3e7d3e26	0.24730739
222	0x3d522b1a	0.051310636
223	0x3e12556d	0.142904
224	0x3d07a090	0.03311211
225	0xbc5a5b0c	-0.013327371
226	0xbe3ad092	-0.18243626
227	0x3db60495	0.08887593
228	0x3e2017ae	0.15634033
229	0xbe0ee5f8	-0.13954914
230	0x3ad9b5ba	0.0016609945
231	0xbdcedb20	-0.101003885
232	0xbddea2c7	-0.10870891
233	0xbda89625	-0.08231763
234	0x3e541fba	0.20715228
235	0x3e393915	0.18088181
236	0xbd9536d5	-0.07285849
237	0xbd9e55a6	-0.0773118
238	0x3d3f8340	0.04675603
239	0xbe19b652	-0.15010956
240	0xbdc2f550	-0.09519446
241	0xbd9ac2b6	-0.075566694
242	0xbd836b59	-0.06416959
243	0x3cc5e562	0.02415723
244	0x3b2b2c96	0.0026119105
245	0x3e00dbc1	0.1258383
246	0x3d6e296c	0.05814497
247	0x3c3dc4b7	0.011582545
248	0x3dbaf299	0.09128303
249	0x3e055959	0.13022365
250	0x3c88c0cd	0.016693497
251	0x3daf1f25	0.08550862
252	0x3e33b5ea	0.17549863
253	0xbe47a747	-0.19497405
254	0xbde32c99	-0.11092491
255	0xbd731d04	-0.059353843

graph_prop.message_funcs.2.bias f4 [64]
0	0x3e5c2c62	0.21501306
1	0xbd45bb7a	-0.048274495
2	0x3c98b584	0.01864124
3	0xbe0267a0	-0.12734842
4	0xbd14d066	-0.036331557
5	0x3dea03ee	0.11426531
6	0xbc813f60	-0.01577729
7	0x3e445c15	0.19175752
8	0xbaa8f94e	-0.0012891681
9	0xbe008fa9	-0.12554802
10	0xbd37a586	-0.04483559
11	0xbdef78d9	-0.11692972
12	0xbd247cb9	-0.040158007
13	0xbe254f01	-0.16143419
14	0x3db00671	0.085949786
15	0x3c3a0892	0.011354582
16	0x3c767d69	0.015044549
17	0x3e15b53d	0.14619918
18	0x3e44877e	0.19192311
19	0x3d611b6f	0.054957803
20	0x3df32f57	0.11874264
21	0x3d2bcf64	0.04194583
22	0x3c77a4bd	0.01511496
23	0x3d491caa	0.0490996
24	0xbe00ab9a	-0.12565461
25	0xbd94775f	-0.07249331
26	0x3cbb7e59	0.022887396
27	0xbe8fb917	-0.280709
28	0xbd3ef665	-0.0466217
29	0xbdf033d1	-0.11728633
30	0xbd06033c	-0.03271793
31	0xbd9fa0f4	-0.07794371
32	0x3d2d205f	0.0422672
33	0xbe1fd4f0	-0.15608573
34	0xbdd85270	-0.10562599
35	0x3da06c84	0.07833198
36	0xbda3e90f	-0.08003437
37	0x3db298ed	0.087205745
38	0x3c49ee77	0.012324921
39	0xbd5695f0	-0.052389085
40	0x3ca3b2e9	0.019982772
41	0x3d979bcd	0.074027635
42	0x3e2c123d	0.16803832
43	0xbdc34d77	-0.095362596
44	0xbde0abf4	-0.109702975
45	0xbd804ff4	-0.0626525
46	0x3d4e0e5b	0.05030666
47	0xbdc2971d	-0.09501479
48	0xbd7ce974	-0.061746076
49	0xbde35430	-0.11100042
50	0xbc2a1eca	-0.010383317
51	0xbe38e78b	-0.18057077
52	0xbd06c5e7	-0.032903578
53	0x3c413656	0.01179274
54	0xbc32507e	-0.010883449
55	0x3dba1f72	0.09088029
56	0xbccff955	-0.025387445
57	0xbdd0ac2d	-0.1018909
58	0xbe20ea88	-0.15714467
59	0xbe90b8e6	-0.28266066
60	0x3db77812	0.089584485
61	0xb91da799	-0.00015035122
62	0x3d516e60	0.051130652
63	0xbe1f7a23	-0.15573935

graph_prop.message_funcs.3.weight f4 [64, 67]
0	0x3cd095c7	0.025462044
1	0x3e25b203	0.16181187
2	0xbd8a1c26	-0.0674365
3	0x3900c6aa	0.0001228104
4	0xbe1e0971	-0.15433289
5	0x3cc4da39	0.024029838
6	0x3d266c4e	0.04063063
7	0xbd26e44d	-0.04074507
8	0x3baa5003	0.0051975264
9	0x3dc48322	0.09595324
10	0x3d808eb0	0.062772155
11	0xbd9d8447	-0.076912455
12	0xbd2d2f19	-0.042281244
13	0x3e4a4b11	0.19755198
14	0x3b3f814a	0.002922135
15	0xba798346	-0.00095181575
16	0xbd80dec8	-0.06292492
17	0x3df04cec	0.11733422
18	0x3cb9035f	0.022584615
19	0x3c39f591	0.0113500515
20	0xbd8180f9	-0.06323428
21	0xbe3bb400	-0.18330383
22	0xbd30ae76	-0.04313513
23	0x3e002773	0.12515049
24	0x3d1be980	0.03806448
25	0x3d94a36c	0.07257733
26	0xbbffcb3b	-0.0078062094
27	0x3d534444	0.051578775
28	0xbd060e4b	-0.032728475
29	0xbd1cda2b	-0.038294
30	0x3d927b6f	0.07152449
31	0x3db3d6fe	0.08781241
32	0x3ca57d8c	0.020201467
33	0x3d43800c	0.047729537
34	0x3e535485	0.2063771
35	0xbe80d7b7	-0.25164577
36	0x3e09563a	0.13411799
37	0xbc922fdd	-0.017845089
38	0x3d81101c	0.06301901
39	0x3d0b2bb5	0.03397723
40	0xbe216845	-0.15762432
41	0x3c1d09d1	0.00958486
42	0x3ea5f3d8	0.324126
43	0xbdacf211	-0.08444608
44	0xbe6c23f8	-0.23060596
45	0xbd086fa0	-0.03330958
46	0x3da538cc	0.08067474
47	0x3dcc69a6	0.09981088
48	0xbdde6276	-0.10858624
49	0xbe170087	-0.14746295
50	0x3d5b4aa0	0.053537965
51	0xbe599652	-0.21248749
52	0xbd9be712	-0.076124325
53	0x3d15cbf3	0.036571454
54	0xbced43fb	-0.02896308
55	0x3e1c7474	0.15278798
56	0x3c9af0ee	0.018913712
57	0x3df0c1ef	0.1175574
58	0x3c29afbd	0.010356841
59	0x3cbebcd1	0.023283394
60	0xbd869b7f	-0.06572627
61	0x3e1a49a1	0.1506715
62	0x3bd67773	0.006545001
63	0x3d991265	0.074742116
64	0x3deb8608	0.11500174
65	0x3cb99d54	0.022658028
66	0x3d8cfe92	0.06884493
67	0x3b4d184f	0.0031295007
68	0xbc915199	-0.017739104
69	0xbdb702ef	-0.089361064
70	0x3df286e3	0.11842134
71	0x3d0cc6df	0.034369346
72	0xbd1ef3ba	-0.038806655
73	0xbd7d7534	-0.06187935
74	0x3dae0a13	0.08498015
75	0xbe03da1a	-0.12876168
76	0x3dc030e2	0.09384324
77	0xbbd6bb96	-0.0065531237
78	0x3e5bc224	0.21460778
79	0x3cc8d701	0.024516584
80	0xbd6610d4	-0.056168392
81	0x3d86cdee	0.06582247
82	0xbd84ee03	-0.0649071
83	0xbe8a93c8	-0.27065873
84	0x3d865afd	0.065603234
85	0x3e909447	0.28238127
86	0xbe3f527e	-0.18683812
87	0x3d1a8563	0.037724864
88	0x3d29b0cd	0.041428376
89	0x3e68e323	0.22742896
90	0x3bca4e5e	0.006173893
91	0xbc08a5e9	-0.008340337
92	0x3c5a3d33	0.013320255
93	0x3d5e9e3f	0.054350134
94	0x3d0cb4e2	0.03435219
95	0xbd1217b9	-0.035667155
96	0xbd2b1cd2	-0.041775532
97	0xbca7c813	-0.020481145
98	0xbd1c8e20	-0.03822148
99	0x3d695931	0.056969825
100	0xbd828305	-0.06372646
101	0x3ebe1767	0.3712723
102	0xbd2753bf	-0.04085135
103	0x3dbaad48	0.09115082
104	0xbe26bf2c	-0.16283864
105	0xbdb3e246	-0.087833926
106	0xbdce10b0	-0.10061777
107	0x3d71d560	0.05904138
108	0xbde09c09	-0.10967261
109	0x3dca6584	0.09882644
110	0xbe0fbd0a	-0.14036956
111	0xbd114217	-0.03546342
112	0x3d241169	0.040055666
113	0xbda79e20	-0.08184457
114	0x3da762fe	0.08173178
115	0x3e5ea607	0.21743022
116	0x3d26f929	0.04076496
117	0x3d8c8e6d	0.06863103
118	0xbd51a4eb	-0.05118267
119	0x3e60745c	0.21919388
120	0x3e5f43e9	0.2180325
121	0xbe110ec7	-0.14165793
122	0x3db1beb5	0.086789526
123	0xbd27845c	-0.040897712
124	0xbd785f00	-0.060637474
125	0xbe045a27	-0.12925015
126	0x3dd36f3f	0.10323953
127	0x3e8dcdca	0.27696067
128	0x3d9268a2	0.071488634
129	0xbd85b709	-0.06529052
130	0xba6e1c12	-0.00090831623
131	0x3d93299b	0.0718567
132	0xbb8b9fe1	-0.0042610024
133	0x3d8705d6	0.0659291
134	0x3d1c4eb6	0.038161002
135	0xb9eb6422	-0.00044897298
136	0x3d8ba5f4	0.068187624
137	0x3c1abe9f	0.009444862
138	0xbd0b13fa	-0.033954598
139	0xbd6a9e28	-0.057279736
140	0xbc9704df	-0.01843494
141	0x3d22ea75	0.039774377
142	0xbe0df3bc	-0.13862509
143	0xbda05fec	-0.07830796
144	0x3bdf59fe	0.006816148
145	0xbe4e29cc	-0.20133132
146	0x3ec6bd8a	0.38816482
147	0x3d83eaf9	0.06441302
148	0x3dedc0a5	0.1160901
149	0x3daaab45	0.08333448
150	0xbd9742cd	-0.07385788
151	0x3c330b2f	0.010927959
152	0x3e973696	0.29533833
153	0xbc618599	-0.013764762
154	0x3d4ce809	0.050025973
155	0xbd0236d3	-0.031790566
156	0xbd16d49e	-0.03682386
157	0xbde0191d	-0.1094229
158	0xbdda6cb1	-0.106652625
159	0xbd3c608e	-0.04599052
160	0xbcdee1eb	-0.027207335
161	0xbdee1f1b	-0.11627027
162	0x3d3778b4	0.044792846
163	0x3d6010d0	0.054703534
164	0x3d96ec08	0.07369238
165	0xbe1269c5	-0.1429816
166	0x3cb7f8ac	0.022457443
167	0xbcc9b26d	-0.024621213
168	0xbde96f90	-0.11398232
169	0xbe2a2b51	-0.16618086
170	0xbda8a180	-0.08233929
171	0x3c203cee	0.009780152
172	0x3d4905e5	0.049077887
173	0x3d9fb38a	0.07797916
174	0x3d90551c	0.07047483
175	0x3e8d89d7	0.27644226
176	0x3d75e95f	0.060037013
177	0xbc9d2748	-0.01918377
178	0xbc1cea81	-0.009577394
179	0xbcdbe8b8	-0.026844367
180	0xbdfb39ef	-0.12266909
181	0x3d97a7b2	0.07405032
182	0xbe1fc64d	-0.1560299
183	0x3c6a6197	0.014305494
184	0x3d752cf4	0.059857324
185	0x3c9d8d29	0.01923235
186	0xbd9eaa28	-0.077472985
187	0xbeb0d7ea	-0.3453973
188	0xbdb841f0	-0.089969516
189	0x3e0ecff6	0.13946518
190	0x3ddad755	0.106856026
191	0x3d73a8dc	0.05948721
192	0x3d2f409c	0.042786226
193	0x3d697b49	0.05700234
194	0xbdd6dc97	-0.10491293
195	0x3c60d484	0.013722543
196	0xbd507f35	-0.050902564
197	0xbddf15ec	-0.10892853
198	0x3e2d2364	0.16908032
199	0x3d7c0492	0.061527796
200	0x3daee859	0.085404105
201	0xbdabdd3b	-0.08391806
202	0xbe4c30de	-0.19940516
203	0x3de25428	0.11051208
204	0xba4962af	-0.00076822465
205	0xbdb95571	-0.090495
206	0x3d233426	0.039844655
207	0xbcf6643d	-0.030077094
208	0xbb553ad4	-0.0032536285
209	0x3da73b54	0.08165613
210	0xbe0ac3b8	-0.13551223
211	0xbd76b346	-0.060229562
212	0xbd82ed47	-0.06392913
213	0x3cb45eba	0.022017825
214	0x3e10538d	0.14094372
215	0x3e3cf2af	0.18451951
216	0x3c8ca55d	0.017168695
217	0xbc6ea87b	-0.014566536
218	0xbd60511d	-0.054764856
219	0x3e46c8ed	0.19412585
220	0x3d74d223	0.059770714
221	0x3e0d25d0	0.13783956
222	0xbe2ee167	-0.17078172
223	0xbe6e2a28	-0.23258269
224	0xbe9e29f3	-0.3089138
225	0xbc84a4c3	-0.016191846
226	0xbe2aa9a8	-0.16666281
227	0x3d527348	0.051379472
228	0xbe28fea7	-0.16503392
229	0x3db2d2bc	0.08731601
230	0x3b76b55b	0.0037644717
231	0x3dc557cb	0.09635886
232	0xbe33cc30	-0.1755836
233	0x3df02cf8	0.11727327
234	0xbe150bf8	-0.14555347
235	0xbda7c6b7	-0.08192199
236	0xbd512d02	-0.051068313
237	0x3b96f9b6	0.0046074046
238	0x3d0b16ca	0.03395728
239	0x3dd2b461	0.10288311
240	0x3d90f9f0	0.07078922
241	0x3d62e6b2	0.05539579
242	0xbdb9c5e4	-0.09070948
243	0xbe826a8b	-0.2547191
244	0xbe67d37f	-0.22639273
245	0xbdcd860c	-0.10035333
246	0xbdce63c1	-0.1007762
247	0x3e2a2f84	0.16619688
248	0x3defa920	0.1170218
249	0xbe3418f7	-0.17587648
250	0x3d745248	0.059648782
251	0x3d5dee5b	0.05418239
252	0x3e2b62ac	0.16736859
253	0x3d608dea	0.05482284
254	0x3d14b069	0.03630105
255	0xbd070c25	-0.032970566

graph_prop.message_funcs.3.bias f4 [64]
0	0xbcaa631c	-0.020799212
1	0xbe1171f7	-0.1420363
2	0x3e1f6ecf	0.15569614
3	0x3d8a227c	0.067448586
4	0x3e86af35	0.26305547
5	0x3dc9ba47	0.09849983
6	0x3d32a9b0	0.043618858
7	0x3e0fb811	0.1403506
8	0xbd4b6e04	-0.049665466
9	0x3d687133	0.05674858
10	0xbeb187ff	-0.3467407
11	0xbda42764	-0.08015326
12	0xbce72608	-0.028216377
13	0x3c9126ad	0.017718637
14	0x3dc5d741	0.09660197
15	0xbda92729	-0.08259422
16	0xbca00061	-0.01953143
17	0x3d2b0d8c	0.041760966
18	0x3decf6dd	0.11570523
19	0x3d0c7345	0.034289617
20	0x3e5f9629	0.21834625
21	0xbe8881c8	-0.26661515
22	0xbd8283d9	-0.06372804
23	0xbdd964f2	-0.10614957
24	0x3da7ef1f	0.081999056
25	0x3cd588b1	0.026066156
26	0xbdb98a1a	-0.09059544
27	0x3dd1ecbb	0.10250231
28	0x3eb5af6c	0.354854
29	0xbdda9932	-0.10673751
30	0x3c220bcf	0.009890511
31	0xbe01de69	-0.12682499
32	0x3e173950	0.14767957
33	0xbcc0f051	-0.023552092
34	0xbdcb92b6	-0.09940092
35	0xbcc92a22	-0.024556223
36	0x3d5ab9cf	0.053399857
37	0xbd20bbad	-0.03924148
38	0x3c7c1b90	0.015387431
39	0x3c81961e	0.015818652
40	0xbe3fb2bd	-0.18720527
41	0xbbe02a89	-0.006841008
42	0x3cef7025	0.02922828
43	0x3c208bc5	0.009798949
44	0x3d9c6eda	0.07638331
45	0x3d8cc0eb	0.06872734
46	0xbc2853fc	-0.01027393
47	0x3cff88b1	0.03119311
48	0x3c14d169	0.00908313
49	0xbda2c6e1	-0.079480894
50	0xbc80d0ba	-0.015724529
51	0x3db89453	0.090126656
52	0xbde8b40d	-0.11362467
53	0xbd1e400a	-0.03863529
54	0x3db0a7f2	0.08625783
55	0x3d3065f2	0.043065973
56	0x3de3179f	0.1108849
57	0x3d30eb89	0.043193374
58	0x3de361f5	0.11102668
59	0x3dfdc359	0.12390775
60	0xbbe1dec4	-0.006893011
61	0xbd351170	-0.044206083
62	0xbd8f61c7	-0.070010714
63	0xbd396283	-0.045259964
