housingpipeline/housingpipeline/dgmg/model.pth (torch, 293760 bytes, 42 tensors)

graph_embed.node_gating.0.weight f4 [1, 16]
0.18034005 4.9061403 -1.5038463 3.9861827 -1.9154708 4.8768287 -1.5250227 -3.5376956
-4.373547 -5.1989427 4.451086 3.5523484 1.2056898 -1.8443284 1.6368073 0.8306137
00000000: 10ab 383e 1aff 9c40 097e c0bf 9e1d 7f40
00000010: 262e f5bf fb0e 9c40 f233 c3bf 9b69 62c0
00000020: 19f4 8bc0 bd5d a6c0 4c6f 8e40 ad59 6340
00000030: 0b54 9a3f f412 ecbf e782 d13f 19a3 543f

graph_embed.node_to_graph.weight f4 [32, 16]
-2.1169674 -1.1252853 1.7956634 2.42312 1.3308849 1.5074496 2.0950408 1.905622
-1.2681628 -1.2805628 3.3620515 -1.9420627 -1.6330482 1.3028696 -2.7380116 -1.567199
0.62589985 -0.49996346 -0.7190342 0.378684 0.29923406 0.14629397 -0.45409647 0.8703398
0.5290017 0.761656 -0.18297535 0.41855553 0.38883734 0.97307765 0.30449378 0.13089441
0.41336492 2.035113 -0.15434371 0.95615953 -0.68306607 0.6316754 0.5487433 -1.2098963
-0.3108073 -1.2438077 -0.2520815 0.55915004 -0.73690677 -1.0368857 1.7292148 -0.3440129
0.77795124 0.82651216 -1.3950496 -0.78463846 -0.6748607 -0.44795537 -1.2014602 -2.3028038
1.7677715 0.14621913 -0.28179052 0.7353128 1.6703256 -1.7240958 0.6926389 0.89195746
-1.4338585 -1.2312764 2.2192397 0.7210549 1.0749781 -1.266829 1.7174575 2.7806733
-2.0091188 -1.1782961 1.0070361 -1.8144923 -1.8672751 0.82145745 -1.2613795 -1.7921243
0.19765799 -0.6582635 1.356309 1.6765549 0.40926933 -1.5822769 1.327072 2.4618127
-0.07000495 0.43985116 -0.45033494 -1.6168052 -1.7176361 0.22735894 -0.29620862 0.39977288
-2.9561796 -2.3628988 1.0029906 -0.6625975 2.527439 0.64828914 2.153625 1.205183
-1.9865271 -0.06592393 1.0479138 -0.5103842 -1.1618365 2.50182 -2.838267 -2.6243176
-1.1476705 1.2175721 1.524652 3.0158026 0.8655269 2.2980711 2.138515 1.0214316
-2.4444196 -2.9855149 2.2478495 -0.95973045 -1.6771203 0.7409875 -1.3500867 -0.8267271
0.10147571 -0.45816213 -0.6253241 -2.760441 0.16500929 -0.8238754 -0.84477717 -1.6824788
1.1573665 1.1329409 -0.52313894 0.42726895 1.3212088 0.55189914 0.23570344 0.25842026
1.66334 1.1405965 -1.7776307 -1.5766108 -1.0842923 -0.7009317 -1.8812884 -0.8008286
2.126796 2.4489217 -2.6179128 1.1311841 1.1700726 -0.3746498 1.4236274 0.9866635
2.1696706 2.3767865 -1.3394508 -2.0358691 -2.3483799 -1.252339 -1.963745 -1.238137
2.1988273 0.46535042 -2.9761012 1.638853 1.6535054 -1.8455427 2.2150915 1.836589
0.7680522 -0.15657143 -2.3002472 -2.8569934 -0.5171423 -0.26525572 -2.2498772 -2.0017238
1.4479562 2.030401 -1.400883 2.9520655 2.3164163 -0.22555575 1.6311047 1.1914651
-2.870356 -2.510122 1.9619175 0.37144902 3.0827882 1.7164046 2.583457 1.4445498
-3.1219192 -0.42483914 2.1006868 -1.5510083 -2.35402 3.3136857 -2.8585956 -3.3359547
1.2110759 -0.934275 -2.0773036 -3.038733 -0.5618425 -0.84643596 -1.8462309 -0.8632912
2.3401918 1.7354748 -1.7728457 1.4679142 1.8911308 -0.29251286 0.89030105 1.4385577
-0.01028367 0.7861852 -1.3922154 -0.0771934 -0.24178368 0.55038524 -1.4679921 -2.5601804
0.97108734 0.5985896 0.036550313 0.6122964 1.3044114 -0.6706209 -0.11169709 1.1054323
0.7193485 -0.88429296 1.184285 0.6755092 0.07923442 -1.1462727 0.17935075 1.9308574
0.8938045 1.4536781 -0.35121757 -1.831305 -0.75436926 -0.30839095 -0.49719176 1.614314
00000000: 657c 07c0 5909 90bf 4cd8 e53f 6614 1b40
00000010: 705a aa3f 1cf4 c03f 2615 0640 6ceb f33f
00000020: 2953 a2bf 7be9 a3bf da2b 5740 8395 f8bf
00000030: b907 d1bf 6ec4 a63f 953b 2fc0 fa99 c8bf
00000040: f93a 203f 36fb ffbe a012 38bf dfe2 c13e
00000050: 3535 993e 16ce 153e 557f e8be 97ce 5e3f
00000060: a86c 073f e3fb 423f e45d 3bbe e94c d63e
00000070: b015 c73e 9e1b 793f 9ce6 9b3e 2f09 063e
00000080: 91a4 d33e 4b3f 0240 470c 1ebe dfc6 743f
00000090: 6bdd 2ebf 7bb5 213f 717a 0c3f e2dd 9abf
000000a0: 2222 9fbe 1735 9fbf d410 81be 7524 0f3f
000000b0: eca5 3cbf acb8 84bf e956 dd3f 7522 b0be
000000c0: d027 473f 4d96 533f fc90 b2bf 11de 48bf
000000d0: acc3 2cbf 685a e5be 73c9 99bf 2361 13c0
000000e0: 5646 e23f 78ba 153e d946 90be 763d 3c3f
000000f0: 3bcd d53f 2caf dcbf c850 313f 5357 643f
00000100: ad88 b7bf 779a 9dbf 0608 0e40 0e97 383f
00000110: e298 893f 7427 a2bf a6d5 db3f 8df6 3140
00000120: 6795 00c0 68d2 96bf 8fe6 803f 4941 e8bf
00000130: df02 efbf 094b 523f e274 a1bf 5464 e5bf
00000140: db66 4a3e f583 28bf 899b ad3f 5a99 d63f
00000150: c08b d13e 0d88 cabf 7fdd a93f 578e 1d40
00000160: c15e 8fbd 2c34 e13e 4d92 e6be 79f3 cebf
00000170: 80db dbbf c8d0 683e a8a8 97be 08af cc3e
00000180: 0c32 3dc0 bc39 17c0 ff61 803f fd9f 29bf
00000190: 90c1 2140 47f6 253f fed4 0940 7043 9a3f
000001a0: 8546 febf 2003 87bd 0a22 863f 8aa8 02bf
000001b0: 0fb7 94bf d21d 2040 2ba6 35c0 d2f4 27c0
000001c0: dee6 92bf 67d9 9b3f cc27 c33f e902 4140
000001d0: 2c93 5d3f 9913 1340 6edd 0840 45be 823f
000001e0: 5f71 1cc0 ad12 3fc0 c4dc 0f40 e5b0 75bf
000001f0: e1ab d6bf 5bb1 3d3f a4cf acbf 63a4 53bf
00000200: 7fd2 cf3d 3a94 eabe 3d15 20bf 11ab 30c0
00000210: 32f8 283e 80e9 52bf 5143 58bf 775b d7bf
00000220: 9624 943f 3504 913f 6fec 05bf ffc2 da3e
00000230: 5f1d a93f 4349 0d3f 3e5c 713e a94f 843e
00000240: 53e8 d43f 11ff 913f 6789 e3bf 62ce c9bf
00000250: 17ca 8abf 4370 33bf 0fce f0bf 1a03 4dbf
00000260: 6d1d 0840 22bb 1c40 e28b 27c0 a4ca 903f
00000270: f0c4 953f 19d2 bfbe 6c39 b63f fb95 7c3f
00000280: e2db 0a40 451d 1840 2073 abbf ae4b 02c0
00000290: db4b 16c0 a54c a0bf ff5b fbbf 467b 9ebf
000002a0: 96b9 0c40 6942 ee3e 7178 3ec0 efc5 d13f
000002b0: 11a6 d33f be3a ecbf 0fc4 0d40 5915 eb3f
000002c0: 129f 443f 4354 20be 4037 13c0 fbd8 36c0
000002d0: 7063 04bf 99cf 87be fdfd 0fc0 3e1c 00c0
000002e0: a156 b93f 17f2 0140 2250 b3bf a4ee 3c40
000002f0: 2a40 1440 16f8 66be 0ac8 d03f ee81 983f
00000300: eab3 37c0 d7a5 20c0 1d20 fb3f 912e be3e
00000310: 674c 4540 25b3 db3f 5c57 2540 02e7 b83f
00000320: 86cd 47c0 8484 d9be a771 0640 7187 c6bf
00000330: 44a8 16c0 6d13 5440 3bf3 36c0 4880 55c0
00000340: 8904 9b3f a52c 6fbf 8bf2 04c0 9a7a 42c0
00000350: e9d4 0fbf 07b0 58bf 4b51 ecbf a700 5dbf
00000360: b4c5 1540 0a24 de3f 9cec e2bf 9de4 bb3f
00000370: 9310 f23f 3fc4 95be c5ea 633f a922 b83f
00000380: d77c 28bc 6f43 493f 1d34 b2bf 9317 9ebd
00000390: 2496 77be 0ce6 0c3f 2ae7 bbbf ffd9 23c0
000003a0: 2e99 783f 2b3d 193f c8b5 153d 75bf 1c3f
000003b0: f4f6 a63f d0ad 2bbf 72c1 e4bd ce7e 8d3f
000003c0: 3927 383f 0661 62bf a796 973f 2cee 2c3f
000003d0: a845 a23d 10b9 92bf b9a7 373e 5626 f73f
000003e0: 5fd0 643f 2012 ba3f cad2 b3be 3468 eabf
000003f0: 581e 41bf 6be5 9dbe eb8f febe d7a1 ce3f

graph_embed.node_to_graph.bias f4 [32]
2.5295148 0.30319142 0.34950504 -0.40068787 2.0928955 1.8687488 -1.0745147 -2.3940132
-2.2903094 -0.8132422 -1.330829 0.69798946 -1.1637471 -0.104975395 -1.4310952 2.2301016
-2.6544125 -0.21821485 -0.6674715 3.4105785 -0.46456015 -1.9224176 -2.6050985 0.31006828
0.27595112 0.51483834 -1.3244944 1.2653928 0.8513724 1.580562 0.47402507 1.2345792
00000000: 92e3 2140 e83b 9b3e 53f2 b23e f626 cdbe
00000010: 00f2 0540 2933 ef3f b389 89bf 8337 19c0
00000020: 6e94 12c0 a430 50bf 9b58 aabf 70af 323f
00000030: aaf5 94bf 57fd d6bd 212e b7bf fcb9 0e40
00000040: e5e1 29c0 b773 5fbe 6adf 2abf eb46 5a40
00000050: d4da edbe c811 f6bf efb9 26c0 45c1 9e3e
00000060: 7749 8d3e 72cc 033f 0889 a9bf 64f8 a13f
00000070: 8bf3 593f db4f ca3f 6ab3 f23e b106 9e3f

graph_prop.message_funcs.0.weight f4 [32, 34]
-0.55672836 0.9726808 1.0733976 1.5209279 -0.60017717 -0.28983894 -0.57248634 1.3234602
-0.089924805 -0.97549313 0.3748737 -0.41403636 0.46290934 0.6567698 1.4129431 0.29388312
-0.095429465 0.8197055 1.0085927 -0.9530192 -0.66159743 0.43424386 0.16699365 -1.1422186
0.24888022 -0.85446596 1.4268048 0.6422249 0.66257614 -0.6629973 1.0294206 -0.83746743
2.2149775 0.39624703 -0.15184428 -0.044048537 -0.23793535 0.9025823 -0.45623136 0.025363589
1.103215 0.46457925 -1.0750425 0.897457 -0.5355629 -0.6607454 -1.1350585 1.5390091
-1.7766974 0.49913427 3.6274383 0.7966773 0.56842554 2.6621916 -0.73390496 -1.9686152
-0.03823513 -0.05092512 -0.3474064 -0.2755627 0.25488266 0.6468153 -1.4543952 -0.6725678
-0.80532 -0.26676512 -1.3045019 -0.49728295 -0.16157418 1.886811 -2.2667322 0.84663796
-2.7899292 1.3500894 -0.3494124 -1.1347425 -1.9789437 -2.0221965 1.2027817 2.5886276
-0.45306715 -0.87795544 -0.7890973 0.9559637 0.64209867 2.4517205 0.2937447 2.1294575
-2.0022156 1.466574 0.8338671 -0.80147576 0.15862262 -3.5162773 1.9631803 2.3317611
-0.6781358 -1.2966667 1.1933544 0.2657377 0.7499815 -2.2931175 1.3264858 -1.4658712
1.2789922 -1.4104137 2.2119868 -0.44395572 1.0409994 -0.4051592 2.1646967 2.591069
-1.347464 -0.7576254 0.3795611 0.8157086 0.44462138 -0.38662547 -1.7267027 -3.2242064
-0.17304453 -1.7804614 2.3240414 -0.70270455 -0.62938917 1.0657504 -0.013361463 3.38053
-2.0313418 -2.9295309 -0.30695465 1.695446 -2.5040367 -0.25995716 -0.1901317 0.476825
1.2653023 0.3303059 0.046563976 1.5594443 -0.39973056 -0.11050566 -0.56687796 -0.2353676
0.37615886 -0.9067928 0.10599923 1.3908342 0.8112544 -0.24003544 1.171582 0.7036052
0.7155955 -0.3158605 0.27520537 -0.72791153 0.15169258 -0.061355196 -1.3417488 0.06856802
-0.94586897 0.47162586 -0.32328004 -0.37949908 0.55968964 0.5795864 -0.00060620176 -0.92993146
1.2644093 -1.0578508 -1.6500953 -0.32765827 1.8947769 -0.9834069 1.9373963 1.1816835
1.5202029 -0.5973202 1.871984 1.4077948 0.4204772 -0.39865327 0.044575088 -0.6839231
-0.316889 -2.0324209 -3.25323 -0.8589816 -0.4512146 -1.1759237 1.0597697 1.5837866
1.4977676 -0.44041115 1.2766685 0.27322468 -0.26919302 -1.0104414 -0.83295566 0.1504633
-1.1368499 2.4469142 -1.3121543 0.6415247 0.020470912 0.24438141 -1.2879952 -0.048724253
-0.22428006 1.7509664 0.51032305 -0.46677378 -0.8759186 -1.3115097 2.1055822 1.1281539
-0.60832286 -0.85510707 -0.6927518 -0.4800754 -0.1356957 0.6829518 -0.6670614 1.0372024
0.17078787 1.5238498 0.5764921 -3.1496181 1.3324504 -1.3221073 1.7032119 1.2032651
0.56992954 1.480353 0.24537286 0.980494 -0.49887204 -0.029756762 2.219096 0.7576428
-2.9612617 1.9890469 -2.4188268 -0.29133952 -1.079766 -1.609317 -1.9101754 -1.3594196
0.0014451288 2.6174934 -0.3413754 0.23194969 -0.15922585 1.5888568 4.0564303 1.0733206
00000000: c085 0ebf 9c01 793f 1865 893f c4ad c23f
00000010: 36a5 19bf c565 94be 778e 12bf 2567 a93f
00000020: 7f2a b8bd ebb9 79bf 72ef bf3e 93fc d3be
00000030: 7402 ed3e 1122 283f 52db b43f d977 963e
00000040: 8670 c3bd 38d8 513f 9119 813f 11f9 73bf
00000050: 735e 29bf 3655 de3e 6200 2b3e 3834 92bf
00000060: 75da 7e3e 48be 5abf 8aa1 b63f da68 243f
00000070: 979e 293f 31ba 29bf 0ec4 833f 4464 56bf
00000080: 31c2 0d40 e4e0 ca3e 117d 1bbe 3d6c 34bd
00000090: 53a5 73be a20f 673f 2897 e9be 4dc7 cf3c
000000a0: 2636 8d3f 55dd ed3e fe9a 89bf bebf 653f
000000b0: a61a 09bf 9c26 29bf 9949 91bf 40fe c43f
000000c0: d26a e3bf 878e ff3e f327 6840 0bf3 4b3f
000000d0: 5684 113f 5961 2a40 32e1 3bbf 95fb fbbf
000000e0: 719c 1cbd dc96 50bd 40df b1be 8e16 8dbe
000000f0: fb7f 823e b095 253f 9f29 babf 672d 2cbf
00000100: 7429 4ebf 7095 88be ebf9 a6bf df9b febe
00000110: b473 25be 0683 f13f 2412 11c0 44bd 583f
00000120: 338e 32c0 bbcf ac3f 2fe6 b2be 3e3f 91bf
00000130: 074e fdbf ab6b 01c0 c0f4 993f 13ac 2540
00000140: 6bf8 e7be b0c1 60bf 4802 4abf 09ba 743f
00000150: 9460 243f fde8 1c40 b565 963e 0849 0840
00000160: 4d24 00c0 b2b8 bb3f 5078 553f 842d 4dbf
00000170: f86d 223e b00a 61c0 7e49 fb3f 933b 1540
00000180: 4f9a 2dbf 2df9 a5bf d6bf 983f c60e 883e
00000190: cafe 3f3f 70c2 12c0 49ca a93f aba1 bbbf
000001a0: 04b6 a33f 7088 b4bf 3191 0d40 2a4e e3be
000001b0: 783f 853f 0771 cfbe 648a 0a40 13d4 2540
000001c0: b379 acbf bdf3 41bf d555 c23e 47d2 503f
000001d0: 6aa5 e33e c6f3 c5be 9804 ddbf 6659 4ec0
000001e0: 9632 31be 29e6 e3bf 18bd 1440 72e4 33bf
000001f0: a61f 21bf 826a 883f 0aea 5abc 9b5a 5840
00000200: 8101 02c0 6f7d 3bc0 2929 9dbe 6004 d93f
00000210: 2342 20c0 1b19 85be e2b1 42be 6822 f43e
00000220: 6df5 a13f db1d a93e deb9 3e3d df9b c73f
00000230: 7ca9 ccbe cb50 e2bd ea1e 11bf 3404 71be
00000240: e597 c03e 9323 68bf 2016 d93d db06 b23f
00000250: 5eae 4f3f dacb 75be 66f6 953f 781f 343f
00000260: 4431 373f 78b8 a1be b8e7 8c3e 6958 3abf
00000270: 4d55 1b3e 964f 7bbd 6dbe abbf 646d 8c3d
00000280: 7824 72bf f278 f13e f684 a5be b44d c2be
00000290: d247 0f3f c65f 143f 83e9 1eba fd0f 6ebf
000002a0: 2ad8 a13f a867 87bf 5336 d3bf d3c2 a7be
000002b0: 0d88 f23f 8ec0 7bbf 9afc f73f 6841 973f
000002c0: 0296 c23f fae9 18bf 2c9d ef3f 9f32 b43f
000002d0: ca48 d73e 481c ccbe 5e94 363d 9615 2fbf
000002e0: 463f a2be 2f13 02c0 ec34 50c0 38e6 5bbf
000002f0: 9a05 e7be ab84 96bf 89a6 873f 85b9 ca3f
00000300: d9b6 bf3f 927d e1be e069 a33f 1be4 8b3e
00000310: abd3 89be 2556 81bf 953c 55bf 0d13 1a3e
00000320: 4c84 91bf 3e9a 1c40 acf4 a7bf f63a 243f
00000330: 9db2 a73c 1f3f 7a3e 07dd a4bf 1593 47bd
00000340: aca9 65be ab1f e03f 88a4 023f f9fc eebe
00000350: 343c 60bf 8ddf a7bf dcc1 0640 5967 903f
00000360: 0cbb 1bbf 4ce8 5abf 2f58 31bf 71cc f5be
00000370: d0f3 0abe eed5 2e3f 89c4 2abf 0cc3 843f
00000380: 04e3 2e3e 830d c33f fc94 133f 5893 49c0
00000390: bc8d aa3f d03a a9bf d902 da3f 9704 9a3f
000003a0: e7e6 113f 357c bd3f 0643 7b3e a801 7b3f
000003b0: 286c ffbe 74c4 f3bc ab05 0e40 e1f4 413f
000003c0: 5085 3dc0 1799 fe3f 0fce 1ac0 742a 95be
000003d0: c635 8abf 19fe cdbf a180 f4bf 7601 aebf
000003e0: 7a6a bd3a 0385 2740 c2c8 aebe 3884 6d3e
000003f0: 1a0c 23be a95f cb3f 47ce 8140 9262 893f

graph_prop.message_funcs.0.bias f4 [32]
-2.4071453 0.4893469 -4.447753 4.866449 -2.0211036 4.08873 0.7721525 -3.8555014
3.1268017 2.8279042 -3.1145098 -0.57185465 4.07632 3.0630376 4.5664387 1.59548
3.758803 -2.3665135 -4.3857346 -1.1281 -0.31019258 3.86034 2.3009188 -1.6910151
-1.3322731 -1.1207397 0.30625582 0.34089956 2.8682227 -2.2174413 -1.7654313 -0.7708437
00000000: ab0e 1ac0 ad8b fa3e fe53 8ec0 f3b9 9b40
00000010: c359 01c0 e0d6 8240 c9ab 453f 89c0 76c0
00000020: 851d 4840 62fc 3440 2154 47c0 1165 12bf
00000030: 3771 8240 cf08 4440 4420 9240 b038 cc3f
00000040: 3a90 7040 f574 17c0 f057 8cc0 9565 90bf
00000050: 90d1 9ebe d00f 7740 4142 1340 2f73 d8bf
00000060: ed87 aabf 6674 8fbf 90cd 9c3e 638a ae3e
00000070: f690 3740 8fea 0dc0 a7f9 e1bf 0356 45bf

graph_prop.message_funcs.1.weight f4 [32, 34]
-3.21811 2.7562923 3.0191898 -3.3731885 -2.2263772 2.227449 2.5163844 -2.4899514
0.5392672 2.9240706 1.8674833 2.8468766 0.26190242 -2.108161 0.016550882 2.6826751
-2.811748 2.0526679 3.337734 -0.48534825 -1.3333521 3.3832848 4.4431915 -2.8747804
-0.041004196 2.8522885 1.6101186 3.3373795 0.29162282 -2.1649928 -1.3342696 2.209342
1.7594055 -2.394448 -1.7326891 -2.4233487 -0.8022047 -1.5117582 -2.315017 0.24681644
4.7108755 0.44157508 2.1046379 0.19770901 -0.2512612 -1.3704387 -2.135334 0.23145466
-4.058481 2.6050787 -2.4254928 -2.1380446 -3.079345 -3.7423751 0.3183139 -2.030756
2.3508124 3.761066 -1.8387848 -2.7189124 1.4180026 -3.5590875 -0.564923 -0.4471156
-3.4529276 0.55002826 0.6235431 2.2241173 -1.059985 -3.0149996 -2.6551523 -0.23331037
0.27514425 -1.6965724 0.2657542 2.1602468 -2.03882 -2.6188993 -3.2816637 -2.7741694
-1.2248688 3.8747535 -0.18843956 -2.090632 0.051656134 -2.283353 -2.665366 -1.9010222
-0.1303512 -4.0989323 -2.6552098 3.4943829 -1.4000882 -2.1146464 -0.2623763 -3.0543537
-0.73309845 0.8344985 -0.7237685 -0.11306638 -0.006116169 2.3139381 -3.7019682 -0.6135579
-0.64811814 -1.891317 -0.042037133 -0.9208616 2.5291908 0.79820186 -0.43492034 -0.8714993
-1.2895143 -1.6378692 -3.3288612 -1.2396436 -1.9576657 2.0269353 -2.6685104 -1.4384776
-1.2736881 -1.829943 0.43622875 -0.3601295 2.7682638 1.5946363 -1.1833428 -1.6506941
-0.15097408 -1.9273989 -1.1153708 -0.6291787 -1.8160497 -0.079141885 1.5046138 2.764246
-1.1485158 -0.74248195 -1.6790593 -0.1600292 1.4301577 -2.4044118 0.5561504 0.95402694
-1.6284342 -1.8285742 -1.1795017 -2.8645265 -2.4619343 -0.96082664 -0.6528005 -1.4633666
0.3305378 -1.5558003 -1.6577069 -0.75878376 0.06934137 -1.0209545 0.089858264 0.7189596
-1.0085218 -1.3856082 -0.18086065 -1.359349 -2.102004 0.67268646 -1.6187141 0.13768995
1.5579408 1.738269 -1.2986741 -0.35404557 0.23728769 -0.20405965 1.1640514 -1.2246822
-0.36837655 0.36687994 -1.6334155 -0.22834814 -1.2837756 -0.79824513 -1.3707956 -0.8947444
0.7516629 -0.61249936 -0.30497354 0.39056653 -0.4939683 0.60691464 0.49931437 -0.078433454
-0.8697906 -0.91332924 -0.9816576 -0.44444337 -0.451438 -0.38897422 -0.75633585 0.16757934
-0.79809856 -0.7909334 1.8789965 0.8003038 0.031823948 -0.18116975 0.16528189 -0.3133102
0.7334315 -0.24192122 -0.8542586 0.3885403 -0.96430457 0.024946887 -0.6200544 -0.40394536
-0.1399067 0.35339686 1.0284438 -0.62001246 0.24041313 1.081479 0.49512827 1.0109625
0.15445933 -0.1927204 -2.1024702 -0.7348107 -0.5824644 0.4569057 -0.46317455 0.18595636
0.35702232 -0.28764987 0.17149262 -0.7273262 1.376392 0.29952607 1.7461739 -2.6961062
-2.7024941 0.7404891 1.8883027 -2.1035097 -1.2786527 3.111874 -2.400438 -2.4281442
-2.920636 -2.4703066 -0.24104239 3.3942864 -1.163869 -1.6096532 1.4172945 -2.3520782
00000000: 84f5 4dc0 1867 3040 683a 4140 52e2 57c0
00000010: f77c 0ec0 868e 0e40 710c 2140 5d5b 1fc0
00000020: 6a0d 0a3f f923 3b40 b109 ef3f 3a33 3640
00000030: 1318 863e 1cec 06c0 b795 873c f3b0 2b40
00000040: aef3 33c0 e95e 0340 6f9d 5540 917f f8be
00000050: 48ab aabf bd87 5840 a02e 8e40 67fc 37c0
00000060: 04f4 27bd e58b 3640 5e18 ce3f a097 5540
00000070: 964f 953e 3e8f 0ac0 59c9 aabf dc65 0d40
00000080: 3334 e13f a33e 19c0 c2c8 ddbf 2518 1bc0
00000090: 4a5d 4dbf 4b81 c1bf 3d29 14c0 73bd 7c3e
000000a0: 7ebf 9640 2116 e23e 63b2 0640 3b74 4a3e
000000b0: 4fa5 80be 896a afbf 50a9 08c0 7302 6d3e
000000c0: 14df 81c0 9cb9 2640 463b 1bc0 b9d5 08c0
000000d0: fd13 45c0 1383 6fc0 0afa a23e e8f7 01c0
000000e0: b673 1640 4eb5 7040 4d5d ebbf a902 2ec0
000000f0: 1c81 b53f 17c8 63c0 cb9e 10bf 56ec e4be
00000100: c4fc 5cc0 a7ce 0c3f 85a0 1f3f f057 0e40
00000110: 97ad 87bf c1f5 40c0 04ee 29c0 eae8 6ebe
00000120: b5df 8c3e 4929 d9bf ef10 883e 7c41 0a40
00000130: 077c 02c0 0c9c 27c0 c706 52c0 fe8b 31c0
00000140: 80c8 9cbf f6fb 7740 4df6 40be eacc 05c0
00000150: 6295 533d 7522 12c0 5b95 2ac0 b254 f3bf
00000160: c97a 05be 742a 83c0 f5ee 29c0 f8a3 5f40
00000170: 1736 b3bf 5e56 07c0 3056 86be 887a 43c0
00000180: 57ac 3bbf b2a1 553f e448 39bf 598f e7bd
00000190: 256a c8bb 9017 1440 0ced 6cc0 2112 1dbf
000001a0: 12eb 25bf ad16 f2bf 212f 2cbd 96bd 6bbf
000001b0: 43de 2140 f556 4c3f e1ad debe 941a 5fbf
000001c0: ce0e a5bf b3a5 d1bf 100c 55c0 a4ac 9ebf
000001d0: ca94 fabf 4fb9 0140 e0c8 2ac0 0920 b8bf
000001e0: 3608 a3bf 923b eabf 6059 df3e e562 b8be
000001f0: 3c2b 3140 0b1d cc3f c777 97bf f249 d3bf
00000200: f398 1abe 02b5 f6bf 78c4 8ebf db11 21bf
00000210: 5174 e8bf 2415 a2bd 2f97 c03f 68e9 3040
00000220: 9102 93bf 4c13 3ebf 6aeb d6bf b2de 23be
00000230: 680f b73f e2e1 19c0 df5f 0e3f 1c3b 743f
00000240: 8870 d0bf b80e eabf e9f9 96bf 6754 37c0
00000250: 5590 1dc0 bcf8 75bf ef1d 27bf 994f bbbf
00000260: 403c a93e 7724 c7bf bd2f d4bf a73f 42bf
00000270: d902 8e3d a3ae 82bf 9c07 b83d bd0d 383f
00000280: 3e17 81bf 9c5b b1bf 8933 39be 26ff adbf
00000290: 3c87 06c0 2e35 2c3f 0632 cfbf 98fe 0c3e
000002a0: 9b6a c73f 997f de3f f43a a6bf 7645 b5be
000002b0: 8bfb 723e 03f5 50be a3ff 943f 63c2 9cbf
000002c0: da9b bcbe b0d7 bb3e c213 d1bf 18d4 69be
000002d0: c252 a4bf cb59 4cbf 3b76 afbf f80d 65bf
000002e0: fb6c 403f c2cc 1cbf 7e25 9cbe 56f8 c73e
000002f0: 6ae9 fcbe c25e 1b3f 22a6 ff3e b8a1 a0bd
00000300: 99aa 5ebf f2cf 69bf ea4d 7bbf 158e e3be
00000310: e222 e7be a127 c7be 3a9f 41bf eb99 2b3e
00000320: 3050 4cbf 9c7a 4abf f582 f03f b6e0 4c3f
00000330: d459 023d 9084 39be a83f 293e 326a a0be
00000340: 2bc2 3b3f 32ba 77be b1b0 5abf c1ee c63e
00000350: aadc 76bf 6a5d cc3c e3bb 1ebf edd1 cebe
00000360: b443 0fbe 6ff0 b43e 0ca4 833f 23b9 1ebf
00000370: dc2e 763e e76d 8a3f 7481 fd3e 3867 813f
00000380: 962a 1e3e 7f58 45be df8e 06c0 8e1c 3cbf
00000390: 631c 15bf 8bef e93e 3725 edbe 586b 3e3e
000003a0: a1cb b63e d846 93be c39b 2f3e 0d32 3abf
000003b0: 9d2d b03f 7b5b 993e a082 df3f 018d 2cc0
000003c0: aaf5 2cc0 b290 3d3f e7b3 f13f e79f 06c0
000003d0: e4aa a3bf f228 4740 c7a0 19c0 b766 1bc0
000003e0: b3eb 3ac0 8119 1ec0 d1d3 76be fd3b 5940
000003f0: a9f9 94bf 1e09 cebf e869 b53f 7388 16c0

graph_prop.message_funcs.1.bias f4 [32]
-3.665629 3.197945 3.4146698 1.2591242 1.9471263 0.631654 -0.31134096 3.3713405
-2.7467804 1.5211358 -0.08463161 1.1882672 4.3187075 -1.607776 3.487784 -0.6491803
3.6482873 1.1906776 3.9649355 -0.5909576 1.9386247 2.6945324 0.6397731 4.4230027
0.6006868 -2.1158028 -1.3459388 1.3930539 2.2248244 1.7298323 2.9443696 0.45094433
00000000: aa99 6ac0 22ab 4c40 f389 5a40 fb2a a13f
00000010: 6f3b f93f 14b4 213f 1568 9fbe 0bc4 5740
00000020: 40cb 2fc0 94b4 c23f 5653 adbd 2419 983f
00000030: da32 8a40 9bcb cdbf da37 5f40 ae30 26bf
00000040: 8a7d 6940 2068 983f 81c1 7d40 ff48 17bf
00000050: db24 f83f 3873 2c40 2bc8 233f 3d89 8d40
00000060: 9cc6 193f 5069 07c0 b947 acbf 974f b23f
00000070: 8663 0e40 256b dd3f 8d70 3c40 2de2 e63e

graph_prop.node_update_funcs.0.weight_ih f4 [48, 32]
-1.223069 -0.50316155 -0.16111143 -0.44881856 -1.43241 -0.50353014 0.3789177 -0.39148802
-0.47021624 0.7310671 -1.324236 -0.12717383 -0.1743011 -0.054074027 -0.56678325 -0.49786094
-0.6491965 0.14460428 0.070883855 -0.06377645 0.14594445 -0.3334154 -0.34787792 -0.9540655
-0.15796934 -0.15956336 -0.4059387 -0.87107694 0.35205227 -0.5282812 -0.5079073 -0.2821261
-0.6703313 1.4324044 -0.96382135 1.4249383 -0.6879664 1.369522 0.8843713 0.30540985
1.2301198 1.2314372 -0.7476164 -1.1638011 1.3963863 -0.71642816 0.30020383 1.3654727
1.0919125 -1.0129791 -1.1307817 1.2461118 1.507344 1.0529262 -0.8039594 -0.73030925
-1.6726594 -0.69804186 -0.8271884 0.968031 1.3948213 -1.2313433 -1.0226817 -0.9452207
0.0303041 -0.03688036 -0.26043913 0.39546052 -0.3499587 -0.578995 0.41059643 -1.0937594
-0.14193253 0.554551 -0.45347553 -0.13238738 0.07912461 -0.5821024 0.2786684 -0.81603676
0.45132676 -1.4359632 -0.11457456 -0.02824833 -0.6203397 0.0860581 0.17877059 0.29823968
0.06423827 -0.15755236 -0.42299148 -0.030345978 1.025908 -0.08495278 -0.42416006 -0.15900429
-0.7833928 0.53377914 -0.06560898 0.2040998 -0.63181585 -0.9013545 0.5256818 -0.036628548
0.7636712 -0.3242005 -0.5976268 -0.059454966 0.11472503 -1.1357923 0.6455177 -0.15629248
0.4974457 -0.6601423 -0.11219225 -0.91976655 0.084641896 -0.24844019 0.21667153 0.3040248
0.028032377 -0.10839566 -1.1882981 -0.17379813 0.42455336 -1.1771958 0.43746495 -1.4231442
-1.4055063 -0.53594446 -1.2597041 1.5559245 -2.1254125 -0.31786388 -1.6638455 -1.5127114
0.62354034 0.5959821 -1.402512 -1.7446886 0.9585279 -1.4550362 0.9769009 -0.065465994
0.67995834 -0.18515825 -0.9705191 -1.9163183 0.2721257 0.91429526 1.2690773 -1.036788
0.13556354 -0.7015702 0.056064494 -1.5650426 -0.024839697 -1.4155105 1.5262206 -1.3395164
0.089126505 0.3142345 0.006717695 0.2929676 -0.19199601 0.7550765 0.94741917 0.3764922
0.7357238 0.66426796 0.22792958 0.8768394 0.64137125 0.5494942 0.19459175 0.5864259
0.6771905 1.1789371 -0.11377259 -0.009328824 0.3750333 0.3029686 0.42392445 1.1662086
0.46043506 -0.25599322 0.028190525 0.41830787 0.30285364 0.8763419 0.33306503 0.15530528
-0.41030312 0.7999114 -0.40183815 1.0215278 -1.3173563 -0.52031016 -0.5297635 -0.6532008
0.8592134 -0.044420566 -0.29265898 -0.26925388 0.5683365 -0.8507654 1.2308774 -0.4238511
0.4568651 -0.59798956 -0.31504685 -0.12269308 0.43164095 0.93028367 1.5504401 -0.0044947937
-0.19366069 0.29789117 -0.20557283 0.28596964 0.98959255 -0.73470604 0.12727748 -0.63872766
0.16178459 -0.2386379 -0.10925534 -0.15075508 -0.046235666 -0.45108843 -0.01876875 0.050906844
-1.0346782 -0.6204369 0.67014784 -0.065058365 -0.6853757 0.121922396 -0.42462856 -0.546533
-0.79916865 0.2634557 0.7277119 0.40894392 0.18298022 -0.2237049 -0.3161158 0.31033576
-0.23622806 -0.25860745 0.39518502 -0.08811157 -0.09918756 0.41125715 -0.50671774 0.2306038
00000000: 868d 9cbf 32cf 00bf 65fa 24be 8ccb e5be
00000010: 3659 b7bf 5ae7 00bf 8001 c23e 1e71 c8be
00000020: 2fc0 f0be 3727 3b3f 9180 a9bf db39 02be
00000030: fd7b 32be ba7c 5dbd b518 11bf a1e7 febe
00000040: be31 26bf 2513 143e 8e2b 913d 3a9d 82bd
00000050: 7672 153e 6cb5 aabe 0e1d b2be a33d 74bf
00000060: b7c2 21be 9464 23be 33d7 cfbe e6fe 5ebf
00000070: 3240 b43e 703d 07bf 3606 02bf d572 90be
00000080: d59a 2bbf 0759 b73f ffbc 76bf 6164 b63f
00000090: 911e 30bf 7f4c af3f 2866 623f ae5e 9c3e
000000a0: 9174 9d3f bc9f 9d3f ca63 3fbf 6ff7 94bf
000000b0: c9bc b23f d667 37bf 51b4 993e cfc7 ae3f
000000c0: cac3 8b3f 4da9 81bf 74bd 90bf 9780 9f3f
000000d0: a6f0 c03f 49c6 863f 49d0 4dbf 8cf5 3abf
000000e0: b419 d6bf dfb2 32bf 9ec2 53bf e1d0 773f
000000f0: 8189 b23f a89c 9dbf 3ce7 82bf fcf9 71bf
00000100: 4e40 f83c dc0f 17bd 4758 85be cd79 ca3e
00000110: c92d b3be 0439 14bf b239 d23e 4f00 8cbf
00000120: c356 11be 0ef7 0d3f f22d e8be 8f90 07be
00000130: 150c a23d aa04 15bf a0ad 8e3e c9e7 50bf
00000140: 4d14 e73e a4cd b7bf 11a6 eabd 0b69 e7bc
00000150: 95ce 1ebf 3b3f b03d a30f 373e dfb2 983e
00000160: 5b8f 833d 6855 21be 5792 d8be 2198 f8bc
00000170: f450 833f b9fb adbd 822b d9be 05d2 22be
00000180: 6e8c 48bf c0a5 083f 005e 86bd 8aff 503e
00000190: afbe 21bf 2bbf 66bf 1593 063f d107 16bd
000001a0: f57f 433f 9cfd a5be 12fe 18bf 0d87 73bd
000001b0: f5f4 ea3d a461 91bf a640 253f 230b 20be
000001c0: 34b1 fe3e 16ff 28bf 0dc5 e5bd d275 6bbf
000001d0: bb58 ad3d 1b67 7ebe 24df 5d3e 23a9 9b3e
000001e0: 28a4 e53c 8bfe ddbd 271a 98bf 23f8 31be
000001f0: 0f5f d93e 5aae 96bf 68fb df3e 9729 b6bf
00000200: a1e7 b3bf a833 09bf fc3d a1bf 8928 c73f
00000210: c206 08c0 0ebf a2be e4f8 d4bf 87a0 c1bf
00000220: 57a0 1f3f 4892 183f 8385 b3bf f551 dfbf
00000230: 1662 753f a03e babf 2d16 7a3f 0913 86bd
00000240: c011 2e3f 209a 3dbe f173 78bf eb49 f5bf
00000250: 0f54 8b3e 410f 6a3f 2071 a23f 78b5 84bf
00000260: 2bd1 0a3e 1b9a 33bf e2a3 653d 5153 c8bf
00000270: 9f7c cbbc 732f b5bf 325b c33f 4675 abbf
00000280: f587 b63d 58e3 a03e 1c20 dc3b d9ff 953e
00000290: 9a9a 44be b24c 413f 108a 723f 96c3 c03e
000002a0: 6558 3c3f 770d 2a3f 5f66 693e 8c78 603f
000002b0: e830 243f a7ab 0c3f 0f43 473e 0220 163f
000002c0: 5b5c 2d3f 69e7 963f 9b01 e9bd ecd7 18bc
000002d0: 5d04 c03e b31e 9b3e a00c d93e 5346 953f
000002e0: 25be eb3e 8b11 83be d1ef e63c 732c d63e
000002f0: a20f 9b3e f157 603f 8087 aa3e 5908 1f3e
00000300: 4013 d2be fec6 4c3f bbbd cdbe 6cc1 823f
00000310: 229f a8bf 0c33 05bf 959e 07bf 2b38 27bf
00000320: 69f5 5b3f 57f2 35bd 66d7 95be a5db 89be
00000330: 807e 113f c3cb 59bf 648d 9d3f 0303 d9be
00000340: 39ea e93e d815 19bf d24d a1be 8246 fbbd
00000350: 0b00 dd3e 1227 6e3f d274 c63f 1049 93bb
00000360: fd4e 46be 3185 983e af81 52be 9d6a 923e
00000370: f055 7d3f b215 3cbf 0755 023e a883 23bf
00000380: dcaa 253e 7e5d 74be 44c1 dfbd 8a5f 1abe
00000390: 9c61 3dbd 10f5 e6be ecc0 99bc b283 503d
000003a0: 5670 84bf f4d4 1ebf cf8e 2b3f 523d 85bd
000003b0: c874 2fbf 73b2 f93d ea68 d9be 96e9 0bbf
000003c0: 5196 4cbf aae3 863e 544b 3a3f 1961 d13e
000003d0: 2b5f 3b3e e612 65be eed9 a1be 54e4 9e3e
000003e0: c5e5 71be 3268 84be b155 ca3e d773 b4bd
000003f0: d922 cbbd 4c90 d23e 41b8 01bf 6723 6c3e

graph_prop.node_update_funcs.0.weight_hh f4 [48, 16]
-0.025072113 -0.17714845 -0.6700971 0.393198 -0.45471323 -0.12602113 -0.6404563 -0.56849647
0.28661826 -0.43924004 0.14912106 -0.27871135 -0.039149415 -0.09837232 0.05685913 -0.015154502
-0.86734307 1.0656097 1.7561113 0.65018594 1.0503901 0.10910742 1.1481695 1.3529161
-1.0303159 0.30085593 0.7070544 -0.7462444 -0.32273376 1.1084266 -0.26783416 -0.744072
-0.31369963 -0.36023462 -0.1582229 0.38215458 0.25267777 -0.2808895 0.35939816 -0.43637845
-0.33516094 -0.030144798 0.4692028 -0.36068988 -0.74262166 -0.37017396 0.7430734 -0.23871204
-0.47689807 -0.679608 0.10363327 -0.081690356 0.90199447 -0.8389319 -0.8351793 0.6626172
0.10064196 -0.61075854 0.20320088 -0.31759468 -0.73814654 0.4210078 -0.95165706 0.49897045
-1.0780888 -1.3279088 -1.4439086 -0.81968427 1.6521195 -0.8915913 -0.3746898 -0.80119514
-0.48253152 0.62534523 0.6788925 0.058317974 -0.27228138 1.1113726 0.8544158 -1.5269021
0.6197615 0.3478111 0.78870386 1.0302761 -0.4356082 -0.8726503 0.5499276 0.02353953
-0.01895153 -0.19518438 -0.12602344 -0.14152567 -1.1671302 -0.8047129 -0.04262016 0.07144533
0.5825351 0.6292818 0.4093898 -0.027056333 0.7979976 -0.47595695 0.057041734 0.4739171
-0.6027496 -0.5571147 -0.50395304 -0.084583364 -0.8190231 -0.16997012 -0.36546344 -0.697626
0.17904697 -0.053312737 0.62912756 -0.040640537 -0.08096095 -0.104030155 -0.047480818 0.33488962
-0.2273348 -0.5490889 -0.6099203 -0.2384727 -0.12167547 -0.34760258 0.17488657 -0.35825303
0.12059472 0.2793019 -0.07448031 -0.09142524 -0.0949228 -0.36353418 -0.30274084 1.0146047
-0.124814905 -0.35060763 0.2792706 0.20182738 0.43729293 0.26275334 -0.32407302 0.60506326
-0.51225865 0.5465827 -0.16559522 -0.5980756 -0.4505034 -0.120942235 1.1143619 0.22083655
-0.6955799 0.20172478 -0.29662195 0.5312345 0.087846175 0.8337192 0.81892234 -0.0042541837
-0.04795164 -0.93831056 -0.67522126 0.49092406 0.81865066 -0.3607342 -0.28196806 0.15520574
-0.18285345 0.39153588 -0.21706952 -0.49828961 -0.70704854 0.042195145 -0.92033225 0.7844289
0.075161055 0.5759944 0.53143406 -0.70989543 0.25581992 0.3879396 0.8695338 0.14743853
0.32827616 0.634354 -0.6671105 -0.11841984 0.8877156 -0.045389093 0.71750903 -0.9000975
-0.1224098 -0.83509517 -1.0546187 -0.5907554 -0.10512347 0.4474589 -0.70806766 -0.47469246
0.68765354 0.348675 0.12803681 0.16476317 0.27988288 0.09426588 -0.24976386 -0.14000185
-0.07680825 -0.37783676 0.2285792 -0.14699587 0.817012 -0.8187743 0.5439571 -0.035690915
0.28012332 -0.23961033 0.07923864 0.096776254 -0.37789026 0.86557174 -0.27409437 -1.0098007
-0.07971417 -0.27065474 0.2004782 0.09307858 0.03262553 -0.13781512 -0.162481 -0.11293184
-0.29615542 0.07384028 0.12016156 0.118999735 -0.015575966 0.11968299 -0.17361672 0.19833615
-1.4756937 -1.3252441 0.99653435 -1.5180446 0.71589446 -1.1284274 0.7929443 1.6408882
-2.5341988 0.23402938 -1.7252787 -1.989527 -1.6192088 1.3144674 -1.4201984 -1.2093979
00000000: 0864 cdbc 6766 35be 7c8b 2bbf 4051 c93e
00000010: 2cd0 e8be af0b 01be f2f4 23bf fc88 11bf
00000020: a1bf 923e 12e4 e0be 31b3 183e 41b3 8ebe
00000030: 235b 20bd 6d77 c9bd 1ee5 683d 974a 78bc
00000040: 320a 5ebf e665 883f 41c8 e03f 9672 263f
00000050: 2f73 863f b673 df3d 38f7 923f 5b2c ad3f
00000060: 64e1 83bf ca09 9a3e 8401 353f df09 3fbf
00000070: 5c3d a5be ece0 8d3f 8f21 89be 817b 3ebf
00000080: 3d9d a0be ac70 b8be 2f05 22be c4a9 c33e
00000090: fb5e 813e c0d0 8fbe 0903 b83e ff6c dfbe
000000a0: 379a abbe 39f2 f6bc 593b f03e 58ac b8be
000000b0: 741c 3ebf 7187 bdbe 0f3a 3e3f ee70 74be
000000c0: fc2b f4be cafa 2dbf ae3d d43d 464d a7bd
000000d0: 1ce9 663f 3ec4 56bf 50ce 55bf 48a1 293f
000000e0: 5f1d ce3d ac5a 1cbf e413 503e c59b a2be
000000f0: 2cf7 3cbf 568e d73e cc9f 73bf 0e79 ff3e
00000100: d0fe 89bf eaf8 a9bf ffd1 b8bf d4d6 51bf
00000110: a778 d33f 543f 64bf 57d7 bfbe 201b 4dbf
00000120: 5f0e f7be a016 203f e6cb 2d3f d4de 6e3d
00000130: 7768 8bbe 7541 8e3f feba 5a3f 8771 c3bf
00000140: b1a8 1e3f 4c14 b23e 7fe8 493f 16e0 833f
00000150: 0a08 dfbe 0366 5fbf 0ec8 0c3f f9d5 c03c
00000160: 3d40 9bbc 6ade 47be 4a0c 01be 1bec 10be
00000170: 8664 95bf aa01 4ebf 7a92 2ebd ee51 923d
00000180: 0521 153f 9d18 213f 8a9b d13e 3ea5 ddbc
00000190: 9249 4c3f a1b0 f3be 98a4 693d 43a5 f23e
000001a0: cc4d 1abf 129f 0ebf 1103 01bf 0b3a adbd
000001b0: 7fab 51bf a60c 2ebe 061e bbbe 9e97 32bf
000001c0: 1758 373e 755e 5abd 810e 213f b176 26bd
000001d0: dbce a5bd c30d d5bd 3f7b 42bd a776 ab3e
000001e0: 74ca 68be 1791 0cbf bd23 1cbf 3032 74be
000001f0: fd30 f9bd f7f8 b1be 7715 333e f16c b7be
00000200: 5dfa f63d a900 8f3e 2289 98bd 283d bbbd
00000210: e366 c2bd 2721 babe d900 9bbe 91de 813f
00000220: f59e ffbd d882 b3be 8efc 8e3e d6ab 4e3e
00000230: dce4 df3e 9b87 863e e6ec a5be 6de5 1a3f
00000240: 6223 03bf d8ec 0b3f cb91 29be 7c1b 19bf
00000250: 62a8 e6be 90b0 f7bd 69a3 8e3f fa22 623e
00000260: 8611 32bf f190 4e3e d5de 97be fcfe 073f
00000270: b2e8 b33d 9f6e 553f e5a4 513f ae66 8bbb
00000280: f068 44bd 1f35 70bf 4ddb 2cbf 665a fb3e
00000290: 1793 513f 27b2 b8be 1e5e 90be 41ee 1e3e
000002a0: ef3d 3bbe 6477 c83e 7947 5ebe d11f ffbe
000002b0: 2201 35bf d1d4 2c3d e59a 6bbf 55d0 483f
000002c0: 0aee 993d 5e74 133f 100c 083f b5bb 35bf
000002d0: d4fa 823e 05a0 c63e c499 5e3f 20fa 163e
000002e0: d013 a83e 0665 223f c1c7 2abf 1a86 f2bd
000002f0: 5441 633f eae9 39bd acae 373f ca6c 66bf
00000300: fdb1 fabd ccc8 55bf bffd 86bf bf3b 17bf
00000310: f94a d7bd 5519 e53e ec43 35bf e40a f3be
00000320: 100a 303f 8885 b23e 151c 033e adb7 283e
00000330: cf4c 8f3e 780e c13d 19c2 7fbe a55c 0fbe
00000340: a54d 9dbd d273 c1be aa10 6a3e 1686 16be
00000350: b327 513f 319b 51bf c640 0b3f a330 12bd
00000360: 536c 8f3e 695c 75be de47 a23d a132 c63d
00000370: d57a c1be 1c96 5d3f 1956 8cbe 2641 81bf
00000380: 2f41 a3bd 4293 8abe 284a 4d3e fc9f be3d
00000390: 59a2 053d 681f 0dbe 6b61 26be cf48 e7bd
000003a0: afa1 97be 9339 973d 4417 f63d 22b6 f33d
000003b0: 5632 7fbc 5b1c f53d 95c8 31be a218 4b3e
000003c0: 88e3 bcbf 99a1 a9bf e01c 7f3f 494f c2bf
000003d0: dc44 373f 4f70 90bf 66fe 4a3f a008 d23f
000003e0: 5030 22c0 66a5 6f3e efd5 dcbf d2a8 febf
000003f0: 3c42 cfbf 7840 a83f 10c9 b5bf 8dcd 9abf

graph_prop.node_update_funcs.0.bias_ih f4 [48]
1.4185659 -2.6742096 0.9918364 1.8297048 1.5041735 -1.6564112 1.8493031 -0.72778475
-0.45899728 -1.9225559 1.253344 -0.22434625 -1.1980753 1.801079 -1.8865662 2.9516897
-3.02762 2.6923027 0.49365887 1.2341559 0.03526166 -0.20764257 1.3245972 0.8698927
-1.6444396 -0.48138455 0.36394662 -2.369411 1.6213806 1.1812075 1.5694107 0.2297106
-0.3214974 -2.6416786 -0.40646172 -2.1737063 1.0852396 -1.3341993 0.29631007 1.8139522
-1.355159 -1.8047704 -2.0231004 -2.9281275 -1.1705827 0.2441287 -2.6909218 -2.7986953
00000000: 9193 b53f 4026 2bc0 fee8 7d3f c433 ea3f
00000010: c288 c03f 4805 d4bf f7b5 ec3f 1a50 3abf
00000020: b101 ebbe 5016 f6bf 946d a03f 06bb 65be
00000030: 885a 99bf c289 e63f 007b f1bf 7ce8 3c40
00000040: 87c4 41c0 b04e 2c40 dbc0 fc3e d2f8 9d3f
00000050: 886e 103d 41a0 54be 678c a93f 4ab1 5e3f
00000060: ff7c d2bf 0978 f6be 3657 ba3e 6ea4 17c0
00000070: 6689 cf3f cf31 973f 73e2 c83f 4139 6b3e
00000080: 4f9b a4be 4311 29c0 c01b d0be 011e 0bc0
00000090: 22e9 8a3f 0bc7 aabf f4b5 973e 962f e83f
000000a0: da75 adbf b702 e7bf 7a7a 01c0 7166 3bc0
000000b0: a7d5 95bf e0fc 793e 1038 2cc0 d31d 33c0

graph_prop.node_update_funcs.0.bias_hh f4 [48]
-0.40424186 -1.9186293 0.370828 0.933449 2.3462784 -0.6105483 0.025029438 -0.34984896
-0.82405126 1.0406368 -0.37016317 0.69558835 0.74424976 2.1162262 0.5508031 2.6496806
-3.0841427 1.5475107 0.608575 2.1492813 -0.4308062 0.38360435 1.5335373 2.7815125
-3.0920072 -1.1207343 -3.607069 -3.0730877 1.5113387 0.99739915 2.0070364 -2.2257175
-0.82331944 -0.57008404 -1.6589901 -1.8918852 2.729457 -0.16791858 -2.8997576 0.12083793
1.3214717 -1.1278073 -1.391734 -1.6112028 -2.1648216 -1.9617934 -0.60559154 -2.8062189
00000000: caf8 cebe a595 f5bf 2bdd bd3e 83f6 6e3f
00000010: 6d29 1640 e54c 1cbf 890a cd3c 671f b3be
00000020: 06f5 52bf 9633 853f 0786 bdbe 1412 323f
00000030: 2787 3e3f 4070 0740 6f01 0d3f 5e94 2940
00000040: 9862 45c0 d514 c63f 92cb 1b3f d38d 0940
00000050: a192 dcbe ca67 c43e f34a c43f 4d04 3240
00000060: 72e3 45c0 3974 8fbf 38da 66c0 78ad 44c0
00000070: 8c73 c13f 8d55 7f3f 4973 0040 2872 0ec0
00000080: 10c5 52bf 07f1 11bf ca59 d4bf 4b29 f2bf
00000090: 6caf 2e40 d9f2 2bbe a195 39c0 e079 f73d
000000a0: fc25 a93f fd5b 90bf 5724 b2bf e53b cebf
000000b0: 708c 0ac0 0c1c fbbf 0c08 1bbf 1799 33c0

graph_prop.node_update_funcs.1.weight_ih f4 [48, 32]
-1.3149867 -1.3051602 1.3656298 -1.6561469 0.15421274 -1.502561 -1.8152702 0.08625282
-1.3692449 -1.4909977 -0.31379429 0.9937065 0.9808487 -1.2354652 1.7564873 -0.68890655
0.28453177 -0.71312624 1.4603357 -1.1114079 1.9459199 0.60839844 -1.1652517 0.88039804
-1.3636334 -1.3628109 -1.6449652 1.5148205 -1.0985385 -0.056533605 -0.6011552 -1.5926435
-0.18180102 0.10922544 0.5267259 -0.26013535 -0.032882016 -0.8363928 -0.6466419 0.28619367
-0.18845406 -0.02398972 0.80320543 0.012305952 0.46168447 0.2854385 -0.0034386087 0.46126625
0.44181955 0.33040494 -0.13907531 0.39036947 -0.05846803 -0.061838523 0.11731916 0.3110465
-0.41763362 -0.22707047 0.21858178 -0.6243352 -0.5675571 0.28962722 -0.31153786 -0.21110776
0.3875762 0.41426414 0.31589177 0.5314328 -0.1458893 0.6400519 -0.085524924 0.11381898
-0.004531145 0.5764674 -0.0003723062 -0.3210238 -0.62819713 0.024318177 -0.30806568 1.0613403
-0.20124352 0.7250092 0.23582199 1.2721777 -0.08176415 0.015442917 0.17213322 -0.23629548
0.23976322 -0.06495623 0.84886646 0.7745389 0.72709507 0.22209993 0.33963025 0.28465506
-0.9760055 0.1067428 0.68574935 -0.9280341 -1.4194306 -1.1043793 -1.1367743 1.4368697
0.7617035 -1.211942 1.8389213 -1.2971681 1.9387387 -1.6502708 1.6313378 1.5476507
0.9479795 -1.5318804 0.31142664 1.0797383 1.5515302 0.8293676 -0.8568602 1.2608861
-1.266925 1.1925523 -0.18096992 -1.3993962 1.2669133 -1.1406187 -0.94315636 -1.1497867
0.6597986 -0.81674665 -0.5069582 -0.07141709 -0.46224028 0.1779067 -0.2892418 -0.42539692
0.52740335 -0.023150902 0.21312347 -0.20076133 -0.61431706 -0.42256898 -0.8175037 1.083327
-1.0901653 -1.1988384 -1.3202066 0.4812098 0.35905498 0.3988508 0.44555393 -1.1574236
0.16500191 0.5530077 0.30741346 -0.56350005 0.675432 0.02210744 1.1719679 -1.4340453
-0.33549476 0.072874285 -0.14941934 -0.03570038 0.067069195 -0.044356257 -0.4948717 0.3289566
-0.62751645 -0.6375205 0.16918972 -0.0008899301 0.5571081 -0.004430734 0.1622161 0.24011937
-0.23728858 -0.32546574 0.5530806 -0.3097447 0.69294816 0.20136622 0.28422472 0.18392128
-0.44267097 0.09198071 -0.35248908 0.382593 0.19707467 0.40387127 -0.073868245 -0.15684925
0.702491 0.17952949 -0.3984781 1.1075993 -0.50633407 0.12680778 0.31694826 -0.7570465
0.56546384 0.485374 1.5243019 -0.58546823 -0.6370798 0.21860413 -0.5262905 0.75492007
-0.64780504 -0.038952686 0.07956079 1.0048231 -0.19213286 0.08904918 0.51978046 -0.82502097
0.45166695 0.92976725 0.96569544 -0.2977832 0.39001933 0.35685322 0.88681996 0.3310402
-1.0107641 1.1663165 0.2277975 -0.51018417 2.133927 0.7984207 -0.6318459 0.48158973
-1.3430128 1.2691004 0.17419443 2.150779 0.16150191 0.69306743 0.09480153 0.14874052
0.9052517 0.51256245 1.6196799 0.9666862 1.3374288 1.5039246 -1.401887 1.5870974
1.821027 -1.7640036 -1.5933733 -0.33843976 -0.71163046 0.22200361 -0.59574527 -1.0564404
00000000: 7c51 a8bf 7d0f a7bf f5cc ae3f 9ffc d3bf
00000010: f2e9 1d3e eb53 c0bf c65a e8bf 52a5 b03d
00000020: 6b43 afbf 03d9 bebf a5a9 a0be 8d63 7e3f
00000030: e718 7b3f b923 9ebf 93d4 e03f 2e5c 30bf
00000040: 26ae 913e 718f 36bf 48ec ba3f 9d42 8ebf
00000050: e713 f93f 00c0 1b3f f826 95bf c461 613f
00000060: 8a8b aebf 9670 aebf 388e d2bf a3e5 c13f
00000070: e99c 8cbf c88f 67bd 4fe5 19bf bedb cbbf
00000080: 0c2a 3abe 96b1 df3d 82d7 063f 7630 85be
00000090: 4baf 06bd d71d 56bf 538a 25bf fa87 923e
000000a0: 1afa 40be 1786 c4bc df9e 4d3f e79e 493c
000000b0: e861 ec3e ff24 923e 485a 61bb 172b ec3e
000000c0: 2c36 e23e d62a a93e c269 0ebe 82de c73e
000000d0: 2c7c 6fbd 644a 7dbd 0745 f03d 7d41 9f3e
000000e0: 13d4 d5be 2985 68be e7d3 5f3e 6fd4 1fbf
000000f0: 6c4b 11bf 054a 943e e481 9fbe a22c 58be
00000100: 6370 c63e 6e1a d43e 91bc a13e fb0b 083f
00000110: 0164 15be 71da 233f b127 afbd ed19 e93d
00000120: 007a 94bb 5e93 133f 1832 c3b9 3b5d a4be
00000130: 87d1 20bf ea36 c73c c9ba 9dbe 00da 873f
00000140: c812 4ebe 349a 393f 527b 713e b8d6 a23f
00000150: f673 a7bd 4a04 7d3c b143 303e 71f7 71be
00000160: 7d84 753e c607 85bd 504f 593f 2e48 463f
00000170: e722 3a3f 2a6e 633e 04e4 ad3e 4fbe 913e
00000180: 7fdb 79bf f89b da3d 458d 2f3f a593 6dbf
00000190: e7af b5bf 4d5c 8dbf d281 91bf 59eb b73f
000001a0: 00ff 423f ea20 9bbf c661 eb3f 9b09 a6bf
000001b0: 9728 f83f 133c d3bf adcf d03f 6b19 c63f
000001c0: c9ae 723f a814 c4bf 5073 9f3e dd34 8a3f
000001d0: 8b98 c63f 6f51 543f 315b 5bbf b764 a13f
000001e0: 992a a2bf 8ea5 983f 2e50 39be 6a1f b3bf
000001f0: 372a a23f cbff 91bf b272 71bf 362c 93bf
00000200: 90e8 283f 4f16 51bf 03c8 01bf 2043 92bd
00000210: c2aa ecbe 2d2d 363e 8017 94be a0cd d9be
00000220: e803 073f f6a6 bdbc 0a3d 5a3e 6194 4dbe
00000230: e243 1dbf f65a d8be ec47 51bf 76aa 8a3f
00000240: 898a 8bbf 8973 99bf 88fc a8bf 2261 f63e
00000250: 0ed6 b73e 2c36 cc3e a51f e43e 7526 94bf
00000260: 43f6 283e ea91 0d3f 4c65 9d3e 8a41 10bf
00000270: 1de9 2c3f a91a b53c 0b03 963f cc8e b7bf
00000280: f8c5 abbe 1d3f 953d 6201 19be 903a 12bd
00000290: 935b 893d e8ae 35bd d35f fdbe 006d a83e
000002a0: eba4 20bf 8b34 23bf 1240 2d3e 334a 69ba
000002b0: a39e 0e3f b12f 91bb fa1b 263e dae1 753e
000002c0: c7fb 72be 72a3 a6be b196 0d3f db96 9ebe
000002d0: 0d65 313f f232 4e3e e785 913e dc55 3c3e
000002e0: c5a5 e2be 6260 bc3d 7379 b4be 3be3 c33e
000002f0: f1cd 493e 37c8 ce3e 3c48 97bd 179d 20be
00000300: 73d6 333f 94d6 373e 5205 ccbe d0c5 8d3f
00000310: 1c9f 01bf e6d9 013e 0b47 a23e cdcd 41bf
00000320: 3dc2 103f f182 f83e 531c c33f 3fe1 15bf
00000330: a917 23bf c3d9 5f3e f9ba 06bf 7142 413f
00000340: 8dd6 25bf da8c 1fbd c4f0 a23d 0b9e 803f
00000350: 7abe 44be 6b5f b63d 5510 053f 9334 53bf
00000360: e440 e73e 3a05 6e3f d137 773f 0a77 98be
00000370: 9db0 c73e 77b5 b63e a206 633f 1a7e a93e
00000380: b860 81bf dc49 953f bf43 693e 6e9b 02bf
00000390: 4392 0840 4d65 4c3f a7c0 21bf ee92 f63e
000003a0: d8e7 abbf e271 a23f 0660 323e 5da6 0940
000003b0: c260 253e de6c 313f 4e27 c23d 6f4f 183e
000003c0: 93be 673f 4b37 033f ac51 cf3f bf78 773f
000003d0: de30 ab3f 9a80 c03f 0971 b3bf 0226 cb3f
000003e0: 6a17 e93f dfca e1bf a8f3 cbbf fa47 adbe
000003f0: 6a2d 36bf ea54 633e c382 18bf 7039 87bf

graph_prop.node_update_funcs.1.weight_hh f4 [48, 16]
-0.78343105 -1.0539578 -1.4144541 -0.2147312 1.3650833 -0.7410126 -1.4773097 1.7425282
-0.624317 -1.3335153 -1.2806847 -1.4119965 0.48797214 1.7951376 -0.38174355 -1.0788176
0.20706435 -0.45691827 0.039294846 0.18438387 0.33832848 -0.45398015 -0.020475449 -0.38142312
0.44457352 -0.04663917 -0.23419818 -0.21985365 -0.54254115 0.18103422 0.3841378 -0.23385699
-0.1604814 -0.25273186 -0.1901953 0.020596836 0.37401828 -0.4259845 0.004292089 0.50931746
-0.013883952 -0.024976611 0.63259226 0.2566527 -0.232883 0.19097963 0.044992175 -0.17994551
0.34671503 -0.5859913 -1.5270809 -1.3796803 0.6515628 -0.34353226 -0.7536745 0.48514944
-0.10947877 -1.594791 -0.89378154 -0.7038087 0.27402368 1.5090401 -1.0033501 -0.22596404
-0.29705328 0.27325386 -0.35123795 -0.8053944 -0.13571483 0.7902642 -0.9760652 0.70036834
0.22868818 0.31179702 -0.6405632 -0.5563563 0.7271628 0.43999848 0.90073323 -0.038160503
0.52328175 0.048174802 0.02555276 0.2486764 0.301903 -0.05070541 0.11390663 0.58930933
0.2538733 -0.0034849488 -0.09711764 -0.08158496 -0.3323767 0.05693745 0.36116892 -0.17142136
-0.29168794 0.10242407 0.54587024 0.9240508 -0.25932539 -0.37637946 -0.17233981 -0.03878877
-0.40379503 0.23449722 0.82854867 0.9083595 0.48795897 -1.1119138 0.3401087 0.35567188
0.8153565 -0.909505 -0.55766153 0.81087065 0.4859391 0.37754875 -0.817724 1.4768137
-0.04962119 -0.6170952 -0.7635348 -0.77966577 0.7078058 0.3102398 0.7022504 -0.16013335
-0.20900224 -0.44245052 0.5970738 -0.2614846 -0.13499896 0.25874224 0.056664623 -0.26515704
-0.34473214 0.3198768 0.19215557 0.39761972 -0.023391793 -0.21426041 -0.75133777 0.5351042
-0.8942963 0.3755813 0.79848605 0.24668674 -0.30781114 -0.097956695 0.61695117 0.064169966
-0.3707979 0.5640809 0.25068927 0.3882869 -0.06962996 0.37320223 0.60744536 0.9885899
-0.104482666 0.0024407643 0.43939 -0.5573334 -0.065943226 -1.0349281 1.5072608 -0.08955931
-0.15354998 0.39499766 0.26269248 0.82575154 -0.6988183 -0.18205948 0.29850185 0.82386535
0.43645805 0.6490928 0.024394203 0.3613376 -0.09068885 1.0072225 -0.26614746 0.43618858
0.37640783 -0.19163638 -0.5432392 -0.10559448 -1.2175853 -0.5946737 0.24863946 -0.11916943
-1.5265019 -0.58335835 -1.1602601 -1.7959614 1.3231766 -2.195127 0.004204779 0.6426889
-0.068514034 -1.7960625 -1.1002576 -1.8220892 -0.06494688 0.30192435 -1.6415635 -1.7002667
0.24736229 -0.5750254 -0.17926379 1.1623647 0.54989415 0.52923244 -0.21286069 0.08486505
-0.9867099 -0.23823181 -2.0885663 -0.19430193 -0.5756441 0.72958195 0.5386987 -0.84937793
1.5791657 2.0099237 -1.7768128 -0.026981061 0.91966784 -1.3970594 0.0035622257 0.99173796
-0.59856963 0.1991118 -1.2588692 0.58076864 1.0209216 -1.5782189 0.00731535 -0.2940078
-0.011253349 -0.043020245 -0.5847864 0.10683147 0.5218027 0.18934341 0.11574722 0.049927007
-0.6440133 -0.60444874 0.1588825 -1.2318774 0.08531707 0.09788705 0.023442753 -0.68397564
00000000: f08e 48bf 17e8 86bf d50c b5bf 7fe2 5bbe
00000010: 0dbb ae3f 00b3 3dbf 7c18 bdbf 2a0b df3f
00000020: 3dd3 1fbf a1b0 aabf 7aed a3bf 4dbc b4bf
00000030: 7cd7 f93e 12c7 e53f e473 c3be b216 8abf
00000040: ad08 543e 31f1 e9be a2f3 203d 20cf 3c3e
00000050: 6439 ad3e 1670 e8be 21bc a7bc e449 c3be
00000060: 249f e33e b708 3fbd a6d1 6fbe 5121 61be
00000070: fae3 0abf 0961 393e b6ad c43e 3578 6fbe
00000080: 3c55 24be 1266 81be 8fc2 42be b2ba a83c
00000090: 537f bf3e a41a dabe a7a4 8c3b a162 023f
000000a0: 8479 63bc c09b ccbc 91f1 213f fc67 833e
000000b0: e278 6ebe 2a90 433e b749 383d a343 38be
000000c0: a284 b13e 8703 16bf 6377 c3bf 5d99 b0bf
000000d0: d2cc 263f 76e3 afbe d0f0 40bf 8265 f83e
000000e0: 6836 e0bd 1d22 ccbf dece 64bf cf2c 34bf
000000f0: d54c 8c3e 3a28 c13f c76d 80bf 1e63 67be
00000100: 5e17 98be eee7 8b3e 76d5 b3be 542e 4ebf
00000110: d4f8 0abe c14e 4a3f 69df 79bf 574b 333f
00000120: 3c2d 6a3e dca3 9f3e f3fb 23bf 5e6d 0ebf
00000130: 5727 3a3f 7b47 e13e 7496 663f 304e 1cbd
00000140: cbf5 053f f152 453d 0654 d13c 07a5 7e3e
00000150: 0893 9a3e 7ab0 4fbd e147 e93d fadc 163f
00000160: aefb 813e bd63 64bb 9de5 c6bd 0416 a7bd
00000170: 472d aabe 3e37 693d 22eb b83e 1589 2fbe
00000180: 1f58 95be b6c3 d13d 27be 0b3f 988e 6c3f
00000190: 4cc6 84be cfb4 c0be d979 30be f9e0 1ebd
000001a0: 39be cebe 0a20 703e c41b 543f 408a 683f
000001b0: c2d5 f93e 3153 8ebf ba22 ae3e a01a b63e
000001c0: 34bb 503f 52d5 68bf e8c2 0ebf 3895 4f3f
000001d0: 02cd f83e 124e c13e 5c56 51bf 3b08 bd3f
000001e0: 973f 4bbd f3f9 1dbf 0477 43bf 2d98 47bf
000001f0: c332 353f c0d7 9e3e afc6 333f fff9 23be
00000200: af04 56be e088 e2be d4d9 183f 4fe1 85be
00000210: 2b3d 0abe dd79 843e 2a19 683d aac2 87be
00000220: bb80 b0be e4c6 a33e 6ec4 443e d094 cb3e
00000230: 25a0 bfbc 1567 5bbe ac57 40bf 97fc 083f
00000240: 9af0 64bf 314c c03e 9569 4c3f 739b 7c3e
00000250: 6c99 9dbe 859d c8bd 83f0 1d3f 8b6b 833d
00000260: 39d9 bdbe 9b67 103f 585a 803e 8acd c63e
00000270: 279a 8ebd 5d14 bf3e 8a81 1b3f 3a14 7d3f
00000280: 02fb d5bd 3bf5 1f3b baf7 e03e 67ad 0ebf
00000290: 3e0d 87bd 8678 84bf eced c03f df6a b7bd
000002a0: 353c 1dbe 223d ca3e a17f 863e 7464 533f
000002b0: c2e5 32bf cd6d 3abe 3cd5 983e d7e8 523f
000002c0: 6e77 df3e f22a 263f 5ad6 c73c 3e01 b93e
000002d0: 13bb b9bd abec 803f 7b44 88be 1c54 df3e
000002e0: 87b8 c03e 543c 44be b911 0bbf eb41 d8bd
000002f0: d6d9 9bbf 893c 18bf 589b 7e3e 1a0f f4bd
00000300: 6a64 c3bf f956 15bf 6783 94bf 10e2 e5bf
00000310: da5d a93f f67c 0cc0 3ec8 893b 4287 243f
00000320: 1651 8cbd 60e5 e5bf 3ed5 8cbf 383a e9bf
00000330: df02 85bd d495 9a3e c11e d2bf 57a2 d9bf
00000340: 8a4c 7d3e dd34 13bf ed90 37be 5ec8 943f
00000350: ddc5 0c3f c77b 073f 27f8 59be bacd ad3d
00000360: 0599 7cbf 0af3 73be 12ab 05c0 16f7 46be
00000370: 695d 13bf e2c5 3a3f 28e8 093f d570 59bf
00000380: 1a22 ca3f 97a2 0040 9a6e e3bf 6307 ddbc
00000390: 5a6f 6b3f d8d2 b2bf 3b74 693b 8ae2 7d3f
000003a0: dc3b 19bf f7e3 4b3e a022 a1bf 41ad 143f
000003b0: 8fad 823f 1403 cabf 9bb5 ef3b 3188 96be
000003c0: f75f 38bc ff35 30bd 90b4 15bf 75ca da3d
000003d0: dd94 053f 3de3 413e e10c ed3d 4380 4c3d
000003e0: 0ede 24bf 27bd 1abf 18b2 223e 29ae 9dbf
000003f0: b7ba ae3d 0179 c83d 040b c03c 0719 2fbf

graph_prop.node_update_funcs.1.bias_ih f4 [48]
1.0774446 0.9177145 -2.6811688 2.2284489 -1.3582299 -0.03949436 -1.8622614 1.8592547
-0.06475058 -2.4514375 0.8380127 -0.06377096 0.55907625 -0.97232723 -0.13960336 1.3594618
-0.4938634 0.46236193 -0.3130588 -0.54154587 -1.4689832 -2.2566538 -2.00456 -0.9526539
0.1707892 -1.4071201 -0.63469064 1.0585014 0.96476984 -0.053766064 -1.9463987 2.1465702
-1.0924686 0.28238237 -1.3664931 -3.1374416 6.1931496 -0.19500703 0.3219188 0.07354633
2.5829432 0.14810775 -0.78966796 -1.559156 -3.1340508 0.967291 0.4251 -2.3667471
00000000: b4e9 893f 56ef 6a3f 4598 2bc0 e89e 0e40
00000010: 7ada adbf d7c4 21bd 955e eebf 0ffc ed3f
00000020: f49b 84bd 5ae4 1cc0 0088 563f 599a 82bd
00000030: 9f1f 0f3f 70ea 78bf 2ff4 0ebe d802 ae3f
00000040: aadb fcbe b4ba ec3e 3e49 a0be c0a2 0abf
00000050: a407 bcbf 046d 10c0 b64a 00c0 20e1 73bf
00000060: 5de3 2e3e 831c b4bf 167b 22bf f97c 873f
00000070: 28fb 763f ce39 5cbd 9823 f9bf 6861 0940
00000080: 03d6 8bbf 6c94 903e 3fe9 aebf d8cb 48c0
00000090: 482e c640 ecaf 47be 8ad2 a43e 759f 963d
000000a0: f14e 2540 8fa9 173e ae27 4abf 6c92 c7bf
000000b0: 4a94 48c0 62a0 773f b5a6 d93e c978 17c0

graph_prop.node_update_funcs.1.bias_hh f4 [48]
1.198856 1.0367724 0.53154564 1.9585924 -0.9033205 1.529804 0.6895881 -0.6167366
-1.3176129 -1.6255566 0.7726933 1.1972649 0.591478 1.7548255 1.4150581 1.0643808
-1.1303649 -0.22430621 0.7770273 1.2907135 -3.5942595 -1.0028797 -2.4161606 -2.2407265
-3.3426352 -1.544608 1.601779 -0.08446092 2.345586 -0.5422135 -2.0637355 1.2616495
-1.2581137 -0.7127222 -0.82655156 -2.6548948 0.1340367 1.3632499 0.2682311 3.1561725
-0.13999544 1.254138 -0.12743676 -1.8900063 -2.5508099 1.0473367 -2.344502 -1.0721594
00000000: 1d74 993f f5b4 843f 6013 083f 28b3 fa3f
00000010: 0340 67bf 9ed0 c33f d988 303f 73e2 1dbf
00000020: 8aa7 a8bf 3d12 d0bf 3acf 453f fa3f 993f
00000030: 1a6b 173f 1f9e e03f a020 b53f a13d 883f
00000040: ccaf 90bf 87b0 65be 43eb 463f 1a36 a53f
00000050: 5908 66c0 5d5e 80bf 60a2 1ac0 1068 0fc0
00000060: bced 55c0 b7b5 c5bf 1807 cd3f d9f9 acbd
00000070: 151e 1640 81ce 0abf 3e14 04c0 bb7d a13f
00000080: df09 a1bf f674 36bf e298 53bf cce9 29c0
00000090: eb40 093e f97e ae3f 9655 893e bbfe 4940
000000a0: f75a 0fbe 9887 a03f c87e 02be baeb f1bf
000000b0: 7840 23c0 210f 863f 520c 16c0 853c 89bf
