housingpipeline/housingpipeline/dgmg/model.pth (torch, 297576 bytes, 42 tensors)

graph_embed.node_gating.0.weight f4 [1, 16]
1.4987605 4.9212327 -1.7934693 4.8980145 -2.0901375 4.41803 -1.4668622 -2.4474113
-3.643694 -4.5710187 4.4236746 3.0117972 1.3814898 -2.5833473 1.2562424 1.6797976
00000000: 62d7 bf3f bd7a 9d40 6790 e5bf 89bc 9c40
00000010: d0c4 05c0 8060 8d40 24c2 bbbf 63a2 1cc0
00000020: 4832 69c0 c945 92c0 be8e 8d40 49c1 4040
00000030: a8d4 b03f 9055 25c0 8dcc a03f 9c03 d73f

graph_embed.node_to_graph.weight f4 [32, 16]
-2.199773 -1.0776687 1.5912241 1.8799217 1.4981085 1.83033 2.4414644 1.5701565
-2.1428795 -2.2577546 3.2171862 -1.3712535 -1.6670002 1.6070695 -2.73423 -1.8875896
0.0017864329 -0.203088 -0.9953019 -0.6028903 0.3644554 0.5261172 -0.406607 0.23780984
0.21027601 0.5419018 -0.22340815 0.61009246 0.36009616 1.0663624 0.18986222 -0.5285523
1.3041397 1.7509925 0.25385535 2.2479126 -1.0012087 -0.20251414 0.4356017 -0.37500843
0.45408377 -1.3893666 0.011936109 0.581284 -0.57551825 -1.2050569 1.8876815 0.68630564
1.2388291 0.9195663 -1.4394301 -1.1286652 -0.6269967 -0.35864657 -1.5257093 -2.040395
1.8615779 0.371538 0.00263267 0.56449807 1.7431773 -1.8212501 0.7601949 1.2023277
-2.2246318 -1.5745615 2.3276153 0.95509154 1.6181113 -1.4052156 2.044136 2.450363
-1.7900748 -0.24676187 0.43081266 -2.5486462 -2.4556978 1.462918 -1.7853101 -1.8573748
-0.076533936 -0.25508255 1.025123 0.7120426 0.21314688 -1.2016007 1.4943737 1.6714168
-1.0214955 -0.5434796 -0.13404624 -0.8490835 -1.330993 0.10204715 -0.027546987 -0.37224814
-3.0122397 -2.557727 0.90945864 0.07360746 2.5012703 0.48861638 2.1315415 1.3092179
-1.2296255 1.0535554 1.2298988 -1.2737219 -1.7120285 2.447935 -3.0138175 -2.5815892
-0.018936368 1.3603057 1.5526042 3.159003 0.25534257 1.8192637 1.8153478 1.3011196
-2.850423 -4.0627007 2.7186954 -0.034749568 -1.2077256 0.06939854 -0.58022606 -0.7741269
0.1418081 -0.8331933 -0.41239855 -1.9888295 0.1685217 -0.86238235 -1.036883 -0.9863619
2.2297707 2.3775997 -0.65247095 -0.49540833 0.90907323 0.28266856 0.1365145 0.8751376
1.6858546 1.3959476 -1.6730019 -2.3956938 -1.4361567 -0.51945895 -2.0235355 -0.9432603
1.7476785 1.5240697 -2.7575479 1.7538568 1.7301135 -0.5458578 1.7899822 1.0125709
2.4111745 2.3795643 -1.3143926 -1.577994 -2.5847135 -1.3031459 -2.242714 -0.8872571
2.7959924 0.8747402 -2.715658 1.2831396 1.9405655 -2.1358733 2.3204195 2.0973408
0.17997776 -0.16687517 -2.0321908 -2.7011251 -0.32726204 -0.19299045 -2.3567743 -2.0151646
1.9155662 2.7693315 -1.9446491 2.413868 2.0047944 -0.15954064 1.3382517 1.3159837
-2.8818688 -3.1419291 2.145837 1.3129317 2.9656482 1.234974 2.4826388 1.823153
-2.255421 1.0063417 2.0008798 -2.3885179 -2.7273917 3.2337139 -3.0468652 -3.0800545
0.4777861 -0.75165725 -2.0943983 -3.0515451 -0.36909664 -0.59312814 -1.8067677 -1.126018
2.550656 2.2307687 -1.9482917 1.0315576 1.6571857 -0.1701556 0.643654 1.2530838
0.8439258 0.8718297 -1.3221905 -0.27242133 -0.70001614 0.57210606 -1.8525579 -2.000851
1.007453 0.13003258 0.5371109 1.0943877 1.731758 -1.1907759 0.32603514 1.5411421
0.2038653 -0.25698376 0.29994616 -0.35282513 0.20010796 -0.4419561 0.4888997 0.6033282
-0.4746589 0.380597 -0.50143623 -0.9420657 -0.35529074 -0.13816833 -0.35829046 0.2692722
00000000: 15c9 0cc0 0cf1 89bf 3bad cb3f 46a1 f03f
00000010: 05c2 bf3f 4148 ea3f f440 1c40 e3fa c83f
00000020: f024 09c0 0d7f 10c0 61e6 4d40 3c85 afbf
00000030: 4360 d5bf 74b4 cd3f a0fd 2ec0 899c f1bf
00000040: be26 ea3a 4df6 4fbe 1bcc 7ebf 0557 1abf
00000050: e699 ba3e 9eaf 063f cb2e d0be 6c84 733e
00000060: 9852 573e 14ba 0a3f 1bc5 64be 052f 1c3f
00000070: 865e b83e 907e 883f 3e6b 423e 344f 07bf
00000080: 0dee a63f 8620 e03f 54f9 813e cddd 0f40
00000090: 9b27 80bf de5f 4fbe 3007 df3e 1b01 c0be
000000a0: ab7d e83e c4d6 b1bf ab8f 433c 07cf 143f
000000b0: 2a55 13bf 4e3f 9abf 8c9f f13f bab1 2f3f
000000c0: f491 9e3f b268 6b3f 3f3f b8bf 1a78 90bf
000000d0: db82 20bf 86a0 b7be 714a c3bf d595 02c0
000000e0: 2f48 ee3f 3b3a be3e e088 2c3b f282 103f
000000f0: 6f20 df3f b91e e9bf 229c 423f e0e5 993f
00000100: 5e60 0ec0 3b8b c9bf a6f7 1440 e180 743f
00000110: 451e cf3f 1bde b3bf 20d3 0240 bfd2 1c40
00000120: 2c21 e5bf 25af 7cbe 7a93 dc3e 051d 23c0
00000130: 272a 1dc0 e640 bb3f 0b85 e4bf 75be edbf
00000140: d3bd 9cbd 2e9a 82be 3b37 833f 6d48 363f
00000150: 2d43 5a3e 0dce 99bf a347 bf3f fcf0 d53f
00000160: 5dc0 82bf 7b21 0bbf 6b43 09be 895d 59bf
00000170: fb5d aabf 19fe d03d 38aa e1bc 4f97 bebe
00000180: 89c8 40c0 cdb1 23c0 48d2 683f 82bf 963d
00000190: d014 2040 ed2b fa3e 2d6b 0840 7494 a73f
000001a0: 5e64 9dbf e7da 863f 536d 9d3f 5209 a3bf
000001b0: c023 dbbf f8aa 1c40 63e2 40c0 c238 25c0
000001c0: 7120 9bbc 7f1e ae3f bcbb c63f 1b2d 4a40
000001d0: 43bc 823e a2dd e83f 515d e83f 168b a63f
000001e0: 556d 36c0 a501 82c0 1bff 2d40 9055 0ebd
000001f0: c196 9abf d220 8e3d b289 14bf 2e2d 46bf
00000200: 2436 113e 284c 55bf e725 d3be f791 febf
00000210: f490 2c3e 17c5 5cbf 95b8 84bf 3782 7cbf
00000220: 90b4 0e40 982a 1840 5608 27bf 29a6 fdbe
00000230: 06b9 683f efb9 903e 75ca 0b3e 0509 603f
00000240: 15ca d73f 69ae b23f ed24 d6bf 0c53 19c0
00000250: fcd3 b7bf 43fb 04bf 9b81 01c0 8279 71bf
00000260: eeb3 df3f b714 c33f aa7b 30c0 617e e03f
00000270: 5c74 dd3f 56bd 0bbf 231e e53f ec9b 813f
00000280: af50 1a40 c84a 1840 043e a8bf b5fb c9bf
00000290: f26b 25c0 7ccd a6bf a088 0fc0 4823 63bf
000002a0: 8af1 3240 f9ee 5f3f 57cd 2dc0 eb3d a43f
000002b0: 7364 f83f 26b2 08c0 c181 1440 d53a 0640
000002c0: 174c 383e 53e1 2abe 6a0f 02c0 3cdf 2cc0
000002d0: e48e a7be 4a9f 45be 64d5 16c0 75f8 00c0
000002e0: 4631 f53f ba3c 3140 43ea f8bf d07c 1a40
000002f0: 8d4e 0040 9f5e 23be d54b ab3f 2772 a83f
00000300: 8a70 38c0 5e15 49c0 6555 0940 250e a83f
00000310: 2ecd 3d40 a113 9e3f 8ee3 1e40 145d e93f
00000320: d158 10c0 cecf 803f 6a0e 0040 7add 18c0
00000330: 968d 2ec0 2bf5 4e40 d7ff 42c0 9d1f 45c0
00000340: 61a0 f43e 9c6c 40bf 9f0a 06c0 844c 43c0
00000350: 3cfa bcbe 3fd7 17bf 2a44 e7bf 5c21 90bf
00000360: f33d 2340 eac4 0e40 9f61 f9bf 140a 843f
00000370: a91e d43f 453d 2ebe 82c6 243f 0d65 a03f
00000380: 850b 583f 3b30 5f3f 8a3d a9bf cf7a 8bbe
00000390: 4234 33bf 8b75 123f 9e20 edbf f10d 00c0
000003a0: 38f4 803f 4327 053e 1a80 093f e514 8c3f
000003b0: 3faa dd3f 586b 98bf 14ee a63e 2544 c53f
000003c0: 11c2 503e 6093 83be 8b92 993e 7fa5 b4be
000003d0: 1ae9 4c3e 1248 e2be 1051 fa3e b873 1a3f
000003e0: 7e06 f3be 9cdd c23e 205e 00bf 382b 71bf
000003f0: abe8 b5be 007c 0dbe d971 b7be 0cde 893e

graph_embed.node_to_graph.bias f4 [32]
2.1462696 0.22179486 0.45078003 -0.33694252 1.663513 1.7039484 -0.88721794 -1.8334162
-2.0548575 -0.9107011 -1.0323032 0.4812553 -0.9373681 -0.20787029 -1.1086819 1.9879428
-2.302905 -0.020432493 -0.53266275 3.1900992 -0.51883477 -1.5749558 -2.1963198 0.4213611
0.1346334 0.32967114 -0.98108876 0.9046992 0.7409439 1.1208155 0.47468 1.0214459
00000000: 7b5c 0940 311e 633e a4cc e63e bb83 acbe
00000010: feed d43f fb1a da3f b720 63bf 62ad eabf
00000020: c982 03c0 b523 69bf 8322 84bf 1867 f63e
00000030: 5bf7 6fbf f3db 54be 4ae9 8dbf e974 fe3f
00000040: cc62 13c0 0b62 a7bc 965c 08bf 962a 4c40
00000050: 5bd2 04bf 2798 c9bf 8190 0cc0 a4bc d73e
00000060: 57dd 093e a8ca a83e a228 7bbf 5e9a 673f
00000070: 80ae 3d3f e276 8f3f 4209 f33e bdbe 823f

graph_prop.message_funcs.0.weight f4 [32, 34]
-1.5153792 0.6214302 1.4969867 0.83693004 0.13823669 -0.23811768 -0.32129273 1.7681419
0.21489102 -0.6382621 0.7480841 -1.0332416 0.32241264 0.080236256 0.8655853 -0.45948988
1.1491305 0.801698 0.91768855 0.03634037 -0.7221111 -0.10179725 0.80068856 -0.95186967
0.18396072 -0.67557484 0.78584325 0.4316151 -0.056474313 -0.6449173 0.20873183 -0.5407717
2.2601998 0.21087278 -1.1924258 0.1926558 0.032721687 1.2343832 -0.34404284 0.5430672
0.8263086 0.62398696 -0.9739274 0.7978774 -0.43298304 -0.6796505 -0.8688758 1.2890159
-1.4246229 -0.4037388 0.39857408 1.2074794 0.34225556 1.4761492 -0.97804016 -1.1876367
-0.083743244 0.2515972 -0.600916 -0.43557867 -0.77108496 0.9672993 -1.5343951 -0.04839168
-0.8150791 0.12570535 -1.1739326 -0.6366734 0.80884194 1.6954156 -2.0137584 0.95562875
-2.0832384 1.080781 -0.0522422 -0.65792775 -1.6040326 -1.7822112 1.1772249 2.1906188
-0.60827905 -1.0131743 -1.090826 0.8444163 0.7987146 1.7830598 0.59325314 2.165344
-1.4620682 1.3165883 1.236248 -0.90571386 0.9580645 -2.7855546 1.8388637 1.7369198
-0.8242269 -0.8919063 0.24317434 0.53826237 0.8798661 -2.6701329 0.26026997 -1.1926062
1.3579277 -1.225768 2.0439956 -0.36956564 1.0764158 -0.8018973 1.9590248 2.4665332
-1.480925 -0.7345363 0.39539376 1.0208737 0.60400015 -0.34735766 -2.621184 -2.1493628
-0.56533927 -1.771183 1.5759028 -0.99657035 -1.2712475 1.4996089 -1.2018988 2.4925811
-1.9606932 -2.197453 -0.45622817 0.97260725 -1.9626018 -0.50397426 -0.08321029 0.49310422
-0.40792692 0.11469453 0.5379063 1.0209932 0.42412418 -0.0052774996 -0.2513925 -0.119306184
0.723871 -0.5969704 0.46452004 0.7294968 0.6544156 -0.7987093 0.8646119 -0.36598417
0.88022596 -0.41985756 -0.010390842 -0.3697261 0.038653072 -0.34896836 -0.91989356 0.20659705
-1.1777177 0.5254743 -1.004111 -0.38713425 -0.0071550556 0.35806343 -0.53852 -0.7233963
1.2437861 -1.7542524 -0.38408822 0.3885593 1.2896603 -1.0427452 1.2153213 0.92945176
0.92656523 -1.0615457 1.3121744 0.8597599 -0.18387571 0.40063843 0.5640471 -0.11598838
0.14673452 -1.0919659 -0.21509443 -0.4242187 -0.667829 -0.23761232 0.7595867 1.2893963
0.53052926 -1.3072507 1.0700095 -0.20935571 1.0084921 -0.45565742 -0.0028464324 0.1298144
0.040022664 1.4267076 -1.2824445 0.77733576 0.046532176 0.5875922 -1.7018414 0.15422647
-0.2322168 1.1378337 0.2679616 -0.5769086 -1.0245998 -1.5984855 1.8189211 1.4744718
-0.41542488 -0.7029639 -0.55891985 -0.011540054 0.83322185 1.0713766 -0.9110557 1.2942986
-0.51357675 1.1630645 0.40679795 -2.5371842 0.86407256 -1.6449286 2.5679374 1.6801996
0.7030122 0.3239968 0.3824977 1.2560605 -0.58975184 0.0046687215 0.9010547 0.27348015
-2.02963 1.879535 -1.5195779 0.1409994 -0.3667326 -0.9088257 -1.2034696 -0.5009016
-0.054921743 1.5159988 -0.7551567 -0.37081376 -0.7670042 0.70288014 1.2250501 0.7752185
00000000: f2f7 c1bf 0d16 1f3f 439d bf3f 0c41 563f
00000010: eb8d 0d3e 1fd5 73be 7b80 a4be 7952 e23f
00000020: 640c 5c3e 2565 23bf 7182 3f3f 4341 84bf
00000030: 4513 a53e e852 a43d 0097 5d3f 4242 ebbe
00000040: b516 933f 153c 4d3f a3ed 6a3f a4d9 143d
00000050: 46dc 38bf 147b d0bd edf9 4c3f bbad 73bf
00000060: 3360 3c3e 79f2 2cbf 062d 493f a8fc dc3e
00000070: 9c51 67bd 4d19 25bf ccbd 553e 0470 0abf
00000080: 1da7 1040 09ef 573e 69a1 98bf 9047 453e
00000090: 2d07 063d 4500 9e3f 6226 b0be 7406 0b3f
000000a0: f688 533f 9cbd 1f3f 4e53 79bf b141 4c3f
000000b0: f4af ddbe 93fd 2dbf a56e 5ebf 79fe a43f
000000c0: 0b5a b6bf dab6 cebe e711 cc3e af8e 9a3f
000000d0: 1f3c af3e 75f2 bc3f d760 7abf 7b04 98bf
000000e0: 9481 abbd 59d1 803e a2d5 19bf 2b04 dfbe
000000f0: d365 45bf eda0 773f 0f67 c4bf 5b36 46bd
00000100: 06a9 50bf e7b8 003e 6c43 96bf 07fd 22bf
00000110: 4410 4f3f 6103 d93f 6be1 00c0 16a4 743f
00000120: c753 05c0 0857 8a3f ebfb 55bd f46d 28bf
00000130: f150 cdbf 7f1f e4bf 4eaf 963f 1933 0c40
00000140: 2db8 1bbf b2af 81bf 30a0 8bbf ab2b 583f
00000150: 8f78 4c3f 4e3b e43f 70df 173f ff94 0a40
00000160: 0d25 bbbf f785 a83f 603d 9e3f dddc 67bf
00000170: b743 753f 8746 32c0 e35f eb3f 6353 de3f
00000180: 8900 53bf f953 64bf b202 793e 90cb 093f
00000190: e83e 613f 75e3 2ac0 1b42 853e 52a7 98bf
000001a0: 93d0 ad3f f7e5 9cbf d3d0 0240 b537 bdbe
000001b0: fec7 893f 2449 4dbf 53c1 fa3f aedb 1d40
000001c0: f38e bdbf 920a 3cbf 0d71 ca3e fdab 823f
000001d0: c19f 1a3f ddd8 b1be 7bc1 27c0 298f 09c0
000001e0: 13ba 10bf 20b6 e2bf 2fb7 c93f 3c1f 7fbf
000001f0: 3db8 a2bf 2ff3 bf3f d2d7 99bf 7386 1f40
00000200: fff7 fabf 12a3 0cc0 bd96 e9be cafc 783f
00000210: 8936 fbbf 7504 01bf 286a aabd 2878 fc3e
00000220: ccdb d0be f7e4 ea3d 3ab4 093f e8af 823f
00000230: ce26 d93e e0ee acbb 85b6 80be cd56 f4bd
00000240: 9c4f 393f 0dd3 18bf 92d5 ed3e 4dc0 3a3f
00000250: c887 273f 3678 4cbf 3557 5d3f 4762 bbbe
00000260: 7d56 613f 92f7 d6be 5a3e 2abc bd4c bdbe
00000270: af52 1e3d fbab b2be 257e 6bbf 2d8e 533e
00000280: 74bf 96bf 7c85 063f b686 80bf 7636 c6be
00000290: f574 eabb 1754 b73e 72dc 09bf 8030 39bf
000002a0: 6234 9f3f 588b e0bf 36a7 c4be 3ff1 c63e
000002b0: 9713 a53f ad78 85bf a68f 9b3f 8df0 6d3f
000002c0: 6133 6d3f bbe0 87bf 55f5 a73f 3a19 5c3f
000002d0: ea49 3cbe 7b20 cd3e 6465 103f 518b edbd
000002e0: 9341 163e 8ac5 8bbf b741 5cbe 3233 d9be
000002f0: d7f6 2abf a550 73be 4674 423f f00a a53f
00000300: c4d0 073f fe53 a7bf 12f6 883f 5861 56be
00000310: 4516 813f ee4b e9be 368b 3abb 11ee 043e
00000320: ceee 233d 5b9e b63f 2427 a4bf 7aff 463f
00000330: 8698 3e3d 716c 163f f0d5 d9bf 8bed 1d3e
00000340: 3eca 6dbe 89a4 913f 4332 893e 48b0 13bf
00000350: 1626 83bf 2c9b ccbf 68d2 e83f 7ebb bc3f
00000360: 92b2 d4be 71f5 33bf 5f15 0fbf 7f12 3dbc
00000370: 074e 553f de22 893f f23a 69bf 94ab a53f
00000380: c479 03bf 4cdf 943f d247 d03e 3a61 22c0
00000390: dc33 5d3f 058d d2bf 1659 2440 c810 d73f
000003a0: 9cf8 333f e9e2 a53e bdd6 c33e 97c6 a03f
000003b0: faf9 16bf 13fc 983b 85ab 663f 9705 8c3e
000003c0: 75e5 01c0 9a94 f03f 8781 c2bf 2662 103e
000003d0: 60c4 bbbe cda8 68bf 4b0b 9abf 163b 00bf
000003e0: 9ff5 60bd 400c c23f f351 41bf 4ddb bdbe
000003f0: 635a 44bf f4ef 333f 71ce 9c3f b874 463f

graph_prop.message_funcs.0.bias f4 [32]
-2.174825 1.3855522 -3.7203758 4.3984 -1.1333925 2.6092114 0.3214106 -2.4106305
3.1903558 1.4338142 -2.1307008 -0.08617505 3.1042645 2.0132785 3.247169 1.8350629
2.4402826 -2.6858237 -3.5436928 -0.7952702 0.13118695 3.5585845 2.7690523 -0.53150743
-1.3374385 -0.25564831 -0.36329994 0.7350979 1.8316969 -1.197565 -1.6529139 -1.0744562
00000000: 5530 0bc0 c659 b13f a31a 6ec0 b1bf 8c40
00000010: 0113 91bf 52fd 2640 ee8f a43e c547 1ac0
00000020: ca2e 4c40 3987 b73f 675d 08c0 8b7c b0bd
00000030: 45ac 4640 8ed9 0040 9ed1 4f40 57e3 ea3f
00000040: 972d 1c40 89e4 2bc0 ddcb 62c0 d496 4bbf
00000050: df55 063e d9bf 6340 2738 3140 df10 08bf
00000060: 2f31 abbf 56e4 82be 7302 babe 602f 3c3f
00000070: 0b75 ea3f cf49 99bf af92 d3bf c887 89bf

graph_prop.message_funcs.1.weight f4 [32, 34]
-3.3037715 2.877932 3.6231606 -3.113381 -2.942093 2.7787466 2.5862625 -3.123126
0.46384418 3.404505 2.3179758 3.5855038 0.008174269 -1.6227336 -0.20570983 3.1924703
-2.8199618 2.899289 3.374149 -0.7902351 -2.3557165 3.0065744 2.8022616 -2.4266353
-0.13798627 2.9321117 3.2115836 3.4828732 2.1932254 -3.0007157 -0.40080327 2.511893
1.4309914 -3.2140775 -1.6923418 -0.31494164 -0.19491616 -1.2982279 0.1921228 0.18408671
2.166617 -0.11145427 1.8695151 -0.3675207 -0.031381823 -0.5929322 0.17847335 -1.3097035
-2.13895 0.33280686 -1.132066 -1.5732503 -0.6432643 -1.5838652 1.2754065 0.21529661
3.0488036 0.8587582 -0.015035322 -0.67008555 -0.6323033 -1.0562776 -1.0561717 0.3542701
-2.8121424 -0.34485114 -0.4652614 -0.03841423 -0.30979908 -2.910929 -2.5980778 0.24786
1.7568456 -1.4450003 -0.8769543 2.166265 -1.2886223 -2.2777667 -2.8417292 -2.6850889
-0.074419156 3.437476 0.013012616 -2.985398 1.0922786 -2.865336 -2.1351464 -1.3328463
0.8323386 -2.9532065 -1.0117224 2.5558307 -0.32973918 -1.5724 -2.3258135 -2.0461354
-2.3338704 2.2772627 -1.3034698 -0.043190368 -0.25141084 1.7168276 -1.8083663 0.1572876
0.57687205 -1.1047593 0.42686853 0.35373697 1.0677295 -0.18213962 1.0668776 0.3159833
-0.38157606 -0.20151718 -1.9592305 -1.2930605 -1.1427258 1.9329292 -1.3303218 -0.81822294
-0.22581024 -0.28222677 0.92396647 0.9393369 2.4784243 0.4548709 0.5720374 -0.23985057
-0.08545639 -0.27958533 -0.7429406 -0.5400409 -1.0504334 -0.13846631 1.5758574 0.569029
1.1226631 -0.39915437 -0.27604958 0.98238504 0.783717 -0.62123305 -0.45437762 -0.4311253
0.1014676 -0.13444054 -0.37261397 -0.8943601 -1.6779243 -0.19524965 -0.3084817 -0.7390797
1.5625644 -0.62869006 -0.58592063 0.29852533 0.3336235 0.04102976 -0.83431643 -0.38150662
0.33953822 -0.31806168 -0.10791301 0.2867136 -1.3050616 1.2448514 -0.56027925 -0.25771883
1.2450843 1.2640133 0.48819324 -0.28167203 0.7634527 0.41425455 -0.076282464 -0.12752075
-1.1105055 -0.3798363 -0.27617177 0.7454679 -0.56731373 0.42411563 -0.71037364 -0.04762761
0.69408417 0.31741208 0.13274746 0.84919965 -0.3325645 0.5759624 0.26024774 0.31461176
-1.8055879 -0.8371611 -0.6498303 -0.421166 -0.047116566 0.31834918 0.06737789 0.6521001
-0.13269733 -0.6327634 1.9124515 0.32116017 0.6953281 -0.8563307 0.08604 -0.21184985
0.028514234 0.23983239 -0.95188874 0.44833148 -0.573813 0.37355912 -0.7125248 -0.21590187
-0.087388515 0.888843 0.27972427 -0.20516925 0.20110324 0.76518434 -0.18292165 0.13290983
-0.1424319 -0.6027047 -2.0519285 0.19096439 -0.93214333 -0.3041006 -0.57891953 0.24535172
0.20839714 0.37760293 -0.23803617 -0.10740534 1.0104442 0.44612113 2.0312967 -2.6789918
-3.1362126 0.85073406 2.7958484 -2.3044512 -1.7048357 3.7062259 -2.0784721 -2.5722935
-2.7067895 -3.084449 0.0887682 2.5928226 -0.82683927 -2.4186463 1.6332884 -3.1578343
00000000: fe70 53c0 0a30 3840 dde1 6740 a241 47c0
00000010: 404b 3cc0 fcd6 3140 5385 2540 4ce1 47c0
00000020: fc7c ed3e 69e3 5940 b759 1440 e578 6540
00000030: 5fed 053c bcb5 cfbf 99a5 52be 6f51 4c40
00000040: 417a 34c0 f38d 3940 0ff2 5740 d94c 4abf
00000050: 0fc4 16c0 b76b 4040 4158 3340 fe4d 1bc0
00000060: 464c 0dbe b8a7 3b40 968a 4d40 65e7 5e40
00000070: ce5d 0c40 ba0b 40c0 1636 cdbe dbc2 2040
00000080: ba2a b73f 72b3 4dc0 a89e d8bf 0840 a1be
00000090: 1a98 47be 552c a6bf d7bb 443e 3a81 3c3e
000000a0: daa9 0a40 2342 e4bd 454c ef3f ac2b bcbe
000000b0: 3a8a 00bd 68ca 17bf b8c1 363e 5da4 a7bf
000000c0: 8fe4 08c0 a965 aa3e 8ae7 90bf 4460 c9bf
000000d0: f8ac 24bf 18bc cabf 8540 a33f b776 5c3e
000000e0: 991f 4340 94d7 5b3f b656 76bc ba8a 2bbf
000000f0: a1de 21bf 1b34 87bf a230 87bf e462 b53e
00000100: 24fa 33c0 5490 b0be be36 eebe 3d58 1dbd
00000110: fc9d 9ebe a94c 3ac0 e846 26c0 03cf 7d3e
00000120: 51e0 e03f c5f5 b8bf 1480 60bf 16a4 0a40
00000130: 93f1 a4bf eec6 11c0 e4de 35c0 7fd8 2bc0
00000140: 1269 98bd 9bff 5b40 de32 553c c310 3fc0
00000150: c9cf 8b3f aa61 37c0 3da6 08c0 b59a aabf
00000160: 2414 553f 5601 3dc0 1f80 81bf bb92 2340
00000170: 93d3 a8be 6744 c9bf 21da 14c0 e2f3 02c0
00000180: 225e 15c0 acbe 1140 19d8 a6bf 62e8 30bd
00000190: ecb8 80be 02c1 db3f 8c78 e7bf 0010 213e
000001a0: e3ad 133f c168 8dbf 838e da3e 031d b53e
000001b0: 5cab 883f cf82 3abe 728f 883f 90c8 a13e
000001c0: f05d c3be 855a 4ebe 11c8 fabf 0283 a5bf
000001d0: d744 92bf 396a f73f fc47 aabf 0f77 51bf
000001e0: cd3a 67be 0780 90be 1189 6c3f 6278 703f
000001f0: 819e 1e40 d7e4 e83e 0b71 123f 639b 75be
00000200: c303 afbd cf25 8fbe 5b31 3ebf 1f40 0abf
00000210: 9a74 86bf 1dca 0dbe b2b5 c93f e2ab 113f
00000220: 6db3 8f3f f65d ccbe 5f56 8dbe 967d 7b3f
00000230: ada1 483f 2109 1fbf 2fa4 e8be 75bc dcbe
00000240: 3fce cf3d c8aa 09be 42c7 bebe c9f4 64bf
00000250: 39c6 d6bf 86ef 47be 50f1 9dbe 5434 3dbf
00000260: 1c02 c83f d5f1 20bf e5fe 15bf 50d8 983e
00000270: b3d0 aa3e d20e 283d c395 55bf d654 c3be
00000280: f4d7 ad3e fbd8 a2be 7f01 ddbd 20cc 923e
00000290: 420c a7bf 4a57 9f3f 766e 0fbf b9f3 83be
000002a0: ec5e 9f3f 30cb a13f 77f4 f93e 5137 90be
000002b0: a371 433f 2c19 d43e fb39 9cbd cd94 02be
000002c0: 0b25 8ebf e779 c2be 6366 8dbe fcd6 3e3f
000002d0: 793b 11bf af25 d93e 0cdb 35bf 2b15 43bd
000002e0: 80af 313f d683 a23e f3ee 073e 2665 593f
000002f0: e545 aabe 4672 133f 313f 853e cb14 a13e
00000300: 811d e7bf 3150 56bf 475b 26bf 12a3 d7be
00000310: 4dfd 40bd aafe a23e 6bfd 893d 08f0 263f
00000320: cfe1 07be c8fc 21bf 36cb f43f 1b6f a43e
00000330: 0601 323f 7d38 5bbf bd35 b03d 2bef 58be
00000340: af96 e93c 9f96 753e fbae 73bf b48b e53e
00000350: 69e5 12bf 2443 bf3e 0668 36bf 6115 5dbe
00000360: c0f8 b2bd 378b 633f 0538 8f3e e317 52be
00000370: 02ee 4d3e 1fe3 433f d04f 3bbe 8419 083e
00000380: abd9 11be db4a 1abf cc52 03c0 2b8c 433e
00000390: f2a0 6ebf 13b3 9bbe 1234 14bf 7b3d 7b3e
000003a0: 0f66 553e 2c55 c13e c1bf 73be 55f7 dbbd
000003b0: 3c56 813f fd69 e43e c400 0240 9a74 2bc0
000003c0: b5b7 48c0 b5c9 593f 2eef 3240 217c 13c0
000003d0: 0e38 dabf ce32 6d40 b005 05c0 75a0 24c0
000003e0: 0a3c 2dc0 9d67 45c0 1acc b53d cef0 2540
000003f0: bdab 53bf 1acb 1ac0 980f d13f f519 4ac0

graph_prop.message_funcs.1.bias f4 [32]
-3.6325614 0.7016379 2.5499465 0.009502556 0.52642274 0.21759957 0.000267629 3.1207454
-2.6350625 0.14081489 -0.43154025 1.5742486 2.5089707 -1.4580934 2.0882084 -1.0622128
2.5422158 1.0546491 3.5464327 -1.8606374 1.5673103 1.7260942 -0.22073774 3.2046852
0.547625 -2.0471032 -1.9521394 2.1315494 2.1089413 2.2156508 2.2006323 0.9654331
00000000: e37b 68c0 8b9e 333f 5332 2340 9cb0 1b3c
00000010: a4c3 063f 6cd2 5e3e 8e50 8c39 4bba 4740
00000020: dda4 28c0 c731 103e d8f2 dcbe fa80 c93f
00000030: fa92 2040 cea2 babf 35a5 0540 97f6 87bf
00000040: aab3 2240 befe 863f c1f8 6240 5e29 eebf
00000050: a09d c83f a8f0 dc3f 1309 62be 9019 4d40
00000060: 2731 0c3f bd03 03c0 b4df f9bf 4e6b 0840
00000070: e5f8 0640 39cd 0d40 29d7 0c40 a026 773f

graph_prop.node_update_funcs.0.weight_ih f4 [48, 32]
-1.2144655 -0.49432552 -0.16820939 -0.44324 -1.4244285 -0.5008388 0.37033305 -0.39206207
-0.46267676 0.7235443 -1.3190355 -0.13079216 -0.17073677 -0.05557519 -0.5583185 -0.49072194
-0.6427879 0.14625737 0.06618855 -0.070232846 0.14683175 -0.32625586 -0.33975124 -0.943137
-0.15758744 -0.15493917 -0.4098086 -0.87078863 0.34606153 -0.5274381 -0.50512713 -0.28067434
-0.6623755 1.4236413 -0.954626 1.4158204 -0.6825215 1.359396 0.87795675 0.30321625
1.2221309 1.2217053 -0.7399279 -1.1536994 1.3870721 -0.70853037 0.29587877 1.3558325
1.0834719 -1.0058479 -1.1213752 1.2375593 1.4989344 1.0444845 -0.7967707 -0.7221874
-1.6621513 -0.6940362 -0.819156 0.96141005 1.3862861 -1.2229431 -1.0144174 -0.93847555
0.033310123 -0.029300166 -0.25847906 0.3937075 -0.34746054 -0.5763789 0.40920404 -1.0890231
-0.14117722 0.5518929 -0.45000532 -0.13170096 0.077186726 -0.57878417 0.2797517 -0.81363016
0.44921952 -1.4319406 -0.113982886 -0.02524355 -0.6192338 0.08665414 0.17658775 0.2958808
0.061155945 -0.15625931 -0.42226708 -0.025533544 1.0209813 -0.083979174 -0.42165765 -0.15746148
-0.85561764 0.5741445 0.048298255 0.11690399 -0.64257115 -0.8668895 0.5887484 0.033293046
0.7819474 -0.29496723 -0.5138384 0.00042615816 0.12951186 -1.0990301 0.5973777 -0.09294591
0.51752263 -0.71956015 -0.077324696 -0.8528882 0.13404535 -0.2204272 0.2471505 0.21246557
0.037178893 -0.07070725 -1.2183856 -0.1236497 0.48985314 -1.0946847 0.44227478 -1.4072949
-1.4983633 -0.45422342 -1.1447046 1.3469821 -2.1522157 -0.15263394 -1.5173937 -1.4946991
0.6140667 0.7948849 -1.3243188 -1.6158679 1.0905684 -1.3453323 0.8355691 0.10586921
0.8670918 -0.26093674 -1.0380673 -1.9077328 0.27189022 1.0741333 1.253127 -1.1591322
0.20404948 -0.6808923 0.033909984 -1.4635881 0.17391394 -1.2971925 1.645468 -1.1898285
0.0867445 0.30921194 0.0073460997 0.29047182 -0.19048113 0.7513419 0.9426146 0.37492403
0.73353237 0.6631011 0.22338498 0.8729181 0.6376241 0.54428434 0.19264407 0.58237344
0.6736946 1.1729876 -0.11397714 -0.010522993 0.37375322 0.29837635 0.41922727 1.1603435
0.46086204 -0.2528948 0.026672633 0.41093644 0.30002445 0.8694672 0.3310495 0.15571599
-0.40747112 0.7989005 -0.40084583 1.0175915 -1.3084738 -0.5176621 -0.5312392 -0.64653116
0.8525785 -0.04329585 -0.29162103 -0.26850876 0.5654697 -0.84865624 1.2190572 -0.4229014
0.45208362 -0.59531516 -0.31334826 -0.12061908 0.42994913 0.9236059 1.5454923 0.03124215
-0.19066115 0.29750252 -0.20433433 0.28406787 0.9827178 -0.7319306 0.1353317 -0.63557124
0.15960085 -0.24060254 -0.10991611 -0.15219478 -0.0481027 -0.44810405 -0.020740569 0.047528442
-1.0330756 -0.61760503 0.6672792 -0.06583177 -0.6824763 0.11700121 -0.4250117 -0.5443567
-0.7943559 0.26139456 0.7239857 0.40582335 0.18131645 -0.22154917 -0.3127325 0.3093272
-0.23469575 -0.25791043 0.39170632 -0.08901494 -0.09859235 0.40879002 -0.5047645 0.22889136
00000000: 9b73 9bbf 3c18 fdbe 153f 2cbe 5af0 e2be
00000010: ac53 b6bf f936 00bf 4b9c bd3e 5cbc c8be
00000020: f8e3 ecbe 333a 393f 28d6 a8bf 61ee 05be
00000030: 9fd5 2ebe cfa2 63bd f6ed 0ebf e83f fbbe
00000040: bf8d 24bf 7ec4 153e dd8d 873d 3dd6 8fbd
00000050: 105b 163e 020b a7be e0f3 adbe 6d71 71bf
00000060: 9a5e 21be 60a8 1ebe 6fd2 d1be 01ec 5ebf
00000070: fa2e b13e 2f06 07bf 0350 01bf 8cb4 8fbe
00000080: 7191 29bf e139 b63f 5f62 74bf 9a39 b53f
00000090: bbb9 2ebf b000 ae3f c6c1 603f 293f 9b3e
000000a0: c96e 9c3f d760 9c3f ea6b 3dbf 6cac 93bf
000000b0: 948b b13f 3f62 35bf 6c7d 973e eb8b ad3f
000000c0: 35af 8a3f a0bf 80bf 3989 8fbf 5868 9e3f
000000d0: 15dd bf3f abb1 853f 2af9 4bbf 46e1 38bf
000000e0: 60c1 d4bf 5bac 31bf 35b4 51bf f81e 763f
000000f0: d371 b13f 6689 9cbf 6ed8 81bf ef3f 70bf
00000100: 3270 083d e706 f0bc 5e57 84be 0894 c93e
00000110: 59e6 b1be 918d 13bf 3183 d13e 1c65 8bbf
00000120: c390 10be da48 0d3f 1967 e6be 9edc 06be
00000130: 1314 9e3d 332b 14bf 9d3b 8f3e 114a 50bf
00000140: 1a00 e63e d449 b7bf dc6f e9bd 90cb cebc
00000150: 1b86 1ebf ba77 b13d 6bd3 343e b07d 973e
00000160: a87e 7a3d 7102 20be 6433 d8be b92b d1bc
00000170: 84af 823f 46fd abbd 83e3 d7be 953d 21be
00000180: c209 5bbf 22fb 123f 64d4 453d 5c6b ef3d
00000190: 8b7f 24bf 78ec 5dbf 37b8 163f 4a5e 083d
000001a0: b42d 483f f205 97be ea8a 03bf fb6d df39
000001b0: c29e 043e 05ad 8cbf bfed 183f 6d5a bebd
000001c0: 5d7c 043f 1835 38bf 695c 9ebd e256 5abf
000001d0: 2f43 093e abb7 61be 0515 7d3e 9390 593e
000001e0: e548 183d f6ce 90bd 0ff4 9bbf 0e3c fdbd
000001f0: 08ce fa3e a11e 8cbf d771 e23e 3d22 b4bf
00000200: 5eca bfbf f98f e8be ae85 92bf e969 ac3f
00000210: e7bd 09c0 124c 1cbe f539 c2bf 4d52 bfbf
00000220: 7a33 1d3f 947d 4b3f 4783 a9bf c2d4 cebf
00000230: bf97 8b3f d933 acbf dbe7 553f f5d1 d83d
00000240: baf9 5d3f 8099 85be 64df 84bf 9730 f4bf
00000250: 3235 8b3e 337d 893f 7766 a03f 725e 94bf
00000260: 59f2 503e f54e 2ebf 32e5 0a3d db56 bbbf
00000270: 7f16 323e 670a a6bf b29e d23f 4d4c 98bf
00000280: 1aa7 b13d 0751 9e3e 8db7 f03b b9b8 943e
00000290: 7c0d 43be f157 403f 314f 713f 0bf6 bf3e
000002a0: c7c8 3b3f fec0 293f 08bf 643e 9077 5f3f
000002b0: 553b 233f 3856 0b3f 7d44 453e 6d16 153f
000002c0: 4077 2c3f 7524 963f d96c e9bd a268 2cbc
000002d0: 955c bf3e c9c4 983e f5a4 d63e 2386 943f
000002e0: 1cf6 eb3e 6d7b 81be 9180 da3c 4366 d23e
000002f0: ce9c 993e 6795 5e3f 527f a93e 0374 1f3e
00000300: 0ea0 d0be be84 4c3f aa3b cdbe 7040 823f
00000310: 127c a7bf 8185 04bf 4bff 07bf 1183 25bf
00000320: 9642 5a3f fd56 31bd 5a4f 95be fb79 89be
00000330: 9fc2 103f 8941 59bf 110a 9c3f 8886 d8be
00000340: 8177 e73e 9366 18bf 2f6f a0be 2307 f7bd
00000350: 4b22 dc3e 7071 6c3f b1d2 c53f 8aef ff3c
00000360: ad3c 43be 4052 983e 053d 51be 5871 913e
00000370: 6593 7b3f ce5f 3bbf 6594 0a3e ccb4 22bf
00000380: 686e 233e 8360 76be b31b e1bd f3d8 1bbe
00000390: 5607 45bd e56d e5be 20e8 a9bc 2fad 423d
000003a0: d23b 84bf 5d1b 1ebf cfd2 2a3f cfd2 86bd
000003b0: c4b6 2ebf 559e ef3d 229b d9be f65a 0bbf
000003c0: e95a 4bbf 82d5 853e 2057 393f 14c8 cf3e
000003d0: 05ab 393e c9dd 62be 791e a0be 2260 9e3e
000003e0: 1554 70be d60c 84be bb8d c83e 774d b6bd
000003f0: c9ea c9bd ed4c d13e 3f38 01bf 7f62 6a3e

graph_prop.node_update_funcs.0.weight_hh f4 [48, 16]
-0.029899202 -0.17967106 -0.6639328 0.38920075 -0.4487001 -0.13096778 -0.63393116 -0.5649291
0.2896674 -0.43348813 0.14620586 -0.2825839 -0.04348302 -0.094486505 0.052024957 -0.01651652
-0.8610837 1.0580662 1.7458601 0.64632183 1.0437279 0.105679065 1.1416954 1.3437717
-1.025168 0.29690042 0.70253885 -0.740574 -0.32138193 1.1014917 -0.26472944 -0.73743385
-0.31046832 -0.3572582 -0.15590464 0.3811954 0.25167936 -0.27831963 0.360397 -0.43206453
-0.33269343 -0.03135824 0.46603477 -0.3565983 -0.73846453 -0.36812288 0.740677 -0.23852901
-0.4677651 -0.6756811 0.13394344 -0.083815105 0.90574986 -0.82998765 -0.83541757 0.64185345
0.095396295 -0.61247617 0.19991484 -0.30653593 -0.7312857 0.41288772 -0.9434237 0.4750015
-1.0747256 -1.3253843 -1.4332354 -0.8177601 1.6495951 -0.902657 -0.36863366 -0.78976923
-0.44569942 0.6211685 0.67039484 0.01723972 -0.30379722 1.1063392 0.8084788 -1.5201795
0.6160379 0.34490758 0.7841257 1.0228319 -0.43534067 -0.86463314 0.54624265 0.02056393
-0.017656036 -0.19223475 -0.12833636 -0.14048705 -1.1636652 -0.8024767 -0.044607915 0.07350277
0.5810455 0.6258236 0.40645748 -0.026348183 0.7958376 -0.47328284 0.057317525 0.47221127
-0.59977347 -0.5536762 -0.5061311 -0.08403977 -0.8162428 -0.1668936 -0.36197326 -0.6946106
0.17739297 -0.055130385 0.6249053 -0.04150334 -0.079418205 -0.10390605 -0.047617864 0.33358195
-0.22619407 -0.54601425 -0.6097875 -0.23723204 -0.119730964 -0.34551036 0.17404152 -0.3585046
0.12103241 0.27792904 -0.07473144 -0.09244423 -0.093701586 -0.3598401 -0.3019733 1.0097787
-0.1259222 -0.34988064 0.27726093 0.19974273 0.4350523 0.2628376 -0.32389253 0.60321975
-0.51357573 0.5419304 -0.1669585 -0.59258497 -0.44637206 -0.12227737 1.1091878 0.21785812
-0.68895626 0.1998683 -0.2923845 0.5269442 0.08563879 0.82896894 0.8152102 -0.0030878899
-0.05346701 -0.9308452 -0.6708077 0.4861775 0.8097735 -0.35157067 -0.2825533 0.15047252
-0.18785803 0.38922507 -0.21316758 -0.49099588 -0.6989115 0.040637754 -0.91364664 0.7769922
0.07487587 0.57042557 0.5286541 -0.7059599 0.25558105 0.38463852 0.86171913 0.145128
0.32446837 0.6274065 -0.66208863 -0.12152239 0.8818163 -0.04932154 0.71087587 -0.8956532
-0.124086075 -0.8340985 -1.0511888 -0.59217995 -0.10495877 0.44810677 -0.7055513 -0.47796574
0.68556803 0.34914592 0.12904334 0.16581905 0.28277177 0.09457149 -0.24653019 -0.14186306
-0.075825006 -0.3755816 0.22347867 -0.14625771 0.8130761 -0.81274384 0.53874314 -0.038555305
0.27651316 -0.24119958 0.084405795 0.10069308 -0.37364936 0.86478466 -0.27257234 -1.0082601
-0.07771745 -0.27126968 0.19743147 0.09267485 0.0328922 -0.13712886 -0.16227798 -0.113839656
-0.29608133 0.074393414 0.12011114 0.11841316 -0.015044437 0.119550064 -0.17396317 0.19899948
-1.4631011 -1.3150593 0.9981791 -1.5138656 0.71413136 -1.1192746 0.7961231 1.6273392
-2.5131276 0.23380922 -1.7119224 -1.9762568 -1.6076115 1.3112329 -1.4070188 -1.2006385
00000000: 2cef f4bc b1fb 37be 80f7 29bf 5245 c73e
00000010: 05bc e5be 6b1c 06be 5049 22bf 329f 10bf
00000020: 494f 943e 28f2 ddbe fdb6 153e d6ae 90be
00000030: 401b 32bd 2482 c1bd 1f18 553d a74d 87bc
00000040: fb6f 5cbf b76e 873f 5878 df3f 5975 253f
00000050: e098 853f 446e d83d 1323 923f b600 ac3f
00000060: b438 83bf 5503 983e 96d9 333f 4296 3dbf
00000070: 2c8c a4be aefd 8c3f 9e8a 87be 77c8 3cbf
00000080: b4f5 9ebe 8cea b6be 77a5 1fbe 0b2c c33e
00000090: 1edc 803e e97f 8ebe f585 b83e 9037 ddbe
000000a0: cb56 aabe 7f71 00bd 1c9c ee3e 0d94 b6be
000000b0: 030c 3dbf 9a7a bcbe 029d 3d3f f340 74be
000000c0: e87e efbe 70f9 2cbf 7828 093e 41a7 abbd
000000d0: 39df 673f 127a 54bf eddd 55bf 8250 243f
000000e0: 225f c33d 3dcb 1cbf 7ab6 4c3e 47f2 9cbe
000000f0: 8a35 3bbf 0566 d33e 3784 71bf 6633 f33e
00000100: 9c90 89bf 31a6 a9bf 4274 b7bf ba58 51bf
00000110: ef25 d33f 8714 67bf 8dbd bcbe 512e 4abf
00000120: b732 e4be e604 1f3f ff9e 2b3f 503a 8d3c
00000130: 4f8b 9bbe 869c 8d3f 77f8 4e3f 3e95 c2bf
00000140: a9b4 1d3f ba97 b03e 76bc 483f 28ec 823f
00000150: f9e4 debe 9958 5dbf 8fd6 0b3f b075 a83c
00000160: 64a3 90bc 30d9 44be 9b6a 03be d6db 0fbe
00000170: fbf2 94bf 1d6f 4dbf cab6 36bd 9f88 963d
00000180: 66bf 143f fa35 203f 321b d03e 25d8 d7bc
00000190: 03bc 4b3f 2152 f2be c8c5 6a3d adc5 f13e
000001a0: c18a 19bf b9bd 0dbf cf91 01bf 0b1d acbd
000001b0: 4af5 50bf 28e6 2abe 8f54 b9be 00d2 31bf
000001c0: 81a6 353e 66d0 61bd cbf9 1f3f 68ff 29bd
000001d0: 03a6 a2bd b2cc d4bd f30a 43bd 41cb aa3e
000001e0: 6b9f 67be 97c7 0bbf 091b 1cbf f5ec 72be
000001f0: 8235 f5bd bce6 b0be f137 323e ea8d b7be
00000200: d7df f73d b74c 8e3e cc0c 99bd 6753 bdbd
00000210: 9ee6 bfbd f63c b8be 3f9c 9abe 6e40 813f
00000220: c0f1 00be 8e23 b3be 25f5 8d3e 5c89 4c3e
00000230: 2dbf de3e a692 863e 3ed5 a5be 9c6c 1a3f
00000240: b379 03bf f3bb 0a3f 2bf7 2abe a6b3 17bf
00000250: e18a e4be 8f6c fabd def9 8d3f 3316 5f3e
00000260: 705f 30bf 47aa 4c3e 6cb3 95be d1e5 063f
00000270: 6463 af3d 4f37 543f 9eb1 503f 325e 4abb
00000280: 3900 5bbd df4b 6ebf 0eba 2bbf 42ec f83e
00000290: 514d 4f3f 1201 b4be d3aa 90be 7815 1a3e
000002a0: db5d 40be 8248 c73e 9a48 5abe d063 fbbe
000002b0: ddeb 32bf c673 263d bfe4 69bf f6e8 463f
000002c0: 8558 993d 6907 123f e055 073f cab9 34bf
000002d0: 85db 823e 57ef c43e a099 5c3f 6f9c 143e
000002e0: b820 a63e b69d 203f a47e 29bf bbe0 f8bd
000002f0: b7be 613f 6205 4abd f6fb 353f 8749 65bf
00000300: d720 febd 7b87 55bf 5b8d 86bf 1b99 17bf
00000310: a0f4 d6bd 406e e53e 039f 34bf edb7 f4be
00000320: 6381 2f3f 41c3 b23e f023 043e 78cc 293e
00000330: 76c7 903e b3ae c13d 6972 7cbe 8d44 11be
00000340: 244a 9bbd 3b4c c0be 98d7 643e 95c4 15be
00000350: c125 503f fb0f 50bf 12eb 093f 2bec 1dbd
00000360: 2293 8d3e 06fd 76be f2dc ac3d 2c38 ce3d
00000370: f84e bfbe 8762 5d3f 9a8e 8bbe ab0e 81bf
00000380: 542a 9fbd dce3 8abe 7a2b 4a3e 50cc bd3d
00000390: f9b9 063d 826b 0cbe 332c 26be c424 e9bd
000003a0: f997 97be 935b 983d d4fc f53d 9982 f23d
000003b0: f17c 76bc aad6 f43d 6723 32be 85c6 4b3e
000003c0: e646 bbbf dd53 a8bf aa88 7f3f 59c6 c1bf
000003d0: 50d1 363f 6444 8fbf b9ce 4b3f a74c d03f
000003e0: 15d7 20c0 af6b 6f3e 4620 dbbf fcf5 fcbf
000003f0: 37c6 cdbf 7bd6 a73f 3119 b4bf 86ae 99bf

graph_prop.node_update_funcs.0.bias_ih f4 [48]
1.420884 -2.664152 0.98831177 1.7950327 1.4716636 -1.6553394 1.8447998 -0.72613406
-0.4574929 -1.9163854 1.2475575 -0.22038864 -1.201296 1.7931206 -1.8828586 2.9412148
-2.6142342 2.6232126 0.56147 1.0538323 0.09573852 -0.29900664 1.2765476 0.9569721
-1.6224728 -0.5981419 0.4154357 -2.268527 1.5209644 1.4521767 1.4934033 0.17764136
-0.31137404 -2.6258411 -0.40399623 -1.7896892 0.9806281 -1.3421048 0.3163386 1.7743562
-1.3383372 -1.7934732 -0.38492006 -2.8830013 -0.9807877 0.7331074 -2.6879988 -2.580494
00000000: 87df b53f 7781 2ac0 0002 7d3f a2c3 e53f
00000010: 795f bc3f 29e2 d3bf 6622 ec3f ece3 39bf
00000020: 823c eabe 1e4c f5bf f7af 9f3f 8fad 61be
00000030: 11c4 99bf fa84 e53f 8301 f1bf dd3c 3c40
00000040: 9d4f 27c0 b7e2 2740 7fbc 0f3f fae3 863f
00000050: 8f12 c43d 6617 99be e965 a33f 20fc 743f
00000060: 30ad cfbf d41f 19bf fdb3 d43e 8c2f 11c0
00000070: f6ae c23f ede0 b93f d727 bf3f 9ee7 353e
00000080: 6b6c 9fbe c80d 28c0 98d8 cebe 8914 e5bf
00000090: 710a 7b3f 17ca abbf 22f7 a13e 1b1e e33f
000000a0: a24e abbf 8890 e5bf 3e14 c5be 1883 38c0
000000b0: e714 7bbf edac 3b3f 2c08 2cc0 d026 25c0

graph_prop.node_update_funcs.0.bias_hh f4 [48]
-0.40192178 -1.9085618 0.36730236 0.89877623 2.3137782 -0.60947627 0.0205208 -0.34819716
-0.82254773 1.0468073 -0.3759434 0.6995446 0.74102926 2.1082766 0.55451214 2.6392057
-2.6707568 1.4784136 0.67638606 1.968961 -0.37032816 0.29224014 1.4854876 2.8685794
-3.0700634 -1.2374927 -3.5555804 -2.9722037 1.4109225 1.2683672 1.9310297 -2.2777817
-0.8134046 -0.5543986 -1.7435253 -1.505947 2.7201843 -0.16459724 -2.8219743 0.1169876
1.3192104 -1.0894414 0.33559567 -1.518859 -2.1609986 -1.4685246 -0.6016965 -2.8144143
00000000: b1c8 cdbe c14b f4bf 0e0f bc3e 3316 663f
00000010: f114 1440 a306 1cbf 3d1b a83c e646 b2be
00000020: 7d92 52bf c8fd 853f a77b c0be 5b15 333f
00000030: 18b4 3d3f 01ee 0640 82f4 0d3f bfe8 2840
00000040: aeed 2ac0 a83c bd3f a327 2d3f ea06 fc3f
00000050: a79b bdbe 80a0 953e 7524 be3f ce96 3740
00000060: eb7b 44c0 2966 9ebf a18e 63c0 9638 3ec0
00000070: 1c99 b43f db59 a23f fb2b f73f 2dc7 11c0
00000080: 493b 50bf 11ed 0dbf d62b dfbf dfc2 c0bf
00000090: 8017 2e40 2e8c 28be 3a9b 34c0 3297 ef3d
000000a0: e3db a83f d172 8bbf 32d3 ab3e f969 c2bf
000000b0: cd4d 0ac0 9df8 bbbf c808 1abf 5d1f 34c0

graph_prop.node_update_funcs.1.weight_ih f4 [48, 32]
-1.3026091 -1.2966136 1.3560648 -1.6439013 0.15515994 -1.4907092 -1.803759 0.08738903
-1.3586799 -1.4811474 -0.31011158 0.9846375 0.9722375 -1.2258157 1.7463772 -0.68225443
0.2818238 -0.7057595 1.4510995 -1.1026946 1.9336488 0.6043444 -1.1567622 0.8741481
-1.356093 -1.3518094 -1.6331651 1.5042232 -1.0882387 -0.052988704 -0.5968432 -1.5802176
-0.18249898 0.12354521 0.527086 -0.25663686 -0.031382963 -0.82913446 -0.64199924 0.29061568
-0.19507375 -0.026506364 0.7979795 0.012809388 0.4681309 0.272966 0.0014838467 0.4604087
0.4422832 0.32880056 -0.12517403 0.3798312 -0.06091931 -0.061123602 0.1183378 0.3131734
-0.41503575 -0.22875373 0.2139258 -0.61469537 -0.56221193 0.29537672 -0.27207312 -0.20836839
0.49881932 0.29116094 0.19513427 0.40899575 -0.26451722 0.5253637 0.01606251 -0.009597432
0.114921615 0.45219818 -0.09522627 -0.2655692 -0.74607724 0.14281432 -0.42663714 0.9367432
-0.32191324 0.6044165 0.115771696 1.146952 -0.12633425 -0.10290711 0.053212836 -0.3561825
0.11842443 0.052851655 0.74159694 0.8663092 0.6037045 0.100720435 0.21927376 0.3018776
-0.9694269 0.10673391 0.6803055 -0.9205404 -1.4099017 -1.0972153 -1.12896 1.4309034
0.7584204 -1.2038673 1.8292704 -1.288349 1.9293125 -1.6402336 1.6222701 1.5387471
0.9433343 -1.5221816 0.31094536 1.0751114 1.5423712 0.8256123 -0.84966344 1.2550849
-1.2578614 1.1855625 -0.17861255 -1.3893135 1.2608027 -1.1330907 -0.93500614 -1.1406363
0.0035213558 -0.4622782 -0.17062335 -0.6868927 -0.48105747 -0.24251635 -0.553406 0.28506097
0.08428623 -0.5332824 0.257259 0.48853174 -0.16345692 0.033264432 -0.30056864 0.6667927
-0.44462314 -0.7179977 -0.51096195 -0.19783469 0.85588664 0.6944775 0.5541535 -0.539092
-0.20988756 0.01664154 -0.29787168 0.16876638 -0.022256361 0.6064224 0.46495205 -1.1754632
-0.21053086 0.19475089 -0.031206515 0.08533716 -0.054475203 -0.13029093 -0.38316756 0.20602377
-0.50174636 -0.5163526 0.2903406 -0.12460291 0.55716753 -0.12542982 0.23667364 0.3609891
-0.36012557 -0.4459079 0.42957664 -0.18629909 0.56903803 0.3140018 0.38788652 0.06189747
-0.55942345 0.213571 -0.22827028 0.25815794 0.3196732 0.5223695 0.049484 -0.2758852
0.69863063 0.186005 -0.38871107 1.1080421 -0.500433 0.13307683 0.3201597 -0.76757133
0.55503345 0.46742848 1.5088032 -0.5685612 -0.6412039 0.21140078 -0.53003174 0.75678647
-0.6721016 -0.07348985 0.08915336 0.9849206 -0.21237381 0.15665711 0.5186986 -0.81568485
0.4694997 0.9182358 0.95257145 -0.26776868 0.39014852 0.34169397 0.96497005 0.33940947
-1.0053734 1.1560651 0.22689365 -0.50722164 2.1221893 0.79463893 -0.62810636 0.4802663
-1.3336997 1.2593238 0.17373241 2.1386354 0.15995018 0.68829495 0.09469431 0.14876433
0.90034485 0.5083888 1.6099946 0.9632275 1.33251 1.4943883 -1.3928052 1.5777664
1.8095341 -1.7534312 -1.5843319 -0.33679882 -0.70863736 0.22274211 -0.59161395 -1.0506228
00000000: e5bb a6bf 6ff7 a5bf 8893 ad3f 5c6b d2bf
00000010: 3fe2 1e3e 8fcf bebf 93e1 e6bf 05f9 b23d
00000020: 39e9 adbf 3d96 bdbf f2c6 9ebe 3411 7c3f
00000030: 8fe4 783f 87e7 9cbf 4a89 df3f 3aa8 2ebf
00000040: 364b 903e a8ac 34bf a1bd b93f 1925 8dbf
00000050: ce81 f73f 51b6 1a3f c910 94bf 2bc8 5f3f
00000060: 7594 adbf 1708 adbf 8e0b d1bf 638a c03f
00000070: 684b 8bbf af0a 59bd b7ca 18bf 9244 cabf
00000080: 03e1 3abe 4505 fd3d 1cef 063f e865 83be
00000090: 6c8b 00bd 2842 54bf 105a 24bf 94cb 943e
000000a0: 6ac1 47be e023 d9bc 6248 4c3f 78de 513c
000000b0: daae ef3e 33c2 8b3e a27d c23a b0ba eb3e
000000c0: f272 e23e 8c58 a83e 9f2d 00be 3c79 c23e
000000d0: 8786 79bd be5c 7abd 175b f23d 4458 a03e
000000e0: 917f d4be 6b3e 6abe 5d0f 5b3e ad5c 1dbf
000000f0: 1fed 0fbf 9e3b 973e 2b4d 8bbe 865e 55be
00000100: 3f65 ff3e 0c13 953e 47d1 473e e467 d13e
00000110: cd6e 87be 3c7e 063f 8695 833c 8c3e 1dbc
00000120: 065c eb3d 8586 e73e fe05 c3bd b0f8 87be
00000130: ebfe 3ebf eb3d 123e 2f70 dabe 67ce 6f3f
00000140: d0d1 a4be 0abb 1a3f b619 ed3d 53cf 923f
00000150: c45d 01be f6c0 d2bd b4f5 593d 8d5d b6be
00000160: 8288 f23d fa7a 583d 4cd9 3d3f 71c6 5d3f
00000170: 618c 1a3f 8446 ce3d 4d89 603e b38f 9a3e
00000180: 5c2c 78bf 4f97 da3d 8028 2e3f 89a8 6bbf
00000190: a977 b4bf 8d71 8cbf c381 90bf d827 b73f
000001a0: d727 423f 5318 9abf 8825 ea3f 9fe8 a4bf
000001b0: b6f3 f63f 2df3 d1bf 8ca6 cf3f aaf5 c43f
000001c0: 5b7e 713f d9d6 c2bf 3b34 9f3e 409d 893f
000001d0: 6b6c c53f 545b 533f 8b83 59bf 9fa6 a03f
000001e0: 9a01 a1bf 83c0 973f 35e6 36be 06d5 b1bf
000001f0: fc61 a13f 1e09 91bf 905c 6fbf 5f00 92bf
00000200: 8cc6 663b baaf ecbe e3b7 2ebe 33d8 2fbf
00000210: 2a4d f6be 3556 78be 04ac 0dbf 83f3 913e
00000220: 429e ac3d 3285 08bf 74b7 833e d520 fa3e
00000230: 4061 27be 4940 083d 22e4 99be edb2 2a3f
00000240: a5a5 e3be b3ce 37bf 67ce 02bf 2d95 4abe
00000250: 631b 5b3f 47c9 313f 01dd 0d3f ef01 0abf
00000260: c4ec 56be d753 883c a382 98be 18d1 2c3e
00000270: f952 b6bc 803e 1b3f 320e ee3e 9475 96bf
00000280: 6795 57be c76c 473e cea4 ffbc 40c5 ae3d
00000290: 6421 5fbd fc6a 05be 8a2e c4be e5f7 523e
000002a0: 7372 00bf af2f 04bf 86a7 943e cf2f ffbd
000002b0: 88a2 0e3f ad70 00be 935a 723e 90d3 b83e
000002c0: 6162 b8be 0a4e e4be 78f1 db3e 30c5 3ebe
000002d0: 7aac 113f d8c4 a03e 1099 c63e 3488 7d3d
000002e0: 6036 0fbf 5bb2 5a3e afbf 69be 472d 843e
000002f0: 35ac a33e 02ba 053f bcaf 4a3d d340 8dbe
00000300: 75d9 323f 1878 3e3e 2305 c7be 53d4 8d3f
00000310: 611c 00bf 4b45 083e f9eb a33e 8e7f 44bf
00000320: ac16 0e3f c952 ef3e 7720 c13f 3a8d 11bf
00000330: f025 24bf 7279 583e 29b0 07bf c2bc 413f
00000340: da0e 2cbf d981 96bd 0996 b63d c223 7c3f
00000350: 8578 59be b96a 203e 6ec9 043f b9d0 50bf
00000360: 4462 f03e 8011 6b3f b9db 733f fa18 89be
00000370: 8cc1 c73e 83f2 ae3e 4708 773f 14c7 ad3e
00000380: 13b0 80bf f1f9 933f cf56 683e 47d9 01bf
00000390: f3d1 0740 756d 4b3f 94cb 20bf 77e5 f53e
000003a0: acb6 aabf 8631 a13f e9e6 313e 67df 0840
000003b0: fbc9 233e 1934 303f 17ef c13d ad55 183e
000003c0: 007d 663f c525 023f 4e14 ce3f 1496 763f
000003d0: b08f aa3f 1e48 bf3f 7147 b2bf 40f4 c93f
000003e0: d09e e73f 6f70 e0bf 63cb cabf e570 acbe
000003f0: 4269 35bf 8216 643e 0374 17bf cf7a 86bf

graph_prop.node_update_funcs.1.weight_hh f4 [48, 16]
-0.7752151 -1.0451089 -1.4051093 -0.20882964 1.3558788 -0.7348308 -1.4690218 1.7312949
-0.62412846 -1.3229493 -1.2703507 -1.4018332 0.48386237 1.7827858 -0.38078576 -1.069015
0.20746881 -0.4552754 0.038172774 0.18530655 0.33607122 -0.44786644 -0.020791568 -0.38072446
0.44311064 -0.047256585 -0.23289065 -0.21889901 -0.54209805 0.18055464 0.38376224 -0.23425265
-0.092252284 -0.16235389 -0.12503289 0.08777496 0.29349452 -0.35262194 -0.06533834 0.44716948
0.0638342 0.040183455 0.7147608 0.32205752 -0.15907912 0.25945297 0.12623352 -0.25852525
0.34477407 -0.58097553 -1.5176631 -1.3726038 0.64680773 -0.34166 -0.7503379 0.48119947
-0.10964516 -1.5852213 -0.88633144 -0.6993124 0.27184346 1.5008397 -0.998396 -0.22033356
0.13628174 0.16784632 -0.4213267 -0.737688 -0.0826255 0.7761482 -1.0171831 0.6859512
0.2699811 0.42517027 -0.53304267 -0.6622374 0.7063812 0.38097185 0.8766158 -0.16984689
0.4028905 0.09807864 -0.023728497 0.12840447 0.35129833 -0.15817091 0.06396669 0.53974545
0.20493716 -0.052643258 -0.14598419 -0.03086611 -0.2810515 0.10543594 0.40895808 -0.12000046
-0.29201788 0.100445986 0.5424981 0.92107695 -0.25811422 -0.3762006 -0.17158721 -0.037955303
-0.40067518 0.23334247 0.82430667 0.9037676 0.4833285 -1.1073618 0.33456877 0.3525858
0.80922246 -0.90301865 -0.5517012 0.8068409 0.48182565 0.3753454 -0.8130246 1.4690827
-0.05188961 -0.61148924 -0.7578323 -0.7741853 0.7045939 0.3095097 0.6995181 -0.1580334
-0.20798996 -0.44204494 0.59382033 -0.26020655 -0.13254157 0.25690454 0.055750564 -0.26365125
-0.34287772 0.31815666 0.19389091 0.39556882 -0.024995217 -0.21414043 -0.7508785 0.532475
-0.8903683 0.37407953 0.795256 0.24440512 -0.30638653 -0.09826419 0.6135161 0.06482472
-0.3703735 0.5621068 0.24953371 0.38680914 -0.0694312 0.3734686 0.6049943 0.9842766
-0.05551406 0.06727055 0.38774428 -0.6102614 -0.11698184 -0.99302524 1.558703 -0.13425596
-0.11576461 0.45226672 0.31777838 0.766001 -0.7144119 -0.11842363 0.20888686 0.7750811
0.17636593 0.7713755 -0.09522361 0.2632939 0.03137615 0.6911639 -0.25154614 0.549997
0.30970672 -0.31888 -0.63332 0.16564482 -0.89228255 -0.4435159 0.37878987 -0.09356289
-1.5276698 -0.61319643 -1.1824737 -1.8074422 1.3785584 -2.1921113 0.04074507 0.67480236
-0.11998649 -1.7950428 -1.1248982 -1.8322731 -0.035569794 0.30317122 -1.654473 -1.6778342
0.24651709 -0.57316756 -0.17723465 1.1573025 0.547404 0.52519476 -0.21163683 0.08423839
-0.9793403 -0.23772545 -2.079357 -0.19364077 -0.5716619 0.7262033 0.5349879 -0.84685826
1.5688487 1.9989109 -1.7647215 -0.0268896 0.9124733 -1.3868905 0.0038030983 0.9847742
-0.59457976 0.19584584 -1.2501953 0.5792053 1.0148847 -1.5700059 0.008099513 -0.2901287
-0.0113411 -0.04232579 -0.5819089 0.10271916 0.51601756 0.18952326 0.11852397 0.046924233
-0.6417286 -0.600618 0.15789545 -1.2247444 0.08528543 0.09853035 0.021978606 -0.680517
00000000: 7f74 46bf 21c6 85bf 9fda b3bf 70d7 55be
00000010: 708d ad3f df1d 3cbf e808 bcbf 129b dd3f
00000020: e2c6 1fbf 6756 a9bf da9a a2bf 456f b3bf
00000030: cfbc f73e 5332 e43f 5af6 c2be 7cd5 88bf
00000040: b472 543e db19 e9be 0e5b 1c3d 00c1 3d3e
00000050: 8711 ac3e c04e e5be 1453 aabc 51ee c2be
00000060: 66df e23e 1f90 41bd e37a 6ebe 1027 60be
00000070: f0c6 0abf 51e3 383e 7c7c c43e eddf 6fbe
00000080: c4ee bcbd 1940 26be 9f08 00be 5cc3 b33d
00000090: ea44 963e dd8a b4be 1cd0 85bd 66f3 e43e
000000a0: 81bb 823d 6897 243d 90fa 363f b9e4 a43e
000000b0: a3e5 22be 05d7 843e 5c43 013e 6c5d 84be
000000c0: 3a86 b03e d0ba 14bf c942 c2bf 7bb1 afbf
000000d0: 3195 253f 0fee aebe 2516 40bf c75f f63e
000000e0: a48d e0bd 88e8 cabf 9ee6 62bf 2306 33bf
000000f0: 112f 8b3e 841b c03f e196 7fbf 1f9f 61be
00000100: 718d 0b3e e8df 2b3e 22b8 d7be 1fd9 3cbf
00000110: 8f37 a9bd a6b1 463f 0e33 82bf 7f9a 2f3f
00000120: f63a 8a3e ebaf d93e 7c75 08bf 6488 29bf
00000130: 66d5 343f be0e c33e e569 603f 58ec 2dbe
00000140: aa47 ce3e 74dd c83d 4462 c2bc 767c 033e
00000150: 60dd b33e 8ef7 21be f800 833d c22c 0a3f
00000160: 0cdb 513e 75a0 57bd e17c 15be edda fcbc
00000170: fbe5 8fbe ccee d73d f462 d13e cdc2 f5bd
00000180: 5e83 95be a0b6 cd3d 28e1 0a3f b3cb 6b3f
00000190: 8c27 84be 5d9d c0be 8fb4 2fbe 0577 1bbd
000001a0: 4c25 cdbe 54f1 6e3e c305 533f 505d 673f
000001b0: d576 f73e 08be 8dbf 994c ab3e 2086 b43e
000001c0: 3429 4f3f 3b2c 67bf 4a3c 0dbf 208d 4e3f
000001d0: dab1 f63e 462d c03e 6122 50bf e70a bc3f
000001e0: 338a 54bd 8f8a 1cbf 4c01 42bf 0231 46bf
000001f0: 4460 343f 0e78 9e3e 9e13 333f 82d3 21be
00000200: 52fb 54be b753 e2be 9c04 183f cb39 85be
00000210: fab8 07be fe88 833e b45a 643d 4cfd 86be
00000220: ab8d afbe 6ee5 a23e 578b 463e ff87 ca3e
00000230: c5c2 ccbc a147 5bbe 9339 40bf 4850 083f
00000240: 2def 63bf 5a87 bf3e e695 4b3f 5645 7a3e
00000250: b2de 9cbe bc3e c9bd 640f 1d3f d3c2 843d
00000260: 98a1 bdbe 3be6 0f3f c485 7f3e d90b c63e
00000270: f231 8ebd 4737 bf3e e8e0 1a3f 8df9 7b3f
00000280: b662 63bd 24c5 893d 6b86 c63e 173a 1cbf
00000290: 2d94 efbd e736 7ebf 9483 c73f 657a 09be
000002a0: ff15 edbd 818f e73e d9b3 a23e a418 443f
000002b0: b3e3 36bf 1788 f2bd 70e6 553e b76b 463f
000002c0: 4599 343e dd78 453f 9904 c3bd 75ce 863e
000002d0: 4784 003d 1ef0 303f a8ca 80be 9acc 0c3f
000002e0: e191 9e3e 3d44 a3be 4221 22bf cc9e 293e
000002f0: a16c 64bf 8414 e3be bff0 c13e e79d bfbd
00000300: af8a c3bf 71fa 1cbf 4c5b 97bf 445a e7bf
00000310: 9a74 b03f 8d4b 0cc0 4de4 263d d9bf 2c3f
00000320: 7abb f5bd f6c3 e5bf aafc 8fbf ed87 eabf
00000330: a2b1 11bd 4239 9b3e c5c5 d3bf 45c3 d6bf
00000340: fa6e 7c3e 1cbb 12bf 007d 35be 7d22 943f
00000350: ab22 0c3f 2a73 063f 53b7 58be 2d85 ac3d
00000360: 0cb6 7abf 4d6e 73be 2f14 05c0 c449 46be
00000370: 6f58 12bf 76e8 393f f8f4 083f b4cb 58bf
00000380: 09d0 c83f 50dc ff3f 65e2 e1bf 9447 dcbc
00000390: da97 693f a185 b1bf 673d 793b 291a 7c3f
000003a0: 6136 18bf d08b 483e 6606 a0bf cc46 143f
000003b0: bee7 813f f4f5 c8bf d2b3 043c c08b 94be
000003c0: 05d0 39bc cf5d 2dbd fbf7 14bf 6c5e d23d
000003d0: ba19 043f 6312 423e b2bc f23d a033 403d
000003e0: 5348 24bf 1ac2 19bf 58af 213e 6dc4 9cbf
000003f0: 21aa ae3d 48ca c93d 7a0c b43c 5d36 2ebf

graph_prop.node_update_funcs.1.bias_ih f4 [48]
1.0668763 0.91586673 -2.7462537 2.2227623 -1.2507939 -0.091619544 -1.8564262 1.8531752
-0.061746806 -2.4467852 0.79007 -0.26166123 0.5689147 -0.9744711 -0.14743245 1.3565736
-0.4967699 -1.0473167 -0.3248119 -0.46650863 -0.87829435 -0.3765196 -1.7860738 -0.74044997
0.82457775 -1.3948001 -0.69559133 1.0874882 1.1444858 -0.1374151 -1.9526101 2.1541681
-1.09475 0.32300195 -1.3412586 -3.1118345 1.5298347 -0.205806 0.60550964 -0.2313606
1.8275168 0.08027562 -0.83800644 -1.393021 -2.7030044 0.9654074 0.4445208 -2.3373835
00000000: 678f 883f 3e76 6a3f 9fc2 2fc0 bd41 0e40
00000010: 041a a0bf 07a3 bbbd 609f edbf d834 ed3f
00000020: 38ea 7cbd 2198 1cc0 0742 4a3f 76f8 85be
00000030: 65a4 113f f076 79bf 88f8 16be 34a4 ad3f
00000040: a058 febe 790e 86bf bf4d a6be 38da eebe
00000050: e6d7 60bf 2dc7 c0be 119e e4bf 218e 3dbf
00000060: 8717 533f cf88 b2bf 4612 32bf d032 8b3f
00000070: 837e 923f 8bb6 0cbe 21ef f9bf e4dd 0940
00000080: c520 8cbf 8360 a53e 5dae abbf 4c28 47c0
00000090: a0d1 c33f cfbe 52be ae02 1b3f cbe9 6cbe
000000a0: 12ec e93f 8b67 a43d 9787 56bf 834e b2bf
000000b0: 06fe 2cc0 f024 773f 3b98 e33e b197 15c0

graph_prop.node_update_funcs.1.bias_hh f4 [48]
1.1882877 1.034926 0.46646377 1.9529047 -0.79588056 1.4776794 0.695428 -0.62281495
-1.3146138 -1.6209017 0.7247506 0.99937654 0.60131645 1.7526809 1.4072373 1.0614926
-1.1332719 -1.7339853 0.76527596 1.3657702 -3.0035572 0.8772545 -2.1976974 -2.0285306
-2.6888556 -1.532288 1.5408783 -0.05548009 2.525304 -0.6258594 -2.0699608 1.269231
-1.3191382 -0.78186804 -0.81440055 -2.6354885 0.9098437 1.3969858 0.27590454 2.698313
-0.039980613 1.238862 -0.24304245 -1.7368553 -2.354261 1.04543 -2.325941 -1.0733204
00000000: d019 983f 7578 843f 57d4 ee3e c8f8 f93f
00000010: d4be 4bbf 9924 bd3f 9207 323f cd70 1fbf
00000020: 4445 a8bf b579 cfbf 4189 393f 24d7 7f3f
00000030: e0ef 193f d957 e03f 5a20 b43f fdde 873f
00000040: 0e0f 91bf 3bf3 ddbf 20e9 433f 8fd1 ae3f
00000050: 483a 40c0 c093 603f 13a7 0cc0 72d3 01c0
00000060: 3616 2cc0 0322 c4bf 803b c53f 173f 63bd
00000070: 959e 2140 5238 20bf 3d7a 04c0 2976 a23f
00000080: 85d9 a8bf 8128 48bf 8e7c 50bf d8ab 28c0
00000090: 84eb 683f 6ed0 b23f 5c43 8d3e 29b1 2c40
000000a0: b6c2 23bd 0893 9e3f 1fe0 78be 4651 debf
000000b0: 36ac 16c0 a6d0 853f 38dc 14c0 9062 89bf
