housingpipeline/housingpipeline/dgmg/model.pth (torch, 293760 bytes, 42 tensors)

graph_embed.node_gating.0.weight f4 [1, 16]
000000 9c d1 93 3e ca 6c 12 3f 50 5f 66 3e b4 95 1e 3f
       0.28870857 0.5719725 0.22497296 0.6194718
000010 4a e3 d9 3b 3c 3c 93 3e 2f 01 f9 bc 31 4b d4 be
       0.0066494094 0.28756893 -0.030396072 -0.41463616
000020 db 27 a3 be 2b 98 02 3c bc 26 49 3e 7c 90 3f be
       -0.31866345 0.00797085 0.19643682 -0.1870746
000030 46 d7 fa bd 7b f5 c1 be 81 d4 23 3d 64 71 a5 3c
       -0.122480914 -0.378826 0.03999758 0.02019567

graph_embed.node_to_graph.weight f4 [32, 16]
000000 69 b4 ea 3d 31 e9 f5 3e 67 ba 3e 3e 85 6e 84 be
       0.11460192 0.48029473 0.18625794 -0.2586557
000010 39 3a bf be c8 18 2e 3d 06 90 5b 3e e0 1f 13 3f
       -0.37349108 0.042504102 0.2144166 0.5747051
000020 1b 34 17 3e 09 8d 80 be c1 54 09 3e 0b 99 dd bc
       0.1476597 -0.251076 0.13411237 -0.027050516
000030 f9 6b 90 3e 28 5d 2c 3e 2b 45 30 be f2 9f 9d 3d
       0.28207377 0.16832411 -0.17213885 0.07696523
000040 32 97 8b 3e eb 24 b5 3d 68 5b 56 be 5d b0 d2 bd
       0.2726379 0.08844932 -0.20933306 -0.10287545
000050 b4 86 4e 3e 1b 27 91 3d f8 c8 d3 bd b5 50 ca 3e
       0.20168573 0.07087537 -0.10341066 0.395147
000060 86 bb ce 3d 68 a9 61 3d a1 6a 1a 3e 18 75 0b be
       0.10094361 0.0550932 0.15079738 -0.13618886
000070 21 0d 10 be 0c ff e7 3e cf 29 42 3e c5 34 99 bd
       -0.14067508 0.45311773 0.18961261 -0.07480768
000080 8c 46 f9 3e da 45 3a be ce 9a d8 be 32 8a 17 3e
       0.48686635 -0.18190709 -0.42305607 0.14798811
000090 60 95 77 3e 3d ad 68 bd 59 a2 85 3e 2e ee 85 be
       0.24178076 -0.056805838 0.26100424 -0.2615828
0000a0 a9 83 45 3e 6c b4 5f 3e db 42 bf bd ee a2 6b 3e
       0.19288506 0.21846169 -0.093389235 0.23011371
0000b0 a5 86 d1 3d f7 43 a9 bc b0 7c 95 3e e6 c1 18 be
       0.102307595 -0.020662291 0.29196692 -0.14917716
0000c0 b5 53 a0 3e 90 e7 91 3d 74 b9 a0 3c 58 07 94 bd
       0.31313863 0.07124245 0.019619681 -0.07227963
0000d0 95 5a 9b bb 04 13 50 be 10 cf 4a bd 6b 51 7b 3e
       -0.004741023 -0.20319754 -0.049513876 0.24542777
0000e0 de 34 e1 3e 81 a5 b2 3e 2e 7c 36 3e c3 a8 ae bd
       0.43985647 0.34891894 0.17820808 -0.085282825
0000f0 8c ec 23 3e 9d 00 d8 be a4 f0 5b 3e d5 e6 04 be
       0.16008204 -0.42187968 0.21478516 -0.1297868
000100 42 de c6 be a5 a0 23 be 38 53 a8 bd 31 2c 65 be
       -0.38841444 -0.1597925 -0.08218998 -0.22380139
000110 c1 b5 1c 3e 28 e9 90 be 26 7f 9b be 29 35 e7 bd
       0.15303709 -0.28302884 -0.30370444 -0.11289436
000120 a0 43 4c 3e 6a 90 00 3e 18 83 f8 bd ae e4 7e be
       0.19947672 0.1255509 -0.12134379 -0.24891922
000130 19 24 c2 3c 8c f2 5f bd 64 7c 9b 3d b1 fb cf 3d
       0.023698853 -0.05467467 0.07592085 0.10155428
000140 89 51 a4 bd 60 75 3f be 3b dd f8 3c a2 dd 8d be
       -0.08023364 -0.18697119 0.030378928 -0.27708155
000150 77 a4 93 3d a0 e8 93 bd 7a 0d 24 3e 7d 6c 02 3e
       0.072091036 -0.07222104 0.16020766 0.12736697
000160 5d f5 01 bf 30 62 9e ba b9 83 03 3f 96 97 d1 bd
       -0.5076502 -0.0012083706 0.5137287 -0.10233991
000170 22 2e 88 be aa 6b 09 3e 70 b8 bf 3e 53 3e f0 bd
       -0.26597697 0.13419977 0.37445402 -0.117306374
000180 f8 cc ca be 45 8f 84 3b 74 66 98 be 3d f7 d7 3d
       -0.39609504 0.0040453994 -0.29765666 0.10545204
000190 19 cd 9d 3e 81 c1 ae bd d0 5e 75 3e 85 15 1e bd
       0.3082054 -0.08533002 0.2396195 -0.03859474
0001a0 59 43 41 3e 34 ca e0 3c 89 a2 b5 be ee 04 86 3e
       0.18873347 0.027440168 -0.35475567 0.26175636
0001b0 5c aa 5a be e8 19 c6 3d 4f 80 89 be 16 27 b7 be
       -0.2135405 0.0967291 -0.26855704 -0.35772008
0001c0 ec 1d 0f 3e 39 9a c8 bd fe 27 d5 bb d8 62 6f 3b
       0.13976258 -0.09795041 -0.0065050116 0.0036527421
0001d0 c8 84 cf 3e 69 fa 75 be fc 01 00 bc 78 6d 60 3e
       0.40530992 -0.24021305 -0.007812973 0.21916759
0001e0 c6 a8 8d be 53 b8 1c be 7d 3e a8 3e ba fe 1f 3e
       -0.27667826 -0.15304689 0.32860175 0.15624514
0001f0 c4 fd 8a 3c a5 78 e1 bc 5f a5 85 be 2f f7 07 be
       0.016966708 -0.027523348 -0.2610273 -0.13277887
000200 dd 0c 2f 3e 37 30 25 3e 2f 2f 4a 3e fc 66 13 3e
       0.1709475 0.16131674 0.19744562 0.14394754
000210 f9 5f 06 be af 0b ab bd 4d fb 50 3e f9 4b c9 bd
       -0.13122548 -0.08351838 0.20408364 -0.09828944
000220 c3 a5 d1 3e 18 99 94 3e 30 9a 9d 3e 89 81 4f 3d
       0.4094678 0.2902305 0.30781698 0.050660644
000230 13 38 3e be 2f 30 34 3e 2e 44 8f 3e 5d 9d d7 3c
       -0.18576078 0.17596506 0.27981704 0.026320154
000240 c2 32 b8 3d c1 57 ae 3e 09 7b 3a 3e ae 95 bf bd
       0.08994056 0.34051326 0.18210997 -0.09354721
000250 0b 4f d1 bc fe b6 a9 be c9 f2 f8 bd a2 95 6f 3c
       -0.025550386 -0.33147424 -0.121556826 0.014623078
000260 c5 c7 96 bd ba fe d7 be 9b a6 29 bd 26 1b 70 be
       -0.07362322 -0.42186528 -0.041418653 -0.23447856
000270 33 bd 8b be eb 38 96 3c 1b 64 e4 3c 5e d3 86 3d
       -0.27292785 0.018337687 0.027879765 0.06583284
000280 3f e6 67 bd c4 9e e2 3d 19 7e bc bd 22 9c 5e be
       -0.056616064 0.110654384 -0.09203739 -0.21739247
000290 a8 9f 17 be 49 e1 dd 3d 31 66 82 be 2b 33 00 3e
       -0.14806998 0.10833985 -0.2546859 0.12519519
0002a0 5d cd fa 3e 89 87 63 3e 6b ca dd 3c de 62 58 be
       0.48984805 0.22219671 0.02707406 -0.21131465
0002b0 78 26 d7 3d fe 16 ec bd af 15 cc be 5e b4 dd bd
       0.10505384 -0.11527823 -0.39860293 -0.10825418
0002c0 7f f2 3c be e3 5d f5 bc e6 35 07 3f 1b 6f 64 bd
       -0.1845188 -0.029951995 0.5281662 -0.05577002
0002d0 61 9a 14 3e ef b1 4e bb ca c6 f3 bd 47 e1 dc 3d
       0.14512016 -0.0031539162 -0.119031504 0.10785156
0002e0 f9 8b e6 bd b1 45 94 3d 5f be a1 be fe 9d 55 3d
       -0.112571664 0.07239855 -0.31590554 0.052152626
0002f0 b0 fa 94 bc 1f 14 65 bd d2 49 98 3e 50 fb 38 3e
       -0.018185943 -0.055927392 0.2974382 0.18064618
000300 59 18 a4 3e 90 c6 e9 3d 0e 50 06 3d db c7 af 3d
       0.32049826 0.11414826 0.03279119 0.08583041
000310 b6 ed 92 bd 57 61 f3 3d 40 e1 1d bd a1 73 b8 be
       -0.07174246 0.118838005 -0.038544893 -0.36025718
000320 fc d0 e7 3c 97 3f 7a 3e 50 5e 45 3e 0a d4 f2 bd
       0.028297894 0.2443832 0.19274259 -0.118568495
000330 80 59 2f be 4b e8 36 3d b1 ba b1 bd ac bb 15 be
       -0.17123985 0.044655126 -0.08678187 -0.14622372
000340 78 d9 80 3d 0e ea ec 3d 6e 0f 88 bd 18 67 45 bd
       0.06291479 0.1156808 -0.06643568 -0.04819402
000350 c8 b8 8b bc 06 25 44 3e b3 e0 58 3e 85 29 8f 3e
       -0.017055884 0.19154748 0.21179466 0.27961364
000360 2c 05 d0 3d c3 f8 4a 3c c5 4a c6 3d 3b 15 d5 bd
       0.101572365 0.012388411 0.0968223 -0.1040444
000370 2c c2 83 be 61 6c 40 3e 2d 7e f5 3d 23 33 a9 3d
       -0.2573408 0.18791343 0.11986957 0.08261707
000380 87 ed 7c 3d a5 87 4d 3e e3 20 3b 3e c1 97 8f 3e
       0.06174996 0.20071276 0.18274264 0.28045467
000390 a3 d2 8e bd f5 32 7c bd 80 72 d8 be 71 a6 2c bd
       -0.069737695 -0.061572034 -0.42274857 -0.04215092
0003a0 78 1e 79 be fd 4e 38 3e 41 d6 90 bc f9 a3 d0 bd
       -0.24328029 0.17998882 -0.01768029 -0.10187525
0003b0 81 b7 0e 3e a6 39 f6 bd ea 5c 4d be 51 bc b7 3e
       0.13937189 -0.12022714 -0.20054975 0.35885862
0003c0 eb 2d 88 3a ed 29 01 3e ed a7 76 3e 1c 8f 0b 3e
       0.0010389661 0.1261365 0.24087496 0.1362881
0003d0 8a 0b 39 bd 60 1b c9 3d 50 a1 9a bd 78 72 60 bd
       -0.04517702 0.098196745 -0.07550299 -0.054796666
0003e0 85 cb 28 be 03 37 46 3e 28 03 ce 3d 39 67 ae 3d
       -0.16483887 0.19356923 0.10059196 0.08515782
0003f0 3d 2d 0c be cf a1 84 3e 79 76 c5 3d e1 08 f1 3a
       -0.13689132 0.259047 0.096417375 0.0018389487

graph_embed.node_to_graph.bias f4 [32]
000000 0e d4 07 40 fc 9a 8e be d0 43 eb 3e 85 8b c7 3c
       2.1223178 -0.2785262 0.45950174 0.02435852
000010 63 11 7b be f6 42 18 3f 4d 57 96 bf 84 72 92 3f
       -0.24518351 0.59477174 -1.1745392 1.1441197
000020 cb 68 7f bf 88 ee 43 3e c5 ab 87 be 22 a3 92 bf
       -0.99769276 0.19133961 -0.26498237 -1.1456034
000030 bd 76 86 bf 59 cd 98 bf 7b 5a be 3e 80 96 ed 3e
       -1.0504986 -1.1937667 0.37178406 0.46403885
000040 fd cf 95 be 19 a4 3b bf c5 23 92 3e 3e e0 1f 3f
       -0.29260245 -0.7329727 0.28542915 0.6245154
000050 63 7e 7e bf a4 c8 d4 bf 9d 2a df bd 8a c4 91 be
       -0.994116 -1.6623731 -0.108968 -0.2847026
000060 95 ae 0b bf 85 c8 80 3e b4 ef c8 3e 9c ba ed 3e
       -0.54563266 0.25152984 0.3924538 0.46431434
000070 55 63 65 3e 7d 28 83 be db 6b 79 3f ab 8c 03 40
       0.22401173 -0.25616828 0.974302 2.0554607

graph_prop.message_funcs.0.weight f4 [32, 34]
000000 7b 55 e8 bd f9 a9 06 3e d5 0b 9b 3d 2d b0 83 bd
       -0.11344429 0.13150777 0.07570616 -0.06430087
000010 c0 b5 f2 3d d9 38 66 bc 41 eb eb 3d 7b 7a 2f 3e
       0.11851072 -0.0140516395 0.115194805 0.17136566
000020 87 4c 01 be 5a e6 b6 3d 16 21 71 bd 2f 71 60 3d
       -0.12626849 0.08930655 -0.058869444 0.05479544
000030 78 b7 84 bd 2e 73 b1 bc dc 56 43 be 23 8b b5 bd
       -0.064803064 -0.021661367 -0.19076103 -0.08864429
000040 b1 ac 18 3d f9 9c 7e bd 94 e2 bf 3c 5d ae 86 bd
       0.037274066 -0.06216142 0.02342347 -0.06576226
000050 f6 b2 14 bb 3b 44 e4 bc cf 24 2b be b6 98 bb 3d
       -0.0022689677 -0.027864566 -0.1671326 0.09159987
000060 b7 48 f4 bd 8d 0f a0 3b dc d2 61 3d f4 fa e0 3c
       -0.11927932 0.0048846663 0.05513273 0.027463414
000070 16 f9 8f ba 5e 75 8a bd 45 60 13 bd f7 d6 17 3e
       -0.0010984268 -0.06760667 -0.03598048 0.14828096
000080 d6 02 18 3d e0 2f dc 3d 8e 26 60 be 95 25 40 bd
       0.03711208 0.10751319 -0.21889707 -0.04691084
000090 cc da 81 3d 86 ab e1 ba ca 88 8c 3d 25 50 1a 3e
       0.0634056 -0.0017217256 0.06862028 0.15069635
0000a0 03 b2 1a 3e 39 81 23 3e 15 f9 b3 bd 0f c9 0d be
       0.15106969 0.15967263 -0.08787743 -0.13846229
0000b0 c1 a5 0b 3e fe 71 d9 3c c4 e0 c0 bd 23 2f 3b bd
       0.13637449 0.026543614 -0.09417871 -0.04569925
0000c0 12 9e 57 3c 24 94 7f bd 9b e3 64 bd 2b 91 8c bd
       0.0131602455 -0.062397137 -0.055881124 -0.06863626
0000d0 84 f7 05 be c8 be 34 be d8 c1 af bc 21 8e 90 3d
       -0.13082701 -0.17650902 -0.021454737 0.07058359
0000e0 2f 12 2c 3d 77 21 85 3c 98 86 57 bd 00 9c 77 3d
       0.04200953 0.016251309 -0.052618593 0.060451508
0000f0 01 d3 eb bd 83 89 d3 bc fd c7 41 be 6e 54 59 bd
       -0.11514855 -0.025822407 -0.18923946 -0.053059034
000100 b2 3c 24 be 48 2e 46 be c8 f8 3e bd 10 b6 60 3d
       -0.16038778 -0.19353592 -0.046623975 0.05486113
000110 09 68 e6 bc 4d fe 1a 3d cd c9 14 be 24 3f 80 bd
       -0.02812578 0.037840176 -0.14530106 -0.06262043
000120 c5 bd 1d 3d 90 1d 75 3d 25 9e 8c bd 62 f9 76 3d
       0.038511056 0.059842646 -0.06866101 0.060296424
000130 43 16 3f 3c 3b 4d 47 bd 97 75 13 3d ab 8c f9 3c
       0.011663022 -0.048657637 0.036000814 0.030462584
000140 e1 47 f0 bd 35 9c 9e 3d 2c 5a 13 be ec f8 c7 bc
       -0.1173246 0.07744638 -0.14389867 -0.024410687
000150 c6 04 83 be 48 77 f8 bd 27 b7 2d be d6 18 96 3d
       -0.2558958 -0.12132126 -0.16964398 0.07328956
000160 09 6c d0 3d 48 2c 49 3d 1f dc 0c 3e c8 c7 5e bd
       0.10176856 0.049114496 0.13755845 -0.054389745
000170 bc f5 da 3d b4 f1 84 3c 14 23 85 bd ce 63 aa 3d
       0.10691401 0.016228534 -0.06500831 0.083198175
000180 58 1e bc bd 74 90 8f 3d 40 94 ef 3a a7 50 74 bd
       -0.09185475 0.07009974 0.0018278435 -0.05964723
000190 c9 97 5f 3d 2e eb 2b be 8a 20 0e 3e 6a b5 88 bc
       0.054588113 -0.16788933 0.138796 -0.016688067
0001a0 e8 b1 8d 3e 23 ff d2 bd 06 81 0b 3e d0 ca d6 3c
       0.27674794 -0.1030257 0.13623437 0.026219755
0001b0 51 82 60 bd b3 57 85 bc 1d 4b 88 bd 75 22 1d 3d
       -0.05481178 -0.01627717 -0.06654952 0.03836294
0001c0 90 57 06 3e 78 0a db 3d d7 68 29 3c 0e 09 4e 3c
       0.1311934 0.10695356 0.010339937 0.012575401
0001d0 ee f2 cf 3d d6 15 09 be eb 42 5c be 8f 8e 30 bd
       0.10153757 -0.13387236 -0.21509902 -0.043104704
0001e0 55 00 9b bd 5c 5f 4c be 4f 4d 7e bc 3a 54 84 3d
       -0.07568423 -0.19958252 -0.0155213615 0.064613774
0001f0 62 e1 75 3d dc 7f c6 3d 1d 12 d0 bd 4e eb 38 3e
       0.060029395 0.09692356 -0.10159705 0.18058512
000200 4f 6d 90 bd 91 a8 94 be 58 26 64 be 5a 3f 82 3c
       -0.07052099 -0.29034856 -0.22280252 0.015899349
000210 8b a7 99 bd 16 dd 35 3d 2d ae fa 3c 43 61 91 bd
       -0.075026594 0.044400297 0.030600632 -0.07098629
000220 f7 79 29 3b 0f ae 13 bd 06 e8 51 3c 4b 8c 53 be
       0.002586005 -0.036054667 0.012811666 -0.20658986
000230 4d f8 8f bd de ff e3 3d ab c1 a1 3d 0d 01 b1 bd
       -0.070297815 0.11132787 0.07898267 -0.086427785
000240 89 fb 6d 3c 51 46 0d be 4d 36 81 bd 1a ed 19 3c
       0.014525303 -0.13796355 -0.06309185 0.009394908
000250 91 86 1f 3e 7c 8f 61 3e 59 41 7a bc 2f c2 4e bd
       0.15578677 0.22027391 -0.015274369 -0.050478157
000260 fd 80 81 bd 84 83 0f 3c 59 18 76 bc 5a ca 77 ba
       -0.06323431 0.008759383 -0.015020453 -0.0009452455
000270 a4 df a2 3d bb 23 06 bd 6e 2c 5c 3c 68 27 00 3d
       0.07952812 -0.03274892 0.013438327 0.03128758
000280 fc 4f 59 bd a8 2a 3c 3e 9d d1 23 3d ab da d8 bd
       -0.053054795 0.18375647 0.039994825 -0.105885826
000290 ab 82 3a be 8c b9 80 bd 90 ef b2 bb 94 dc 1e 3c
       -0.18213908 -0.0628539 -0.005460687 0.009696145
0002a0 9a d2 89 3e 20 9c ea bd 62 61 29 3e c2 f6 27 3e
       0.2691849 -0.1145556 0.16541055 0.16402724
0002b0 fa 5c fe bd 61 21 7a 3d 5d e9 f8 bd 14 17 f2 bd
       -0.124200776 0.06106699 -0.121538855 -0.11820808
0002c0 d2 d7 86 bd 95 7e 18 3e 93 f6 1f bd 42 67 19 3e
       -0.06584133 0.14892037 -0.03905351 0.14980796
0002d0 e5 0f 33 3d 00 87 92 3d c8 1d 53 bd af ea 0d bc
       0.04371633 0.071546555 -0.051542073 -0.00866191
0002e0 d5 b9 07 3e e2 49 ae 3d be bc 0d be dd e3 cc 3c
       0.13254483 0.08510186 -0.1384153 0.025010997
0002f0 f5 67 fc bc 6d 4a 54 bd 33 8c 6b bd 2c cf b4 3b
       -0.03081129 -0.05182879 -0.05750675 0.005517861
000300 a7 00 ef bc 77 84 d2 bc 4a 61 34 bd 3a e0 e7 bc
       -0.029175116 -0.02569793 -0.044038095 -0.028305162
000310 f5 47 b8 bd a8 0d 13 3c c3 88 2b 3e 71 d2 04 3e
       -0.089981 0.008975424 0.16751389 0.12970902
000320 db b4 ae bc 67 22 86 3d e3 d7 7e bc a0 ff a0 bd
       -0.021326473 0.065495305 -0.015554401 -0.078612566
000330 4a c7 92 3c 44 a1 10 3d a9 52 49 bc 69 02 58 bc
       0.017917294 0.035310045 -0.012287774 -0.013184168
000340 3c 07 8a bc b4 f5 df bc 27 05 0d 3e e9 41 1d 3e
       -0.016849153 -0.02733884 0.13771497 0.15357174
000350 21 d1 1d be 8c 75 7d bd 1e 42 b9 3d 62 ad 99 3d
       -0.15411808 -0.06187968 0.09045814 0.07503773
000360 46 7b 72 be dd a4 65 bc 73 43 97 3c 5f 8e 69 bb
       -0.23679838 -0.014016357 0.01846478 -0.0035637838
000370 14 d1 07 3e a4 a0 fd bc 47 90 16 3d ec 44 b4 3d
       0.1326335 -0.030960388 0.036758687 0.08802208
000380 f2 08 a6 bd d5 ce c2 bd dd 4c 33 be f1 42 d8 3d
       -0.08107175 -0.09512106 -0.1750979 0.10559643
000390 9c 8c 85 bc 22 93 a0 3c 4e 69 a2 3c 86 a9 17 bd
       -0.0163024 0.019601408 0.019825604 -0.037026905
0003a0 ef d6 4d 3d e4 b6 a0 bc a8 ab 48 3d fd 41 b0 3d
       0.050253805 -0.019618459 0.04899183 0.08606336
0003b0 cd 80 37 3e 9b 8a 51 3d b5 3a 2c 3b 1a 30 a2 bd
       0.17920227 0.051157575 0.002628011 -0.07919331
0003c0 e0 d6 fa bd 4c 14 f3 3b 83 ea 5d bd cd 18 84 3e
       -0.122480154 0.007418191 -0.054178726 0.25800171
0003d0 67 76 93 3d 42 1f 51 bd 27 19 ba bc bc fb 23 be
       0.07200318 -0.0510552 -0.022717072 -0.16013998
0003e0 e7 b8 7d 3c 39 70 3c 3e 94 ae e6 bc 1b 5a 2e 3b
       0.015485979 0.18402185 -0.028159417 0.0026604
0003f0 7b 1f c7 3d 66 2c 48 be fd ad 37 3d 5e fe ff 3d
       0.09722801 -0.19548187 0.044843663 0.124996886

graph_prop.message_funcs.0.bias f4 [32]
000000 bf 10 8f bd 6c 8a 7d 3d 9c 3a 96 3c 5d 49 8c 3d
       -0.06985616 0.061899588 0.018338494 0.068499304
000010 74 fa 4d bd 5a dc af bd e1 2a 49 3b b2 68 2b be
       -0.05028768 -0.085869506 0.0030695724 -0.16739157
000020 c2 71 65 3d 2c 61 7e bd 9a 8c eb bd 55 33 40 3d
       0.05601669 -0.06210439 -0.11501427 0.046923954
000030 ea da 20 3e d9 82 d3 bd 31 7b 9a bd 02 74 91 bc
       0.15708509 -0.103276916 -0.07543028 -0.017755512
000040 b3 a5 14 3e bc f3 c0 3d f4 ef 70 bc b9 98 23 3d
       0.14516334 0.09421489 -0.014705647 0.03994057
000050 cf a6 0a 3e d4 93 bc 3d 5f e2 79 3d 42 20 9d 3c
       0.13540195 0.092078835 0.0610069 0.01918042
000060 79 e1 33 3e 2c b6 c5 3c d3 2e af 3c b4 a7 19 3d
       0.1756648 0.024134718 0.021384632 0.03751345
000070 73 52 ad 3e f6 aa 29 be 34 b6 4f 3e 5d ea f5 bb
       0.33851966 -0.16569123 0.20284349 -0.007504745

graph_prop.message_funcs.1.weight f4 [32, 34]
000000 a8 50 03 be f3 72 bc bc 0f be 21 3e b5 e5 33 3e
       -0.12823737 -0.02300403 0.15795158 0.17568095
000010 d5 66 6c be d3 8e 6f bc e3 ea 14 3c 35 62 b9 bd
       -0.23086102 -0.014621454 0.0090892045 -0.09051935
000020 58 ef 26 be 73 2a 1e be a4 e9 72 3c 7c dd 00 3e
       -0.1630224 -0.1544588 0.014826212 0.1258449
000030 98 85 dd 3d 05 89 47 3e 68 bf 03 be 8d 71 fa 3d
       0.108164966 0.19485863 -0.12865984 0.12228689
000040 8d 1b 61 3e 84 13 a4 bd d3 b4 b0 3d 63 a4 10 3e
       0.21983166 -0.08011535 0.086282395 0.14125209
000050 09 2d ce 3d 91 f4 9b bd 5e f9 e1 3d 05 b8 ec 3c
       0.100671835 -0.07615007 0.11033891 0.028896341
000060 86 82 29 bd 1e eb 53 bd 7d 7f 15 3e c7 27 a6 3d
       -0.041384242 -0.051737897 0.14599414 0.08113056
000070 55 24 b1 bd 00 23 f3 bb c3 5e 35 3e 7f 68 b6 3d
       -0.08649508 -0.007419944 0.1771193 0.0890665
000080 f6 b4 85 bd 69 05 3f 3d e4 2c e6 3d 2a 68 c1 3d
       -0.06528656 0.04663602 0.11239031 0.09443696
000090 84 93 a2 3b 88 04 cc 3d 7a 4b b7 bd 1b 00 10 bd
       0.004961433 0.09961802 -0.08949943 -0.03515635
0000a0 f7 1c fa bb 72 08 93 bd b9 86 9f 3c 6e 26 fb bd
       -0.0076328474 -0.07179345 0.01947342 -0.12263189
0000b0 32 36 58 3d d5 35 26 bd bf 15 4d 3c b2 6e 03 bd
       0.05278606 -0.040578682 0.012517392 -0.03208799
0000c0 65 6c 26 3b 08 04 53 bc a7 82 a6 bd 21 8e dd 3c
       0.0025394198 -0.012879379 -0.08130389 0.027045311
0000d0 2a 1b 10 bd 8a 86 76 ba b6 16 77 bd a3 3f d8 3d
       -0.035182156 -0.0009404203 -0.060324393 0.10559013
0000e0 ec f8 46 bd f7 70 14 bd 11 b4 34 be e4 37 71 3d
       -0.048577234 -0.036240544 -0.17646815 0.058891192
0000f0 2d 9d 0c bd f7 70 a1 bd b9 1f 56 bd 70 9a 9b bd
       -0.034329582 -0.078828745 -0.052276347 -0.07597816
000100 ff 2d dd 3c 61 89 cc bc 94 2c f4 bd ca 8c 15 bd
       0.026999472 -0.024967851 -0.11922565 -0.03651122
000110 a3 ef cb bd de 7b 6f bc 2e 21 b8 bd 90 d2 0f be
       -0.099578165 -0.014616935 -0.089907035 -0.14045167
000120 5b 91 55 be 7e 12 54 bd 01 17 e4 bd c0 a7 b7 3c
       -0.2085623 -0.051775448 -0.111372 0.022418857
000130 80 5c c5 3d 76 ec 82 3c 04 b8 8e bd cf e2 4a 3d
       0.096367836 0.015981894 -0.06968692 0.049532708
000140 3c 5d 91 bd a9 ab 86 3e d0 55 84 bd 68 d9 b0 bd
       -0.07097861 0.2630284 -0.0646168 -0.08635217
000150 8a c3 c7 bd 78 68 e4 bd b0 70 c9 bd 17 09 b1 bc
       -0.09754093 -0.11152738 -0.098359466 -0.02161078
000160 bc 22 c9 3d 52 cd 72 bb 6d b5 8d 3d 5a 13 a2 3d
       0.09821078 -0.003704865 0.0691937 0.07913847
000170 64 1b a1 3d 22 ea f1 bd f7 60 bf 3d 7c 20 9d 3d
       0.078665525 -0.118122354 0.093446665 0.076722115
000180 c8 41 e9 3c bb d9 41 be c8 cf 4e 3b 6e 00 2a bd
       0.02847375 -0.18930714 0.0031556953 -0.041504316
000190 0c bf 10 3c f0 da 02 3e 93 03 24 be fb 95 ca bd
       0.008834612 0.1277883 -0.16016988 -0.09891888
0001a0 32 23 ad bd 1a 7b 60 bd 10 71 c4 bd 55 53 0c be
       -0.084539786 -0.0548049 -0.095918775 -0.13703664
0001b0 8b 01 44 3e 32 3b d7 bd bb d8 6a bd 25 96 7e bd
       0.19141214 -0.105093375 -0.057335597 -0.062154908
0001c0 77 d2 b9 3d 8f e1 f3 3c d2 39 c2 bd 48 f0 a8 3d
       0.09073346 0.02977064 -0.094836846 0.08248955
0001d0 57 06 8b 3d dd 23 ea 3d ce 73 92 bd 5c a8 84 3d
       0.067883186 0.11432622 -0.07150994 0.064774245
0001e0 d9 e7 12 be bd 8f 4f bd e2 99 a5 3d cd 21 1e 3e
       -0.14346255 -0.05067419 0.080859914 0.15442581
0001f0 6b 63 06 3e 7a 87 96 bd 89 dd 2e 3d d8 82 3a 3d
       0.13123862 -0.07350059 0.04269174 0.04553494
000200 b6 b0 ef bd 72 2c 52 be 31 ea 02 be 66 fa fd 3d
       -0.11703627 -0.20524767 -0.1278465 0.12401275
000210 ae 6c 0e be be 39 62 bd 3e 5a 8a bd 41 1b 32 3d
       -0.13908646 -0.05523085 -0.067554936 0.043483023
000220 01 e9 73 3e 04 6c 9b bd e6 f9 3e be f1 20 9e bd
       0.23819353 -0.07588962 -0.18650016 -0.07721127
000230 e2 b9 b6 3b c1 67 28 3e d7 82 0e 3e ec 83 39 3d
       0.005576358 0.16445829 0.13917099 0.045291826
000240 aa 6e ee bd 3b 38 90 3d 97 a5 0d bd 98 c6 cf 3c
       -0.11642201 0.07041975 -0.034581747 0.025363252
000250 d5 9c e8 3c 36 e8 50 3d 1b c4 41 be 6a ae 73 bd
       0.028395096 0.051002704 -0.18922465 -0.059492506
000260 b4 f9 07 bd 4c 25 8c bd 75 20 fe 3d 8d b6 e9 3d
       -0.03319712 -0.06843051 0.124085344 0.11411772
000270 af b8 66 3e 48 c9 14 3d c9 b7 4b bd 33 42 a1 bc
       0.22531389 0.03632477 -0.049735818 -0.019684887
000280 46 2a 29 3e 52 19 1e 3d 3a d6 82 bc 83 b8 f1 3d
       0.16520032 0.038598366 -0.015971292 0.11802771
000290 26 87 f9 bd 28 25 81 bd 6e 70 9f bc 5c 31 04 be
       -0.12183981 -0.06305915 -0.01946279 -0.12909454
0002a0 7e fa 94 bc 29 7f d6 3d 84 9d 7e 3d c9 29 ba 3d
       -0.01818585 0.104734726 0.062161937 0.09090001
0002b0 07 e2 d4 bb 01 da b1 bd 87 cc 17 be ba 98 a6 bd
       -0.006496671 -0.08684159 -0.14824115 -0.08134599
0002c0 94 72 8a bd f5 f9 e6 3d 8c c9 9b bd 70 ee 03 be
       -0.06760135 0.11278144 -0.076068014 -0.12883925
0002d0 ba 3a 94 bd 32 3d de 3d 46 ed 12 3e b7 73 3c be
       -0.07237764 0.10851516 0.14348325 -0.18403517
0002e0 44 7b c5 3d 18 6b c2 bd 9d 91 ec 3c 04 64 0f 3e
       0.09642652 -0.09493083 0.028878028 0.14002997
0002f0 f2 85 d2 3c 7c bf fe 3d 4b 60 14 3e 85 10 8f 3d
       0.025698636 0.124388665 0.14489858 0.06985573
000300 13 51 53 bd e4 05 de 3c 10 c4 d7 3c 13 b3 09 3d
       -0.05159099 0.027102418 0.026338607 0.033618044
000310 89 92 21 3d 0e d8 ae bc 32 ca cf 3b 69 16 86 3d
       0.039446387 -0.021343257 0.006341242 0.06547243
000320 c4 cc df bd a7 14 1d bd 03 b2 42 3d ac d8 ec 3d
       -0.10927728 -0.038349774 0.047533046 0.115647644
000330 9d 3f ea 3d f1 01 f2 3c 62 ac a3 3d ac de 1e 3c
       0.114379145 0.029541941 0.07991864 0.009696644
000340 3a bc 8d bd 24 cf 71 3d 31 c5 aa 3c 78 d8 88 3c
       -0.06920667 0.059035435 0.020845981 0.016704783
000350 7e e8 fd 3c 69 5e 22 bd 0e 13 87 bd 2f 01 75 bd
       0.03099465 -0.039640818 -0.06595431 -0.059815582
000360 fe 45 94 bd 97 d5 6a 3d d7 60 b7 bd 34 be 7d 3e
       -0.072399125 0.0573326 -0.089540176 0.24779588
000370 86 30 a0 3c 08 25 b7 3d 90 50 0f 3d d5 23 b4 bc
       0.019554388 0.0894261 0.03498894 -0.021989742
000380 3c 29 2b bb b0 d9 78 bd 05 38 50 be cd 28 15 bd
       -0.0026117107 -0.060754478 -0.2033387 -0.036415864
000390 c4 20 d0 bc 61 ef 9b bd bc 33 20 be d5 cb df bc
       -0.025406249 -0.07614017 -0.15644735 -0.027318874
0003a0 e2 f8 7a 3d 12 55 e5 bc ac fc 03 be 4b 47 14 3e
       0.06127251 -0.027994666 -0.12889355 0.14480321
0003b0 f7 6d f7 3d 78 b5 b6 3d 69 85 c3 3b ba 45 05 be
       0.12081521 0.08921331 0.0059668315 -0.1301488
0003c0 aa 59 ea 3d 2c 3c ee 3c 6a 48 b0 3d b7 04 9d bd
       0.11442883 0.029081427 0.08607562 -0.07666915
0003d0 0a 75 c5 3c 55 19 b3 3d b0 04 13 be c8 1d 53 3c
       0.02410366 0.08745066 -0.14357257 0.012885518
0003e0 92 94 62 3d 79 97 63 bd 67 4d 1a 3e d3 1c db bc
       0.05531747 -0.055564377 0.15068589 -0.026747143
0003f0 62 4b 70 3c ee bd 5e 3c 07 7d 7d 3d 54 a7 a0 bd
       0.01466641 0.013595087 0.061886813 -0.07844415

graph_prop.message_funcs.1.bias f4 [32]
000000 9d 39 20 be 76 d6 ec bd a8 13 97 3c 1a 27 90 bd
       -0.15646978 -0.11564343 0.01844199 -0.07038708
000010 5f fa e2 bd b8 74 81 3d 69 a7 b6 bd d4 12 15 3d
       -0.11082911 0.063210905 -0.0891865 0.03639491
000020 27 61 d0 bd 81 b4 90 ba ef ba 78 bd f6 84 d2 bc
       -0.1017478 -0.0011040122 -0.06072515 -0.025698166
000030 b1 65 19 3c bc 3d 10 3d a7 1b ce bd de 70 17 bd
       0.009362624 0.035215124 -0.10063868 -0.036972873
000040 fa 65 9b 3d 02 11 71 3d 09 bc 26 be 75 41 ac bd
       0.0758781 0.05885411 -0.16282667 -0.084109224
000050 7b d2 9f bd 69 5a 5b 3c 0b e4 72 bd 45 6c 84 bc
       -0.07803818 0.013388255 -0.05929951 -0.016164908
000060 5d a5 54 3e 4e 92 0e be d6 ce 2d be 38 65 c7 3d
       0.20766206 -0.13922998 -0.16973433 0.09736103
000070 fc 87 0b 3e 12 ae 66 3e 84 1c 84 3c dd 7a ae 3d
       0.13626093 0.2252734 0.016126879 0.08519528

graph_prop.node_update_funcs.0.weight_ih f4 [48, 32]
000000 4b a6 f0 bc 02 8f 67 3e e9 33 c7 bd ea f3 a0 bd
       -0.02937617 0.22613147 -0.09726698 -0.07859023
000010 38 88 6c be 24 95 55 be 18 ad 7d bb e8 6a 18 be
       -0.23098838 -0.20857674 -0.0038707908 -0.14884531
000020 06 bc 80 be 94 fd 6a bd ea bd 73 be 1a 95 92 be
       -0.2514345 -0.057370737 -0.23802915 -0.2862938
000030 cb 3b bc bc 2f 34 7f bd c2 21 37 3d 7b 9b df 3d
       -0.02297773 -0.062305626 0.04470993 0.109183274
000040 66 1d f1 bb dd 19 00 bd c8 ad 06 bd ac 42 09 be
       -0.007358241 -0.031274665 -0.032880574 -0.1340434
000050 a5 a0 c8 bd 04 c3 f4 3d 8e 7b 28 be 2c aa ca 3e
       -0.097962655 0.11951259 -0.16453382 0.39582956
000060 ef b2 3b 3c ae 73 2f 3d a7 4f b5 bd 0e 36 b8 3d
       0.011456235 0.04283493 -0.08853083 0.08994685
000070 d0 45 d9 bd 0e de 13 3c 5a 57 dd bb 1f 82 31 3e
       -0.10609019 0.00902511 -0.006754798 0.17334794
000080 7b 92 9e 3e 14 31 05 bd 5a 9f 4d 3c 0c 8d 5c 3e
       0.3097113 -0.032517508 0.012550199 0.2153818
000090 98 d8 a4 bd 26 91 a2 bd 14 44 83 bd 66 98 8f 3d
       -0.080491245 -0.07937841 -0.06409469 0.070114896
0000a0 ce 63 09 3e a4 4c 7a bd 3c 6d 20 3e c3 b3 47 3e
       0.13416979 -0.061108246 0.1566667 0.19502167
0000b0 6e a6 4d 3e 06 88 5a 3e af 4d f9 bd a9 44 67 3c
       0.20083019 0.21340951 -0.1217302 0.014115491
0000c0 6c 12 3e bc 37 cc 21 be e5 7c c4 3d cd 80 a5 bd
       -0.011601072 -0.15800558 0.09594134 -0.080812074
0000d0 ae 51 3c 3e f6 01 44 3d 36 0a 42 3e ea 73 85 3e
       0.18390533 0.047853433 0.18949208 0.26064998
0000e0 88 21 30 be cb 74 61 3d 5a e5 60 3e 77 ee 98 3d
       -0.17200291 0.055043023 0.2196249 0.074673586
0000f0 46 c7 22 3e 58 c8 b8 bd 3d b1 6c 3d 7d 67 26 be
       0.1589633 -0.090225875 0.057786215 -0.16250415
000100 2e 8d a5 3d 2d 32 14 bd f3 8e 21 3b 03 96 36 3e
       0.080835685 -0.036180664 0.0024651855 0.17830662
000110 e5 ba a9 bd 5b 84 ba 3d 09 81 df 3c e3 17 84 be
       -0.082876004 0.09107276 0.027283208 -0.25799474
000120 6a c2 a2 be a2 d0 82 3d cd 5d 5e bd 0b ff 49 bd
       -0.3178895 0.0638745 -0.054288674 -0.049315494
000130 cb ca 1e 3e 0f f0 a8 3c 9a b0 1d 3e 3e 13 6f be
       0.15507047 0.020622281 0.153994 -0.23347184
000140 f0 69 52 bb f4 87 87 be f2 d1 af 3c 3f 3f 20 3d
       -0.00321066 -0.26470912 0.021462414 0.039122816
000150 ae dd ac 3c 80 7f 2b bc ff 80 5a 3d 2a 09 bd bd
       0.021101799 -0.01046741 0.053345677 -0.092302635
000160 5a 64 42 3d 1f eb 8e bd e6 cc a5 be 83 c8 e2 3d
       0.047458984 -0.069784395 -0.32382888 0.11073401
000170 04 16 83 3d 4f bc 25 bd 7a ef 98 3d cf 4d 27 be
       0.064006835 -0.04046279 0.074675515 -0.16338275
000180 bb 08 be 3c 41 f5 af 3d 06 08 f0 3d 8c 38 0a 3e
       0.023197522 0.085917 0.1172028 0.13498133
000190 0b c6 b6 be 6c ff 0d bd 30 d6 07 be 18 16 7d 3e
       -0.3569797 -0.034667417 -0.132653 0.2471546
0001a0 7f 4e 88 bd 20 4f 0a bd eb 2f f5 3d ec 33 1e be
       -0.06655597 -0.033766866 0.1197203 -0.15449494
0001b0 ac 08 20 be 01 02 1d 3d 3d 78 cd 3d 64 6f 42 be
       -0.15628308 0.03833199 0.10032699 -0.18987805
0001c0 82 10 e4 3d 6e 45 69 bd 43 cc 2b be a4 fd b7 38
       0.11135961 -0.05695098 -0.16777138 8.773364e-05
0001d0 59 5d 29 be bb 61 99 be cc e8 6a 3d f8 e6 95 bd
       -0.16539516 -0.29957375 0.05735092 -0.073194444
0001e0 17 2e 73 3b d3 5b bf 3d 59 07 ec bd 70 c2 b2 bc
       0.003710633 0.09343686 -0.11524839 -0.02182123
0001f0 84 89 53 3d d8 99 ca bc e6 1b 43 3e 7a dd c9 be
       0.051644817 -0.024731562 0.19053611 -0.39426786
000200 e8 67 0c be 91 1d c4 bc 69 45 0f 3e 92 89 89 3e
       -0.13711512 -0.02393988 0.13991322 0.2686277
000210 cf 39 78 be 40 11 51 bd 58 20 03 3d 00 39 89 be
       -0.24240802 -0.05104184 0.032013267 -0.268013
000220 8b d1 0f 3d b4 92 ed 3d 8d ca 0d 3e cf 7b 4f be
       0.035111945 0.11600247 0.13846798 -0.20262073
000230 32 58 15 3d e4 4e 41 3e 59 7e 16 be 5d 6d 47 3e
       0.036461063 0.1887775 -0.14696635 0.19475313
000240 c1 af d5 bd 29 65 db bd 80 91 3f be 84 fe 41 bd
       -0.10433913 -0.10712654 -0.18707848 -0.047361866
000250 de 40 03 3e c4 36 19 3e 91 da b4 bd 38 7c 07 3e
       0.12817714 0.14962298 -0.08830751 0.1323098
000260 ae ba 62 bd 9a 35 b0 3d b1 a9 dc 3d ce 77 16 3d
       -0.055353813 0.08603974 0.107745536 0.03673535
000270 46 9c 8b bd 4e 1c 4d 3e e3 d4 ad 3d 26 e0 b8 3d
       -0.06816916 0.20030329 0.084878705 0.09027128
000280 4c 7b 00 3d fd 77 13 be 2a e3 06 bd ae f3 c0 3d
       0.031367585 -0.1440124 -0.032931484 0.09421478
000290 a1 94 e0 bd d6 d5 65 bc 4e d8 47 3e ad 0d 60 3e
       -0.10965849 -0.014028033 0.19516107 0.21880217
0002a0 26 ed 90 3e 74 f5 18 3e 0a 8c 5d 3d bd 76 43 3e
       0.2830593 0.14937383 0.05408863 0.19088264
0002b0 b4 68 ed 3d cb 58 aa 3c 43 6c 8a bd 83 15 2a 3d
       0.11592236 0.020794293 -0.067589305 0.04152442
0002c0 bc 8e 04 bd 5d bb 98 3d 05 c1 0f be 6a 08 d0 3c
       -0.032362685 0.07457612 -0.14038475 0.025394637
0002d0 82 5c a2 3d da f3 2e be da 4d f2 bd 09 5e 48 3e
       0.07927801 -0.1708521 -0.11831255 0.19567122
0002e0 85 bd 1d 3e bc 7f de 3d ca 97 b4 bd 27 9b 85 be
       0.15404327 0.10864207 -0.08818014 -0.26094934
0002f0 1e e1 48 be 87 0c 81 3e 88 72 05 3e 90 17 64 3e
       -0.19617125 0.2520487 0.13031971 0.22274613
000300 7a 8b a7 bd 3e 11 58 3e 1d 62 cd bd c5 c2 8b bd
       -0.081809 0.21100327 -0.10028479 -0.06824259
000310 30 0d 9b be ad 92 0a 3d 0e 04 20 bd 93 20 e8 bd
       -0.302835 0.033831287 -0.039066367 -0.11334338
000320 2e 65 f7 bb 86 ad 4e 3d 7c c6 9a bd 65 03 27 3e
       -0.0075499034 0.050458454 -0.07557389 0.16309889
000330 91 62 2a 3e 66 d4 38 be 76 d7 f5 3d 1c 83 31 be
       0.16639163 -0.18049774 0.120039865 -0.1733517
000340 4a 11 2e be 2f 0d 8d bd 40 0e 7a 3b 69 84 72 3e
       -0.16998783 -0.0688728 0.0038155466 0.23683323
000350 bb 57 92 bd 3b 99 63 bd 2d 49 bf 3d 20 96 55 3e
       -0.071456395 -0.055566054 0.09340129 0.2085805
000360 be 14 17 3d e4 b2 1a 3e 69 bc 96 bd 52 47 4b 3e
       0.036885016 0.15107304 -0.07360155 0.19851425
000370 b9 ea ee bd bf f9 86 be 0a bd 84 be 62 a4 a2 3c
       -0.116658635 -0.26362416 -0.25925475 0.019853774
000380 fa 77 25 be 03 40 a7 be 16 91 1c be 7d 6e 51 be
       -0.16159049 -0.32666025 -0.15289721 -0.20452304
000390 e1 73 75 be c2 65 47 3e d6 bb 00 be 78 92 bc 3c
       -0.23969986 0.19472411 -0.12571654 0.02301906
0003a0 91 d1 3a be 14 a3 ae 3d 2f 5c 7e 3e 46 02 46 3e
       -0.18244006 0.085271984 0.24839853 0.19336805
0003b0 ac 9e da bd d6 ff 1e be 60 4e b1 bd 6f c1 11 3e
       -0.106747955 -0.15527281 -0.08657527 0.14233945
0003c0 93 41 7a 3e a2 53 7c bd 22 47 c5 3d bd 73 83 3e
       0.24439077 -0.061603196 0.09632708 0.2567424
0003d0 a3 96 94 bd c1 ca 81 3e a4 15 14 3e 9a 84 70 3e
       -0.07255294 0.2535 0.1446138 0.23488083
0003e0 4a 76 89 3a d2 ab c6 3d 7f c3 39 3c bf 5a ea bd
       0.0010487523 0.09700741 0.011338114 -0.1144309
0003f0 7b 3b 05 3e e9 5e 0f bd f9 78 04 3e 88 d8 09 bd
       0.13010971 -0.035002623 0.12936772 -0.033653766

graph_prop.node_update_funcs.0.weight_hh f4 [48, 16]
000000 8a 2e 0e be 7c 60 85 bd 2b 7c c2 bd c8 b8 90 3d
       -0.1388494 -0.065125436 -0.094963394 0.07066494
000010 66 a5 91 bd 0c d6 bf bd e7 19 c6 3d d6 8a 59 be
       -0.071116254 -0.09366998 0.09672909 -0.21244368
000020 61 aa bc 3d 53 3e b5 bc e1 8e 93 bd 18 0c e4 bc
       0.09212185 -0.022124445 -0.07204986 -0.027837798
000030 e3 3c 79 bd 8d ef 54 3e 0c 8d 84 bd 55 df 12 3e
       -0.06084908 0.20794506 -0.06472215 0.14343007
000040 ac 9d 98 3d ac 31 49 3d 15 fc 88 3e 04 18 e2 bd
       0.074519485 0.049119636 0.26754823 -0.11039737
000050 8e d5 0a 3e 10 f2 92 be c3 e4 41 3e 8e 8c 33 be
       0.13558027 -0.28700304 0.18934922 -0.17534086
000060 d6 44 4e be 8d e4 37 be d7 ed 1c be 77 87 b9 3d
       -0.20143446 -0.17958279 -0.15325104 0.09059041
000070 73 b2 8a bd 4f f4 c7 3d ef 11 79 be 26 c2 92 3e
       -0.06772318 0.09763395 -0.24323247 0.28663749
000080 67 e1 82 3d b6 8f e3 bd da d2 b1 3c 6f 8a dc 3d
       0.06390648 -0.11111395 0.021706987 0.107685916
000090 f4 36 ec bd 2c 35 4d 3e d7 65 1e 3e 7b f7 1d 3e
       -0.11533919 0.20039815 0.15468536 0.15426438
0000a0 97 f8 22 be e1 91 d6 bd f0 53 de bd 98 84 b6 3e
       -0.15915142 -0.10477043 -0.108558536 0.35648036
0000b0 86 6e d6 bc 7c 2f f2 bd c6 7a c1 bd e6 a6 77 bb
       -0.026175749 -0.11825463 -0.09447245 -0.0037788688
0000c0 54 1f b5 3d dd ce f0 bd 61 1a 46 3d fd bb 3e bd
       0.08843866 -0.11758206 0.048365 -0.046566
0000d0 4f 3e a7 3e 2b 4d ea 3d de 26 6d bd e0 c7 70 3e
       0.32664725 0.114405 -0.057898395 0.23513746
0000e0 8d d0 43 ba f5 12 1d 3e f0 72 f9 bd 2e b2 c4 bc
       -0.0007469736 0.15339263 -0.12180126 -0.024010744
0000f0 20 ea 15 bd 9a 12 37 3e b4 29 aa bb 9f ed 43 bd
       -0.036600232 0.1787819 -0.0051929597 -0.047834035
000100 c7 45 f9 3c ca 3f 1f be c4 b1 fe bd a6 f1 0c 3e
       0.03042878 -0.15551677 -0.1243625 0.13764057
000110 8a b9 18 3e 2e df 23 3b 36 87 e3 3c 26 f2 4d 3e
       0.14914528 0.0025004852 0.027774435 0.20111904
000120 07 14 17 be 18 bc 10 be 63 e3 8b bd af c8 62 ba
       -0.14753734 -0.14134252 -0.0683048 -0.000865112
000130 07 cd 03 be fb 41 8e 3d 1e de 3b 3e 89 8f 63 be
       -0.1287118 0.069461785 0.1834645 -0.22222723
000140 26 4d 53 3e 7a f6 66 3c 4b 37 38 3e f5 be 5b 3e
       0.20634899 0.0140968505 0.17989843 0.21459563
000150 b8 5f 69 be 78 3f 29 3d 2a 12 e4 3d 54 4e b8 3d
       -0.2279042 0.041320294 0.11136277 0.08999315
000160 b4 c8 8f bd 71 ca 0b 3e 4b a5 16 be 72 75 6b be
       -0.07020703 0.13651444 -0.14711492 -0.2299402
000170 9f 6b b3 be b7 53 93 be ed 0e 0c 3e a4 54 ea 3e
       -0.35043046 -0.28774807 0.13677569 0.457677
000180 5e ae 9b 3b 9f cb 25 bc 11 d3 34 bd 29 ab 6f bc
       0.004751011 -0.010119348 -0.0441466 -0.01462821
000190 1e 35 23 3e 8c 47 ae bd e2 dc 70 bd 34 c9 c0 bd
       0.15938231 -0.0850974 -0.0588044 -0.094133765
0001a0 db 52 02 bd 38 6c b7 3d 32 4d 89 be fa 72 f6 bd
       -0.0318173 0.08956188 -0.26816708 -0.12033649
0001b0 70 7e b5 be 34 ed 3a 3e 9c fd b0 bd 90 71 cf bd
       -0.35448027 0.18254548 -0.08642122 -0.10129082
0001c0 cd 86 ee 3c 77 ce 82 be cc 93 a0 3d 8c d7 5b bd
       0.029117012 -0.25548145 0.0784069 -0.05367236
0001d0 9c 03 86 3d 11 8d 32 bd 02 0a 29 3e f6 b9 84 3c
       0.06543657 -0.043591563 0.16507724 0.016201954
0001e0 da 7e 23 bd 6d 58 47 3d 31 ba 9c be 38 6a 20 be
       -0.039915897 0.048668314 -0.30610803 -0.15665519
0001f0 92 91 7c bc 9c bd 40 3d 62 ad 88 3e 6a 69 3d bd
       -0.015415566 0.047055826 0.2669478 -0.04624311
000200 d6 77 24 bc b8 b0 ef bd 87 af 05 be 01 d2 47 be
       -0.010038337 -0.11703628 -0.1305524 -0.19513704
000210 20 82 86 3e d2 6c d4 3c 14 e4 11 bc 37 6c 30 3e
       0.26271152 0.025930796 -0.008904476 0.1722878
000220 d5 e2 a8 bd 68 59 c1 bd 4e 82 e1 3d 8b 82 73 be
       -0.0824639 -0.09440881 0.11011182 -0.23780267
000230 43 98 ab 3d a2 07 44 3e db d0 19 be 8b 03 31 3e
       0.08378651 0.19143537 -0.15021078 0.17286508
000240 81 fe a9 be fc c4 6e bd e0 4b 1c be 5f 53 00 3e
       -0.33201984 -0.058293328 -0.15263319 0.12531804
000250 3b d6 1e 3e 05 86 5e be 4e 9d 33 3e 04 da f9 3c
       0.1551141 -0.21730812 0.17540476 0.030499466
000260 f0 0c cb 3d 02 a4 53 bb 30 11 31 3e e8 7f 6a bd
       0.09914577 -0.0032293801 0.17291713 -0.057250887
000270 7b e8 29 be 92 2c 2f bd 1b ce 2e 3e 3f a1 45 3e
       -0.1659259 -0.042767115 0.1707081 0.19299792
000280 3f 5c 92 bd bb 4e d6 bd b0 8a 56 be b4 70 ef bb
       -0.07146501 -0.104642354 -0.20951343 -0.0073071364
000290 6b a4 fd 3d f2 f5 d6 bd bd ac c4 3d 7e fc 00 3d
       0.12384876 -0.10496129 0.0960326 0.031490795
0002a0 5a d4 92 be 88 32 9d 3d 89 21 92 3e d1 c9 cc bc
       -0.28677636 0.07675654 0.2854121 -0.024998577
0002b0 dd 37 3c be c8 f6 a8 bd b0 c4 db bb 5d e7 ba bd
       -0.18380685 -0.08250195 -0.0067067966 -0.0912616
0002c0 cb 53 a2 3d c0 59 7e 3d 3b c5 15 3e 5c fc 04 be
       0.079261385 0.06209731 0.14626019 -0.12986892
0002d0 c3 cf 06 3e eb 82 63 3d 11 1c 08 bb 6f 25 c6 bc
       0.13165192 0.055544775 -0.0020768682 -0.024187772
0002e0 bf c1 4b be d7 1a a0 be 91 eb 64 3d ca 45 b6 be
       -0.19898127 -0.31270477 0.055888716 -0.3560012
0002f0 bf 41 86 3d 4a ad 7a be ad 7d c3 bc ae 71 6f be
       0.06555509 -0.24480167 -0.023863638 -0.23383209
000300 d1 d2 20 be b9 c5 ce be 0c 7e f9 3d d4 b2 2a be
       -0.1570542 -0.40385225 0.12182245 -0.1666978
000310 d1 67 8f bd b6 72 36 3e 46 2f 5e bd 94 95 51 be
       -0.07002223 0.17817196 -0.054244302 -0.20467216
000320 fa 12 24 be 30 16 50 3d 1d 53 e9 bc 0d c0 2a 3e
       -0.16022864 0.05080241 -0.028482014 0.16674824
000330 c0 a8 15 3d 28 aa 7b be 17 32 46 3d 63 ec 1e 3e
       0.036537886 -0.24576628 0.048387613 0.15519862
000340 38 a4 6e 3e 9a 77 de 3d e6 02 57 bc 81 55 64 bc
       0.23304832 0.10862656 -0.01312325 -0.013936401
000350 2e a6 e0 bc f8 5a 30 bd f9 b5 aa 3e 76 3c 53 3e
       -0.02742299 -0.043055505 0.3334196 0.20628533
000360 7d 2f 88 bd d6 06 60 be 62 44 f9 3d be b2 11 3e
       -0.06649683 -0.21877608 0.12171246 0.14228341
000370 7b 08 92 3d 3c d5 d9 3d 1e a6 e8 bd 3c 7b a9 3d
       0.07130524 0.10636374 -0.11359809 0.08275458
000380 46 c0 d3 3d 96 7a 25 be 19 9f 58 be a7 e0 36 bd
       0.103394076 -0.16160044 -0.21154441 -0.04464784
000390 c3 c1 e9 3c 67 36 bf 3d 00 5f 68 bc e2 d8 a7 bb
       0.028534776 0.09336548 -0.014182806 -0.00512229
0003a0 2f d0 8a be c4 5c c3 3d 9a 63 64 3e 71 3a 35 3c
       -0.27111956 0.09539178 0.2230362 0.011061297
0003b0 27 67 ab 3d 42 5d 43 3e ab ff b9 bd 83 b0 07 3e
       0.08369284 0.19078544 -0.09081968 0.13250928
0003c0 91 df d6 bc 71 73 3d be 86 d3 64 3e c2 0a 3b be
       -0.026229652 -0.18501069 0.22346315 -0.18265823
0003d0 00 ed 33 be 66 74 8f bd e3 96 8f 3d 08 97 26 bc
       -0.17570877 -0.07004623 0.07011201 -0.010167845
0003e0 95 fe f0 bd 46 7a 1a 3d 7a 75 92 3b 0f e5 c7 3d
       -0.11767308 0.037714265 0.0044695707 0.09760486
0003f0 53 72 51 be ad 52 5a 3e a8 ba 33 3d 78 17 00 be
       -0.20453767 0.21320601 0.04387918 -0.12508953

graph_prop.node_update_funcs.0.bias_ih f4 [48]
000000 08 c6 92 3f 5d 5b 91 bf f4 ab 7a 3f 01 0d a0 3f
       1.1466684 -1.1356007 0.9791863 1.2503968
000010 6a 7c c8 3d e0 46 a6 bf f0 d4 63 3f d0 57 24 bf
       0.09789355 -1.2990379 0.8899679 -0.6419649
000020 9b 20 b9 bd 11 16 78 bf ed cb 91 3f 70 73 9a 3e
       -0.09039422 -0.9690867 1.1390358 0.30166197
000030 91 29 e1 bf 77 98 99 3e 01 68 a5 bf f2 fc c5 3f
       -1.759081 0.29999134 -1.2922364 1.5467818
000040 bd 44 40 bf 9a c2 d9 3f ec da 04 bf af 5d 13 3f
       -0.75104886 1.7012513 -0.5189655 0.57564825
000050 40 e0 59 be 79 3b 42 3f 1b 55 57 3d f5 78 46 3f
       -0.21276951 0.75872 0.052571397 0.77528316
000060 97 78 9f 3e 6c 72 89 3d 5a d6 15 40 a1 f1 2b be
       0.3114669 0.06711277 2.341208 -0.16791393
000070 cc 1e 88 3e cb 23 73 3f 2a e6 e5 3e ad 47 51 3e
       0.26585996 0.9497649 0.44902164 0.20437498
000080 92 40 b6 3f 9b a6 82 bd 9c 7e a2 3e af c4 1e bf
       1.4238455 -0.06379434 0.3173722 -0.62018865
000090 5a c4 25 bf fc 50 95 3d 29 78 a4 3f 65 48 f5 3f
       -0.64752734 0.07290837 1.284917 1.9162718
0000a0 4b ff 1d 3f 4b 86 43 bf 1b 96 48 3f 4c e0 9c bf
       0.6171767 -0.7637679 0.7835404 -1.225595
0000b0 ca f5 94 be 83 b9 11 3f 50 a6 22 c0 16 0c 8a bf
       -0.29093772 0.56923693 -2.541401 -1.0784938

graph_prop.node_update_funcs.0.bias_hh f4 [48]
000000 fc 16 2d bf 40 90 c2 be 21 63 b7 3e b2 51 b5 3e
       -0.67613196 -0.3800068 0.35817817 0.3541389
000010 fd a4 70 3f 58 a0 81 be 30 2f 6f bf b0 2e 87 be
       0.9400175 -0.25317645 -0.9343138 -0.26402807
000020 45 30 e9 be f3 3e ff 3f 5a 0c f8 be ee 5c 9c 3f
       -0.4554464 1.9941086 -0.48446923 1.221586
000030 be a4 3b 3e 5d 7a 1d 3f e2 93 92 3f a8 54 9f 3f
       0.18324563 0.61514837 1.145138 1.244771
000040 35 bd 4e bf b5 73 0e 3f a2 df ce be f8 d1 be 3f
       -0.80757457 0.55645305 -0.40404993 1.4907827
000050 00 c8 2d bf af cb ac 3f f7 e4 85 3e 0d f6 2b 40
       -0.678833 1.3499659 0.2615125 2.6868927
000060 91 6c 91 bf 2a 7e 12 bf 83 9d d0 bf 61 20 5f bf
       -1.1361257 -0.5722376 -1.6298069 -0.8715878
000070 f3 8e 1f 3e a3 15 44 3f 89 fb 62 3f 39 11 10 c0
       0.15581875 0.76595515 0.8866506 -2.2510512
000080 6e 9b 6b 3f 09 a9 d4 3f 6a 5f 31 bf d8 21 11 be
       0.9203404 1.6614085 -0.69286215 -0.14173067
000090 e9 0f 8c 3f 45 fd 9e 3f d1 53 e5 bf 0e 1c f5 be
       1.0942355 1.2421042 -1.7916204 -0.47872967
0000a0 39 33 94 3f 8c 3a de bd 1b de a9 3f a3 99 c2 bf
       1.1578132 -0.10851011 1.3270906 -1.5203136
0000b0 da 99 a0 bf 20 81 95 bf 42 34 84 be d1 39 f7 be
       -1.2546952 -1.1680031 -0.2582112 -0.48286298

graph_prop.node_update_funcs.1.weight_ih f4 [48, 32]
000000 2c c3 97 3e c9 8a 6c be 02 34 06 3e 7b 6c 6c 3d
       0.29641092 -0.23099817 0.13105777 0.057720643
000010 01 a4 08 3e 3d 6a 8d 3d 90 fd 1b be bd 26 c6 bb
       0.13343813 0.06905029 -0.15233445 -0.0060470984
000020 0f c0 66 bd 6b 8a 29 3e 69 a9 dd bc 34 4e 43 be
       -0.056335505 0.16556709 -0.02705832 -0.19072801
000030 f2 75 09 3b 7b ee 74 3e f3 08 0f 3e 73 5f 5c 3d
       0.0020974842 0.23919098 0.13968258 0.053801965
000040 5b c0 36 be fc ca ab 3e de db c8 3c 9a 00 a7 3d
       -0.17846815 0.33553302 0.024518903 0.081544116
000050 b6 f9 f1 b8 7b cf c6 bc 77 0f c3 bc 84 aa 73 3e
       -0.00011538288 -0.024268856 -0.023811085 0.23795515
000060 4e 96 9e be 73 99 79 bd 9f 63 44 be ed 09 08 3e
       -0.30974048 -0.060937356 -0.19178627 0.13285036
000070 3b d3 20 3e 66 c5 2c 3e 7d cf 97 bd 30 11 cc bc
       0.15705578 0.16872177 -0.07412622 -0.02491054
000080 6c f7 bc 3d bb 05 99 3d 7b dd 0d 3e 1a 30 1f bd
       0.092268795 0.07471796 0.1385402 -0.038864233
000090 a4 09 a6 3d d6 07 b2 3c 29 e8 77 bd 65 fe ea bc
       0.081073076 0.021732252 -0.06052414 -0.028685758
0000a0 43 f3 78 be 09 9e e5 bd 3d 2e 3b 3e f6 b4 aa 3c
       -0.24311547 -0.112117834 0.18279357 0.020838242
0000b0 39 b1 0c be 52 29 d4 3d 32 ad bd bd 52 f1 0b be
       -0.1373948 0.10359444 -0.0926155 -0.13666275
0000c0 ab 4c 29 3e 2e a0 02 be 02 20 f4 3d 38 8f e1 bd
       0.16533153 -0.12756416 0.119201675 -0.11013645
0000d0 ba 21 5c be ac ed 8d be b7 25 b3 3e 00 0e 18 be
       -0.2149724 -0.27720392 0.34989712 -0.1484909
0000e0 d1 3a 3d be 9b a5 e5 bd 33 54 14 bd d0 77 7b 3e
       -0.18479468 -0.11213227 -0.03621311 0.24557424
0000f0 a1 85 80 3d 90 e1 41 3d 42 08 ec bd 09 55 ff 3d
       0.06275488 0.047334254 -0.115250126 0.12467391
000100 ed 4b 23 be 2e 8a 3d be 8c ae 90 3e c6 45 9d 3d
       -0.15946932 -0.18509743 0.2825817 0.07679324
000110 33 02 d8 3d 36 48 30 be f2 ce 21 bc ee c9 a2 be
       0.105472945 -0.17215046 -0.009876 -0.31794685
000120 98 6a 3b be c7 82 e5 bd dd 95 22 3e 46 a7 e0 3d
       -0.18302381 -0.112065844 0.15877481 0.10969405
000130 f3 1a 1e be 65 62 db bc 0a 3a a7 3d 3e 69 f4 3d
       -0.15439968 -0.026780317 0.08165367 0.11934136
000140 70 a1 09 bd 37 4b e6 3d 6b ac 1d 3e 28 cf 8e 3d
       -0.033601224 0.11244815 0.15397803 0.06973106
000150 c4 f3 0d 3d 00 fb 02 3e 50 82 15 be 9a 8b 05 be
       0.0346563 0.12791061 -0.14600492 -0.13041535
000160 d7 dc 9e 3d e5 29 e0 bd e5 34 71 bd 66 85 1c bd
       0.077569656 -0.10945491 -0.058888335 -0.038213156
000170 a6 46 02 bd d8 18 42 be ef 87 37 3e c0 32 49 3e
       -0.031805657 -0.1895479 0.17922948 0.19648266
000180 58 86 da bc 05 c0 01 3d 54 95 00 be f1 52 e7 3d
       -0.026675388 0.031677265 -0.12556964 0.11295117
000190 0d 29 02 3e d7 31 bf bd 87 14 06 be c1 71 d2 3e
       0.12710972 -0.09335678 -0.13093768 0.41102412
0001a0 04 2a e5 3d f5 b4 32 bd 9e 81 32 3e 14 9a 1c 3e
       0.111896545 -0.043629605 0.17432258 0.15293151
0001b0 ba c4 f2 3d 9c d7 99 3d 61 72 a4 3d 99 5e 28 3d
       0.11853929 0.07511827 0.080296285 0.04110584
0001c0 e7 bf 5b 3d 38 1c bf bc f6 d4 cc 3d d5 cb e8 3d
       0.05364981 -0.023328885 0.100015566 0.11367003
0001d0 77 d4 39 3e f5 1d 01 3e a1 55 94 3e 56 bb 08 3d
       0.18147455 0.12609084 0.2897158 0.033381782
0001e0 21 c4 1f 3e 94 34 c3 bd 32 3f 22 3e 89 22 ff 3c
       0.15602161 -0.09531513 0.1584442 0.031144397
0001f0 27 9b 80 3c d5 d0 93 3d 86 96 88 3e 53 48 54 3e
       0.015698982 0.07217566 0.2667734 0.20730714
000200 e4 9b 10 3e 1a d0 16 be c4 b5 ca bd 65 0e 2b bc
       0.14121968 -0.14727822 -0.0989795 -0.010440444
000210 a2 f7 5e be 82 9d 6c 3d fd 6c 56 be e1 ea 48 bd
       -0.21774152 0.0577674 -0.20940013 -0.049052123
000220 30 f8 5d be c4 39 12 be 5b a3 21 be de 45 3f 3c
       -0.21676707 -0.14279848 -0.15784971 0.0116743725
000230 fe 2a 3e bd 68 83 f7 3d 58 e6 8d 3d 01 90 e1 3d
       -0.04642772 0.12085611 0.069287 0.11013795
000240 ae 05 6a 3e 6c 93 8d bd c8 0c d0 3c 6b f7 26 3e
       0.22853729 -0.06912884 0.02539672 0.1630532
000250 a1 65 18 3e 04 60 77 3e e9 04 dc 3d 87 35 8f be
       0.14882518 0.24157721 0.10743124 -0.27970526
000260 bd 01 c8 3d 2c bc 12 3d c1 e1 65 3e 3a 3a 02 bd
       0.097659566 0.035823986 0.224494 -0.03179381
000270 de 4a bd 3d 5c 75 93 3e 95 10 72 bb 79 56 60 be
       0.092427954 0.28800476 -0.0036936153 -0.21907987
000280 65 53 bf 3d ad a1 db 3d 04 a1 2f be 52 3d 68 be
       0.09342078 0.107241966 -0.17151266 -0.22679642
000290 54 5e 2a be 8b 03 3e bd f1 3c b4 bd 45 bf 9e 3d
       -0.16637546 -0.046390098 -0.08800686 0.077513255
0002a0 cd 8b 08 3e 1d 72 93 be 13 96 1d 3e 62 2d 81 be
       0.1333458 -0.28798 0.1538928 -0.25229937
0002b0 44 87 7c bd e8 e7 c7 3c e2 52 fa 3b b8 fa fd bd
       -0.061652437 0.024402574 0.007639275 -0.124013364
0002c0 c9 11 d6 be 8c 60 29 bd b4 79 ca 3d 0d 02 88 3c
       -0.41810444 -0.04135184 0.09886494 0.01660254
0002d0 2b cb e1 3d 0b 36 6d 3d 5c 5a 40 3d 36 75 0f bd
       0.11025079 0.057912868 0.046961173 -0.03502389
0002e0 2a 6a 02 3e b7 33 10 be 6f 86 e8 bc 50 04 eb bd
       0.12735811 -0.14082228 -0.028384415 -0.11475432
0002f0 09 cb f4 3d 13 98 4f 3e 94 c1 dd 3c 89 a3 09 3e
       0.119527884 0.20272855 0.027069844 0.1344129
000300 37 09 12 3c 61 a6 20 3d 64 bf c4 3d 15 76 8b 3b
       0.00891333 0.03922117 0.09606817 0.00425602
000310 8d ac 5d bd 50 d7 a6 bd 98 53 af bd 6c 79 78 be
       -0.054119635 -0.08146536 -0.08560866 -0.24265069
000320 e3 66 49 be d3 59 1c 3d 34 31 06 3d 2a ec 92 be
       -0.19668154 0.0381716 0.032761768 -0.28695804
000330 23 66 39 bd b9 63 93 bd 9f 24 b7 bd 46 91 2f bd
       -0.04526342 -0.07196755 -0.08942532 -0.042863153
000340 e7 d9 8b 3d 44 67 4e 3e ae 4b 32 3e 34 4c 7f 3e
       0.06828671 0.2015658 0.17411682 0.24931413
000350 d5 a1 e3 3d d4 ee 79 3d 71 ff 27 3e 4a 50 50 3b
       0.111148514 0.06101878 0.16406037 0.0031786137
000360 7c ea 16 3e c6 8a cf 3e 06 d3 e7 bd db 07 ef bd
       0.14737886 0.40535563 -0.113195464 -0.1167142
000370 a3 6e ff bd 7d c0 28 3e d8 dd dc 3d 26 08 91 3e
       -0.12472274 0.16479678 0.10784501 0.2832653
000380 6e 4b 9d bc 1f 06 af be 2e 93 df 3c 6b e0 1e bc
       -0.019201007 -0.34184358 0.02729186 -0.00969706
000390 7c b9 39 3e 66 1c 52 3e 3f e1 73 3e 10 2f b4 3d
       0.18137163 0.20518646 0.23816393 0.08798039
0003a0 a6 db 2c 3e 4c 82 ff bd 0f 31 31 be 34 69 72 3e
       0.16880664 -0.12476024 -0.1730387 0.23672944
0003b0 ce ff 6a be 46 19 73 bd 7e ad 48 be a0 f8 10 be
       -0.22949144 -0.059350275 -0.19597432 -0.14157343
0003c0 3f 74 26 3d 40 99 81 be a8 32 7a 3d ab 51 85 3e
       0.040638205 -0.25312233 0.061083466 0.2603887
0003d0 82 0f 6f 3e 7c 12 b4 3d 31 fa 92 3d 5d b9 a5 3d
       0.2334576 0.08792588 0.071766265 0.08091996
0003e0 8e 1d 1e be 33 aa 4f bd f0 56 96 be 7d 60 79 3d
       -0.15440962 -0.050699424 -0.29363203 0.060883034
0003f0 5e 3f 0d be 43 83 0f 3e 8c 39 47 3e 9a 45 9f bd
       -0.13793704 0.14014916 0.19455546 -0.07776947
