housingpipeline/housingpipeline/dgmg/model.pth (torch, 313420 bytes, 52 tensors)

graph_embed.node_gating.0.weight f4 [1, 16]
0	0x3d64fd31	0.055905525
1	0x3c356e8c	0.01107372
2	0x3d71369e	0.058889978
3	0xbe1981c2	-0.14990905
4	0x3e32e232	0.17469099
5	0x3bb5e4c9	0.005550955
6	0x3daadee2	0.08343293
7	0x3e91e9ae	0.28498596
8	0xbe190864	-0.14944607
9	0x3ec3baaf	0.38228366
10	0xbd99d705	-0.07511715
11	0x3f1b5edb	0.6069161
12	0xbe33ab5d	-0.17545839
13	0x3e943d38	0.28952956
14	0x3e91f32b	0.28505835
15	0x3eb2c4b2	0.34915692

graph_embed.node_to_graph.weight f4 [32, 16]
0	0xbe773759	-0.24142207
1	0x3d51ffef	0.051269468
2	0xbd04361d	-0.03227817
3	0x3e105ae1	0.14097168
4	0x3d26ad6b	0.040692728
5	0xbde7c33b	-0.11316534
6	0xbe07c856	-0.13260016
7	0xbda29095	-0.07937733
8	0xbd2c6813	-0.04209144
9	0x3d2632ea	0.0405759
10	0x3d9b48b4	0.075822264
11	0xbe58ab12	-0.21159008
12	0xbc92e42b	-0.017931065
13	0x3e888bfc	0.266693
14	0x3d81e978	0.06343359
15	0xbdcc9483	-0.09989264
16	0xbd40950e	-0.04701715
17	0xbddd1c55	-0.107964195
18	0x3dd9009d	0.1059582
19	0xbeecadff	-0.46226498
20	0x3e300971	0.17191102
21	0xbe4365ac	-0.19081753
22	0xbdca2f07	-0.09872251
23	0xbe157771	-0.14596345
24	0x3eaea330	0.34108877
25	0xbd8c9343	-0.068640254
26	0x3e992167	0.29908296
27	0x3e6a7360	0.22895575
28	0xbd8a5962	-0.0675533
29	0x3e209e6d	0.15685435
30	0x3d76f1b6	0.060289107
31	0xbe1d42b0	-0.1535747
32	0x3c996328	0.01872404
33	0x3d207106	0.039170288
34	0x3e924234	0.28566134
35	0x3e31c799	0.17361297
36	0xbb6508d1	-0.0034947882
37	0x3da0293e	0.07820366
38	0xbe07dc88	-0.1326772
39	0x3e364ae1	0.17802002
40	0x3d52f6f8	0.05150506
41	0x3e2e8cb1	0.17045857
42	0x3e3df3db	0.18550055
43	0x3e403e36	0.18773732
44	0xbc90b0a4	-0.017662354
45	0x3e26cb80	0.16288567
46	0x3da9d712	0.082929745
47	0x3ca1c3a5	0.01974661
48	0xbddb877e	-0.107192025
49	0xbe53fa92	-0.20701054
50	0x3e1f4126	0.15552196
51	0x3e16fae4	0.14744145
52	0x3dc426f7	0.095777445
53	0x3dc1f4f2	0.09470548
54	0xbde67b23	-0.11253955
55	0xbeb56eec	-0.3543619
56	0x3d7132d6	0.05888637
57	0xbcfef753	-0.031123793
58	0x3e36a540	0.17836475
59	0xbdd5bfcf	-0.10436975
60	0xba279030	-0.000639203
61	0x3e13617d	0.14392658
62	0xbe8e7ff4	-0.27831995
63	0xbd7ad85d	-0.061241496
64	0x3e800201	0.2500153
65	0x3e0dad3c	0.13835615
66	0x3e5cb265	0.21552427
67	0xbf1e716e	-0.6189183
68	0xbd56dd56	-0.052457176
69	0xbda291db	-0.07937976
70	0xbcbff54a	-0.023432393
71	0x3dad8ec5	0.08474497
72	0xbda82fe0	-0.082122564
73	0xbe46f832	-0.19430616
74	0xbe6df6f4	-0.23238736
75	0xbd6f8f85	-0.05848648
76	0x3ebf2b49	0.3733771
77	0xbe304628	-0.17214262
78	0x3c501c37	0.012702039
79	0x3cdb0dfa	0.026740063
80	0xbc6fd8f9	-0.014639133
81	0xbd957dc2	-0.07299377
82	0xbe38cca4	-0.18046814
83	0xbe17da2f	-0.14829324
84	0x3e312345	0.1729861
85	0xbe469408	-0.19392407
86	0xbdb9794b	-0.09056338
87	0x3d494192	0.0491348
88	0x3e848636	0.25883645
89	0xbaf1283c	-0.0018398832
90	0x3dc8abaa	0.09798367
91	0x3d563e09	0.052305255
92	0xbea58f2a	-0.32335788
93	0xbd7afd52	-0.06127674
94	0xbeb2704a	-0.34851295
95	0x3dc49b1c	0.09599897
96	0xbe21ebb1	-0.15812565
97	0xbdcd83d8	-0.10034913
98	0x3d8e6064	0.06951979
99	0xbdf88bee	-0.121360645
100	0xbe57e88e	-0.21084806
101	0x3e0cc0df	0.1374545
102	0x3e4ab310	0.1979487
103	0x3e494de6	0.19658622
104	0x3eb60c66	0.35556334
105	0xbd01191f	-0.031518098
106	0x3e0de597	0.13857113
107	0x3e5f5ae3	0.21812014
108	0xbdead7c0	-0.11466932
109	0x3e87ed4c	0.2654823
110	0xbea4e7bc	-0.3220805
111	0xbe51b428	-0.2047888
112	0xbdc2ba92	-0.09508242
113	0x3d4f2989	0.05057672
114	0xbde9d027	-0.11416655
115	0x3dd59daa	0.10430463
116	0x3eae2a70	0.34016752
117	0xbf14ffb7	-0.5820269
118	0x3dc68072	0.09692468
119	0x3e4001d8	0.18750703
120	0x3dbadd50	0.09124243
121	0xbe1f6c44	-0.15568644
122	0x3e0eb310	0.13935494
123	0x3ea0c6ae	0.3140158
124	0x3e5c8674	0.21535665
125	0xbaff210f	-0.0019464808
126	0xbe94c571	-0.29056886
127	0xbeb23d4f	-0.348124
128	0xbeca9213	-0.3956457
129	0xbdf672ef	-0.120336406
130	0xbc12db13	-0.008963364
131	0xbe257a3c	-0.1615991
132	0xbe45dfbd	-0.1932363
133	0x3b9fe6bc	0.0048798006
134	0x3e70a367	0.23499833
135	0x3d29aa79	0.04142234
136	0x3e9a69f1	0.30158952
137	0x3de03af0	0.109487414
138	0x3cd270fc	0.02568864
139	0xbcd624f1	-0.026140662
140	0xbe172fb7	-0.14764296
141	0xbe7e1122	-0.24811223
142	0xbd20e06e	-0.039276533
143	0x3d935d7d	0.07195566
144	0xbeb622c9	-0.35573414
145	0xbf07e364	-0.53081346
146	0xbebfd6c9	-0.37468556
147	0x3e1ae5be	0.15126702
148	0x3dcad1b2	0.099032775
149	0x3d6f1514	0.05836971
150	0x3d90a85a	0.070633605
151	0xbcf9da05	-0.030499468
152	0xbe0f1cfb	-0.13975899
153	0xbcc8e685	-0.024523983
154	0xbc530a73	-0.012880909
155	0xbe0d96bf	-0.13827036
156	0x3d91217a	0.07086463
157	0xbc9414ff	-0.018076418
158	0x3e378334	0.17921144
159	0xbe1255cc	-0.14290541
160	0xbd9bd695	-0.07609288
161	0x3e5f2a55	0.21793492
162	0xbec3b620	-0.38224888
163	0xbda9051b	-0.08252927
164	0x3d82cf64	0.06387213
165	0x3d29f672	0.041494794
166	0x3e01eba4	0.12687546
167	0x3e703ab4	0.23459893
168	0xbe8cca44	-0.27498066
169	0x3d3fa06b	0.046783846
170	0xbedfb778	-0.43694663
171	0xbb363da6	-0.0027807741
172	0x3d31470e	0.043280654
173	0x3e02d435	0.12776263
174	0xbe00e14d	-0.12585945
175	0x3ced1cb6	0.028944355
176	0x3df2332e	0.11826168
177	0x3d22b8b5	0.03972693
178	0xbe6b44e5	-0.229755
179	0xbd04b397	-0.032397833
180	0x3e2f019c	0.17090458
181	0x3e3812bd	0.17975898
182	0x3e8bed8a	0.27329665
183	0x3dd9979f	0.106246226
184	0xbd6aa838	-0.057289332
185	0xbd7b2d8c	-0.061322734
186	0xbd8b1750	-0.06791556
187	0x3d572be8	0.052532107
188	0x3c01741e	0.00790122
189	0x3f12c97f	0.5733871
190	0xbee3029f	-0.44337937
191	0x3da394b5	0.07987348
192	0xbe5e58d6	-0.21713576
193	0xbe5f0dc3	-0.21782593
194	0xbdac8199	-0.08423156
195	0xbec92176	-0.3928334
196	0xbe740264	-0.23829037
197	0xbdbcb8d7	-0.09214943
198	0x3d3b90d0	0.0457924
199	0x3f20fc41	0.6288491
200	0x3caf555a	0.021403003
201	0x3edee5c4	0.43534672
202	0x3c96b239	0.01839553
203	0xbe39e023	-0.18151908
204	0x3ca3c761	0.019992532
205	0xbea9f0fd	-0.33191672
206	0xbeaf189a	-0.34198457
207	0xbdbab26d	-0.09116063
208	0xbdb49778	-0.08817953
209	0x3e100be8	0.14067042
210	0x3e9101d3	0.28321704
211	0xbe1c8e08	-0.15288556
212	0xbe65afc8	-0.22430336
213	0x3e94b47c	0.2904395
214	0x3ee5b469	0.44864205
215	0xbe31b01b	-0.17352335
216	0x3ec249f0	0.37947035
217	0x3e96f41f	0.29483125
218	0x3db14f74	0.086577326
219	0xb8c308ea	-9.299985e-05
220	0xbed28ba8	-0.41122174
221	0x3da1ac3a	0.07894178
222	0x3e8f0c14	0.27938902
223	0xbe5ae5fa	-0.21376792
224	0x3dc73edb	0.097287856
225	0xbe8d3a87	-0.27583715
226	0xbd73b206	-0.05949595
227	0x3e86f0f4	0.26355708
228	0x3eb33bf2	0.35006672
229	0xbebd1611	-0.36930898
230	0xbe44e988	-0.1922971
231	0x3eed98fd	0.46405783
232	0xbe32e6c5	-0.17470844
233	0xbdc1ea11	-0.09468473
234	0x3e048f69	0.12945332
235	0xbd5eb84e	-0.054374985
236	0x3ede4b98	0.43417048
237	0x3ea8e3dc	0.32986343
238	0x3d3bc185	0.04583885
239	0x3e698747	0.2280551
240	0xbe444c7c	-0.19169801
241	0xbe2173e5	-0.15766867
242	0x3e06be6d	0.13158579
243	0xbe350a41	-0.17679693
244	0xbe11d9f7	-0.14243303
245	0x3d1ff6f4	0.039053872
246	0xbe27f3b2	-0.16401556
247	0xbda6dbfc	-0.081474274
248	0xbe30ca80	-0.17264748
249	0xbcc82e22	-0.02443606
250	0x3e3ec223	0.18628745
251	0x3e8a490d	0.27008858
252	0xbef1ae1e	-0.47203153
253	0x3d4afc8b	0.04955725
254	0x3e934e75	0.28770795
255	0xbe26575d	-0.16244264

graph_embed.node_to_graph.bias f4 [32]
0	0x3f7fb73f	0.99888986
1	0xbf316bdd	-0.6930521
2	0x3f7fb7cc	0.99889827
3	0xbe7aa192	-0.24475697
4	0xbf301c8c	-0.6879356
5	0xc006cc64	-2.106225
6	0xbed5d614	-0.4176489
7	0xbec0fa1c	-0.37690818
8	0xbec8ac58	-0.39193988
9	0x3f8109e7	1.0081147
10	0xbf040107	-0.5156407
11	0x3f80731c	1.0035129
12	0xbed39e6f	-0.41331813
13	0xbe26027f	-0.1621189
14	0x3df8e494	0.12152973
15	0x3f633a0d	0.88760453
16	0xbfda2901	-1.7043763
17	0x3f1777d1	0.591672
18	0x3f78d277	0.97196144
19	0x3f9ae9d0	1.2102604
20	0x3e5cf493	0.21577673
21	0xbf81f426	-1.0152633
22	0xbf6701df	-0.9023723
23	0xbf9d6a2e	-1.2298028
24	0x3e350e5f	0.17681263
25	0xbeeaedc9	-0.4588454
26	0xbdfcc010	-0.123413205
27	0xbf3a1e75	-0.72702724
28	0x3f0d6537	0.55232567
29	0xbf429cf5	-0.7602075
30	0xbf4bf54b	-0.7967116
31	0xbdc59b1a	-0.09648724

graph_prop.message_funcs.0.weight f4 [32, 34]
0	0x3e164d72	0.1467798
1	0x3de9d347	0.11417251
2	0xbe73010d	-0.2373087
3	0xbd016cc2	-0.03159786
4	0xbca4a1f4	-0.020096757
5	0xbddab1ec	-0.10678467
6	0xbe1c356d	-0.15254755
7	0x3c99ff3f	0.018798469
8	0x3e018722	0.12649205
9	0xbce8996b	-0.028393468
10	0xbe1626d5	-0.1466325
11	0x3dab7c59	0.08373327
12	0x3c5665c0	0.0130857825
13	0x3d82cc20	0.0638659
14	0xbc20d994	-0.0098175
15	0xbd4427ec	-0.047889635
16	0xbde73c26	-0.11290769
17	0x3e60825b	0.21924727
18	0x3d3d615c	0.046235427
19	0x3d050b6a	0.03248159
20	0x3d5f0274	0.0544457
21	0xbe379abf	-0.17930125
22	0xbdfd9b5b	-0.12383147
23	0x3cd0f2e2	0.02550644
24	0xbe0e90fb	-0.13922493
25	0x3ea9261c	0.33036888
26	0x3ce3b300	0.027795315
27	0xbe297fe4	-0.16552693
28	0x3cbaf7f7	0.022823317
29	0xbe4bc799	-0.19900359
30	0xbda232b1	-0.07919825
31	0x3e42eb13	0.19034986
32	0xbc02ed89	-0.007991203
33	0x3dc300f7	0.095216684
34	0x3cebe22d	0.028794372
35	0x3de3e623	0.111278795
36	0xbb3d1ad6	-0.0028855107
37	0xbcf2e7b7	-0.029651506
38	0xbbda4971	-0.006661587
39	0xbc1098f7	-0.008825532
40	0xbe122beb	-0.14274566
41	0xbbff002d	-0.0077820034
42	0x3d5a4da7	0.05329671
43	0x3d9bb346	0.07602553
44	0x3e2600bd	0.16211219
45	0xbdd42bd1	-0.1035992
46	0xbdf1d5c1	-0.118083484
47	0x3deac1c0	0.11462736
48	0xbe07cc0c	-0.13261431
49	0x3e57a07e	0.21057317
50	0x3dbab8e0	0.09117293
51	0x3e0bcd1b	0.1365246
52	0x3e1ab4bd	0.15108009
53	0xbcbb8665	-0.022891233
54	0xbcd5ba04	-0.026089676
55	0x3e2764c4	0.16347033
56	0xbd39dcad	-0.04537647
57	0x3e1673d5	0.14692624
58	0x3d4f7184	0.050645366
59	0x3dd1d8cc	0.10246429
60	0x3d0b9086	0.034073375
61	0x3e5cb34a	0.21552768
62	0xbd825a01	-0.06364823
63	0xbd1a25e7	-0.037633803
64	0xbd8068f4	-0.06270018
65	0x3e14b430	0.14521861
66	0x3ddd7708	0.10813719
67	0xbe63b20b	-0.22235887
68	0xbdb119c2	-0.08647491
69	0x3d9b804e	0.075928316
70	0x3d9e3afb	0.077260934
71	0x3cdf9807	0.027294172
72	0xbd91ef16	-0.0712568
73	0x3d3a0154	0.045411423
74	0x3e179d45	0.14806087
75	0x3d7fde7e	0.062468044
76	0xbcac093b	-0.021000495
77	0xbe14ac6d	-0.145189
78	0xbdc84747	-0.0977922
79	0x3d91b060	0.07113719
80	0xbd088e0f	-0.033338603
81	0x3cbb71d3	0.022881424
82	0xbcdaa25c	-0.026688747
83	0x3d2081d4	0.039186314
84	0x3d719fa2	0.05899013
85	0xbe65ec2c	-0.22453374
86	0x3d17cb5c	0.037059173
87	0xbb396005	-0.0028285992
88	0xbd97a230	-0.07403982
89	0xb9ac6421	-0.00032880998
90	0xbd91a91b	-0.071123324
91	0x3dda1249	0.10648019
92	0x3dfcc9e5	0.12343196
93	0x3c57a0e7	0.013160921
94	0x3c03f1cd	0.008053255
95	0x3e79b0e1	0.2438388
96	0xbcdeec8f	-0.02721241
97	0xbd57a66f	-0.052648958
98	0x3d58376c	0.05278723
99	0x3d72c326	0.05926814
100	0x3da6e179	0.08148474
101	0xbdff9ce6	-0.12481098
102	0x3d8c8508	0.06861311
103	0x3d6d29d4	0.05790122
104	0xbc8c1c45	-0.017103324
105	0x3dbd7459	0.09250707
106	0x3da55503	0.08072855
107	0x3daa9f65	0.08331183
108	0xbdb1f1a0	-0.086886644
109	0x3d7efa2c	0.0622503
110	0xbd2808f3	-0.04102416
111	0x3db7be9e	0.08971904
112	0xbd992a96	-0.07478826
113	0x3e740f8c	0.23834056
114	0x3d911ff5	0.070861734
115	0xbd415f03	-0.04720975
116	0xbd9e31f4	-0.077243716
117	0xbdc1fa16	-0.09471528
118	0xbe273d07	-0.16331874
119	0xbe2d82c2	-0.16944411
120	0xbe41101c	-0.18853801
121	0xbd60df44	-0.054900423
122	0x3dee4bcf	0.11635553
123	0xbe2aae88	-0.16668141
124	0x3dba2916	0.09089868
125	0x3d95a373	0.07306566
126	0xbd0f4d62	-0.034985907
127	0xbe3c5e6f	-0.18395399
128	0x3e4ad370	0.1980722
129	0x3defe3b1	0.117133506
130	0x3e3f83a4	0.1870256
131	0x3def3282	0.116795555
132	0xbbaedf7c	-0.0053367
133	0xbe8be1c2	-0.27320677
134	0xbdb594cd	-0.08866272
135	0xbcf88cd3	-0.030340588
136	0x3c488de9	0.012240865
137	0x3df99a7c	0.12187669
138	0x3e3de2a5	0.1854349
139	0x3d75b9a4	0.059991494
140	0xbdaeed79	-0.08541388
141	0xbd2ad775	-0.041709382
142	0x3d4ca0d9	0.049958084
143	0x3dea2821	0.11433435
144	0x3da26418	0.079292476
145	0x3d042fea	0.032272257
146	0xbd60a16e	-0.05484145
147	0xbd8f9598	-0.070109546
148	0xbd3c94c8	-0.046040326
149	0xbd28fae6	-0.0412549
150	0xbca49750	-0.020091683
151	0xbe08e85f	-0.13369893
152	0xbdf6768b	-0.12034329
153	0x3d50fa4a	0.051019944
154	0x3d5e9ac8	0.05434683
155	0x3db61573	0.0889081
156	0xbdd99ec6	-0.10625987
157	0xbe10ebe3	-0.14152484
158	0xbcbaf75f	-0.022823034
159	0x3dcaf410	0.099098325
160	0xbbf01dac	-0.007327756
161	0x3da9bb04	0.082876235
162	0x3c86c628	0.01645191
163	0xbc4cc3eb	-0.012497882
164	0x3e240ec5	0.16021259
165	0xbd56350a	-0.052296676
166	0x3d32e5b7	0.043676104
167	0xbbac8985	-0.005265417
168	0x3de9f370	0.11423385
169	0x3e2c57ba	0.1683034
170	0xbbfe8096	-0.0077667935
171	0x3d0da7e4	0.03458394
172	0xbda62ac0	-0.08113623
173	0xbb16da61	-0.0023018348
174	0x3da5a924	0.08088902
175	0xbdada54d	-0.08478794
176	0xbcb21c85	-0.021742115
177	0x3e04a433	0.12953262
178	0xbc553ff0	-0.013015732
179	0xbdeaec89	-0.11470897
180	0x3d483b50	0.04888469
181	0xbd8c1117	-0.06839197
182	0xbe82fd2f	-0.2558379
183	0x3df2a12f	0.118471496
184	0x3d0f3f8a	0.034972705
185	0x3d587589	0.052846465
186	0x3dae6f34	0.08517304
187	0x3bc67096	0.0060559018
188	0xbeb329ee	-0.34992927
189	0x3de76545	0.112986125
190	0x3e2c3aef	0.16819356
191	0x3d1185be	0.035527937
192	0x3e9b67d1	0.30352643
193	0x3d5d3595	0.054006178
194	0xbdb0a8d3	-0.08625951
195	0x3cebb52d	0.028772915
196	0x3d8ff7c5	0.0702968
197	0x3de612da	0.112340644
198	0xbe849d05	-0.25901046
199	0x3e102313	0.1407588
200	0xbdf7d232	-0.121006384
201	0x3de2c934	0.11073533
202	0xbe98b264	-0.298236
203	0xbd9c1f0d	-0.0762311
204	0xbcf1153b	-0.029429069
205	0x3d76e0e0	0.06027305
206	0xbdbc05f4	-0.09180823
207	0x3dc6c5ad	0.097056724
208	0x3d9bdc75	0.07610408
209	0xbdeeb93e	-0.11656426
210	0xbda3db73	-0.08000841
211	0xbd055d59	-0.032559726
212	0x3c8768d1	0.016529473
213	0xbd0d1081	-0.034439567
214	0x3e405681	0.18782999
215	0x3b0abdd1	0.0021170268
216	0x3dd5c3d5	0.104377426
217	0xbcc7be35	-0.02438269
218	0xbbffe7a1	-0.0078095947
219	0x3dcc10a2	0.0996411
220	0xbdf75dbc	-0.12078425
221	0xbc6fe825	-0.01464275
222	0xbdb2160b	-0.086956106
223	0xbe1c2811	-0.15249659
224	0x3dcc23ff	0.09967803
225	0x3e0f73fa	0.14009085
226	0x3d847dc6	0.06469302
227	0x3da7d3fb	0.08194729
228	0xbdebdcb0	-0.11516702
229	0x3de061b1	0.10956133
230	0x3d321b82	0.043483265
231	0x3e01d4df	0.1267886
232	0x3ce60019	0.028076218
233	0x3ddca624	0.10773876
234	0xbdcc3e5c	-0.099728316
235	0xbcfbe131	-0.030747028
236	0xbd1ba64a	-0.038000382
237	0xbcb0a91d	-0.021565014
238	0xba9d9a08	-0.0012024054
239	0xbe1c4fff	-0.15264891
240	0x3d46f77a	0.048575856
241	0x3e077da4	0.13231522
242	0xbd18801f	-0.03723156
243	0x3c98c3aa	0.018647987
244	0xbdc266d3	-0.094922684
245	0x3d2ff3b4	0.042957023
246	0xbc118256	-0.008881172
247	0x3dae9346	0.08524184
248	0xbcb5ae86	-0.022177946
249	0x3e47265d	0.19448228
250	0xbdf7fe73	-0.12109079
251	0x3da6fb2a	0.081533745
252	0xbd93e7af	-0.072219245
253	0xbe5ca6fb	-0.21548073
254	0x3d803426	0.062599465
255	0xbd66dee8	-0.056364924

graph_prop.message_funcs.0.bias f4 [32]
0	0xbc217d55	-0.009856542
1	0xbdf77c1f	-0.12084221
2	0xbe5a5853	-0.21322756
3	0xbdd4b214	-0.10385528
4	0x3c8acbc8	0.016942874
5	0xbe8e1a55	-0.27754465
6	0xbda5cfbf	-0.08096265
7	0xbd40c1c6	-0.047059797
8	0x3e39410e	0.18091223
9	0xbd239b4f	-0.039943036
10	0xbd658c06	-0.05604174
11	0x3e1c2ca3	0.15251403
12	0xbd33cc5c	-0.043896064
13	0xbe1567d8	-0.14590394
14	0xbd5d1db1	-0.053983394
15	0x3d41c6b4	0.04730864
16	0x3ce94ad0	0.028478056
17	0xbd7232d8	-0.05913052
18	0x3cc3b38d	0.023889327
19	0xbcc2e228	-0.02378948
20	0x3d996e86	0.07491784
21	0xbdbb2cb8	-0.09139389
22	0x3dc08341	0.09400035
23	0x3e4560a6	0.1927515
24	0xbdf8d261	-0.121495016
25	0xbe834f26	-0.25646323
26	0x3ce913f1	0.028451892
27	0x3cf10e6f	0.029425828
28	0xbe79cb2a	-0.24393907
29	0x3dc714d7	0.09720772
30	0xbd479f6a	-0.048736013
31	0x3e45e903	0.19327168

graph_prop.message_funcs.1.weight f4 [32, 34]
0	0xbe24cc74	-0.16093618
1	0x3ddccdbd	0.10781429
2	0xbd1a0646	-0.03760364
3	0x3e126c37	0.14299093
4	0xbe62d676	-0.22152123
5	0xbdc02255	-0.09381548
6	0xbd980ae4	-0.07423952
7	0x3dba30a8	0.09091312
8	0x3cead471	0.028665753
9	0x3dea4a03	0.11439898
10	0xbce63acd	-0.02810421
11	0x3cec6dea	0.028861005
12	0x3e37fb18	0.17966878
13	0xbd9272e7	-0.07150822
14	0xbd79b108	-0.060959846
15	0xbd1a4c85	-0.03767063
16	0xbe0f9714	-0.14022475
17	0xbb150de3	-0.0022743873
18	0xbd833457	-0.064064674
19	0xbe10a840	-0.14126682
20	0xbe0fc784	-0.14040953
21	0x3cda43fb	0.026643744
22	0xbce9f207	-0.02855779
23	0xbc9ace62	-0.01889724
24	0xbba357a8	-0.0049848147
25	0xbe46117d	-0.19342609
26	0xbb2359cd	-0.0024925352
27	0xbea524b5	-0.32254568
28	0x3def9433	0.11698189
29	0x3d855c0e	0.06511699
30	0x3dc73cd2	0.097283974
31	0xbe79e29c	-0.24402851
32	0x3c22ecdd	0.009944168
33	0x3cbc8532	0.023012731
34	0xbdda7a41	-0.10667849
35	0x3ea8b3fc	0.32949817
36	0x3e2c5631	0.16829754
37	0xbd5108cc	-0.05103378
38	0xbe8c32ad	-0.27382413
39	0x3eb652ff	0.35610196
40	0xbc57f68e	-0.013181342
41	0x3e025059	0.12725963
42	0x3dcf59cd	0.1012455
43	0xbe939756	-0.28826398
44	0x3d0301d7	0.031984176
45	0xbcbb6cbd	-0.022878999
46	0x3d243af0	0.04009527
47	0x3c9d40ce	0.01919594
48	0xbc6bef3e	-0.0144003015
49	0xbe289d33	-0.16466217
50	0x3cf443ef	0.02981755
51	0xbd18d7a0	-0.03731501
52	0xbbe0928d	-0.0068534077
53	0x3d520e4a	0.05128316
54	0xbd255a9b	-0.04036961
55	0xbea11b38	-0.3146608
56	0x3de42643	0.1114011
57	0x3c860587	0.016360058
58	0xbde0e712	-0.10981573
59	0x3e501ad6	0.20322737
60	0xbd86345f	-0.06552958
61	0xbd5070ec	-0.05088894
62	0x3ca6b40c	0.020349525
63	0x3e317815	0.17330964
64	0x3dcf155c	0.10111496
65	0x3d4d0f9b	0.05006371
66	0xbd70bfd2	-0.058776684
67	0xbe10c941	-0.14139272
68	0x3c4f6a49	0.012659618
69	0x3d885827	0.06657439
70	0xbdf25ff3	-0.11834707
71	0xbe062c3f	-0.13102816
72	0x3ca82688	0.020526186
73	0x3d9bf6a9	0.07615406
74	0xbe3525f5	-0.1769026
75	0x3d18e4ff	0.037327763
76	0x3e16a57d	0.14711566
77	0xbe043c82	-0.12913707
78	0xbdb41a53	-0.087940834
79	0x3e5518dc	0.20810264
80	0xbd6710b0	-0.0564124
81	0xbcd8f90f	-0.026485948
82	0x3bad0237	0.005279805
83	0xbd04f85b	-0.032463413
84	0x3d0844b6	0.033268653
85	0xbc6815d6	-0.014165362
86	0x3e76ab4e	0.24088785
87	0xbc0f2a92	-0.008738177
88	0x3e0dd691	0.13851382
89	0xbdcc0fab	-0.09963926
90	0xbd26aa04	-0.040689483
91	0x3d1c97d8	0.038230747
92	0x3e312275	0.172983
93	0xbe061037	-0.13092123
94	0x3e224724	0.1584745
95	0x3e736c1f	0.23771714
96	0x3b6c92ac	0.0036098165
97	0xbdf1168e	-0.1177188
98	0xbcd228d3	-0.025654232
99	0x3daf0eff	0.08547782
100	0xbd168706	-0.036749862
101	0xbe3fca1a	-0.1872944
102	0xbdc4155e	-0.09574388
103	0x3d005342	0.0313294
104	0xbe4ba9ca	-0.19888988
105	0x3e10d486	0.14143571
106	0x3b7e88ae	0.0038838792
107	0xbde63d0e	-0.11242114
108	0x3e0d7376	0.13813576
109	0xbd1db488	-0.038502246
110	0xbcdda1dd	-0.027054721
111	0x3d59fd18	0.053219885
112	0xbb930341	-0.004486472
113	0xbdd8bb17	-0.105825596
114	0x3ddb4c5b	0.10707923
115	0xbd2b69f0	-0.041849077
116	0xbe195559	-0.14973964
117	0xbd33deb9	-0.043913577
118	0xbda6db74	-0.08147326
119	0x3da36392	0.07977976
120	0x3d796ae2	0.060892947
121	0xbe019e2d	-0.12657996
122	0x3e17d77f	0.14828299
123	0xbde4f841	-0.11180163
124	0xbd00003c	-0.031250224
125	0x3da7c4d7	0.08191841
126	0xbce86a87	-0.028371109
127	0x3e6cbf66	0.23119888
128	0xbdbdc7d3	-0.09266629
129	0x3e7d1658	0.24715555
130	0xbccc2822	-0.02492148
131	0xbda08fa7	-0.078398995
132	0x3d65de19	0.056120012
133	0x3e3d5d19	0.18492545
134	0x3d15779e	0.03649103
135	0x3dacee2a	0.08443864
136	0x3dccb5cf	0.09995615
137	0xbddcc59d	-0.10779879
138	0x3e70a3b4	0.23499948
139	0xbe3e9514	-0.18611556
140	0x3e054657	0.13015114
141	0xbe1f0d6f	-0.15532468
142	0xbd8c83ae	-0.068610534
143	0x3c119bc7	0.008887238
144	0xbe0887f7	-0.13333116
145	0x3c6a7d55	0.014312108
146	0xbe5498d5	-0.20761426
147	0x3cf614e7	0.030039264
148	0xbe5ff272	-0.2186983
149	0x3d7ea2c9	0.062166963
150	0x3d5a9091	0.053360526
151	0x3df81d01	0.12114907
152	0xbe8a38d1	-0.26996472
153	0xbd54f715	-0.05199345
154	0xbd939593	-0.072062634
155	0xbd8d8685	-0.06910423
156	0xbd122492	-0.035679407
157	0x3e597283	0.21235089
158	0x3e6e273b	0.23257153
159	0x3d28beaa	0.041197456
160	0x3da98d68	0.08278924
161	0xbe2e48e1	-0.17019989
162	0xbd92caba	-0.07167573
163	0xbe3077a3	-0.17233138
164	0xbd5b656e	-0.053563528
165	0xbd76314a	-0.0601056
166	0xbde9c3fd	-0.11414335
167	0xbe95bd87	-0.2924616
168	0xbd3be612	-0.04587371
169	0x3e2717be	0.1631765
170	0x3de6dd2c	0.11272654
171	0xbe9d5d89	-0.30735424
172	0x3c78e7fc	0.015192028
173	0x3e53150b	0.20613496
174	0x3a8aa3e2	0.0010577405
175	0xbe626ad9	-0.22111072
176	0xbe2dc5f7	-0.16970049
177	0xbcd2d2e8	-0.025735334
178	0x3caf6c6d	0.021414006
179	0xbd49fcbb	-0.04931329
180	0xbe2fd6a2	-0.1717172
181	0x3e0cba63	0.13742976
182	0x3e51c3ff	0.20484923
183	0xbd43c1a9	-0.04779211
184	0xbdf53b2d	-0.119741775
185	0xbe1585ed	-0.1460187
186	0xbdd0521b	-0.101719104
187	0xbd152502	-0.036412247
188	0xbd9eb09f	-0.077485316
189	0xbdadf67c	-0.08494279
190	0xbdbad286	-0.091221854
191	0xbbaceaf0	-0.00527703
192	0x3ea1b9c1	0.3158703
193	0x3deed62f	0.11661946
194	0x3dac576c	0.08415112
195	0x3e52ff15	0.20605119
196	0x3dea2a96	0.11433904
197	0xbcf4d5d9	-0.029887127
198	0x3e1b2527	0.15150891
199	0xbd2a87cf	-0.041633423
200	0x3e226b85	0.15861328
201	0x3d1e04bb	0.03857873
202	0x3d214eb2	0.03938169
203	0x3e0dfe9c	0.13866657
204	0xbe217ddf	-0.15770672
205	0xbe3d7420	-0.1850133
206	0x3e035f65	0.12829359
207	0x3e317c87	0.1733266
208	0x3d26ac0a	0.040691413
209	0xbdbe2a5f	-0.092854254
210	0xbde9e24a	-0.11420114
211	0xbd8f80f9	-0.070070215
212	0xbe060090	-0.13086152
213	0xbe2d0a81	-0.16898538
214	0xbd9441fd	-0.07239149
215	0xbe20b1d4	-0.15692836
216	0x3e83a32e	0.25710434
217	0xbdb0b955	-0.08629099
218	0xbda83608	-0.08213431
219	0x3c6152c9	0.013752648
220	0xbe1c4f8f	-0.15264724
221	0x3de86bdb	0.11348697
222	0xbc87ddf5	-0.01658533
223	0x3cac9dae	0.021071281
224	0x3d63267e	0.05545663
225	0xbdb8cee4	-0.09023836
226	0xbe226bfb	-0.15861504
227	0xbdbe21fa	-0.09283824
228	0x3e5d4e21	0.21611835
229	0x3decb4ac	0.11557898
230	0x3d252299	0.040316198
231	0xbbb3538e	-0.005472607
232	0x3c95f741	0.018306376
233	0xbd87fa41	-0.06639529
234	0xbe2af1c4	-0.16693789
235	0x3d02b3fb	0.031909924
236	0xbe0bb9b8	-0.13645065
237	0xbe343b95	-0.17600854
238	0xbd881708	-0.06645018
239	0xbda993e8	-0.08280164
240	0xbcef6b34	-0.029225923
241	0xbe118fe5	-0.14215048
242	0xbd80dc38	-0.062920034
243	0xbe12a2ef	-0.14319967
244	0xbce589e7	-0.028019859
245	0x3d979f5c	0.07403442
246	0x3d1bead9	0.038065765
247	0xbb82e079	-0.0039940444
248	0x3d158db3	0.036512088
249	0x3a82e215	0.0009985591
250	0x3d38dc32	0.04513187
251	0xbddfad38	-0.10921711
252	0xbde0ec80	-0.10982609
253	0x3d8273f3	0.06369772
254	0x3e486dcb	0.19573133
255	0xbdb58d79	-0.088648744

graph_prop.message_funcs.1.bias f4 [32]
0	0xbdaffde3	-0.08593347
1	0x3c058619	0.008149647
2	0x3e65cbbb	0.22440998
3	0x3c5b769b	0.013394977
4	0xbdc967d5	-0.098342575
5	0x3d44ac4f	0.04801589
6	0x3db34c6b	0.0875481
7	0xbd82178f	-0.0635215
8	0x3dc30a50	0.09523451
9	0xbd06c460	-0.03290212
10	0x3d3e1972	0.046410985
11	0xbd6984c4	-0.05701138
12	0x3daaab2e	0.08333431
13	0x3d81c9d2	0.06337322
14	0xbe43aede	-0.19109675
15	0xbe1fc60c	-0.15602893
16	0x3e3f700f	0.1869509
17	0xbd4d6fe0	-0.05015552
18	0xbc38f7cd	-0.011289549
19	0xbe8911fa	-0.26771528
20	0x3ca7c6ca	0.020480532
21	0xbd3cf724	-0.04613413
22	0xbba8c505	-0.0051504397
23	0x3e45a3ab	0.19300716
24	0xbdb71c9c	-0.08941004
25	0x3d4f0e74	0.050550893
26	0x3ce3187d	0.027721638
27	0x3c7bb448	0.015362807
28	0x3bf5b091	0.007497855
29	0xbd777b07	-0.060420062
30	0xbdf7c932	-0.12098922
31	0xbd967f95	-0.07348553

graph_prop.node_update_funcs.0.weight_ih f4 [48, 32]
0	0xbb417592	-0.002951954
1	0xbc266dd1	-0.010158018
2	0xbe656ce5	-0.22404821
3	0xbdaf9d5b	-0.08574935
4	0x3e95ac27	0.29232904
5	0xbe726e99	-0.23675002
6	0x3e626883	0.2211018
7	0xbe0bacc9	-0.13640131
8	0x3ebbee12	0.3670507
9	0x3e450564	0.19240338
10	0x3cf92e29	0.030417519
11	0x3e60894e	0.21927378
12	0x3da5d1e4	0.08096674
13	0xbc9cbc92	-0.019132886
14	0x3c9a1bbf	0.018812058
15	0xbe303e21	-0.172112
16	0xbd5c4718	-0.053778738
17	0x3e0725fa	0.1319808
18	0xbcd3c9c9	-0.025853055
19	0x3e04740c	0.12934893
20	0xbda20e56	-0.079128906
21	0xbe8a4dc9	-0.2701247
22	0xbe03f63c	-0.128869
23	0x3db26031	0.08709753
24	0xbe160e16	-0.14653811
25	0xbc6a805b	-0.014312829
26	0xbc8cde52	-0.017195854
27	0xbd922d8f	-0.07137596
28	0x3d417930	0.047234714
29	0xbcf61e7f	-0.030043839
30	0xbe294019	-0.16528358
31	0x3cc3b25e	0.023888763
32	0xbd81f2a5	-0.06345109
33	0xbe2f400f	-0.1711428
34	0xbc4b73b5	-0.012417723
35	0xbe596c3f	-0.21232699
36	0x3cebffc3	0.02880848
37	0x3e1f8057	0.15576302
38	0x3e2243f5	0.15846236
39	0xbdcc9f69	-0.099913426
40	0x3e79c8d9	0.24393024
41	0x3e4b0776	0.19827065
42	0xbd5e847e	-0.054325573
43	0x3e07ace6	0.1324955
44	0x3bbd2f4c	0.0057734605
45	0x3df45482	0.11930181
46	0xbc63195e	-0.0138610285
47	0xbe1f3657	-0.15548073
48	0xbcac50ed	-0.021034682
49	0x3e26590f	0.1624491
50	0x3daaf942	0.083483234
51	0x3eb03ea4	0.3442279
52	0x3e0f7dfd	0.14012904
53	0xbe3752db	-0.179027
54	0x3d8c3283	0.06845572
55	0xbd0e88cc	-0.03479843
56	0x3b906322	0.004406349
57	0xbd5b11b9	-0.0534837
58	0x3e836882	0.2566567
59	0xbdcf832d	-0.10132442
60	0x3e0f9e1e	0.1402516
61	0xbd51748f	-0.05113655
62	0x3e504708	0.20339596
63	0xbdc446e4	-0.09583834
64	0x3e0afdaa	0.13573328
65	0xbe77bb56	-0.24192557
66	0x3e3cd1f4	0.18439466
67	0x3bfbe14c	0.0076867696
68	0xbdda37e9	-0.10655195
69	0xbe05ed51	-0.1307881
70	0xbe7bf713	-0.2460597
71	0x3e30bb35	0.17258914
72	0x3e961d84	0.29319394
73	0x3dc472d9	0.09592218
74	0xbd83b694	-0.064313084
75	0x3e0ab4dd	0.13545556
76	0x3da26a01	0.07930375
77	0x3e5d5bb8	0.21617019
78	0x3d40fa5e	0.04711377
79	0xbd81f808	-0.06346136
80	0x3d1e5f12	0.038664885
81	0x3e8e6826	0.27813834
82	0xbe017dc7	-0.12645636
83	0xbce6417d	-0.0281074
84	0xbe532d94	-0.20622855
85	0xbdbf6b58	-0.09346646
86	0xbdebc9a9	-0.11513073
87	0xbbdeb0b2	-0.006795966
88	0x3d1d2cde	0.038372867
89	0x3e022615	0.1270984
90	0x3d657fae	0.056029968
91	0x3db98ae8	0.090596974
92	0x3c567c89	0.013091215
93	0xbd7e1b41	-0.06203771
94	0x3e0dc4ec	0.13844651
95	0xbeb3908d	-0.3507122
96	0x3e7205d4	0.23635036
97	0x3e2710ff	0.16315077
98	0x3e7d4066	0.24731597
99	0x3e7e4b3b	0.24833386
100	0xbc127c7c	-0.008940812
101	0xbe27003c	-0.16308683
102	0x3e1d3004	0.15350348
103	0x3ec6a612	0.38798577
104	0xbc18814f	-0.009308173
105	0x3e94f5ed	0.29093876
106	0xbd2c26d5	-0.04202922
107	0xbe5c2c3f	-0.21501254
108	0xbc28c559	-0.010300958
109	0x3e13a75e	0.14419314
110	0xbe49642c	-0.19667119
111	0xbe3cf533	-0.18452911
112	0x3e9a9f16	0.30199498
113	0x3e396e72	0.18108538
114	0x3e1d5a1e	0.15366408
115	0x3ce478cc	0.027889632
116	0xbc5df969	-0.013548234
117	0x3bed8928	0.0072490163
118	0x3d5a4602	0.05328942
119	0x3dbe3fc9	0.0928951
120	0x3e212c9a	0.1573967
121	0x3b434729	0.0029797053
122	0x3d39310a	0.045212783
123	0x3e0f9059	0.14019908
124	0xbdf67120	-0.12033296
125	0xbdb22469	-0.08698351
126	0xbdd4a872	-0.10383691
127	0x3da7d475	0.0819482
128	0xbc7841a7	-0.0151523715
129	0x3e322eac	0.17400616
130	0x3d3096f7	0.04311272
131	0x3e708cbb	0.23491184
132	0xbdb0f530	-0.08640516
133	0xbd8f60fd	-0.07000921
134	0x3cc77807	0.024349226
135	0x3e4114a1	0.18855526
136	0xbc24a463	-0.0100489585
137	0x3d4c6393	0.04989965
138	0x3e010d15	0.12602647
139	0x3c9776ad	0.018489206
140	0x3e427b05	0.1899224
141	0x3dc51b34	0.09624329
142	0xbd52109c	-0.05128537
143	0xbe36ef34	-0.17864686
144	0xbe6546ff	-0.22390364
145	0x3e26b5a2	0.16280225
146	0xbe0c8804	-0.13723761
147	0xbe3dab84	-0.1852246
148	0xbc95d2db	-0.01828902
149	0xbe53e3e3	-0.206924
150	0x3e468e45	0.19390209
151	0xbe0cef97	-0.13763271
152	0x3e9bb4cb	0.30411372
153	0xbdb0d615	-0.08634583
154	0xbe363b1f	-0.1779599
155	0xbe8db721	-0.2767878
156	0x3d16ebb3	0.036845874
157	0xbe622f7f	-0.22088431
158	0x3d33fc83	0.043941986
159	0x3de030d9	0.10946817
160	0x3e279e27	0.16368924
161	0x3e3acac4	0.18241411
162	0xbd63276c	-0.055457518
163	0x3df7fa28	0.121082604
164	0xbd5cc815	-0.05390175
165	0x3e879177	0.26478168
166	0x3e436566	0.19081649
167	0x3e2fa7eb	0.171539
168	0xbe1041a7	-0.14087544
169	0x3d83a7a5	0.0642846
170	0x3d2775d3	0.04088385
171	0xbd47580a	-0.048667945
172	0xbeb5cbd0	-0.3550706
173	0x3e5e4112	0.2170451
174	0xbc015d18	-0.00789573
175	0x3db8a93c	0.09016654
176	0xbdd4d429	-0.10392029
177	0x3e1b6d6e	0.15178463
178	0xbba0d1a3	-0.004907803
179	0xbe85007b	-0.2597693
180	0xbe1aa70b	-0.15102784
181	0xbe465678	-0.19368923
182	0xbe4a271c	-0.19741482
183	0x3e868fee	0.26281685
184	0xbda782e5	-0.08179263
185	0x3e461a57	0.19345985
186	0x3d83b3f6	0.06430809
187	0xbcfc9563	-0.030832952
188	0xbdeaa710	-0.11457646
189	0x3e8d38a9	0.2758229
190	0xbd912604	-0.07087329
191	0xbdb70e09	-0.08938224
192	0x3d33df47	0.043914106
193	0x3dcc008a	0.0996104
194	0x3e2b283e	0.1671457
195	0xbe31edd3	-0.17375879
196	0xbd8cfd06	-0.06884198
197	0xbe1378ab	-0.144015
198	0x3cfa4212	0.030549083
199	0x3d8ad8dc	0.06779644
200	0x3e80016e	0.2500109
201	0xbc418e9c	-0.011813786
202	0x3e37f3c8	0.17964089
203	0xbd9d3eba	-0.0767798
204	0xbd3f0f10	-0.046645224
205	0xbd952028	-0.07281524
206	0xbcaa8fbd	-0.020820493
207	0x3dc26fbd	0.09493969
208	0xbe8a48bb	-0.27008614
209	0xbe52b856	-0.20578131
210	0xbe3cee28	-0.18450224
211	0x3c4503f5	0.012024869
212	0x3daeb5b4	0.08530751
213	0x3e0d9998	0.13828123
214	0xbdedadc6	-0.1160541
215	0xbe189c0a	-0.14903274
216	0xbe1a7298	-0.15082777
217	0x3db9ce6f	0.09072577
218	0x3dbaa1a5	0.091128625
219	0x3ee3472a	0.4439023
220	0x3d3d7b5b	0.04626022
221	0xbe6dff90	-0.2324202
222	0x3e0c7dac	0.13719815
223	0x3dece454	0.11566988
224	0xbea5cc7f	-0.3238258
225	0xbced1f8a	-0.028945703
226	0x3c54f84b	0.012998651
227	0xbdf6d3c1	-0.120521076
228	0x3b52d2b2	0.0032169041
229	0xbd7df19b	-0.06199799
230	0xbe4430f1	-0.19159295
231	0x3e1f0c62	0.15532067
232	0xbe11095b	-0.14163725
233	0x3d48121f	0.048845407
234	0xbe694eea	-0.2278401
235	0x3c192d66	0.009349203
236	0xbc18f0fa	-0.009334797
237	0xbe15694c	-0.14590949
238	0x3e919fb7	0.28442165
239	0x3e05267f	0.13002966
240	0xbe68d2e9	-0.22736706
241	0x3c38ce98	0.011279725
242	0x3da504ea	0.08057578
243	0x3e3c2fab	0.18377559
244	0x3d3fa3c5	0.046787042
245	0xbed2cd28	-0.41172147
246	0x3e74fb21	0.23923923
247	0x3dafa019	0.08575458
248	0x3be45212	0.0069677914
249	0xbd4c433a	-0.0498688
250	0xbe083357	-0.13300835
251	0x3d9050f5	0.07046691
252	0x3e7899e7	0.24277459
253	0x3dbff256	0.09372394
254	0x3c5ca5b6	0.013467243
255	0xbd395acd	-0.04525261

graph_prop.node_update_funcs.0.weight_hh f4 [48, 16]
0	0xbd8b205c	-0.067932814
1	0x3ddd5669	0.10807497
2	0x3e6a79ce	0.22898027
3	0xbe8ecfe2	-0.27892977
4	0x3de8be98	0.11364478
5	0xbe81381d	-0.25238124
6	0x3d7ab493	0.061207365
7	0x3cfd74cd	0.030939484
8	0x3eca9458	0.39566302
9	0xbdaa59db	-0.0831792
10	0x3e0d367f	0.1379032
11	0x3e827759	0.2548168
12	0x3e0e348e	0.13887236
13	0xbdecf5f4	-0.11570349
14	0xbe77b48c	-0.24189967
15	0x3c8b6556	0.017016094
16	0x3e7bf054	0.24603397
17	0x3de4683e	0.11152695
18	0x3d50c462	0.050968535
19	0x3ddbad8f	0.10726463
20	0xbd16d7e2	-0.036826976
21	0xbc26fd91	-0.010192291
22	0xbc28d923	-0.010305676
23	0xbdeef63b	-0.116680585
24	0x3de4412a	0.111452416
25	0xbb749bf3	-0.0037324398
26	0xbe4f4aba	-0.2024335
27	0xbe47e566	-0.19521102
28	0xba1b781e	-0.00059306796
29	0xbf11d670	-0.5696783
30	0xbe83afd2	-0.25720078
31	0xbe7062d5	-0.23475201
32	0x3d6cd91d	0.057824243
33	0xbe238700	-0.15969467
34	0x3d72d042	0.05928064
35	0x3e89e16f	0.26929805
36	0xbcc961aa	-0.024582703
37	0x3e66c7f0	0.22537208
38	0xbe76fca8	-0.24119818
39	0x3d1b4ed1	0.037916962
40	0x3ce90943	0.0284468
41	0xbecfa9d5	-0.4055926
42	0x3d355513	0.044270586
43	0x3c937dfe	0.018004414
44	0x3db2e5b2	0.08735217
45	0xbcf3103f	-0.029670833
46	0x3e14e37a	0.145399
47	0x3e697c1e	0.22801253
48	0x3dd9436c	0.10608563
49	0xbc97e60c	-0.018542312
50	0xbe5409ea	-0.20706907
51	0x3df46b70	0.119345546
52	0x3eaa5bad	0.33273068
53	0x3d927cb2	0.0715269
54	0x3e7f7ec7	0.24950705
55	0x3df63781	0.12022305
56	0x3eaa10e5	0.33216015
57	0x3d771033	0.060318183
58	0x3dbfea72	0.09370889
59	0xbc80f859	-0.015743421
60	0xbe8977f1	-0.2684932
61	0x3e50c1e1	0.20386459
62	0x3d33cf76	0.043899022
63	0xbe446f32	-0.19183043
64	0xbc443f59	-0.011977994
65	0x3d98facb	0.0746971
66	0x3ec1d13a	0.3785494
67	0x3e9318e5	0.2872993
68	0x3e19fd6e	0.15038082
69	0x3e491ef4	0.19640714
70	0xbe531752	-0.20614365
71	0xbe92a256	-0.28639477
72	0x3e0243c3	0.12721162
73	0x3e34895a	0.1763052
74	0x3da80760	0.08204532
75	0xbe10e158	-0.14148462
76	0xbe064d0f	-0.13115333
77	0xbcc090ef	-0.02350661
78	0xbe31740e	-0.17329428
79	0xbe1c8b71	-0.15287568
80	0xbdac3eed	-0.0841044
81	0xbd8a597c	-0.06755349
82	0xbec4930c	-0.38393438
83	0xbda89257	-0.08231037
84	0xbe03b6bd	-0.12862678
85	0xbd6cab6d	-0.057780672
86	0x3e8eca37	0.27888653
87	0xbdd0f8cc	-0.10203704
88	0x3d7e1e33	0.06204052
89	0xbe53de91	-0.20690371
90	0xbe6877ef	-0.22702001
91	0x3b321cb2	0.0027177748
92	0xbd678da5	-0.056531567
93	0x3e61cb68	0.2205025
94	0x3b8c7fc4	0.004287692
95	0x3e22042e	0.15821907
96	0x3d63d861	0.055626277
97	0xbe236502	-0.159565
98	0x3dd61907	0.10453992
99	0xbda1ac50	-0.07894194
100	0xbc38540f	-0.01125051
101	0x3bdd7b1a	0.0067590596
102	0x3da60c5c	0.08107826
103	0xbdb51de5	-0.088435926
104	0x3d11f058	0.0356296
105	0xbd9002dc	-0.070317954
106	0x3c865344	0.016397126
107	0x3e11bd34	0.14232332
108	0x3ca6da81	0.020367863
109	0xbd5eb8aa	-0.054375328
110	0xbc8a60c9	-0.016891854
111	0xbe2851c7	-0.16437446
112	0x3e274ebe	0.16338632
113	0xbe8b11fb	-0.27162156
114	0x3e1ce297	0.15320812
115	0x3b3d2ada	0.0028864653
116	0x3eaabd36	0.3334748
117	0xbdb286fd	-0.08717153
118	0xbbcaa2d6	-0.0061839623
119	0x3e84a61c	0.2590798
120	0xbe5afef7	-0.21386324
121	0xbd690a64	-0.056894675
122	0xbea3bb78	-0.31978965
123	0xbdc1879f	-0.09449696
124	0xbe81623d	-0.25270262
125	0xbdb0fd21	-0.086420305
126	0xbe2e7057	-0.17035042
127	0xbd36f2a5	-0.044664998
128	0xbe2e18b0	-0.17001605
129	0xbe1ea2bf	-0.1549177
130	0xbe2d1536	-0.16902623
131	0x3db3aaa5	0.08772782
132	0x3d60229a	0.0547205
133	0xbd4b9eae	-0.049711876
134	0x3d87d8c6	0.06633143
135	0x3daa6e4e	0.0832182
136	0xbe4ed756	-0.20199332
137	0x3dcb6012	0.09930433
138	0x3cd30196	0.025757592
139	0x3ae3bf3c	0.0017375718
140	0xbdb0eccd	-0.08638916
141	0xbc981da1	-0.018568816
142	0x3da2d34e	0.079504594
143	0xbe3faa90	-0.18717408
144	0x3cfbc282	0.030732397
145	0x3e0703b4	0.13185006
146	0x3e6d8b77	0.23197733
147	0x3dc073d3	0.09397092
148	0xbdabba9f	-0.083852045
149	0xbdcf6185	-0.10126022
150	0x3de364e5	0.111032285
151	0xbdadfd97	-0.08495634
152	0xbcc6d3f0	-0.024270982
153	0x3ea66aa7	0.32503244
154	0x3df21591	0.1182052
155	0x3d24a37a	0.040194966
156	0x3e5f9f64	0.21838146
157	0xbdacfe32	-0.084469214
158	0x3e50a9ce	0.20377275
159	0xbe1627d3	-0.14663629
160	0x3e579308	0.21052182
161	0x3e2212a3	0.15827422
162	0xbeae4531	-0.34037164
163	0xbe2158b3	-0.15756492
164	0x3bca9e6c	0.006183436
165	0x3cf5541e	0.029947337
166	0x3df6901a	0.12039204
167	0x3e98052e	0.29691452
168	0xbe08bccf	-0.13353275
169	0x3d39511d	0.04524337
170	0xbe13bc03	-0.1442719
171	0x3e3092d1	0.17243506
172	0xbd476633	-0.04868145
173	0xbdcef2d9	-0.10104913
174	0x3e298d6a	0.16557851
175	0xbdf4668c	-0.11933622
176	0xbd62b8e8	-0.05535212
177	0xbdbf784f	-0.09349119
178	0x3e2c00f5	0.1679724
179	0xbcd705e6	-0.02624793
180	0xbe7ca1e5	-0.24671133
181	0x3e10b68a	0.14132133
182	0x3e183b87	0.14866458
183	0xbdc6c6bc	-0.09705874
184	0x3d57545c	0.052570686
185	0xbe22a6ed	-0.1588399
186	0x3cf56a91	0.029958041
187	0xbd96f6da	-0.07371302
188	0xbe22a28f	-0.15882324
189	0xbe96ba72	-0.2943912
190	0xbd5db885	-0.05413105
191	0xbddfb654	-0.10923448
192	0xbdd17ce9	-0.10228903
193	0xbeb5ad8c	-0.35483968
194	0xbd0be0ac	-0.03414981
195	0xbe2964a0	-0.16542292
196	0x3e43ab51	0.19108321
197	0xbef26a5c	-0.4734677
198	0xbdc6eb20	-0.09712815
199	0x3d63efc1	0.05564857
200	0x3d1255b4	0.035726264
201	0xbdd5186f	-0.10405051
202	0xbd401932	-0.046899028
203	0x3e947ad9	0.28999975
204	0xbe0f6027	-0.14001523
205	0x3e9314ea	0.28726894
206	0xbdd3f4b1	-0.103494056
207	0x3da74711	0.08167852
208	0x3d8efde0	0.069820166
209	0x3d66e451	0.056370083
210	0x3e05b13f	0.13055895
211	0x3dbb0d58	0.091334045
212	0xbe535511	-0.20637919
213	0xbcabfd8e	-0.020994928
214	0x3d03e106	0.03219702
215	0x3df47ad7	0.11937492
216	0x3cca6cbf	0.024710057
217	0xbde1042c	-0.10987124
218	0x3e053d75	0.13011725
219	0xbd9298d5	-0.07158057
220	0xbeb093b6	-0.34487695
221	0xbcdc0774	-0.026859023
222	0x3e4fb7d5	0.2028497
223	0x3dade992	0.084918156
224	0xbc4c7bab	-0.012480657
225	0x3d838aa4	0.06422928
226	0x3d59a1b8	0.053132743
227	0x3daaad47	0.08333831
228	0xbd4d15de	-0.050069682
229	0xbe4b9690	-0.19881654
230	0xbe2ba5f3	-0.16762523
231	0xbd8b67e6	-0.068069264
232	0x3d090078	0.033447713
233	0xbe7af000	-0.24505615
234	0xbe2def8d	-0.16985913
235	0xbe63c633	-0.22243576
236	0x3e40cfc5	0.18829258
237	0x3e8fc1ea	0.28077632
238	0x3dc2979d	0.09501574
239	0x3d6853e8	0.056720644
240	0x3def1092	0.116730824
241	0xbe9124bb	-0.28348336
242	0x3e0bd97a	0.1365718
243	0xbda317b7	-0.079635076
244	0xbcf9a595	-0.030474463
245	0x3e26737d	0.16254993
246	0xbde63da1	-0.112422235
247	0xbc088daa	-0.008334557
248	0x3d889cf2	0.0667056
249	0xbe8569ba	-0.26057225
250	0x3d4577fd	0.048210133
251	0xbce8f355	-0.028436342
252	0x3bd6e64e	0.006558216
253	0x3d3b7979	0.045770142
254	0xbd83e4af	-0.06440102
255	0x3ca4c712	0.020114455

graph_prop.node_update_funcs.0.bias_ih f4 [48]
0	0x3f720e26	0.9455284
1	0xbe3a28f7	-0.1817969
2	0xbf567600	-0.83773804
3	0xbf964e7c	-1.1742702
4	0x40027ce4	2.0388727
5	0x3ed7bb3a	0.4213503
6	0x3e5c3550	0.21504712
7	0x3f1820ab	0.5942485
8	0xbe8cb007	-0.27478048
9	0xbee34eaa	-0.44395953
10	0xbf08cea4	-0.5344031
11	0x3f899686	1.0749061
12	0x3f35367e	0.70786273
13	0xbf0be5cd	-0.54647523
14	0x3f05d3bb	0.522762
15	0x3f5c945f	0.86163896
16	0x3fdf554e	1.7447908
17	0xbfa44fdc	-1.2836871
18	0x3f64a10e	0.8930825
19	0x3f755445	0.9583171
20	0xbea468f8	-0.32111335
21	0xbf9b2a7c	-1.212234
22	0xbf1376f2	-0.5760337
23	0xbf33f96e	-0.70302474
24	0xbf1d1b32	-0.6136962
25	0xbf929440	-1.1451492
26	0x3c7fe913	0.015619534
27	0xbf086946	-0.53285635
28	0x3f465cd8	0.7748542
29	0xbef6e6ac	-0.48222864
30	0xbe5efbae	-0.21775696
31	0xbe81ad81	-0.25327685
32	0xbf87af55	-1.0600382
33	0x3eacd5ed	0.33756962
34	0x3e563e52	0.20922211
35	0x3fbd7503	1.4801334
36	0xbf2d3e32	-0.6767303
37	0x3fc216dd	1.5163227
38	0x3f1486b2	0.5801803
39	0xbf96bb74	-1.1775956
40	0x3f8acef0	1.0844402
41	0x3f011cbc	0.5043447
42	0x3e8d3b31	0.27584222
43	0x3f20ae0d	0.6276558
44	0x3ec6d320	0.3883295
45	0xbf96c8b0	-1.1779995
46	0x3c4498f8	0.011999361
47	0x3d60af66	0.054854773

graph_prop.node_update_funcs.0.bias_hh f4 [48]
0	0xbef27f47	-0.4736273
1	0x3ed80047	0.42187712
2	0x3faa6cd9	1.3314468
3	0x3f163be9	0.58685166
4	0xbfaed756	-1.3659465
5	0xbfe1aa34	-1.7630067
6	0x3e97f9f2	0.2968288
7	0xbd7440dd	-0.05963217
8	0xbd97eb75	-0.07417957
9	0x3dee548d	0.116372205
10	0xbf8ad5ff	-1.0846556
11	0xbf891e7c	-1.0712428
12	0x3fab2cee	1.3373086
13	0x3fc109cc	1.5081115
14	0x3e64a615	0.2232898
15	0x3f865d1a	1.0497162
16	0x3f21ca2f	0.6319913
17	0xbed3cf2b	-0.41368994
18	0xbef51bfb	-0.4787291
19	0x3f61cccb	0.88203114
20	0x3f998f56	1.1996868
21	0xbfdb1b6c	-1.7117743
22	0xbec65703	-0.3873826
23	0xbfbd2877	-1.4777974
24	0x3f4a7952	0.7909137
25	0x3fa73a0f	1.3064593
26	0xbfdc461e	-1.7208898
27	0xbe30a048	-0.17248642
28	0x3f818c08	1.0120859
29	0xc0143a3b	-2.316054
30	0xbf320b39	-0.69548374
31	0xbf9a01d3	-1.2031807
32	0xbe913334	-0.28359377
33	0xbece4a58	-0.40291095
34	0x3fae6a18	1.3626127
35	0x3f1dcbdb	0.61639184
36	0xbf93dc4b	-1.1551603
37	0xbf4615c6	-0.77376974
38	0xbe2edbf4	-0.17076093
39	0xbf6f6e3f	-0.935276
40	0x3f144fb2	0.57934105
41	0xbf4d8b76	-0.80290926
42	0x3e837564	0.256755
43	0xbfa609bd	-1.2971722
44	0xbf5ce772	-0.8629066
45	0xbe85b194	-0.26112044
46	0x3fa8c688	1.3185587
47	0x3f9c8a5b	1.2229723

graph_prop.node_update_funcs.1.weight_ih f4 [48, 32]
0	0x3d26d932	0.040734477
1	0xbd7443de	-0.059635036
2	0xbec14587	-0.37748358
3	0xbdfc29ac	-0.12312636
4	0xbe25efb7	-0.16204725
5	0x3e1b0b7c	0.151411
6	0x3e28fd87	0.16502963
7	0xbb9bdee0	-0.0047567934
8	0x3e45eaa4	0.1932779
9	0xbe1dffee	-0.1542966
10	0xbd708ccb	-0.05872802
11	0x3e8f1260	0.27943707
12	0x3e0c34c3	0.13692002
13	0xbdf1065e	-0.117687926
14	0x3dea5838	0.11442608
15	0xbe779e3c	-0.24181455
16	0xbaeb813d	-0.0017967593
17	0xbe421e48	-0.18956864
18	0xbe9b8937	-0.30378124
19	0x3e839600	0.25700378
20	0xbe5533a0	-0.20820475
21	0xbdd7523d	-0.105137326
22	0xbe81dbc4	-0.2536298
23	0xbe9024d2	-0.28153092
24	0x3e18be49	0.14916338
25	0xbe244a69	-0.1604401
26	0x3e0da68c	0.13833064
27	0x3c0fe615	0.008782883
28	0x3e28a10b	0.16467683
29	0x3caeceaa	0.02133878
30	0xbd5d0a68	-0.053965002
31	0xbd9dd735	-0.07707063
32	0xbd1438fc	-0.036187157
33	0xbe412cad	-0.18864699
34	0xbe9e0cca	-0.30869132
35	0xbe928caf	-0.28622958
36	0x3d557e34	0.05212231
37	0xbe52e531	-0.20595242
38	0xbe2e5310	-0.17023873
39	0xbe30e997	-0.17276607
40	0x3d0a813d	0.033814657
41	0x3e0e6333	0.13905029
42	0x3cbc42bd	0.022981042
43	0x3e64bbd0	0.2233727
44	0x3dc906aa	0.09815724
45	0x3e5c8257	0.21534096
46	0xbe8223b5	-0.25417867
47	0xbcbdbca8	-0.023161247
48	0xbda981a2	-0.082766786
49	0xbc1c35be	-0.0095342975
50	0xbd298287	-0.041384246
51	0x3d34544f	0.044025715
52	0x3a395081	0.0007069186
53	0x3c1534e0	0.009106845
54	0x3d93ee9a	0.07223244
55	0x3e505de1	0.20348312
56	0xbc31cdd1	-0.010852293
57	0x3d16c650	0.03681022
58	0x3dae9483	0.0852442
59	0xbd315f20	-0.04330361
60	0x3e1eaced	0.15495653
61	0x3ea68e78	0.3253057
62	0xbd81e2f4	-0.06342116
63	0x3d8b137d	0.067908265
64	0x3dbc68a2	0.091996446
65	0x3cb0616e	0.021530833
66	0xbe3ff213	-0.18744688
67	0xbe70eae5	-0.23527105
68	0xbe055bd3	-0.1302331
69	0x3da90a24	0.08253887
70	0x3c94239d	0.018083388
71	0xbe87a1f8	-0.2649076
72	0x3db5b885	0.08873085
73	0xbd9abe56	-0.07555835
74	0x3dd92f2d	0.10604701
75	0xbe2f5207	-0.17121135
76	0x3e6c1fc0	0.23058987
77	0xbd1fd4e9	-0.039021406
78	0x3e31af14	0.17351943
79	0x3c88db65	0.016706178
80	0xbe1f211b	-0.15539972
81	0xbe264a2d	-0.16239233
82	0x3e085be5	0.13316305
83	0x3d6d713f	0.057969328
84	0x3e7b0403	0.24513249
85	0x3e8ab4f6	0.27091187
86	0xbe2e389b	-0.17013781
87	0x3e04916b	0.12946098
88	0xbe37d235	-0.17951281
89	0x3dc0f10d	0.09420977
90	0xbd7e3a02	-0.06206704
91	0xbe0db040	-0.13836765
92	0xbe15cc65	-0.14628752
93	0xbddc532a	-0.1075805
94	0xbdf2af94	-0.11849895
95	0x3db1fd23	0.0869086
96	0xbe625a7e	-0.22104833
97	0xbe43729d	-0.1908669
98	0xbdbe718e	-0.092990026
99	0x3df43fd5	0.119262375
100	0x3e800268	0.25001836
101	0x3e8a57df	0.27020165
102	0xbc8ac0f1	-0.016937705
103	0xbbb439cf	-0.0055000554
104	0xbdaabccd	-0.08336792
105	0xbd9e90eb	-0.07742485
106	0x3e37deec	0.17956132
107	0xbd11339c	-0.03544961
108	0x3dcecd5b	0.10097762
109	0x3ddbabd0	0.1072613
110	0x3eac49f2	0.33650166
111	0x3dc028f9	0.09382815
112	0x3e323709	0.17403807
113	0xbe2ba6f3	-0.16762905
114	0x3daabf2f	0.083372466
115	0xbd2c3814	-0.042045668
116	0x3e6c5bda	0.23081914
117	0xbe48117b	-0.19537918
118	0x3c221ad5	0.009894093
119	0x3d950828	0.07276946
120	0x3ceb4ff6	0.028724652
121	0xbd9165f6	-0.07099526
122	0x3ca8208a	0.020523328
123	0xbc389672	-0.011266338
124	0xbc8864ff	-0.016649721
125	0xbdf6d613	-0.1205255
126	0x3b6d2ccc	0.003619003
127	0xbe94d29d	-0.29066935
128	0x3ebab564	0.36466515
129	0x3daf3bad	0.08556304
130	0x3d618a1f	0.055063363
131	0xbd9d07fa	-0.07667537
132	0xbe48e611	-0.19619013
133	0x3d92de8c	0.07171354
134	0x3e649922	0.2232404
135	0x3e873796	0.26409596
136	0x3cdb4ba5	0.026769469
137	0xbd4bdbb0	-0.049770057
138	0xbd524d90	-0.0513435
139	0x3e6f6b2a	0.23380724
140	0x3e980e3b	0.29698357
141	0x3c436cf8	0.011927836
142	0x3e583674	0.21114522
143	0x3ec67ebc	0.38768566
144	0xbe104810	-0.1408999
145	0x3e1c3d4e	0.15257761
146	0x3e06d4b0	0.13167071
147	0x3dac7ea1	0.0842259
148	0x3cc2f443	0.023798114
149	0x3e75a04f	0.23986934
150	0x3ee5d0b2	0.44885784
151	0xbd7e9622	-0.062154897
152	0xbe1d6b73	-0.1537302
153	0x3ea4123d	0.32045165
154	0x3da6b717	0.0814039
155	0x3eb9b826	0.36273307
156	0xbe1243fe	-0.1428375
157	0x3ea039c8	0.31294084
158	0x3ea21778	0.3165853
159	0x3df3ba50	0.11900771
160	0x3d587bfd	0.05285262
161	0xbe3bd7d6	-0.18344054
162	0xbe5c92a0	-0.21540308
163	0xbd58beab	-0.05291621
164	0x3d87e689	0.06635768
165	0x3ec9d760	0.3942213
166	0x3e0d3290	0.1378882
167	0xbd669a31	-0.056299392
168	0x3e5bfc47	0.21482955
169	0xbe71511d	-0.23566099
170	0xbdd1ff21	-0.1025374
171	0x3d73d5bf	0.059530016
172	0x3deba12a	0.11505349
173	0xbc7fabd7	-0.015604935
174	0xbd93e8b0	-0.07222116
175	0x3debe977	0.11519139
176	0x3e921d4c	0.28537977
177	0x3e37d15e	0.17950961
178	0xbf1429ac	-0.57876086
179	0xbe475d1f	-0.19469117
180	0xbebaf3a1	-0.36514
181	0xbe0bae4b	-0.13640706
182	0x3b5d2c12	0.0033748192
183	0x3d2017b1	0.039085094
184	0x3da9189d	0.08256648
185	0x3ec4b702	0.38420874
186	0xbeba05c6	-0.3633253
187	0xbdffe094	-0.12494007
188	0xbe29bf27	-0.16576825
189	0x3d45edc5	0.048322458
190	0xbe411274	-0.18854696
191	0x3d578c12	0.052623816
192	0x3dc83634	0.097759634
193	0xbdedb60d	-0.11606989
194	0xbe10f014	-0.14154083
195	0xbe320019	-0.1738285
196	0x3d641834	0.055687144
197	0xbd4e54b3	-0.050373744
198	0xbd14139e	-0.03615152
199	0x3ea25439	0.31704882
200	0xbe45034f	-0.19239543
201	0xbe475a66	-0.19468078
202	0xbe83df84	-0.25756466
203	0xbe108636	-0.14113697
204	0xbe265d18	-0.1624645
205	0x3e0efda8	0.1396395
206	0xbe084fc5	-0.1331168
207	0xbdd20e06	-0.10256581
208	0xbea27792	-0.3173185
209	0x3da2416a	0.07922633
210	0xbdb04d40	-0.08608484
211	0xbbedcb5f	-0.0072569097
212	0x3d640816	0.055671774
213	0xbe0d9bd2	-0.13828972
214	0xbe83c66e	-0.25737327
215	0x3bb20840	0.0054331124
216	0x3d2a0119	0.041504953
217	0x39cda9a2	0.00039227033
218	0x3ca8806e	0.020569053
219	0x3e75a344	0.23988062
220	0x3e1311f9	0.14362325
221	0x3e801f17	0.2502372
222	0xbdb2e47e	-0.08734988
223	0x3d248e3d	0.04017471
224	0xbc4a817a	-0.012359971
225	0xbe45d053	-0.1931775
226	0xbd1d536a	-0.038409628
227	0xbd878c1b	-0.0661852
228	0xbe8c8fa7	-0.27453348
229	0x3d82832e	0.06372677
230	0xbdb197eb	-0.08671554
231	0x3dec2594	0.11530605
232	0x3e9645a0	0.29349995
233	0xbe9237d5	-0.2855822
234	0xbec19303	-0.37807474
235	0x3d5a708d	0.053329993
236	0x3e8a9eaa	0.27074176
237	0xbcd2ea95	-0.025746623
238	0xbe2c17a6	-0.16805896
239	0xbdd9ec3e	-0.10640763
240	0xbd578b77	-0.05262324
241	0x3d36130b	0.044451755
242	0x3d6fdf61	0.05856264
243	0xbe20c8bb	-0.15701573
244	0xbd87dd03	-0.066339515
245	0xbe4bd8fc	-0.19906992
246	0xbc8ed5d7	-0.017435951
247	0x3c9d7b38	0.019223794
248	0xbd9e3993	-0.07725825
249	0xbe67d39d	-0.22639318
250	0x3dda70de	0.10666059
251	0xbe9191db	-0.2843159
252	0x3e180486	0.14845476
253	0xbe8695cd	-0.26286164
254	0xbe46ea3d	-0.19425292
255	0x3da7fb7e	0.08202265
