housingpipeline/housingpipeline/dgmg/model.pth (torch, 293760 bytes, 42 tensors)

graph_embed.node_gating.0.weight f4 [1, 16]
000000 8d 29 7b 3e 2b b9 0b 3f 8c c3 25 3e f5 4f 10 3f
       0.24527569 0.5457942 0.16187876 0.56372005
000010 86 bd ed bc 3d 86 9d 3e d7 53 43 bd 3b b3 eb be
       -0.029021036 0.30766478 -0.047687378 -0.4603518
000020 dc df 8b be eb c4 f7 bc 4f 3a 59 3e 28 34 61 be
       -0.2731923 -0.030245265 0.21213649 -0.21992552
000030 3f db 35 be ef 70 a2 be 67 71 05 3c ea 47 c9 bc
       -0.17759417 -0.31726786 0.008144713 -0.024570424

graph_embed.node_to_graph.weight f4 [32, 16]
000000 31 53 eb 3d 28 fd f5 3e 36 56 3b 3e 69 74 86 be
       0.11490477 0.48044705 0.18294606 -0.2626069
000010 dd d4 be be 39 16 c1 3d b5 58 80 3e 7d d0 15 3f
       -0.37271777 0.09428067 0.25067678 0.5852125
000020 b2 d3 1a 3e 57 69 71 be 14 88 08 3e 1a 69 05 bd
       0.15119818 -0.2357534 0.1333316 -0.032570936
000030 2b 79 91 3e 8a 1c 23 3e 4d a3 26 be bc 09 91 3d
       0.28412756 0.15928856 -0.16273232 0.07081935
000040 ea 04 95 3e f8 bb aa 3d a8 d9 4a be 5f af bb bd
       0.29105312 0.083366334 -0.19809592 -0.09164309
000050 80 a9 6f 3e 26 38 02 3e 28 05 cd bd a9 80 d5 3e
       0.23404503 0.12716731 -0.10010749 0.41699722
000060 0e 74 ba 3d 97 86 b1 3d df 6a 18 3e e8 7d 05 be
       0.09104167 0.08668249 0.14884518 -0.1303631
000070 8f 0e 03 be ef 29 de 3e 87 15 4d 3e eb 95 73 bd
       -0.12798522 0.43391368 0.20027743 -0.059469145
000080 a6 88 f9 3e ba 69 40 be 64 29 d8 be 2d ba 16 3e
       0.48737067 -0.18790331 -0.4221908 0.14719458
000090 37 bd 79 3e fb 9d a8 bd fa d3 61 3e 3f 33 8b be
       0.24388586 -0.082332574 0.22053519 -0.27187535
0000a0 ce 71 42 3e ad f8 5b 3e 1c c1 c2 bd ca cd 6e 3e
       0.18988726 0.21481581 -0.09509489 0.2332069
0000b0 03 da c6 3d 89 ab 49 bc 0e 2a 8d 3e cf 65 10 be
       0.09709551 -0.012308964 0.27571148 -0.14101337
0000c0 d2 1a 9b 3e 0f 15 94 3d 79 0e cc 3b 6b 78 b1 bd
       0.302939 0.07230579 0.006227311 -0.08665546
0000d0 b8 e1 8b bc d7 91 2e be 4b d0 cc bc 28 93 75 3e
       -0.017075405 -0.17047821 -0.025001666 0.23981917
0000e0 e3 e0 e9 3e cd 42 b1 3e dc 9b 3d 3e ba 53 d5 bd
       0.45679387 0.34621277 0.18516487 -0.1041636
0000f0 7e 56 1a 3e 1b 4b d4 be 6e a4 5b 3e 1f 0e 19 be
       0.15072057 -0.4146355 0.21449444 -0.14946793
000100 f9 67 bc be 19 e4 1b be 65 6f 79 bd 18 31 54 be
       -0.36798075 -0.15223731 -0.06089725 -0.20721853
000110 b7 7e 26 3e 90 7e 94 be 34 27 ab be d1 02 d4 bd
       0.16259275 -0.2900281 -0.33428347 -0.103521
000120 05 68 38 3e 3a 07 1a 3e 6c 1e 05 be e1 cf 6b be
       0.1800843 0.15041819 -0.12999886 -0.23028518
000130 a0 d1 1f 3d 56 26 8a bd 58 cf a0 3d 86 77 03 3e
       0.039018273 -0.06745593 0.07852048 0.12838563
000140 3b 00 b8 bd e0 e0 6a be a4 f0 24 3c 78 b5 98 be
       -0.08984419 -0.22937346 0.010067139 -0.2982595
000150 cc da bb 3d 49 cf 54 bd 6a 2d 0e 3e 35 35 df 3d
       0.091725916 -0.051955495 0.13884512 0.1089882
000160 10 b4 fa be 36 74 46 3a 9c d5 0b 3f a3 c0 f6 bd
       -0.48965502 0.00075704174 0.5462282 -0.12048461
000170 cb 89 94 be e2 6d 19 3e be 04 ae 3e 47 75 02 be
       -0.29011378 0.14983323 0.33987993 -0.1274005
000180 9e 56 cf be 83 bf 0d 3c 48 e0 9b be ed e9 cf 3d
       -0.4049577 0.008651617 -0.3044455 0.1015204
000190 1d 1d 99 3e a5 48 a6 bd 05 1a 8b 3e 7e 01 14 bd
       0.29905024 -0.081193246 0.2716829 -0.036134236
0001a0 c8 a0 46 3e 95 88 86 3c 3d 76 ba be 75 0a 83 3e
       0.1939727 0.01642255 -0.36418334 0.25593916
0001b0 15 82 5d be af 20 c6 3d f1 f5 83 be b5 18 bf be
       -0.21631654 0.09674203 -0.25773576 -0.37323537
0001c0 8d 4b f8 3d 38 b6 d2 bd cf c7 ca bc aa 29 35 bc
       0.12123785 -0.10288662 -0.02475348 -0.011057297
0001d0 6a 4b cd 3e df 44 6b be 64 39 c5 3b 8b b1 57 3e
       0.400966 -0.22975491 0.0060188044 0.21063821
0001e0 07 e0 85 be 86 de 33 be f7 98 a7 3e 4e a2 0f 3e
       -0.26147482 -0.17565355 0.3273389 0.14026758
0001f0 72 7e d3 3a 8d 3b 54 bc d8 ea 87 be d9 ad 22 be
       0.0016135706 -0.012953651 -0.2654636 -0.1588663
000200 37 4a fe 3d 9e c1 0e 3e e4 dd 1f 3e b7 40 da 3d
       0.12416499 0.13941047 0.15611988 0.106568746
000210 0e 01 28 be 04 69 ad bd 79 ea 4f 3e c6 d3 0e be
       -0.16406652 -0.08467296 0.20304288 -0.13947973
000220 8d bf e6 3e 4f f2 61 3e d1 67 a9 3e 5a fc f1 3b
       0.45068017 0.2206509 0.33087018 0.007384819
000230 56 6c 68 be 94 4f 60 3e ec 82 83 3e 60 fb ce bc
       -0.22697577 0.21905357 0.25685823 -0.02526635
000240 00 3a ef 3d 93 b1 af 3e e6 c1 55 3e cd 4a 8c bd
       0.116809845 0.34315166 0.20874748 -0.068502046
000250 d2 10 95 3b cc c0 a5 be 6d 91 1e be 36 35 19 3d
       0.0045491243 -0.32373655 -0.15485163 0.03740426
000260 d7 b8 cd bd 91 27 cd be 09 16 81 bd e6 90 54 be
       -0.10045021 -0.4006925 -0.06303031 -0.207584
000270 ea 4b 81 be ab 6c f4 bb 10 e7 23 3d 4b d9 c8 3d
       -0.2525323 -0.0074592433 0.04001528 0.0980707
000280 1d b2 71 bd aa 9f da 3d 0a 3a ba bd 11 21 5f be
       -0.059007753 0.10674985 -0.09093101 -0.21789958
000290 fb 39 21 be 02 b7 92 3d 60 73 94 be 87 d7 e5 3d
       -0.15744774 0.07163812 -0.28994274 0.11222749
0002a0 e7 81 fa 3e fa a3 58 3e 56 47 e7 3c 49 49 55 be
       0.48927233 0.21156302 0.028232258 -0.20828737
0002b0 10 0e cf 3d 85 a0 d7 bd 82 db d3 be 79 ea d1 bd
       0.10110104 -0.105286635 -0.4137841 -0.102498
0002c0 61 2f 30 be 40 1b d8 bc 1d 8e 08 3f 99 bb 56 bd
       -0.17205574 -0.026380181 0.5334185 -0.052425
0002d0 da d8 26 3e 8d 6b 69 3d c1 5f b3 bd c3 ca fb 3d
       0.1629366 0.056987334 -0.08758498 0.12294533
0002e0 db f7 ec bd 6e 9f e2 3d b4 01 9d be 7c 8f 50 3d
       -0.11570712 0.11065565 -0.30665362 0.050918087
0002f0 71 b5 3f bc be 9f 9a bd 93 72 9f 3e c1 ea 40 3e
       -0.011700974 -0.0755 0.311421 0.18839552
000300 53 9d b3 3e bd a3 e8 3d f0 68 7a 3d 7e fe ea 3d
       0.35080966 0.113593556 0.061135232 0.11474322
000310 e3 55 3b bc b4 63 41 3e d7 37 8c bd 8e 70 a4 be
       -0.011434051 0.1888569 -0.06846588 -0.32117122
000320 f6 24 e9 ba 90 a9 8e 3e 50 c5 11 3e fe 55 c0 bd
       -0.0017787504 0.2786374 0.14235425 -0.09391402
000330 93 53 17 be e1 9d c3 3b 4f 4e 8d bd 85 51 f4 bd
       -0.14777975 0.0059697484 -0.06899702 -0.11929611
000340 0c c1 b0 3d 98 69 13 3e 1d ea 36 bd c7 de e0 bc
       0.08630571 0.1439575 -0.04465686 -0.027449979
000350 91 a1 8f bc e4 ae 4b 3e 1d 85 8e 3e 08 29 9f 3e
       -0.017533096 0.19890934 0.27835932 0.31085992
000360 a1 45 a6 3d 80 8e 52 3d 89 13 cb 3d d7 fb a7 bd
       0.081187494 0.05140543 0.099158354 -0.082023315
000370 bd dc 68 be f6 4c 22 3e 77 17 1f 3e 6c 9f d4 3d
       -0.22740455 0.15849671 0.15536295 0.1038197
000380 53 3c 2e 3d 58 be 44 3e 26 be 25 3e 6a 48 85 3e
       0.042538 0.19213235 0.16185817 0.2603181
000390 70 7b a2 bd 1f 37 06 bd 03 7f c9 be ab 7a 59 bd
       -0.079337 -0.03276741 -0.39354715 -0.0530955
0003a0 cc da 64 be 52 43 2c 3e ba ee 34 bc 84 39 fd bd
       -0.2234909 0.16822556 -0.011043245 -0.12364486
0003b0 d8 ed f7 3d 78 c9 df bd 54 6c 57 be b1 2c aa 3e
       0.12105912 -0.10927099 -0.21037418 0.33237222
0003c0 55 ce 1b bc 13 6a 00 3e 81 02 6f 3e f9 69 00 3e
       -0.009509643 0.12540464 0.23340799 0.12540425
0003d0 f7 38 a8 bd 30 8d 3c 3d 69 d5 e3 bd 13 80 a3 bd
       -0.0821399 0.046033084 -0.11124689 -0.079834126
0003e0 e4 5a 1e be 24 68 2f 3e 77 f9 d5 3d 24 5f a3 3d
       -0.1546436 0.1712957 0.10447972 0.07977131
0003f0 bf a9 15 be 83 f2 90 3e 0b b3 9a 3d 8a 53 85 bb
       -0.14615534 0.28310022 0.07553681 -0.0040687965

graph_embed.node_to_graph.bias f4 [32]
000000 26 88 09 40 6e 6a 92 be 32 ba de 3e 6c f5 76 3d
       2.1489348 -0.28596824 0.4350143 0.060292646
000010 96 2c 94 be 79 be 1c 3f 34 fa 92 bf 02 3a 96 3f
       -0.28940266 0.6122814 -1.1482606 1.1736453
000020 75 c0 72 bf 77 c3 11 3e a5 a2 93 be 26 5f 90 bf
       -0.94824916 0.1423472 -0.28835025 -1.1279037
000030 52 78 89 bf 9b 03 99 bf 4a 27 d7 3e 07 dc e8 3e
       -1.0739844 -1.1954225 0.42022163 0.45480368
000040 b3 8b 9d be 06 e6 41 bf 73 05 a7 3e f2 df 20 3f
       -0.30770645 -0.7574161 0.32621345 0.62841713
000050 b6 40 81 bf ab 68 d7 bf fc e3 a5 bd 97 3a 82 be
       -1.0097873 -1.6828817 -0.08100125 -0.25435326
000060 9b 69 13 bf ee 23 91 3e 5d 83 c8 3e f4 69 f9 3e
       -0.57583016 0.28347725 0.39162722 0.48713648
000070 72 d7 3e 3e 98 71 66 be ca 7d 6e 3f bf 36 04 40
       0.18636873 -0.2250427 0.9316069 2.0658414

graph_prop.message_funcs.0.weight f4 [32, 34]
000000 b3 8d 0e be 4f 50 05 3e 85 4d 81 3d b4 8f a8 bd
       -0.13921241 0.13018917 0.06313614 -0.08230534
000010 93 da f7 3d b1 ec 52 bc af c9 fc 3d 61 a0 29 3e
       0.121022366 -0.012873814 0.123431556 0.16565086
000020 c1 c0 d6 bd 7f 38 a5 3d fb 8b 55 bd 3d 75 df 3c
       -0.10485984 0.080674164 -0.05213545 0.027277583
000030 8c 35 94 bd b7 c9 a4 3c 30 da 28 be 10 4b e0 bd
       -0.07236776 0.020115716 -0.16489482 -0.10951817
000040 ac 3d bc 3c c2 11 9b bd 4d 2e 99 3b 7b f7 a9 bd
       0.022978626 -0.075717464 0.004674709 -0.08299156
000050 b5 9c 45 3c 0e c7 88 bc 0c e3 0a be fc 51 96 3d
       0.012061288 -0.01669648 -0.13563174 0.07339856
000060 8d 13 c4 bd 4f 95 74 bc 66 8b ac 3d 03 ae 63 3b
       -0.095740415 -0.014928176 0.08425026 0.003474117
000070 4f 7e 86 bc 11 5e 81 bd 99 9c 63 bc d3 1a 04 3e
       -0.01641765 -0.0631677 -0.013892316 0.12900858
000080 f6 4d e0 3c ee 34 08 3e 73 8e 50 be bc 66 51 bd
       0.027380925 0.13301441 -0.2036684 -0.051123366
000090 25 59 8f 3d ae 89 76 3c d6 2e 81 3d e7 1b d1 3d
       0.06999425 0.015047474 0.06307761 0.102104
0000a0 9f fa 0b 3e 75 bd 12 3e 1a ed db bd 42 c5 e4 bd
       0.13669823 0.14330085 -0.10738583 -0.111704364
0000b0 ff e0 01 3e f4 a9 54 3d 04 69 9a bd b0 3a 46 bd
       0.12683485 0.051919892 -0.075395614 -0.048395813
0000c0 98 3d a7 3c b1 94 15 bd cc 57 b7 bc ab 72 02 bd
       0.020415112 -0.036518756 -0.022380732 -0.031847637
0000d0 3c f2 d6 bd e3 ab 1f be ea 97 c5 bd c6 60 e3 3c
       -0.10495421 -0.15592913 -0.09648116 0.027756106
0000e0 8e c5 48 3c 82 78 7d bd e1 33 98 bd 75 b8 57 3d
       0.012254132 -0.061882503 -0.0743177 0.052666146
0000f0 fa de 9a bd 1d 8e 5e 3b 6e 5e 1f be f2 a6 39 bd
       -0.07562061 0.0033959218 -0.15563366 -0.045325227
000100 0f 77 0d be c1 d9 23 be 76 0f c1 bc 7b aa 02 3d
       -0.13814948 -0.16001035 -0.023566943 0.031900864
000110 20 dc 06 3c 3d 6d 80 3d 72 b8 04 be f9 10 f5 bc
       0.008231193 0.062708355 -0.12960985 -0.02991532
000120 e3 74 c0 3c 32 a0 50 3c 70 58 3b bd 8f 96 e5 3d
       0.023493236 0.012733506 -0.045738637 0.112103574
000130 3f 75 b2 bc d6 32 1c ba ba 1f c8 3c 3f 99 80 3d
       -0.021784423 -0.0005958503 0.02442919 0.062792294
000140 d1 f9 b5 bd 39 7c 5a 3d 6f a7 96 bd 5b 21 3e 3c
       -0.08885539 0.053341124 -0.07356154 0.011604632
000150 26 50 5b be ee b7 bb bd f0 e4 13 be 55 b4 cf 3d
       -0.21417293 -0.09165941 -0.14442801 0.101418175
000160 03 c4 a1 3d 14 3b 9c 3d 3a db fd 3d b1 16 34 bd
       0.078987144 0.07628456 0.1239533 -0.043966953
000170 a3 37 9b 3d e1 7e 06 3d 28 c0 80 bd 0f e4 e9 3d
       0.07578971 0.032835845 -0.06286651 0.11420452
000180 da 1f 6f bd 12 c2 4e 3d 6f a1 3d 3d df 94 c2 bc
       -0.058379985 0.05047805 0.046296533 -0.023752628
000190 b3 16 5a 3d 34 74 3c be 26 8d 0b 3e 4e 98 f2 bc
       0.053244304 -0.18403703 0.13628063 -0.02961364
0001a0 da 66 8e 3e 20 74 d5 bd 89 ab 1f 3e b5 b2 e0 bc
       0.27812845 -0.1042254 0.15592779 -0.027428964
0001b0 3a c1 8e bd 61 1f 1e bd 6e 4b 88 bd b4 6e 96 3c
       -0.06970449 -0.038604144 -0.06655012 0.018363334
0001c0 02 3a 10 3e c4 dd d2 3d a9 31 55 3c 52 4c a8 3b
       0.14084628 0.10296205 0.013012328 0.005136051
0001d0 a8 b9 bc 3d 1a 08 04 be 51 10 4d be f4 41 19 bd
       0.092150986 -0.12893716 -0.20025755 -0.037416413
0001e0 55 d1 8f bd f8 11 48 be ca db 55 bd b8 04 0e 3d
       -0.07022349 -0.19538105 -0.05221156 0.03467247
0001f0 35 05 56 3d b8 79 5c 3d 2c a5 d4 bd 9a b0 24 3e
       0.05225106 0.053827018 -0.103830665 0.16082993
000200 2a e4 4a bd d6 44 90 be 3e b9 54 be d8 e9 9d 3b
       -0.049534 -0.28177518 -0.2077379 0.004819136
000210 d4 fb 80 bd d6 b3 7e 3d a0 28 b4 3c a0 3a a6 bd
       -0.062980324 0.062183224 0.021992028 -0.081166506
000220 48 d4 4b 3c e7 aa 11 bc 6c 08 dc 3c 71 00 28 be
       0.0124407485 -0.008890844 0.026859485 -0.16406418
000230 7f 79 c6 bc 72 1c 49 3c fd cc e6 3d 3d b9 52 bd
       -0.024227856 0.012274848 0.11269567 -0.05144619
000240 4c 52 b9 bb 1a 89 04 be 5e 2e 1b bd 51 c1 1e 3c
       -0.0056555625 -0.12942925 -0.037886016 0.009689645
000250 64 aa 24 3e ae 42 4f 3e dd 98 a1 3d 05 f7 29 bd
       0.16080624 0.2024028 0.078904845 -0.04149534
000260 90 ec 5c bd df 86 99 3c 9f 9b da bb e0 fa bb 3b
       -0.05393654 0.01874107 -0.0066713835 0.0057366937
000270 7e 61 24 3d 35 aa 75 bc a0 15 b0 bb 3d b5 11 3c
       0.04013204 -0.014994194 -0.0053736717 0.008893308
000280 08 e7 82 bd 1e 72 40 3e df 15 69 3d 2d 7f bc bd
       -0.06391722 0.18793532 0.056905624 -0.09203944
000290 15 6b 31 be 5d 22 32 bd fb 69 b2 3c 02 16 98 3c
       -0.17326005 -0.043489803 0.021779051 0.018565182
0002a0 69 0f 7e 3e 7d ee f6 bd 55 2a f5 3d ef 47 17 3e
       0.24810566 -0.12057207 0.11970965 0.14773534
0002b0 04 2f 25 be 72 88 70 3b 0b af ee bd 2a b0 29 bd
       -0.16131216 0.0036702421 -0.116544805 -0.04142777
0002c0 f5 a6 b0 bd e2 bc c8 3d b8 79 cb 3a 6b 30 e7 3d
       -0.086255945 0.098016515 0.0015523946 0.11288532
0002d0 b3 af 91 3d b2 f8 0e 3d 9c 32 a2 bd 56 24 63 3d
       0.0711359 0.034905143 -0.07919809 0.055454575
0002e0 f7 ea 65 3d 2a c5 32 3d af 77 34 be 2e 49 2f 3c
       0.056132283 0.04364506 -0.1762378 0.0106986
0002f0 90 f8 88 bd 37 90 b9 bd 5c 29 5d bd 9b f1 80 bc
       -0.066880345 -0.0906071 -0.05399452 -0.015740206
000300 7d 61 a8 bb 91 49 84 bd 34 a9 7d bb 41 a1 72 bd
       -0.0051385746 -0.06459344 -0.003870559 -0.059235815
000310 59 41 75 bd 6a 2a bd bc b5 8f 0a 3e ac 80 29 3e
       -0.059876774 -0.023091514 0.13531382 0.1655299
000320 06 b8 c4 bc 67 ac f8 3c fc 1d b7 bc 12 aa 96 bd
       -0.02401353 0.030355645 -0.022353165 -0.07356657
000330 07 0c 28 bc c1 01 db 3c e4 98 cc bc be 76 4b bd
       -0.010256774 0.026734235 -0.024975248 -0.04967379
000340 0d 4a c1 bc 1d c5 b9 3c 43 43 01 3e f2 a4 17 3e
       -0.02359488 0.022676999 0.12623315 0.14809015
000350 fa 6b 04 be 27 e0 4f bd 0b c0 95 3d ea 56 62 3d
       -0.12931815 -0.050750878 0.0731202 0.05525867
000360 f2 5a 6e be 0a 9e 53 3c 88 09 02 bd 31 dc d7 bc
       -0.2327688 0.012916097 -0.03174737 -0.026350113
000370 b8 93 e6 3d b9 41 18 bd 83 c6 ae 3c 8c 47 83 3d
       0.11258644 -0.037172053 0.021334892 0.06410131
000380 88 19 bb bd 92 48 ba bd 16 1d 3d be 8b ed 97 3d
       -0.09135729 -0.09095873 -0.18468127 0.074183546
000390 d9 68 e0 3b 00 c2 31 bc 3c a5 7c 3c 84 5b 4b bd
       0.0068484363 -0.010849476 0.015420254 -0.049647823
0003a0 f7 ae 42 3d 89 99 a6 3b 79 57 cb 3c e6 15 8d 3d
       0.04753014 0.005084221 0.024821984 0.068889424
0003b0 ab 4a 23 3e ae 32 4e 3d dd 8d 7e 3c 9a 62 b0 bd
       0.15946452 0.0503413 0.0155367525 -0.08612557
0003c0 69 04 ec bd 72 2b fd 3b e0 b4 6d bd fe 27 8f 3e
       -0.11524279 0.0077261264 -0.058033824 0.279602
0003d0 70 31 97 3d 78 f4 2e bd d5 e5 f4 bc 8e fd 29 be
       0.07382476 -0.042713612 -0.029894749 -0.1660063
0003e0 53 ac 0f bb 53 6f 4d 3e ee 7d eb bc 30 1b 02 bd
       -0.0021922782 0.20061998 -0.028746571 -0.03176421
0003f0 f2 4c 93 3d 34 d9 3d be 6c 86 3f 3d 1b 7c f0 3d
       0.071924105 -0.18539888 0.046759054 0.11742421

graph_prop.message_funcs.0.bias f4 [32]
000000 48 ae 0e bd 25 7e 38 3d 4d 6e a8 bc 21 f2 7f 3d
       -0.034834176 0.045042176 -0.020560408 0.06248677
000010 16 73 80 bd 09 40 3e bd e6 6b bd 3c fe cb 3b be
       -0.06271951 -0.046447787 0.023122739 -0.18339536
000020 20 18 30 3d 44 79 17 bd 78 df e9 bd e4 19 27 3d
       0.042991757 -0.036980882 -0.114195764 0.040796176
000030 1f 35 ea 3d 9f 52 a1 bd 0e bc d5 bd d5 fd c9 bc
       0.11435913 -0.07877087 -0.10436259 -0.02465717
000040 54 b1 37 3e c1 53 d2 3d 3a 92 46 bc 5b 82 96 3d
       0.17938739 0.10269881 -0.012119824 0.07349082
000050 9b 21 01 3e da a6 83 3d 1d 39 6c 3d 1e 91 59 3c
       0.12610476 0.06428309 0.057671655 0.013279228
000060 06 67 2c 3e 05 95 ce 3c ff 94 19 3c 47 63 25 3d
       0.16836175 0.025217542 0.009373902 0.04037788
000070 c0 bf a7 3e 38 30 0d be 80 04 45 3e 7d d5 0c 3d
       0.3276348 -0.13787925 0.19239998 0.034383286

graph_prop.message_funcs.1.weight f4 [32, 34]
000000 90 90 b1 bd 98 98 2e bd b6 5d 17 3e e3 ec 29 3e
       -0.08670151 -0.042625993 0.14781842 0.16594271
000010 d0 d3 2d be 70 a6 23 bd 69 12 84 3b 79 30 ef bc
       -0.16975331 -0.03995365 0.004030515 -0.029197918
000020 d4 bb 10 be 2c 17 05 be f5 03 4c bb 2c 46 e2 3d
       -0.1413415 -0.1299712 -0.0031130288 0.110485405
000030 4f f3 bf 3d 20 b0 22 3e c3 d2 0e be b5 f5 ef 3d
       0.09372579 0.15887499 -0.13947587 0.11716787
000040 40 bf 3c 3e 44 2c ea bd 85 00 83 3d d6 66 fa 3d
       0.18432331 -0.11434224 0.063965835 0.12226646
000050 b2 96 a4 3d 38 1b 59 bd 4d 16 88 3d 9e da 0b 3d
       0.08036555 -0.053004473 0.066448785 0.034144036
000060 98 0d ff bc 6b 6e fc bc 3e 4a da 3d bf ad 92 3d
       -0.031134412 -0.03081437 0.10658692 0.07162046
000070 f2 72 e4 bd 84 ae 77 3b 43 fd 29 3e 78 32 9e 3d
       -0.111547366 0.0037793228 0.16600518 0.0772447
000080 20 13 9c bd 25 0d 89 3d 36 57 7a 3d 35 ad dc 3d
       -0.07620835 0.0669196 0.061118327 0.10775224
000090 fe 34 ae bc 72 a1 dc 3d b9 df 93 bd 41 3a 77 bd
       -0.021265503 0.10772981 -0.07220406 -0.06035829
0000a0 8b 88 02 bd 23 38 82 bd 1f 6b 3c 3d 2a 28 db bd
       -0.0318685 -0.063583635 0.046000596 -0.1070102
0000b0 72 27 e9 3c 61 02 92 bd 9c 23 1a 3c 68 68 a3 bd
       0.028461192 -0.0712936 0.009407904 -0.07978898
0000c0 7b 8f 1f 3b a8 b4 a7 bc 8f 4f 68 bd 9d 44 e3 3c
       0.0024346996 -0.020471886 -0.056716498 0.027742678
0000d0 cf 0e 01 bd 64 5a d4 ba c9 96 c1 bc d1 f7 d4 3d
       -0.031508263 -0.0016201255 -0.02363147 0.1039883
0000e0 1c 72 12 bd d4 1f b7 bc 5c d3 33 be e3 9a 1d 3d
       -0.035753354 -0.022354044 -0.17561096 0.03847779
0000f0 70 bb dc bc 68 71 a7 bd f3 e9 6b bd 7c e2 9f bd
       -0.026944846 -0.081759274 -0.05759616 -0.0780687
000100 64 e6 18 3d 9f 74 e6 bc bc 42 04 be a4 af 6f bc
       0.037329093 -0.028131781 -0.12916082 -0.014629278
000110 9b 27 63 bd 5c a6 97 bb 67 02 98 bd 35 a3 ff bd
       -0.055457693 -0.004627986 -0.07422333 -0.12482301
000120 b8 26 0e be 97 56 f1 bd c4 ac bf bd 26 9b d4 3d
       -0.13881958 -0.11784094 -0.09359124 0.10381155
000130 7f e1 c7 3d fe b1 00 bd 29 2e 83 bd b0 74 5c 3d
       0.09759807 -0.031419747 -0.06405289 0.05382222
000140 d0 11 58 bd 17 89 67 3e da 04 5b bc 39 c9 7d bd
       -0.052751362 0.2261089 -0.013367856 -0.06195948
000150 17 46 f7 bd 3c 6b c3 bd c3 c3 a5 bd 24 aa 4f bc
       -0.120739155 -0.09541938 -0.08093979 -0.012674842
000160 9b 4c d3 3c 9a f4 1f bc d6 03 48 3d ab af 30 3d
       0.025793364 -0.009762907 0.048831783 0.04313628
000170 c9 46 6b 3d fa b4 b1 bd 54 bb d3 3d 5c 34 d0 3d
       0.057440553 -0.08677097 0.103384644 0.10166237
000180 fe f2 3f 3d c7 a2 26 be 64 8e ed 3c 22 32 91 bc
       0.046862595 -0.16273032 0.028998561 -0.0177241
000190 da 11 43 3c 2b 1c 01 3e 6e e3 28 be 12 16 92 bd
       0.011906112 0.12608401 -0.16493008 -0.07133116
0001a0 5b 24 b4 bd ca 7f 83 bc 15 c4 48 bd 8e 46 45 be
       -0.08795997 -0.016052146 -0.049015123 -0.19265196
0001b0 84 c1 1d 3e 7f c7 68 bd da 0a e9 bc a0 43 58 bc
       0.15405852 -0.05683088 -0.028447557 -0.013199717
0001c0 4c b9 89 3d 04 df 32 3c 88 54 4f bd 72 70 24 3d
       0.06724796 0.010917429 -0.050617725 0.0401463
0001d0 ec f3 aa 3d e9 58 0f 3e af 63 d6 bd 9d 6b be 3d
       0.08347306 0.1399876 -0.10468232 0.09297869
0001e0 d3 40 f3 bd 03 5a ca bc c6 7c 27 3d d9 28 e7 3d
       -0.118775986 -0.024701124 0.040890478 0.11287088
0001f0 58 e7 e4 3d fb 28 b6 bd fb da 99 3c cc 57 83 3d
       0.11176938 -0.08894535 0.018781176 0.0641323
000200 51 5c d8 bd c1 22 3b be 39 65 d0 bd 03 11 ef 3d
       -0.10564483 -0.18274976 -0.10175557 0.116731666
000210 76 38 c5 bd f5 66 01 bd d9 b6 0e bd 31 47 f0 3c
       -0.0962991 -0.031592328 -0.034842346 0.029330822
000220 9e 05 79 3e d8 df 59 bd ba da 40 be 60 27 92 bd
       0.24318549 -0.05319199 -0.18833438 -0.071364164
000230 cb 5c 90 3c e1 ed 0b 3e 14 cb 12 3e 8a 27 9e 3d
       0.017622372 0.13664962 0.1433528 0.07722385
000240 45 94 c1 bd 26 f6 11 3d b7 4c f5 bc af d6 39 3c
       -0.09452108 0.035635136 -0.029943807 0.011342688
000250 e5 f3 2d 3d 50 37 bd 3c 58 40 2d be ea 04 5c bd
       0.042468924 0.023097664 -0.16919076 -0.053715624
000260 32 35 59 3c 1f f4 32 bd fb 78 16 3e 31 3c f3 3d
       0.013257312 -0.043689843 0.14694588 0.11876715
000270 b3 7d 3f 3e ed 92 0d 3d df aa 34 bd 5b ac 61 bd
       0.18700294 0.034563947 -0.044108268 -0.05509601
000280 8c e8 1e 3e 49 22 3a 3d 59 f0 be 3c eb 9b 05 3e
       0.15518397 0.045442853 0.023307966 0.13047759
000290 34 aa d8 bd f4 81 43 bd 82 23 96 3b 6c 4e ee bd
       -0.10579339 -0.047731355 0.0045818696 -0.116360515
0002a0 1c fa 89 bc 86 38 e0 3d 61 b2 b6 3d da 1c f2 3d
       -0.016842894 0.10948281 0.08920742 0.11821909
0002b0 5d 75 ac bc 04 7b 79 bd e0 8b 04 be bc 22 fb bd
       -0.021052057 -0.060908332 -0.12943983 -0.122624844
0002c0 e0 3b cc bd ef 34 ec 3d f1 31 59 bd 4b ce aa bd
       -0.09972358 0.11533534 -0.053026143 -0.083401285
0002d0 f6 1f bf bd a2 87 b2 3d 36 aa 30 3e af 6d 50 be
       -0.09332268 0.08717276 0.1725243 -0.20354341
0002e0 06 d9 a0 3d cf ec c2 bd 47 24 7d 3d bb 35 18 3e
       0.07853894 -0.09517824 0.061802175 0.14864247
0002f0 d7 ed 5c 3d 2c 9a 0f 3e 28 e2 ef 3d 41 3b 2b 3d
       0.05393776 0.14023656 0.11713058 0.041804556
000300 98 38 25 bd 6f 77 0f 3c 38 22 cb 3c 60 f2 a6 3c
       -0.040337175 0.0087565025 0.02479659 0.020379245
000310 94 a3 a5 3d 8c 47 2d bc 44 85 bc 3c 85 5d 4c 3d
       0.08087841 -0.01057614 0.023012765 0.049893875
000320 b8 a3 a1 bd d4 6d 11 bd 8b 38 ee 3c c2 c5 eb 3d
       -0.07892555 -0.03550513 0.029079696 0.11512329
000330 3f 67 dd 3d 98 76 7c 3b ea 8d 46 3d 68 40 ef 3c
       0.10810708 0.0038522836 0.048475184 0.029205516
000340 b2 5c 45 bd 34 e4 90 3d f2 b8 c8 bc b5 03 46 3d
       -0.048184104 0.07074776 -0.024502251 0.04834338
000350 80 20 84 3d fd ad 1d bd ac bc c5 bd 66 be c1 bd
       0.064515114 -0.038496006 -0.09655127 -0.09460144
000360 e3 d0 c2 bd 92 df 25 3d 46 da ce bd 34 65 62 3e
       -0.09512498 0.040496416 -0.10100226 0.22108918
000370 2e f2 71 3d a1 c7 be 3d 35 ff 01 3d db 0a b2 bc
       0.05906885 0.0931542 0.031737525 -0.021733692
000380 57 e9 88 3c b8 cb 6c bd 34 ff 3f be 4d 99 35 bd
       0.016712828 -0.05781147 -0.18749696 -0.044335652
000390 62 1e 0f b9 35 fa df bd 2a c8 06 be be 9e 51 bd
       -0.00013648861 -0.10936395 -0.13162294 -0.05117678
0003a0 e4 0b 5f 3d 94 9c 54 bd c8 aa 04 be 15 84 f9 3d
       0.0544547 -0.051907137 -0.12955773 0.12183396
0003b0 07 68 f3 3d db ba e3 3d 65 df c7 bc 3c f4 07 be
       0.11885076 0.11119624 -0.024398515 -0.13276762
0003c0 2f 8c 04 3e a9 85 b8 3c 31 d2 11 3d e8 d7 10 bd
       0.12944101 0.022524672 0.035600845 -0.035362154
0003d0 a5 c3 10 3d 27 62 6e 3d eb df 29 be 1c 48 77 3c
       0.03534283 0.058199074 -0.16589324 0.015092876
0003e0 7b ab 67 3d 95 31 de bc 59 af 1c 3e 8b 4e 5d 3c
       0.05656002 -0.027123252 0.15301265 0.013507496
0003f0 b6 2c 02 3d e6 9f 04 3d 14 17 6b 3d 9b ba 7a bd
       0.03178092 0.032379054 0.057395056 -0.061213117

graph_prop.message_funcs.1.bias f4 [32]
000000 e3 fa 18 be 42 c4 e5 bd 55 cc 93 bb b5 26 c7 bd
       -0.14939456 -0.11219074 -0.0045104423 -0.0972418
000010 2c 7a ee bd 69 40 82 3d 9c 50 7d bd 50 6c 86 3c
       -0.11644396 0.063599415 -0.061844453 0.01640907
000020 15 d8 4f bd b7 6e 6b bc 2e c7 9d bc 37 25 78 bd
       -0.05074318 -0.014369658 -0.019260015 -0.060582366
000030 f7 a4 22 bc b6 01 28 3d 7e 8e e3 bd 7b 12 94 bb
       -0.009927026 0.041017257 -0.111111626 -0.0045188046
000040 aa b2 ae 3d 11 d2 54 3d 8b c1 0c be d1 fe 72 bd
       0.08530171 0.051958147 -0.13745706 -0.059325043
000050 e7 ab 7c bd c8 68 cb bb 13 b9 8e bd 9d c1 11 bd
       -0.061687376 -0.0062075593 -0.06968894 -0.035585035
000060 0c 8b 3a 3e 02 e0 f4 bd d5 26 12 be c6 7d b9 3d
       0.18217105 -0.119567886 -0.14272626 0.090571925
000070 1c ce 02 3e a0 fb 46 3e 24 10 03 bd 2a 2f 86 3d
       0.12773937 0.19431925 -0.031997815 0.065519646

graph_prop.node_update_funcs.0.weight_ih f4 [48, 32]
000000 2b 42 5a bc 36 88 5d 3e 96 9c b0 bd 87 10 aa bd
       -0.01332144 0.21633992 -0.086236164 -0.083039336
000010 4e 31 55 be 3b 9c 3f be ef d6 83 3c 23 99 10 be
       -0.2081959 -0.18711941 0.0160937 -0.14120917
000020 15 f5 80 be a5 ee 29 bd 59 55 63 be 43 7a 8b be
       -0.25186983 -0.041487355 -0.22200526 -0.27241716
000030 18 92 eb bc 4a 5c 69 bd 86 c5 e3 3c 54 23 ea 3d
       -0.028756186 -0.05697278 0.027804147 0.114325196
000040 a7 54 87 3b d8 09 09 bc 90 a5 b6 bc 34 da ef bd
       0.0041299644 -0.008364163 -0.022295743 -0.11711541
000050 c7 6d a7 bd 5e 6c d9 3d 61 97 22 be 0a 08 d1 3e
       -0.08175235 0.106163725 -0.15878059 0.40826446
000060 c2 c5 a9 3c bd 76 74 3d 3a f9 b9 bd e1 9b b7 3d
       0.020724181 0.05968355 -0.09080739 0.089652784
000070 4f f1 ea bd 6c 85 e7 3c 54 8d 59 3b 66 ad 46 3e
       -0.11471807 0.028261863 0.003319581 0.19402084
000080 bb 19 a4 3e 30 ae 1a bd 59 01 02 3c d3 fa 53 3e
       0.3205088 -0.037763774 0.007934892 0.2070115
000090 f7 76 a3 bd a0 c0 93 bd 83 03 a3 bd 1f 23 1e 3d
       -0.07981675 -0.07214475 -0.07959654 0.038607713
0000a0 02 4b 04 3e 1f 44 63 bd a6 cc 1d 3e 1b 23 4a 3e
       0.12919238 -0.055484887 0.15410098 0.19739954
0000b0 00 73 3c 3e e4 16 42 3e e5 96 08 be 94 45 87 3c
       0.18403244 0.18954045 -0.13338812 0.01651267
0000c0 bd 31 ac bc 58 0c 2b be 58 09 cb 3d f4 df cf bd
       -0.02101981 -0.16703928 0.099138916 -0.101501375
0000d0 ff 11 38 3e 82 ba 1f 3d 09 c8 39 3e ce 63 7c 3e
       0.17975615 0.038996227 0.18142714 0.24647447
0000e0 d5 8f 3e be cd b2 48 3d 54 44 52 3e 7b fd 80 3d
       -0.18609555 0.048998643 0.20533878 0.062983476
0000f0 24 ed 08 3e ec 23 9c bd 4b bf 45 3d 20 fa 24 be
       0.13371712 -0.07624039 0.048278134 -0.1611104
000100 0d 69 8f 3d 9d ad 68 bd 68 07 28 b9 86 41 34 3e
       0.07002459 -0.056806196 -0.00016024488 0.1760312
000110 fd 6f 5c bd 96 14 d5 3d c7 94 eb b9 9e e1 84 be
       -0.053817738 0.10404317 -0.0004493354 -0.25953382
000120 8a 39 a8 be 8d 42 8c 3d 3b 26 e5 bc 2d 25 3a bd
       -0.328564 0.06848631 -0.027972331 -0.04544561
000130 76 bf 20 3e 64 56 b3 3c b6 99 1b 3e 05 b2 6a be
       0.15698037 0.02189178 0.15195355 -0.22919472
000140 a7 49 bf 3c 9b fb 82 be cc 07 6c 3d 12 11 11 3d
       0.02335055 -0.25582585 0.057624623 0.03541667
000150 a7 10 d8 3c 14 df 97 bc ba 76 5d 3d d8 f6 bf bd
       0.026375128 -0.01853899 0.054068305 -0.093732536
000160 9b 83 41 3d 3f 96 62 bd a5 5c a3 be 6a 76 bc 3d
       0.04724465 -0.055319067 -0.3190662 0.09202273
000170 52 5d 97 3d 29 de 85 bc 08 38 d1 3d 29 bc 10 be
       0.07390846 -0.016341286 0.10215765 -0.14134277
000180 36 c9 68 3d ed 30 f4 3d 1e a8 24 3e 29 a2 2f 3e
       0.056832515 0.11923394 0.16079757 0.17151703
000190 05 6e a4 be 7e 91 0e 3c 21 28 cb bd 47 09 94 3e
       -0.32115188 0.00870168 -0.09919763 0.28913328
0001a0 d8 7b ca bc cb de 70 3b d8 a1 1a 3e 92 2e 03 be
       -0.024717256 0.0036753889 0.15100801 -0.12810734
0001b0 ae 67 01 be 86 98 b3 3d c6 da ed 3d 37 e2 18 be
       -0.12637207 0.08769326 0.11613993 -0.14930044
0001c0 b5 b4 0c 3e 41 b2 ae 3b 61 03 0b be 8d 95 2c 3d
       0.1374081 0.005331308 -0.13575508 0.04213481
0001d0 75 1e fd bd 36 09 8c be c9 a2 ba 3d 06 b6 03 bd
       -0.12359325 -0.27350777 0.0911308 -0.032156013
0001e0 8a 9e 30 3d 07 2b f7 3d 25 8d ba bd 80 23 e3 3b
       0.043119945 0.12068754 -0.091089524 0.006931722
0001f0 48 db 99 3d 4e bf 2d 3c 82 3a 60 3e 7e f1 b7 be
       0.07512528 0.010604693 0.21897319 -0.3592643
000200 be 26 32 be a6 be a6 bd 9b 4e 02 3e 9b 35 62 3e
       -0.17397591 -0.08141832 0.12725298 0.22090761
000210 2c 31 79 be c3 e3 91 bd ed 48 57 3c 5f cf 95 be
       -0.24335164 -0.0712352 0.013139945 -0.29259774
000220 e5 49 90 ba 66 c8 be 3d 68 73 e8 3d d8 2f 5d be
       -0.001100835 0.09315567 0.11350137 -0.21600282
000230 0d 43 22 3d b8 bf 35 3e cb 35 41 be a8 0a 41 3e
       0.039614726 0.17748916 -0.18868177 0.18851721
000240 63 30 02 be 4e 6a e4 bd 72 5d 51 be 7f 3b a8 bd
       -0.1271377 -0.111530885 -0.20445803 -0.08214473
000250 11 3f f6 3d 42 9e 00 3e 77 85 05 be dd 1f f2 3d
       0.12023748 0.1256037 -0.13039194 0.11822484
000260 64 b4 7d bd e4 ff 8a 3d 1e 74 af 3d bc f3 f3 bc
       -0.061939612 0.067870885 0.085670695 -0.029779308
000270 6c 14 a4 bd 4d ad 39 3e 14 47 2e 3d 73 f3 9c 3d
       -0.08011708 0.18132515 0.042548254 0.07663622
000280 59 c4 35 3d 01 d0 04 be 1a 24 43 bd 67 17 c0 3d
       0.044376705 -0.12969972 -0.04764185 0.09379464
000290 4e 5c 03 be 9a 84 30 bd a3 fb 55 3e 67 9a 5b 3e
       -0.1282818 -0.04309521 0.20896773 0.21445619
0002a0 0a c7 8e 3e 10 3e 05 3e 49 53 1e 3d 23 d9 32 3e
       0.2788623 0.13011956 0.038653646 0.17465644
0002b0 56 c7 d2 3d e9 e2 0d 3d df 52 49 bd d6 64 6f 3c
       0.102919266 0.034640227 -0.049151298 0.0146114435
0002c0 d4 1f 15 bd 66 0a 4c 3d 4d c4 27 be 4d f4 10 3d
       -0.036407307 0.049814604 -0.16383477 0.035389233
0002d0 1e 5c 63 3d 60 fa 1e be a5 83 ea bd d4 ca 44 3e
       0.05550777 -0.15525198 -0.114508905 0.19217998
0002e0 7d 0c f1 3d de aa d2 3d 41 88 b1 bd 68 26 76 be
       0.1176996 0.102864966 -0.086685665 -0.24038088
0002f0 90 40 46 be 5a 40 6e 3e 0f df 10 3e b1 02 52 3e
       -0.19360566 0.23266736 0.1414759 0.20508839
000300 de 2b 96 bd b0 d1 82 3e 38 a0 8e bd 9b 08 96 bc
       -0.07332586 0.25550604 -0.06964153 -0.01831465
000310 86 b9 90 be 57 4c 15 3d de c2 c0 bc 82 ad c1 bd
       -0.28266543 0.036449756 -0.02353042 -0.09456922
000320 3f 35 91 3c 89 7d 87 3d 42 a7 7d bd 68 37 42 3e
       0.017725585 0.06615741 -0.061927088 0.18966448
000330 be 06 54 3e 11 db 2e be 82 14 24 3e ac 19 22 be
       0.20705697 -0.17075755 0.16023448 -0.15830106
000340 5a 3a 1f be dc 7e 7c bd 9c 69 9e 3b 49 b7 82 3e
       -0.15549603 -0.06164442 0.004834367 0.2553046
000350 9b fc 8a bd 4b d5 e1 ba 82 f2 e8 3d 6f c3 68 3e
       -0.06786462 -0.0017229704 0.1137438 0.22730802
000360 66 40 a1 3d 40 05 3e 3e 4a ec 39 bd a7 55 63 3e
       0.07873611 0.1855669 -0.04539136 0.22200643
000370 c7 10 90 bd b7 53 89 be 37 02 68 be 53 0a be 3c
       -0.0703445 -0.26821682 -0.22657095 0.023198282
000380 00 fd 45 be 9b d7 a5 be e6 a6 20 be 83 ec 51 be
       -0.19334793 -0.32391056 -0.15688667 -0.20500378
000390 68 d4 6f be df c7 43 3e 52 56 08 be 89 4a f1 3c
       -0.2342087 0.19119214 -0.13314179 0.029454486
0003a0 72 04 3b be 14 80 a9 3d 90 11 7c 3e 65 52 25 3e
       -0.18263415 0.08276382 0.24616075 0.16144712
0003b0 36 2f ae bd c3 9f 19 be 41 a9 bb bd 0a ca 18 3e
       -0.085050985 -0.1500235 -0.09163142 0.14920822
0003c0 47 20 66 3e 34 8c 57 bd 37 f8 ad 3d 9f b5 7f 3e
       0.2247325 -0.052623942 0.08494609 0.24971627
0003d0 ba 6f 9c bd a1 1c 82 3e cc de 1a 3e 7c d6 64 3e
       -0.07638498 0.25412467 0.15124053 0.22347444
0003e0 a3 ab 10 bc 84 f9 c2 3d 08 91 2c 39 3d 89 01 be
       -0.008829984 0.095202476 0.00016457227 -0.12650008
0003f0 69 4f d2 3d 4d c0 ff bc 6a ae d8 3d 9d 20 38 bd
       0.102690525 -0.031219626 0.10580142 -0.044952977

graph_prop.node_update_funcs.0.weight_hh f4 [48, 16]
000000 67 f5 0c be c5 27 9d bc 86 31 a9 bd 5d 70 9b 3d
       -0.13765489 -0.019184003 -0.08261399 0.07589791
000010 0a 4c d9 bd ca 4c 68 bd e8 9e fc 3d ef 9d 4f be
       -0.106102064 -0.056713857 0.123349965 -0.2027509
000020 4e e0 ae 3d 9b 18 14 3c 28 4b 9d bd 31 41 92 bc
       0.085388765 0.0090390695 -0.076803505 -0.017853351
000030 90 6a 1e bd d8 34 58 3e a5 88 91 bd f9 ff 1f 3e
       -0.038675845 0.21113908 -0.07106141 0.1562499
000040 ee 37 86 3d a7 87 74 3d a8 3d 8c 3e 02 28 e9 bd
       0.065536365 0.05969968 0.2739079 -0.11384584
000050 79 f5 0d 3e 90 d0 8e be 28 fe 41 3e 43 9c 19 be
       0.13863172 -0.27893496 0.18944609 -0.15001015
000060 b3 ef 49 be 5d 88 1f be 76 41 2c be a9 7b b6 3d
       -0.19720344 -0.15579362 -0.16821846 0.08910305
000070 af fe 78 bd eb 94 e3 3d 42 9b 76 be 73 7a 8f 3e
       -0.06078976 0.11112388 -0.24082664 0.2802311
000080 64 d0 a4 3d 13 05 ed bd 53 24 fd 3b 21 6b d9 3d
       0.0804756 -0.115732335 0.0077252774 0.10616136
000090 1d 43 0f be ef b9 48 3e 29 62 1c 3e 83 e0 12 3e
       -0.13990445 0.19602178 0.1527182 0.14343457
0000a0 8d 15 1c be 2f ca b3 bd 96 30 ea bd 86 0a ba 3e
       -0.15242596 -0.08778798 -0.11435048 0.36336154
0000b0 57 62 30 3c 83 7e d2 bd aa 53 a6 bd e5 2c 52 bb
       0.010765634 -0.102780364 -0.081214264 -0.0032070216
0000c0 1d 0c 0b 3e d2 68 5c bd 63 5a c0 3d 86 61 8e bb
       0.1357884 -0.053810902 0.0939224 -0.004345122
0000d0 a6 5a 97 3e 4d f6 31 3e 5f 51 26 bd 5d 3d 90 3e
       0.29561347 0.17379113 -0.040604945 0.28171816
0000e0 10 73 44 bd 85 cc 4e 3e ff 76 04 be e2 c9 bc 3c
       -0.047961295 0.20195206 -0.12936018 0.023045484
0000f0 08 df 9a 3a e1 2c 0c 3e 01 2b 51 bd dc f8 f1 3a
       0.0011815736 0.13688995 -0.051066402 0.0018461007
000100 c2 4a dd 3c 94 a6 1b be ae 00 00 be ba 91 f7 3d
       0.027013186 -0.15200263 -0.1250026 0.12088342
000110 b1 54 dd 3d 2a 04 25 3d ac 7e 6c 3b 76 e4 41 3e
       0.10807169 0.040287174 0.0036086245 0.18934807
000120 93 79 17 be 9a 1a 0e be 24 96 5f bd db d7 69 bb
       -0.1479247 -0.13877335 -0.054586545 -0.0035681638
000130 d5 5c f8 bd e1 71 bd 3d f7 cc 13 3e 9b 77 62 be
       -0.12127081 0.09250236 0.14433657 -0.22115938
000140 d1 1b 4c 3e 03 d5 c3 bb 1e 64 14 3e 59 37 5a 3e
       0.19932486 -0.0059763207 0.14491317 0.21310176
000150 aa 24 4c be 93 f3 0f 3d fa eb 01 3e 1c 96 cc 3d
       -0.19935861 0.0351444 0.12687674 0.099895686
000160 0b 3c 57 bd 21 bd bf 3d 0f db 01 be 3e 89 87 be
       -0.052547496 0.09362245 -0.1268122 -0.26471895
000170 a8 1e c9 be 51 ad 9d be ec fa 2c 3e 11 8c d8 3e
       -0.392812 -0.30796292 0.16892594 0.42294362
000180 0a f9 ee 3b 42 a7 ca bb f1 13 58 bd 07 1b a3 bc
       0.0072928714 -0.0061844895 -0.052753393 -0.019910349
000190 8c a6 4e 3e 96 a6 ea bd e7 0c e1 bc 05 35 e1 bd
       0.2018072 -0.11457555 -0.027471973 -0.10996441
0001a0 23 c3 05 bc 34 c9 bd 3d 7f ce 77 be bf 0e 0e be
       -0.0081642 0.09266892 -0.24199866 -0.13872813
0001b0 3a 90 c1 be c3 b4 24 3e 41 11 a6 bd 5a e7 f5 bd
       -0.3780535 0.1608458 -0.0810876 -0.120070174
0001c0 c1 2d 90 3c 51 d3 8b be 0a bf 70 3d 7b 18 8e bd
       0.017599942 -0.2730966 0.05877594 -0.06938263
0001d0 eb b3 76 3d 81 4d 31 bd 47 77 26 3e 5e b3 c7 ba
       0.060230177 -0.043286804 0.16256438 -0.0015235951
0001e0 62 69 c3 bc 94 6a 14 3d c1 fd 9f be 4c f2 1d be
       -0.023853961 0.036234453 -0.31248286 -0.1542446
0001f0 0b db b4 bc f5 48 61 3d ac c5 6f 3e 98 28 6b bd
       -0.022077104 0.055001218 0.2341525 -0.05741176
000200 49 5f cb 3c ab c4 b9 bd 60 a0 bd bd 03 1d 29 be
       0.024825709 -0.090707146 -0.09259105 -0.16514973
000210 e6 93 58 3e d3 ad a2 3c 88 07 05 bd 8a 80 19 3e
       0.21150169 0.019858276 -0.032477885 0.1499044
000220 4e c4 05 be 4c 1e 92 bd d7 33 ab 3d 93 c1 47 be
       -0.13063166 -0.07134685 0.08359497 -0.19507436
000230 00 fa e5 3d 89 81 37 3e 09 83 24 be 18 33 5a 3e
       0.11229324 0.17920507 -0.16065611 0.21308553
000240 95 e1 9c be 63 e4 16 bd 71 60 f4 bd 7b e6 0f 3e
       -0.30640855 -0.0368389 -0.11932457 0.14052765
000250 62 81 f1 3d e6 e9 4f be 95 13 2e 3e 75 48 14 3c
       0.11792256 -0.20304069 0.16999657 0.009050478
000260 2c 49 8a 3d 16 f8 1d 3c 40 6c 32 3e c9 ea 86 bc
       0.06752238 0.009641668 0.17424107 -0.016469376
000270 15 80 0d be ae 6b 83 bd 6d ef 2d 3e c9 cf 65 3e
       -0.1381839 -0.06417023 0.16985865 0.22442545
000280 e8 8d c8 bd 46 11 01 be 77 51 64 be a9 f3 8c bc
       -0.097926915 -0.12604246 -0.22296701 -0.01720603
000290 e7 a4 1a 3e b3 5b 0d be cc e2 bb 3d 8f 43 2a 3d
       0.15101968 -0.13804512 0.091741174 0.041568335
0002a0 5a 89 8a be b8 71 bf 3d 6a 25 90 3e aa f0 0b bd
       -0.27057916 0.09347862 0.28153545 -0.034165062
0002b0 be 52 45 be c4 af 81 bd 17 ee 0e bc 79 e6 dd bd
       -0.19269845 -0.06332353 -0.008723757 -0.10834975
0002c0 68 57 82 3d 9f 58 7d 3d 30 70 0c 3e 8f 0a 14 be
       0.06364328 0.061852094 0.13714671 -0.14457153
0002d0 d2 cb 14 3e 2a 26 8e 3d 26 56 43 ba 1b 9e b7 bc
       0.14530876 0.06940873 -0.0007451497 -0.022414258
0002e0 d4 c5 40 be a2 30 9e be c8 3d 5c 3d ad 85 be be
       -0.18825465 -0.3089648 0.053769857 -0.37211362
0002f0 93 19 68 3d b8 8b 7a be 96 ad 0a bd 40 f9 79 be
       0.056665014 -0.24467361 -0.03385695 -0.24411488
000300 1e 30 11 be ee 42 c8 be 23 e6 1b 3e 06 46 19 be
       -0.14178512 -0.39113563 0.15224509 -0.14968118
000310 6e c2 ce bd 19 c6 26 3e 3e 5c c5 bd bf 18 71 be
       -0.10095678 0.16286506 -0.096367344 -0.23544596
000320 55 c3 38 be 93 46 40 3d b0 d6 13 bd b5 9e 40 3e
       -0.18043263 0.046942305 -0.036093414 0.18810542
000330 7b b2 49 3d 2c 84 5c be ff a5 7d 3d 57 b4 39 3e
       0.049242478 -0.21534795 0.061925884 0.181352
000340 34 0f 66 3e c0 79 0d 3e 6c 75 82 3b 07 89 30 3a
       0.22466737 0.13815975 0.003981283 0.0006734286
000350 64 6f a5 bd 24 6c 96 bc 89 3c a9 3e 06 fd 3f 3e
       -0.08077887 -0.018362112 0.33053997 0.18748865
000360 27 7d 98 bd ed 73 51 be 0f 90 d4 3d 00 20 20 3e
       -0.07445746 -0.20454378 0.103790395 0.15637207
000370 12 26 ee 3d 64 9f 15 3e e7 fb 01 be 92 a4 dc 3d
       0.11628355 0.14611584 -0.1269375 0.10773577
000380 5d 57 7c 3d 24 85 13 be 9e e3 6b be 29 09 c5 bd
       0.061606754 -0.14406258 -0.23036048 -0.09620888
000390 fd b2 7b bc c0 06 16 3e c9 cf 74 3b d5 38 82 bd
       -0.015362498 0.14651012 0.0037355295 -0.06358496
0003a0 fe 58 63 be 17 68 ec 3d 7d 1a 4f 3e 7f e2 a5 bc
       -0.22201917 0.11543291 0.20224948 -0.020249603
0003b0 67 cc e3 3d 4e 4a 77 3e 50 4a 80 bd 55 e3 ca 3d
       0.11122971 0.24149439 -0.06264174 0.099066414
0003c0 5f 24 2e bd c6 a5 24 be 63 57 81 3e 7f 31 23 be
       -0.042515155 -0.16078863 0.25261983 -0.1593685
0003d0 61 81 42 be 0b e2 be bd ad 27 ab 3d 38 3e 2c 38
       -0.18994667 -0.09320458 0.08357177 4.106594e-05
0003e0 ab 5f 0a be 6d d0 ee 3c 1e 2a 00 bb 6e a7 c1 3d
       -0.13513057 0.02915212 -0.0019556354 0.09455763
0003f0 0d a4 2a be 99 10 4d 3e bf 0f 52 3d 16 ae 09 be
       -0.16664143 0.20025863 0.051284548 -0.13445315

graph_prop.node_update_funcs.0.bias_ih f4 [48]
000000 2e 7e 90 3f f1 86 91 bf 30 05 79 3f 31 48 9a 3f
       1.1288507 -1.1369306 0.9727354 1.2053281
000010 a5 7a d9 3d 20 38 a2 bf 67 2c 68 3f 94 6b 25 bf
       0.10619096 -1.2673378 0.9069275 -0.64617276
000020 02 f0 ea bd a6 72 7e bf 92 29 93 3f 1f 8b 95 3e
       -0.11471559 -0.9939369 1.1497061 0.29207703
000030 6a 88 e5 bf 6f c6 92 3e 77 7f ab bf 4c b7 c1 3f
       -1.7932255 0.28667018 -1.3398274 1.5134063
000040 aa e5 41 bf 89 ab d7 3f 23 76 ff be 1b 11 1a 3f
       -0.75741065 1.6849223 -0.4989482 0.6018235
000050 48 92 70 be 99 e7 3e 3f 9e b8 09 3d 11 0a 43 3f
       -0.23493302 0.7457214 0.03362333 0.76187235
000060 88 62 9f 3e df c2 51 3d 00 af 17 40 c6 01 e4 bd
       0.3112986 0.051211234 2.3700562 -0.11133151
000070 4c 66 8f 3e 5c ee 78 3f 0c f4 e4 3e bf af 7e 3e
       0.28007734 0.9723871 0.44717443 0.2487173
000080 63 cd b3 3f 51 ec 84 bd 7b 1a ab 3e 66 41 28 bf
       1.4047054 -0.06490386 0.3341864 -0.6572479
000090 a5 82 24 bf 30 8e a3 3d 81 80 a2 3f c2 c0 f4 3f
       -0.6426185 0.079861045 1.2695466 1.9121325
0000a0 4d 75 18 3f 23 f9 3b bf f4 e2 49 3f de ac 9a bf
       0.59553987 -0.7342703 0.7886193 -1.2084005
0000b0 c0 26 85 be 95 a4 14 3f 11 10 20 c0 f0 83 86 bf
       -0.26006126 0.5806363 -2.5009806 -1.0509014

graph_prop.node_update_funcs.0.bias_hh f4 [48]
000000 b1 a6 31 bf 5e 3e c3 be b1 15 b4 3e 7d 3e 9e 3e
       -0.69394976 -0.3813352 0.351728 0.3090705
000010 c6 c4 72 3f c5 ca 62 be b9 d7 6a bf 3a 56 89 be
       0.948315 -0.22147663 -0.91735417 -0.26823598
000020 26 a4 f5 be a6 10 fc 3f 8e 95 f2 be e1 22 9b 3f
       -0.47976798 1.9692581 -0.47379726 1.2120019
000030 e3 ad 18 3e 52 11 1a 3f 6c 7c 8c 3f 02 0f 9b 3f
       0.14910083 0.6018268 1.097547 1.2113955
000040 22 5e 50 bf 97 45 0a 3f e1 9f c4 be a4 2b c2 3f
       -0.81393635 0.54012436 -0.38403228 1.5169568
000050 80 74 33 bf bf 21 ab 3f ca 62 78 3e 5f 1a 2b 40
       -0.7009964 1.3369673 0.24256435 2.6734846
000060 1d 72 91 bf 49 90 16 bf 34 ec cc bf 26 a4 50 bf
       -1.136295 -0.5881391 -1.6009583 -0.8150047
000070 f3 1d 2e 3e 34 e0 49 3f 85 82 62 3f b2 3a 0d c0
       0.17003612 0.7885773 0.88480407 -2.2067075
000080 7a 02 67 3f e4 0a d3 3f 17 43 2d bf 98 bf 36 be
       0.90238154 1.6487699 -0.67680496 -0.17846525
000090 1c 73 8c 3f 70 ba a2 3f 03 2c e7 bf 25 f9 ea be
       1.0972629 1.2713146 -1.8060306 -0.45893207
0000a0 73 8f 90 3f 32 78 b4 bd 88 3b aa 3f 56 61 c0 bf
       1.1293777 -0.08811988 1.3299417 -1.5029705
0000b0 e6 18 9e bf ca e7 92 bf 4c 05 62 be b9 5b e8 be
       -1.2351348 -1.1476986 -0.22072333 -0.4538248

graph_prop.node_update_funcs.1.weight_ih f4 [48, 32]
000000 eb 2d 9d 3e 51 33 59 be f4 65 2b 3e 18 03 9c 3d
       0.30699095 -0.21210982 0.16738111 0.076177776
000010 1f 78 28 3e 26 ef 1c 3e a6 95 12 be a1 f5 c6 3c
       0.16452073 0.15325603 -0.14314899 0.024287047
000020 16 89 32 bd 7a f6 49 3e 21 ce 44 bc d1 19 40 be
       -0.043587767 0.1972293 -0.012012036 -0.18759848
000030 fb 88 1f 3d 7c 77 6c 3e f6 7d 1a 3e a4 12 9b 3d
       0.038948994 0.23092455 0.15087113 0.07571915
000040 43 5a fa bd c8 d6 9f 3e 31 55 46 3b 66 b4 e3 3d
       -0.12224247 0.31218553 0.003026318 0.11118393
000050 41 5e 81 3c f7 1b 01 bc 5a 0a c0 bb 8a b3 77 3e
       0.015792014 -0.0078802025 -0.005860609 0.24189582
000060 d7 50 ab be 47 9b 04 bd 2b 2c 28 be 98 04 fa 3d
       -0.33460113 -0.032374647 -0.16423099 0.122079074
000070 ce 35 3a 3e 49 65 49 3e ef c1 1e bd 9a bc 99 bc
       0.18184587 0.19667543 -0.03875917 -0.01876669
000080 c4 22 d6 3d 67 85 b6 3d 0e 24 18 3e 5f 6a e2 bc
       0.1045585 0.08912163 0.14857504 -0.027638612
000090 7e 5f c2 3d af b7 1c 3d 58 b7 43 bd 53 e0 6d bc
       0.0949087 0.03826111 -0.047782272 -0.014518815
0000a0 56 47 6d be ea 35 cc bd 05 45 4a 3e 88 b2 41 3d
       -0.23171744 -0.09971221 0.19752891 0.0472894
0000b0 2e d3 01 be a5 b2 f9 3d 3f 96 96 bd ae 69 05 be
       -0.12678215 0.12192277 -0.07352876 -0.13028595
0000c0 67 1e 34 3e 5c 8b db bd 74 7b 0b 3e 74 54 c9 bd
       0.17589723 -0.1071994 0.13621312 -0.09830561
0000d0 68 c3 4c be f7 ab 88 be d8 f1 b7 3e 3c dc 0d be
       -0.19996417 -0.266937 0.359267 -0.13853544
0000e0 5c 5d 28 be 63 89 c9 bd b0 65 9e bc 8e ab 85 3e
       -0.16441864 -0.098406576 -0.019335598 0.26107448
0000f0 23 6a 89 3d 8c b6 82 3d 40 07 d4 bd fa 73 14 3e
       0.06709697 0.06382474 -0.10352945 0.14497367
000100 ad 21 1a be 89 6a 2b be 3f d8 88 3e de 60 f8 3d
       -0.15051909 -0.16739859 0.26727483 0.12127851
000110 98 19 db 3d 9c 7d 0c be bc 64 8e 3c 49 bf 98 be
       0.10698241 -0.13719791 0.017382018 -0.2983344
000120 c1 02 30 be 82 96 b1 bd ed 6b 37 3e f9 84 81 3d
       -0.1718855 -0.08671285 0.17912264 0.06324191
000130 52 8e 0a be 0a a2 e4 bc 21 00 18 3d ec 48 26 3e
       -0.13530853 -0.027909297 0.037109498 0.16238755
000140 01 5e 5d 3c ab 92 f1 3d 0b 21 35 3e 36 7f c9 3d
       0.013511182 0.11795553 0.17688386 0.09838717
000150 3d 80 fd 3c e7 91 db 3d da 1e 1b be 3f 4d 0c be
       0.030944938 0.10721188 -0.15148488 -0.13701342
000160 f9 20 90 3d b4 61 c8 bd 41 f6 28 bd 42 36 9e ba
       0.07037539 -0.097842604 -0.04125047 -0.0012070613
000170 36 df 98 3c 63 9d 2a be a3 d5 42 3e d1 03 5a 3e
       0.018661123 -0.16661601 0.19026808 0.21290518
000180 00 e7 c4 bc a5 90 1f 3d 1d 01 da bd df 0a e5 3d
       -0.02403593 0.038956303 -0.106447436 0.11183714
000190 c9 74 0e 3e d4 4a e4 bd fd c2 12 be 96 6a c8 3e
       0.13911738 -0.11147085 -0.14332195 0.3914382
0001a0 36 0b 02 3e 35 89 67 bd 88 a5 4a 3e 9e 29 37 3e
       0.12699589 -0.056527335 0.19789708 0.1788697
0001b0 76 23 03 3e df cb a1 3d d5 cf 18 3e 28 76 6d 3d
       0.12806496 0.079002135 0.14923032 0.05797401
0001c0 d5 38 fe 3c 0a 19 9c bc 5c 0d 93 3d 11 95 f2 3d
       0.031032959 -0.019054908 0.071802825 0.118448384
0001d0 09 57 55 3e 1b 95 14 3e d0 20 98 3e cf 69 49 3d
       0.20833983 0.14510004 0.29712534 0.049173173
0001e0 24 d2 0f 3e 26 e9 be bd 8d fb 24 3e 3a b7 00 3d
       0.14045006 -0.09321813 0.16111584 0.03142474
0001f0 7c fb 20 b8 c0 8a b9 3d f6 21 86 3e 64 0f 7e 3e
       -3.8381186e-05 0.090596676 0.26197785 0.24810559
000200 15 9f 04 3e bb 90 24 be e8 98 f4 bd 41 e1 b3 bc
       0.1295131 -0.16070835 -0.11943227 -0.021957995
000210 cb dc 70 be e8 9f 29 3d 09 7a 65 be ee 3d 85 bd
       -0.23521726 0.041412264 -0.22409834 -0.06505953
000220 4f 2c 69 be 65 0a 21 be a8 1e 2b be b4 3c 9e 3a
       -0.22770809 -0.15726621 -0.16710913 0.0012072534
000230 44 c5 7c bd d7 2b ce 3d 46 00 66 3d 44 b6 c4 3d
       -0.061711565 0.100669555 0.056152605 0.09605077
000240 ed 13 58 3e 0d e4 a4 bd 35 5b 40 3c 7c d3 13 3e
       0.21101351 -0.0805131 0.011740495 0.14436144
000250 32 e0 0b 3e 1c fe 6b 3e b4 80 cb 3d f5 36 9a be
       0.13659742 0.23046154 0.099366575 -0.30120054
000260 a0 c9 a8 3d d8 8e ce 3c c8 a1 59 3e 74 7f 46 bd
       0.08241582 0.025214598 0.21253121 -0.048461393
000270 87 ba a1 3d 4f 75 8a 3e 65 90 91 bc bf 26 6c be
       0.078969054 0.27042624 -0.017769048 -0.23061655
000280 7d cc a4 3d dd b3 e0 3d 99 6e 4f be 92 b9 56 be
       0.080468155 0.10971806 -0.20257033 -0.20969227
000290 26 31 0f be 86 e5 dc bc 49 99 97 bd 85 0f db 3d
       -0.13983592 -0.026964914 -0.07402284 0.106963195
0002a0 b9 83 e0 3d 22 e1 88 be 37 ad 13 3e ce 4c 8f be
       0.10962624 -0.26734263 0.14421545 -0.27988285
0002b0 fa ce 35 bd 61 c9 69 3d 3a 9c 20 bd a2 14 f0 bd
       -0.04438684 0.057076816 -0.03921149 -0.117226854
0002c0 c6 4e c5 be 53 29 45 bd 72 de e3 3d ec db a8 3c
       -0.38536662 -0.048135113 0.111264125 0.02061268
0002d0 44 20 c2 3d 26 fe 35 3d 15 00 1d 3d e8 62 1e bd
       0.094788104 0.044431828 0.038330156 -0.038668543
0002e0 7b 7e d7 3d dc 26 12 be 31 5b 08 bd 77 a6 cb bd
       0.10522171 -0.14272636 -0.033290092 -0.0994386
0002f0 fa 48 14 3e bf 82 58 3e 47 1c 04 3d 3a 82 d6 3d
       0.14480963 0.21143626 0.03225353 0.104740575
000300 8b 83 1b bc fa bd c1 3c 2c 3e a8 3d b7 09 95 bc
       -0.0094918115 0.023650158 0.08214983 -0.018193109
000310 03 49 b1 bd a7 be d6 bd 93 2e e7 bd 78 71 86 be
       -0.08656504 -0.10485583 -0.1128818 -0.26258445
000320 51 44 61 be ad 10 3f 3c 44 0b 74 3c 0f 41 98 be
       -0.21998717 0.011661691 0.014895264 -0.29737136
000330 d0 8a 82 bd 65 8c bf bd 51 ee cf bd d4 ce 84 bd
       -0.06374133 -0.0935295 -0.10152877 -0.06484762
000340 27 79 2c 3d 3c d5 3a 3e 67 69 1a 3e 94 aa 68 3e
       0.042107727 0.18245405 0.1507927 0.2272132
000350 c0 6e cd 3d d9 ee 31 3d 97 0f 0d 3e 1e 09 b0 bc
       0.100308895 0.043440674 0.13775478 -0.021488722
000360 1f e4 09 3e 03 4c c5 3e 58 e7 07 be ee 3b 14 be
       0.13465928 0.38534555 -0.13271844 -0.14475986
000370 97 06 1a be 58 cf 0c 3e 20 e3 af 3d 1a ea 85 3e
       -0.15041576 0.1375097 0.085882425 0.26155168
000380 11 d2 77 bc 24 f8 b1 be 6a 40 73 3b d7 94 25 bd
       -0.015125767 -0.3475963 0.0037117251 -0.040425148
000390 2d 11 24 3e 45 ae 4d 3e 88 ab 6c 3e 7a 79 81 3d
       0.16022177 0.2008601 0.23112309 0.06321998
0003a0 2b 77 2e 3e b4 35 18 be 07 25 38 be 8e 27 74 3e
       0.17037646 -0.14864236 -0.17982875 0.23843214
0003b0 aa 10 85 be bf f2 97 bd d8 76 58 be 19 d2 27 be
       -0.25989276 -0.07419347 -0.21139085 -0.1638874
0003c0 10 4c a0 3c ef 3d 76 be c0 1d 62 3d ef c9 80 3e
       0.01956752 -0.24047063 0.055204153 0.25154063
0003d0 c0 cc 66 3e 5e 65 7f 3d 33 3f 70 3d fc fb 89 3d
       0.22539043 0.06235253 0.05865402 0.06737515
0003e0 ca 65 1f be 7a c4 59 bd c0 7c 93 be de 45 6d 3d
       -0.15566173 -0.05316589 -0.28806114 0.05792796
0003f0 04 b7 2d be b9 6b 17 3e 01 55 41 3e e0 c0 8a bd
       -0.16964346 0.14787187 0.18880083 -0.06775069
