housingpipeline/housingpipeline/dgmg/model.pth (torch, 313420 bytes, 52 tensors)

graph_embed.node_gating.0.weight f4 [1, 16]
-0.03416247 -0.04869027 -0.052115086 0.40169907 -0.24333854 0.47826838 0.22025344 -0.3195283
0.45875907 0.58390504 0.32500222 0.47010383 -0.034072727 -0.12535977 0.28715998 -0.22431086
00000000: f2ed 0bbd 736f 47bd a176 55bd 80ab cd3e
00000010: bd2d 79be 98df f43e 1e8a 613e 3799 a3be
00000020: 78e2 ea3e cd7a 153f b166 a63e 73b1 f03e
00000030: d88f 0bbd 505e 00be a206 933e bfb1 65be

graph_embed.node_to_graph.weight f4 [32, 16]
-0.15869923 0.17080212 0.3846307 -0.01399554 0.033971246 0.23149535 0.06963911 -0.18622808
0.06345378 -0.15433261 -0.25637376 0.14558846 0.20457318 0.28877342 -0.93047863 -0.23403148
0.046149973 -0.14078812 0.25972435 -0.29782084 -0.39178818 -0.18182829 0.23957983 -0.5701461
0.37853464 0.01955007 -0.29143804 0.19487143 0.27831712 -0.1531032 -0.47616082 -0.12765904
0.37584576 0.17931469 0.3627897 -0.10219114 -0.1001108 0.18963324 0.2615695 -0.3241735
0.45365047 0.32201955 -0.3025973 0.06636135 -0.2042877 0.34179452 0.6007484 -0.10924877
-0.28111097 -0.14394727 -0.10918195 -0.39880183 -0.23784155 -0.6107837 0.23952201 -0.44497672
-0.2740275 -0.24015883 -0.47886956 0.244899 0.33197382 0.27529028 -0.054361705 0.16870165
0.322517 0.057175994 0.23988111 0.03875172 -0.08413245 -0.14081399 -0.022280868 0.1372626
-0.18654107 0.226857 0.21540366 -0.17678276 -0.48199004 -0.048347715 0.046799272 0.08423011
0.33759582 -0.24766923 -0.060308322 -0.040927295 0.28556806 0.10096784 0.35579544 -0.29502356
-0.09427901 0.22223613 -0.012424919 -0.41144994 -0.076031186 0.08654725 -0.12618145 0.025156206
0.08839997 -0.055902403 -0.46694952 -0.0075842235 -0.15024807 -0.06540228 -0.48880902 0.3612314
0.2717938 -0.10924671 -0.06695806 -0.07896118 -0.19495481 -0.41249758 -0.32066146 0.18210766
0.04065319 -0.27373663 -0.14456704 -0.31372666 -0.09384358 0.32720643 -0.0021144955 0.047698475
0.13464221 0.3269349 0.12853128 -0.58643246 -0.4092743 0.07763964 0.35676998 0.013817695
0.080152884 -0.1573822 0.6095572 0.12851235 0.18814623 -0.06478672 0.17633292 0.3181701
-0.18113233 -0.10659932 -0.04726089 0.0073640416 -0.42122144 -0.2518974 -0.28751555 0.2441522
0.19718719 -0.19631861 0.4395213 0.16117267 -0.20461875 -0.3508626 0.21339901 0.11041917
0.22065303 -0.25775793 -0.5285905 0.26059496 0.07370457 0.22059457 -0.14291511 0.08699838
0.32270584 0.2853187 0.3561295 0.2386612 -0.058987584 0.22636329 0.029139588 -0.33796692
0.24206357 -0.08151493 -0.18769795 -0.43848762 0.56978154 -0.48383147 0.030301526 0.041619085
0.07737182 -0.28521982 -0.065118454 0.22358501 -0.28727326 -0.46559432 0.25516838 -0.05152534
0.63356775 0.5324115 -0.07446037 -0.32790548 -0.07915476 -0.11228756 0.38311785 0.16881743
0.35856014 0.31883842 0.38517493 -0.056799054 0.003877316 0.24794401 -0.22103202 0.070438415
0.32378814 0.0026758185 -0.33829716 -0.007349552 0.18888955 0.005698408 -0.3003793 0.15885235
-0.016335852 -0.24483451 -0.36675632 -0.1637594 -0.20445874 0.6852917 0.30990762 -0.6657565
0.37455973 0.0416131 -0.30244002 -0.38026264 0.13892415 0.735859 1.0289844 -0.09791726
0.022245957 -0.38154212 -0.07950128 0.12231962 0.17520376 -0.13790469 -0.108968824 -0.1620622
-0.16051173 0.20622288 -0.016491253 0.15727761 0.15397945 -0.27178904 -0.49806052 0.07259494
-0.12308599 0.094642505 0.021684375 0.47453088 0.15413024 -0.29410914 0.46567655 0.0833236
0.73657066 -0.2614658 -0.3829558 0.3185469 -0.26946706 0.06340266 0.042850144 -0.37580603
00000000: 0d82 22be c0e6 2e3e 51ee c43e 8d4d 65bc
00000010: 6f25 0b3d 1e0d 6d3e f39e 8e3d 93b2 3ebe
00000020: 0ef4 813d 5e09 1ebe 6c43 83be 2415 153e
00000030: a27b 513e 1cda 933e d933 6ebf f3a5 6fbe
00000040: c107 3d3d c32a 10be 97fa 843e f97b 98be
00000050: 7698 c8be 3231 3abe 6a54 753e 18f5 11bf
00000060: 4bcf c13e 7827 a03c 5e37 95be 608c 473e
00000070: 957f 8e3e 16c7 1cbe 5acb f3be 0db9 02be
00000080: db6e c03e 459e 373e 92bf b93e 9749 d1bd
00000090: e406 cdbd 372f 423e 70ec 853e 12fa a5be
000000a0: e044 e83e bfdf a43e 09ee 9abe 76e8 873d
000000b0: cb30 51be b1ff ae3e a6ca 193f d2bd dfbd
000000c0: c7ed 8fbe ea66 13be c99a dfbd c12f ccbe
000000d0: bc8c 73be 525c 1cbf 4245 753e fdd3 e3be
000000e0: 554d 8cbe 32ec 75be 642e f5be cec6 7a3e
000000f0: 79f8 a93e d9f2 8c3e 61aa 5ebd 20c0 2c3e
00000100: f320 a53e 6031 6a3d 65a3 753e 20ba 1e3d
00000110: a24d acbd 8b31 10be 5e86 b6bc 918e 0c3e
00000120: 9f04 3fbe 344d 683e c792 5c3e 8a06 35be
00000130: 66c7 f6be 4108 46bd 98b0 3f3d d680 ac3d
00000140: 5cd9 ac3e 019d 7dbe dc05 77bd 61a3 27bd
00000150: fa35 923e 3ac8 ce3d d22a b63e 540d 97be
00000160: 5b15 c1bd de91 633e e391 4bbc 91a9 d2be
00000170: 3db6 9bbd af3f b13d b635 01be 6314 ce3c
00000180: 0b0b b53d ebf9 64bd 0214 efbe 1485 f8bb
00000190: a1da 19be a1f1 85bd 2d45 fabe 52f3 b83e
000001a0: 8f28 8b3e bdbc dfbd 4f21 89bd 66b6 a1bd
000001b0: 3ca2 47be e232 d3be bd2d a4be 6e7a 3a3e
000001c0: f683 263d 3527 8cbe 6209 14be c8a0 a0be
000001d0: 1031 c0bd 9a87 a73e 5993 0abb 7a5f 433d
000001e0: a6df 093e 0364 a73e b49d 033e 7020 16bf
000001f0: 678c d1be 8801 9f3d 8eaa b63e 9d63 623c
00000200: 3227 a43d cd28 21be f10b 1c3f be98 033e
00000210: 68a9 403e e6ae 84bd 9e90 343e 31e7 a23e
00000220: c17a 39be bf50 dabd a394 41bd 0f4e f13b
00000230: 56aa d7be b2f8 80be 3d35 93be 0903 7a3e
00000240: 70eb 493e bf07 49be f008 e13e 730a 253e
00000250: 9487 51be 43a4 b3be 4585 5a3e 7223 e23d
00000260: def2 613e d9f8 83be b551 07bf b46c 853e
00000270: 6cf2 963d 8be3 613e 5758 12be 352c b23d
00000280: b339 a53e 4b15 923e 9b56 b63e 9a63 743e
00000290: f79c 71bd c7cb 673e 25b6 ee3c 000a adbe
000002a0: 83df 773e 4df1 a6bd e433 40be 7381 e0be
000002b0: 34dd 113f c2b8 f7be e83a f83c c678 2a3d
000002c0: 1e75 9e3d 5508 92be d35c 85bd 78f3 643e
000002d0: 7b15 93be 6162 eebe 6ea5 823e 3c0c 53bd
000002e0: 7f31 223f 1f4c 083f ae7e 98bd 3ae3 a7be
000002f0: e41b a2bd 05f7 e5bd 0628 c43e 7ade 2c3e
00000300: 3295 b73e ca3e a33e a635 c53e 20a6 68bd
00000310: 911a 7e3b 09e5 7d3e 3856 62be 0442 903d
00000320: 8fc7 a53e c95c 2f3b 4935 adbe 83d4 f0bb
00000330: 436c 413e b6b9 ba3b 51cb 99be 31aa 223e
00000340: c4d2 85bc e6b5 7abe 7cc7 bbbe 8bb0 27be
00000350: a25d 51be 476f 2f3f 36ac 9e3e 056f 2abf
00000360: 4bc6 bf3e 7f72 2a3d 6bd9 9abe c9b1 c2be
00000370: 2242 0e3e 4161 3c3f c3b5 833f d888 c8bd
00000380: 273d b63c 7d59 c3be 91d1 a2bd b582 fa3d
00000390: 9d68 333e e336 0dbe 0c2b dfbd a2f3 25be
000003a0: 305d 24be 172c 533e aa18 87bc 620d 213e
000003b0: caac 1d3e ef27 8bbe ca01 ffbe a8ac 943d
000003c0: 8214 fcbd eed3 c13d 6ea3 b13c b6f5 f23e
000003d0: 51d4 1d3e 7995 96be 286d ee3e 90a5 aa3d
000003e0: e58f 3c3f d8de 85be c812 c4be 9418 a33e
000003f0: 96f7 89be 41d9 813d a283 2f3d a669 c0be

graph_embed.node_to_graph.bias f4 [32]
1.7654376 -0.19002631 -0.06174419 -0.014969841 -1.6258883 -2.2406745 -0.56719345 0.7792316
-1.5331639 1.3748223 0.29629898 -0.08111572 0.70646906 1.0693369 -0.48071077 0.069125526
-0.6235035 0.09691543 -0.8234729 -0.34204572 -0.48182142 -1.476052 0.02316622 0.2545092
1.1552967 0.1598621 -0.09626192 -1.903716 -1.5174984 -1.4796252 -2.35206 0.7773505
00000000: dcf9 e13f 4296 42be 7ae7 7cbd 1044 75bc
00000010: 1c1d d0bf 3667 0fc0 9733 11bf b97b 473f
00000020: b73e c4bf 2dfa af3f 80b4 973e 0020 a6bd
00000030: 28db 343f 08e0 883f b91f f6be af91 8d3d
00000040: ed9d 1fbf 997b c63d 1fcf 52bf 9e20 afbe
00000050: 4cb1 f6be 46ef bcbf 16c7 bd3c 084f 823e
00000060: c3e0 933f e4b2 233e f824 c5bd f7ac f3bf
00000070: 633d c2bf 5c64 bdbf 2788 16c0 7100 473f

graph_prop.message_funcs.0.weight f4 [32, 34]
-0.0520616 -0.29819334 0.25930855 0.1909215 0.17319033 0.03849753 0.03333524 -0.23364562
-0.13126244 0.27509877 0.017965892 -0.019266745 0.056352925 -0.04379049 -0.31085336 0.046586882
0.04669777 -0.15928015 -0.1810819 -0.21854104 0.045199893 0.11639555 -0.014449169 -0.14912988
0.3625316 -0.06684028 -0.19219448 -0.09484848 -0.025269505 -0.20802163 0.19151619 -0.3015548
-0.018616823 0.057545412 -0.11119881 -0.1104587 -0.063916385 -0.026177417 -0.059564352 -0.064653344
0.4899852 -0.20476763 0.14903452 0.18603016 0.20207532 0.17608741 -0.18599789 0.15874755
0.26504937 -0.15671936 0.17447212 0.027486911 -0.12124093 -0.1022952 -0.17641494 -0.3717444
-0.024650993 0.080579065 -0.09080696 -0.04261348 0.23705606 0.2910586 0.006880193 0.13484398
0.012285624 -0.0008252808 -0.07846982 0.08220125 0.059170987 -0.10464729 -0.22629583 -0.018615758
-0.0868652 0.008219389 0.09658821 0.016350627 0.097683094 -0.029045353 0.07870543 -0.124562174
0.11334851 0.118746914 0.1909816 -0.19035691 0.45782417 -0.23210461 0.13558221 0.10130514
0.089451954 0.11233563 0.25599283 -0.28579834 0.078565486 -0.1685727 -0.12088917 0.0022764252
-0.32902074 0.03202351 0.06818881 0.09180385 -0.044210512 -0.08546632 0.009206593 -0.14461994
0.043857157 0.2622153 0.2637398 -0.10772294 -0.015710482 -0.08510231 -0.13606772 0.12723449
0.0022638917 0.01619747 0.095189005 0.06694671 -0.06193707 0.091392025 -0.3372048 -0.23924607
0.20158939 -0.06505319 0.30258086 -0.15844998 0.020455215 0.2283103 -0.08026953 -0.0028562967
-0.1869081 -0.08917954 -0.07197454 -0.6040403 0.42741257 0.3259149 0.00068576576 0.070202366
-0.12608524 -0.06393343 0.054394335 -0.2708635 -0.26110482 -0.103530996 0.18054874 -0.10294163
0.12101055 -0.10507117 -0.0767512 -0.002286232 -0.11707952 0.17632285 0.041670665 -0.070339024
-0.22628002 -0.1119817 -0.038210504 0.0046844464 0.09504773 0.081135616 0.400661 -0.066976674
0.079936616 -0.2210481 0.23978113 -0.10313889 -0.34360597 0.19077805 0.055207044 0.041350447
0.0925849 0.027145455 -0.16790752 0.20394252 0.2662546 0.12139649 0.086586125 -0.045696773
-0.2943084 0.39049315 -0.05448748 -0.05956099 0.2372048 0.11611459 0.0231052 -0.26874733
0.13238963 -0.14974658 0.32200798 0.058315054 0.04566056 -0.29044464 -0.08542956 -0.100328416
-0.040791925 -0.04121959 0.09428926 -0.04982113 0.18715698 -0.036018856 -0.037211195 0.29582277
0.18906923 0.0625993 0.0041785 -0.03379046 0.3224958 0.018764768 -0.05387991 0.07939083
-0.08662644 -0.09885783 0.37251303 -0.26399547 0.10987409 0.10134328 -0.050295446 -0.21506862
0.056254096 0.1882902 0.18138212 -0.14209767 -0.4371671 0.11379026 0.43158087 0.13712005
0.2012711 -0.13116647 0.058012385 0.26575473 -0.100727566 -0.02114706 0.4368485 0.119308986
0.5859309 -0.2323133 0.017257871 0.1899286 0.053223252 0.15325564 -0.023977907 -0.2502488
0.26406184 -0.0064707496 0.0038353528 -0.1455843 -0.32950702 -0.024050113 -0.0420671 0.04521068
-0.14423393 -0.069922954 -0.42389822 0.34572855 -0.204701 -0.013744697 0.0819663 -0.015496247
00000000: 8b3e 55bd ccac 98be 17c4 843e ed80 433e
00000010: ce58 313e 96af 1d3d 888a 083d cc40 6fbe
00000020: a969 06be bfd9 8c3e 352d 933c 4bd5 9dbc
00000030: 53d2 663d a85d 33bd 2c28 9fbe e3d1 3e3d
00000040: 2946 3f3d 561a 23be 896d 39be 39c9 5fbe
00000050: 8623 393d ca60 ee3d 35bc 6cbc 81b5 18be
00000060: be9d b93e 8fe3 88bd a1ce 44be eb3f c2bd
00000070: fe01 cfbc 9f03 55be d21c 443e 6465 9abe
00000080: 4f82 98bc bdb4 6b3d 34bc e3bd 2c38 e2bd
00000090: 98e6 82bd 0672 d6bc c0f9 73bd f968 84bd
000000a0: 57df fa3e 9bae 51be 819c 183e b17e 3e3e
000000b0: d5ec 4e3e 4250 343e 3b76 3ebe b88e 223e
000000c0: 8db4 873e 0a7b 20be d2a8 323e 3b2c e13c
000000d0: 2a4d f8bd 2580 d1bd 1ea6 34be 4855 bebe
000000e0: e1f0 c9bc a306 a53d 00f9 b9bd 798b 2ebd
000000f0: d3be 723e a205 953e 3e73 e13b 8a14 0a3e
00000100: a449 493c a857 58ba c9b4 a0bd 2159 a83d
00000110: 475d 723d 5251 d6bd 18ba 67be 1380 98bc
00000120: 62e6 b1bd 9eaa 063c 0ad0 c53d c0f1 853c
00000130: 130e c83d 85f0 edbc 5030 a13d 741a ffbd
00000140: 4323 e83d 9531 f33d ae90 433e ecec 42be
00000150: ee67 ea3e d5ac 6dbe 10d6 0a3e 1279 cf3d
00000160: 9632 b73d 3910 e63d 7e11 833e 2954 92be
00000170: f1e6 a03d 529e 2cbe be94 f7bd 1430 153b
00000180: 6875 a8be 162b 033d 93a6 8b3d a803 bc3d
00000190: 1516 35bd f708 afbd 40d7 163c 4017 14be
000001a0: 90a3 333d 1541 863e e708 873e d89d dcbd
000001b0: 45b3 80bc 1f4a aebd 5655 0bbe c249 023e
000001c0: cd5d 143b 8eb0 843c 74f2 c23d 5b1b 893d
000001d0: bab1 7dbd be2b bb3d 1ca6 acbe ecfc 74be
000001e0: 736d 4e3e 9b3a 85bd e1eb 9a3e b640 22be
000001f0: b291 a73c 2dca 693e 5a64 a4bd b530 3bbb
00000200: d664 3fbe c3a3 b6bd 6367 93bd 63a2 1abf
00000210: d2d5 da3e 51de a63e f6c4 333a 42c6 8f3d
00000220: 7d1c 01be 88ef 82bd 98cc 5e3d 9fae 8abe
00000230: 88af 85be 0f08 d4bd c5e1 383e 10d3 d2bd
00000240: 61d4 f73d 8e2f d7bd bc2f 9dbd 9cd4 15bb
00000250: 63c7 efbd fa8d 343e dcae 2a3d e80d 90bd
00000260: f3b5 67be a956 e5bd 9e82 1cbd fc7f 993b
00000270: 62a8 c23d 6e2a a63d 7023 cd3e 112b 89bd
00000280: cfb5 a33d 6f5a 62be 2f89 753e 7b3a d3bd
00000290: 1fed afbe 525b 433e c820 623d 165f 293d
000002a0: 279d bd3d 2560 de3c f3ef 2bbe 4fd6 503e
000002b0: 8652 883e b99e f83d 1154 b13d 8a2c 3bbd
000002c0: 97af 96be b8ee c73e 442e 5fbd 3af6 73bd
000002d0: d1e5 723e 7ccd ed3d 1e47 bd3c 4099 89be
000002e0: 2691 073e 2b57 19be 3bde a43e c4db 6e3d
000002f0: 9106 3b3d 29b5 94be b1f5 aebd fc78 cdbd
00000300: 6f15 27bd dfd5 28bd ba1a c13d 3e11 4cbd
00000310: 14a6 3f3e 8288 13bd c46a 18bd 1576 973e
00000320: 5d9b 413e 1034 803d cceb 883b de67 0abd
00000330: 2b1e a53e 92b8 993c 2eb1 5cbd a997 a23d
00000340: 3469 b1bd f975 cabd 07ba be3e 6a2a 87be
00000350: ab05 e13d 118d cf3d 9902 4ebd f33a 5cbe
00000360: b26a 663d 25cf 403e 3cbc 393e 0d82 11be
00000370: 5ed4 dfbe de0a e93d 2bf8 dc3e 3369 0c3e
00000380: 031a 4e3e 8150 06be 659e 6d3d 0111 883e
00000390: 414a cebd 993c adbc 9baa df3e 4558 f43d
000003a0: 91ff 153f 8ae3 6dbe 6160 8d3c a57c 423e
000003b0: a000 5a3d 0cef 1c3e 516d c4bc 9c20 80be
000003c0: 1d33 873e 9508 d4bb 8b5a 7b3b 0d14 15be
000003d0: 25b5 a8be be04 c5bc 8d4e 2cbd d62e 393d
000003e0: 0fb2 13be c433 8fbd 3009 d9be 5503 b13e
000003f0: 249d 51be 7031 61bc f3dd a73d f9e3 7dbc

graph_prop.message_funcs.0.bias f4 [32]
0.28348044 -0.07763045 0.06568863 0.33964863 0.008761339 0.1756267 -0.04352793 0.50978094
-0.15093799 0.17174494 0.16614392 -0.11740499 0.44607818 0.20906985 -0.38509282 -0.08090737
0.041375823 -0.094565816 -0.4332676 0.28410986 -0.021526871 0.19719657 0.16226438 -0.5748511
0.549237 -0.41118136 -0.48500678 0.1778952 0.006321599 -0.11989243 0.096567936 -0.19755995
00000000: 5924 913e b7fc 9ebd c387 863d 6de6 ad3e
00000010: b88b 0f3c 7cd7 333e 584a 32bd 0181 023f
00000020: 7d8f 1abe e8dd 2f3e a221 2a3e 0772 f0bd
00000030: 5c64 e43e 6816 563e e32a c5be c3b2 a5bd
00000040: b279 293d b9ab c1bd 40d5 ddbe d976 913e
00000050: 1f59 b0bc e6ed 493e a228 263e 7129 13bf
00000060: cc9a 0c3f 5d86 d2be cf52 f8be 292a 363e
00000070: 6a25 cf3b 2a8a f5bd 69c5 c53d 284d 4abe

graph_prop.message_funcs.1.weight f4 [32, 34]
-0.044211905 -0.22092551 -0.17440358 0.09921871 0.0034099235 0.026032992 -0.11443715 0.24467511
0.08336567 0.06240125 -0.19333996 -0.14176397 0.059864108 0.0871599 -0.34732395 -0.103497595
-0.464167 0.038750608 0.019629821 -0.42474532 -0.14453618 -0.17835234 0.2602597 0.4035697
-0.23716456 0.14361958 -0.3894614 -0.015346966 0.40014407 -0.1297683 0.6910508 -0.1259231
-0.0044748476 -0.092727125 0.076292515 0.1973906 0.19952796 -0.1757892 0.20955698 -0.2031378
-0.017120833 -0.17455253 0.07515606 0.16683836 0.1112018 0.13062474 0.023495601 0.02358623
0.23357704 -0.17079596 0.13952544 0.14378026 0.002338156 0.0039893887 -0.31857422 0.40518835
-0.060704876 -0.14660653 0.03487458 -0.13229437 -0.021103084 0.086782694 -0.08156468 -0.06686502
-0.4094747 -0.0837077 0.17540501 -0.17538492 0.22112776 -0.14551026 -0.0039338362 -0.09295494
0.055084247 -0.14470376 0.0024096002 0.2733135 -0.2313203 0.077538736 -0.2518876 -0.100540265
0.30820897 0.11302306 -0.46170998 -0.109504215 -0.10457621 0.06371772 0.034047678 -0.04869159
0.05653877 -0.13632946 0.2593522 0.5657479 -0.32483292 -0.1824222 -0.1883424 -0.12596522
0.86108345 0.27365276 0.8378549 -0.006705165 0.033108536 0.37718394 -0.011576699 -0.17746687
0.0948976 0.31900227 -0.02345155 0.09044705 -0.07449735 0.092657275 -0.2820457 -0.003315735
-0.13183394 0.12550463 -0.061167665 -0.021710932 0.044870257 0.0437218 -0.30303565 0.019996224
0.03955184 -0.071631044 0.081001095 -0.03126107 -0.1843927 0.2589352 0.028608315 -0.042852495
0.34548667 -0.24718806 0.4590733 0.16471553 0.8432898 0.020915426 0.003129988 0.002031561
-0.23621476 0.07008625 -0.16542855 0.26586747 -0.074141756 0.13793787 -0.050820757 -0.0028897272
-0.20088872 -0.09902387 0.32958794 0.11448891 -0.16329944 -0.087330274 0.24583472 0.009454642
-0.028226206 0.13753563 -0.063131385 0.02107511 0.12614295 0.048458666 -0.27124283 -0.1277995
-0.17382142 -0.028799007 0.0944973 0.12709439 -0.05048868 -0.3332536 -0.34614736 0.12414907
-0.06090612 -0.035033047 -0.2211469 -0.07814869 0.21947572 0.2187188 -0.08984387 0.036178593
0.12432135 0.090506606 -0.23064469 0.15407994 -0.029440207 0.07112932 -0.18569918 0.09346225
0.23372845 -0.18030104 -0.7366527 -0.04308308 -0.0016550298 -0.13371934 0.008537601 -0.00018695393
-0.19289815 -0.1197333 -0.13694583 0.015347714 0.27065155 0.012317466 -0.16888013 -0.07016349
-0.0908883 0.473564 -0.040637445 -0.072220095 0.10422775 -0.14946976 -0.031447403 -0.036612477
0.29835984 0.0030803697 -0.43556425 -0.16259222 -0.10652469 0.36085933 -0.11994651 -0.19291642
0.09015594 0.28640935 -0.38086697 0.0009813564 0.16118525 -0.1077272 -0.0931668 -0.29264292
0.014827227 -0.026456213 0.02089676 -0.12829834 0.15762047 0.16675785 0.08832727 -0.22795238
-0.047398172 -0.0073221475 0.7894121 -0.14745101 0.06605706 0.05289937 0.13941503 0.1256376
0.27545756 -0.12513615 -0.060278054 0.067836285 -0.07203071 0.08409074 -0.016414111 0.080598414
0.032300927 0.09577421 -0.030247789 -0.08635225 0.24060999 -0.14044814 0.26224068 0.022133607
00000000: 8b17 35bd 4c3a 62be da96 32be 2e33 cb3d
00000010: 0679 5f3b 2443 d53c 065e eabd 1d8c 7a3e
00000020: 9fbb aa3d 7498 7f3d e9fa 45be 932a 11be
00000030: 1134 753d e480 b23d 72d4 b1be 8cf6 d3bd
00000040: 4ca7 edbe f5b8 1e3d b8ce a03c 3878 d9be
00000050: 4b01 14be ffa1 36be c240 853e b0a0 ce3e
00000060: 44db 72be 0311 133e 7c67 c7be d771 7bbc
00000070: afdf cc3e fbe1 04be b5e8 303f fcf1 00be
00000080: bea1 92bb b8e7 bdbd 403f 9c3d c320 4a3e
00000090: 0f51 4c3e 1602 34be 1b96 563e 5b03 50be
000000a0: fd40 8cbc e6bd 32be 6ceb 993d add7 2a3e
000000b0: c5bd e33d 7ec2 053e d979 c03c e937 c13c
000000c0: d22e 6f3e 23e5 2ebe c2df 0e3e 223b 133e
000000d0: c03b 193b 6bb9 823b 291c a3be d974 cf3e
000000e0: ada5 78bd 0620 16be a6d8 0e3d 2d78 07be
000000f0: 60e0 acbc 20bb b13d 620b a7bd 87f0 88bd
00000100: aba6 d1be f16e abbd 5f9d 333e 1b98 33be
00000110: 516f 623e a400 15be 69e7 80bb 295f bebd
00000120: 05a0 613d 392d 14be 62ea 1d3b bfef 8b3e
00000130: 3bdf 6cbe a1cc 9e3d 69f7 80be 0ee8 cdbd
00000140: 91cd 9d3e a278 e73d 4065 ecbe bf43 e0bd
00000150: 0d2c d6bd 707e 823d 9475 0b3d d570 47bd
00000160: 3395 673d f399 0bbe d0c9 843e dbd4 103f
00000170: 8050 a6be e3cc 3abe d5dc 40be 07fd 00be
00000180: f76f 5c3f 371c 8c3e a97d 563f 00b7 dbbb
00000190: d19c 073d 411e c13e 32ac 3dbc e0b9 35be
000001a0: ac59 c23d 4454 a33e 771d c0bc 4e3c b93d
000001b0: 1192 98bd 19c3 bd3d 4b68 90be cd4c 59bb
000001c0: 7aff 06be 4984 003e f28a 7abd 20db b1bc
000001d0: e0c9 373d a115 333d 7d27 9bbe 1fcf a33c
000001e0: 1c01 223d 4cb3 92bd e7e3 a53d 9c0b 00bd
000001f0: 71d1 3cbe 2893 843e fc5b ea3c 1986 2fbd
00000200: a1e3 b03e de1e 7dbe a80b eb3e 30ab 283e
00000210: d7e1 573f d456 ab3c 7c20 4d3b f023 053b
00000220: 48e2 71be 6189 8f3d 1a66 29be c81f 883e
00000230: a2d7 97bd 963f 0d3e 6d29 50bd 9461 3dbb
00000240: c6b5 4dbe 07cd cabd c0bf a83e 2979 ea3d
00000250: f837 27be 37da b2bd 19bc 7b3e a5e7 1a3c
00000260: a53a e7bc 24d6 0c3e 074b 81bd b6a5 ac3c
00000270: 9e2b 013e 987c 463d 57e0 8abe dfdd 02be
00000280: 3efe 31be e5eb ebbc cd87 c13d 0825 023e
00000290: 38cd 4ebd 37a0 aabe 3a3a b1be de41 fe3d
000002a0: b278 79bd d07e 0fbd 5574 62be 6c0c a0bd
000002b0: 3ebe 603e d2f7 5f3e 1000 b8bd 0130 143d
000002c0: 319c fe3d 875b b93d 1f2e 6cbe 22c7 1d3e
000002d0: 972c f1bc 40ac 913d ed27 3ebe 2369 bf3d
000002e0: 8356 6f3e d6a0 38be 4595 3cbf e277 30bd
000002f0: 96ed d8ba b9ed 08be 4be1 0b3c 1009 44b9
00000300: 1887 45be bb36 f5bd 873b 0cbe fa74 7b3c
00000310: d792 8a3e 32cf 493c eaee 2cbe e0b1 8fbd
00000320: a523 babd fb76 f23e 7373 26bd 21e8 93bd
00000330: 5c75 d53d 9a0e 19be fece 00bd f7f6 15bd
00000340: 9fc2 983e 07e0 493b 4702 dfbe 937e 26be
00000350: 9e29 dabd 8ec2 b83e 84a6 f5bd e28b 45be
00000360: ada3 b83d 3fa4 923e ff00 c3be dba0 803a
00000370: bf0d 253e 14a0 dcbd 3cce bebd 4bd5 95be
00000380: e6ed 723c b3ba d8bc af2f ab3c a460 03be
00000390: 4367 213e 92c2 2a3e ede4 b43d 596c 69be
000003a0: 9624 42bd a0ee efbb e916 4a3f 66fd 16be
000003b0: ed48 873d 03ad 583d d0c2 0e3e 25a7 003e
000003c0: c608 8d3e b123 00be 1fe6 76bd c0ed 8a3d
000003d0: d684 93bd c437 ac3d e376 86bc c810 a53d
000003e0: fa4d 043d 4525 c43d 36ca f7bc 73d9 b0bd
000003f0: 7762 763e a3d1 0fbe 6944 863e 8a51 b53c

graph_prop.message_funcs.1.bias f4 [32]
0.07146448 -0.22788334 -0.018499296 -0.03792359 -0.10221999 -0.13148914 0.23561858 -0.1393961
-0.22348328 -0.14296748 -0.25691092 0.16118401 0.30874178 0.02642916 -0.06116988 -0.0980511
0.0017874205 -0.044214092 -0.16627097 0.14604117 -0.19276755 0.24566232 -0.17358086 -0.00036192816
0.30899847 0.23298113 0.056508675 0.0022950254 -0.25691375 0.07460862 0.07398225 0.0057362476
00000000: f85b 923d 405a 69be d68b 97bc c455 1bbd
00000010: b758 d1bd 17a5 06be ff45 713e dabd 0ebe
00000020: cdd8 64be 1166 12be d489 83be 6c0d 253e
00000030: 6713 9e3e f781 d83c 458d 7abd 04cf c8bd
00000040: e147 ea3a d619 35bd f042 2abe d18b 153e
00000050: db64 45be e78e 7b3e 2ebf 31be 2dc1 bdb9
00000060: 0c35 9e3e 9b92 6e3e a475 673d 2368 163b
00000070: 338a 83be 67cc 983d 0284 973d 22f7 bb3b

graph_prop.node_update_funcs.0.weight_ih f4 [48, 32]
0.100606024 0.0018905824 0.3540078 -0.43557957 0.6074122 -0.0179548 -0.29831716 0.35020962
-0.33846334 0.08389067 -0.3340454 -0.35249925 -0.001846515 -0.018861013 0.122521944 -0.20060694
0.2083239 -0.2959448 0.30778626 0.39292756 0.47216117 0.6071054 0.45991227 0.3292401
-0.35891017 0.5746396 -0.0604109 -0.31401584 0.11775336 0.5838218 0.2558264 0.65566486
-0.052559644 0.016638746 0.03418346 -0.06279565 -0.005860505 0.091087334 -0.16697723 -0.14563636
-0.02136752 0.26791817 -0.31742343 -0.2025122 0.23150663 -0.25976902 -0.015169401 -0.28618962
0.10129786 0.048610363 0.009030887 -0.10276563 0.108877756 0.058917005 0.009295318 -0.067229316
0.033976905 -0.10638053 -0.17765372 0.069373615 -0.03464678 -0.16467044 -0.09550124 0.20396332
0.16916358 -0.10294334 0.101195045 -0.081705466 -0.09165875 -0.16100301 0.01923577 -0.102111444
-0.23632616 -0.17181492 -0.23369852 0.04175628 0.10842552 -0.09185932 -0.059519645 -0.23931113
-0.03960999 -0.2946698 -0.004571395 -0.0012137473 0.043372497 -0.05125052 -0.036685057 -0.031027436
0.17161064 -0.008462783 -0.18418269 -0.17382674 -0.04657401 0.12217026 -0.15403952 0.046969492
-0.12670492 -0.26721877 -0.05850304 0.10060713 -0.2875337 -0.1825396 -0.27491084 -0.4652964
-0.14441267 -0.3841048 0.24389805 0.15902863 0.025268447 -0.3468447 -0.054076526 -0.013058818
-0.024401985 0.30392396 -0.11163147 -0.1674694 -0.011690016 -0.21144697 -0.2787267 -0.042077173
0.086390324 -0.1246386 -0.19285098 -0.14852624 -0.18089814 -0.3399456 0.008745147 -0.26600513
0.4392074 0.16728155 -0.3966965 0.58836395 0.21254039 -0.11121575 0.20442937 -0.081713885
0.27813995 -0.017781083 0.30628878 0.40936878 0.31210843 0.019432785 0.12954059 0.055808924
0.21676463 0.0030704397 0.17419678 -0.06380821 -0.14978118 -0.036374483 0.058284376 -0.0031520086
0.10188824 -0.22715291 0.14400797 0.47961706 -0.28207195 0.12616499 0.12726101 -0.5580936
0.014539509 0.33629695 0.22621466 0.31101266 0.07015827 0.16267829 0.16675682 0.54724693
-0.158417 -0.10148337 -0.028142095 -0.16399989 0.34775642 0.0408752 0.017300727 0.19132607
-0.0028193227 0.22443323 0.2898769 -0.06726893 -0.027014561 0.02798825 0.00029043647 -0.014896071
0.32483825 -0.27923378 -0.4102861 0.05489285 0.009129812 -0.09491846 -0.18407391 0.2789515
0.014464394 -0.063894875 -0.07974799 -0.3427626 -0.061739597 -0.04321829 -0.013012767 0.012919779
-0.22146575 0.2597409 -0.2824335 -0.11027243 0.02553406 0.09733149 -0.014356168 -0.17839801
0.20909604 -0.418361 0.35733232 0.25461 -0.14543998 0.37274033 0.2121089 0.116553776
0.2864399 0.18538001 -0.01155939 -0.19447146 0.002171529 0.15244527 0.13114764 0.19631487
-0.16438428 -0.13090895 -0.07029461 -0.19084127 0.18071125 -0.030646676 -0.01315372 0.04104215
0.15938301 -0.15341485 0.032360826 0.21965444 0.39213794 0.26742026 0.16122134 0.18311355
0.11385456 -0.11068329 -0.01628824 0.21344641 -0.28624102 -0.2583423 -0.3013374 0.032843333
-0.20851918 0.11927557 -0.13000762 -0.51561576 -0.1646444 -0.08584861 0.30709416 0.041461695
00000000: 880a ce3d 6bcd f73a 8340 b53e 4904 dfbe
00000010: 5e7f 1b3f f215 93bc 07bd 98be ad4e b33e
00000020: 114b adbe dfce ab3d 0008 abbe c87a b4be
00000030: c306 f2ba 6982 9abc c9ec fa3d e86b 4dbe
00000040: dc52 553e 1486 97be 2996 9d3e cd2d c93e
00000050: 1cbf f13e 426b 1b3f 9f79 eb3e 2992 a83e
00000060: 13c3 b7be 951b 133f 6b71 77bd afc6 a0be
00000070: ac28 f13d 5875 153f aefb 823e a7d9 273f
00000080: c848 57bd fb4d 883c f503 0c3d 019b 80bd
00000090: 7b09 c0bb ff8b ba3d 14fc 2abe b321 15be
000000a0: f00a afbc 922c 893e 5385 a2be 5c5f 4fbe
000000b0: 1310 6d3e 7200 85be 1489 78bc 7287 92be
000000c0: 4175 cf3d a91b 473d 49f6 133c c976 d2bd
000000d0: 4dfb de3d f552 713d 644b 183c 86af 89bd
000000e0: 5e2b 0b3d 09de d9bd dbea 35be c113 8e3d
000000f0: c8e9 0dbd 5e9f 28be 2796 c3bd c3db 503e
00000100: 3839 2d3e f5d3 d2bd 593f cf3d 3255 a7bd
00000110: 95b7 bbbd f9dd 24be 5594 9d3c ce1f d1bd
00000120: 7cff 71be 40f0 2fbe aa4e 6fbe a208 2b3d
00000130: 330e de3d bd20 bcbd dfca 73bd fa0d 75be
00000140: 163e 22bd f6de 96be a4cb 95bb 9a16 9fba
00000150: 5ca7 313d 11ec 51bd 1243 16bd 402d febc
00000160: b3ba 2f3e 7ca7 0abc 639a 3cbe a3ff 31be
00000170: 64c4 3ebd 6734 fa3d 89bc 1dbe 1563 403d
00000180: efbe 01be e6d0 88be e2a0 6fbd 1c0b ce3d
00000190: 9e37 93be a9eb 3abe 1dc1 8cbe 543b eebe
000001a0: eae0 13be 62a9 c4be 69c0 793e 67d8 223e
000001b0: c6ff ce3c a195 b1be 597f 5dbd a7f4 55bc
000001c0: ace6 c7bc ec9b 9b3e 0a9f e4bd 197d 2bbe
000001d0: 7b87 3fbc 8e85 58be 44b5 8ebe 1d59 2cbd
000001e0: 69ed b03d 8642 ffbd ba7a 45be 4317 18be
000001f0: 5d3d 39be 5a0d aebe ce47 0f3c d331 88be
00000200: cbdf e03e db4b 2b3e ce1b cbbe 059f 163f
00000210: 30a4 593e 15c5 e3bd ef55 513e 9c59 a7bd
00000220: 5c68 8e3e a2a9 91bc e2d1 9c3e c998 d13e
00000230: adcc 9f3e 8131 9f3c 4aa6 043e e697 643d
00000240: 8cf7 5d3e 6e39 493b a460 323e e1ad 82bd
00000250: 3d60 19be 69fd 14bd 99bb 6e3d ee91 4ebb
00000260: c8aa d03d c69a 68be d376 133e 5e90 f53e
00000270: bc6b 90be 6531 013e b650 023e 39df 0ebf
00000280: 1f37 6e3c 1d2f ac3e d1a4 673e 0d3d 9f3e
00000290: 24af 8f3d 2395 263e 4dc2 2a3e 6018 0c3f
000002a0: 1138 22be 83d6 cfbd 408a e6bc 96ef 27be
000002b0: 210d b23e c16c 273d 41ba 8d3c fbea 433e
000002c0: 63c4 38bb d3d1 653e bf6a 943e 4bc4 89bd
000002d0: a44d ddbc 9d47 e53c b945 9839 a60e 74bc
000002e0: 3351 a63e bbf7 8ebe 0511 d2be 53d7 603d
000002f0: 3595 153c 9c64 c2bd df7d 3cbe bbd2 8e3e
00000300: 11fc 6c3c 51db 82bd ea52 a3bd 947e afbe
00000310: a9e2 7cbd a905 31bd 8033 55bc 7bad 533c
00000320: ebc7 62be c2fc 843e 209b 90be 83d6 e1bd
00000330: ce2c d13c bb55 c73d 2236 6bbc f8ad 36be
00000340: 461d 563e 6a33 d6be 43f4 b63e 3e5c 823e
00000350: 38ee 14be d2d7 be3e 1333 593e bfb3 ee3d
00000360: 40a8 923e 42d4 3d3e 9963 3dbc 8723 47be
00000370: 3650 0e3b 9d1a 1c3e 914b 063e c406 493e
00000380: 5a54 28be ff0c 06be 9ff6 8fbd e56b 43be
00000390: 5f0c 393e bd0e fbbc b382 57bc d01b 283d
000003a0: 4d35 233e c818 1dbe c98c 043d 18ed 603e
000003b0: 4ec6 c83e 4feb 883e 3517 253e 1e82 3b3e
000003c0: 942c e93d ecad e2bd ea6e 85bc b291 5a3e
000003d0: 2f8e 92be 7145 84be e548 9abe bb86 063d
000003e0: 0d86 55be c046 f43d b820 05be 65ff 03bf
000003f0: 8b98 28be 65d1 afbd 723b 9d3e bdd3 293d

graph_prop.node_update_funcs.0.weight_hh f4 [48, 16]
0.17335722 0.30727676 0.24740104 -0.26220846 -0.21294256 0.16543873 -0.1530482 -0.23754828
0.32406294 0.03409724 0.018930666 0.4324368 0.23092578 -0.38056 -0.46711582 -0.6575661
0.15271592 -0.25943062 0.4535668 0.18914028 0.10712659 -0.13098738 0.06035007 0.033878047
0.33537394 -0.050860163 -0.21713363 -0.19101499 0.20991233 -0.018529963 -0.05665587 -0.028248599
0.08072739 -0.0005381104 0.038288847 -0.2536463 0.15325946 -0.024541955 0.06745745 -0.05271313
0.4464687 0.16262916 0.09597604 0.14705864 0.16417609 0.040263202 0.22136731 0.08159781
-0.053531736 -0.17706329 -0.15272528 0.085963435 0.077871576 -0.21193373 0.16735911 -0.092361234
-0.0064447043 -0.102404535 -0.05223382 0.061729833 0.31467208 0.22476569 0.047990885 0.20884779
-0.11794284 0.28519008 1.077967 0.015644755 -0.3126568 0.21266286 0.3224226 0.33451274
0.27291447 -0.20708063 -0.07557782 0.1048244 -0.3010047 0.065431416 0.2708918 -0.44547176
-0.13765971 -0.29254 -0.27472195 0.072531074 0.36959746 -0.23912577 0.11303316 -0.0032875114
-0.41181442 -0.22038163 -0.028215084 0.2352677 -0.1151771 0.40732574 0.037927315 -0.043755718
0.20127401 0.26178896 0.36817098 -0.3418428 -0.13782375 0.08871943 -0.42773265 0.0048406757
-0.17968644 -0.08622932 -0.32025102 -0.18763413 -0.16188142 -0.020967463 -0.17199826 -0.23829384
-0.15900093 -0.26143637 0.022652475 0.64743364 0.50245285 -0.4101142 0.5772634 0.35088712
-0.2857526 -0.092963345 0.45772302 -0.102024086 0.004873728 0.54721266 0.33735347 0.23923998
-0.16219315 0.055686433 -0.027708855 -0.21660246 0.041588746 -0.0076229204 0.23387374 -0.347148
-0.19042614 -0.40428764 -0.048350252 0.2838471 0.1007145 -0.1650192 -0.25971547 0.09051536
-0.29373506 0.07554323 0.34773034 0.08860558 0.19595806 -0.4004803 0.28529382 -0.24730039
-0.15782848 -0.1818193 0.3660939 0.11149601 0.20357065 0.1778946 -0.05295167 -0.17636378
0.046740375 0.17533459 0.33004117 -0.08105067 -0.22526465 0.09527996 -0.11259622 -0.035672948
0.2060772 0.14188549 -0.18838489 0.0072271316 -0.056584228 -0.50586116 0.08082924 -0.19853961
0.20240726 0.114543185 -0.022539996 0.047807474 0.025583893 0.09388662 -0.057040263 -0.19118544
-0.088251345 -0.4390738 -0.19437319 -0.25381902 -0.10165797 -0.06228958 0.2509146 0.16286394
-0.11550926 -0.4920077 0.18102124 0.031128362 0.3160834 -0.35816813 0.18500134 -0.756783
0.2670346 -0.23588443 0.3400309 0.14203611 -0.36614338 0.21288842 0.22231854 -0.11640249
-0.19393823 -0.27608773 -0.33640376 0.041911315 -0.20747823 -0.07009333 0.108277306 -0.1462467
-0.08360333 0.1912053 0.16290294 -0.09582907 -0.024784232 -0.34196416 -0.021951374 0.24373291
-0.08208758 0.21205646 -0.47557285 -0.26267114 0.015774675 -0.021721745 -0.18023549 0.109078854
-0.25184053 -0.003788803 -0.115233235 -0.25220528 -0.08642424 -0.18447426 -0.09617247 -0.3485349
0.09375522 0.21713139 0.08215603 -0.19474211 -0.12931219 0.10998029 -0.06472645 -0.17093626
-0.18030557 -0.055122975 -0.28611404 0.2201871 0.11257656 0.033077937 0.18585539 -0.09358973
00000000: 8e84 313e 6153 9d3e b356 7d3e 3040 86be
00000010: 9d0d 5abe c568 293e abb8 1cbe db3f 73be
00000020: 94eb a53e 8ca9 0b3d 7c14 9b3c 5b68 dd3e
00000030: cf77 6c3e c3d8 c2be ce29 efbe 4056 28bf
00000040: 9061 1c3e 17d4 84be e839 e83e fdad 413e
00000050: 3065 db3d 8e21 06be a331 773d b5c3 0a3d
00000060: 22b6 ab3e bf52 50bd 4758 5ebe 6f99 43be
00000070: 42f3 563e 26cc 97bc fc0f 68bd 9b69 e7bc
00000080: 6754 a53d fa0f 0dba c4d4 1c3d eedd 81be
00000090: 0cf0 1c3e 360c c9bc 2227 8a3d b9e9 57bd
000000a0: 8c97 e43e 4288 263e 168f c43d 8a96 163e
000000b0: c71d 283e 07eb 243d 1dae 623e c11c a73d
000000c0: 1844 5bbd 1450 35be 0464 1cbe 990d b03d
000000d0: 227b 9f3d 2805 59be 3060 2b3e e327 bdbd
000000e0: 192e d3bb 78b9 d1bd 21f3 55bd 6cd8 7c3d
000000f0: b31c a13e fa28 663e 1792 443d 32dc 553e
00000100: 048c f1bd 6f04 923e d3fa 893f 6e29 803c
00000110: 8d14 a0be 4bc4 593e 9314 a53e 4145 ab3e
00000120: 72bb 8b3e f20c 54be 8bc8 9abd 2dae d63d
00000130: 4a1d 9abe e800 863d 54b2 8a3e e014 e4be
00000140: abf6 0cbe cec7 95be 5ba8 8cbe 2c8b 943d
00000150: e13b bd3e 63dd 74be ee7d e73d 4a73 57bb
00000160: 57d9 d2be b9ab 61be 5223 e7bc 04ea 703e
00000170: f9e1 ebbd 008d d03e ac59 1b3d 3239 33bd
00000180: c61a 4e3e 3409 863e e880 bc3e 0506 afbe
00000190: ab21 0dbe 88b2 b53d c6ff dabe 889e 9e3b
000001a0: b9ff 37be ff98 b0bd f1f7 a3be 2923 40be
000001b0: 3ec4 25be f5c3 abbc 5020 30be 4d03 74be
000001c0: 24d1 22be fdda 85be af91 b93c 36be 253f
000001d0: c0a0 003f 7dfa d1be 89c7 133f 7aa7 b33e
000001e0: 2a4e 92be 9163 bebd ac5a ea3e 01f2 d0bd
000001f0: cbb3 9f3b 2116 0c3f 98b9 ac3e 53fb 743e
00000200: f615 26be 7517 643d aefd e2bc 09cd 5dbe
00000210: f658 2a3d b1c9 f9bb 997c 6f3e 62bd b1be
00000220: 12ff 42be cafe cebe ea0a 46bd 6854 913e
00000230: 6743 ce3d cbfa 28be 6df9 84be 1e60 b93d
00000240: 7164 96be 69b6 9a3d b609 b23e d876 b53d
00000250: 3ba9 483e c10b cdbe 0812 923e 503c 7dbe
00000260: ca9d 21be d72e 3abe a970 bb3e 0558 e43d
00000270: d374 503e 012a 363e dae3 58bd b598 34be
00000280: d672 3f3d e98a 333e 28fb a83e e5fd a5bd
00000290: c7ab 66be 2422 c33d d998 e6bd cc1d 12bd
000002a0: e705 533e 6e4a 113e f8e7 40be 93d1 ec3b
000002b0: ddc4 67bd 1e80 01bf cd89 a53d f84d 4bbe
000002c0: d943 4f3e 9e95 ea3d cca5 b8bc c5d1 433d
000002d0: 5095 d13c a147 c03d 0da3 69bd 1ec6 43be
000002e0: 1fbd b4bd 48ce e0be c409 47be 91f4 81be
000002f0: 0e32 d0bd 5c23 7fbd e177 803e cec5 263e
00000300: 1e90 ecbd 6fe8 fbbe a25d 393e e800 ff3c
00000310: afd5 a13e d061 b7be fe70 3d3e 88bc 41bf
00000320: c2b8 883e b08b 71be 8818 ae3e ea71 113e
00000330: 2577 bbbe 6cff 593e 79a7 633e 6e64 eebd
00000340: be97 46be 5f5b 8dbe 1d3d acbe 33ab 2b3d
00000350: 2c75 54be 188d 8fbd 7ec0 dd3d b2c1 15be
00000360: 3938 abbd 52cb 433e 07d0 263e 0842 c4bd
00000370: 4d08 cbbc ed15 afbe 5ed3 b3bc 1f95 793e
00000380: 881d a8bd 5425 593e 497e f3be d57c 86be
00000390: e439 813c cdf1 b1bc a78f 38be bc64 df3d
000003a0: 3ef1 80be 914d 78bb 67ff ebbd 0d21 81be
000003b0: 31ff b0bd d2e6 3cbe 12f6 c4bd 2b73 b2be
000003c0: bd02 c03d b157 5e3e 6c41 a83d 7a6a 47be
000003d0: 6a6a 04be 593d e13d 4d8f 84bd ea09 2fbe
000003e0: 06a2 38be a1c8 61bd 8a7d 92be ba78 613e
000003f0: 8a8e e63d bb7c 073d e050 3e3e f9ab bfbd

graph_prop.node_update_funcs.0.bias_ih f4 [48]
-0.7562516 1.2138342 -1.0248207 -0.30251053 -0.16023669 0.99493974 -0.620361 -0.8434713
0.862905 1.4578177 -1.5459541 -0.8951254 0.0328449 1.6896589 -0.32256153 0.020153329
-0.06328259 0.23236305 0.38863376 1.2717252 -0.601287 0.42110366 0.27006817 0.42106923
1.5378425 -0.33839226 -0.51738375 -0.47217616 -0.14692219 -1.1846411 1.0545903 -1.7140446
1.631958 0.18025897 1.7319955 0.6575451 -2.675005 1.0145643 1.1803138 -1.7999288
-1.5679584 -0.1440637 1.2077638 -1.2009215 0.053437795 -0.6152839 0.063936144 -0.30275127
00000000: b499 41bf eb5e 9b3f 532d 83bf a9e2 9abe
00000010: 1615 24be 5fb4 7e3f facf 1ebf bced 57bf
00000020: 58e7 5c3f c599 ba3f d3e1 c5bf f026 65bf
00000030: 6088 063d be46 d83f c926 a5be 9818 a53c
00000040: 4d9a 81bd 94f0 6d3e 01fb c63e e4c7 a23f
00000050: f2ed 19bf e69a d73e 6046 8a3e 6396 d73e
00000060: 06d8 c43f c041 adbe 4373 04bf 13c1 f1be
00000070: c572 16be 52a2 97bf d1fc 863f d065 dbbf
00000080: 00e4 d03f cf95 383e 07b2 dd3f e054 283f
00000090: 4833 2bc0 3edd 813f 8614 973f 1164 e6bf
000000a0: dcb2 c8bf 6f85 13be 0198 9a3f ccb7 99bf
000000b0: 97e1 5a3d 3f83 1dbf f4f0 823d 3702 9bbe

graph_prop.node_update_funcs.0.bias_hh f4 [48]
-1.1062895 1.1233424 -0.7213362 0.48276708 -0.33745104 0.722578 0.20293918 -0.17062724
-1.3995357 -1.1562371 -0.6433636 -0.2899125 1.4586214 -0.25942698 -1.9582665 -0.2422522
-0.5508432 0.013791328 0.2504434 -1.0637333 1.5120404 -1.403602 -1.3994734 0.5046024
-0.3836827 -0.3484034 -0.49960393 -0.23998748 0.65244263 0.88215375 0.46523595 1.5549189
1.8559391 0.17239022 1.0949103 0.537016 -0.1505525 -1.9794999 -0.4973724 -0.6297245
0.5985285 -2.2927845 -0.16095264 0.340465 0.12555519 0.867378 -2.5432518 0.814524
00000000: e59a 8dbf afc9 8f3f 7da9 38bf 3f2d f73e
00000010: 62c6 acbe dffa 383f 4acf 4f3e e8b8 2ebe
00000020: fc23 b3bf 94ff 93bf 7ab3 24bf 696f 94be
00000030: 1bb4 ba3f 9dd3 84be 7aa8 fabf f610 78be
00000040: 0f04 0dbf 06f5 613c 1e3a 803e 6a28 88bf
00000050: 8a8a c13f 3ba9 b3bf f221 b3bf 9f2d 013f
00000060: 0f72 c4be ee61 b2be 16cc ffbe 47bf 75be
00000070: 7b06 273f d4d4 613f 6833 ee3e 9507 c73f
00000080: 6a8f ed3f 1087 303e 0526 8c3f e179 093f
00000090: 6f2a 1abe 4160 fdbf 98a7 febe a035 21bf
000000a0: 2a39 193f fbbc 12c0 c5d0 24be 6e51 ae3e
000000b0: 8a91 003e 7c0c 5e3f a3c4 22c0 a584 503f

graph_prop.node_update_funcs.1.weight_ih f4 [48, 32]
0.27364704 -0.17254432 -0.09419616 0.020005513 -0.11965964 0.15220882 0.04037133 0.34074366
0.6104187 -0.0593474 0.19579415 -0.12950474 0.12171688 -0.15242042 -0.033987187 0.046943076
0.12518111 0.22497663 -0.015858786 0.154164 -0.10262497 -0.344586 -0.15058032 -0.16046911
-0.3425784 0.004521851 0.012412929 -0.0758323 -0.09439002 0.17406105 0.1417651 0.11267977
0.08731245 -0.16230147 0.31637362 0.0569632 0.08788644 -0.045051176 -0.23676236 -0.01275019
-0.13798723 -0.12384025 -0.2558891 0.13882911 0.07480452 -0.011915821 0.13258879 0.3199796
-0.068756685 -0.059661604 -0.34560123 -0.23118983 0.20881131 0.1272445 -0.29486534 -0.008927407
0.22099996 0.19286135 -0.03974915 0.10749627 0.15548986 0.09835825 0.092503205 0.29278278
-0.09316769 0.09723506 0.069318205 0.21943097 0.46038616 0.17693509 -0.54347575 -0.0010642086
-0.1580064 -0.0024871575 -0.042593412 0.29201847 0.018147305 0.14198369 0.25089735 0.25573623
0.63283056 0.2088824 -0.06194152 -0.27502087 -0.256153 0.04341548 -0.08687991 -0.36007276
-0.33999923 -0.28392914 0.18010634 -0.21690318 0.087232396 0.030266799 -0.20946479 -0.089664996
-0.13181753 -0.10017908 0.36255252 0.33366466 0.12758924 0.11895312 0.5296801 0.064635605
0.06415468 -0.06014317 -0.05490272 0.4557418 0.31107795 -0.12075819 0.3254218 0.4172973
0.38599107 -0.2610823 0.16587982 0.11714733 -0.22303782 0.21554738 0.24161956 0.11296968
0.5078053 0.04603739 0.33117592 0.21350022 0.15039824 0.37108123 0.22646609 0.103896104
-0.42806315 0.14602534 -0.123255305 0.011907084 -0.17574891 -0.112280644 0.030425377 -0.081891
0.058897905 -0.15782908 0.3212972 -0.37102833 -0.15842003 -0.37508112 -0.35093862 -0.17676987
-0.32148775 -0.30762804 -0.190349 -0.08997471 0.025270112 -0.0061067445 -0.19262277 -0.071577944
0.009242968 -0.07853982 -0.10780455 -0.13722643 -0.22197463 -0.109041624 -0.2997665 -0.26979247
0.030127943 -0.1186376 0.0488558 -0.26375726 -0.012994725 -0.047928624 -0.3403127 0.20829846
0.1188116 0.12241827 -0.044122733 0.4232325 -0.084397584 0.0100877145 -0.061020218 0.0246406
-0.16371654 -0.114064544 -0.39278525 0.47359142 -0.005967197 0.061299857 -0.2560015 -0.11935406
-0.0139545025 -0.0057686893 0.042012062 0.09438967 -0.28548098 -0.17440554 0.046671238 -0.14654188
0.17900914 -0.03869476 0.06984171 -0.07899493 -0.122224934 0.016378937 -0.142228 0.34298852
0.14115945 -0.3775597 -0.20410435 0.22109853 0.08145642 0.009219412 0.25757888 -0.13577698
0.17349416 -0.108199075 0.14519466 -0.028204769 -0.33972535 -0.12946893 0.0032866162 0.17341048
-0.05236851 -0.06827751 -0.2771978 0.075757846 -0.25781256 0.11447369 0.3864795 0.29450545
-0.028376933 -0.18870513 0.08411557 -0.09639664 -0.22883432 0.04231064 -0.23734334 -0.14399172
-0.2584319 0.1548254 0.033749025 -0.17646444 0.012588986 0.17750676 0.12221679 -0.14951621
0.04568966 -0.05755786 -0.19029208 0.11428862 -0.07365546 -0.17291859 -0.3083507 -0.001851176
-0.011590638 0.052457847 -0.13842152 -0.13452701 -0.016002405 -0.20600526 -0.01787692 -0.07982788
00000000: 771b 8c3e 75af 30be ebe9 c0bd 9ae2 a33c
00000010: 1d10 f5bd a1dc 1b3e 685c 253d f475 ae3e
00000020: 6644 1c3f 4216 73bd 437e 483e e49c 04be
00000030: b346 f93d 1914 1cbe 2636 0bbd 6247 403d
00000040: 7a2f 003e 4660 663e 49ea 81bc 2bdd 1d3e
00000050: 0a2d d2bd 946d b0be ba31 1abe 0452 24be
00000060: 7066 afbe 092c 943b 995f 4b3c f74d 9bbd
00000070: 8e4f c1bd 0f3d 323e df2a 113e a7c4 e63d
00000080: dfd0 b23d 5b32 26be b9fb a13e 3f52 693d
00000090: cefd b33d 9587 38bd d571 72be 2ce6 50bc
000000a0: 864c 0dbe f59f fdbd e503 83be 3829 0e3e
000000b0: 1d33 993d 933a 43bc 5bc5 073e 5ed4 a33e
000000c0: 4ed0 8cbd ba5f 74bd a5f2 b0be 07bd 6cbe
000000d0: a2d2 553e 624c 023e 97f8 96be 4244 12bc
000000e0: d04d 623e 727d 453e 01d0 22bd 0127 dc3d
000000f0: bc38 1f3e 0d70 c93d 5272 bd3d a0e7 953e
00000100: b4ce bebd 2d23 c73d b4f6 8d3d 83b2 603e
00000110: bcb7 eb3e 792e 353e 3a21 0bbf ea7c 8bba
00000120: 6ecc 21be 94ff 22bb 6e76 2ebd 7283 953e
00000130: a8a9 943c 2c64 113e 9e75 803e dcef 823e
00000140: 2f01 223f 45e5 553e 64b6 7dbd 89cf 8cbe
00000150: 7c26 83be 6ed4 313d 18ee b1bd 755b b8be
00000160: 6114 aebe 295f 91be cc6d 383e de1b 5ebe
00000170: e6a6 b23d 14f2 f73c f07d 56be 48a2 b7bd
00000180: 2dfb 06be b12a cdbd 7ca0 b93e 18d6 aa3e
00000190: c1a6 023e b29d f33d 1d99 073f ac5f 843d
000001a0: 8763 833d af58 76bd ade1 60bd fd56 e93e
000001b0: 9c45 9f3e 1250 f7bd b09d a63e fea7 d53e
000001c0: 9fa0 c53e 94ac 85be 66dc 293e f0ea ef3d
000001d0: 0764 64be 74b8 5c3e 1e6b 773e a65c e73d
000001e0: 87ff 013f b491 3c3d e48f a93e cd9f 5a3e
000001f0: ff01 1a3e 5cfe bd3e bae6 673e 7bc7 d43d
00000200: 182b dbbe ab87 153e 476d fcbd ee15 433c
00000210: 86f7 33be 65f3 e5bd a43e f93c 78b6 a7bd
00000220: ee3e 713d f29d 21be 1181 a43e 6df7 bdbe
00000230: dc38 22be a20a c0be 3aae b3be 2903 35be
00000240: 0b9a a4be 6c81 9dbe d9ea 42be a944 b8bd
00000250: 4403 cf3c 161b c8bb e73e 45be 7597 92bd
00000260: d16f 173c 7cd9 a0bd a2c8 dcbd 1685 0cbe
00000270: 514d 63be 3751 dfbd ff7a 99be 3d22 8abe
00000280: e0ce f63c 45f8 f2bd 051d 483d 310b 87be
00000290: d4e7 54bc ce50 44bd 773d aebe 314c 553e
000002a0: 7f53 f33d 6eb6 fa3d 0aba 34bd eeb1 d83e
000002b0: a4d8 acbd f146 253c 56f0 79bd 15db c93c
000002c0: 4fa5 27be ac9a e9bd 261b c9be 937a f23e
000002d0: 7a88 c3bb 8f15 7b3d a112 83be e76f f4bd
000002e0: 6da1 64bc 4607 bdbb d714 2c3d 5f4f c13d
000002f0: 902a 92be 5e97 32be 572a 3f3d 130f 16be
00000300: 2c4e 373e 667e 1ebd 2c09 8f3d 18c8 a1bd
00000310: 1151 fabd 1f2d 863c 38a4 11be 319c af3e
00000320: 1a8c 103e 814f c1be bb00 51be a767 623e
00000330: a0d2 a63d 040d 173c 61e1 833e 1f09 0bbe
00000340: 74a8 313e 7a97 ddbd e9ad 143e b00d e7bc
00000350: 7bf0 adbe 8193 04be 4564 573b 8492 313e
00000360: 5d80 56bd 14d5 8bbd dfec 8dbe ee26 9b3d
00000370: 0200 84be 2f71 ea3d a4e0 c53e 6bc9 963e
00000380: be76 e8bc eb3b 41be c944 ac3d 9a6b c5bd
00000390: 8b53 6abe ec4d 2d3d 220a 73be 9172 13be
000003a0: 3051 84be 8d8a 1e3e 6b3c 0a3d 18b3 34be
000003b0: 0942 4e3c 55c4 353e cc4c fa3d c71a 19be
000003c0: 1525 3b3d cac1 6bbd eddb 42be 2710 ea3d
000003d0: acd8 96bd 9211 31be 25e0 9dbe 29a3 f2ba
000003e0: a9e6 3dbc 0ade 563d 5fbe 0dbe 73c1 09be
000003f0: 7a17 83bc 0bf3 52be 9e72 92bc cd7c a3bd

graph_prop.node_update_funcs.1.weight_hh f4 [48, 16]
0.03013715 0.19987352 0.22879209 -0.21512125 -0.1272253 -0.18977465 -0.05866288 0.19876723
0.17615992 0.027802043 -0.026536757 0.11763102 -0.115461044 0.06976863 0.07686567 -0.09641243
0.1026708 -0.14730595 -0.10122729 0.1821688 0.024350666 0.094885476 0.002748242 0.08714772
-0.18267545 -0.02120845 -0.16693383 -0.013887559 -0.29796118 -0.041057326 0.048760295 -0.11269482
-0.1800285 -0.13183989 -0.32283908 0.24260172 -0.10081872 0.588135 0.7859286 -0.49233297
-0.3528286 -0.07425897 0.5596273 -0.44686058 0.1411134 0.42749566 0.069118865 0.44007733
0.12829861 0.15320484 0.267739 0.034355115 -0.31445345 0.8787531 0.040387895 0.55211127
0.02421358 0.034581598 0.038498264 0.205274 -0.2005321 -0.18467538 0.21850967 -0.13384159
0.41608167 0.15158848 0.003843308 -0.46212345 0.12928233 -0.44591802 -0.35591862 -0.34197626
-0.0523518 -0.40749827 -0.46469337 0.14288889 -0.094826125 -0.0408539 -0.2631539 -0.27829418
-0.009445976 -0.049443323 0.23233345 0.013939439 0.024765657 0.08561764 0.005212973 -0.03062072
-0.11674292 -0.30849668 0.075353436 -0.12149837 -0.13218597 -0.051860258 -0.06261562 -0.28149158
0.18506946 -0.18828686 0.10043079 0.20631371 0.18240915 0.013406932 0.24894467 -0.13866569
-0.31872627 -0.20357366 0.11286399 -0.36433822 0.15228058 -0.031685285 0.028804895 0.16271526
0.35591763 0.06639785 -0.23216845 0.41780952 -0.1558832 -0.01424973 0.22232963 -0.3557854
-0.06425012 -0.58211476 0.37792525 -0.15480714 0.20410928 0.20184292 -0.29272476 -0.28090325
-0.16569173 0.10687435 -0.029340727 -0.1493046 0.043134212 -0.06071393 0.25822943 0.13706641
0.4711142 -0.17097099 -0.17569625 0.099669725 -0.18558331 0.3035815 -0.05893423 -0.08825474
-0.05828441 -0.11705978 0.16757467 0.04788782 -0.36050165 0.4171843 -0.24437797 0.38372892
0.2574219 -0.22443752 -0.058075562 -0.13314259 -0.44136935 -0.17266956 -0.2114277 0.25487208
0.08129964 -0.0820621 0.08360598 -0.15915532 -0.28471354 -0.20492174 0.035212755 0.26041627
0.12621102 0.37806442 -0.2005965 -0.28930694 0.045428425 0.12764736 -0.05483956 -0.32157165
-0.13134094 0.31379205 0.012910888 0.39994597 0.13169806 -0.16397476 0.058249816 -0.23982096
-0.1142244 -0.23578599 0.09206633 -0.58483046 -0.17840286 -0.17511985 -0.27139398 0.23972239
0.247677 0.09111071 0.05680628 -0.26330137 -0.004260289 0.12640114 0.112764254 0.45896935
-0.116332926 -0.4354823 -0.5703304 0.3511313 0.3345836 -0.15933663 -0.6730608 -0.06464566
0.22387443 0.16355921 0.07482832 -0.1879797 -0.050250676 -0.1495734 0.08781589 0.084754504
-0.1826788 -0.3263132 0.1410911 -0.027646681 -0.19527212 0.27846855 -0.14090432 0.10734833
0.5063265 0.14680955 0.32153663 0.07977159 -0.31222013 -0.51146525 0.19499251 -0.0878003
0.004534347 0.12757716 0.08579141 -0.34141475 0.02457754 -0.06400074 0.30949682 -0.27039593
-0.05942508 0.014705997 -0.37859035 0.1349802 -0.09318744 -0.017298307 0.13517134 0.22152217
0.081185 0.31657428 0.06844336 0.03889227 0.022915658 0.06054981 0.056683615 0.10544425
00000000: 2fe2 f63c a5ab 4c3e 7948 6a3e bf48 5cbe
00000010: 5947 02be 4954 42be 7d48 70bd a389 4b3e
00000020: 4463 343e 1cc1 e33c 9d63 d9bc 88e8 f03d
00000030: d776 ecbd dbe2 8e3d c06b 9d3d e173 c5bd
00000040: 1245 d23d 5fd7 16be 4150 cfbd 758a 3a3e
00000050: 0c7b c73c 5153 c23d da1b 343b 817a b23d
00000060: 460f 3bbe 58bd adbc b4f0 2abe a588 63bc
00000070: 5e8e 98be ba2b 28bd e0b8 473d 8bcc e6bd
00000080: 6459 38be 0901 07be 2a4b a5be 966c 783e
00000090: 0c7a cebd 0490 163f 9e32 493f 1113 fcbe
000000a0: f3a5 b4be 1615 98bd bc43 0f3f e9ca e4be
000000b0: 0880 103e b6e0 da3e 318e 8d3d d151 e13e
000000c0: b660 033e bbe1 1c3e 1615 893e f3b7 0c3d
000000d0: 0b00 a1be f7f5 603f c76d 253d 2a57 0d3f
000000e0: 8f5b c63c 6fa5 0d3d 5bb0 1d3d 5933 523e
000000f0: 4958 4dbe 8b1b 3dbe 00c1 5f3e c50d 09be
00000100: a808 d53e 033a 1b3e 02e0 7b3b 729b ecbe
00000110: 9662 043e 5e4f e4be f73a b6be 8317 afbe
00000120: d76e 56bd 9da3 d0be 4aec edbe 7751 123e
00000130: 3334 c2bd 6b56 27bd 1cbc 86be 937c 8ebe
00000140: 4bc3 1abc 1585 4abd d2e8 6d3e 3f62 643c
00000150: 59e1 ca3c 4d58 af3d 96d1 aa3b 4ed8 fabc
00000160: e916 efbd 47f3 9dbe e752 9a3d 23d4 f8bd
00000170: c25b 07be 6c6b 54bd 9e3c 80bd aa1f 90be
00000180: d982 3d3e 45ce 40be a8ae cd3d e743 533e
00000190: 77c9 3a3e c0a8 5b3c 5aeb 7e3e 61fe 0dbe
000001a0: 1730 a3be 9d75 50be 3c25 e73d 8a8a babe
000001b0: 71ef 1b3e 6ec8 01bd 3ef8 eb3c d49e 263e
000001c0: d63a b63e 99fb 873d 91bd 6dbe 21eb d53e
000001d0: d89f 1fbe b377 69bc 61aa 633e 8129 b6be
000001e0: 9195 83bd 7905 15bf 6b7f c13e c385 1ebe
000001f0: 0602 513e e9af 4e3e 05e0 95be 8dd2 8fbe
00000200: 18ab 29be f0e0 da3d f75b f0bc 4ee3 18be
00000210: 80ad 303d 2baf 78bd a636 843e 235b 0c3e
00000220: e135 f13e 0513 2fbe b8e9 33be a41f cc3d
00000230: 8d09 3ebe 096f 9b3e 0565 71bd e7be b4bd
00000240: a2bb 6ebd 0abd efbd b298 2b3e 0526 443d
00000250: ac93 b8be 2e99 d53e 383e 7abe 1e78 c43e
00000260: cecc 833e f3d2 65be a4e0 6dbd 8856 08be
00000270: 2afb e1be 4ad0 30be 8180 58be 987e 823e
00000280: 6d80 a63d 2d10 a8bd 9d39 ab3d 9df9 22be
00000290: f9c5 91be 01d7 51be 403b 103d 4855 853e
000002a0: 763d 013e a991 c13e 2b69 4dbe 0a20 94be
000002b0: 2813 3a3d fdb5 023e 729f 60bd 0aa5 a4be
000002c0: 3d7e 06be 5aa9 a03e 3088 533c b8c5 cc3e
000002d0: dbdb 063e 00e9 27be 5c97 6e3d a093 75be
000002e0: 7bee e9bd e271 71be 468d bc3d 73b7 15bf
000002f0: 3daf 36be 9e52 33be 27f4 8abe c979 753e
00000300: 0a9f 7d3e 4098 ba3d b4ad 683d 70cf 86be
00000310: e599 8bbb 4d6f 013e f2f0 e63d 08fe ea3e
00000320: f53f eebd 89f7 debe 2c01 12bf 7bc7 b33e
00000330: 8b4e ab3e 2429 23be b64d 2cbf f264 84bd
00000340: 573f 653e 117c 273e 973f 993d c07d 40be
00000350: a7d3 4dbd c529 19be d1d8 b33d c593 ad3d
00000360: 2710 3bbe 8612 a7be 2f7a 103e 4b7b e2bc
00000370: 6af5 47be 6e93 8e3e 3949 10be 71d9 db3d
00000380: 9d9e 013f 3e55 163e 73a0 a43e 4a5f a33d
00000390: 51db 9fbe 63ef 02bf 1eac 473e a5d0 b3bd
000003a0: dc94 943b 96a3 023e 68b3 af3d eacd aebe
000003b0: d656 c93c d212 83bd 5e76 9e3e 5671 8abe
000003c0: b667 73bd 6cf1 703c 98d6 c1be 4038 0a3e
000003d0: 0ed9 bebd 2eb5 8dbc 5b6a 0a3e b5d6 623e
000003e0: 5244 a63d 0616 a23e 082c 8c3d 804d 1f3d
000003f0: 9eb9 bb3c 1403 783d 142d 683d 28f3 d73d

graph_prop.node_update_funcs.1.bias_ih f4 [48]
-0.57171255 -0.4551238 -0.36232594 -0.6340381 0.6129401 -0.30854112 0.40982798 0.5499678
-0.646307 2.172645 0.15203798 0.26941702 0.09937574 0.22720142 0.95168537 0.8784163
-0.40823248 -2.0764139 -2.3575122 -2.6073983 -0.6578562 -0.38515073 0.5856703 0.49288842
0.32575 -1.1383699 1.8587587 -1.1867375 -2.9619465 -2.5136635 -1.7020617 -1.6326878
0.66123027 -1.9861162 -1.261497 -1.0945883 -0.4781964 -1.9583097 -0.70352083 -0.22428496
-1.4254587 0.013341169 1.6003892 0.5108506 0.3511628 0.53171796 0.2695037 1.9549477
00000000: c15b 12bf fd05 e9be c982 b9be 5250 22bf
00000010: a4e9 1c3f 1af9 9dbe f9d4 d13e b1ca 0c3f
00000020: 6074 25bf 9e0c 0b40 d8af 1b3e 07f1 893e
00000030: 8285 cb3d 7da7 683e a7a1 733f e4df 603f
00000040: d903 d1be f7e3 04c0 7be1 16c0 9ddf 26c0
00000050: 4469 28bf 7a32 c5be 7dee 153f df5b fc3e
00000060: b4c8 a63e 1bb6 91bf ceeb ed3f 04e7 97bf
00000070: 8890 3dc0 dddf 20c0 28dd d9bf eafb d0bf
00000080: 6346 293f 0e39 febf bc78 a1bf 781b 8cbf
00000090: 29d6 f4be e4a9 fabf f119 34bf f5aa 65be
000000a0: 6e75 b6bf eb94 5a3c 8ed9 cc3f 1bc7 023f
000000b0: 9ccb b33e ab1e 083f 64fc 893e ba3b fa3f
