housingpipeline/housingpipeline/dgmg/model.pth (torch, 308868 bytes, 52 tensors)

graph_embed.node_gating.0.weight f4 [1, 16]
0	0x3be532d3	0.006994584
1	0x3dd8dfdd	0.105895735
2	0xbe841ce1	-0.25803283
3	0xbec1fd45	-0.37888542
4	0x3d2d24d2	0.042271443
5	0x3d9bae75	0.076016344
6	0x3d3e498a	0.04645685
7	0x3ea278ec	0.3173288
8	0xbd26de02	-0.040739067
9	0xbeaf9931	-0.34296563
10	0x3eb5f7ca	0.3554061
11	0x3ec1c90a	0.37848693
12	0x3f22364a	0.6336409
13	0x3ddf7be8	0.10912305
14	0xbea54324	-0.32277787
15	0xbe27bda7	-0.1638094

graph_embed.node_to_graph.weight f4 [32, 16]
0	0x3dde7223	0.108616136
1	0x3e958967	0.29206392
2	0x3e76bb67	0.24094926
3	0x3e0f76ff	0.14010237
4	0x3e506a8b	0.20353143
5	0xbe8b8cef	-0.2725596
6	0xbdec3a2f	-0.11534535
7	0x3e3a2d69	0.18181385
8	0xbe81fac1	-0.25386623
9	0x3e1c075c	0.15237182
10	0x3dffe33e	0.12494515
11	0x3e338585	0.17531402
12	0xbdb2d1b5	-0.08731405
13	0xbd621f57	-0.05520567
14	0x3da88e3c	0.08230254
15	0xbd2ddba0	-0.04244578
16	0x3ed91e15	0.42405763
17	0xbcf7e1d1	-0.030259045
18	0x3d943539	0.07236714
19	0x3f0d7805	0.5526126
20	0x3f08a7ca	0.53381026
21	0xbcc37335	-0.023858646
22	0x3e99bddb	0.3002766
23	0x3cab8130	0.020935625
24	0x3cd2af72	0.025718424
25	0xbe128ebf	-0.14312266
26	0xbebff7ab	-0.37493643
27	0xbdc8b075	-0.097992815
28	0xbec91e06	-0.3928072
29	0x3e7a1989	0.24423803
30	0x3dfcd619	0.123455234
31	0xbe5aef22	-0.21380284
32	0xbe67178b	-0.22567575
33	0xbec40dba	-0.38291723
34	0x3d85e50f	0.0653783
35	0xbee1096b	-0.43952498
36	0x3d1f23b4	0.03885241
37	0xbe8d1ce2	-0.27561098
38	0xbea89389	-0.3292506
39	0x3e455790	0.19271684
40	0x3e6448d6	0.2229341
41	0xbcde567d	-0.02714085
42	0x3ef2de6e	0.47435325
43	0x3d33269b	0.04373799
44	0x3f3724cf	0.7154054
45	0x3c534f46	0.012897318
46	0xbf037636	-0.5135225
47	0x3ce408ed	0.027836287
48	0x3e7f000b	0.2490236
49	0xbd385f8c	-0.045012996
50	0x3d1ea8d4	0.038735226
51	0x3eb0d834	0.3453995
52	0x3d8d6971	0.06904877
53	0xbd5d6645	-0.05405261
54	0xbd108aed	-0.03528874
55	0x3e8cc853	0.27496585
56	0x3de3ed4a	0.11129244
57	0xbdf926a3	-0.121655725
58	0xbd1cd8fb	-0.038292866
59	0xbe11f582	-0.1425381
60	0x3d7b1ad7	0.061304893
61	0x3ccf551d	0.02530914
62	0x3e96fc99	0.29489592
63	0x3dd24110	0.10266316
64	0x3dcf3c10	0.10118878
65	0x3e847ea5	0.25877872
66	0x3df67ee8	0.12035924
67	0x3de74f4a	0.1129442
68	0xbef5dfb3	-0.4802223
69	0xbe8e648b	-0.27811083
70	0xbdb52095	-0.08844105
71	0xbe80f165	-0.2518417
72	0x3e78787b	0.2426471
73	0x3e4fe0d0	0.20300603
74	0xbe2a346a	-0.16621557
75	0xbe3c2ef7	-0.1837729
76	0xbe8e1d3d	-0.27756682
77	0x3ebd5b1a	0.36983567
78	0x3e89b0ea	0.26892787
79	0x3ebba7dd	0.36651507
80	0x3e16db12	0.14732006
81	0xbe574c39	-0.2102517
82	0xbd8709b3	-0.06593647
83	0x3e9a08d7	0.3008487
84	0x3e955f24	0.2917415
85	0xbd23d533	-0.039998244
86	0x3e2bc902	0.16775897
87	0xbeaa0b75	-0.33211866
88	0x3dacd742	0.08439495
89	0xbe397bfe	-0.18113706
90	0xbf05bb1d	-0.5223864
91	0xbdfad8df	-0.12248396
92	0xbe83c53a	-0.2573641
93	0xbe5b700c	-0.21429461
94	0x3cbf6f07	0.023368372
95	0xbeaeb980	-0.341259
96	0x3d33d12a	0.043900646
97	0xbe45c7f0	-0.19314551
98	0x3ead5e30	0.33860922
99	0xbdaafb2d	-0.08348689
100	0x3e675c82	0.22593883
101	0x3bcb08ab	0.0061961017
102	0xbdf3397a	-0.11876197
103	0x3ea8d920	0.32978153
104	0xbe1c251f	-0.15248536
105	0xbeac7a17	-0.33686897
106	0x3e92dd9b	0.28684697
107	0xbeb158c5	-0.34638038
108	0xbe43e9fd	-0.19132228
109	0xbe1e9440	-0.1548624
110	0x3e285edc	0.16442436
111	0x3e494a22	0.19657186
112	0xbe234594	-0.1594451
113	0x3db77f27	0.08959799
114	0xbcd3ba0a	-0.025845546
115	0x3de1bb59	0.11022062
116	0x3dffaae4	0.12483767
117	0x3e5a18b0	0.2129848
118	0xbd9185d8	-0.07105607
119	0xbdeeb286	-0.116551444
120	0xbe01440f	-0.12623619
121	0xbe2328cb	-0.1593353
122	0x3e3b89cd	0.18314286
123	0x3dff63ab	0.12470182
124	0xbca85cff	-0.020552156
125	0x3e36b1b2	0.17841223
126	0x3db21347	0.08695083
127	0xbe9414ab	-0.28922018
128	0xbe2f547b	-0.1712207
129	0xbe336487	-0.17518817
130	0xbe976b06	-0.2957384
131	0xbcda1b35	-0.026624301
132	0x3e27b3f9	0.16377248
133	0xbdb6b2e4	-0.089208394
134	0x3ba93f44	0.0051650126
135	0x3e826fde	0.25475973
136	0x3e8cb8ad	0.27484646
137	0x3d3dc4c3	0.046330225
138	0xbe9fb219	-0.31190565
139	0xbe9af485	-0.3026468
140	0x3ed33a0e	0.4125523
141	0x3db7cbb3	0.089743994
142	0xbe662249	-0.22474016
143	0x3eb23fab	0.348142
144	0x3d59d4e3	0.05318154
145	0x3d979f42	0.07403423
146	0xbd2fbdb3	-0.04290552
147	0x3e6da68a	0.23208061
148	0x3ea6ec2f	0.3260207
149	0x3e39d5ba	0.18147936
150	0xbe52dea2	-0.2059274
151	0xbf02e852	-0.5113574
152	0x3e00e60d	0.12587757
153	0xbe48451f	-0.19557618
154	0xbd4cd2bf	-0.05000567
155	0x3f08d5dc	0.53451324
156	0xbe8f158b	-0.27946123
157	0xbda44d7c	-0.080225915
158	0x3ee6299d	0.44953623
159	0x3e57b184	0.2106381
160	0x3e4731a5	0.19452532
161	0xbe3a8802	-0.18215945
162	0x3e322a54	0.1739896
163	0x3ef372af	0.47548434
164	0x3ee9f77f	0.45696637
165	0xbdb36ce8	-0.087610066
166	0x3bbb1ecf	0.00571046
167	0x3e15f7c6	0.146453
168	0xbe38d6c8	-0.18050683
169	0x3d524e2a	0.051344074
170	0xbe125e04	-0.14293677
171	0xbde31235	-0.11087457
172	0xbbd3f632	-0.0064685578
173	0x3dbac260	0.09119105
174	0x3e25e2f9	0.16199864
175	0x3e4d52ff	0.20051192
176	0xbea7a05c	-0.32739532
177	0x3e4ea6ba	0.20180789
178	0x3c43687c	0.0119267665
179	0x3daf2e86	0.085537955
180	0xbd9386e7	-0.07203465
181	0xbdab6e59	-0.083706565
182	0x3dc13d96	0.09435575
183	0x3e81a760	0.2532301
184	0x3d11ec10	0.035625517
185	0xbd7c424b	-0.06158666
186	0xbe9eb844	-0.3099996
187	0x3c106f11	0.008815543
188	0x3e7b1062	0.24517968
189	0xbe9a9c0f	-0.30197188
190	0xbcfbf257	-0.030755205
191	0x3eb890e0	0.3604803
192	0xbe525af7	-0.20542513
193	0xbf05e841	-0.52307516
194	0xbd39ec2c	-0.045391247
195	0x3e3bcbf1	0.18339516
196	0x3cdbac78	0.026815638
197	0xbe2638f3	-0.16232662
198	0x3e64d590	0.22347093
199	0x3e0ca1a6	0.13733539
200	0xbed0bb1b	-0.4076775
201	0x3ec6155e	0.38688177
202	0xbe669738	-0.22518623
203	0x3e02c995	0.1277221
204	0x3ef6829c	0.48146522
205	0xbd42d95a	-0.047570564
206	0xbf044ff3	-0.5168449
207	0xbeb3dfc6	-0.35131663
208	0xbc5742e3	-0.013138506
209	0x3ea170f3	0.31531486
210	0x3e837979	0.25678614
211	0x3e938d22	0.28818613
212	0xbe8c3489	-0.2738383
213	0xbecab0ad	-0.39587918
214	0xbd9d8d9f	-0.07693028
215	0xbe8e4c13	-0.27792415
216	0x3e57dbb1	0.210799
217	0xbe9baa6d	-0.30403462
218	0xbea3e335	-0.32009283
219	0x3e7b710b	0.24554841
220	0xbe84e02c	-0.2595228
221	0x3e39cfa6	0.18145618
222	0x3e9b7e79	0.30369928
223	0xbe5de0d0	-0.2166779
224	0x3e002ba2	0.12516645
225	0xbeb7c5fa	-0.35893232
226	0xbd3e837f	-0.046512123
227	0xbd3abd3f	-0.045590635
228	0x3e8b2ccd	0.27182618
229	0x3de4ad96	0.111659214
230	0x3bbbb9d2	0.0057289386
231	0x3dad33f4	0.08457175
232	0x3c71953f	0.014745056
233	0xbdff0dc7	-0.124538
234	0x3e09ee77	0.13469873
235	0x3ea2e5a8	0.3181584
236	0xbd31ba05	-0.043390293
237	0x3e37bb01	0.1794243
238	0xbd578d3a	-0.05262492
239	0x3f060dbc	0.52364707
240	0x3dacdc90	0.084405065
241	0x3cacfc4a	0.021116395
242	0x3d6574d0	0.056019604
243	0xbeb6d698	-0.35710597
244	0xbeef6ef1	-0.4676433
245	0x3d91715b	0.07101699
246	0xbd4ced58	-0.050031036
247	0xbc7d62bb	-0.015465434
248	0x3e38b1c2	0.18036559
249	0xbe625fe2	-0.22106889
250	0xbdba7374	-0.09104052
251	0xbe3048dd	-0.17215295
252	0x3dc4cdfe	0.096096024
253	0xbd15019e	-0.036378495
254	0x3d129ef2	0.035796113
255	0xbe50f8eb	-0.20407455

graph_embed.node_to_graph.bias f4 [32]
0	0x3fa31be4	1.2742887
1	0x3f64cf74	0.8937905
2	0xbd0ab687	-0.033865478
3	0xbd4989f8	-0.049203843
4	0x3e5b98c3	0.21444993
5	0x3ed01cd4	0.40646994
6	0xbf3a0e1a	-0.7267777
7	0xbf9b5d18	-1.2137785
8	0x3ec8e10e	0.39234203
9	0x3c694cb8	0.014239483
10	0xbf8df330	-1.108984
11	0x3fc45d05	1.5340887
12	0x400ab93b	2.1675556
13	0x3ec77720	0.38958073
14	0x3f8a968d	1.0827194
15	0xbf57fddc	-0.84371734
16	0xbd814e25	-0.06313733
17	0x3d1fbcb8	0.038998336
18	0x3defea54	0.117146164
19	0x3f94c350	1.1622105
20	0xbf5ec537	-0.87019676
21	0x3df1707f	0.11789035
22	0x4015025e	2.3282695
23	0xc0183a95	-2.3785756
24	0xbf8b9b41	-1.0906755
25	0xbf343b61	-0.70403105
26	0xbf58f2d1	-0.8474551
27	0x3ff7387e	1.9314115
28	0x4013745a	2.3039765
29	0x3fda5356	1.7056682
30	0xbedc4c9c	-0.43027198
31	0x3ea68137	0.32520458

graph_prop.message_funcs.0.weight f4 [32, 34]
0	0x3c7298a5	0.014806901
1	0xbdf2987a	-0.11845489
2	0xbd4a560b	-0.049398463
3	0xbe9313a4	-0.28725922
4	0x3dc62731	0.09675444
5	0x3dbaa680	0.091137886
6	0xbdb6f2a0	-0.08932996
7	0x3d10a2d6	0.035311542
8	0x3e3a3df1	0.18187691
9	0x3bf39cbd	0.007434456
10	0x3dc1ed85	0.094691314
11	0xbd04fe87	-0.0324693
12	0xbe6b6cb4	-0.22990686
13	0x3d2476a0	0.040152192
14	0x3c9f3d30	0.019438356
15	0xbe9e2b52	-0.30892426
16	0x3dff63b5	0.124701895
17	0x3d7b67b6	0.061378203
18	0x3d01a97f	0.031655785
19	0xbe5a5d94	-0.2132476
20	0xbd4b86fc	-0.049689278
21	0x3d0fae4a	0.035078324
22	0x3df41c3b	0.11919447
23	0xbe099517	-0.1343578
24	0xbd33eac9	-0.04392508
25	0xbdb9c366	-0.090704724
26	0xbd1dce00	-0.038526535
27	0xbcf42ac6	-0.029805552
28	0xbe0e917b	-0.13922684
29	0xbe15dba0	-0.14634562
30	0x3e009768	0.12557757
31	0xbe6ea0cb	-0.23303525
32	0x3d8602c1	0.06543494
33	0x3cb60612	0.022219691
34	0x3dde23ff	0.108467095
35	0x3e31fca2	0.17381528
36	0x3dd15b43	0.10222485
37	0x3dcbafe4	0.09945658
38	0x3d8fc71c	0.07020399
39	0x3d96b867	0.07359391
40	0xbd577585	-0.05260231
41	0x3dec5b03	0.115407966
42	0xbdc10714	-0.09425178
43	0x3e14fb6a	0.14549032
44	0x3d102016	0.03518685
45	0x3cf91ef7	0.030410273
46	0xbc939a0d	-0.018017793
47	0x3cf83f1f	0.030303536
48	0xbd501029	-0.05079666
49	0x3debc475	0.115120806
50	0x3bf1ee22	0.007383124
51	0xbd27b0ee	-0.040940218
52	0xbe95a345	-0.29226127
53	0x3de48d5e	0.11159776
54	0x3e85aff4	0.26110804
55	0xbd8565cf	-0.06513559
56	0x3d982042	0.07428028
57	0x3df2aec9	0.11849744
58	0x3d0c072f	0.03418654
59	0x3cc1849c	0.023622803
60	0x3d8edda7	0.069758706
61	0x3d874d82	0.0660658
62	0x3e228fc5	0.15875156
63	0xbe499426	-0.1968542
64	0xbe90c993	-0.2827879
65	0xbdfed270	-0.124424815
66	0xbe229fa9	-0.15881218
67	0x3d578904	0.052620903
68	0x3d5b835a	0.053592063
69	0xbd6003ae	-0.05469101
70	0xbe650ebf	-0.22368906
71	0x3e1e0da8	0.15434897
72	0x3dd96205	0.10614399
73	0xbd56445d	-0.05231129
74	0xbe2e2834	-0.17007524
75	0xbd4b5432	-0.04964084
76	0x3d3fd826	0.046836995
77	0xbd7e0468	-0.06201592
78	0xbdd8f44d	-0.10593472
79	0xbc9d7256	-0.019219559
80	0x3eb07da8	0.34470868
81	0xbcf205da	-0.029543806
82	0xbd9a5b4e	-0.07536946
83	0xbd81c8c4	-0.06337121
84	0x3bc12b22	0.0058950344
85	0xbe5ac5db	-0.21364538
86	0x3db0e2ef	0.08637034
87	0xbe7a4562	-0.2444053
88	0x3e10ad03	0.14128499
89	0x3daa46dd	0.08314297
90	0x3d4ebd46	0.050473474
91	0x3b297d15	0.0025861908
92	0x3dd986bb	0.10621401
93	0xbd20525f	-0.039141055
94	0x3e02b3db	0.12763922
95	0x3d3eac3f	0.046550985
96	0x3e0c31b1	0.13690831
97	0xbe5eba6d	-0.21750803
98	0xbe167f58	-0.14697015
99	0xbda11975	-0.07866184
100	0xbce3c7f3	-0.027805304
101	0xbd47a793	-0.048743796
102	0x3e9431aa	0.2894414
103	0xbdcaee23	-0.09908702
104	0x3de2eb98	0.11080092
105	0x3e1d70af	0.15375017
106	0xbc92a44a	-0.017900605
107	0x3e896f64	0.26842797
108	0x3d3705e3	0.04468335
109	0x3e309317	0.1724361
110	0xbe38ba0a	-0.18039718
111	0xbc79f864	-0.015256975
112	0x3d89549e	0.067055926
113	0xbd622c38	-0.05521795
114	0xbddd4448	-0.10804039
115	0xbdee4c67	-0.11635666
116	0xbd2a1ce6	-0.041531466
117	0xbd8c63ef	-0.06854998
118	0x3e31572d	0.17318411
119	0x3d84e225	0.06488446
120	0xbdc7f97c	-0.09764382
121	0xbe9d6fa0	-0.30749226
122	0x3db2dc3c	0.087334126
123	0x3d1f7746	0.038932107
124	0x3ddd8f00	0.10818291
125	0x3e3bcc52	0.18339661
126	0xbcbcc880	-0.023044825
127	0x3d5d9645	0.054098386
128	0x3e293ec9	0.16527857
129	0xbd8b603e	-0.06805466
130	0x3d18e33f	0.037326094
131	0xbc1712d1	-0.009220795
132	0x3d3059f8	0.04305455
133	0xbe5fb6b4	-0.2184704
134	0xbdacc3a5	-0.08435754
135	0xbcd88abf	-0.026433347
136	0xbde1ad5b	-0.11019393
137	0xbd862833	-0.06550636
138	0xbe29e236	-0.16590199
139	0x3cd52825	0.026020119
140	0xbde84f51	-0.113432534
141	0x3c9216de	0.01783317
142	0x3c3dfa98	0.011595391
143	0x3d80ca35	0.06288568
144	0xbdc1f1b4	-0.09469929
145	0xbcf04e8d	-0.02933433
146	0xbdb347b0	-0.08753908
147	0xbdccdd31	-0.100031264
148	0xbc51d202	-0.012806417
149	0x3c544c70	0.012957677
150	0xbe6cd01f	-0.23126267
151	0xbd14532a	-0.036212124
152	0x3e9c8366	0.30569
153	0x3c860b61	0.016362848
154	0x3db7d4f6	0.08976166
155	0xbe51a591	-0.20473315
156	0x3d331f37	0.04373094
157	0x3e09a5ee	0.13442203
158	0x3d380205	0.0449238
159	0x3eb3ed1e	0.35141844
160	0x3cca3f7d	0.024688477
161	0xbda400c6	-0.0800796
162	0x3d167fe5	0.036743063
163	0xbdb892ba	-0.09012361
164	0xbd2050d4	-0.039139584
165	0x3e2f34fd	0.17110057
166	0xbe858d13	-0.26084194
167	0x3c12b340	0.008953869
168	0xbe283d15	-0.16429551
169	0x3c9395fa	0.01801585
170	0x3e87331f	0.2640619
171	0x3d332146	0.043732904
172	0xbc68d865	-0.014211749
173	0xbcc54f61	-0.024085702
174	0x3e871d69	0.26389626
175	0xbd2279f1	-0.039667074
176	0x3e40c32d	0.18824454
177	0x3e07fa6c	0.13279122
178	0xbd770c20	-0.060314298
179	0xbe08e597	-0.13368832
180	0x3e461452	0.19343689
181	0x3e879336	0.264795
182	0x3c033567	0.008008338
183	0x3dc0a1e9	0.09405882
184	0xbce700bf	-0.028198598
185	0xbe8238e7	-0.25434038
186	0x3c912ad4	0.017720617
187	0xbd2cd1d0	-0.04219228
188	0x3cf61f22	0.030044142
189	0xbde04136	-0.10949938
190	0x3de8171b	0.11332532
191	0x3df37d71	0.118891604
192	0x3e2e5595	0.17024834
193	0x3e47868a	0.19484916
194	0xbe33d407	-0.17561351
195	0xbd8ac630	-0.067760825
196	0x3da4c8e9	0.08046133
197	0x3e541b99	0.20713653
198	0x3c9a214c	0.018814705
199	0x3e070874	0.13186818
200	0x3b0e7cdb	0.00217419
201	0xbe31f0b4	-0.17376977
202	0x3a230ac4	0.0006219561
203	0x3cfc82b6	0.030824047
204	0x3c5bb7b0	0.013410494
205	0x3d8d4bec	0.068992466
206	0xbdcf73fa	-0.10129543
207	0xbc22913c	-0.009922322
208	0x3d5d5b14	0.054041937
209	0x3cb51a6d	0.022107327
210	0xbdaa49cd	-0.08314858
211	0xbe20d42e	-0.1570594
212	0xbbcb4765	-0.0062035793
213	0x3d720c01	0.05909348
214	0xbe0da518	-0.1383251
215	0xbe9722c4	-0.29518712
216	0xbe1ebfea	-0.15502897
217	0x3d584763	0.052802455
218	0xbdf194fa	-0.11795993
219	0x3e2c5ce5	0.16832311
220	0xbe2076e9	-0.1567036
221	0xbe096370	-0.13416839
222	0x3d7c90fb	0.0616617
223	0x3e98073f	0.29693028
224	0xbd1baa4b	-0.0380042
225	0xbd33ea4c	-0.043924615
226	0x3d85c259	0.065312095
227	0x3e1db3e9	0.15400662
228	0xbd4a9cb4	-0.04946585
229	0xbdea2ee5	-0.11434726
230	0xbd29f786	-0.041495822
231	0xbe628bb0	-0.22123599
232	0xbd18bc18	-0.037288755
233	0xbb21285e	-0.002459071
234	0xbd53096f	-0.05152267
235	0xbda340e5	-0.07971362
236	0xbe2ec787	-0.17068301
237	0x3cce5592	0.025187287
238	0xbdc50491	-0.096200116
239	0x3d5862fa	0.052828766
240	0xbde40256	-0.11133258
241	0x3e2242ad	0.15845747
242	0x3de269f6	0.11055367
243	0xbd5dd997	-0.054162588
244	0x3e021c3f	0.12706088
245	0x3e5203ad	0.20509215
246	0xbc771495	-0.015080591
247	0x3e02af0b	0.12762086
248	0xbb6251e7	-0.003453368
249	0x3e8a4ed8	0.27013278
250	0xbddc1428	-0.10746032
251	0xbe11f1ef	-0.14252447
252	0xbc4cfeca	-0.012511918
253	0xbe120cd5	-0.14262708
254	0x3d5a980d	0.053367663
255	0x3d1e2e29	0.03861824

graph_prop.message_funcs.0.bias f4 [32]
0	0x3e09e12f	0.13464807
1	0x3e71b0a4	0.2360254
2	0x3e1ae4c5	0.15126331
3	0xbe4f6bdc	-0.20255989
4	0x3e8f08c6	0.2793638
5	0x3d81f475	0.063454546
6	0xbca24c1e	-0.019811686
7	0xbe79c209	-0.24390425
8	0xbe1ed0cd	-0.15509339
9	0xbbd33227	-0.0064451876
10	0xbd896b93	-0.06709971
11	0x3ab91312	0.0014120063
12	0x3e9d81d3	0.3076311
13	0x3e28d889	0.16488852
14	0xbca1399c	-0.01968079
15	0x3dd46fb6	0.1037287
16	0x3e0d3685	0.13790329
17	0xbac13ce7	-0.0014742882
18	0x3e0ff635	0.14058764
19	0xbd9b937e	-0.07596491
20	0xbde3818b	-0.11108693
21	0x3d4a4b54	0.049388245
22	0x3e3bd773	0.18343906
23	0xbe6113f7	-0.21980272
24	0x3de5c92e	0.112200126
25	0xbedab478	-0.42715812
26	0xbe3e70f8	-0.18597782
27	0xbd3922d7	-0.04519924
28	0xbdf39d80	-0.11895275
29	0x3e4076ba	0.1879529
30	0x3bc36118	0.005962502
31	0xbba52902	-0.005040289

graph_prop.message_funcs.1.weight f4 [32, 34]
0	0xbd621f23	-0.055205476
1	0x3e31514a	0.17316166
2	0x3eb95842	0.36200148
3	0x3d79eff4	0.061019853
4	0xbd9ab26d	-0.07553563
5	0x3da1e961	0.079058416
6	0xbda3808c	-0.07983503
7	0x3d5a2a2f	0.053262886
8	0x3da284e4	0.07935503
9	0xbdf664c7	-0.120309405
10	0x3d6b2073	0.057403993
11	0xbd295a55	-0.041345913
12	0xbd75ff7c	-0.060058102
13	0x3d0782ae	0.03308361
14	0x3b16d676	0.0023016012
15	0xbe855ac2	-0.26045805
16	0xbe04d505	-0.12971886
17	0xbe31c83b	-0.17361538
18	0xbc8d4560	-0.017244995
19	0x3ea3e739	0.32012346
20	0xbc733406	-0.014843946
21	0xbe3990be	-0.18121621
22	0xbe3c2b55	-0.18375905
23	0x3e0df314	0.13862258
24	0x3c0bead6	0.008539876
25	0xbc049ef6	-0.00809454
26	0x3e318a51	0.1733792
27	0x3d40854e	0.04700213
28	0x3bc6cc71	0.006066852
29	0xbeba80aa	-0.36426288
30	0x3e3c0eca	0.18365017
31	0x3e5165db	0.20449011
32	0x3c9e3405	0.019311914
33	0x3d8d210e	0.0689107
34	0xbd21170f	-0.03932863
35	0xbe013b19	-0.126202
36	0x3b47ce21	0.0030487853
37	0x3e6e8259	0.23291911
38	0x3e43088d	0.1904623
39	0x3e7a0c8d	0.2441885
40	0xbd5e98e6	-0.054345034
41	0xbd2f4089	-0.042786155
42	0xbd03bcfa	-0.032162644
43	0xbdf2f0c2	-0.11862327
44	0xbcc8c4ac	-0.024507843
45	0xbe07ca8f	-0.13260864
46	0x3e01eaca	0.12687221
47	0x3d6cc375	0.05780359
48	0xbec58e31	-0.38585046
49	0x3da40996	0.08009641
50	0xbed7f7b2	-0.42181164
51	0x3d53b566	0.051686667
52	0x3d4b9fe9	0.04971305
53	0x3e824032	0.25439602
54	0xbd600768	-0.054694563
55	0xbe9b491a	-0.3032921
56	0xbd59467c	-0.053045735
57	0xbe0fdc31	-0.1404884
58	0xbd55e9a5	-0.052224774
59	0xbe1fd7bc	-0.1560964
60	0x3df237f9	0.11827082
61	0x3dcecf20	0.100981
62	0x3e53fda6	0.20702228
63	0x3cf1464e	0.02945247
64	0xbe5626b4	-0.20913202
65	0x3d8b1c37	0.06792491
66	0x3e12ecfa	0.14348212
67	0xbd945036	-0.072418615
68	0xbcbb6a2d	-0.022877777
69	0x3d924ecc	0.071439356
70	0xbd5951b2	-0.053056426
71	0x3d92fa90	0.07176697
72	0x3e3a9385	0.18220337
73	0xbbb851c5	-0.005624982
74	0xbd1c7b4c	-0.038203523
75	0xbe643811	-0.22287013
76	0xbd5a3928	-0.053277165
77	0x3de70511	0.11280263
78	0xbda65187	-0.08121019
79	0xbda39e7b	-0.07989212
80	0x3e3ae4b7	0.1825131
81	0x3dcd5de0	0.10027671
82	0xbc51d2ea	-0.0128066335
83	0xbcdeef26	-0.027213644
84	0x3d9ab016	0.07553117
85	0xbd2f897b	-0.04285572
86	0x3dd9d5df	0.10636496
87	0xbe062a56	-0.13102087
88	0xbde3deda	-0.1112649
89	0xbe534d0a	-0.20634857
90	0xbbe3f7ca	-0.006957029
91	0x3d4b981c	0.04970561
92	0x3d4593eb	0.04823677
93	0xbc2d52e7	-0.0105788475
94	0xbd8d3064	-0.068939954
95	0xbe13cddb	-0.14433996
96	0xbe9c41a5	-0.30518833
97	0xbbcf08d4	-0.006318191
98	0xbe4cf8c4	-0.20016772
99	0x3babd023	0.0052433177
100	0x3c8de3c4	0.017320521
101	0xbde55f58	-0.11199826
102	0xba375d9f	-0.00069948466
103	0x3cde587a	0.027141798
104	0xbdd75094	-0.10513416
105	0xbe4c6b84	-0.19962889
106	0xbe3bb163	-0.18329386
107	0xbd3266f9	-0.043555234
108	0x3c17bd60	0.009261459
109	0x3d673924	0.056450978
110	0xbe80f617	-0.25187752
111	0x3d0f78fa	0.03502748
112	0xbe8eed2e	-0.2791533
113	0xbd0434cd	-0.032276917
114	0xbddf3be1	-0.10900093
115	0xbc3a85db	-0.011384453
116	0xbe210ffd	-0.15728755
117	0x3e0d9cad	0.13829298
118	0xbe0f911a	-0.14020196
119	0x3da0fae3	0.07860353
120	0xbd841b82	-0.06450559
121	0x3e0f601d	0.14001508
122	0x3dd676e7	0.104718976
123	0xbe383966	-0.17990646
124	0xbc530f6a	-0.012882093
125	0x3eaac410	0.3335271
126	0xbe265a82	-0.16245463
127	0xbe8bddd2	-0.27317673
128	0x3e3f36b0	0.18673205
129	0xbd7aef07	-0.06126311
130	0xbe2682a3	-0.16260771
131	0x3e452b63	0.19254832
132	0xbd737f93	-0.059447836
133	0xbe74caab	-0.23905437
134	0xbdc7c277	-0.09753888
135	0xbd02f1b6	-0.031968795
136	0x3c6c8ddf	0.014438122
137	0x3d6a93c8	0.05726984
138	0x3e6b4f3c	0.22979444
139	0x3dc185ab	0.09449323
140	0xbe0b4fde	-0.13604686
141	0xbd9988f5	-0.074968256
142	0xbc5e1ed5	-0.013557156
143	0xbd5af5ad	-0.05345695
144	0xbe6571c3	-0.22406678
145	0x3e00dc3b	0.12584011
146	0xbe85ee52	-0.26158386
147	0xbdc540cc	-0.096315
148	0x3e3d17a7	0.18466054
149	0xbd9144c0	-0.07093191
150	0x3e3ff13b	0.18744366
151	0x3e3c564f	0.18392299
152	0xbe8861f7	-0.2663724
153	0xbdaf3f9a	-0.08557053
154	0x3ce8cc23	0.028417652
155	0x3ed7e5e0	0.42167568
156	0x3ce9f11f	0.028557358
157	0xbe79d06c	-0.24395913
158	0xbe84ff9c	-0.25976264
159	0xbe63e3b8	-0.22254837
160	0xbe1abe85	-0.1511174
161	0x3d6c5747	0.05770042
162	0xbe3eac49	-0.18620409
163	0xbe8f9d94	-0.2804991
164	0xbe178532	-0.14796904
165	0xbdd251ec	-0.102695316
166	0x3e4d5665	0.20052488
167	0x3e1e1d0e	0.15440771
168	0x3d039ba2	0.032130845
169	0xb9b286a0	-0.0003405111
170	0x3da5f54d	0.08103428
171	0x3cc2873c	0.023746125
172	0x3cecb237	0.028893573
173	0x3dc406d8	0.09571618
174	0x3e0d1572	0.13777712
175	0xbd838c4c	-0.06423244
176	0xbd9d83f0	-0.07691181
177	0xbcd8f262	-0.026482765
178	0xbe4002e0	-0.18751097
179	0x3dade316	0.08490579
180	0x3d0cd2ef	0.03438085
181	0xbd3aa80e	-0.045570426
182	0xbb6bf906	-0.0036006584
183	0x3e6f1479	0.23347653
184	0x3e80df0c	0.2517017
185	0xbd49a166	-0.049226187
186	0xbe00f7f7	-0.12594591
187	0xbe748667	-0.23879395
188	0x3e47d064	0.19513088
189	0x3e406168	0.18787158
190	0xbdfe832e	-0.12427364
191	0xbeb67a28	-0.35640073
192	0xbe4e01b8	-0.20117843
193	0xbd884220	-0.06653237
194	0x3df95bca	0.121757105
195	0x3e168c48	0.1470195
196	0x3d95b2a3	0.07309463
197	0x3e28e739	0.16494454
198	0xbc8b8297	-0.017030044
199	0xbdb5feaf	-0.08886468
200	0x3cb200a0	0.021728814
201	0x3e39e3f6	0.18153366
202	0xbe2e40c1	-0.17016889
203	0xbd509887	-0.05092671
204	0x3e2547b1	0.1614063
205	0xbe9e2d95	-0.3089415
206	0x3bdf6307	0.006817225
207	0x3e10974e	0.14120218
208	0x3d04ba38	0.032404155
209	0xbe4aef3a	-0.1981782
210	0x3dcec810	0.10096753
211	0x3e1e9c5f	0.15489338
212	0xbe0374a0	-0.12837458
213	0xbe5ffeb3	-0.21874504
214	0xbe179963	-0.14804606
215	0x3e6cfaac	0.23142499
216	0x3e1fd610	0.15609002
217	0xbd606757	-0.054786053
218	0xbd96d2c4	-0.07364419
219	0x3e23f33a	0.16010752
220	0x3d937f9b	0.07202073
221	0xbe101bdb	-0.14073126
222	0x3ca0fa5d	0.019650633
223	0xbc035721	-0.008016379
224	0x3e4b3bee	0.1984708
225	0x3ec8679c	0.39141548
226	0x3db23e08	0.08703238
227	0x3deb1e2b	0.114803635
228	0xbe0c4141	-0.13696767
229	0xbe2b5164	-0.16730267
230	0x3e2c1bb6	0.16807446
231	0x3df8e1d3	0.121524476
232	0xbc502500	-0.012704134
233	0x3e4488db	0.19192831
234	0xbe0a127e	-0.13483617
235	0xbe9e3da5	-0.30906406
236	0xbdca43a6	-0.09876184
237	0xbdad589e	-0.08464168
238	0xbe38158e	-0.17976972
239	0x3d5fa65d	0.054602016
240	0x3dbfde46	0.09368567
241	0xbe03baf0	-0.1286428
242	0x3d1e7cc7	0.038693216
243	0x3e374906	0.1789895
244	0xbda964b8	-0.08271164
245	0x3dad5271	0.0846299
246	0x3d8d5d1c	0.06902525
247	0x3d935d6c	0.07195553
248	0x3d337c6a	0.043819822
249	0x3dbf08bb	0.09327837
250	0xbdbb2295	-0.091374554
251	0x3d6bec38	0.057598323
252	0x3e5abfad	0.21362181
253	0x3d874ded	0.0660666
254	0x3e3c903f	0.184144
255	0x3c8f83bf	0.017518876

graph_prop.message_funcs.1.bias f4 [32]
0	0xbc1519ca	-0.009100387
1	0xbd8f9732	-0.0701126
2	0x3e722437	0.23646627
3	0xbdc27f06	-0.09496884
4	0x3e73bdd9	0.2380289
5	0xbe33fdc7	-0.17577277
6	0xbe7d07c7	-0.24709998
7	0x3d43e068	0.047821432
8	0xbc3a4a3d	-0.011370239
9	0x3e7cf52b	0.24702899
10	0x3e429256	0.19001135
11	0xbde7a916	-0.113115475
12	0x3da2bd8b	0.07946309
13	0x3e199b77	0.15000711
14	0x3dfadf96	0.12249677
15	0xbd01df30	-0.03170699
16	0x3c500cd8	0.012698375
17	0x3dc9acfe	0.09847449
18	0x3dad359e	0.08457492
19	0x3d6333ba	0.055469252
20	0x3e07cc1a	0.13261452
21	0x3dfb48aa	0.12269719
22	0x3e266435	0.16249163
23	0xbe14f798	-0.14547575
24	0xbd82b263	-0.06381681
25	0xbddc7ce4	-0.107660085
26	0xbdbe5cc0	-0.092950344
27	0xbdbda534	-0.092600256
28	0xbd795df1	-0.060880605
29	0xbec354fb	-0.38150772
30	0x3e13325d	0.14374681
31	0x3c7d8949	0.015474626

graph_prop.node_update_funcs.0.weight_ih f4 [48, 32]
0	0x3d19ef69	0.037581835
1	0xbe2a2c10	-0.16618371
2	0xbe57c89e	-0.21072623
3	0x3e8197d1	0.2531114
4	0xbd8257a3	-0.06364372
5	0x3ad30bcd	0.0016101539
6	0xbe95dfd5	-0.29272333
7	0xbd305cec	-0.043057367
8	0xbe56aac9	-0.20963587
9	0x3e100639	0.14064874
10	0xbea06145	-0.3132421
11	0xbe886f1d	-0.26647273
12	0x3d934070	0.07190025
13	0x3e171808	0.14755261
14	0xbe3aceef	-0.18243001
15	0x3d931ae6	0.07182865
16	0x3e1003fa	0.14064017
17	0x3dc68845	0.0969396
18	0x3e88889c	0.26666725
19	0xbe8b8f65	-0.2725784
20	0x3cc0a0f3	0.023514247
21	0x3eb42818	0.3518684
22	0xbcd5d500	-0.026102543
23	0x3e2c0901	0.1680031
24	0x3ccde8a1	0.02513534
25	0xbe3b5741	-0.18295003
26	0xbeef8d2b	-0.4678739
27	0xbd0cab6a	-0.03434316
28	0xbd4167bf	-0.04721808
29	0x3db7d1cd	0.08975563
30	0x3cbb1bf6	0.022840481
31	0x3e36231e	0.17786834
32	0x3d97050c	0.073740095
33	0xbe032063	-0.12805323
34	0x3dd06500	0.10175514
35	0x3d9fa7bd	0.077956654
36	0x3e8f9a88	0.28047585
37	0x3e2c8deb	0.16851012
38	0x3e27e390	0.16395402
39	0xbde438d4	-0.111436516
40	0x3da5b86c	0.08091816
41	0x3dd2dcc7	0.10296016
42	0xbe29896c	-0.16556329
43	0xbedb4a2b	-0.42830023
44	0xbe04d57f	-0.12972067
45	0x3e1393c7	0.14411841
46	0xbdf3689f	-0.11885189
47	0xbe9da91c	-0.30793083
48	0xbe78388e	-0.24240324
49	0x3e10d07b	0.14142029
50	0x3e250f48	0.1611911
51	0xbea8ce07	-0.32969686
52	0xbdfdef32	-0.123991385
53	0xbc904b8a	-0.017614145
54	0xbe8aa652	-0.27080017
55	0xbd86766f	-0.06565558
56	0x3e934380	0.28762436
57	0xbe94c40f	-0.2905583
58	0x3e321d7e	0.17394063
59	0xbeb1aa8f	-0.34700438
60	0x3e7ccb06	0.24686822
61	0xbd600df3	-0.054700803
62	0xbe9f0625	-0.31059375
63	0xbe379026	-0.17926082
64	0x3e5b5665	0.21419676
65	0x3bd6e095	0.006557534
66	0x3ea6c7e7	0.32574388
67	0x3d7a2b25	0.061076302
68	0xbd3ad8e8	-0.045617014
69	0xbc98add5	-0.018637577
70	0xbd1f6312	-0.03891284
71	0x3da23e13	0.07921996
72	0x3dbbcf26	0.0917037
73	0x3d570654	0.05249627
74	0x3e1a4af5	0.15067656
75	0x3e142d6a	0.14470449
76	0x3c9d2ea6	0.019187283
77	0x3d1bba58	0.038019508
78	0x3ce91572	0.028452609
79	0xbd30f80d	-0.04320531
80	0x3ed807d5	0.42193475
81	0x3daeca85	0.08534721
82	0xbd998a12	-0.07497038
83	0x3dce807b	0.100830995
84	0x3d530997	0.051522817
85	0x3d9e8b29	0.077413864
86	0xbe8f5212	-0.27992302
87	0x3ea2a0ca	0.31763297
88	0x3cffa825	0.031208107
89	0x3cc3daaa	0.023907978
90	0x3dd1b1a3	0.1023896
91	0x3b174773	0.0023083359
92	0x3c422478	0.011849515
93	0x3c5b11ba	0.013370926
94	0xbeae2f9b	-0.34020695
95	0xbae22c25	-0.0017255588
96	0xbee3c6f0	-0.44487715
97	0xbdbd8df4	-0.09255591
98	0xbe72167c	-0.2364139
99	0x3df6467e	0.12025164
100	0x3e17b64b	0.14815633
101	0xbe96c03e	-0.29443544
102	0xbe3d39ea	-0.18479124
103	0xbcafefb2	-0.0214766
104	0xbe5901cb	-0.2119209
105	0xbe95e539	-0.29276446
106	0x3e07da07	0.13266765
107	0xbeb22fd7	-0.34802124
108	0xbd2547d3	-0.0403517
109	0xbeb6d00d	-0.35705605
110	0xbe608582	-0.21925929
111	0xbd8ba6ad	-0.068189
112	0x3e2d550a	0.16926971
113	0xbdf4b8e4	-0.119493276
114	0xbdd8380d	-0.10557566
115	0xbe393cb4	-0.18089563
116	0x3e2795b7	0.16365705
117	0xbe5f4ab4	-0.2180584
118	0xbdfde421	-0.12397028
119	0xbe38255f	-0.17983006
120	0xbee88542	-0.45414168
121	0xbe0244d5	-0.1272157
122	0x3df1db36	0.11809389
123	0x3e3c17ac	0.18368405
124	0xbd9897e4	-0.07450846
125	0xbeb5a818	-0.35479808
126	0xbe5f505d	-0.21808
127	0xbe7cffe5	-0.24706991
128	0xbe49d80a	-0.19711319
129	0x3ee3f9ed	0.44526616
130	0xbe93b7bc	-0.28851116
131	0xbdb92b3e	-0.09041451
132	0xbd2ab6d7	-0.041678276
133	0xbded8ad9	-0.11598749
134	0x3d7ec0a6	0.062195443
135	0x3e746b7d	0.23869129
136	0x3e1b52ce	0.15168306
137	0x3c874658	0.016513035
138	0x3d8dca56	0.06923358
139	0xbe287fbb	-0.16454975
140	0xbe38eb13	-0.18058424
141	0xbe805a5f	-0.25068948
142	0xbc9edc7a	-0.01939224
143	0xbe28614a	-0.16443363
144	0xbe0f7a51	-0.14011504
145	0x3ed168fa	0.40900403
146	0xbdeebb64	-0.11656836
147	0x3d28485c	0.041084632
148	0xbcaf4ecb	-0.021399876
149	0x3c852791	0.016254218
150	0x3a4b6f5c	0.0007760429
151	0x3ebef57c	0.37296665
152	0x3d4dac44	0.050213113
153	0xbe93d2a9	-0.28871658
154	0x3df89780	0.12138271
155	0x3c4c7173	0.01247822
156	0x3da37554	0.07981363
157	0x3cedc47a	0.029024351
158	0xbe816e36	-0.25279397
159	0xbdc40e5b	-0.095730506
160	0x3dd3fc57	0.103508644
161	0x3cdd93b9	0.027047979
162	0x3e0fb224	0.14032799
163	0xbe0e39a8	-0.13889182
164	0xbe664fa2	-0.22491315
165	0xbe335dec	-0.17516297
166	0xbdf6ef44	-0.12057355
167	0x3d7289ce	0.059213452
168	0xbe5610ff	-0.20904921
169	0xbe35d69a	-0.17757645
170	0x3d752661	0.059851054
171	0x3c0dfeb8	0.008666687
172	0xbe9799ed	-0.29609624
173	0xbecb60af	-0.397222
174	0xbe67e8e2	-0.22647431
175	0xbec25afd	-0.37960044
176	0xbc014cc5	-0.007891838
177	0xbdd1a6f5	-0.10236923
178	0xbdf9a537	-0.12189715
179	0xbe4406d1	-0.19143225
180	0xbca8e6c4	-0.02061785
181	0xbeb994b7	-0.36246273
182	0xbc562cdc	-0.013072219
183	0x3c90be4c	0.017668866
184	0x3c57392a	0.013136188
185	0x3f072b63	0.5280058
186	0x3cbdde5b	0.023177316
187	0x3d79e2c0	0.06100726
188	0xbc04ab03	-0.008097413
189	0xbe73e7e7	-0.23818932
190	0x3bf4c0a9	0.007469256
191	0xbe186c7c	-0.14885134
192	0x3eaf8142	0.34278303
193	0xbec0b257	-0.37636063
194	0xbe7fea24	-0.24991661
195	0xbd018be4	-0.03162755
196	0x3e1359ec	0.14389771
197	0xbe45eadf	-0.19327877
198	0x3ddf6cd9	0.10909433
199	0xbe38e98a	-0.18057838
200	0xbedd7d27	-0.43259546
201	0xbcd43be5	-0.025907466
202	0xbe56e48f	-0.20985626
203	0x3dafdfef	0.08587634
204	0x3e7bf20b	0.24604051
205	0xbec0f33a	-0.37685567
206	0x3e2d1c97	0.16905437
207	0xbe5b3550	-0.21407056
208	0xbdb5f743	-0.08885052
209	0xbbba92e8	-0.005693782
210	0xbd177462	-0.036976226
211	0xbcb621c0	-0.02223289
212	0xbc3972a8	-0.01131884
213	0xbe27a448	-0.16371262
214	0xbda17265	-0.07883147
215	0x3d1b29fc	0.037881836
216	0xbdbe9222	-0.09305216
217	0xbe95a81a	-0.29229814
218	0xbe30eb80	-0.17277336
219	0x3dc61860	0.09672618
220	0xbe5f3394	-0.21797019
221	0x3cc12fe1	0.0235824
222	0x3ea823e2	0.32839876
223	0x3df57072	0.11984338
224	0xbe186b13	-0.14884596
225	0x3e796c46	0.2435771
226	0x3e7bb987	0.24582492
227	0xbd996091	-0.07489122
228	0x3e31751a	0.17329827
229	0x3dd0f7f1	0.10203541
230	0xbe0fb2ac	-0.14033002
231	0x3d3e6a9a	0.046488382
232	0x3e3c8190	0.18408799
233	0x3cfd48ab	0.03091844
234	0x3d3516d2	0.044211216
235	0xbcebe526	-0.02879579
236	0x3e4e63aa	0.20155206
237	0xbe131294	-0.14362556
238	0x3e1e8a61	0.15482475
239	0xbe280892	-0.1640952
240	0x3d7a544a	0.06111554
241	0xbba510b1	-0.00503739
242	0xbeed62b2	-0.4636436
243	0xbe45febe	-0.19335458
244	0xbcdbe702	-0.026843552
245	0x3d4455b1	0.047933284
246	0x3e44df73	0.19225864
247	0xbac9bb66	-0.0015390932
248	0x3e48e2c6	0.19617757
249	0xbd482161	-0.048859958
250	0xbd21c6d8	-0.039496273
251	0x3d0629e8	0.03275481
252	0xbeb710d1	-0.35755017
253	0x3ee3c644	0.44487202
254	0xbe832f33	-0.25621948
255	0xbe842b06	-0.25814074

graph_prop.node_update_funcs.0.weight_hh f4 [48, 16]
0	0x3e104392	0.14088276
1	0xbe141ec0	-0.14464855
2	0xbd00a9e9	-0.03141204
3	0xbed05e02	-0.40696722
4	0xbed33255	-0.41249338
5	0xbe85f7a7	-0.26165506
6	0x3db1ac00	0.086753845
7	0xbe543aee	-0.20725605
8	0xbe92e3c9	-0.2868941
9	0x3ea0c8ad	0.31403103
10	0x3e0159b4	0.12631875
11	0x3ec655f9	0.38737467
12	0xbd973028	-0.07382232
13	0x3da6bdf6	0.08141701
14	0x3e929f3c	0.2863711
15	0x3ce44ee9	0.027869659
16	0xbbf0fbef	-0.0073542516
17	0xbe284fef	-0.16436742
18	0xbcbe2a07	-0.0232134
19	0xbc428ba8	-0.011874117
20	0x3d5bbe1b	0.053648096
21	0x3e6d87a3	0.23196273
22	0x3ca1008a	0.019653577
23	0x3de1fb91	0.110343106
24	0x3e3c490d	0.18387242
25	0x3e4dba8d	0.20090695
26	0xbd8c7af7	-0.06859391
27	0x3f2501e0	0.64455986
28	0x3e1c9fa6	0.15295276
29	0x3e49e1ed	0.1971509
30	0xbf0444d5	-0.5166753
31	0xbe60d46c	-0.21956033
32	0xbe4bb83a	-0.19894496
33	0x3e0185d6	0.1264871
34	0x3dfa1be7	0.12212353
35	0x3ec377c9	0.38177326
36	0xbe8d6da6	-0.27622718
37	0xbdb2c40c	-0.08728799
38	0xbdacb6c9	-0.08433301
39	0xbd8c9832	-0.068649665
40	0xbe02a6ce	-0.12758943
41	0x3e6b7fa5	0.22997911
42	0xbc1f2eb8	-0.009715728
43	0x3d7d184f	0.06179076
44	0x3e2cde09	0.16881575
45	0xbd999ba0	-0.07500386
46	0xbe3bf190	-0.18353868
47	0xbe956ed9	-0.29186133
48	0x3ae94f9b	0.0017800214
49	0x3d9d03c4	0.07666734
50	0xbd010df2	-0.03150744
51	0xbe0c6351	-0.13709761
52	0x3cc52475	0.024065236
53	0xbaf8fae6	-0.0018995672
54	0x3c46b942	0.01212913
55	0xbd509075	-0.050919015
56	0xbccc3645	-0.024928221
57	0xbdd3f1d4	-0.103488594
58	0xbe2eadec	-0.17058533
59	0x3d850950	0.06495917
60	0x3eb0ab98	0.34505916
61	0x3e59deb3	0.2127636
62	0x3e100c92	0.14067295
63	0x3ea3c74b	0.31987986
64	0xba69b2c5	-0.00089148834
65	0x3e53adb5	0.20671733
66	0x3dee1f86	0.11627106
67	0x3e20f607	0.15718852
68	0xbe99697c	-0.2996329
69	0xbd89e51a	-0.06733151
70	0x3c5b4e97	0.0133854365
71	0xbe4dcc78	-0.2009753
72	0xbe6383ca	-0.22218242
73	0xbe69bbb2	-0.22825506
74	0x3d98cee9	0.0746134
75	0x3ed1ebb8	0.41000152
76	0x3d8eb9d8	0.06969041
77	0xbeda2d2f	-0.42612597
78	0xbf2e4110	-0.6806803
79	0x3e01700a	0.12640396
80	0xbcd82262	-0.026383583
81	0xbe6adc44	-0.22935587
82	0x3f075ab9	0.52872807
83	0x3e89303e	0.26794618
84	0xbe2b0b00	-0.16703415
85	0xbe30c3ba	-0.17262164
86	0xbe8c8d32	-0.27451473
87	0xbe049387	-0.12946902
88	0x3bec1ef9	0.0072058407
89	0x3de484eb	0.111581646
90	0xbee1be2b	-0.440904
91	0xbe1f1360	-0.15534735
92	0x3e84f562	0.25968462
93	0xbeba8a14	-0.3643347
94	0xbd9e4ca7	-0.07729464
95	0xbda65049	-0.08120782
96	0x3e13d4b0	0.14436603
97	0x3b33e025	0.0027446833
98	0xbe42dc88	-0.19029438
99	0xbef64b0c	-0.4810413
100	0x3c2e238d	0.010628593
101	0x3dc2888a	0.09498699
102	0x3e4eb78c	0.20187205
103	0x3e30244a	0.17201343
104	0xbe10c3ac	-0.14137143
105	0x3d8cc0f1	0.06872738
106	0x3d79797e	0.06090688
107	0x3e0ed5c4	0.13948733
108	0xbefa2f29	-0.48864105
109	0x3f0ad087	0.5422444
110	0x3ed5d0de	0.41760916
111	0xbea7b4ff	-0.32755277
112	0xbd8d5824	-0.06901577
113	0x3e9266c6	0.28594035
114	0xbe8c535b	-0.27407345
115	0x3d3ba99c	0.04581605
116	0x3df7f926	0.12108068
117	0x3e125c59	0.1429304
118	0x3d2ef97d	0.0427184
119	0xbcfe6acc	-0.031056784
120	0xbeb42585	-0.35184875
121	0xbdab65cf	-0.08369028
122	0xbdd74eb9	-0.10513062
123	0xbd17c244	-0.0370505
124	0xbda2db06	-0.07951932
125	0xbe9ab7e5	-0.30218425
126	0x3d76609a	0.06015072
127	0x3e9a3a7e	0.3012275
128	0xbebda2a4	-0.37038147
129	0x3dda44f5	0.10657684
130	0x3e1c461c	0.1526112
131	0x3e62c329	0.2214476
132	0xbe0fc604	-0.1404038
133	0xbe3cccef	-0.18437551
134	0xbec7d581	-0.39030078
135	0x3ebd3002	0.3695069
136	0xbd863df3	-0.065547846
137	0xbe040f56	-0.12896475
138	0x3e2dcd6c	0.16972893
139	0x3e3d8005	0.18505867
140	0x3cc0eec6	0.023551356
141	0x3d315db6	0.04330226
142	0xbe368da7	-0.17827474
143	0xbf2313b5	-0.63701946
144	0x3d8b0fef	0.067901485
145	0xbea64751	-0.32476285
146	0xbd41b1bc	-0.04728864
147	0x3d2b55c0	0.041829824
148	0x3e341e55	0.17589696
149	0xbe054827	-0.13015805
150	0x3d67c45e	0.056583755
151	0xbe208348	-0.1567508
152	0xbc90d14e	-0.01767793
153	0xbbb58075	-0.005538995
154	0x3e9516da	0.29118997
155	0xbeca621e	-0.39527982
156	0x3d8a2bd1	0.067466386
157	0x3db2aaa0	0.087239504
158	0x3e0a0ac1	0.13480665
159	0x3d594d6d	0.053052355
160	0x3e8bb6a8	0.27287793
161	0x3eacc5af	0.3374457
162	0x3e9445f8	0.28959632
163	0xbe91c643	-0.28471574
164	0xbdcfb1f0	-0.10141361
165	0x3e4c6b41	0.19962789
166	0x3ebcf83a	0.36908132
167	0xbda2d38f	-0.07950508
168	0x3e9c870f	0.30571792
169	0xbe5b32a1	-0.21406032
170	0x3e8d2ca6	0.27573127
171	0xbec4e556	-0.3845622
172	0xbed68f58	-0.41906238
173	0x3e1d3918	0.15353811
174	0xbda0586a	-0.07829364
175	0xbf03599b	-0.513086
176	0xbde60239	-0.11230893
177	0x3ded24e7	0.11579304
178	0xbe58f85e	-0.21188495
179	0x3e70b6df	0.2350726
180	0x3ead38c2	0.33832365
181	0xbd2d83e5	-0.042362113
182	0x3e831635	0.2560288
183	0xbd5614dc	-0.052265987
184	0xbeabe395	-0.3357207
185	0xbe3ae3e2	-0.18250993
186	0x3d97bdff	0.07409286
187	0x3d2b076b	0.04175512
188	0xbe81cd06	-0.25351733
189	0x3e1e7de7	0.15477715
190	0xbe40e87d	-0.18838687
191	0x3c513953	0.012770015
192	0xbefd6412	-0.4949041
193	0xbf15c5c7	-0.5850491
194	0xbd7091cd	-0.058732796
195	0xbbf777f6	-0.0075521423
196	0x3bbd8576	0.005783732
197	0x3e0b28a8	0.13589728
198	0xbe34eae6	-0.17667732
199	0xbe2b1ece	-0.1671097
200	0x3e5eeb0f	0.21769355
201	0x3e8ddae0	0.2770605
202	0xbeb8cd6d	-0.36094227
203	0x3d7ec12f	0.062195953
204	0x3ecf8623	0.40532026
205	0x3e928c64	0.28622735
206	0x3cec544a	0.028848786
207	0x3eede16f	0.46461055
208	0xbe7feb57	-0.24992119
209	0xbd3d88d2	-0.04627306
210	0xbe62dff6	-0.22155747
211	0x3e04784a	0.12936512
212	0x3e6b2d2c	0.2296645
213	0xbdcd6ad2	-0.1003014
214	0xbd46807d	-0.04846238
215	0x3cdb410f	0.02676442
216	0xbdf2b6c5	-0.11851267
217	0xbe9ad366	-0.3023941
218	0xbd88bb6d	-0.06676374
219	0x3d247c2d	0.040157486
220	0x3e4b6b85	0.19865234
221	0xbddac5da	-0.106822684
222	0x3e9e3921	0.3090296
223	0xbd7f6920	-0.062356114
224	0xbe8eb5a2	-0.2787295
225	0x3d8b2d13	0.067957066
226	0x3e14a0a5	0.14514406
227	0xbe935a02	-0.28779608
228	0xbea0863a	-0.31352407
229	0xbe30832b	-0.17237537
230	0xbd86c445	-0.06580404
231	0xbd3c9c13	-0.04604728
232	0x3ec540e0	0.38526058
233	0x3e73a056	0.23791632
234	0xbe97d0e8	-0.2965157
235	0xbe60aadf	-0.21940182
236	0x3ce9eaf2	0.028554413
237	0x3e5df136	0.21674046
238	0x3e2aee0a	0.16692367
239	0xbe474a42	-0.19461921
240	0x3e180e55	0.14849217
241	0xbe70d561	-0.23518898
242	0x3e3f1f12	0.18664196
243	0xbea71f88	-0.32641244
244	0xbeb78a83	-0.35847864
245	0x3c9e530a	0.019326705
246	0xbe3ce1f7	-0.18445574
247	0x3dba065d	0.09083245
248	0x3e0f4c58	0.13993967
249	0xbb6151a1	-0.003438093
250	0xbdde13b8	-0.10843605
251	0xbe4cc1b2	-0.19995764
252	0xbddb30e7	-0.10702687
253	0x3d9ef38f	0.07761299
254	0xbdf40f0b	-0.11916932
255	0xbc97649c	-0.018480591

graph_prop.node_update_funcs.0.bias_ih f4 [48]
0	0xbf6db48f	-0.92853636
1	0xbf870046	-1.0546958
2	0xbf19085a	-0.5977837
3	0xbf43dd91	-0.7650996
4	0xbee2c318	-0.4428947
5	0xbf0befe4	-0.5466292
6	0x3e4427c2	0.19155791
7	0x3ec0a4fa	0.37625867
8	0xbf0cf327	-0.5505852
9	0xbf1b3f49	-0.6064344
10	0x3e5f0768	0.21780169
11	0x3fa1cb1e	1.2640111
12	0xbf0c7681	-0.5486832
13	0x3df2a01b	0.11846944
14	0xbfa24e7a	-1.2680199
15	0xbf88e03f	-1.0693434
16	0xbfb92c34	-1.4466615
17	0xbf94eab2	-1.1634123
18	0xbf9be631	-1.2179624
19	0xbf77dcee	-0.96821487
20	0x3f69016e	0.91017807
21	0x3f954fba	1.1664956
22	0x3f1783b9	0.5918537
23	0x3ef68b7a	0.48153287
24	0x3f0db07e	0.5534743
25	0xbe1249d5	-0.14285977
26	0x3f53cfea	0.82739127
27	0x3eefdb68	0.4684708
28	0xbecad3aa	-0.39614612
29	0x3e2bb6f9	0.16769017
30	0xbed03e0a	-0.40672332
31	0xbfa80917	-1.3127774
32	0x3e461add	0.19346185
33	0x3fa65a16	1.2996242
34	0x3f3bd6d4	0.73374677
35	0xbf4801b2	-0.78127587
36	0xbf8f70d2	-1.1206305
37	0x3d57e532	0.052708812
38	0x3f49382b	0.7860133
39	0xbe32e625	-0.17470606
40	0xbf03da1d	-0.5150469
41	0x3fd46dbd	1.659599
42	0x3f86bc67	1.0526246
43	0x3fb84a71	1.4397718
44	0x3f4f3c81	0.80951697
45	0xbf44ebf6	-0.7692255
46	0x3f540052	0.8281299
47	0x3ee85efd	0.4538497

graph_prop.node_update_funcs.0.bias_hh f4 [48]
0	0xbd979ab7	-0.074025564
1	0x3e47f179	0.19525708
2	0xbfd558e2	-1.666775
3	0xbddb3cf8	-0.10704988
4	0xbf17d03f	-0.59302133
5	0xbdc5f2cb	-0.0966545
6	0x3eed7b7a	0.46383268
7	0xbd84e068	-0.064881146
8	0x3f64e65d	0.89414006
9	0xbf28c789	-0.65929466
10	0x3dde03a2	0.10840537
11	0xbd2e4b91	-0.042552534
12	0x3fbc88c9	1.4729244
13	0xbf967d02	-1.1756899
14	0x4014560c	2.317752
15	0xbf4e23c6	-0.80523336
16	0xbea6376b	-0.32464156
17	0xc011c577	-2.2776773
18	0xbf0599ff	-0.52188104
19	0xbe6f7059	-0.23382701
20	0x3f7dc0d0	0.99122334
21	0x3ed09e83	0.40745935
22	0xbea887b5	-0.32916036
23	0xbf8992d8	-1.0747938
24	0xbfa778bb	-1.3083719
25	0x3ffdb3f4	1.9820542
26	0x3f80b32a	1.0054677
27	0xbfd7d80b	-1.6862806
28	0xbe9708ba	-0.29498845
29	0xbf8b7e8b	-1.0897993
30	0x3f1d1e2a	0.6137415
31	0x3f1c4652	0.610448
32	0x3ef6524d	0.48109666
33	0x3f175d8f	0.59127134
34	0xbfcf0300	-1.617279
35	0xbec59cba	-0.38596135
36	0xbe7b14e8	-0.24519694
37	0xbf35c1eb	-0.7099902
38	0x3e651736	0.22372136
39	0xbf0659e5	-0.5248092
40	0xbf91c83a	-1.1389229
41	0x3f1164be	0.56794345
42	0x3de07169	0.10959131
43	0xbfba01b5	-1.4531771
44	0x3f897adb	1.0740618
45	0xbfc4e7da	-1.5383255
46	0xbf45f882	-0.7733232
47	0xbf8ed72a	-1.1159413

graph_prop.node_update_funcs.1.weight_ih f4 [48, 32]
0	0xbcb30342	-0.02185214
1	0x3b353987	0.0027652697
2	0x3a2e77ef	0.0006655445
3	0xbd6db289	-0.058031593
4	0x3e263eb5	0.16234858
5	0xbdd9e31f	-0.10639023
6	0x3e08bc8d	0.13353176
7	0xbe45cf47	-0.19317351
8	0x3e85e9bd	0.2615489
9	0xbc2ab11f	-0.0104182055
10	0x3e3d4ce2	0.1848636
11	0x3dc2b9ee	0.095081195
12	0xbdbee2d7	-0.0932061
13	0x3d835bfc	0.06414029
14	0x3e6b4c3a	0.22978297
15	0xbc4ed6d0	-0.0126244575
16	0xbe9d904d	-0.30774155
17	0x3e25d5f5	0.161949
18	0xbdcc55b9	-0.09977288
19	0xbe8ebeb0	-0.27879858
20	0x3e8b6b6e	0.272304
21	0xbc333cb7	-0.0109397685
22	0x3e94ef37	0.29088756
23	0xbe8c4483	-0.2739602
24	0xbdd1697e	-0.10225199
25	0xbcdb0938	-0.026737794
26	0x3cad8f61	0.021186532
27	0x3e135703	0.14388661
28	0x3c03add5	0.00803705
29	0xbed8b937	-0.42328808
30	0x3e77a4dc	0.24183983
31	0xbd73e8a7	-0.059548046
32	0xbe699e9b	-0.2281441
33	0xbe106994	-0.14102775
34	0x3e1353bc	0.14387411
35	0x3de179f3	0.11009588
36	0xbe2b1ba1	-0.16709758
37	0x3e448d55	0.19194539
38	0x3c4fb19c	0.012676623
39	0xbe991efd	-0.29906455
40	0xbe9da38d	-0.30788842
41	0xbe5be099	-0.21472396
42	0x3da4e708	0.08051878
43	0x3e28a81a	0.16470376
44	0xbdc84d36	-0.09780352
45	0xbe808969	-0.25104836
46	0x3e7da368	0.24769366
47	0xbdadb0c8	-0.08480984
48	0xbf03ffd0	-0.51562214
49	0x3e7c16a0	0.24618006
50	0x3dfc3051	0.12313903
51	0xbd2d8979	-0.042367432
52	0xbdee7959	-0.11644239
53	0x3e02caf9	0.1277274
54	0xbe991dc7	-0.2990553
55	0xbd2cd320	-0.042193532
56	0xbe16d333	-0.14729004
57	0xbdb6358c	-0.08896932
58	0xbe8027c8	-0.2503035
59	0x3d14ee80	0.036360264
60	0x3e25a9c3	0.1617804
61	0x3e139e8f	0.14415954
62	0xbe3a3df5	-0.18187697
63	0x3d83daa3	0.06438186
64	0x3e06256b	0.13100211
65	0x3d990322	0.07471301
66	0x3bf5ec0a	0.0075049447
67	0xbe61467a	-0.21999541
68	0x3e3b9e2d	0.18322058
69	0x3e8e8891	0.27838567
70	0xbe68704a	-0.22699085
71	0xbdb03c69	-0.08605272
72	0xbcbc6ccb	-0.023001095
73	0x3ea45b9b	0.3210114
74	0xbcb9076e	-0.02258655
75	0xbe924e4b	-0.28575358
76	0x3daadfd1	0.08343471
77	0xbdafc1fa	-0.0858192
78	0x3e81b72f	0.2533507
79	0x3e8fa32c	0.28054178
80	0xbe00c38c	-0.12574595
81	0x3e53a57c	0.20668596
82	0xbdab42f5	-0.083623804
83	0x3db5d34d	0.08878193
84	0xbda577c0	-0.08079481
85	0x3df590e3	0.119905256
86	0x3e179541	0.1480303
87	0xbcea01c6	-0.028565299
88	0x3e9d114e	0.30677265
89	0xbdad8fd6	-0.084747
90	0x3d510040	0.05102563
91	0xbddd1cce	-0.1079651
92	0xbe6e502c	-0.2327277
93	0xbe9a0d1c	-0.30088127
94	0xbcd04b1c	-0.02542644
95	0x3ea800e2	0.32813174
96	0x3e503c4b	0.203355
97	0xbdbab409	-0.0911637
98	0xbe1e214e	-0.15442392
99	0x3c9cb272	0.019128058
100	0x3ce0691d	0.027393872
101	0x3b604bda	0.0034224899
102	0x3dc70c02	0.09719087
103	0xbe433c2c	-0.19065922
104	0x3e5ba27b	0.214487
105	0x3ed38b9c	0.4131745
106	0xbe64694a	-0.2230579
107	0x3dd2425a	0.10266562
108	0x3e6deb28	0.23234236
109	0x3e050720	0.12990999
110	0xbec8c9d8	-0.39216495
111	0xbd7ecbbb	-0.06220601
112	0xbe4a0034	-0.1972664
113	0x3e62eafe	0.22159955
114	0xbde0b334	-0.1097168
115	0x3e03c1ac	0.12866849
116	0x3da81d8e	0.08208762
117	0x3e3c167c	0.18367952
118	0x3df3c59b	0.119029246
119	0xbd7efa98	-0.062250704
120	0x3db18aa4	0.08669022
121	0x3e376060	0.17907858
122	0x3cb93d41	0.022612216
123	0x3bf462f5	0.0074580857
124	0x3e0f60eb	0.14001815
125	0xbdb261a8	-0.08710033
126	0xbb375a32	-0.0027977345
127	0xbd892ef1	-0.066984065
128	0x3ed75327	0.42055628
129	0xbe157dd0	-0.14598775
130	0xbe4e426b	-0.20142524
131	0xbe84335a	-0.25820428
132	0xbdb5d5a0	-0.08878636
133	0x3d0246db	0.031805854
134	0x3dc10420	0.09424615
135	0xbebf7e87	-0.3740122
136	0x3d676f17	0.056502428
137	0x3d291062	0.04127539
138	0xbe7a1b5d	-0.24424501
139	0xbd90b26f	-0.070652835
140	0x3cec2cae	0.028829899
141	0x3dcf7a42	0.10130741
142	0x3d7400bf	0.059571024
143	0xbe6bde05	-0.23033912
144	0xbe42b313	-0.19013624
145	0x3da236c8	0.07920605
146	0x3d960f8a	0.073271826
147	0x3ead897a	0.3389395
148	0x3d79ffe8	0.061035067
149	0xbf493788	-0.7860036
150	0x3ba5ac13	0.0050559132
151	0x3e9e9735	0.30974737
152	0x3e1f02e3	0.15528445
153	0xbde2e422	-0.11078669
154	0x3cc3dc32	0.023908708
155	0x3e64f906	0.2236062
156	0x3e469525	0.19392832
157	0xbe93cddf	-0.28868005
158	0x3e868c4e	0.2627892
159	0x3e4cc0fb	0.19995491
160	0xbd4cb2e2	-0.049975283
161	0xbdce9002	-0.10086061
162	0x3ea259d0	0.31709146
163	0xbe6d9b88	-0.23203862
164	0xbe0ff9df	-0.14060162
165	0xbe6703f0	-0.22560096
166	0x3d8afdb4	0.06786671
167	0xbe18c0f3	-0.14917354
168	0x3e5421a2	0.20715955
169	0xbed3aa22	-0.4134074
170	0xbe1fafd6	-0.1559442
171	0x3d092e80	0.03349161
172	0x3dfbf868	0.12303239
173	0xbdae0d56	-0.084986374
174	0x3e4b0fe5	0.19830282
175	0x3d88814e	0.06665288
176	0x3d3f5aef	0.04671758
177	0xbeadaa53	-0.3391901
178	0x3bdd8ac1	0.0067609255
179	0xbda0c078	-0.078492105
180	0xbea0f3ba	-0.3143595
181	0x3e34d606	0.17659768
182	0xbe670ecb	-0.22564237
183	0xbd846fbc	-0.06466624
184	0xbdf58c83	-0.11989691
185	0x3e0af379	0.1356944
186	0xbd98ffaa	-0.07470639
187	0x3d87f65e	0.06638788
188	0xbdaeb93f	-0.08531427
189	0x3e9726c0	0.2952175
190	0xbd343953	-0.04399998
191	0xbde38b66	-0.111105725
192	0xbe432a25	-0.19059046
193	0xbd6c3a0d	-0.05767255
194	0x3eb996ca	0.36247855
195	0x3ed50e0b	0.41612276
196	0xbe0ea8d3	-0.13931589
197	0xbedcf454	-0.43155158
198	0xbdadc549	-0.08484895
199	0xbd877ccc	-0.066156
200	0x3bb0620c	0.005382782
201	0xbf08d939	-0.53456455
202	0x3cde0417	0.02710156
203	0xbe775e95	-0.24157174
204	0xbdd720cf	-0.105043046
205	0xbc417b40	-0.01180917
206	0xbe8ed89a	-0.2789963
207	0xbd037bb4	-0.032100394
208	0x3d43d385	0.047809143
209	0x3c4a823e	0.012360154
210	0xbdf9b9cd	-0.12193642
211	0xbdac2a00	-0.08406448
212	0xbe8e4947	-0.2779028
213	0x3da888b2	0.082291976
214	0xbdbb6e25	-0.09151868
215	0xbd0a6202	-0.033784874
216	0x3e6eff72	0.23339632
217	0x3dd9ceac	0.10635123
218	0x3daf7750	0.08567679
219	0xbdeff29c	-0.11716196
220	0xbeefa04d	-0.46801987
221	0xbe45db69	-0.1932198
222	0xbeb7535e	-0.35805792
223	0xbe7c764a	-0.24654499
224	0xbd5b1855	-0.05349
225	0xbe5c8528	-0.2153517
226	0x3ea36b6f	0.31917903
227	0xbcc5c3a2	-0.024141137
228	0xbdd12c26	-0.10213499
229	0x3e50fa85	0.20408066
230	0x3da0b793	0.07847514
231	0x3e68084b	0.22659414
232	0x3d51b9d1	0.0512026
233	0xbda2d564	-0.07950857
234	0x3dfaa208	0.12237936
235	0xbdc1a335	-0.094549574
236	0xbc8f477b	-0.01749014
237	0xbc0f1820	-0.008733779
238	0xbe8a4556	-0.27006024
239	0x3e354471	0.1770189
240	0x3d812bfd	0.06307218
241	0xbe38368e	-0.17989561
242	0xbe359a8a	-0.17734733
243	0x3ddca252	0.10773148
244	0xbe6d5613	-0.23177366
245	0xbd983af8	-0.074331224
246	0xbe843d81	-0.25828174
247	0x3e3a14a1	0.18171932
248	0x3d92b12a	0.071626976
249	0xbdb900f6	-0.090333864
250	0xbd69eb02	-0.057108887
251	0xbd9f96a2	-0.07792403
252	0x3d2efebb	0.0427234
253	0xbd476574	-0.048680738
254	0x3e1be2a0	0.1522317
255	0xbe42b2c5	-0.19013508
